results/Test_citation/version_137/checkpoints/epoch=499-step=500.ckpt (torch, 162833 bytes, 27 tensors)

simplicial_nn.0.W0 f4 [1, 64]
0	0x3e7e20d6	0.24817213
1	0xbe1d81b4	-0.15381509
2	0x3e0628a6	0.13101444
3	0xbc3456e0	-0.011007041
4	0x3d68cba8	0.056834847
5	0x3ed69307	0.41909048
6	0xbdf922e0	-0.12164855
7	0xbe907eb7	-0.28221676
8	0xbdbbc104	-0.09167674
9	0x3e709632	0.23494795
10	0x3ea593fd	0.3233947
11	0xbd5d40c8	-0.05401686
12	0x3ec58a01	0.3858185
13	0xbe6bc63a	-0.23024836
14	0xbe255e50	-0.16149259
15	0x3edb3197	0.42811272
16	0x3e948ab3	0.2901207
17	0x3dc2e9bc	0.095172375
18	0xbd7f6bb8	-0.062358588
19	0x3c82a840	0.015949368
20	0xbe6c6a44	-0.23087412
21	0x3e461fea	0.19348112
22	0xbe956435	-0.29178014
23	0xbda5b72c	-0.08091578
24	0xbe1cf7ac	-0.15328854
25	0x3ea890e3	0.3292304
26	0xbd61f120	-0.055161595
27	0x3ea13677	0.31486866
28	0x3eda5e23	0.42649946
29	0x3edb5ba5	0.42843357
30	0xbeceec17	-0.40414497
31	0x3e9d67cd	0.30743256
32	0xbd628150	-0.055299103
33	0x3e1807d6	0.14846739
34	0x3ec9333d	0.39296904
35	0xbd292410	-0.041294158
36	0x3dd55fe4	0.1041868
37	0xbeb18bd1	-0.34676984
38	0xbe72c65d	-0.23708482
39	0xbd62a5e8	-0.055334
40	0xbe8cf815	-0.27533022
41	0xbdd3c5e8	-0.10340482
42	0x3a9f4800	0.0012152195
43	0xbecc1172	-0.3985706
44	0xbe9775bc	-0.29582012
45	0x3db794ec	0.089639515
46	0x3e5223a2	0.20521405
47	0x3d3ac110	0.045594275
48	0xbd9b79fc	-0.07591626
49	0x3e6fc466	0.23414764
50	0xbec4d099	-0.38440397
51	0x3ec5cceb	0.38632903
52	0xbc87b8a0	-0.016567528
53	0xbe83b2da	-0.2572239
54	0xbe40bcfa	-0.18822089
55	0xbe5e280a	-0.21694961
56	0xbdd4adb0	-0.10384691
57	0xbe54fab4	-0.2079876
58	0x3e9cb96d	0.3061022
59	0x3d023410	0.031787932
60	0x3e1ae57a	0.15126601
61	0xbe01a2c2	-0.12659743
62	0xbd24ff88	-0.040282756
63	0x3e9516a3	0.29118833

simplicial_nn.0.W1 f4 [1, 64]
0	0x3ecb2a57	0.3968074
1	0x3ed63fc3	0.4184552
2	0x3ed49319	0.41518477
3	0x3e3fe42e	0.18739387
4	0x3ca08190	0.01959303
5	0xbeac5270	-0.33656645
6	0x3d040fc0	0.032241583
7	0xbdaf4520	-0.085581064
8	0xbe8c07d8	-0.27349734
9	0xbea35caf	-0.3190665
10	0xba9deb00	-0.0012048185
11	0xbe3cdbbb	-0.18443196
12	0xbdaf4554	-0.08558145
13	0xbd927210	-0.07150662
14	0x3e98e917	0.29865333
15	0x3e2cd44e	0.16877863
16	0xbc849f80	-0.016189337
17	0xbd095728	-0.033530384
18	0x3e906263	0.28200063
19	0xbe3e65e3	-0.18593554
20	0xbe098fca	-0.13433757
21	0x3de8b9ac	0.11363539
22	0xbe1be1fc	-0.15222925
23	0x3ea2ab6b	0.31771407
24	0x3e1d829e	0.15381858
25	0xbec44cd4	-0.38339865
26	0x3e580bee	0.21098301
27	0x3df09cd4	0.117486626
28	0xbd814994	-0.06312862
29	0xbe9853bc	-0.29751384
30	0xbcf1b350	-0.029504448
31	0x3d1966a0	0.037451386
32	0xbd741e60	-0.05959928
33	0x3e98f0fb	0.29871354
34	0xbeabd4e2	-0.33560854
35	0xbb7c5880	-0.0038504899
36	0x3e0172f6	0.1264151
37	0x3bafcb00	0.0053647757
38	0xbed6bbd6	-0.41940182
39	0x3df8d7a4	0.12150505
40	0x3d450eb0	0.04810971
41	0x3ea7b459	0.32754782
42	0xbd8fc458	-0.070198715
43	0x3e41c7d6	0.18923888
44	0xbed8bee9	-0.42333153
45	0xbdf795a0	-0.120890856
46	0x3e7d43fe	0.24732968
47	0x3eca9caf	0.39572665
48	0x3e5fe37e	0.21864125
49	0xbe73a5af	-0.23793672
50	0xbe42d572	-0.19026735
51	0x3ec39f71	0.38207582
52	0x3d334e20	0.043775678
53	0xbc681f40	-0.014167607
54	0x3ecc1415	0.3985907
55	0xbec227a2	-0.37920862
56	0xbed39b4e	-0.41329426
57	0x3ebfa9cf	0.3743424
58	0x3d156dd0	0.03648168
59	0x3e1c4b7e	0.15263173
60	0x3e9530e1	0.29138854
61	0xbc46cd40	-0.012133896
62	0x3da0dc14	0.078544766
63	0x3e93cb73	0.28866157

simplicial_nn.0.W2 f4 [1, 64]
0	0xbe7a9d2c	-0.24474019
1	0x3ec6a2bd	0.38796034
2	0x3e021352	0.12702683
3	0x3cec9d20	0.028883517
4	0x3e97e055	0.2966334
5	0x3e70ebc6	0.2352744
6	0x3e6b7c02	0.22996524
7	0xbbd28a00	-0.0064251423
8	0xbeb47d44	-0.3525182
9	0x3ed45a27	0.4147503
10	0xbc43de60	-0.011954874
11	0xbe1f459c	-0.15553898
12	0x3c755f00	0.014976263
13	0xbeae5fd8	-0.34057498
14	0x3eaac835	0.3335587
15	0x3e8b9533	0.27262267
16	0xbe4c73b1	-0.19966008
17	0xbe0fc36e	-0.14039394
18	0xbe8b9634	-0.27263033
19	0xbe8e1aa0	-0.27754688
20	0x3c56eb20	0.013117582
21	0x3e1de8fa	0.15420905
22	0x3ded7e54	0.11596361
23	0x3eba5e8f	0.36400267
24	0xbe714a03	-0.2356339
25	0x3eb660d3	0.35620746
26	0x3e3eef6a	0.18646017
27	0xbe9c8cf1	-0.3057628
28	0x3ce99f40	0.02851832
29	0x3ec8ac61	0.39194015
30	0xbe67d998	-0.22641599
31	0x3df44a14	0.11928192
32	0x3e92c18b	0.28663287
33	0x3ea8361b	0.3285378
34	0xbe1d98c8	-0.15390313
35	0x3ea21d55	0.31663004
36	0x3e8138c7	0.2523863
37	0x3d2827a0	0.041053414
38	0xbe1aeb54	-0.15128833
39	0x3de6fb0c	0.11278352
40	0xbe4d794b	-0.20065801
41	0x3dde9ecc	0.10870132
42	0x3c9b0130	0.018921465
43	0xbc7d73a0	-0.015469462
44	0xbed39129	-0.41321686
45	0x3d4f4968	0.050607115
46	0x3dbfd51c	0.09366819
47	0x3d206958	0.039162964
48	0xbc64f6c0	-0.013974845
49	0xbd666128	-0.056245
50	0x3eafb695	0.34318987
51	0xbeaa6dfb	-0.33287033
52	0xbe7222d5	-0.236461
53	0xbeb6fcf2	-0.35739857
54	0xbe69c0d3	-0.22827463
55	0x3e0377ae	0.12838623
56	0xbedba3a3	-0.42898282
57	0xbd6161c8	-0.055024892
58	0x3e8b08cb	0.27155146
59	0xbed24df6	-0.41075104
60	0x3ec4c6e1	0.38432983
61	0x3ecdfcd3	0.40231952
62	0xbe3a9af1	-0.18223168
63	0x3ebe82c7	0.3720915

simplicial_nn.2.W0 f4 [64, 64]
0	0x3de5514c	0.11197147
1	0xbe565cde	-0.20933864
2	0x3cdf3d70	0.027250975
3	0x3e03c188	0.12866795
4	0x3e95d10d	0.29261056
5	0xbe5cb96f	-0.21555112
6	0x3e3c7cfa	0.1840705
7	0xbe3514b8	-0.17683685
8	0x3cf6a3f0	0.030107468
9	0xbe26fdfd	-0.16307826
10	0x3e0ffbd4	0.14060909
11	0xbd36d8a8	-0.044640213
12	0xbe1e4cd9	-0.15459003
13	0xbe998f82	-0.299923
14	0xbd003908	-0.03130439
15	0x3e29073c	0.16506666
16	0x3dec3364	0.115332395
17	0x3e4bcef6	0.19903168
18	0x3e63fbaa	0.22263971
19	0xbe5bff2b	-0.21484058
20	0xbd2d2be0	-0.04227817
21	0xbdd3fd8e	-0.10351096
22	0x3ac0fe00	0.0014724135
23	0xbd363be8	-0.044490725
24	0xbe78aab8	-0.24283874
25	0x3e2cfbf0	0.16892982
26	0xbdbc9714	-0.09208503
27	0xbd362fc8	-0.04447916
28	0xbe135458	-0.14387643
29	0x3e0a1bdc	0.1348719
30	0x3e064472	0.13112047
31	0xbe06894d	-0.13138314
32	0x3e4281e2	0.18994859
33	0x3da02890	0.07820237
34	0x3e18bf3a	0.14916697
35	0xbd0cb940	-0.034356356
36	0x3d288930	0.041146457
37	0xbe48a1fa	-0.19593039
38	0xbe0ea018	-0.13928258
39	0x3e38cb0c	0.18046206
40	0xbe39ac61	-0.18132164
41	0x3e10d486	0.14143571
42	0xbe88651d	-0.26639643
43	0xbe5d5def	-0.21617864
44	0x3e17217e	0.1475887
45	0x3e7136da	0.2355608
46	0x3d487380	0.048938274
47	0xbe1a3872	-0.15060595
48	0xbe835c7c	-0.25656497
49	0x3e3c23be	0.1837301
50	0xbe76023e	-0.24024293
51	0xbd331500	-0.0437212
52	0xbe60b83e	-0.21945283
53	0xba6c4000	-0.0009012222
54	0x3d8e4348	0.06946427
55	0x3e554d06	0.20830163
56	0x3e3cf7b4	0.18453866
57	0xbe8207c6	-0.25396556
58	0x3e0c96ae	0.13729355
59	0xbe785397	-0.24250637
60	0x3b836bc0	0.0040106475
61	0xbe2cc9f3	-0.16873913
62	0xbe92f51f	-0.28702638
63	0x3ca8f870	0.020626277
64	0xbd7a0ea0	-0.061049104
65	0xbe010907	-0.126011
66	0x3e385a72	0.18003252
67	0xbc808b00	-0.01569128
68	0xbe3e0e24	-0.18560082
69	0x3e8d90b1	0.27649453
70	0x3e821a2d	0.25410596
71	0x3e1a1e12	0.15050533
72	0xbdcd1366	-0.100134656
73	0xbde7b462	-0.11313702
74	0x3e0140a4	0.12622315
75	0x3e84ce85	0.25938812
76	0x3e5ddb02	0.21665576
77	0xbde3fa46	-0.1113172
78	0x3e864457	0.26224014
79	0xbe098836	-0.13430867
80	0xbe104981	-0.1409054
81	0x3e0e0fdc	0.13873237
82	0x3e4628ae	0.19351456
83	0x3d262d90	0.040570796
84	0xbe218355	-0.15772755
85	0xbe668d06	-0.22514734
86	0xbe96a4bc	-0.29422557
87	0xbe080aa3	-0.13285308
88	0xbdad1386	-0.084509894
89	0x3e1e1e10	0.15441155
90	0x3e9b61cb	0.30348048
91	0x3e19061e	0.1494374
92	0xbe6f56a1	-0.2337289
93	0xbe71f019	-0.23626746
94	0x3e4bbf8a	0.19897285
95	0xbe5abfee	-0.21362278
96	0x3e97c277	0.29640552
97	0xbe389ccd	-0.18028565
98	0xbdc94226	-0.0982707
99	0xbd2d0dc0	-0.04224944
100	0x3e931e0d	0.28733864
101	0x3b702c00	0.003664732
102	0x3dc64f80	0.09683132
103	0x3e1cc6b4	0.15310174
104	0xbdfe9726	-0.12431173
105	0xbcc8e090	-0.024521142
106	0x3e7cbbce	0.24681017
107	0x3c21bd60	0.009871811
108	0x3e9065cd	0.28202668
109	0xbe2355bd	-0.15950675
110	0xbe9c2f62	-0.305049
111	0xbd529948	-0.05141571
112	0xbe2160a3	-0.1575952
113	0x3dcf88cc	0.10133514
114	0x3e07452c	0.1320998
115	0x3e868deb	0.2628015
116	0x3e6c3a76	0.23069176
117	0xbe812663	-0.252246
118	0x3e81b08b	0.25330004
119	0xbe933d2a	-0.28757602
120	0xbe47d1bb	-0.195136
121	0xbd860d06	-0.06545453
122	0x3e9168b9	0.2840021
123	0xbd4349c8	-0.047677785
124	0x3e8da7eb	0.27667174
125	0x3e6c43a2	0.23072675
126	0xbe844ce2	-0.25839907
127	0xbe940258	-0.28908038
128	0xbe8ea501	-0.27860263
129	0xbd98a52c	-0.07453379
130	0xbe3d9e22	-0.18517354
131	0x3e528136	0.20557103
132	0x3de7a4ec	0.11310753
133	0xbe37fe35	-0.17968066
134	0xbe216c68	-0.1576401
135	0xbe8336a7	-0.25627634
136	0x3cf89c50	0.030347973
137	0xbda4d1a6	-0.080478
138	0xbe67a257	-0.22620521
139	0x3e258132	0.16162565
140	0x3e2f5a12	0.17124203
141	0xbe98a37e	-0.29812235
142	0xbcc7c8f0	-0.024387807
143	0xbe8b6d27	-0.27231714
144	0xbcb6adc0	-0.022299647
145	0x3e955a07	0.29170248
146	0x3e33976c	0.17538232
147	0xbe79ff00	-0.24413681
148	0xbe54bfeb	-0.20776336
149	0xbd34abe0	-0.044109225
150	0xbcf64ec0	-0.030066848
151	0x3d6e77c8	0.0582197
152	0x3e7f95c2	0.24959472
153	0xbd6ccf00	-0.057814598
154	0xbe33bcee	-0.1755254
155	0x3dd3f7fc	0.10350034
156	0x3dfc10b4	0.12307873
157	0xbe67cdc3	-0.22637086
158	0xbe808fb7	-0.25109646
159	0xbc04e740	-0.008111775
160	0x3e94933f	0.2901859
161	0xbe1094ae	-0.14119217
162	0xbe0ad3b7	-0.13557325
163	0xbe786e1d	-0.24260755
164	0xbcd0ac00	-0.025472641
165	0x3de4fb94	0.11180797
166	0x3e80f5df	0.25187585
167	0x3d763a98	0.060114473
168	0xbd3ece48	-0.046583444
169	0xbdb0a478	-0.0862512
170	0x3c0fd580	0.00877893
171	0xbe7a2b36	-0.24430546
172	0xbe5e1bec	-0.21690339
173	0xba2c4e00	-0.0006572902
174	0x3e6222de	0.22083613
175	0x3e905149	0.28187016
176	0x3e57b27e	0.21064183
177	0x3e4c404a	0.199464
178	0xbe8660e7	-0.26245806
179	0xbe72b506	-0.23701867
180	0xbe2baa89	-0.16764273
181	0xbe3c3e44	-0.18383127
182	0x3d8a6b34	0.067587286
183	0x3e55ceb2	0.20879629
184	0xbe475bb4	-0.19468576
185	0xbe9c7c1d	-0.3056344
186	0xbd0a4130	-0.033753574
187	0xbdda8938	-0.10670704
188	0xbe8550c2	-0.26038176
189	0xbe395ed1	-0.18102576
190	0x3dc6aa04	0.09700397
191	0xbe7d4760	-0.24734259
192	0xbdb4271c	-0.08796522
193	0xbd3df150	-0.04637271
194	0x39e7cc00	0.00044211745
195	0xbd9ac1f0	-0.07556522
196	0xbe06d381	-0.1316662
197	0x3e319b36	0.17344365
198	0x3e110800	0.14163208
199	0x3e36a410	0.17836022
200	0x3e8214c1	0.2540646
201	0xbdbb02f0	-0.0913142
202	0x3e94aeeb	0.29039702
203	0xbe6c0209	-0.23047651
204	0xbe865301	-0.26235202
205	0xbe95c570	-0.29252195
206	0x3e77f57e	0.24214742
207	0x3dd49e50	0.10381758
208	0x3e8efd41	0.27927592
209	0xbde0964a	-0.10966165
210	0x3e7ebd86	0.24876985
211	0xbe00c416	-0.12574801
212	0xbe11f0bd	-0.1425199
213	0x3e1d9abc	0.15391058
214	0xbe7a8af6	-0.24467072
215	0x3e08abd0	0.13346791
216	0x3dcc61f0	0.099796176
217	0xbe54dd58	-0.20787561
218	0xbce1a020	-0.027542174
219	0xbe0436de	-0.12911555
220	0x3e4d44da	0.20045796
221	0xbe5bc794	-0.21462852
222	0xbdbc24fe	-0.09186743
223	0xbe55a560	-0.20863867
224	0x3e6721fa	0.22571555
225	0x3e97298b	0.29523882
226	0x3bbedac0	0.005824417
227	0x3e0b103e	0.13580415
228	0xbe0518d3	-0.12997751
229	0x3d8df19c	0.06930849
230	0xbe4f9320	-0.20270967
231	0x3d1b7cc0	0.037960768
232	0x3e835405	0.2565004
233	0xbe731f3b	-0.23742382
234	0xbcdb2c80	-0.026754618
235	0x3daf8d80	0.08571911
236	0xbdb1ef04	-0.08688167
237	0x3e6c9c9e	0.2310662
238	0x3cc404b0	0.023928016
239	0x3e45873e	0.19289872
240	0x3d56b9c8	0.05242327
241	0xbe7ef3fc	-0.2489776
242	0x3de419d4	0.11137739
243	0xbe90be19	-0.28270033
244	0xbe3885c0	-0.18019772
245	0x3df4a498	0.11945456
246	0x3e7e582a	0.2483832
247	0xbe196f4d	-0.14983864
248	0x3a895d00	0.0010479987
249	0xbdef314e	-0.11679326
250	0x3e9119c9	0.28339985
251	0xbdf1ca08	-0.118061125
252	0xbe8dd03a	-0.27697927
253	0x3df3904c	0.11892757
254	0xbe9ba942	-0.3040257
255	0xbe9053f2	-0.28189045

simplicial_nn.2.W1 f4 [64, 64]
0	0x3c8bb460	0.017053783
1	0x3d6b33c8	0.05742243
2	0xbd351338	-0.04420778
3	0xbba72d40	-0.00510183
4	0xbe77859d	-0.24172063
5	0x3e2b3124	0.16717964
6	0xbd94a4ce	-0.072579965
7	0x3e6b59c2	0.22983459
8	0x3e8c7c5b	0.27438626
9	0xbe921f21	-0.28539374
10	0xbe639f1b	-0.22228663
11	0x3e3a621a	0.18201485
12	0x3e2f4e98	0.17119825
13	0x3e19ce78	0.15020168
14	0xbe940712	-0.28911644
15	0xbe63f7b8	-0.22262466
16	0xbc6c5ea0	-0.014426857
17	0x3da7398c	0.08165273
18	0xbe3618b3	-0.1778286
19	0xbe649a2e	-0.2232444
20	0xbd03a278	-0.032137364
21	0xbe1cb6b6	-0.15304074
22	0xbe4e66a5	-0.20156343
23	0xbe517f64	-0.20458752
24	0xbdf362d0	-0.11884081
25	0x3dc321c4	0.09527925
26	0xbc9602a0	-0.018311799
27	0x3e10610c	0.1409952
28	0x3e6f360a	0.23360458
29	0x3df1d99c	0.11809084
30	0xbd35a6f0	-0.044348657
31	0x3e988ef1	0.29796556
32	0x3cb157c0	0.021648288
33	0x3d57c148	0.05267456
34	0xbe98bd7c	-0.29832065
35	0xbe1027d5	-0.14077695
36	0xbe3341b3	-0.17505531
37	0x3e5db3ba	0.21650591
38	0x3e6b2962	0.22965005
39	0xbe7e73e5	-0.24848898
40	0x3e7a80c2	0.2446318
41	0x3dd6bb20	0.1048491
42	0xbe299a16	-0.16562685
43	0xbe7401e5	-0.23828848
44	0xbe996c4c	-0.29965436
45	0xbe5c03de	-0.2148585
46	0x3d966090	0.073426366
47	0x3e0c7e94	0.1372016
48	0x3e12c456	0.14332709
49	0xbe3cf6fc	-0.18453592
50	0x3e717b96	0.235823
51	0xbe914720	-0.28374577
52	0x3e06167e	0.13094518
53	0x3e9912f1	0.29897264
54	0xbbb78140	-0.0056001246
55	0xbdc55d60	-0.096369505
56	0x3e81233f	0.25222203
57	0xbe83e7c3	-0.25762758
58	0x3e2a2294	0.16614753
59	0xbe300889	-0.17190756
60	0xbe8678a6	-0.26263922
61	0xbda73f62	-0.08166386
62	0xbcfcace0	-0.030844152
63	0x3e8915dd	0.26774493
64	0x3d79fff0	0.061035097
65	0x3cdb7dd0	0.02679339
66	0x3e704d12	0.234669
67	0xbe2896ce	-0.16463777
68	0xbd8e0dd6	-0.06936233
69	0xbe300ea4	-0.17193085
70	0xbdf2b0ce	-0.11850129
71	0x3e85837f	0.26076886
72	0x3d7a58c8	0.061119825
73	0xbda77eb8	-0.081784666
74	0x3e644d26	0.22295055
75	0xbd590348	-0.052981645
76	0xbe04c4c9	-0.12965693
77	0x3e8bd411	0.2731023
78	0xbd8bb58e	-0.06821738
79	0xbccb5ec0	-0.024825454
80	0xbe980f93	-0.29699382
81	0xbe15d5da	-0.14632359
82	0xbc0548c0	-0.008135021
83	0x3e2c4bfa	0.16825858
84	0x3e03f1da	0.12885228
85	0xbe88783c	-0.26654232
86	0x3d66b820	0.05632794
87	0x3d864440	0.065559864
88	0xbdb3a84a	-0.08772333
89	0x3d0d7168	0.03453198
90	0x3da49908	0.08037001
91	0x3dc16538	0.09443134
92	0x3ca030c0	0.019554496
93	0x3e3ee4d6	0.18641981
94	0x3e8c7cd7	0.27438995
95	0xbe5510d9	-0.20807208
96	0xbe2278bb	-0.15866368
97	0xbdbdb046	-0.09262137
98	0xbe0d7e91	-0.13817813
99	0x3e47f042	0.19525245
100	0xbe2356c1	-0.15951063
101	0x3e536ac6	0.206462
102	0xbd8b3e46	-0.06798987
103	0x3dea1e38	0.11431545
104	0xbe90f6fa	-0.28313428
105	0xbe229ae6	-0.15879402
106	0xbe501cc0	-0.20323467
107	0xbd14f708	-0.0363684
108	0xbdf0c732	-0.117567435
109	0xbd43b700	-0.047781944
110	0xbdbcb7a6	-0.09214716
111	0xbe178c3c	-0.14799589
112	0x3e2acce8	0.16679728
113	0xbe42011e	-0.18945739
114	0x3e2d6732	0.16933897
115	0xbe90d4dc	-0.282874
116	0xbe601440	-0.21882725
117	0x3e8f8823	0.28033552
118	0x3e18db10	0.14927316
119	0x3e81656d	0.25272694
120	0x3d032a98	0.032023042
121	0x3e7f2b3a	0.24918833
122	0x3e88cbe5	0.2671806
123	0x3e72ee22	0.23723653
124	0xbdc4e792	-0.09614481
125	0x3d6f0758	0.058356613
126	0xbe828a0d	-0.2549595
127	0x3e9a75ff	0.3016815
128	0x3dd45124	0.10367039
129	0x3e5ce75e	0.21572635
130	0xbd9ecd1c	-0.07753965
131	0xbd2bb030	-0.041916072
132	0xbe96b9b7	-0.29438564
133	0x3c88e230	0.016709417
134	0xbe52de4a	-0.20592609
135	0xbdfa7b1c	-0.122305125
136	0xbe706c10	-0.23478723
137	0xbdac0bc8	-0.084006846
138	0x3ce5ce90	0.028052598
139	0x3d0f35d8	0.03496346
140	0xbe3f0000	-0.18652344
141	0xbd949fa8	-0.072570145
142	0xbe62d9da	-0.22153416
143	0x3d07f3c8	0.033191472
144	0xbe0e7967	-0.13913499
145	0x3e868bb5	0.26278463
146	0xbde56c74	-0.112023264
147	0xbdcfb632	-0.10142173
148	0x3e750d3a	0.23930827
149	0xbe3142d1	-0.17310645
150	0x3c564bc0	0.013079584
151	0x3e6d385e	0.23166034
152	0xbe0486fa	-0.12942114
153	0xbe849f5b	-0.2590283
154	0xbdac8022	-0.08422877
155	0x3e7f31ba	0.24921313
156	0xbdcbc0f8	-0.09948915
157	0xbb0ed380	-0.0021793544
158	0xbce59630	-0.028025717
159	0xbde7531e	-0.1129515
160	0x3bdf6c40	0.0068183243
161	0x3e0892b4	0.13337213
162	0x3e850567	0.25980684
163	0x3de6156c	0.11234555
164	0x3ca1d130	0.019753069
165	0x3d311c78	0.04324004
166	0xbd84b2ca	-0.06479414
167	0xbe66839e	-0.22511145
168	0xbe978c25	-0.2959911
169	0x3e8f93ab	0.2804235
170	0xbd8d2212	-0.06891264
171	0xbe763c21	-0.24046375
172	0xbe0cfb4a	-0.13767734
173	0x3e6602fe	0.22462079
174	0xbd675224	-0.05647482
175	0x3e00baa4	0.12571198
176	0xbc7c2860	-0.0153904855
177	0x3e4ace5e	0.19805285
178	0xbe9072ff	-0.28212735
179	0x3c9bb970	0.019009322
180	0x3e3c79fe	0.18405911
181	0xbe2bdeb9	-0.1678418
182	0x3e3bc7d2	0.18337944
183	0xbe0540e6	-0.13013038
184	0xbe001a67	-0.12510072
185	0xbde0ea60	-0.109822035
186	0xbda20284	-0.07910636
187	0xbabdd500	-0.0014483035
188	0x3b0b2900	0.0021234155
189	0xbd90a9a6	-0.07063608
190	0x3e793f72	0.24340609
191	0x3e1e0d88	0.1543485
192	0x3e255666	0.1614624
193	0xbe891ab4	-0.26778185
194	0xbe8b4415	-0.2720038
195	0xbe1e7234	-0.15473253
196	0x3d31d7a0	0.043418527
197	0x3d996748	0.074904025
198	0x3d9f9e64	0.077938825
199	0xbe365b62	-0.17808297
200	0xbd52e780	-0.051490307
201	0x3e928461	0.28616622
202	0xbdab2dee	-0.0835837
203	0xbe422ac2	-0.18961623
204	0x3e0a8ab0	0.13529468
205	0x3e1aa030	0.15100169
206	0xbe8f8a35	-0.2803513
207	0x3dce6dc0	0.10079527
208	0xbe0d70ad	-0.13812514
209	0xbd953b0c	-0.07286653
210	0xbdc2c0e6	-0.09509449
211	0xbb1cc000	-0.0023918152
212	0x3e89f4bf	0.2694454
213	0x3dd9055c	0.10596725
214	0x3d8b4768	0.06800729
215	0x3d5ef4f8	0.05443284
216	0x3c243120	0.010021478
217	0xbe068076	-0.13134941
218	0xbdbc5226	-0.09195356
219	0xbe28feed	-0.16503496
220	0xbe917181	-0.2840691
221	0x3b841dc0	0.004031867
222	0xbe839cad	-0.25705472
223	0xbbeed8c0	-0.007289022
224	0xbe85b1b1	-0.2611213
225	0x3b4aa480	0.0030920804
226	0x3d88dd38	0.06682819
227	0xbe301bf1	-0.17198159
228	0xbe37f97b	-0.17966263
229	0x3dd59228	0.10428268
230	0x3d863b08	0.06554228
231	0x3e9adba9	0.30245712
232	0x3df18510	0.11792958
233	0x3e12eae2	0.14347413
234	0xbc6124c0	-0.013741672
235	0x3e8dfb39	0.2773073
236	0xbe499834	-0.19686967
237	0xbe1711ec	-0.1475293
238	0xbce38340	-0.027772546
239	0x3e937007	0.28796408
240	0xbcf547d0	-0.02994147
241	0xbcdf0ec0	-0.027228713
242	0x3dffcb34	0.1248993
243	0xbdd422be	-0.10358189
244	0x3d4403e0	0.047855258
245	0x3db8ec4c	0.09029445
246	0xbc1264c0	-0.0089351535
247	0xbe1d2ee4	-0.15349919
248	0x3d1c0478	0.0380902
249	0xbcb8b640	-0.022547841
250	0xbe911959	-0.2833965
251	0x3d8a6490	0.06757462
252	0xbe2c0994	-0.16800529
253	0x3e176ae4	0.1478687
254	0x3e1967f0	0.14981055
255	0xbe947454	-0.28995

simplicial_nn.2.W2 f4 [64, 64]
0	0x3e35d230	0.17755961
1	0x3e1d97a0	0.15389872
2	0xbe775197	-0.24152218
3	0xbe5b5a70	-0.21421218
4	0xbe811a63	-0.25215444
5	0xbdc7676c	-0.09736523
6	0xbe461192	-0.1934264
7	0xbe95fa3f	-0.29292485
8	0x3df77518	0.12082881
9	0x3de98fa0	0.114043474
10	0x3e14d446	0.14534101
11	0x3d716970	0.058938444
12	0x3d0bdbb8	0.034145087
13	0xbe9a6b34	-0.30159914
14	0xbd336f10	-0.04380709
15	0x3d8b6054	0.068054825
16	0x3dcacdf8	0.09902567
17	0xbe031d3a	-0.12804118
18	0x3d92ec00	0.0717392
19	0x3e30eb5a	0.1727728
20	0x3da2dbb8	0.07952064
21	0x3d360e98	0.04444751
22	0xbd2e26e8	-0.042517573
23	0xbe8c1628	-0.27360654
24	0xbe001c89	-0.12510885
25	0xbdf0edb2	-0.11764087
26	0x3e897753	0.2684885
27	0xbe70adc7	-0.23503791
28	0xbe4429ee	-0.1915662
29	0x3d9ad654	0.07560411
30	0xbd172390	-0.03689915
31	0xbdadf228	-0.08493453
32	0xbe5da5d2	-0.21645287
33	0x3e8ceb0b	0.27523074
34	0xbe44395f	-0.1916251
35	0xbe8cf885	-0.27533355
36	0xbe0941ee	-0.13404056
37	0xbe829045	-0.25500694
38	0x3e96a4eb	0.29422697
39	0x3e7097c6	0.23495397
40	0x3dd19494	0.10233417
41	0x3e95cbc5	0.29257026
42	0xbdbf14f6	-0.0933017
43	0x3e9b678d	0.3035244
44	0xbd81d47e	-0.06339358
45	0x3c2d4980	0.010576606
46	0xbdf0917e	-0.117465004
47	0xbe153b56	-0.14573416
48	0x3c0a05a0	0.008424193
49	0x3e8ce657	0.27519485
50	0xbe0b3fb9	-0.13598527
51	0x3e61efca	0.22064129
52	0x3d719430	0.058979213
53	0x3e310ca6	0.17289981
54	0x3e8fa905	0.2805864
55	0xbda94c8c	-0.08266553
56	0x3db93afc	0.090444535
57	0x3d84819c	0.064700335
58	0x3d430728	0.047614247
59	0xbd592d80	-0.053021908
60	0xbe898e4b	-0.26866373
61	0xbe00272a	-0.1251494
62	0x3da8336c	0.08212933
63	0xbdf0d0cc	-0.11758575
64	0xbdfd7376	-0.12375538
65	0xba760a00	-0.00093856454
66	0x3bc9e9c0	0.0061618984
67	0x3e9c5585	0.30533996
68	0x3a83d500	0.0010057986
69	0xbda13ec4	-0.078733
70	0x3d978714	0.07398811
71	0xbe728032	-0.23681715
72	0xbe76f35f	-0.24116276
73	0x3e7aaa42	0.2447901
74	0xbe2dc4cd	-0.16969605
75	0x3e00e978	0.12589061
76	0x3e926adf	0.2859716
77	0x3d0b6bc0	0.034038305
78	0x3e4b2316	0.19837603
79	0xbe709eb3	-0.23498039
80	0xbe71bc52	-0.23606995
81	0xbd224fc8	-0.039626867
82	0xbe00d0a9	-0.12579598
83	0x3d602930	0.05472678
84	0xbe486f6d	-0.19573756
85	0x3d587a70	0.05285114
86	0xbdc08d7a	-0.094019845
87	0x3e2a46d6	0.16628584
88	0xbe878de6	-0.26475447
89	0x3e3613c6	0.1778098
90	0x3e370c9e	0.17875907
91	0xbe10ce72	-0.14141253
92	0xbcb3e490	-0.021959573
93	0xbe80c6aa	-0.2515157
94	0x3e77093a	0.24124613
95	0x3e03dcb2	0.12877157
96	0xbdb75bb6	-0.08953039
97	0xbb023900	-0.00198704
98	0xbe8070b5	-0.2508599
99	0x3d44dab0	0.04806012
100	0xbc041600	-0.008061886
101	0xbe02e762	-0.12783578
102	0xbe9771d5	-0.29579034
103	0x3e9753c5	0.295561
104	0x3e49583e	0.19662568
105	0xbc457da0	-0.012053877
106	0x3e34f396	0.17671046
107	0x3e95ca5b	0.29255947
108	0x3a0c2400	0.00053459406
109	0x3ce11e10	0.027480155
110	0x3db5585c	0.08854744
111	0x3d89755c	0.06711838
112	0xbe7b928b	-0.2456762
113	0x3e16635c	0.1468634
114	0x3e18417c	0.1486873
115	0x3d487560	0.048940063
116	0xbe95ad45	-0.29233757
117	0x3d84b998	0.06480712
118	0x3e539336	0.20661625
119	0xbaf2bd00	-0.0018519461
120	0xbe32f04d	-0.1747448
121	0xbe34dcf5	-0.17662413
122	0x3e963775	0.29339185
123	0x3d7084d0	0.05872041
124	0xbc81e790	-0.015857488
125	0xbc192ec0	-0.009349525
126	0xbcd6fd10	-0.026243716
127	0xbe14f1fc	-0.14545435
128	0xbe840172	-0.25782353
129	0xbe58fc3d	-0.21189971
130	0xbdfab2d6	-0.122411415
131	0xbe88aaf8	-0.2669294
132	0x3e1fc15c	0.15601104
133	0xbe2fa08a	-0.17151085
134	0xbda20c68	-0.079125226
135	0x3e2aaf1a	0.16668358
136	0xbe8aefe7	-0.27136156
137	0xbd8f42aa	-0.06995137
138	0x3d3ed2e8	0.046587855
139	0xbe3a8e9c	-0.18218464
140	0x3dc97c84	0.098382026
141	0x3d24b3e0	0.040210605
142	0x3d9f99a8	0.077929795
143	0xbc39dbc0	-0.011343896
144	0x3e8acc8b	0.2710918
145	0x3e8efa67	0.27925417
146	0x3e7adb16	0.24497637
147	0xbd8abeec	-0.06774697
148	0xbda2d934	-0.079515845
149	0x3e8838cd	0.26605836
150	0x3e732dfe	0.23748013
151	0x3e9c6e75	0.30553022
152	0x3e291410	0.1651156
153	0xbca57cb0	-0.020201057
154	0x3de45970	0.11149871
155	0xbaacf500	-0.0013195574
156	0x3e41891a	0.18899956
157	0xbe61b138	-0.2204026
158	0x3da2d114	0.07950035
159	0x3e7d8886	0.24759111
160	0xbd87f09c	-0.066376895
161	0x3e7404da	0.23829976
162	0x3c8b0640	0.016970754
163	0xbe95347c	-0.29141605
164	0xbe367482	-0.17817882
165	0xbb9fb300	-0.0048736334
166	0xbcdad960	-0.02671498
167	0x3db9489c	0.09047052
168	0xbb84b5c0	-0.0040499866
169	0x3e90ce4f	0.282824
170	0xbe757d00	-0.23973465
171	0x3e94b829	0.29046753
172	0xbe6eb09e	-0.23309562
173	0x3da3ab14	0.07991615
174	0x3e1d257c	0.1534633
175	0x3e0af4f4	0.13570005
176	0xbe36abf5	-0.17839034
177	0x3def0544	0.11670926
178	0x3e351f50	0.17687726
179	0x3dc5b2f4	0.09653273
180	0xbe839806	-0.25701922
181	0xbd2c03e8	-0.041995913
182	0x3e9338fd	0.28754416
183	0x3e066eae	0.13128158
184	0xbe1fd346	-0.15607938
185	0xbe4fde22	-0.2029958
186	0xbe8bd46e	-0.27310508
187	0xbe151e86	-0.14562425
188	0xbdc70c86	-0.097191855
189	0x3e0a4f66	0.1350685
190	0x3e7db2c2	0.24775222
191	0xbe12045f	-0.1425948
192	0xbe904861	-0.2818022
193	0x3d942048	0.0723272
194	0x3e76e97e	0.24112508
195	0xbe5ad769	-0.21371235
196	0x3c589d80	0.013221145
197	0xbc683520	-0.014172822
198	0xbe62827a	-0.22120085
199	0x3def854c	0.11695346
200	0xbdaff4d2	-0.08591618
201	0x3e9730cb	0.29529414
202	0xbb84db40	-0.004054457
203	0x3db529a4	0.08845833
204	0x3be33680	0.006933987
205	0xbe3b75da	-0.18306676
206	0xbe6fafb8	-0.23406875
207	0xbd83e160	-0.06439471
208	0xbd8a3efe	-0.06750296
209	0xbda636cc	-0.081159204
210	0x3db65f08	0.089048445
211	0x3e8bc203	0.27296457
212	0x3deae7cc	0.11469993
213	0xbe980ee8	-0.29698873
214	0x3e46954a	0.19392887
215	0xbd282c38	-0.041057795
216	0xbe4884e3	-0.19581942
217	0xbb3c9a00	-0.0028778315
218	0x3e75c9ea	0.24002805
219	0x3e6e205a	0.23254529
220	0x3d3cf220	0.046129346
221	0x3e91d19f	0.2848024
222	0x3e8cdd6d	0.27512684
223	0xbdfced24	-0.123499185
224	0xbcc0c030	-0.023529142
225	0x3db59f44	0.08868268
226	0x3e0ba62c	0.13637608
227	0xbe45d870	-0.19320846
228	0x3e6f389e	0.23361441
229	0xbe5affc8	-0.21386635
230	0xbe232a2a	-0.15934053
231	0xbe0309c6	-0.12796697
232	0x3bf0ab00	0.0073446035
233	0xbcb97cd0	-0.022642523
234	0x3e19f226	0.15033779
235	0x3d7eb870	0.062187612
236	0xbcc41420	-0.023935378
237	0x3e6f4f62	0.23370126
238	0x3e2c0438	0.16798484
239	0x3e131b10	0.14365792
240	0xbdef74ee	-0.116922244
241	0xbe66df46	-0.2254611
242	0xbe667370	-0.22504973
243	0x3c9398b0	0.018017143
244	0xbe296126	-0.16540965
245	0x3e591ec2	0.2120314
246	0xbe6f3cff	-0.23363112
247	0x3e9c8185	0.30567566
248	0xbe7bb133	-0.24579315
249	0xbdc954de	-0.0983064
250	0xbe6b6c10	-0.22990441
251	0x3e8ffcf9	0.2812269
252	0x3e940145	0.2890722
253	0x3e43ffa6	0.19140491
254	0xbd52d490	-0.051472247
255	0x3d6e0990	0.05811459

simplicial_nn.4.W0 f4 [64, 1]
0	0xbeb98841	-0.36236766
1	0x3e6092aa	0.21930948
2	0x3d021358	0.03175673
3	0xbeac368b	-0.33635363
4	0xbeb727b4	-0.3577248
5	0xbdc976b0	-0.09837091
6	0x3e99bd67	0.30027315
7	0x3ec2852d	0.3799223
8	0x3ecfabd5	0.40560785
9	0x3e3b4ebe	0.18291757
10	0x3d3391c0	0.04384017
11	0xbd908740	-0.07057047
12	0x3ccd5f10	0.025069743
13	0xbcae0e30	-0.021247
14	0x3e514fce	0.204406
15	0xbe05c46e	-0.13063213
16	0xbe0b17e2	-0.1358333
17	0xbeaa6c8e	-0.33285946
18	0xbe6bf8c4	-0.23044115
19	0x3ebce2c1	0.3689175
20	0xbc164c40	-0.009173453
21	0x3e9fc7cf	0.3120713
22	0xbe9f7c83	-0.31149682
23	0xbd7169a8	-0.058938652
24	0x3d0b0b00	0.033946037
25	0x3d206f88	0.039168864
26	0x3e7c622a	0.24646822
27	0xbd24be70	-0.040220678
28	0xbec61c84	-0.3869363
29	0x3e5069b6	0.20352826
30	0xbe81628e	-0.25270504
31	0xbdf0eadc	-0.11763546
32	0x3e5e81a6	0.21729144
33	0x3eb6c733	0.35698852
34	0xbe85f1a8	-0.26160932
35	0xbeae1d94	-0.3400694
36	0x3ed5e45b	0.41775784
37	0x3e8e7681	0.27824786
38	0xbea1df85	-0.31615844
39	0xbdf7f6a4	-0.1210759
40	0xbe9ddc3b	-0.30832085
41	0x3d91701c	0.07101461
42	0x3ea706e1	0.32622436
43	0x3e50e97e	0.2040157
44	0xbe918679	-0.28422907
45	0x3eb859f9	0.36006144
46	0xbe7e4ebd	-0.24834724
47	0xbe8ab37a	-0.27090055
48	0x3ec11e8b	0.37718615
49	0xbdd84ed0	-0.10561907
50	0x3d6df0f8	0.058091134
51	0x3e5b5176	0.21417794
52	0x3ed88e83	0.42296228
53	0x3e1b8d4a	0.15190616
54	0xbda7d670	-0.081951976
55	0x3e48ae66	0.19597778
56	0xbe9efd15	-0.3105246
57	0xbeb315dd	-0.34977618
58	0x3eb324f9	0.34989145
59	0x3cdd6ba0	0.027028859
60	0x3dc8ec44	0.09810689
61	0x3eb14703	0.3462449
62	0xbed06ef1	-0.40709642
63	0xbdd19924	-0.102342874

simplicial_nn.4.W1 f4 [64, 1]
0	0x3e6ec672	0.23317888
1	0xbebd5cd7	-0.36984894
2	0xbe52adaf	-0.20574068
3	0x3e82b0cf	0.2552552
4	0x3e24b046	0.16082868
5	0x3ea77861	0.3270903
6	0x3e2eb78e	0.17062208
7	0x3e3642fe	0.17798993
8	0xbe91171f	-0.28337952
9	0xbeba119a	-0.36341554
10	0xbec98dee	-0.39366096
11	0xbc1bc9e0	-0.00950858
12	0xbea76aeb	-0.3269876
13	0x3e356ece	0.1771805
14	0xbeb8acf0	-0.3606944
15	0xbd12abd8	-0.035808414
16	0xbed931fe	-0.42420954
17	0x3e9843ff	0.29739377
18	0x3e8599b1	0.2609382
19	0x3ea47849	0.3212302
20	0xbe0ab656	-0.13546118
21	0xbcd06e40	-0.025443196
22	0xbdd76334	-0.10516968
23	0xbde7855c	-0.11304733
24	0xbc414ae0	-0.011797637
25	0xbc525020	-0.012836486
26	0xbe20613e	-0.15662095
27	0x3ecccbb9	0.39999178
28	0x3e96c909	0.29450253
29	0x3ed36cf9	0.41294077
30	0xbe840348	-0.25783753
31	0x3ea98541	0.33109477
32	0x3cf1a700	0.029498577
33	0xbcaef780	-0.021358252
34	0x3ed59c79	0.41720942
35	0xbd7b7218	-0.061388105
36	0x3e2a191a	0.16611138
37	0x3e26acb6	0.16276821
38	0xbecb52c2	-0.39711577
39	0x3e5a2a82	0.21305278
40	0xbea34c1e	-0.3189401
41	0xbe8ab1b0	-0.2708869
42	0xbea5492c	-0.32282388
43	0x3e3dc4fa	0.18532172
44	0xbe3ef53f	-0.18648241
45	0x3dfa59f4	0.122241884
46	0x3eaec737	0.34136364
47	0x3e388a82	0.18021587
48	0xbecdbdef	-0.4018397
49	0x3e28966a	0.16463628
50	0x3e34c5fe	0.17653653
51	0xbe58bf23	-0.21166663
52	0x3e7dfa9a	0.24802628
53	0xbe6f7a6d	-0.23386545
54	0xbeaa84aa	-0.3330434
55	0x3e8fd16d	0.28089467
56	0xbebf19d8	-0.37324405
57	0x3eb8eaaf	0.3611655
58	0xbe03312e	-0.1281173
59	0xbeb84c18	-0.35995555
60	0x3cc81bd0	0.024427325
61	0x3ebd8be1	0.37020782
62	0x3dac39e4	0.08409479
63	0x3da205bc	0.0791125

simplicial_nn.4.W2 f4 [64, 1]
0	0x3cc63710	0.024196178
1	0x3e820afb	0.25399002
2	0xbda90d68	-0.0825451
3	0x3dd21dac	0.10259566
4	0x3dfeeae4	0.124471456
5	0x3e8e76e1	0.27825072
6	0xbeac46c0	-0.33647728
7	0xbeb9e9d4	-0.3631121
8	0xbea03914	-0.31293547
9	0xbe857bda	-0.26071054
10	0xbec6a3b3	-0.38796768
11	0x3e7e0b7e	0.24809071
12	0xbe155394	-0.14582664
13	0x3d90191c	0.07036039
14	0xbe811830	-0.25213766
15	0xbe816dbc	-0.25279033
16	0xbea5a9e2	-0.32356173
17	0xbeb5c2e4	-0.35500252
18	0xbe5dfb5b	-0.21677916
19	0xbea3f9fa	-0.32026654
20	0xbea081c5	-0.31349006
21	0x3e83532b	0.2564939
22	0xbe636f26	-0.22210369
23	0x3cc2e9e0	0.02379316
24	0xbeb0af18	-0.34508586
25	0x3ec8c1ed	0.39210454
26	0x3eb46a79	0.35237482
27	0x3cad03e0	0.021120012
28	0xbe64e0e1	-0.2235141
29	0x3ec8bc73	0.39206275
30	0x3e35b0c2	0.17743209
31	0x3e563cce	0.20921633
32	0x3ed449c1	0.4146252
33	0xbca3dc60	-0.020002544
34	0x3ea4bd9b	0.32175907
35	0xbd8a6944	-0.06758359
36	0x3eb594ff	0.35465237
37	0x3e26ad52	0.16277054
38	0xbe7c1461	-0.24617149
39	0xbe19f32c	-0.15034169
40	0xbdc3a3d8	-0.09552735
41	0x3ec70673	0.38872108
42	0xbe74cf9e	-0.23907325
43	0x3eb65607	0.3561251
44	0x3e912203	0.2834626
45	0xbe9a5faa	-0.3015111
46	0x3e552f6e	0.20818874
47	0xbda56a1c	-0.080768794
48	0xbebb329f	-0.36562058
49	0x3e49455e	0.19655368
50	0x3e48e82a	0.19619814
51	0x3e80466d	0.2505373
52	0x3ec6460d	0.3872532
53	0xbcb61830	-0.02222833
54	0xbed27ce5	-0.41110912
55	0xbecc309e	-0.39880842
56	0xbe88d7f4	-0.2672726
57	0xbe42f53e	-0.19038865
58	0x3ed14f01	0.40880588
59	0xbe39cfca	-0.18145671
60	0xbe14bf62	-0.14526132
61	0x3ec5ae25	0.38609424
62	0xbd85040c	-0.064949125
63	0xbe45af90	-0.19305253

exp_avg f4 [1, 64]
0	0x00000000	0.0
1	0x00000000	0.0
2	0x00000000	0.0
3	0x00000000	0.0
4	0x00000000	0.0
5	0x00000000	0.0
6	0x00000000	0.0
7	0x00000000	0.0
8	0x00000000	0.0
9	0x00000000	0.0
10	0x00000000	0.0
11	0x00000000	0.0
12	0x00000000	0.0
13	0x00000000	0.0
14	0x00000000	0.0
15	0x00000000	0.0
16	0x00000000	0.0
17	0x00000000	0.0
18	0x00000000	0.0
19	0x00000000	0.0
20	0x00000000	0.0
21	0x00000000	0.0
22	0x00000000	0.0
23	0x00000000	0.0
24	0x00000000	0.0
25	0x00000000	0.0
26	0x00000000	0.0
27	0x00000000	0.0
28	0x00000000	0.0
29	0x00000000	0.0
30	0x00000000	0.0
31	0x00000000	0.0
32	0x00000000	0.0
33	0x00000000	0.0
34	0x00000000	0.0
35	0x00000000	0.0
36	0x00000000	0.0
37	0x00000000	0.0
38	0x00000000	0.0
39	0x00000000	0.0
40	0x00000000	0.0
41	0x00000000	0.0
42	0x00000000	0.0
43	0x00000000	0.0
44	0x00000000	0.0
45	0x00000000	0.0
46	0x00000000	0.0
47	0x00000000	0.0
48	0x00000000	0.0
49	0x00000000	0.0
50	0x00000000	0.0
51	0x00000000	0.0
52	0x00000000	0.0
53	0x00000000	0.0
54	0x00000000	0.0
55	0x00000000	0.0
56	0x00000000	0.0
57	0x00000000	0.0
58	0x00000000	0.0
59	0x00000000	0.0
60	0x00000000	0.0
61	0x00000000	0.0
62	0x00000000	0.0
63	0x00000000	0.0

exp_avg_sq f4 [1, 64]
0	0x00000000	0.0
1	0x00000000	0.0
2	0x00000000	0.0
3	0x00000000	0.0
4	0x00000000	0.0
5	0x00000000	0.0
6	0x00000000	0.0
7	0x00000000	0.0
8	0x00000000	0.0
9	0x00000000	0.0
10	0x00000000	0.0
11	0x00000000	0.0
12	0x00000000	0.0
13	0x00000000	0.0
14	0x00000000	0.0
15	0x00000000	0.0
16	0x00000000	0.0
17	0x00000000	0.0
18	0x00000000	0.0
19	0x00000000	0.0
20	0x00000000	0.0
21	0x00000000	0.0
22	0x00000000	0.0
23	0x00000000	0.0
24	0x00000000	0.0
25	0x00000000	0.0
26	0x00000000	0.0
27	0x00000000	0.0
28	0x00000000	0.0
29	0x00000000	0.0
30	0x00000000	0.0
31	0x00000000	0.0
32	0x00000000	0.0
33	0x00000000	0.0
34	0x00000000	0.0
35	0x00000000	0.0
36	0x00000000	0.0
37	0x00000000	0.0
38	0x00000000	0.0
39	0x00000000	0.0
40	0x00000000	0.0
41	0x00000000	0.0
42	0x00000000	0.0
43	0x00000000	0.0
44	0x00000000	0.0
45	0x00000000	0.0
46	0x00000000	0.0
47	0x00000000	0.0
48	0x00000000	0.0
49	0x00000000	0.0
50	0x00000000	0.0
51	0x00000000	0.0
52	0x00000000	0.0
53	0x00000000	0.0
54	0x00000000	0.0
55	0x00000000	0.0
56	0x00000000	0.0
57	0x00000000	0.0
58	0x00000000	0.0
59	0x00000000	0.0
60	0x00000000	0.0
61	0x00000000	0.0
62	0x00000000	0.0
63	0x00000000	0.0

exp_avg f4 [1, 64]
0	0x00000000	0.0
1	0x00000000	0.0
2	0x00000000	0.0
3	0x00000000	0.0
4	0x00000000	0.0
5	0x00000000	0.0
6	0x00000000	0.0
7	0x00000000	0.0
8	0x00000000	0.0
9	0x00000000	0.0
10	0x00000000	0.0
11	0x00000000	0.0
12	0x00000000	0.0
13	0x00000000	0.0
14	0x00000000	0.0
15	0x00000000	0.0
16	0x00000000	0.0
17	0x00000000	0.0
18	0x00000000	0.0
19	0x00000000	0.0
20	0x00000000	0.0
21	0x00000000	0.0
22	0x00000000	0.0
23	0x00000000	0.0
24	0x00000000	0.0
25	0x00000000	0.0
26	0x00000000	0.0
27	0x00000000	0.0
28	0x00000000	0.0
29	0x00000000	0.0
30	0x00000000	0.0
31	0x00000000	0.0
32	0x00000000	0.0
33	0x00000000	0.0
34	0x00000000	0.0
35	0x00000000	0.0
36	0x00000000	0.0
37	0x00000000	0.0
38	0x00000000	0.0
39	0x00000000	0.0
40	0x00000000	0.0
41	0x00000000	0.0
42	0x00000000	0.0
43	0x00000000	0.0
44	0x00000000	0.0
45	0x00000000	0.0
46	0x00000000	0.0
47	0x00000000	0.0
48	0x00000000	0.0
49	0x00000000	0.0
50	0x00000000	0.0
51	0x00000000	0.0
52	0x00000000	0.0
53	0x00000000	0.0
54	0x00000000	0.0
55	0x00000000	0.0
56	0x00000000	0.0
57	0x00000000	0.0
58	0x00000000	0.0
59	0x00000000	0.0
60	0x00000000	0.0
61	0x00000000	0.0
62	0x00000000	0.0
63	0x00000000	0.0

exp_avg_sq f4 [1, 64]
0	0x00000000	0.0
1	0x00000000	0.0
2	0x00000000	0.0
3	0x00000000	0.0
4	0x00000000	0.0
5	0x00000000	0.0
6	0x00000000	0.0
7	0x00000000	0.0
8	0x00000000	0.0
9	0x00000000	0.0
10	0x00000000	0.0
11	0x00000000	0.0
12	0x00000000	0.0
13	0x00000000	0.0
14	0x00000000	0.0
15	0x00000000	0.0
16	0x00000000	0.0
17	0x00000000	0.0
18	0x00000000	0.0
19	0x00000000	0.0
20	0x00000000	0.0
21	0x00000000	0.0
22	0x00000000	0.0
23	0x00000000	0.0
24	0x00000000	0.0
25	0x00000000	0.0
26	0x00000000	0.0
27	0x00000000	0.0
28	0x00000000	0.0
29	0x00000000	0.0
30	0x00000000	0.0
31	0x00000000	0.0
32	0x00000000	0.0
33	0x00000000	0.0
34	0x00000000	0.0
35	0x00000000	0.0
36	0x00000000	0.0
37	0x00000000	0.0
38	0x00000000	0.0
39	0x00000000	0.0
40	0x00000000	0.0
41	0x00000000	0.0
42	0x00000000	0.0
43	0x00000000	0.0
44	0x00000000	0.0
45	0x00000000	0.0
46	0x00000000	0.0
47	0x00000000	0.0
48	0x00000000	0.0
49	0x00000000	0.0
50	0x00000000	0.0
51	0x00000000	0.0
52	0x00000000	0.0
53	0x00000000	0.0
54	0x00000000	0.0
55	0x00000000	0.0
56	0x00000000	0.0
57	0x00000000	0.0
58	0x00000000	0.0
59	0x00000000	0.0
60	0x00000000	0.0
61	0x00000000	0.0
62	0x00000000	0.0
63	0x00000000	0.0

exp_avg f4 [1, 64]
0	0x00000000	0.0
1	0x00000000	0.0
2	0x00000000	0.0
3	0x00000000	0.0
4	0x00000000	0.0
5	0x00000000	0.0
6	0x00000000	0.0
7	0x00000000	0.0
8	0x00000000	0.0
9	0x00000000	0.0
10	0x00000000	0.0
11	0x00000000	0.0
12	0x00000000	0.0
13	0x00000000	0.0
14	0x00000000	0.0
15	0x00000000	0.0
16	0x00000000	0.0
17	0x00000000	0.0
18	0x00000000	0.0
19	0x00000000	0.0
20	0x00000000	0.0
21	0x00000000	0.0
22	0x00000000	0.0
23	0x00000000	0.0
24	0x00000000	0.0
25	0x00000000	0.0
26	0x00000000	0.0
27	0x00000000	0.0
28	0x00000000	0.0
29	0x00000000	0.0
30	0x00000000	0.0
31	0x00000000	0.0
32	0x00000000	0.0
33	0x00000000	0.0
34	0x00000000	0.0
35	0x00000000	0.0
36	0x00000000	0.0
37	0x00000000	0.0
38	0x00000000	0.0
39	0x00000000	0.0
40	0x00000000	0.0
41	0x00000000	0.0
42	0x00000000	0.0
43	0x00000000	0.0
44	0x00000000	0.0
45	0x00000000	0.0
46	0x00000000	0.0
47	0x00000000	0.0
48	0x00000000	0.0
49	0x00000000	0.0
50	0x00000000	0.0
51	0x00000000	0.0
52	0x00000000	0.0
53	0x00000000	0.0
54	0x00000000	0.0
55	0x00000000	0.0
56	0x00000000	0.0
57	0x00000000	0.0
58	0x00000000	0.0
59	0x00000000	0.0
60	0x00000000	0.0
61	0x00000000	0.0
62	0x00000000	0.0
63	0x00000000	0.0

exp_avg_sq f4 [1, 64]
0	0x00000000	0.0
1	0x00000000	0.0
2	0x00000000	0.0
3	0x00000000	0.0
4	0x00000000	0.0
5	0x00000000	0.0
6	0x00000000	0.0
7	0x00000000	0.0
8	0x00000000	0.0
9	0x00000000	0.0
10	0x00000000	0.0
11	0x00000000	0.0
12	0x00000000	0.0
13	0x00000000	0.0
14	0x00000000	0.0
15	0x00000000	0.0
16	0x00000000	0.0
17	0x00000000	0.0
18	0x00000000	0.0
19	0x00000000	0.0
20	0x00000000	0.0
21	0x00000000	0.0
22	0x00000000	0.0
23	0x00000000	0.0
24	0x00000000	0.0
25	0x00000000	0.0
26	0x00000000	0.0
27	0x00000000	0.0
28	0x00000000	0.0
29	0x00000000	0.0
30	0x00000000	0.0
31	0x00000000	0.0
32	0x00000000	0.0
33	0x00000000	0.0
34	0x00000000	0.0
35	0x00000000	0.0
36	0x00000000	0.0
37	0x00000000	0.0
38	0x00000000	0.0
39	0x00000000	0.0
40	0x00000000	0.0
41	0x00000000	0.0
42	0x00000000	0.0
43	0x00000000	0.0
44	0x00000000	0.0
45	0x00000000	0.0
46	0x00000000	0.0
47	0x00000000	0.0
48	0x00000000	0.0
49	0x00000000	0.0
50	0x00000000	0.0
51	0x00000000	0.0
52	0x00000000	0.0
53	0x00000000	0.0
54	0x00000000	0.0
55	0x00000000	0.0
56	0x00000000	0.0
57	0x00000000	0.0
58	0x00000000	0.0
59	0x00000000	0.0
60	0x00000000	0.0
61	0x00000000	0.0
62	0x00000000	0.0
63	0x00000000	0.0

exp_avg f4 [64, 64]
0	0x00000000	0.0
1	0x00000000	0.0
2	0x00000000	0.0
3	0x00000000	0.0
4	0x00000000	0.0
5	0x00000000	0.0
6	0x00000000	0.0
7	0x00000000	0.0
8	0x00000000	0.0
9	0x00000000	0.0
10	0x00000000	0.0
11	0x00000000	0.0
12	0x00000000	0.0
13	0x00000000	0.0
14	0x00000000	0.0
15	0x00000000	0.0
16	0x00000000	0.0
17	0x00000000	0.0
18	0x00000000	0.0
19	0x00000000	0.0
20	0x00000000	0.0
21	0x00000000	0.0
22	0x00000000	0.0
23	0x00000000	0.0
24	0x00000000	0.0
25	0x00000000	0.0
26	0x00000000	0.0
27	0x00000000	0.0
28	0x00000000	0.0
29	0x00000000	0.0
30	0x00000000	0.0
31	0x00000000	0.0
32	0x00000000	0.0
33	0x00000000	0.0
34	0x00000000	0.0
35	0x00000000	0.0
36	0x00000000	0.0
37	0x00000000	0.0
38	0x00000000	0.0
39	0x00000000	0.0
40	0x00000000	0.0
41	0x00000000	0.0
42	0x00000000	0.0
43	0x00000000	0.0
44	0x00000000	0.0
45	0x00000000	0.0
46	0x00000000	0.0
47	0x00000000	0.0
48	0x00000000	0.0
49	0x00000000	0.0
50	0x00000000	0.0
51	0x00000000	0.0
52	0x00000000	0.0
53	0x00000000	0.0
54	0x00000000	0.0
55	0x00000000	0.0
56	0x00000000	0.0
57	0x00000000	0.0
58	0x00000000	0.0
59	0x00000000	0.0
60	0x00000000	0.0
61	0x00000000	0.0
62	0x00000000	0.0
63	0x00000000	0.0
64	0x00000000	0.0
65	0x00000000	0.0
66	0x00000000	0.0
67	0x00000000	0.0
68	0x00000000	0.0
69	0x00000000	0.0
70	0x00000000	0.0
71	0x00000000	0.0
72	0x00000000	0.0
73	0x00000000	0.0
74	0x00000000	0.0
75	0x00000000	0.0
76	0x00000000	0.0
77	0x00000000	0.0
78	0x00000000	0.0
79	0x00000000	0.0
80	0x00000000	0.0
81	0x00000000	0.0
82	0x00000000	0.0
83	0x00000000	0.0
84	0x00000000	0.0
85	0x00000000	0.0
86	0x00000000	0.0
87	0x00000000	0.0
88	0x00000000	0.0
89	0x00000000	0.0
90	0x00000000	0.0
91	0x00000000	0.0
92	0x00000000	0.0
93	0x00000000	0.0
94	0x00000000	0.0
95	0x00000000	0.0
96	0x00000000	0.0
97	0x00000000	0.0
98	0x00000000	0.0
99	0x00000000	0.0
100	0x00000000	0.0
101	0x00000000	0.0
102	0x00000000	0.0
103	0x00000000	0.0
104	0x00000000	0.0
105	0x00000000	0.0
106	0x00000000	0.0
107	0x00000000	0.0
108	0x00000000	0.0
109	0x00000000	0.0
110	0x00000000	0.0
111	0x00000000	0.0
112	0x00000000	0.0
113	0x00000000	0.0
114	0x00000000	0.0
115	0x00000000	0.0
116	0x00000000	0.0
117	0x00000000	0.0
118	0x00000000	0.0
119	0x00000000	0.0
120	0x00000000	0.0
121	0x00000000	0.0
122	0x00000000	0.0
123	0x00000000	0.0
124	0x00000000	0.0
125	0x00000000	0.0
126	0x00000000	0.0
127	0x00000000	0.0
128	0x00000000	0.0
129	0x00000000	0.0
130	0x00000000	0.0
131	0x00000000	0.0
132	0x00000000	0.0
133	0x00000000	0.0
134	0x00000000	0.0
135	0x00000000	0.0
136	0x00000000	0.0
137	0x00000000	0.0
138	0x00000000	0.0
139	0x00000000	0.0
140	0x00000000	0.0
141	0x00000000	0.0
142	0x00000000	0.0
143	0x00000000	0.0
144	0x00000000	0.0
145	0x00000000	0.0
146	0x00000000	0.0
147	0x00000000	0.0
148	0x00000000	0.0
149	0x00000000	0.0
150	0x00000000	0.0
151	0x00000000	0.0
152	0x00000000	0.0
153	0x00000000	0.0
154	0x00000000	0.0
155	0x00000000	0.0
156	0x00000000	0.0
157	0x00000000	0.0
158	0x00000000	0.0
159	0x00000000	0.0
160	0x00000000	0.0
161	0x00000000	0.0
162	0x00000000	0.0
163	0x00000000	0.0
164	0x00000000	0.0
165	0x00000000	0.0
166	0x00000000	0.0
167	0x00000000	0.0
168	0x00000000	0.0
169	0x00000000	0.0
170	0x00000000	0.0
171	0x00000000	0.0
172	0x00000000	0.0
173	0x00000000	0.0
174	0x00000000	0.0
175	0x00000000	0.0
176	0x00000000	0.0
177	0x00000000	0.0
178	0x00000000	0.0
179	0x00000000	0.0
180	0x00000000	0.0
181	0x00000000	0.0
182	0x00000000	0.0
183	0x00000000	0.0
184	0x00000000	0.0
185	0x00000000	0.0
186	0x00000000	0.0
187	0x00000000	0.0
188	0x00000000	0.0
189	0x00000000	0.0
190	0x00000000	0.0
191	0x00000000	0.0
192	0x00000000	0.0
193	0x00000000	0.0
194	0x00000000	0.0
195	0x00000000	0.0
196	0x00000000	0.0
197	0x00000000	0.0
198	0x00000000	0.0
199	0x00000000	0.0
200	0x00000000	0.0
201	0x00000000	0.0
202	0x00000000	0.0
203	0x00000000	0.0
204	0x00000000	0.0
205	0x00000000	0.0
206	0x00000000	0.0
207	0x00000000	0.0
208	0x00000000	0.0
209	0x00000000	0.0
210	0x00000000	0.0
211	0x00000000	0.0
212	0x00000000	0.0
213	0x00000000	0.0
214	0x00000000	0.0
215	0x00000000	0.0
216	0x00000000	0.0
217	0x00000000	0.0
218	0x00000000	0.0
219	0x00000000	0.0
220	0x00000000	0.0
221	0x00000000	0.0
222	0x00000000	0.0
223	0x00000000	0.0
224	0x00000000	0.0
225	0x00000000	0.0
226	0x00000000	0.0
227	0x00000000	0.0
228	0x00000000	0.0
229	0x00000000	0.0
230	0x00000000	0.0
231	0x00000000	0.0
232	0x00000000	0.0
233	0x00000000	0.0
234	0x00000000	0.0
235	0x00000000	0.0
236	0x00000000	0.0
237	0x00000000	0.0
238	0x00000000	0.0
239	0x00000000	0.0
240	0x00000000	0.0
241	0x00000000	0.0
242	0x00000000	0.0
243	0x00000000	0.0
244	0x00000000	0.0
245	0x00000000	0.0
246	0x00000000	0.0
247	0x00000000	0.0
248	0x00000000	0.0
249	0x00000000	0.0
250	0x00000000	0.0
251	0x00000000	0.0
252	0x00000000	0.0
253	0x00000000	0.0
254	0x00000000	0.0
255	0x00000000	0.0

exp_avg_sq f4 [64, 64]
0	0x00000000	0.0
1	0x00000000	0.0
2	0x00000000	0.0
3	0x00000000	0.0
4	0x00000000	0.0
5	0x00000000	0.0
6	0x00000000	0.0
7	0x00000000	0.0
8	0x00000000	0.0
9	0x00000000	0.0
10	0x00000000	0.0
11	0x00000000	0.0
12	0x00000000	0.0
13	0x00000000	0.0
14	0x00000000	0.0
15	0x00000000	0.0
16	0x00000000	0.0
17	0x00000000	0.0
18	0x00000000	0.0
19	0x00000000	0.0
20	0x00000000	0.0
21	0x00000000	0.0
22	0x00000000	0.0
23	0x00000000	0.0
24	0x00000000	0.0
25	0x00000000	0.0
26	0x00000000	0.0
27	0x00000000	0.0
28	0x00000000	0.0
29	0x00000000	0.0
30	0x00000000	0.0
31	0x00000000	0.0
32	0x00000000	0.0
33	0x00000000	0.0
34	0x00000000	0.0
35	0x00000000	0.0
36	0x00000000	0.0
37	0x00000000	0.0
38	0x00000000	0.0
39	0x00000000	0.0
40	0x00000000	0.0
41	0x00000000	0.0
42	0x00000000	0.0
43	0x00000000	0.0
44	0x00000000	0.0
45	0x00000000	0.0
46	0x00000000	0.0
47	0x00000000	0.0
48	0x00000000	0.0
49	0x00000000	0.0
50	0x00000000	0.0
51	0x00000000	0.0
52	0x00000000	0.0
53	0x00000000	0.0
54	0x00000000	0.0
55	0x00000000	0.0
56	0x00000000	0.0
57	0x00000000	0.0
58	0x00000000	0.0
59	0x00000000	0.0
60	0x00000000	0.0
61	0x00000000	0.0
62	0x00000000	0.0
63	0x00000000	0.0
64	0x00000000	0.0
65	0x00000000	0.0
66	0x00000000	0.0
67	0x00000000	0.0
68	0x00000000	0.0
69	0x00000000	0.0
70	0x00000000	0.0
71	0x00000000	0.0
72	0x00000000	0.0
73	0x00000000	0.0
74	0x00000000	0.0
75	0x00000000	0.0
76	0x00000000	0.0
77	0x00000000	0.0
78	0x00000000	0.0
79	0x00000000	0.0
80	0x00000000	0.0
81	0x00000000	0.0
82	0x00000000	0.0
83	0x00000000	0.0
84	0x00000000	0.0
85	0x00000000	0.0
86	0x00000000	0.0
87	0x00000000	0.0
88	0x00000000	0.0
89	0x00000000	0.0
90	0x00000000	0.0
91	0x00000000	0.0
92	0x00000000	0.0
93	0x00000000	0.0
94	0x00000000	0.0
95	0x00000000	0.0
96	0x00000000	0.0
97	0x00000000	0.0
98	0x00000000	0.0
99	0x00000000	0.0
100	0x00000000	0.0
101	0x00000000	0.0
102	0x00000000	0.0
103	0x00000000	0.0
104	0x00000000	0.0
105	0x00000000	0.0
106	0x00000000	0.0
107	0x00000000	0.0
108	0x00000000	0.0
109	0x00000000	0.0
110	0x00000000	0.0
111	0x00000000	0.0
112	0x00000000	0.0
113	0x00000000	0.0
114	0x00000000	0.0
115	0x00000000	0.0
116	0x00000000	0.0
117	0x00000000	0.0
118	0x00000000	0.0
119	0x00000000	0.0
120	0x00000000	0.0
121	0x00000000	0.0
122	0x00000000	0.0
123	0x00000000	0.0
124	0x00000000	0.0
125	0x00000000	0.0
126	0x00000000	0.0
127	0x00000000	0.0
128	0x00000000	0.0
129	0x00000000	0.0
130	0x00000000	0.0
131	0x00000000	0.0
132	0x00000000	0.0
133	0x00000000	0.0
134	0x00000000	0.0
135	0x00000000	0.0
136	0x00000000	0.0
137	0x00000000	0.0
138	0x00000000	0.0
139	0x00000000	0.0
140	0x00000000	0.0
141	0x00000000	0.0
142	0x00000000	0.0
143	0x00000000	0.0
144	0x00000000	0.0
145	0x00000000	0.0
146	0x00000000	0.0
147	0x00000000	0.0
148	0x00000000	0.0
149	0x00000000	0.0
150	0x00000000	0.0
151	0x00000000	0.0
152	0x00000000	0.0
153	0x00000000	0.0
154	0x00000000	0.0
155	0x00000000	0.0
156	0x00000000	0.0
157	0x00000000	0.0
158	0x00000000	0.0
159	0x00000000	0.0
160	0x00000000	0.0
161	0x00000000	0.0
162	0x00000000	0.0
163	0x00000000	0.0
164	0x00000000	0.0
165	0x00000000	0.0
166	0x00000000	0.0
167	0x00000000	0.0
168	0x00000000	0.0
169	0x00000000	0.0
170	0x00000000	0.0
171	0x00000000	0.0
172	0x00000000	0.0
173	0x00000000	0.0
174	0x00000000	0.0
175	0x00000000	0.0
176	0x00000000	0.0
177	0x00000000	0.0
178	0x00000000	0.0
179	0x00000000	0.0
180	0x00000000	0.0
181	0x00000000	0.0
182	0x00000000	0.0
183	0x00000000	0.0
184	0x00000000	0.0
185	0x00000000	0.0
186	0x00000000	0.0
187	0x00000000	0.0
188	0x00000000	0.0
189	0x00000000	0.0
190	0x00000000	0.0
191	0x00000000	0.0
192	0x00000000	0.0
193	0x00000000	0.0
194	0x00000000	0.0
195	0x00000000	0.0
196	0x00000000	0.0
197	0x00000000	0.0
198	0x00000000	0.0
199	0x00000000	0.0
200	0x00000000	0.0
201	0x00000000	0.0
202	0x00000000	0.0
203	0x00000000	0.0
204	0x00000000	0.0
205	0x00000000	0.0
206	0x00000000	0.0
207	0x00000000	0.0
208	0x00000000	0.0
209	0x00000000	0.0
210	0x00000000	0.0
211	0x00000000	0.0
212	0x00000000	0.0
213	0x00000000	0.0
214	0x00000000	0.0
215	0x00000000	0.0
216	0x00000000	0.0
217	0x00000000	0.0
218	0x00000000	0.0
219	0x00000000	0.0
220	0x00000000	0.0
221	0x00000000	0.0
222	0x00000000	0.0
223	0x00000000	0.0
224	0x00000000	0.0
225	0x00000000	0.0
226	0x00000000	0.0
227	0x00000000	0.0
228	0x00000000	0.0
229	0x00000000	0.0
230	0x00000000	0.0
231	0x00000000	0.0
232	0x00000000	0.0
233	0x00000000	0.0
234	0x00000000	0.0
235	0x00000000	0.0
236	0x00000000	0.0
237	0x00000000	0.0
238	0x00000000	0.0
239	0x00000000	0.0
240	0x00000000	0.0
241	0x00000000	0.0
242	0x00000000	0.0
243	0x00000000	0.0
244	0x00000000	0.0
245	0x00000000	0.0
246	0x00000000	0.0
247	0x00000000	0.0
248	0x00000000	0.0
249	0x00000000	0.0
250	0x00000000	0.0
251	0x00000000	0.0
252	0x00000000	0.0
253	0x00000000	0.0
254	0x00000000	0.0
255	0x00000000	0.0
