results/Test_citation/version_35/checkpoints/epoch=12-step=13.ckpt (torch, 28113 bytes, 27 tensors)

simplicial_nn.0.W0 f4 [1, 16]
0.49506328 0.60139644 -0.45837992 -0.7874977 -0.81504315 0.23613709 -0.6544912 -0.62207985
0.35556895 -0.33518392 0.6152706 0.3806903 0.23392129 0.45981845 0.17878468 -0.05116644
00000000: ef78 fd3e 1ef5 193f c6b0 eabe 7399 49bf
00000010: aba6 50bf eccd 713e bc8c 27bf a040 1fbf
00000020: 220d b63e 3a9d abbe 6082 1d3f d7e9 c23e
00000030: 1089 6f3e 536d eb3e 5513 373e e793 51bd

simplicial_nn.0.W1 f4 [2, 1, 16]
-0.4406396 0.14788273 -0.030256927 0.026900351 -0.18852252 0.035543427 0.07447976 -0.3296768
0.51171 0.027471364 -0.19848981 -0.43009594 0.1254462 0.19160463 -0.38959894 -0.42199883
0.08566984 -0.09816538 0.46757 -0.1737802 0.16409266 -0.40487072 0.26311594 0.105264604
0.24676237 0.38993156 -0.24792862 -0.31953335 -0.009089393 -0.33306566 -0.042016845 -0.4254425
00000000: 839b e1be 926e 173e 60dd f7bc 205e dc3c
00000010: 0c0c 41be fc95 113d d888 983d 66cb a8be
00000020: 6dff 023f a00b e13c ea40 4bbe 8935 dcbe
00000030: f874 003e 0134 443e 8379 c7be 3b10 d8be
00000040: ab73 af3d ee0a c9bd 5665 ef3e 70f3 31be
00000050: e807 283e 374b cfbe 22b7 863e f894 d73d
00000060: 46af 7c3e 1ca5 c73e 00e1 7dbe e099 a3be
00000070: adeb 14bc 9587 aabe db19 2cbd 99d3 d9be

simplicial_nn.0.W2 f4 [2, 1, 16]
0.3405136 0.04853855 0.11523044 0.39671868 -0.3127144 -0.30315995 0.30277658 -0.47334254
-0.29534152 -0.32953292 -0.016768042 0.21595548 0.32443115 -0.31893387 -0.1796028 0.25417185
-0.2825337 -0.2712842 0.28702366 -0.16528231 0.098783314 0.45838967 0.020780087 0.15416443
0.31637233 -0.14497042 -0.39608148 -0.056266207 -0.24613202 0.47823158 -0.062074397 -0.17890684
00000000: cc57 ae3e 5cd0 463d f0fd eb3d b61e cb3e
00000010: 1a1c a0be c837 9bbe 8805 9b3e f459 f2be
00000020: 0137 97be 8ab8 a8be 225d 89bc 6f23 5d3e
00000030: d71b a63e 4d4b a3be cce9 37be d022 823e
00000040: 42a8 90be c3e5 8abe c4f4 923e c43f 29be
00000050: e84e ca3d 0db2 ea3e 003b aa3c 48dd 1d3e
00000060: 8efb a13e 2073 14be 31cb cabe 6577 66bd
00000070: 080a 7cbe c5da f43e b941 7ebd 5b33 37be

simplicial_nn.2.W0 f4 [16, 16]
-0.016041398 -0.05144936 0.2789356 -0.0631329 0.06468392 0.52778864 0.3018705 -0.10474068
0.20496029 0.30394697 -0.14418599 0.3799593 -0.5252325 -0.0696393 -0.026730001 -0.05772865
-0.35470402 -0.40801483 0.19799949 -0.26988274 0.255735 0.04002375 -0.06358691 -0.16850382
0.39428535 0.28992343 0.52808535 -0.22631216 0.23271543 0.33988765 -0.32443607 -0.2528204
0.4831968 -0.45261902 -0.24969473 -0.25154063 -0.42316052 -0.12691951 -0.04231465 0.30973107
0.03545004 -0.5670157 0.2879808 0.15286243 -0.021724582 -0.026240587 -0.27466768 0.51350874
0.4328583 0.17955416 0.35103315 0.2297613 -0.28022063 0.0395326 0.36653513 0.54660183
0.5713268 -0.24765202 0.1710738 -0.35593578 -0.38634253 -0.46639252 0.30636698 0.3600765
-0.15562987 -0.030803204 0.48365587 0.034149706 -0.101478636 -0.091293156 -0.29208136 -0.10898483
0.4669202 0.30973846 0.101207435 0.1322124 0.17185736 0.21326798 -0.12916553 -0.13042143
-0.0030418038 0.4638993 0.3658532 -0.32753384 -0.23065417 0.5932506 0.24496488 -0.557569
0.348436 -0.4350742 -0.021131577 -0.30730063 -0.5319178 -0.09468833 -0.3587238 0.32943493
0.25638187 0.2626145 -0.58146596 -0.5958956 -0.44069833 0.41615778 0.31116557 -0.30456752
0.54851943 0.010152459 -0.088935554 -0.57252944 0.24794036 0.087640345 -0.14060864 -0.51268196
0.2846778 -0.4413321 -0.21288657 -0.39302987 -0.21929586 -0.20756593 -0.60180026 -0.15874758
-0.3222316 -0.24971941 0.47536522 0.22004277 -0.39569247 -0.14092517 -0.5217087 0.22002435
-0.31581673 -0.59244984 -0.62548965 0.59048116 -0.0772889 -0.2985386 0.38174546 -0.30433705
-0.50557953 0.24914926 -0.48714474 0.10064196 -0.40362406 0.2524458 -0.1505459 -0.3891067
-0.5954951 -0.41903514 -0.591797 0.31400508 0.44930464 0.035440207 0.26489913 0.43244594
0.16917688 -0.37681222 -0.1469661 -0.5891384 -0.14222765 0.025438964 0.6008244 -0.18349841
-0.016481698 0.27327806 0.5871572 -0.598985 0.2360423 -0.024819685 0.60527444 -0.47510082
0.30028844 -0.10127291 -0.34626108 -0.04611193 -0.6026843 0.3607408 -0.3848031 -0.55407923
-0.06386715 -0.3788401 0.5512154 -0.49388197 0.43575168 0.19766854 -0.056216594 0.39345235
0.32446098 0.29005444 0.49540368 0.613221 -0.20803088 -0.19957408 -0.26865354 0.60974616
-0.039515078 -0.4609447 -0.58897644 -0.28323677 0.5005043 -0.08030145 -0.08043359 -0.5452034
-0.25327918 0.3307984 -0.08497861 0.36920217 0.42723638 -0.22633205 0.2906807 0.17913741
-0.42445 -0.44226992 0.3098283 0.45215774 -0.083540075 -0.5333653 0.5744194 -0.17839333
0.49656856 -0.5213938 -0.3445565 -0.21671967 -0.5935387 -0.5851225 0.03877455 -0.39856368
0.331541 -0.3089041 0.539188 -0.30534777 -0.027414374 0.32073054 0.13920622 -0.19823602
-0.32773054 -0.4542855 0.037322905 -0.53778183 0.1646604 -0.37077755 0.30258256 -0.38103026
0.35391802 0.60789174 -0.43490636 -0.4134219 -0.14667782 0.3082109 -0.22455691 0.26618552
0.5056515 -0.36148977 0.39924344 0.43696815 -0.35704902 0.48849088 0.5382156 -0.540252
00000000: 4069 83bc 90bc 52bd a6d0 8e3e d24b 81bd
00000010: 0179 843d 281d 073f c58e 9a3e 4882 d6bd
00000020: 1ce1 513e f09e 9b3e 7ea5 13be 068a c23e
00000030: a375 06bf 0d9f 8ebd e0f8 dabc e074 6cbd
00000040: c49b b5be 52e7 d0be 61c0 4a3e 122e 8abe
00000050: b3ef 823e f2ef 233d db39 82bd 448c 2cbe
00000060: c5df c93e d870 943e 9a30 073f 60be 67be
00000070: f44c 6e3e c105 ae3e 7c1c a6be ad71 81be
00000080: 9265 f73e aebd e7be faaf 7fbe efc9 80be
00000090: 7fa8 d8be 30f7 01be 2052 2dbd 1295 9e3e
000000a0: 1034 113d f127 11bf 3872 933e f887 1c3e
000000b0: c0f7 b1bc 80f6 d6bc 3ea1 8cbe 4f75 033f
000000c0: 9a9f dd3e 0cdd 373e 9eba b33e 8c46 6b3e
000000d0: 1479 8fbe f0ec 213d 7eaa bb3e 19ee 0b3f
000000e0: 7942 123f 7e98 7dbe f82d 2f3e 373d b6be
000000f0: b0ce c5be 00cb eebe 22dc 9c3e f25b b83e
00000100: 705d 1fbe 0057 fcbc bea1 f73e 90e0 0b3d
00000110: 08d4 cfbd e8f7 babd b08b 95be 7033 dfbd
00000120: 2a10 ef3e 0a96 9e3e d845 cf3d b062 073e
00000130: 60fb 2f3e ec62 5a3e f843 04be 328d 05be
00000140: 0059 47bb 3684 ed3e 1c51 bb3e 84b2 a7be
00000150: 9b30 6cbe 45df 173f 13d8 7a3e d8bc 0ebf
00000160: 3466 b23e 0cc2 debe 211c adbc 8256 9dbe
00000170: c42b 08bf f5eb c1bd a5aa b7be b2ab a83e
00000180: 7c44 833e 6875 863e f4da 14bf 9d8c 18bf
00000190: 36a3 e1be a212 d53e 1851 9f3e 46f0 9bbe
000001a0: c56b 0c3f 8056 263c d823 b6bd 4a91 12bf
000001b0: 14e4 7d3e c87c b33d b6fb 0fbe 203f 03bf
000001c0: 4ac1 913e 48f6 e1be f0fe 59be 363b c9be
000001d0: 188f 60be 2a8c 54be 950f 1abf ba8e 22be
000001e0: 8afb a4be 72b6 7fbe 1263 f33e e452 613e
000001f0: 3498 cabe b04e 10be b48e 05bf 104e 613e
00000200: bbb2 a1be cbaa 17bf 1720 20bf c629 173f
00000210: a549 9ebd 0dda 98be 2474 c33e 11d2 9bbe
00000220: a96d 01bf fc20 7f3e 096b f9be 5f1d ce3d
00000230: d0a7 cebe 9340 813e b428 1abe fe38 c7be
00000240: 5e72 18bf c68b d6be 0280 17bf 46c5 a03e
00000250: 420b e63e c029 113d dca0 873e 8e69 dd3e
00000260: b43c 2d3e 88ed c0be 487e 16be c6d1 16bf
00000270: 20a4 11be 6065 d03c a1cf 193f 02e7 3bbe
00000280: a004 87bc 1aeb 8b3e ef4f 163f 1557 19bf
00000290: 13b5 713e a752 cbbc 44f3 1a3f 6a40 f3be
000002a0: 68bf 993e 2c68 cfbd 2249 b1be dddf 3cbd
000002b0: 8549 1abf 05b3 b83e e904 c5be 23d8 0dbf
000002c0: c8cc 82bd 54f7 c1be 741c 0d3f 19de fcbe
000002d0: d81a df3e 9f69 4a3e 5f43 66bd 9672 c93e
000002e0: c01f a63e 0482 943e 8da5 fd3e 0dfc 1c3f
000002f0: 0c06 55be 265d 4cbe f58c 89be 5318 1c3f
00000300: 90da 21bd f200 ecbe 29c7 16bf 6904 91be
00000310: 0d21 003f 1675 a4bd 5eba a4bd 7392 0bbf
00000320: cfad 81be 685e a93e 4409 aebd 1108 bd3e
00000330: babe da3e 97c3 67be 1ad4 943e cc6f 373e
00000340: 8351 d9be 3471 e2be d1a1 9e3e 3881 e73e
00000350: 0f17 abbd a18a 08bf 260d 133f beac 36be
00000360: 3c3e fe3e 107a 05bf b669 b0be c3eb 5dbe
00000370: 27f2 17bf 97ca 15bf 10d2 1e3d 8a10 ccbe
00000380: bebf a93e ae28 9ebe 3a08 0a3f 8b56 9cbe
00000390: 1c94 e0bc cb36 a43e 138c 0e3e 62fe 4abe
000003a0: 4ccc a7be 1c98 e8be e7df 183d 12ac 09bf
000003b0: bc9c 283e 8ed6 bdbe 1aec 9a3e 6616 c3be
000003c0: be34 b53e cb9e 1b3f 0cac debe 09ac d3be
000003d0: b632 16be d2cd 9d3e 3ff2 65be 7849 883e
000003e0: 6072 013f 3015 b9be a369 cc3e 4aba df3e
000003f0: 21cf b6be 7a1b fa3e 7fc8 093f f44d 0abf

simplicial_nn.2.W1 f4 [2, 16, 16]
0.20294562 -0.021816805 0.06914272 0.16080059 -0.15464386 0.03624915 -0.18094644 -0.06907761
0.014490968 0.015405777 0.05155892 -0.119362146 0.030950576 0.06148092 0.17764768 -0.13974094
0.17094696 0.17421967 -0.08223363 0.13000059 0.06666118 0.113916755 -0.0018252673 0.022722766
-0.053886287 -0.19988802 -0.19070496 -0.038738932 0.120532155 -0.08797163 -0.15266424 -0.18127714
0.048568696 0.19358566 -0.089951076 -0.079740204 0.04733944 -0.17940071 0.15013903 -0.17059982
-0.15004067 0.15634102 -0.18237758 0.057145596 -0.00027951598 0.17824924 0.13723302 0.04381238
-0.1051381 -0.18847874 0.19128966 0.05479431 0.10885924 0.041158482 -0.095613405 -0.19249284
0.02726233 -0.17963904 0.10636091 -0.15876046 -0.07489389 0.15822497 0.05995682 0.036646128
0.14986128 -0.08573664 -0.022168592 0.11486915 0.084875375 0.15751731 -0.14846715 -0.1953946
-0.15915176 0.17950353 0.088658184 -0.139798 0.13469997 -0.028212115 0.15698299 -0.07435416
-0.107839726 0.05042836 -0.21683463 -0.21631996 0.15315989 -0.030056786 0.06879256 0.14884123
0.02053776 0.09120103 -0.024717495 0.03029487 0.18306917 0.02356136 0.16481525 -0.20111147
0.058877468 0.18362528 -0.15372248 -0.13628533 0.16060823 0.07928008 0.16664937 -0.113067895
-0.11462689 -0.057847798 0.041714817 0.09743753 0.1938704 -0.097865716 -0.06005113 -0.021227688
0.1880754 -0.04798852 -0.13152249 -0.05472292 0.013563827 0.014448911 0.11909586 0.16264054
0.150145 -0.09516718 0.06663284 -0.05752012 0.034485742 -0.20117885 -0.07183029 0.08982852
-0.112666614 0.12566403 0.053985395 -0.094039105 0.035819437 0.16563568 0.108151056 0.1338037
0.18783484 0.08917051 -0.055981837 0.11032301 -0.020630866 0.007980531 0.046793163 0.111616015
-0.16216303 -0.1418417 0.03210254 -0.1259127 -0.102047674 0.048960954 0.00218682 0.17585313
0.07492316 0.18593574 -0.1357108 0.017212182 -0.07584256 -0.046608716 0.081653535 -0.20122136
0.09376174 -0.12940669 -0.19295941 -0.056943092 0.15378208 0.12689611 -0.14089876 0.05204326
0.16988626 0.056236334 0.1007668 0.07081823 0.075274855 -0.07548389 -0.049305916 -0.15790458
-0.10973022 0.18633935 0.115788914 0.08149917 -0.08957278 0.00925299 0.16141391 0.010396674
-0.05764688 0.11939745 0.11006338 0.057493754 0.09593499 -0.097693354 0.1492356 0.057484537
0.20237592 0.19698307 0.15038869 -0.1335104 -0.16438727 0.16365683 0.16379844 -0.114114456
0.1550677 0.020615224 -0.02142929 -0.044837337 -0.075736135 0.014584525 0.15387097 0.14856827
0.10936493 -0.071541086 0.048309762 -0.026982974 0.15678349 0.1474494 0.014271155 -0.13172458
0.093873255 -0.1681099 0.034880895 0.112622865 -0.09030211 -0.15977353 -0.11985811 0.008023441
0.0044255257 -0.1122736 -0.042698365 0.14647192 0.08923214 0.0029954745 -0.080256745 0.13661739
0.057425197 -0.014733642 -0.15152204 0.1940366 -0.03715484 -0.070618965 -0.17955679 0.024170697
-0.04149151 -0.13666229 0.16178913 0.16070004 -0.064809315 -0.026397789 0.105219506 0.071300745
-0.0051526567 -0.11296396 0.093581475 0.05265589 0.07306671 0.017856592 -0.18394066 -0.026877046
00000000: fad0 4f3e 28b9 b2bc b39a 8d3d e9a8 243e
00000010: f65a 1ebe fd79 143d 064a 39be 9078 8dbd
00000020: 866b 6d3c 8368 7c3c 722f 533d 2474 f4bd
00000030: 108c fd3c 6bd3 7b3d 46e9 353e 4018 0fbe
00000040: b80c 2f3e a466 323e 1b6a a8bd e01e 053e
00000050: a885 883d 304d e93d cf3d efba 1825 ba3c
00000060: deb7 5cbd 72af 4cbe 2948 43be b7ac 1ebd
00000070: 90d9 f63d 782a b4bd 0454 1cbe b7a0 39be
00000080: f8ef 463d 523b 463e 4538 b8bd d54e a3bd
00000090: 00e7 413d d2b4 37be 0cbe 193e b8b1 2ebe
000000a0: 43a4 19be dc17 203e 30c1 3abe 8011 6a3d
000000b0: 008c 92b9 f886 363e d086 0c3e 9c74 333d
000000c0: a552 d7bd 9200 41be 70e1 433e 0070 603d
000000d0: 98f1 de3d cc95 283d f6d0 c3bd d81c 45be
000000e0: 4055 df3c 4cf3 37be c0d3 d93d 1a92 22be
000000f0: f861 99bd ba05 223e 4895 753d 401a 163d
00000100: 3c75 193e b196 afbd e89a b5bc 8440 eb3d
00000110: 24d3 ad3d 384c 213e c607 18be 8615 48be
00000120: aef8 22be c6cf 373e 6c92 b53d 3527 0fbe
00000130: caee 093e 181d e7bc 26c0 203e fe46 98bd
00000140: 13db dcbd f88d 4e3d e609 5ebe fb82 5dbe
00000150: f2d5 1c3e a639 f6bc 1de3 8c3d d669 183e
00000160: ce3e a83c 9bc7 ba3d 587c cabc f22c f83c
00000170: 7c76 3b3e c103 c13c 54c5 283e 2af0 4dbe
00000180: 8029 713d 4408 3c3e 6d69 1dbe 628e 0bbe
00000190: 7c76 243e 985d a23d 22a6 2a3e 2490 e7bd
000001a0: 81c1 eabd d0f1 6cbd 28dd 2a3d 548d c73d
000001b0: f685 463e d26d c8bd 2cf8 75bd b0e5 adbc
000001c0: d696 403e 9c8f 44bd d5ad 06be 2425 60bd
000001d0: d03a 5e3c 20bb 6c3c 88e8 f33d 3e8b 263e
000001e0: 9cbf 193e 03e7 c2bd cc76 883d 389a 6bbd
000001f0: ec40 0d3d d401 4ebe c21b 93bd 04f8 b73d
00000200: c1bd e6bd 12ae 003e ca1f 5d3d 9397 c0bd
00000210: 67b7 123d 669c 293e 4d7e dd3d d603 093e
00000220: c757 403e 079f b63d 364d 65bd 08f1 e13d
00000230: 1002 a9bc c6c0 023c 30aa 3f3d f096 e43d
00000240: 110e 26be f33e 11be f47d 033d 42ef 00be
00000250: 5ffe d0bd 488b 483d c050 0f3b d812 343e
00000260: 5071 993d f065 3e3e c6f7 0abe 9000 8d3c
00000270: 5853 9bbd c8e8 3ebd f839 a73d f90c 4ebe
00000280: 2806 c03d 3083 04be 2797 45be 293d 69bd
00000290: 0d79 1d3e 0ef1 013e c447 10be 502b 553d
000002a0: aaf6 2d3e 1258 663d d35e ce3d 2609 913d
000002b0: b429 9a3d 4c97 9abd 00f5 49bd bdb1 21be
000002c0: 3dba e0bd becf 3e3e bd22 ed3d 09e9 a63d
000002d0: ef71 b7bd da99 173c b049 253e d056 2a3c
000002e0: 231f 6cbd a686 f43d e968 e13d 927e 6b3d
000002f0: 9079 c43d 7413 c8bd 38d1 183e e874 6b3d
00000300: a23b 4f3e eeb5 493e 7eff 193e f3b6 08be
00000310: 2355 28be a895 273e c7ba 273e d7b4 e9bd
00000320: 11ca 1e3e 42e1 a83c 7a8c afbc 5ba7 37bd
00000330: 8c1b 9bbd eef3 6e3c 5a90 1d3e 4822 183e
00000340: b8fa df3d 2284 92bd 75e0 453d 660b ddbc
00000350: da8b 203e fafc 163e 90d1 693c cfe2 06be
00000360: 9f40 c03d 0025 2cbe 45df 0e3d d1a6 e63d
00000370: 50f0 b8bd ac9b 23be 2b78 f5bd c074 033c
00000380: 0004 913b b4ef e5bd 7be4 2ebd bcfc 153e
00000390: 57bf b63d b94f 443b a65d a4bd 6ee5 0b3e
000003a0: af36 6b3d 6065 71bc 9828 1bbe 88b1 463e
000003b0: ac2f 18bd ada0 90bd bcdd 37be a001 c63c
000003c0: 00f3 29bd 33f1 0bbe 0dac 253e 8d8e 243e
000003d0: bfba 84bd 2d40 d8bc 537d d73d 2006 923d
000003e0: 9ed7 a8bb a659 e7bd a5a7 bf3d b4ad 573d
000003f0: 00a4 953d fd47 923c f15a 3cbe 402d dcbc

simplicial_nn.2.W2 f4 [2, 16, 16]
-0.13679722 0.0903596 -0.0021408247 -0.11373047 0.16632475 0.096889526 -0.12300047 -0.035197064
0.121127486 -0.2106059 0.115102515 0.0936476 0.10978457 -0.057781458 0.108593345 -0.13780808
-0.0866462 -0.16075328 0.1527565 -0.057813764 -0.21306059 0.023498168 0.049117938 0.0024559498
0.05563089 0.10296039 -0.13793218 -0.13851126 -0.18964545 0.08069535 -0.18805276 -0.053257838
0.103265226 -0.099805415 0.16339904 0.18193743 -0.037431747 0.055016935 -0.041587472 -0.15149516
0.103664905 0.083438545 -0.12717283 -0.12426968 0.2005795 -0.087054685 0.20186082 -0.07181649
0.069455594 0.014197335 0.07573035 0.10567948 -0.023520395 -0.03519614 -0.09189827 -0.03333406
-0.05584988 -0.17608379 -0.15959473 -0.045709908 0.040534392 0.021057576 -0.043349728 -0.0100438
-0.0084023625 0.119801134 -0.14864077 -0.05315295 -0.032138973 -0.035863623 0.20034581 0.012953818
-0.043519452 0.16823184 -0.18490887 0.20039871 -0.11644312 0.15888861 -0.16438475 0.18016946
-0.009726703 -0.008064166 0.022248236 -0.1868209 -0.20465903 0.08781083 -0.16962431 -0.049454927
0.053170063 -0.09104541 -0.03185655 0.13342859 -0.062583834 0.05719901 0.0764119 -0.0688415
0.09639639 0.18009976 -0.13750592 -0.11745333 0.008300513 -0.1787887 0.016290858 0.03018044
0.085083246 -0.07637009 -0.1815833 -0.0069115907 -0.20057443 0.035286054 -0.044365004 0.16199052
0.16051614 0.18343332 0.11820406 0.09187102 -0.18591292 -0.10107981 -0.047158003 0.086479336
-0.14451633 0.006851271 -0.06877057 0.02053392 0.107851684 -0.12017277 -0.087731786 0.0640738
-0.13906124 0.05078152 -0.04714319 -0.11411827 -0.02175828 0.16357997 -0.053508405 0.09907135
0.11222594 0.09029277 -0.05998765 0.14399493 -0.20322885 -0.16498064 0.102158874 -0.07164708
-0.028252527 -0.16811523 -0.056354433 -0.14856273 -0.11388073 -0.1616121 0.072172076 0.17557251
-0.18106194 -0.18659087 0.18556324 0.13605362 -0.067527935 -0.123261124 0.012164339 0.1075609
0.0031515062 -0.12395679 -0.13319397 -0.15396732 -0.05272553 -0.15133508 0.019492991 0.20354858
0.0753552 0.15398803 -0.02453285 -0.07735775 0.14687619 -0.0065637706 -0.076741025 -0.015296012
0.2035675 0.010425374 0.09068026 0.16660671 0.10592135 0.08998914 -0.1371694 0.14496422
0.039650626 -0.14329317 0.1906797 -0.04960047 0.03921394 0.108215585 -0.049934283 -0.15842879
0.010886326 0.07072252 -0.1617858 0.003257573 -0.02311814 0.06578899 -0.13551986 -0.09112159
0.1702058 -0.12067131 0.028720243 0.08520425 0.14110234 0.022908647 -0.14029723 -0.037482217
-0.05703275 -0.19627649 0.1323294 0.14434114 0.02220229 -0.097193636 -0.07765905 0.20018318
-0.036034297 -0.13340074 -0.04686807 0.10708843 0.066883326 -0.14585473 0.018736273 0.20182788
-0.064989224 -0.14396092 0.005273265 0.008895937 0.19078016 -0.094259486 0.17974164 0.13587174
-0.15649264 0.049430456 -0.08855782 -0.11307825 0.17807934 -0.14324138 0.18165028 -0.122742064
-0.06107284 0.17494592 0.012018142 -0.03121996 0.14858729 -0.03371663 0.084677294 -0.14212379
-0.166224 -0.05991061 0.16331546 0.0025441959 -0.12365134 0.11671876 -0.051464617 0.033902735
00000000: 9214 0cbe 740e b93d 144d 0cbb 85eb e8bd
00000010: 0951 2a3e 046e c63d ace7 fbbd cc2a 10bd
00000020: b011 f83d 13a9 57be deba eb3d 50ca bf3d
00000030: bcd6 e03d 40ac 6cbd 3066 de3d 901d 0dbe
00000040: 9073 b1bd 829c 24be 336c 1c3e 20ce 6cbd
00000050: 8e2c 5abe 3b7f c03c e42f 493d 00f4 203b
00000060: 37dd 633d e6dc d23d 183e 0dbe e5d5 0dbe
00000070: 6b32 42be 9b43 a53d e790 40be e424 5abd
00000080: b87c d33d c866 ccbd 1452 273e ce4d 3a3e
00000090: 0852 19bd 7059 613d a057 2abd 8c21 1bbe
000000a0: 444e d43d d4e1 aa3d 9839 02be 1a81 febd
000000b0: b664 4d3e ba49 b2bd 9ab4 4e3e 8614 93bd
000000c0: bc3e 8e3d f09b 683c 8418 9b3d 7c6e d83d
000000d0: d8ad c0bc d429 10bd 2935 bcbd 4c89 08bd
000000e0: d8c2 64bd 4f4f 34be cd6c 23be 503a 3bbd
000000f0: 6407 263d f080 ac3c 7c8f 31bd c08e 24bc
00000100: 10aa 09bc 4c5a f53d 4935 18be e8b6 59bd
00000110: 28a4 03bd bce5 12bd 7427 4d3e 403c 543c
00000120: 7441 32bd f844 2c3e c058 3dbe 5235 4d3e
00000130: bb79 eebd b2b3 223e 7a54 28be 587e 383e
00000140: c05c 1fbc 901f 04bc ef41 b63c fa4d 3fbe
00000150: 2392 51be 2ad6 b33d ffb1 2dbe 4091 4abd
00000160: dac8 593d 0476 babd 047c 02bd 81a1 083e
00000170: f42b 80bd 8249 6a3d d87d 9c3d c6fc 8cbd
00000180: 786b c53d 126c 383e 5ace 0cbe 5f8b f0bd
00000190: e0fe 073c 6314 37be 6874 853c f83c f73c
000001a0: 2040 ae3d ec67 9cbd f9f0 39be a07a e2bb
000001b0: 6263 4dbe 1c88 103d 14b8 35bd d8e0 253e
000001c0: 585e 243e f2d5 3b3e f814 f23d e026 bc3d
000001d0: f55f 3ebe ee02 cfbd c028 41bd 141c b13d
000001e0: 17fc 13be a080 e03b 96d7 8cbd c036 a83c
000001f0: 58e1 dc3d 241d f6bd b9ac b3bd 2039 833d
00000200: 1266 0ebe 4800 503d 3819 41bd d7b6 e9bd
00000210: 6c3e b2bc 8281 273e a12b 5bbd ece5 ca3d
00000220: b7d6 e53d 6aeb b83d 9cb5 75bd 6873 133e
00000230: 391b 50be aff0 28be ac38 d13d b4bb 92bd
00000240: d871 e7bc 6626 2cbe e8d3 66bd d420 18be
00000250: 4d3a e9bd a47d 25be f4ce 933d 48c9 333e
00000260: 4d68 39be ad11 3fbe 4a04 3e3e a451 0b3e
00000270: 164c 8abd 5470 fcbd f04c 473c e448 dc3d
00000280: 8089 4e3b 0fdd fdbd 0064 08be 9ca9 1dbe
00000290: baf6 57bd 95f7 1abe c4af 9f3c 0a6f 503e
000002a0: d453 9a3d 0aaf 1d3e 1ef9 c8bc bd6d 9ebd
000002b0: b666 163e e614 d7bb 662a 9dbd 209c 7abc
000002c0: 0074 503e 30cf 2a3c 92b6 b93d f39a 2a3e
000002d0: 4bed d83d 3a4c b83d 2376 0cbe 8071 143e
000002e0: b268 223d 72bb 12be 8a41 433e dd29 4bbd
000002f0: cc9e 203d 22a0 dd3d e487 4cbd 283b 22be
00000300: 905c 323c f8d6 903d 2dab 25be 017d 553b
00000310: 4162 bdbc 61bc 863d b8c5 0abe f59d babd
00000320: 6e4a 2e3e 8522 f7bd b746 eb3c 917f ae3d
00000330: 227d 103e eaaa bb3c 14aa 0fbe f486 19bd
00000340: 2c9b 69bd b4fc 48be 5c81 073e 2ace 133e
00000350: 94e1 b53c 750d c7bd b50b 9fbd d2fc 4c3e
00000360: b398 13bd 349a 08be bcf8 3fbd 2e51 db3d
00000370: 20fa 883d f15a 15be d07c 993c f8ab 4e3e
00000380: 1219 85bd 7e6a 13be 5acb ac3b 44c0 113c
00000390: e05b 433e 1e0b c1bd 310e 383e f621 0b3e
000003a0: 9b3f 20be 9777 4a3d cd5d b5bd 9295 e7bd
000003b0: 6e5a 363e dead 12be 8802 3a3e 3160 fbbd
000003c0: 8427 7abd 0625 333e bee7 443c 00c1 ffbc
000003d0: 4427 183e 731a 0abd 4a6b ad3d e688 11be
000003e0: a036 2abe d464 75bd 2b3c 273e 86bc 263b
000003f0: ea3c fdbd 3f0a ef3d 90cc 52bd 98dd 0a3d

simplicial_nn.4.W0 f4 [16, 1]
0.15648067 0.01817739 -0.36648765 0.24623664 -0.66837394 -0.36377013 0.63798314 0.22211784
0.4666955 -0.26392716 -0.8107068 0.5950343 0.71816033 0.11937485 0.4736151 -0.28864413
00000000: 783c 203e c0e8 943c 45a4 bbbe 7525 7c3e
00000010: 8e1a 2bbf 1440 babe dd52 233f dc72 633e
00000020: b6f2 ee3e 7621 87be 7b8a 4fbf 2b54 183f
00000030: 5bd9 373f cd7a f43d ae7d f23e 2ac9 93be

simplicial_nn.4.W1 f4 [2, 16, 1]
0.7288418 0.21440232 0.79578257 -0.5340668 0.26417214 0.24815704 0.79516745 0.48447287
-0.4309351 0.06910533 -0.22517712 -0.5319838 -0.5170332 0.004739226 -0.738866 -0.5483662
-0.13858664 -0.3594504 0.36053842 0.24456999 0.6047472 0.5346338 -0.68759584 -0.42964807
-0.43689364 -0.44527245 0.7585994 -0.55601174 -0.15907878 0.06789977 0.3689754 -0.37214294
00000000: 6095 3a3f 488c 5b3e 68b8 4b3f 9ab8 08bf
00000010: 9241 873e e11c 7e3e 1890 4b3f d40c f83e
00000020: 87a3 dcbe 1887 8d3d d594 66be 1730 08bf
00000030: 4a5c 04bf 824b 9b3b 5226 3dbf ba61 0cbf
00000040: a8e9 0dbe e209 b8be 7e98 b83e 8e70 7a3e
00000050: b6d0 1a3f c3dd 083f 4806 30bf d5fa dbbe
00000060: 86b0 dfbe c0fa e3be 9233 423f c956 0ebf
00000070: 8ce5 22be 090f 8b3d 58ea bc3e 8589 bebe

simplicial_nn.4.W2 f4 [2, 16, 1]
-0.6777324 0.017174482 -0.6704088 0.26350442 -0.49025038 0.6953209 -0.21151277 -0.638543
-0.17798631 -0.6847353 -0.3618592 0.44435668 -0.6563138 -0.67209387 -0.19136292 -0.57869756
-0.76462704 0.3516792 -0.14224048 -0.80889124 0.13987835 0.14360344 -0.5626257 -0.2553627
0.18923992 0.14483276 -0.049567044 0.35974035 0.79746866 0.6776306 -0.7874795 -0.56525064
00000000: df7f 2dbf 80b1 8c3c e99f 2bbf 0dea 863e
00000010: 1902 fbbe 8d00 323f ce96 58be 8e77 23bf
00000020: 0b42 36be d04a 2fbf 9c45 b9be b882 e33e
00000030: 2e04 28bf 580e 2cbf a4f4 43be 8625 14bf
00000040: 99be 43bf 4c0f b43e 7da7 11be 7f13 4fbf
00000050: 453c 0f3e c80c 133e 3d08 10bf e6be 82be
00000060: 1cc8 413e 0a4f 143e d006 4bbd e32f b83e
00000070: e826 4c3f 3379 2d3f 4298 49bf 44b4 10bf

exp_avg f4 [1, 16]
-0.50731885 2.2826324 0.0 0.0 0.0 -0.61844724 0.0 0.0
-2.475657 0.0 -1.2850118 1.2650487 1.1803368 -4.8459005 3.2102857 -0.024002338
00000000: a6df 01bf a616 1240 0000 0000 0000 0000
00000010: 0000 0000 8f52 1ebf 0000 0000 0000 0000
00000020: 2a71 1ec0 0000 0000 447b a4bf 1eed a13f
00000030: 4715 973f 9e11 9bc0 5275 4d40 8da0 c4bc

exp_avg_sq f4 [1, 16]
0.0052403137 0.11814382 0.0 0.0 0.0 0.00799975 0.0 0.0
0.13282923 0.0 0.035289336 0.038217604 0.03313311 0.51840425 0.22735676 1.1854864e-05
00000000: f0b6 ab3b 63f5 f13d 0000 0000 0000 0000
00000010: 0000 0000 6211 033c 0000 0000 0000 0000
00000020: 6304 083e 0000 0000 8d8b 103d 108a 1c3d
00000030: 95b6 073d 24b6 043f 36d0 683e 41e4 4637

exp_avg f4 [2, 1, 16]
-0.05174626 0.17281699 0.0 0.0 0.0 -0.11099461 0.0 0.0
-0.21585356 0.0 -0.2085877 0.08614385 0.1533004 -0.44012442 0.17526281 0.0035596632
-0.018095596 0.041750293 0.0 0.0 0.0 -0.05381511 0.0 0.0
-0.064003125 0.0 -0.09218379 0.012960705 0.06133339 -0.12832107 0.01274719 0.0023060313
00000000: e3f3 53bd f0f6 303e 0000 0000 0000 0000
00000010: 0000 0000 2451 e3bd 0000 0000 0000 0000
00000020: b708 5dbe 0000 0000 0498 55be 306c b03d
00000030: c8fa 1c3e fd57 e1be 1878 333e 3d49 693b
00000040: 373d 94bc 5b02 2b3d 0000 0000 0000 0000
00000050: 0000 0000 3c6d 5cbd 0000 0000 0000 0000
00000060: 1214 83bd 0000 0000 dbca bcbd 2359 543c
00000070: b938 7b3d 9966 03be 97d9 503c c920 173b

exp_avg_sq f4 [2, 1, 16]
5.457273e-05 0.0007367235 0.0 0.0 0.0 0.00027289917 0.0 0.0
0.0010464153 0.0 0.00097310776 0.00021138377 0.00058638764 0.0045321737 0.0007156105 2.6031395e-07
6.6791986e-06 4.4998156e-05 0.0 0.0 0.0 6.339531e-05 0.0 0.0
9.1498805e-05 0.0 0.00019127825 5.29563e-06 9.041694e-05 0.00038215748 4.436874e-06 1.0964416e-07
00000000: 06e5 6438 ad20 413a 0000 0000 0000 0000
00000010: 0000 0000 e813 8f39 0000 0000 0000 0000
00000020: df27 893a 0000 0000 2818 7f3a e6a6 5d39
00000030: cfb7 193a a182 943b cf97 3b3a 47c1 8b34
00000040: e11d e036 67bc 3c38 0000 0000 0000 0000
00000050: 0000 0000 19f3 8438 0000 0000 0000 0000
00000060: 0ce3 bf38 0000 0000 dd91 4839 1eb1 b136
00000070: 3a9e bd38 4f5c c839 75e0 9436 8475 eb33

exp_avg f4 [2, 1, 16]
-0.010397074 0.050909985 0.0 0.0 0.0 -0.008113152 0.0 0.0
-0.050408725 0.0 -0.01035541 0.026352141 0.015997732 -0.08783011 0.075497635 -0.001537202
-0.00079875224 0.0040314193 0.0 0.0 0.0 -0.00068697333 0.0 0.0
-0.003998202 0.0 -0.00079731375 0.0021644933 0.0012770994 -0.006940152 0.005958636 -0.000114508126
00000000: 7d58 2abc fd86 503d 0000 0000 0000 0000
00000010: 0000 0000 07ed 04bc 0000 0000 0000 0000
00000020: 6179 4ebd 0000 0000 bda9 29bc 72e0 d73c
00000030: ad0d 833c 46e0 b3bd 819e 9a3d f17b c9ba
00000040: 5b63 51ba ff19 843b 0000 0000 0000 0000
00000050: 0000 0000 0016 34ba 0000 0000 0000 0000
00000060: 5903 83bb 0000 0000 d202 51ba 2cda 0d3b
00000070: 5864 a73a 376a e3bb a940 c33b 1524 f0b8

exp_avg_sq f4 [2, 1, 16]
2.2106394e-06 5.4708365e-05 0.0 0.0 0.0 1.613987e-06 0.0 0.0
5.308021e-05 0.0 2.332008e-06 1.510044e-05 5.42907e-06 0.0001604097 0.00012039289 4.9574012e-08
1.3079565e-08 3.4281146e-07 0.0 0.0 0.0 1.1288003e-08 0.0 0.0
3.3399868e-07 0.0 1.40181475e-08 1.0238154e-07 3.4822904e-08 1.0035102e-06 7.490489e-07 2.779007e-10
00000000: 7f5a 1436 a976 6538 0000 0000 0000 0000
00000010: 0000 0000 2ca0 d835 0000 0000 0000 0000
00000020: 71a2 5e38 0000 0000 987f 1c36 e557 7d37
00000030: 5b2b b636 a733 2839 717b fc38 34eb 5433
00000040: 89b4 6032 a60b b834 0000 0000 0000 0000
00000050: 0000 0000 2aed 4132 0000 0000 0000 0000
00000060: 6e50 b334 0000 0000 77d4 7032 d9dc db33
00000070: 3090 1533 59b0 8635 4012 4935 0cc7 982f

exp_avg f4 [16, 16]
0.0 0.0 0.9944452 -0.0003686855 1.9899335 0.9949742 -2.0516853 0.0
-1.2682384 0.8747631 0.0018068312 -1.6557653 0.0 -0.03243987 0.0 0.0
0.0 0.0 1.2874796 0.0047032204 2.6381238 1.3140401 -2.8263435 0.0
-1.6557851 1.207332 0.0016389646 -2.1636274 0.0 -0.06565843 0.0 0.0
0.0 0.0 0.0 0.0 0.0 0.0 0.0 0.0
0.0 0.0 0.0 0.0 0.0 0.0 0.0 0.0
0.0 0.0 0.0 0.0 0.0 0.0 0.0 0.0
0.0 0.0 0.0 0.0 0.0 0.0 0.0 0.0
0.0 0.0 0.0 0.0 0.0 0.0 0.0 0.0
0.0 0.0 0.0 0.0 0.0 0.0 0.0 0.0
0.0 0.0 0.46947926 0.0011993492 0.94613945 0.47887707 -0.9738292 0.0
-0.6069808 0.40872008 0.00082389236 -0.7858951 0.0 -0.014554486 0.0 0.0
0.0 0.0 0.0 0.0 0.0 0.0 0.0 0.0
0.0 0.0 0.0 0.0 0.0 0.0 0.0 0.0
0.0 0.0 0.0 0.0 0.0 0.0 0.0 0.0
0.0 0.0 0.0 0.0 0.0 0.0 0.0 0.0
0.0 0.0 0.7736792 0.007001168 1.63997 0.80833465 -1.8611895 0.0
-1.0030007 0.80124736 0.00050233526 -1.3174553 0.0 -0.06410557 0.0 0.0
0.0 0.0 0.0 0.0 0.0 0.0 0.0 0.0
0.0 0.0 0.0 0.0 0.0 0.0 0.0 0.0
0.0 0.0 1.250705 0.0020033275 2.5249221 1.2654474 -2.6316872 0.0
-1.605087 1.1178603 0.0020576469 -2.0911133 0.0 -0.046825126 0.0 0.0
0.0 0.0 0.7725367 0.00013469449 1.5238464 0.7682714 -1.5352079 0.0
-0.98134106 0.6502444 0.0017046581 -1.2794164 0.0 -0.01608365 0.0 0.0
0.0 0.0 0.5309057 0.0017471083 1.0904983 0.53989065 -1.1775416 0.0
-0.68043506 0.50603163 0.00062058587 -0.89229244 0.0 -0.029376611 0.0 0.0
0.0 0.0 0.95395535 0.0039566276 1.9530485 0.9775019 -2.0803924 0.0
-1.2315866 0.8836191 0.0012705594 -1.6043777 0.0 -0.04587158 0.0 0.0
0.0 0.0 0.33478734 0.00011365137 0.65683496 0.33249956 -0.6589893 0.0
-0.42404357 0.27895668 0.00084836053 -0.5524323 0.0 -0.0059191347 0.0 0.0
0.0 0.0 0.0017145048 0.0 0.0012728059 0.001164824 0.00023128236 0.0
-0.0013655493 -3.1350293e-05 0.00052243716 -0.0016438756 0.0 -1.3499207e-05 0.0 0.0
00000000: 0000 0000 0000 0000 f693 7e3f 214c c1b9
00000010: 24b6 fe3f a1b6 7e3f d04e 03c0 0000 0000
00000020: a355 a2bf 79f0 5f3f 32d3 ec3a 1ef0 d3bf
00000030: 0000 0000 abdf 04bd 0000 0000 0000 0000
00000040: 0000 0000 0000 0000 22cc a43f 791d 9a3b
00000050: 05d7 2840 7732 a83f d0e2 34c0 0000 0000
00000060: c4f0 d3bf db89 9a3f 87d2 d63a df78 0ac0
00000070: 0000 0000 ed77 86bd 0000 0000 0000 0000
00000080: 0000 0000 0000 0000 0000 0000 0000 0000
00000090: 0000 0000 0000 0000 0000 0000 0000 0000
000000a0: 0000 0000 0000 0000 0000 0000 0000 0000
000000b0: 0000 0000 0000 0000 0000 0000 0000 0000
000000c0: 0000 0000 0000 0000 0000 0000 0000 0000
000000d0: 0000 0000 0000 0000 0000 0000 0000 0000
000000e0: 0000 0000 0000 0000 0000 0000 0000 0000
000000f0: 0000 0000 0000 0000 0000 0000 0000 0000
00000100: 0000 0000 0000 0000 0000 0000 0000 0000
00000110: 0000 0000 0000 0000 0000 0000 0000 0000
00000120: 0000 0000 0000 0000 0000 0000 0000 0000
00000130: 0000 0000 0000 0000 0000 0000 0000 0000
00000140: 0000 0000 0000 0000 965f f03e 7b33 9d3a
00000150: 3236 723f 602f f53e df4c 79bf 0000 0000
00000160: 1863 1bbf c243 d13e 7bfa 573a 6c30 49bf
00000170: 0000 0000 f075 6ebc 0000 0000 0000 0000
00000180: 0000 0000 0000 0000 0000 0000 0000 0000
00000190: 0000 0000 0000 0000 0000 0000 0000 0000
000001a0: 0000 0000 0000 0000 0000 0000 0000 0000
000001b0: 0000 0000 0000 0000 0000 0000 0000 0000
000001c0: 0000 0000 0000 0000 0000 0000 0000 0000
000001d0: 0000 0000 0000 0000 0000 0000 0000 0000
000001e0: 0000 0000 0000 0000 0000 0000 0000 0000
000001f0: 0000 0000 0000 0000 0000 0000 0000 0000
00000200: 0000 0000 0000 0000 d70f 463f 0e6a e53b
00000210: 89ea d13f 05ef 4e3f 753b eebf 0000 0000
00000220: 5462 80bf 8c1e 4d3f 26af 033a 60a2 a8bf
00000230: 0000 0000 c849 83bd 0000 0000 0000 0000
00000240: 0000 0000 0000 0000 0000 0000 0000 0000
00000250: 0000 0000 0000 0000 0000 0000 0000 0000
00000260: 0000 0000 0000 0000 0000 0000 0000 0000
00000270: 0000 0000 0000 0000 0000 0000 0000 0000
00000280: 0000 0000 0000 0000 1a17 a03f 424a 033b
00000290: 5398 2140 2efa a13f 906d 28c0 0000 0000
000002a0: 7e73 cdbf 0c16 8f3f 96d9 063b cdd4 05c0
000002b0: 0000 0000 b4cb 3fbd 0000 0000 0000 0000
000002c0: 0000 0000 0000 0000 f7c4 453f c73c 0d39
000002d0: 660d c33f 6fad 443f b181 c4bf 0000 0000
000002e0: 2b39 7bbf 6b76 263f d66e df3a ebc3 a3bf
000002f0: 0000 0000 dcc1 83bc 0000 0000 0000 0000
00000300: 0000 0000 0000 0000 70e9 073f 3aff e43a
00000310: 7395 8b3f 4636 0a3f afb9 96bf 0000 0000
00000320: fe30 2ebf 4a8b 013f d0ae 223a 476d 64bf
00000330: 0000 0000 38a7 f0bc 0000 0000 0000 0000
00000340: 0000 0000 0000 0000 6b36 743f 99a6 813b
00000350: 7efd f93f 913d 7a3f 2625 05c0 0000 0000
00000360: a1a4 9dbf dd34 623f e688 a63a 405c cdbf
00000370: 0000 0000 d6e3 3bbd 0000 0000 0000 0000
00000380: 0000 0000 0000 0000 3f69 ab3e 1d58 ee38
00000390: 5626 283f 623d aa3e 86b3 28bf 0000 0000
000003a0: 3d1c d9be 69d3 8e3e 8364 5e3a 346c 0dbf
000003b0: 0000 0000 4df5 c1bb 0000 0000 0000 0000
000003c0: 0000 0000 0000 0000 3cb9 e03a 0000 0000
000003d0: 47d4 a63a 02ad 983a 6384 7239 0000 0000
000003e0: 3bfc b2ba 1f7e 03b8 2af4 083a 5077 d7ba
000003f0: 0000 0000 a77a 62b7 0000 0000 0000 0000

exp_avg_sq f4 [16, 16]
0.0 0.0 0.021516986 1.9833628e-08 0.086709365 0.021896102 0.09230881 0.0
0.034940835 0.016799621 9.713e-08 0.0591809 0.0 2.347074e-05 0.0 0.0
0.0 0.0 0.036515165 8.565639e-07 0.1546633 0.03877716 0.17799953 0.0
0.060289837 0.032568205 8.896215e-08 0.10204754 0.0 8.947842e-05 0.0 0.0
0.0 0.0 0.0 0.0 0.0 0.0 0.0 0.0
0.0 0.0 0.0 0.0 0.0 0.0 0.0 0.0
0.0 0.0 0.0 0.0 0.0 0.0 0.0 0.0
0.0 0.0 0.0 0.0 0.0 0.0 0.0 0.0
0.0 0.0 0.0 0.0 0.0 0.0 0.0 0.0
0.0 0.0 0.0 0.0 0.0 0.0 0.0 0.0
0.0 0.0 0.004803029 3.8273665e-08 0.019636875 0.0050824117 0.020805247 0.0
0.008020129 0.0036705795 1.9032715e-08 0.013319728 0.0 5.224723e-06 0.0 0.0
0.0 0.0 0.0 0.0 0.0 0.0 0.0 0.0
0.0 0.0 0.0 0.0 0.0 0.0 0.0 0.0
0.0 0.0 0.0 0.0 0.0 0.0 0.0 0.0
0.0 0.0 0.0 0.0 0.0 0.0 0.0 0.0
0.0 0.0 0.013136044 1.6043776e-06 0.059602983 0.014623943 0.07695974 0.0
0.022021605 0.014326738 1.13183765e-08 0.03761391 0.0 8.3930194e-05 0.0 0.0
0.0 0.0 0.0 0.0 0.0 0.0 0.0 0.0
0.0 0.0 0.0 0.0 0.0 0.0 0.0 0.0
0.0 0.0 0.034170464 1.8361526e-07 0.14026453 0.035594307 0.15260886 0.0
0.056195863 0.02758236 1.2651324e-07 0.0946335 0.0 4.8029848e-05 0.0 0.0
0.0 0.0 0.013102759 8.5541907e-10 0.051343236 0.013188264 0.052208137 0.0
0.02112572 0.00937116 8.045477e-08 0.035660837 0.0 6.8221725e-06 0.0 0.0
0.0 0.0 0.006226409 1.442888e-07 0.02651878 0.0065701604 0.031033792 0.0
0.0102095 0.0057464517 1.3698409e-08 0.017415456 0.0 1.7717131e-05 0.0 0.0
0.0 0.0 0.0199206 5.087938e-07 0.0841676 0.021300433 0.09565459 0.0
0.03315166 0.017300464 5.085773e-08 0.055742286 0.0 4.4498876e-05 0.0 0.0
0.0 0.0 0.0024823635 4.6561455e-10 0.009627717 0.0024934195 0.009710483 0.0
0.003979463 0.0017412452 1.930335e-08 0.006705158 0.0 1.0024222e-06 0.0 0.0
0.0 0.0 6.294267e-08 0.0 3.3589522e-08 2.9263669e-08 2.4813926e-09 0.0
3.99693e-08 2.9789174e-10 5.9038e-09 5.7291437e-08 0.0 2.0433799e-11 0.0 0.0
00000000: 0000 0000 0000 0000 6444 b03c 9c5e aa32
00000010: ae94 b13d 745f b33c 670c bd3d 0000 0000
00000020: 1f1e 0f3d 5c9f 893c c895 d033 ac67 723d
00000030: 0000 0000 08e3 c437 0000 0000 0000 0000
00000040: 0000 0000 0000 0000 ed90 153d 9fee 6535
00000050: 0e60 1e3e cdd4 1e3d 8245 363e 0000 0000
00000060: 7af2 763d 3d66 053d 760b bf33 4dfe d03d
00000070: 0000 0000 5ca6 bb38 0000 0000 0000 0000
00000080: 0000 0000 0000 0000 0000 0000 0000 0000
00000090: 0000 0000 0000 0000 0000 0000 0000 0000
000000a0: 0000 0000 0000 0000 0000 0000 0000 0000
000000b0: 0000 0000 0000 0000 0000 0000 0000 0000
000000c0: 0000 0000 0000 0000 0000 0000 0000 0000
000000d0: 0000 0000 0000 0000 0000 0000 0000 0000
000000e0: 0000 0000 0000 0000 0000 0000 0000 0000
000000f0: 0000 0000 0000 0000 0000 0000 0000 0000
00000100: 0000 0000 0000 0000 0000 0000 0000 0000
00000110: 0000 0000 0000 0000 0000 0000 0000 0000
00000120: 0000 0000 0000 0000 0000 0000 0000 0000
00000130: 0000 0000 0000 0000 0000 0000 0000 0000
00000140: 0000 0000 0000 0000 ba62 9d3b 5762 2433
00000150: 83dd a03c 5c8a a63b c46f aa3c 0000 0000
00000160: dc66 033c 1b8e 703b 627d a332 fd3a 5a3c
00000170: 0000 0000 0750 af36 0000 0000 0000 0000
00000180: 0000 0000 0000 0000 0000 0000 0000 0000
00000190: 0000 0000 0000 0000 0000 0000 0000 0000
000001a0: 0000 0000 0000 0000 0000 0000 0000 0000
000001b0: 0000 0000 0000 0000 0000 0000 0000 0000
000001c0: 0000 0000 0000 0000 0000 0000 0000 0000
000001d0: 0000 0000 0000 0000 0000 0000 0000 0000
000001e0: 0000 0000 0000 0000 0000 0000 0000 0000
000001f0: 0000 0000 0000 0000 0000 0000 0000 0000
00000200: 0000 0000 0000 0000 9038 573c ff55 d735
00000210: 4222 743d 4399 6f3c 119d 9d3d 0000 0000
00000220: a766 b43c b2ba 6a3c bf72 4232 0b11 1a3d
00000230: 0000 0000 ae03 b038 0000 0000 0000 0000
00000240: 0000 0000 0000 0000 0000 0000 0000 0000
00000250: 0000 0000 0000 0000 0000 0000 0000 0000
00000260: 0000 0000 0000 0000 0000 0000 0000 0000
00000270: 0000 0000 0000 0000 0000 0000 0000 0000
00000280: 0000 0000 0000 0000 54f6 0b3d c727 4534
00000290: 81a1 0f3e 56cb 113d 7f45 1c3e 0000 0000
000002a0: a22d 663d 67f4 e13c b2d7 0734 35cf c13d
000002b0: 0000 0000 a873 4938 0000 0000 0000 0000
000002c0: 0000 0000 0000 0000 f4ac 563c c422 6b30
000002d0: 494d 523d 9713 583c 33d8 553d 0000 0000
000002e0: d90f ad3c 7e89 193c 7ac6 ac33 1911 123d
000002f0: 0000 0000 04ea e436 0000 0000 0000 0000
00000300: 0000 0000 0000 0000 e806 cc3b ceed 1a34
00000310: ea3d d93c 804a d73b 943a fe3c 0000 0000
00000320: bf45 273c bb4c bc3b 3d56 6b32 dcaa 8e3c
00000330: 0000 0000 409f 9437 0000 0000 0000 0000
00000340: 0000 0000 0000 0000 8730 a33c 0b94 0835
00000350: 1060 ac3d 3f7e ae3c 8ee6 c33d 0000 0000
00000360: 09ca 073d b4b9 8d3c aa6e 5a33 0652 643d
00000370: 0000 0000 4ea4 3a38 0000 0000 0000 0000
00000380: 0000 0000 0000 0000 26af 223b 6cf9 ff2f
00000390: 92bd 1d3c a368 233b b818 1f3c 0000 0000
000003a0: 2866 823b 7e3a e43a 84d0 a532 f1b6 db3b
000003b0: 0000 0000 f78a 8635 0000 0000 0000 0000
000003c0: 0000 0000 0000 0000 192b 8733 0000 0000
000003d0: 1244 1033 7d5f fb32 1f85 2a31 0000 0000
000003e0: b6aa 2b33 89c4 a32f 60da ca31 9a10 7633
000003f0: 0000 0000 d3bc b32d 0000 0000 0000 0000

exp_avg f4 [2, 16, 16]
0.0 0.0 0.04915112 0.0022376734 0.12446991 0.0607897 -0.16951905 0.0
-0.07007866 0.07180802 -0.00020444494 -0.09128846 0.0 -0.010985784 0.0 0.0
0.0 0.0 0.06540778 0.0044066524 0.19137739 0.08539349 -0.31199002 0.0
-0.09205935 0.14025472 -0.0005979049 -0.12783383 0.0 -0.028428202 0.0 0.0
0.0 0.0 0.0 0.0 0.0 0.0 0.0 0.0
0.0 0.0 0.0 0.0 0.0 0.0 0.0 0.0
0.0 0.0 0.0 0.0 0.0 0.0 0.0 0.0
0.0 0.0 0.0 0.0 0.0 0.0 0.0 0.0
0.0 0.0 0.0 0.0 0.0 0.0 0.0 0.0
0.0 0.0 0.0 0.0 0.0 0.0 0.0 0.0
0.0 0.0 0.025830952 0.00094943383 0.0616801 0.03149378 -0.07500691 0.0
-0.03749821 0.030065827 -5.5019515e-05 -0.047248323 0.0 -0.0034600943 0.0 0.0
0.0 0.0 0.0 0.0 0.0 0.0 0.0 0.0
0.0 0.0 0.0 0.0 0.0 0.0 0.0 0.0
0.0 0.0 0.0 0.0 0.0 0.0 0.0 0.0
0.0 0.0 0.0 0.0 0.0 0.0 0.0 0.0
0.0 0.0 0.039029554 0.004118586 0.14200372 0.05552835 -0.28150296 0.0
-0.053210787 0.13330564 -0.00072155753 -0.08317037 0.0 -0.03246 0.0 0.0
0.0 0.0 0.0 0.0 0.0 0.0 0.0 0.0
0.0 0.0 0.0 0.0 0.0 0.0 0.0 0.0
0.0 0.0 0.06423931 0.0031536913 0.16706221 0.08035188 -0.23521318 0.0
-0.091726534 0.10065177 -0.0003192341 -0.12052446 0.0 -0.016498787 0.0 0.0
0.0 0.0 0.03937592 0.0012345262 0.08831116 0.046697456 -0.09824536 0.0
-0.056345798 0.03805217 -9.741067e-06 -0.069987886 0.0 -0.002650271 0.0 0.0
0.0 0.0 0.026084755 0.001993917 0.080480576 0.03475698 -0.13858214 0.0
-0.036446165 0.06331734 -0.00029146005 -0.051966384 0.0 -0.013600384 0.0 0.0
0.0 0.0 0.050143823 0.0030119035 0.14064541 0.06452171 -0.21786043 0.0
-0.07121693 0.0962087 -0.00038008892 -0.09671024 0.0 -0.018393645 0.0 0.0
0.0 0.0 0.017132934 0.0005021714 0.03686386 0.019824725 -0.039685685 0.0
-0.02389462 0.015272263 1.643531e-05 -0.029730676 0.0 -0.00066940853 0.0 0.0
0.0 0.0 0.0001012242 -6.5872024e-05 -0.00036509894 -6.138353e-05 0.0013582938 0.0
-5.123723e-05 -0.00070489343 1.1267319e-05 0.00016720533 0.0 0.0002183845 0.0 0.0
00000000: 0000 0000 0000 0000 af52 493d eea5 123b
00000010: 15ea fe3d 9ffe 783d 6796 2dbe 0000 0000
00000020: 6785 8fbd 1510 933d 4560 56b9 72f5 babd
00000030: 0000 0000 b8fd 33bc 0000 0000 0000 0000
00000040: 0000 0000 0000 0000 84f4 853d ae65 903b
00000050: 6ff8 433e c8e2 ae3d 28bd 9fbe 0000 0000
00000060: 9d89 bcbd ef9e 0f3e b8bc 1cba dfe6 02be
00000070: 0000 0000 43e2 e8bc 0000 0000 0000 0000
00000080: 0000 0000 0000 0000 0000 0000 0000 0000
00000090: 0000 0000 0000 0000 0000 0000 0000 0000
000000a0: 0000 0000 0000 0000 0000 0000 0000 0000
000000b0: 0000 0000 0000 0000 0000 0000 0000 0000
000000c0: 0000 0000 0000 0000 0000 0000 0000 0000
000000d0: 0000 0000 0000 0000 0000 0000 0000 0000
000000e0: 0000 0000 0000 0000 0000 0000 0000 0000
000000f0: 0000 0000 0000 0000 0000 0000 0000 0000
00000100: 0000 0000 0000 0000 0000 0000 0000 0000
00000110: 0000 0000 0000 0000 0000 0000 0000 0000
00000120: 0000 0000 0000 0000 0000 0000 0000 0000
00000130: 0000 0000 0000 0000 0000 0000 0000 0000
00000140: 0000 0000 0000 0000 6f9b d33c 6de3 783a
00000150: 46a4 7c3d 9fff 003d 399d 99bd 0000 0000
00000160: b997 19bd 9c4c f63c c1c4 66b8 7587 41bd
00000170: 0000 0000 c0c2 62bb 0000 0000 0000 0000
00000180: 0000 0000 0000 0000 0000 0000 0000 0000
00000190: 0000 0000 0000 0000 0000 0000 0000 0000
000001a0: 0000 0000 0000 0000 0000 0000 0000 0000
000001b0: 0000 0000 0000 0000 0000 0000 0000 0000
000001c0: 0000 0000 0000 0000 0000 0000 0000 0000
000001d0: 0000 0000 0000 0000 0000 0000 0000 0000
000001e0: 0000 0000 0000 0000 0000 0000 0000 0000
000001f0: 0000 0000 0000 0000 0000 0000 0000 0000
00000200: 0000 0000 0000 0000 74dd 1f3d 34f5 863b
00000210: 6c69 113e b271 633d 2821 90be 0000 0000
00000220: 8ef3 59bd 4681 083e e826 3dba 3a55 aabd
00000230: 0000 0000 c7f4 04bd 0000 0000 0000 0000
00000240: 0000 0000 0000 0000 0000 0000 0000 0000
00000250: 0000 0000 0000 0000 0000 0000 0000 0000
00000260: 0000 0000 0000 0000 0000 0000 0000 0000
00000270: 0000 0000 0000 0000 0000 0000 0000 0000
00000280: 0000 0000 0000 0000 e68f 833d 29ae 4e3b
00000290: 5b12 2b3e 878f a43d b9db 70be 0000 0000
000002a0: 1fdb bbbd 8422 ce3d e05e a7b9 87d5 f6bd
000002b0: 0000 0000 7728 87bc 0000 0000 0000 0000
000002c0: 0000 0000 0000 0000 a548 213d d3cf a13a
000002d0: 7bdc b43d d545 3f3d dd34 c9bd 0000 0000
000002e0: daca 66bd 98dc 1b3d 906d 23b7 cf55 8fbd
000002f0: 0000 0000 2bb0 2dbb 0000 0000 0000 0000
00000300: 0000 0000 0000 0000 b2af d53c 60ac 023b
00000310: 00d3 a43d 565d 0e3d 7ae8 0dbe 0000 0000
00000320: 9348 15bd 86ac 813d 1bcf 98b9 b4da 54bd
00000330: 0000 0000 25d4 5ebc 0000 0000 0000 0000
00000340: 0000 0000 0000 0000 9c63 4d3d 5b63 453b
00000350: 5a05 103e f523 843d ce16 5fbe 0000 0000
00000360: 2fda 91bd 1109 c53d ac46 c7b9 0510 c6bd
00000370: 0000 0000 45ae 96bc 0000 0000 0000 0000
00000380: 0000 0000 0000 0000 5e5a 8c3c 27a4 033a
00000390: 8ffe 163d 7667 a23c 758d 22bd 0000 0000
000003a0: a6be c3bc 8438 7a3c 8fde 8937 bf8d f3bc
000003b0: 0000 0000 3f7b 2fba 0000 0000 0000 0000
000003c0: 0000 0000 0000 0000 5448 d438 c624 8ab8
000003d0: c06a bfb9 08bb 80b8 c708 b23a 0000 0000
000003e0: 8fe7 56b8 99c8 38ba c408 3d37 d753 2f39
000003f0: 0000 0000 25fe 6439 0000 0000 0000 0000

exp_avg_sq f4 [2, 16, 16]
0.0 0.0 5.60152e-05 1.3294779e-07 0.00036218256 8.7585155e-05 0.00066152104 0.0
0.000112927446 0.000120107434 1.0113796e-09 0.00018485462 0.0 2.4585133e-06 0.0 0.0
0.0 0.0 0.0001009569 6.064898e-07 0.00087299984 0.00017639372 0.0022821713 0.0
0.0001963513 0.00046801366 8.06414e-09 0.00036606743 0.0 1.6904512e-05 0.0 0.0
0.0 0.0 0.0 0.0 0.0 0.0 0.0 0.0
0.0 0.0 0.0 0.0 0.0 0.0 0.0 0.0
0.0 0.0 0.0 0.0 0.0 0.0 0.0 0.0
0.0 0.0 0.0 0.0 0.0 0.0 0.0 0.0
0.0 0.0 0.0 0.0 0.0 0.0 0.0 0.0
0.0 0.0 0.0 0.0 0.0 0.0 0.0 0.0
0.0 0.0 1.525046e-05 2.1222329e-08 8.797624e-05 2.326226e-05 0.00012814104 0.0
3.215183e-05 2.0806652e-05 1.1470937e-10 4.9122784e-05 0.0 2.5105967e-07 0.0 0.0
0.0 0.0 0.0 0.0 0.0 0.0 0.0 0.0
0.0 0.0 0.0 0.0 0.0 0.0 0.0 0.0
0.0 0.0 0.0 0.0 0.0 0.0 0.0 0.0
0.0 0.0 0.0 0.0 0.0 0.0 0.0 0.0
0.0 0.0 3.611704e-05 5.793677e-07 0.00047645156 7.442841e-05 0.0018282814 0.0
6.461312e-05 0.00041544889 1.1648598e-08 0.00015362547 0.0 2.2236469e-05 0.0 0.0
0.0 0.0 0.0 0.0 0.0 0.0 0.0 0.0
0.0 0.0 0.0 0.0 0.0 0.0 0.0 0.0
0.0 0.0 9.576012e-05 2.7204374e-07 0.00065445143 0.00015347544 0.0012784738 0.0
0.00019358043 0.00023715041 2.3934081e-09 0.00032241573 0.0 5.562152e-06 0.0 0.0
0.0 0.0 3.603134e-05 3.5536978e-08 0.0001851166 5.2142437e-05 0.00022887146 0.0
7.400463e-05 3.5024677e-05 5.377472e-11 0.00010984722 0.0 1.618902e-07 0.0 0.0
0.0 0.0 1.6234215e-05 1.3044624e-07 0.0001559283 2.9547156e-05 0.00045399973 0.0
3.095253e-05 9.6220414e-05 1.9188835e-09 6.0886046e-05 0.0 3.9104834e-06 0.0 0.0
0.0 0.0 5.8437003e-05 2.653012e-07 0.00046426864 9.918377e-05 0.0010954838 0.0
0.00011639481 0.00021646603 3.2621823e-09 0.00020734961 0.0 6.976749e-06 0.0 0.0
0.0 0.0 6.855288e-06 5.891102e-09 3.2670792e-05 9.466617e-06 3.802285e-05 0.0
1.3450809e-05 5.772878e-06 1.215324e-11 2.0044747e-05 0.0 1.2583166e-08 0.0 0.0
0.0 0.0 3.2155814e-10 1.1371714e-10 3.040108e-09 1.0550203e-10 4.1278103e-08 0.0
8.4330286e-11 1.1135775e-08 3.268334e-12 6.5770556e-10 0.0 1.0097213e-09 0.0 0.0
00000000: 0000 0000 0000 0000 ddf1 6a38 69c0 0e34
00000010: 52e3 bd39 ecad b738 ed69 2d3a 0000 0000
00000020: 76d3 ec38 30e2 fb38 c200 8b30 89d5 4139
00000030: 0000 0000 f0fc 2436 0000 0000 0000 0000
00000040: 0000 0000 0000 0000 d3b8 d338 a9cd 2235
00000050: 07da 643a 54f6 3839 7b90 153b 0000 0000
00000060: a7e3 4d39 bb5f f539 768a 0a32 bdec bf39
00000070: 0000 0000 2ace 8d37 0000 0000 0000 0000
00000080: 0000 0000 0000 0000 0000 0000 0000 0000
00000090: 0000 0000 0000 0000 0000 0000 0000 0000
000000a0: 0000 0000 0000 0000 0000 0000 0000 0000
000000b0: 0000 0000 0000 0000 0000 0000 0000 0000
000000c0: 0000 0000 0000 0000 0000 0000 0000 0000
000000d0: 0000 0000 0000 0000 0000 0000 0000 0000
000000e0: 0000 0000 0000 0000 0000 0000 0000 0000
000000f0: 0000 0000 0000 0000 0000 0000 0000 0000
00000100: 0000 0000 0000 0000 0000 0000 0000 0000
00000110: 0000 0000 0000 0000 0000 0000 0000 0000
00000120: 0000 0000 0000 0000 0000 0000 0000 0000
00000130: 0000 0000 0000 0000 0000 0000 0000 0000
00000140: 0000 0000 0000 0000 3adc 7f37 654c b632
00000150: e27f b838 5323 c337 995d 0639 0000 0000
00000160: c4da 0638 f289 ae37 a23f fc2e 3009 4e38
00000170: 0000 0000 61c9 8634 0000 0000 0000 0000
00000180: 0000 0000 0000 0000 0000 0000 0000 0000
00000190: 0000 0000 0000 0000 0000 0000 0000 0000
000001a0: 0000 0000 0000 0000 0000 0000 0000 0000
000001b0: 0000 0000 0000 0000 0000 0000 0000 0000
000001c0: 0000 0000 0000 0000 0000 0000 0000 0000
000001d0: 0000 0000 0000 0000 0000 0000 0000 0000
000001e0: 0000 0000 0000 0000 0000 0000 0000 0000
000001f0: 0000 0000 0000 0000 0000 0000 0000 0000
00000200: 0000 0000 0000 0000 607c 1738 d885 1b35
00000210: 3fcc f939 7316 9c38 f2a2 ef3a 0000 0000
00000220: e880 8738 9bd0 d939 131f 4832 8616 2139
00000230: 0000 0000 7488 ba37 0000 0000 0000 0000
00000240: 0000 0000 0000 0000 0000 0000 0000 0000
00000250: 0000 0000 0000 0000 0000 0000 0000 0000
00000260: 0000 0000 0000 0000 0000 0000 0000 0000
00000270: 0000 0000 0000 0000 0000 0000 0000 0000
00000280: 0000 0000 0000 0000 d3d2 c838 680d 9234
00000290: 7e8f 2b3a 40ee 2039 7692 a73a 0000 0000
000002a0: dafb 4a39 94ab 7839 4879 2431 e809 a939
000002b0: 0000 0000 86a2 ba36 0000 0000 0000 0000
000002c0: 0000 0000 0000 0000 5b20 1738 52a1 1833
000002d0: dc1b 4239 84b3 5a38 37fd 6f39 0000 0000
000002e0: ef32 9b38 76e7 1238 f480 6c2e c75d e638
000002f0: 0000 0000 0ad4 2d34 0000 0000 0000 0000
00000300: 0000 0000 0000 0000 b62e 8837 ca10 0c34
00000310: af80 2339 09dc f737 d006 ee39 0000 0000
00000320: 07d3 0138 f1c9 c938 5bdd 0331 e55f 7f38
00000330: 0000 0000 cc36 8336 0000 0000 0000 0000
00000340: 0000 0000 0000 0000 411a 7538 b86e 8e34
00000350: 1569 f339 e200 d038 5696 8f3a 0000 0000
00000360: fd18 f438 28fb 6239 eb2c 6031 fd6b 5939
00000370: 0000 0000 d119 ea36 0000 0000 0000 0000
00000380: 0000 0000 0000 0000 7a06 e636 ae6a ca31
00000390: ff07 0938 cfd2 1e37 b97a 1f38 0000 0000
000003a0: c9aa 6137 a5b4 c136 54cd 552d c425 a837
000003b0: 0000 0000 592d 5832 0000 0000 0000 0000
000003c0: 0000 0000 0000 0000 49c7 b02f 0f11 fa2e
000003d0: 25ea 5031 5d00 e82e c149 3133 0000 0000
000003e0: bb71 b92e a84f 3f32 12fd 652c eac9 3430
000003f0: 0000 0000 69c6 8a30 0000 0000 0000 0000
