results/Test_citation/version_91/checkpoints/epoch=0-step=0.ckpt (torch, 566353 bytes, 27 tensors)

simplicial_nn.0.W0 f4 [1, 64]
00000000: 5ca1 bbbd 868b 88be 82eb 9dbe fc70 a33d
00000010: fec4 4f3e c28d 573e 787f b9bd 361b 91be
00000020: 106d 14bd 0327 a63e bc37 8ebe 50f2 72bd
00000030: 2b88 bf3e 0098 b4ba c04d 26bc 4b41 6fbe
00000040: d983 ce3e 0020 31b9 4764 d83e dacc 02be
00000050: bfa5 89be f4c3 d63d 8124 a13e 71c1 6fbe
00000060: 4f18 c33e 30bd 77be 6499 fabd bce3 dabd
00000070: d950 cf3e 00eb debb 66cf c9be 68b2 9fbd
00000080: 780a c2be f8f9 303d fc02 ccbe 0077 43bb
00000090: 1237 dabe ae3a 79be 2198 b83e 903a 95be
000000a0: 8eea 2c3e 812a db3e c576 cf3e be81 4e3e
000000b0: 260b c6be 21ad bf3e 9064 f2bc b3c8 b6be
000000c0: 5777 abbe 86d7 533e 5549 b63e daea babe
000000d0: e0ad 89be ac21 893d 0ee4 7e3e b07a 38bd
000000e0: c07a 95bd ac1e b73d af05 943e 4091 a03b
000000f0: 3892 54bd 9d31 cbbe 404e 9fbc 71bc 9c3e
-0.09161636 -0.26668948 -0.3084374 0.079805344 0.2028999 0.2105017 -0.09057516 -0.28341073
-0.036236823 0.3245164 -0.27776897 -0.05931312 0.37408575 -0.001377821 -0.010150373 -0.23364751
0.40334967 -0.00016891956 0.42264006 -0.12773457 -0.26884267 0.10486594 0.31473163 -0.23413636
0.38104483 -0.24193263 -0.12236288 -0.10687968 0.4049137 -0.0068029165 -0.39416045 -0.077977
-0.37898612 0.04320714 -0.39846027 -0.0029825568 -0.4262014 -0.24338791 0.36053565 -0.29146242
0.1688635 0.42805865 0.405203 0.2016668 -0.3868038 0.37436774 -0.029588968 -0.35699996
-0.33489487 0.20687684 0.35602823 -0.36507303 -0.2689047 0.066958755 0.24891683 -0.04503888
-0.07298803 0.08941397 0.28910586 0.0049001276 -0.051897258 -0.3968629 -0.019446492 0.3061252

simplicial_nn.0.W1 f4 [5, 1, 64]
00000000: cd2d 223e 7e98 6cbd bbab b2bd a0b6 0cbe
00000010: 009d f8bc 5399 e9bd 2cf1 11be 1cbd 2cbe
00000020: 49d8 063e 400c 30bd c641 f6bd c139 263e
00000030: 4057 a8bc c49e 4fbd 3161 213e 383b 4abd
00000040: 29b6 0d3e 0a64 a83d df6f 233e e036 72bd
00000050: 6aef b43d d07c 6d3d 875f d2bd 2012 15bc
00000060: 16ea b63d 5012 05be 90cd 5cbd 4f28 c3bd
00000070: 40c2 aa3b 0e81 7bbd d086 2e3c fd3e 93bd
00000080: 144a 0dbd 33e9 0f3e b7e1 debd 7635 e13d
00000090: 7896 493d 386a a7bc ff46 21be b54b 00be
000000a0: ef5b d5bd c0f1 d9bd 006c 54bd de65 fb3d
000000b0: 8ab7 873d f605 e03d 81f2 d7bd 024f b63d
000000c0: 30fe 063d 18a5 0fbe ca0c d1bd 46b3 d83d
000000d0: 0675 d63d ceb9 d83d 657f 323e 7fe4 29be
000000e0: 58eb ccbd 1675 d83d 4086 42bc c4c8 1dbe
000000f0: 73b9 2a3e e04a a13c dded 193e bc94 6c3d
00000100: d849 64bd e82e cdbc c8d1 ac3c 2e36 1bbe
00000110: 7066 0bbc d005 ae3c dc7e 2bbd 8e32 2abe
00000120: 7825 f13c c0fd 403c 7203 02be 7052 4d3c
00000130: 0bc0 e8bd dc44 573d 8ac5 f4bd 8808 40bd
00000140: e633 2dbe f4ac 35bd ce92 9dbd 9ce2 4abd
00000150: f0b1 643c e746 86bd 04c4 22bd 546a 033d
00000160: 3b72 293e 3b6d babd fb59 2e3e 0b8c 9fbd
00000170: 00fc b23a 5fb1 1cbe f8a0 cbbc cd0e 2bbe
00000180: 79f9 203e 7018 7b3c 5c9d b4bd 6cd1 37bd
00000190: 03ff b7bd 28a3 25be 906f a5bd a307 1a3e
000001a0: 20bf 2ebd a2e9 8dbd 6919 153e f038 9a3c
000001b0: f28e 993d 3a08 ab3d 1a9a ca3d e338 16be
000001c0: 7091 1c3d ecb0 33bd d0fc e33c 77fb 1c3e
000001d0: 601e 053c c03c 5ebc 1427 5c3d d7e8 dabd
000001e0: 7b4c 223e 0e56 0dbe f0d0 d7bc 18c1 6d3d
000001f0: 98a9 22be 523c 34be c8e9 3b3d 0080 8b39
00000200: bccd 69bd 73e3 31be 3a02 d83d c3ff afbd
00000210: 1334 1abe 10c4 b13c 3c11 4e3d 8c3b 37bd
00000220: f8c0 9cbc d2c9 0abe 3908 243e 2a1a a8bd
00000230: 9f4d 1ebe 34c5 8c3d 9c69 0e3d 2e84 fa3d
00000240: 1638 fc3d ad2f 0c3e 3041 5bbc 487e c83c
00000250: be17 be3d 7ae6 e73d 4073 03bd cc6f 413d
00000260: 8aae f23d deba b13d 8237 f13d 8646 72bd
00000270: b867 5d3d a7e0 2c3e ca5e b2bd 472f cabd
00000280: 0624 993d 792a dabd b441 0bbe c77c 043e
00000290: cd1c 183e 89d4 063e e19d 173e c8d9 32be
000002a0: 6014 a83b 206f f0bd c318 d6bd 886e 953c
000002b0: 2a4a f5bd 8c32 0fbe dcee 2d3d 5c43 08bd
000002c0: d81e 9f3c 46c9 883d fc9e 943d f054 4cbd
000002d0: 5fc8 283e c086 f8bd bcf2 2fbe 2d3f cebd
000002e0: 603f f23c d8e1 04be 26a4 17be 3ecf cdbd
000002f0: 58f4 a5bc c0e6 19bd 6807 443d 40c4 2a3c
00000300: 50d5 0abc b6be be3d bc2a 06be 2246 c93d
00000310: 2811 82bc e066 b63b 867b af3d dfaf e5bd
00000320: d7e6 2fbe d672 20be 6844 8dbc 3041 54bc
00000330: 88a7 85bc b603 d03d 5897 f1bc b86f c73c
00000340: 801f 92ba 50dc e4bc 13af 0b3e f80c 29be
00000350: d05e dbbc 0526 e1bd 3a9b 26be 000c 0239
00000360: 30a2 073c 5c65 773d 03fb 003e a173 dabd
00000370: 16c3 a83d b04a 7cbc a890 2ebd f4a9 1cbe
00000380: d282 9dbd 001a a7bb e595 21be f265 983d
00000390: 009a cdb9 3ac6 c5bd 3f94 fbbd d466 eebd
000003a0: c036 29bc f082 233c 56db fd3d 4d11 2f3e
000003b0: 34c5 afbd f343 333e d67f 0dbe 5453 d9bd
000003c0: 40a3 9f3b e8be 72bd b511 153e ab90 243e
000003d0: 3a6f 8a3d 80e0 883c 3440 54bd 6872 dfbd
000003e0: 7d56 073e e1db 2dbe 6c51 42bd b8e8 d63c
000003f0: ac52 2bbd 4ef1 07be 80e2 deba 6863 36bd
0.15837784 -0.057762615 -0.08724161 -0.13741541 -0.030348301 -0.114061974 -0.14252156 -0.16869015
0.13168444 -0.042980433 -0.12024264 0.16232969 -0.020549417 -0.05068852 0.15759732 -0.04937288
0.1383902 0.08222206 0.15960644 -0.059134364 0.08834727 0.05798036 -0.10272127 -0.00909856
0.08931367 -0.12995267 -0.053906977 -0.09529173 0.0052111447 -0.061402373 0.010652259 -0.071897484
-0.034494475 0.14053802 -0.108828954 0.10996525 0.049215764 -0.020436391 -0.15749739 -0.1252888
-0.104179256 -0.10641813 -0.05186081 0.12275289 0.06626804 0.10938637 -0.10544301 0.08901788
0.032957256 -0.14027822 -0.102075174 0.10581069 0.10471539 0.105823144 0.1743141 -0.1659107
-0.10005826 0.10569207 -0.011872828 -0.15408617 0.16672306 0.019689023 0.15032144 0.05775903
-0.055734485 -0.02504678 0.021096125 -0.15157387 -0.00850831 0.021243006 -0.04186903 -0.16620848
0.029436812 0.011779249 -0.12696627 0.012531862 -0.11364754 0.052555904 -0.1195174 -0.046883136
-0.16914329 -0.044354394 -0.076940164 -0.049532518 0.013958439 -0.06556492 -0.039737716 0.032083824
0.16547482 -0.09102865 0.17026512 -0.07790383 0.0013655424 -0.15302037 -0.02485703 -0.16704865
0.15720166 0.015325651 -0.088190764 -0.044877455 -0.089841865 -0.1617552 -0.080779195 0.15041976
-0.04266274 -0.069293275 0.14560474 0.018825978 0.07497968 0.083511785 0.09892674 -0.14670138
0.038224638 -0.043869898 0.027830511 0.15330301 0.008124918 -0.013564289 0.053748205 -0.10688942
0.15849487 -0.13802359 -0.026344746 0.058045477 -0.15885007 -0.17601135 0.045877248 0.00026607513
-0.05708097 -0.17371921 0.105473 -0.085937046 -0.15058927 0.021699935 0.050309405 -0.044734523
-0.019134983 -0.13553551 0.16018762 -0.082081154 -0.15459298 0.06873551 0.034768686 0.122322425
0.12315385 0.13690062 -0.013382241 0.024474278 0.09281872 0.11323257 -0.032092333 0.04722576
0.11849697 0.0867822 0.117781654 -0.059149288 0.054053992 0.16882573 -0.08709486 -0.09872299
0.07477574 -0.10652632 -0.13599283 0.12938224 0.14854737 0.13167013 0.1480632 -0.1746589
0.005129382 -0.117399454 -0.10453942 0.018241182 -0.11977036 -0.13984126 0.042464122 -0.033267364
0.019423887 0.06679015 0.07256886 -0.04988569 0.16482686 -0.121350765 -0.1718244 -0.100706436
0.029571235 -0.12976778 -0.14808711 -0.10049294 -0.020258114 -0.037573576 0.047858626 0.010422766
-0.008473709 0.09313719 -0.1310224 0.0982783 -0.015877321 0.005566463 0.08568482 -0.112151854
-0.17177902 -0.15668806 -0.017244533 -0.012954995 -0.016315237 0.10156958 -0.029491112 0.024345264
-0.0011148304 -0.027937084 0.13641004 -0.16508853 -0.026778609 -0.1099358 -0.16270152 0.00012402236
0.008278415 0.0603994 0.12595753 -0.10666586 0.08240335 -0.015398666 -0.042618424 -0.15299207
-0.076909676 -0.005099535 -0.15779836 0.074413195 -0.00039215386 -0.09656949 -0.12284135 -0.11640707
-0.010327995 0.009979948 0.12395351 0.17096443 -0.085825354 0.1750639 -0.13818297 -0.10611597
0.004871756 -0.059264094 0.14557536 0.16070811 0.06759496 0.016708612 -0.05181904 -0.10910493
0.13216586 -0.16978408 -0.04744093 0.026234016 -0.04182689 -0.13275644 -0.0017004758 -0.044528395

simplicial_nn.0.W2 f4 [5, 1, 64]
00000000: 7688 fb3d a099 153c 8039 3abc cea8 9c3d
00000010: 303a 883c 0d8d 003e 4a88 33be 631a 01be
00000020: be89 963d 0071 a9ba 2d2b 2ebe 67b2 293e
00000030: 38c3 1e3d a0e3 de3b 4739 043e 53f0 0d3e
00000040: f048 82bc f0d1 05be 8a63 dd3d c859 b4bc
00000050: 3001 a8bc b42b 8cbd c0a0 b9bc 4a17 1cbe
00000060: c050 3b3d 4efb 92bd b0dd adbd 1407 b6bd
00000070: 68b2 cf3c f84c 743d 4934 0c3e 9548 05be
00000080: 5791 043e 6292 e33d 97d4 2b3e ff74 1b3e
00000090: 26f3 d8bd 2c55 02bd e60a 903d 84e7 09be
000000a0: 4ca6 fdbd b711 2b3e 6998 2c3e 9aea babd
000000b0: c0be f53c 435b 263e a58d e7bd c6e3 ef3d
000000c0: 5df7 d1bd 4826 3d3d aa15 b3bd fbb1 f0bd
000000d0: c6d8 eb3d 8074 75bc 9843 e0bc ceb7 23be
000000e0: 8e0a f23d 40fb a13c d0fc 1a3c 5b9d 2c3e
000000f0: 35c2 183e 5451 05bd a8e4 2bbe 343b 593d
00000100: 92dd b13d 643b 7a3d d621 07be 9844 f53c
00000110: 7905 99bd ec14 6d3d e00b fd3c 80d1 793d
00000120: 01de b6bd f855 e33c 24e1 7e3d 5ff5 0fbe
00000130: e0d3 a3bb d060 54bc 3b36 08be d052 61bd
00000140: caee f93d db69 a2bd 34c7 14bd 6824 90bc
00000150: e224 1dbe 7e5a b73d cc99 10bd 8e53 7bbd
00000160: 9b00 b3bd 3ac5 e73d dfa0 073e 7005 82bd
00000170: d6db f13d fb39 1ebe eabd 8fbd 0055 13be
00000180: 31e0 263e f08f e43c 44e0 073d b8f3 8fbc
00000190: 9b4a 0f3e 0c12 3bbd 94db 2d3d 504a f83c
000001a0: b87f cfbc 91cc 1e3e 00b6 06ba 4b74 273e
000001b0: 15ae b9bd 00c8 fdbd 9ba0 04be b672 ee3d
000001c0: 763f cd3d b9bb 2cbe 6050 143c 706a 9b3c
000001d0: fc09 10be 8091 e33b d0b1 673c 254b d4bd
000001e0: 3389 8bbd dd78 d2bd 1f8c 243e e028 c9bc
000001f0: 4203 923d d881 173d de2e f8bd ceb9 be3d
00000200: 2374 163e 6409 623d b011 61bc 50cc edbc
00000210: c0b3 a23b b38e 23be 4aca f93d 8ccf 543d
00000220: ba8b 903d a77f 2ebe df8c 0c3e ef8f 1cbe
00000230: 00b3 243c 42d3 6ebd e0b2 423c 5e8a aa3d
00000240: f1e4 34be 1cae a7bd 4cc1 b2bd 1b52 04be
00000250: 6014 d9bb e0c8 e3bc 1022 58bc 3d1c 263e
00000260: 126d be3d 0bc5 07be 554e 313e 92d2 ae3d
00000270: 2271 dc3d 3ada cf3d c0f4 583c 00ce 98bc
00000280: 183e c4bc 0aef 01be d104 1fbe f602 e03d
00000290: b803 e2bd a93b adbd 5a5c ffbd b18a 2fbe
000002a0: 7381 c3bd e3ae 213e 3d4c b6bd f3f4 17be
000002b0: 4eff d43d 044a 25be b037 b2bc cfcb 093e
000002c0: 1af1 f8bd 5e83 0dbe 7024 eabd 0002 c2ba
000002d0: b034 073c ac9e 513d d83e 23bd b827 4dbd
000002e0: 4652 b33d 760c 8bbd ccdc 253d 2cec 81bd
000002f0: d09d 63bc dc71 463d c95b 0f3e 6f53 133e
00000300: 736b 323e 9c55 513d 9d30 093e 0112 cbbd
00000310: 4008 c9bb e630 05be 4608 ef3d b40f 663d
00000320: 34b5 adbd a278 da3d ea53 1dbe ef42 aabd
00000330: 0f79 043e a25e 963d 4444 2abd 4453 8cbd
00000340: c270 813d 6648 9abd 7b96 003e 3961 29be
00000350: 2093 1fbe c285 a93d 02d1 93bd eab9 cf3d
00000360: 3a22 d5bd d2ac ba3d 78dc 8cbd 892d 193e
00000370: 60c0 b83b e820 10be 4510 d1bd d3b9 21be
00000380: b844 8e3d e800 06bd 0047 cbbb 0ac2 ea3d
00000390: f26f 23be b49c 3abd 1ec2 f7bd 0a50 e7bd
000003a0: bed9 e13d 96ab 843d 08a4 5ebd b41d b6bd
000003b0: 3e63 e03d 0223 d33d 64dd 11be 1810 48bd
000003c0: 34b5 443d 1ac9 a83d 68a5 bcbc fa42 93bd
000003d0: f39c 1c3e 148c 923d 2cd4 503d d0b2 49bd
000003e0: ab96 253e 7dcf 313e 34f8 55bd a1d7 253e
000003f0: d061 b33c 6848 f0bc 877c 153e 158e 263e
0.12281887 0.009130865 -0.011366248 0.076493844 0.016629308 0.12553807 -0.17532459 -0.12607722
0.07350491 -0.0012927353 -0.17008658 0.16571961 0.038760394 0.0068020374 0.12912475 0.13861208
-0.01590392 -0.13068366 0.10810001 -0.022015467 -0.020508379 -0.06844273 -0.02265966 -0.15243259
0.045731306 -0.07176839 -0.08489549 -0.08888069 0.025353625 0.059643716 0.1369182 -0.13015969
0.12946068 0.11111905 0.16780315 0.15181349 -0.10593252 -0.031819507 0.07033329 -0.13467222
-0.12385234 0.16705976 0.16855015 -0.09126778 0.029998183 0.16245751 -0.113063134 0.11713366
-0.10252259 0.046179086 -0.087443665 -0.11752697 0.115159556 -0.014981389 -0.027375981 -0.15988085
0.118184194 0.019773126 0.009459689 0.16856901 0.14917834 -0.032548264 -0.16786444 0.053034976
0.08684839 0.061091796 -0.13196501 0.029939935 -0.07471747 0.05788128 0.030889452 0.06099081
-0.08929063 0.027750954 0.06222643 -0.14058445 -0.0049996227 -0.012962535 -0.13301937 -0.055010617
0.122037485 -0.079303466 -0.036322787 -0.017595485 -0.15346101 0.08952807 -0.035302922 -0.06135898
-0.0874035 0.11316915 0.13244961 -0.06348693 0.118095085 -0.15451805 -0.07018645 -0.14387894
0.1629646 0.027900666 0.03317286 -0.017572269 0.13993303 -0.045671508 0.042445734 0.030308872
-0.025329456 0.15507723 -0.00051388144 0.16352956 -0.09066407 -0.123916626 -0.12951891 0.11642973
0.1002187 -0.16868486 0.009052366 0.018971652 -0.14066309 0.006944835 0.014141515 -0.10365895
-0.06813278 -0.10276959 0.16069077 -0.024555624 0.07129528 0.036989063 -0.12118314 0.09312783
0.1469274 0.055184737 -0.013737127 -0.029028088 0.0049652755 -0.15972404 0.12196787 0.051955745
0.07057901 -0.17040883 0.13725613 -0.15289281 0.010052443 -0.05830694 0.011883467 0.08327173
-0.17665459 -0.081875056 -0.08728275 -0.12921946 -0.0066247433 -0.027805746 -0.013191715 0.1622171
0.09298147 -0.1325876 0.17315038 0.08536257 0.10763766 0.10149045 0.013241947 -0.018652916
-0.02395539 -0.12688842 -0.15529181 0.10938065 -0.110358655 -0.08458645 -0.124687865 -0.1714275
-0.09546175 0.1578937 -0.0890126 -0.14839534 0.10400258 -0.16141516 -0.02175507 0.13456653
-0.121553615 -0.13819644 -0.11432731 -0.0014801621 0.008252308 0.051176712 -0.039854854 -0.050086707
0.08755927 -0.06789486 0.04049377 -0.06343874 -0.013892606 0.04844843 0.13999857 0.14387296
0.17423801 0.051107034 0.13397451 -0.09915543 -0.0061350167 -0.13006935 0.116715 0.05616732
-0.084818274 0.1066754 -0.15364042 -0.08313548 0.12936805 0.073422685 -0.04156901 -0.06851819
0.06320335 -0.0753334 0.12557404 -0.16540994 -0.15583467 0.082774654 -0.072175995 0.10142882
-0.10406919 0.09114994 -0.068779886 0.14958777 0.0056381673 -0.14075053 -0.10208181 -0.15793543
0.06946701 -0.032715708 -0.006203532 0.11462791 -0.15960672 -0.0455596 -0.12097572 -0.11294563
0.11027859 0.0647804 -0.05435565 -0.08892384 0.10956429 0.103094116 -0.1424461 -0.048843473
0.04802437 0.08241482 -0.02302809 -0.07190509 0.15294246 0.07155624 0.050983593 -0.049242795
0.16170757 0.17364307 -0.052238658 0.16195537 0.021897227 -0.029331401 0.14598285 0.16265137

simplicial_nn.2.W0 f4 [64, 64]
00000000: fc53 2c3e 6a8b 6f3e f645 58be 60cd 3d3d
00000010: 86ac 09be 00c3 babb c8cc 9d3d 9786 2fbe
00000020: 407b c53d 5ea8 6f3e dc69 a5bd e0ab 0c3e
00000030: 40ad d3bc a1dd 863e 86bb 463e 9012 193d
00000040: 5723 4bbe f8ba 833d cced 363e f398 803e
00000050: ec7d b73d b409 f13d 0b0f 823e c068 483c
00000060: bea2 a4bd 5c8d b83d 9629 61be d886 723d
00000070: d464 0bbe 9946 90be a033 1dbc 863d bcbd
00000080: da61 97be f54d 8cbe 3a59 1abe 0c70 93be
00000090: 491d 6bbe 4433 f83d 4e8f 5a3e 60f0 44bc
000000a0: a0cd 813c 2030 71bc e452 a33d 4c23 54be
000000b0: 32e6 afbd dcd9 383e 02fc 4f3e cfe2 92be
000000c0: ace2 9a3d 9a2f 86be 26fc 1cbe d3be 8abe
000000d0: 44a6 6abe 8068 5f3b d258 5a3e 39c7 84be
000000e0: a8b3 2bbe 6118 943e a46a 2d3e 94f8 7cbe
000000f0: 40da 763c 9eac 073e ae03 533e ceb0 92bd
00000100: 2d71 88be 62db e3bd 2e08 393e 366b 8fbd
00000110: 7074 0ebd 98d9 453d 64bb cabd 40ea 113d
00000120: 482e 183e 6b8e 7ebe 90da 18bd 00a0 5c38
00000130: 0020 f7b9 9633 06be c0e8 77bd d019 b2bd
00000140: de20 693e fdd8 843e 603d ce3d fd10 9abe
00000150: dd0b 8a3e 1203 283e ecb7 fabd baf7 febd
00000160: 6ad6 7e3e a8e0 a73d 0e8d 643e 2d96 813e
00000170: 380b 32bd 92ce 4b3e b859 343e 4e23 53be
00000180: 6aa9 8bbe c8f1 503d 13d1 963e c2eb 82be
00000190: 6729 43be e091 cc3d 5885 bcbd 000a 9dba
000001a0: 7230 493e b522 1abe 08aa 7f3d 7866 50bd
000001b0: fd22 22be 0674 81be 0233 493e ac4a bcbd
000001c0: 917e 9b3e 6063 263e d85c 8cbe 72b0 753e
000001d0: d047 76be c794 9b3e 8827 1c3e 4641 29be
000001e0: 8091 47be 14b6 033e 79bf 853e d8e5 19be
000001f0: b1c9 12be 40fc e83d a7af 27be eee8 103e
00000200: af65 14be 6b1f 0abe 4625 90bd 76f1 6ebe
00000210: 2ac1 83be dc2f 2d3e a4d1 433e 7b82 853e
00000220: ed18 5dbe f6e1 713e 96e0 76be c8e8 d0bd
00000230: 2e85 653e aa8a 493e 369b 523e e2b3 c2bd
00000240: 50cf 293e 70ab 3c3d 2803 03bd de19 c5bd
00000250: d1de 8cbe 6fea 44be e038 323e 5275 123e
00000260: 9d94 863e d016 113e 126e 0bbe 0074 7c3d
00000270: f012 79bd 3243 0ebe 00f0 6fbe b43d 9c3d
00000280: a9cb 8b3e a0c3 48be 60f6 a63c d0a9 d23d
00000290: aef9 243e 4067 a23b aae2 7c3e b8eb 20bd
000002a0: 007e 773c 9dbf 0cbe d034 b4bd ea00 63be
000002b0: 3393 74be 28f6 b1bd ad03 18be 98fc 3ebd
000002c0: 8c10 03be d43c 133e 5b3d 933e b954 983e
000002d0: 005f 7dbb 58d8 36bd 527f 493e b812 52be
000002e0: 80fc debc 1054 edbc 502f d8bd f843 0dbd
000002f0: d795 42be 044d 433e 9679 2b3e e01f 85bc
00000300: b884 48bd e081 18bd 8ca3 24be 00da 08bb
00000310: feae 53be dea6 97be ac4d 3dbe feb2 29be
00000320: f895 87be b135 4abe 1093 d3bd 54a6 99bd
00000330: d64b 7f3e 8a8a 283e d233 4e3e e082 6c3d
00000340: 5ebc 34be a967 96be e10f 86be 1051 e13d
00000350: 46ff 6ebe 0e9b 62be a243 39be 828f 8cbe
00000360: 6004 c5bc 78dd ea3d 34c9 e53d e233 083e
00000370: 0cdf f83d 48ec 5abd f4c8 60be b812 32be
00000380: eca6 3a3e 77ea 83be a8be 2e3e c01d 133d
00000390: 6af2 4b3e 19d9 953e 6450 a33d 7e26 aebd
000003a0: 785a 48bd c0a4 7d3c 5433 88be ba73 353e
000003b0: f9f5 15be f3cd 843e 12b5 313e 60eb b0bd
000003c0: d614 04be 0cb5 8d3d 1de2 933e 3f38 8a3e
000003d0: 5036 5bbd b24b 2e3e 1af5 203e 7c1d ee3d
000003e0: 6985 98be d56c 813e e0e6 e33c 5064 243d
000003f0: 9657 23be 7079 9dbd 8cb6 a13d 0aed 0b3e
0.16828912 0.23393026 -0.21120438 0.04633844 -0.13444719 -0.0056995153 0.077050745 -0.17141186
0.09642649 0.2340407 -0.08076832 0.1373744 -0.025839448 0.26340964 0.19407472 0.03737122
-0.198377 0.06432146 0.1786415 0.2511669 0.089595646 0.11769429 0.25402102 0.012232006
-0.08038853 0.09011337 -0.2198852 0.05921063 -0.13612682 -0.28178862 -0.009594828 -0.09191422
-0.29566842 -0.27403226 -0.150731 -0.28796422 -0.2296039 0.12119153 0.21343729 -0.0120202005
0.01584512 -0.014720947 0.079747945 -0.2071659 -0.08588828 0.18051857 0.20310977 -0.28688666
0.075627655 -0.26208192 -0.15330562 -0.27098712 -0.22914988 0.0034089386 0.21322945 -0.25933245
-0.16767752 0.2892485 0.16935211 -0.247042 0.015066683 0.13249442 0.20606872 -0.07162629
-0.26648846 -0.11125828 0.18069527 -0.07002871 -0.034779012 0.048303217 -0.09899023 0.03562379
0.14861405 -0.24859016 -0.037317812 5.26011e-05 -0.00047135353 -0.13105616 -0.060524702 -0.086963296
0.22766444 0.259468 0.100703 -0.30091086 0.26962176 0.16407421 -0.122421116 -0.12449594
0.2488648 0.08197147 0.22319433 0.25309888 -0.04346773 0.19903019 0.1761235 -0.20618936
-0.2727769 0.05101183 0.29456386 -0.25570494 -0.19058762 0.09988761 -0.09205121 -0.001198113
0.19647387 -0.15052302 0.062418014 -0.05087897 -0.1583366 -0.2528383 0.19648364 -0.0919393
0.3037 0.16248846 -0.27414584 0.2399309 -0.24050832 0.30386946 0.15249455 -0.16528806
-0.19489098 0.12862426 0.26122645 -0.15029085 -0.14334752 0.11376238 -0.163756 0.14151356
-0.14491914 -0.13488548 -0.07038359 -0.23334298 -0.2573331 0.16912788 0.1912294 0.2607611
-0.2159154 0.23621354 -0.2410911 -0.102006495 0.22414085 0.19681802 0.20567021 -0.09506966
0.1658299 0.046061933 -0.031985432 -0.096240744 -0.27513745 -0.19230054 0.17404509 0.14302567
0.26285258 0.14168859 -0.13616207 0.061634064 -0.060809076 -0.1389282 -0.23431396 0.076289564
0.27303818 -0.19605875 0.020381153 0.102862954 0.1611087 0.004956156 0.2469584 -0.0392873
0.015105724 -0.1374497 -0.08799136 -0.22168317 -0.23884277 -0.08689529 -0.14845152 -0.04662761
-0.12799281 0.14378673 0.28757748 0.29752138 -0.003866136 -0.044639915 0.19677475 -0.20514953
-0.02722001 -0.028970748 -0.10555899 -0.03448865 -0.19002472 0.19072348 0.167456 -0.01625055
-0.048954695 -0.037233233 -0.16078013 -0.0020881891 -0.20672223 -0.29619497 -0.1848666 -0.16572186
-0.26481605 -0.19747044 -0.10330784 -0.07502428 0.24931273 0.16459098 0.20136955 0.057742
-0.17649981 -0.2937596 -0.2618399 0.110017896 -0.23339567 -0.22129461 -0.18092206 -0.27453238
-0.024049938 0.11468023 0.11220017 0.13301042 0.12151918 -0.05344799 -0.21951658 -0.17389953
0.18227738 -0.2576482 0.17064917 0.035917044 0.19916692 0.29267195 0.07974318 -0.085034356
-0.048914403 0.015481174 -0.2660166 0.17719927 -0.14644612 0.25938377 0.17354229 -0.08638644
-0.12898573 0.069192976 0.28883448 0.26996037 -0.053518593 0.17021063 0.15718499 0.116267174
-0.29789284 0.25278345 0.02782005 0.040134728 -0.1595138 -0.07689178 0.07896146 0.13664642

simplicial_nn.2.W1 f4 [5, 64, 64]
00000000: 707c 383b 8ec4 963c 6425 8fbc 9d99 2b3d
00000010: 5c18 3bbd acb7 0abc f48d 043c 400b 80bb
00000020: 7d38 023d 9e38 bd3c 62b7 f13c 1948 543d
00000030: 144a 7f3c 39ef 33bd 8c5f 563c 80f2 283c
00000040: 4c9e fbbc afdd f0bc 88c4 29bc 96cb f63c
00000050: 5977 4c3d e3fe 303d 9cda 05bc 1a9f ef3c
00000060: 28d9 42bc ec84 b2bc 62b8 e03c e437 16bd
00000070: f980 203d eaac 823c 28b9 e8bb 44b3 37bc
00000080: 54f6 d3bc 88ce 8f3b c0af 283b 1468 543c
00000090: e410 dcbc ef06 033d b349 023d f0b2 22bd
000000a0: ac36 303c 6235 9f3c 7370 423d acbf 213c
000000b0: b0bd eabb bbca 20bd b0d6 c63b 71da 1cbd
000000c0: 024a dd3c e83a 3fbc ae88 9e3c 7421 1bbd
000000d0: ac85 67bc d088 313b 082e 29bd e04a d53a
000000e0: 4875 cbbb 76c6 dabc 20fa 8b3b a6dc 823c
000000f0: 51d0 e2bc 1419 90bc c07e 8bba 4975 edbc
00000100: 8c2a 1cbc 8fe9 1d3d 3710 543d fafd 2ebd
00000110: 6a97 9c3c 717d 44bd 8593 0f3d 2a7d 41bd
00000120: 90f3 3f3b ed7d 0a3d 768d 99bc dcad 45bd
00000130: ec78 13bd 2d90 1d3d bc39 2d3c 8684 c83c
00000140: 7a85 993c 38e1 aabc 5b89 423d 5bd3 babc
00000150: 4088 6fba 92d3 8e3c 9ab5 a4bc 4ae1 ff3c
00000160: 3512 443d a2cf efbc 5247 dc3c f29c a23c
00000170: 6ecf 0cbd 1f29 3ebd 93f7 413d e832 7abc
00000180: feb2 0cbd 45b7 0f3d b6b7 813c 56b5 ea3c
00000190: 1cef a0bc b46a 15bd c3f4 03bd 03df efbc
000001a0: 5ad0 843c 8c26 2f3c 926b bfbc d98e 15bd
000001b0: eee9 863c 5b8e 463d fc53 33bd 40af 2ebb
000001c0: 4fb7 1c3d e747 1b3d c4df 0ebc 7c39 f9bc
000001d0: 8569 1c3d 3234 ce3c 6d99 50bd 4622 07bd
000001e0: f325 35bd a29c b13c 4cd8 423c fa2d afbc
000001f0: 9ef6 cd3c f884 41bd 2258 e03c 8634 de3c
00000200: 8cec 8ebc 28a4 88bc 6d2d 1abd c085 af3a
00000210: dc16 0fbd 527f 863c c508 093d 40ef 5dba
00000220: a68f 9d3c 82b2 923c 101f 0fbc bcda 69bc
00000230: 7f11 1dbd 9874 243c 50e6 50bb 02ac a33c
00000240: f479 b3bc 381c 00bd a3fe d5bc 9ce2 1cbc
00000250: 9d00 1c3d 258b 4d3d c099 563a 7e37 01bd
00000260: 7c4d 3fbd 9efb f33c 79b4 1c3d b3d1 163d
00000270: 2fc1 e1bc 56af 07bd 0c11 2a3c 4c0d 3dbd
00000280: a29e f03c 60e9 4fbd fc3b 08bc 64c2 f6bc
00000290: 4008 6a3b c538 503d 64ac 033c 21e4 0b3d
000002a0: dad7 ec3c b08b 4abb 557c 473d e644 1bbd
000002b0: 64e9 40bc e22e f7bc 7aaa c53c dd55 2ebd
000002c0: 1776 0f3d 605a 1d3b 6930 13bd eae4 ef3c
000002d0: f845 afbb b872 0fbc d63a e53c 1f95 433d
000002e0: 88ac 8c3b a633 15bd 7b1b 103d 0649 ab3c
000002f0: f0eb b23b 5414 2dbc 1d75 26bd 48c8 9fbb
00000300: 3987 4c3d 4cde cfbc 7656 c93c 8087 ceba
00000310: 82ba 813c fc49 30bd b273 37bd 3d30 413d
00000320: c476 60bc 4f18 523d 1ad1 4fbd 62e4 e73c
00000330: b323 c7bc 0aa7 f3bc 9135 293d 7627 43bd
00000340: 3621 35bd e848 1b3c cf3e 153d 846e d9bc
00000350: d49d 5a3c 1aa1 e83c 6833 dbbb 25b4 4f3d
00000360: b4af cabc 54f7 523c c064 2bbc 7475 67bc
00000370: 9f92 133d 71a0 133d 70ef 06bd 852d 2a3d
00000380: 1889 f4bb efba 023d f0bd 85bc 30d2 09bb
00000390: 32e2 933c 30db 7fbb 3fbd 383d b1d4 febc
000003a0: 14b2 39bc 6b37 343d 5cf3 38bc 610c 053d
000003b0: e96d f0bc 0264 ce3c 056b 473d 9078 68bc
000003c0: 789c 8dbb b1fd 173d 54d9 133c 72d5 c13c
000003d0: b898 0fbc 5623 f93c 2064 e23b 13f3 31bd
000003e0: 6e55 aa3c c426 38bc 8ef0 a13c f0c0 aebb
000003f0: 7709 bcbc e65f b03c b477 07bc 48c3 48bd
0.0028150342 0.018404271 -0.017473884 0.041894544 -0.045677528 -0.008466642 0.008090485 -0.003907591
0.031792153 0.023098286 0.029506389 0.05182657 0.015581626 -0.043929312 0.013084304 0.010311723
-0.03071513 -0.029402582 -0.010361798 0.030126374 0.049918506 0.04321183 -0.008169796 0.02925067
-0.011892594 -0.021791898 0.02743167 -0.036674395 0.039185498 0.015951592 -0.0071021505 -0.011212174
-0.025874294 0.004388634 0.002573952 0.012964267 -0.026863523 0.031989034 0.031808566 -0.03972143
0.010755222 0.019434635 0.04747052 0.009872358 -0.007163726 -0.03925584 0.006068073 -0.03829426
0.027012829 -0.011671759 0.019352283 -0.0378737 -0.014130991 0.0027089603 -0.041303664 0.0016272925
-0.0062090494 -0.026705962 0.0042717606 0.015974354 -0.027687224 -0.017590083 -0.0010642633 -0.02898659
-0.009531628 0.038552817 0.051773276 -0.04272268 0.019115169 -0.047971193 0.035052795 -0.047238506
0.0029289462 0.0338115 -0.018744212 -0.04826151 -0.036003992 0.038467575 0.010572847 0.024477255
0.018740404 -0.020859346 0.047494274 -0.02280586 -0.00091374293 0.017434869 -0.020106126 0.031235356
0.047868926 -0.029273812 0.026889477 0.019850228 -0.034377508 -0.046425935 0.047355246 -0.015270926
-0.034350388 0.03508689 0.01583467 0.02865092 -0.019645266 -0.036478713 -0.032215845 -0.029281145
0.016212631 0.010690343 -0.023366723 -0.036513183 0.016468968 0.048475605 -0.043781266 -0.002665475
0.038260754 0.03791037 -0.008720342 -0.030422918 0.03818657 0.025171373 -0.05092757 -0.03299167
-0.044225644 0.021681134 0.0118923895 -0.021384228 0.02514201 -0.04724595 0.027385775 0.027124655
-0.017446779 -0.016679838 -0.037640978 0.0013391301 -0.03493391 0.016418133 0.03345563 -0.0008466132
0.019233536 0.017907385 -0.008735433 -0.014273342 -0.038346764 0.010037564 -0.0031875558 0.01997948
-0.021908738 -0.03127691 -0.026122397 -0.009575512 0.038086522 0.050181527 0.00081863627 -0.031547062
-0.046704754 0.029783066 0.03825805 0.03682108 -0.027557937 -0.033126198 0.010380041 -0.04615526
0.029372517 -0.050759673 -0.008315083 -0.03012199 0.0035710484 0.05083539 0.008036707 0.034153108
0.02891152 -0.0030906014 0.048702557 -0.037907504 -0.011774395 -0.030173723 0.024129141 -0.042562354
0.03502473 0.0024010167 -0.03593484 0.02928396 -0.005348917 -0.008755378 0.027982157 0.047749635
0.0042930283 -0.03642621 0.035182457 0.020908844 0.005460255 -0.010563929 -0.04063903 -0.0048761703
0.049933646 -0.025374554 0.02457736 -0.0015756935 0.015836004 -0.043039307 -0.04478807 0.047165144
-0.013700191 0.051292714 -0.050736524 0.028307144 -0.024309015 -0.029742736 0.04131085 -0.047645055
-0.044221126 0.009477831 0.036436852 -0.026541956 0.013343293 0.028397132 -0.0066894777 0.05070891
-0.024741985 0.01287635 -0.010461032 -0.014127124 0.0360285 0.03604168 -0.03294319 0.041547317
-0.007462632 0.031916555 -0.01632592 -0.0021029823 0.018052194 -0.0039040558 0.045102354 -0.031107279
-0.011333961 0.043998163 -0.01128849 0.03248251 -0.029349284 0.025194172 0.048686046 -0.014188901
-0.004321631 0.037107173 0.009023983 0.023661349 -0.008764438 0.030412357 0.0069089085 -0.043444704
0.02079269 -0.011239711 0.019768026 -0.0053330585 -0.022953732 0.021530103 -0.008268286 -0.04901436

simplicial_nn.2.W2 f4 [5, 64, 64]
00000000: d9b8 0d3d 6398 1ebd 8d2a c6bc daf3 07bd
00000010: 20b9 5cbb 8b58 063d c24f e73c c836 e53b
00000020: d786 233d d053 393b 4bd2 2e3d 80b9 f4b9
00000030: 3fe5 48bd f200 af3c c99f c9bc d3da 4bbd
00000040: 3e6d 3ebd 7a1d 9b3c ef24 3bbd 7984 243d
00000050: 4ca7 17bd ff93 15bd ed29 0e3d b03a 70bc
00000060: d8db 253c e854 15bc bc9c 453c 14e4 7dbc
00000070: df1a 0a3d 209e 77bc 701e de3b 91b2 0c3d
00000080: 61a3 073d 1ed1 0abd e429 2bbd b2eb 873c
00000090: ec48 16bc ff1e 213d b035 03bb c7d9 103d
000000a0: 4ea5 d43c 2e64 39bd 1c8d 47bd 4302 023d
000000b0: 6a69 8bbc 7884 173c 73e9 4c3d 6cef 3bbc
000000c0: 54dc 433c db06 303d 2706 243d 4001 013b
000000d0: e421 0d3c 682a e7bb 4a69 b83c e063 3d3b
000000e0: e5c9 1dbd 006f 18bc 9d60 35bd 1fd7 dbbc
000000f0: 4704 473d 50c0 8abb 9074 37bc a493 01bd
00000100: 37f7 053d fe5c a33c 22b2 a83c d7cf 4a3d
00000110: ff34 243d dfac 07bd 7a56 8f3c d940 313d
00000120: 2ad7 853c a547 c0bc 007b d63b eb78 50bd
00000130: 008f 673a e085 49bb 068d ef3c fdf3 21bd
00000140: e848 4fbc 648e 00bd deaf 08bd 681d 943b
00000150: 157f 40bd aff6 483d bc70 d9bc 98e3 d93b
00000160: bce9 85bc 6893 02bd 8088 d9b9 707b 46bd
00000170: da73 9cbc 9910 16bd 353d 033d d4a6 0a3c
00000180: 8ea5 bd3c c054 c43a 00ba 54bc 54c5 e5bc
00000190: 6c55 313c 66eb cd3c c421 7ebc 22ae e53c
000001a0: a028 973b 5d61 d4bc aace 3bbd 76c8 4bbd
000001b0: d9ca 46bd 3230 23bd 0341 383d b82d 9fbb
000001c0: 9bf1 1f3d 8093 1cbd 6150 153d f8e2 943b
000001d0: 70b0 ab3b 9ae2 973c 4c21 573c 56c8 a7bc
000001e0: 248b 2e3c 3de4 533d 2990 193d b0cb a5bb
000001f0: e8b3 0ebd 0a84 ef3c b7e4 3bbd 8175 523d
00000200: 0ef6 95bc d036 223b b44f 573c 24eb 2ebd
00000210: 7f07 0a3d bb74 21bd 0060 7e37 fa5f e63c
00000220: a915 48bd 0240 9f3c cf48 163d 1507 3b3d
00000230: 9c6d 783c 91dc abbc a7ea 1c3d 68d1 a43b
00000240: 80f9 efb9 003f cab9 b893 2fbd 57ab 3abd
00000250: 546d 563c c3a6 253d a46e 043c b0a3 d2bc
00000260: 30b3 23bd 7137 4e3d ac23 52bc f6f7 edbc
00000270: 32ca 943c 81ac 31bd b0b6 27bc 640d 54bc
00000280: 425d 14bd 80cc 47bd 561d 813c 32ad 2dbd
00000290: f0a0 5fbc 61d9 1abd 86b2 d7bc b2e8 f73c
000002a0: 6b5e 4b3d 6073 1fbd 133a 0cbd 941a 34bc
000002b0: e89c d8bc 0d12 27bd b62a e63c fed0 3fbd
000002c0: e6c1 f33c 0c2c babc cd15 223d 2622 873c
000002d0: dc1b 36bd c0d6 fa3a e586 31bd 800f b939
000002e0: 3442 babc 8c20 3ebc e712 343d cebc f93c
000002f0: 3864 b43b b234 39bd 4501 0f3d 74db ebbc
00000300: 20c1 24bc 79cf 2cbd 8411 62bc 4a13 aa3c
00000310: 673e 423d 9003 b1bb 64d3 13bd fd45 3ebd
00000320: 5738 083d fc47 55bd a03b e43a 8590 233d
00000330: bade 8c3c 4493 493c b5dc 21bd aaf4 28bd
00000340: 302c 4fbc e02c 62bc 1a9e f13c 61d9 423d
00000350: 2050 d6ba a4fd 1a3c 8a7c c63c f9a3 2b3d
00000360: 5dab 3a3d d053 44bb 72b8 893c 1247 0cbd
00000370: 5937 51bd 21cb 2f3d 66d7 18bd 8517 363d
00000380: ecc9 5d3c 59be c5bc 2dc7 523d 82d2 bd3c
00000390: 40e8 423b b935 1f3d 7a2b 15bd a52a 38bd
000003a0: 64db 7abc 94e4 89bc 064d a73c 7821 cdbb
000003b0: 0eba b9bc e8e3 bdbb 8429 cbbc 748b 66bc
000003c0: 109d db3b 606e 42bd 7836 52bc 8141 043d
000003d0: d331 3e3d 3051 86bb 2155 143d b3ba dcbc
000003e0: 7a70 9e3c 9e85 973c e44a 523c b853 fb3b
000003f0: 1852 36bd 8bd1 40bd 9351 013d caa8 e23c
0.034600113 -0.038719546 -0.024190212 -0.03319154 -0.003367968 0.032799285 0.028236274 0.006995056
0.039923515 0.0028278716 0.04268102 -0.00046677515 -0.04904675 0.021362755 -0.024612324 -0.049769234
-0.0464909 0.018934954 -0.04568952 0.0401654 -0.03702478 -0.036518093 0.034707952 -0.01466243
0.010123216 -0.0091144815 0.012061294 -0.015496273 0.033717033 -0.0151133835 0.006778531 0.03434998
0.033114795 -0.033890836 -0.041787997 0.01659188 -0.009172659 0.0393362 -0.0020021014 0.03536394
0.02595773 -0.045261554 -0.048718557 0.03174044 -0.017018039 0.009247892 0.050027322 -0.011470657
0.011954386 0.042975288 0.04004493 0.0019684583 0.008614037 -0.0070546158 0.022511143 0.0028898641
-0.03852262 -0.009303808 -0.04428159 -0.026835976 0.048588064 -0.004234351 -0.011197224 -0.03163494
0.032706466 0.019941803 0.020592753 0.049514618 0.040089604 -0.033123847 0.01749729 0.043274734
0.01633795 -0.023471663 0.0065454245 -0.050896566 0.00088332593 -0.0030749962 0.02924205 -0.039539326
-0.01265166 -0.031385794 -0.033370845 0.004520107 -0.046996195 0.04906338 -0.026543014 0.0066494457
-0.016346805 -0.03187886 -0.00041491166 -0.048457563 -0.019098211 -0.036636923 0.032040793 0.0084626265
0.023150232 0.0014978871 -0.012983799 -0.028048195 0.010823589 0.02513666 -0.01551098 0.028037135
0.004612997 -0.025925333 -0.045851387 -0.04975172 -0.048533294 -0.039840885 0.044983875 -0.004857745
0.039048772 -0.038226604 0.03645361 0.0045436583 0.005239539 0.01854067 0.013130497 -0.02048127
0.010653291 0.051731337 0.037490997 -0.005059682 -0.03483954 0.029237766 -0.045872416 0.05138159
-0.018305805 0.002475191 0.013141561 -0.042704716 0.033698555 -0.039417963 1.51619315e-05 0.028121937
-0.04884878 0.019439701 0.03669053 0.04566105 0.015162852 -0.020979198 0.03830972 0.005029846
-0.00045771524 -0.0003857538 -0.042865485 -0.04557356 0.013087589 0.04044224 0.008083019 -0.025712818
-0.03996581 0.05034584 -0.012825888 -0.029048901 0.01816282 -0.043377403 -0.010236427 -0.012942646
-0.03622175 -0.04877901 0.015761059 -0.0424015 -0.01364921 -0.037804965 -0.026330244 0.030262325
0.04965059 -0.03892839 -0.03423507 -0.010992665 -0.026442006 -0.0407887 0.028096538 -0.04683017
0.029755544 -0.022726081 0.039571572 0.016495775 -0.044460163 0.0019137487 -0.043341536 0.00035297498
-0.022736646 -0.0116044395 0.04396334 0.030485537 0.005505111 -0.04521627 0.03491332 -0.028791167
-0.01005581 -0.04219005 -0.013798121 0.02076115 0.047422793 -0.005402036 -0.03609027 -0.046453465
0.033256855 -0.052070603 0.0017412789 0.039932746 0.017196048 0.012303177 -0.039517123 -0.041248955
-0.012644812 -0.013804644 0.029494334 0.04757059 -0.0016350783 0.009459887 0.024229307 0.041904423
0.04557358 -0.0029957183 0.016811583 -0.034247465 -0.051078174 0.04291833 -0.037314795 0.044456024
0.013536911 -0.024138616 0.05145948 0.023171667 0.0029740483 0.038869593 -0.036418416 -0.044962544
-0.015311096 -0.016832627 0.02042247 -0.0062600933 -0.022671726 -0.005794991 -0.02480007 -0.014071334
0.006702073 -0.047468543 -0.012830369 0.032289032 0.046434235 -0.004099034 0.036213998 -0.026944494
0.019340742 0.01849633 0.012835238 0.007669892 -0.044511884 -0.047074836 0.031571936 0.027668376

simplicial_nn.4.W0 f4 [64, 1]
00000000: b08c c43c 893e 81be 2839 ddbd 9139 873e
00000010: 1a0f 3e3e 5384 c93e 73fa 863e e26d d5be
00000020: 05f2 c03e 0d60 cf3e 712d c0be 37fa 4abe
00000030: 148d a53d ab29 ca3e b637 263e 7cb9 a3be
00000040: 497f afbe 2118 893e ac1c d0be cbc2 b0be
00000050: 8da1 48be 607e 88bd ac41 d83d c4c3 9e3d
00000060: 6a65 7a3e 8083 24bb ec04 84be bb35 a13e
00000070: f047 4e3d 1492 f9bd 322e b7be 5b6d 8a3e
00000080: 0a75 9ebe 7429 acbd 60e1 a83c c008 64bc
00000090: e6a5 8dbe 59fa cd3e 158a aabe f656 d8be
000000a0: d27f 20be e446 d83d 5612 213e 5a84 5ebe
000000b0: 732a a7be 3fca c1be a950 79be 859b babe
000000c0: 26ce 2abe ac43 fd3d f08a b0bd 5649 9cbe
000000d0: d0ed 40be 6bc4 b7be 8d92 8a3e 1415 f3bd
000000e0: 627f 4bbe 89e7 983e 6d4b b43e 20af 21bc
000000f0: 88a0 023d 9f2a 40be 1a5c 343e 969c 8ebe
0.023992866 -0.25243023 -0.10801917 0.26411107 0.18560448 0.39358768 0.26362953 -0.41685396
0.37684646 0.40502968 -0.3753467 -0.19822012 0.08083549 0.39484915 0.1623219 -0.3197745
-0.34276798 0.2677622 -0.40646875 -0.34523615 -0.19592877 -0.06664729 0.10559401 0.07752183
0.24452749 -0.0025102794 -0.25785005 0.31486306 0.050361574 -0.12186065 -0.35777432 0.27036557
-0.3094867 -0.08406344 0.02061528 -0.013918102 -0.27665633 0.40230063 -0.33308473 -0.42253846
-0.1567376 0.10560396 0.15729651 -0.21730176 -0.32649574 -0.37849614 -0.24347176 -0.36446777
-0.16680202 0.12366423 -0.0862025 -0.305247 -0.18840718 -0.35892043 0.27064934 -0.11869255
-0.19872811 0.29864147 0.35213795 -0.009868413 0.031891376 -0.18766259 0.17613259 -0.2785384

simplicial_nn.4.W1 f4 [5, 64, 1]
00000000: 5cda a43d 3883 81bd 6d83 a83e 6aae aabe
00000010: 8b9f cb3e 7330 c2be 7af2 353e 2dcc ba3e
00000020: a83c d6bd b2ad 7abe 008e c4be f349 9f3e
00000030: d6dc 73be 95d4 ce3e 4894 8dbd ab4c a6be
00000040: a009 803c 7a27 593e c8ae 06be f31d 3ebe
00000050: 63b1 b1be 1681 363e 15ff c5be 15a6 bd3e
00000060: 942a c93d 5cf6 8abd 73b9 30be d60f 6ebe
00000070: b887 633d fc44 1bbe d463 8b3d 6f2b 53be
00000080: 3876 26be bc47 7abe 27cb 943e 0c1d 96be
00000090: 56de 8fbe 9816 25bd e86f 59bd 7f0a 4ebe
000000a0: bc69 0dbe f85c 0abe e0f5 9cbc 94e3 9b3d
000000b0: c0a7 6abe a85e 2e3d b396 2ebe 40cd 40be
000000c0: b49e b4bd b836 273d 3ca7 18be 0334 5bbe
000000d0: 7406 a0bd 600b d63c 1831 733d 7039 7ebe
000000e0: 3bfc ad3e bb00 c13e f5fe ca3e 802f a6bc
000000f0: 649e e93d bc65 b8bd 013d 30be f954 ce3e
00000100: dc54 d43d 1275 1a3e 0399 a63e 2859 8ebe
00000110: b01e f63c c6d6 17be ca22 403e e8e4 943d
00000120: 5bf3 863e d41c bebd d5f0 b13e acf6 c4bd
00000130: d827 26bd 0ab1 653e 1ae0 423e a8b1 4ebd
00000140: 20e1 41bc 70d7 b6be 1671 033e 3fef a83e
00000150: 6c90 82be aaf4 133e fd27 89be 34e8 cb3d
00000160: 402e aebe 6421 ff3d 937d 6dbe 8bfa a43e
00000170: 487d 7e3d d0a8 24bd d69d 163e 4ebf 2f3e
00000180: 1dfd cd3e d167 923e db90 bb3e 6c03 f13d
00000190: 9531 863e a84d 01bd 1bea a7be 9284 493e
000001a0: dc96 a63d f292 4d3e ac80 89bd 1842 303d
000001b0: a6e5 4fbe 86e0 513e 24d5 b23d f755 bcbe
000001c0: a99d bd3e 16fe 013e 2053 fa3c c341 aa3e
000001d0: a4ce 51be 06d4 033e 6780 853e 2e49 0fbe
000001e0: 02ac 82be cc9f 91be 9618 413e 1852 0e3d
000001f0: 80e7 d4bb a019 93bc 695a 77be ed30 93be
00000200: 56fc d2be 9a8f 7a3e 753b a4be a9cf b83e
00000210: 33c7 c33e 895e bcbe 6aaf b3be cf37 5dbe
00000220: ce91 19be fe72 703e dee0 103e 8133 933e
00000230: 7daa bbbe 4efe d1be 8e23 3a3e 4af7 1d3e
00000240: 0409 50be dc05 c5bd 808e cbbe fabf 7e3e
00000250: c017 fcbc d6cb 7f3e df96 993e bd0c 943e
00000260: dabe 6c3e e52a b43e f01a efbd 787d 213d
00000270: c416 cebd bdcc a33e e22b 7c3e fe9f 1fbe
00000280: 7253 d2be 40c9 39bd 8f7b 8f3e 409d 693c
00000290: ac81 863d 4374 823e 9bdb 8c3e d576 ab3e
000002a0: 8a5e 313e 0ffd 75be 78eb a0bd 9823 82be
000002b0: 3487 1bbe c9fc 9a3e 8352 97be c343 b53e
000002c0: 2437 ea3d 5955 903e ad1c 43be 40f0 7a3d
000002d0: f9a8 803e b6ac 4e3e 2ee8 36be 67a9 78be
000002e0: ee7f 84be c036 07be 55ee c63e e3b9 cebe
000002f0: 6ddd c23e 760e 6d3e a834 07bd 763a 9dbe
00000300: eb95 ab3e ca94 2a3e a815 7dbd 3e01 6e3e
00000310: f017 de3c aef5 733e 15e5 cfbe b376 b83e
00000320: b124 64be 20f5 71bd b911 9dbe 1dd2 88be
00000330: fa27 2ebe a065 493d 2682 383e f039 443d
00000340: d32d 803e 39a8 bb3e 16d3 723e fe05 4d3e
00000350: 4cbf 74be e8fa 0b3d 562b 493e ec16 a9be
00000360: c30a a73e 18e0 82be b771 a73e bf21 5dbe
00000370: 988e c4be a07d 9e3d ea5c b7be 8ab2 37be
00000380: 9913 81be 1f1c 85be eb0e 36be 42f9 0e3e
00000390: f448 d6bd c221 43be 4aef 4b3e a095 95bd
000003a0: 1759 42be 742d 83be d411 ab3d ed73 c63e
000003b0: 90ad 543d dafe 1bbe f4cf c83d 0852 e5bd
000003c0: c60c 8dbe 065b 7e3e 5a17 a2be 50e4 2a3d
000003d0: 80ca e53b 22da c0be e5be 833e 1216 3f3e
000003e0: c4f1 febd f050 733d 08e4 c4bd 619f 53be
000003f0: 2469 8fbe dfa1 863e 33cc 6abe 81be b7be
0.08049461 -0.06323856 0.3291277 -0.33336192 0.3977016 -0.3792759 0.17768279 0.364839
-0.10460788 -0.24480322 -0.38389587 0.31111106 -0.23814711 0.40396562 -0.06913048 -0.32480368
0.01562959 0.21206465 -0.13152611 -0.18566112 -0.34705648 0.1782268 -0.38671175 0.37040773
0.09822574 -0.067852706 -0.17258243 -0.23248228 0.055549353 -0.15163034 0.0680615 -0.20622037
-0.16256034 -0.24441427 0.29061243 -0.29319036 -0.28099316 -0.04030475 -0.053085238 -0.20121191
-0.13809866 -0.13512027 -0.019160211 0.076117665 -0.22915554 0.04257074 -0.17049675 -0.18828297
-0.08819333 0.04082367 -0.14907545 -0.2140656 -0.07813731 0.02612847 0.05937299 -0.24826598
0.339815 0.3769587 0.39647642 -0.020286322 0.11407164 -0.09003779 -0.17210771 0.40299204
0.10367748 0.15083721 0.32538614 -0.27802396 0.03004393 -0.14828023 0.18763271 0.07270223
0.2635754 -0.09282842 0.34754053 -0.096173614 -0.04056534 0.22430816 0.190308 -0.050462395
-0.011833459 -0.3571124 0.12836108 0.3299503 -0.2550081 0.144488 -0.2678832 0.099563986
-0.3401966 0.12457541 -0.23192434 0.322224 0.062131196 -0.040200055 0.14708647 0.1716282
0.40232173 0.2859483 0.36633953 0.11768231 0.26209703 -0.0315682 -0.32795796 0.19679478
0.08134243 0.20075586 -0.06713995 0.043031782 -0.20302448 0.20495805 0.087320596 -0.36784336
0.37034348 0.12694582 0.030557215 0.33253297 -0.20488983 0.1287385 0.26074526 -0.1399276
-0.25521857 -0.28442228 0.18857035 0.03474626 -0.0064973235 -0.017956555 -0.24155582 -0.28748265
-0.41208142 0.24468842 -0.32076612 0.36095932 0.38237914 -0.36790875 -0.35094768 -0.2160332
-0.14997026 0.23481366 0.1414828 0.28750232 -0.3665351 -0.41014332 0.18177626 0.15426365
-0.20315939 -0.09620258 -0.39757156 0.24877921 -0.030773044 0.24980101 0.29997918 0.2891597
0.23119679 0.35188976 -0.1167506 0.039426297 -0.10062936 0.3199214 0.24626115 -0.15588376
-0.4107929 -0.045357943 0.28023955 0.014258683 0.06567702 0.25479326 0.27511296 0.334891
0.1732122 -0.24022315 -0.07857412 -0.2541778 -0.15188295 0.30270985 -0.2955514 0.3540326
0.114362985 0.28190115 -0.19053908 0.061264277 0.25128916 0.20183071 -0.17862007 -0.24283372
-0.25878853 -0.13204479 0.38853708 -0.40376195 0.3805956 0.23150048 -0.0330092 -0.30708665
0.33512816 0.16658321 -0.06178823 0.23242661 0.027111024 0.23824188 -0.40604463 0.3602806
-0.22279622 -0.05907166 -0.30677584 -0.26722804 -0.17007437 0.049169183 0.18018398 0.047906816
0.2503496 0.3665178 0.23713335 0.20021817 -0.23901099 0.03417483 0.19645438 -0.330253
0.32625398 -0.25561595 0.32703945 -0.21594904 -0.3839004 0.07738805 -0.35813075 -0.17939201
-0.25210264 -0.25998017 -0.17779128 0.13962272 -0.104631335 -0.19055846 0.199155 -0.07303929
-0.18979298 -0.25620615 0.0835301 0.3876032 0.051923335 -0.15233937 0.09805289 -0.11197287
-0.27548808 0.2483941 -0.3165844 0.041721642 0.0070126653 -0.37666422 0.25731578 0.18660763
-0.12448457 0.05940336 -0.09613806 -0.20666267 -0.28009903 0.26295373 -0.22929458 -0.3588753

simplicial_nn.4.W2 f4 [5, 64, 1]
00000000: 7805 4c3d 8961 b13e 6186 a73e 406d 4dbd
00000010: 027f 87be 893d aa3e 361f 353e 723b b1be
00000020: 4b16 823e 724f 503e 1ac5 573e 99d5 843e
00000030: 3831 b0bd f0dc 93be d4b7 c1be 0602 84be
00000040: 598b c53e 50eb 123d 8570 8c3e e02b 283d
00000050: 4e23 403e c3ef a83e ff81 a13e 9a62 393e
00000060: 0086 e5bb d6da 45be 987e aabd 66d7 033e
00000070: 1860 9abe 8077 7f3c 017d d4be fbb8 3fbe
00000080: ae51 7d3e ffc6 86be 676c c8be 2d12 963e
00000090: 1049 7abe 08eb 643d bc83 d93d 92b6 7d3e
000000a0: c53e a03e d5f9 90be cf94 c9be 7278 5c3e
000000b0: b447 e43d 3434 a9bd b754 bf3e 14ee a23d
000000c0: 4ca0 a13d f7f9 a7be 248a 9bbd 835c 53be
000000d0: 80d9 61bd ea68 27be 1a15 43be c01b df3c
000000e0: e063 1f3d a8cc d4be a097 0dbe 3493 f0bd
000000f0: 606e d2be 07e2 ce3e 59b8 b23e a2cd bebe
00000100: b0ae 2f3d 5cef 02be 409e d4bb d10a d23e
00000110: 2a37 81be a881 53bd 97f0 d23e cb3d 98be
00000120: 7067 c7bc d440 86bd 54bc cc3d a5bd b13e
00000130: 1400 89bd 84d4 883d 1303 a73e 12c8 82be
00000140: 702f c2be 6b7e 863e 909f a23c e25a 4e3e
00000150: 0440 22be cc27 d0be c041 05bc b0d6 523d
00000160: 50d4 97bd f047 f73c cca6 a6be 775b c43e
00000170: 614f b83e 18c8 913d bc99 8dbd e916 94be
00000180: cfeb b53e 4197 963e c8eb 4abe da0a d5be
00000190: 103e 713d a257 85be b22c 24be fbc3 9d3e
000001a0: 2686 3f3e ac7a cbbe 8089 6dbb 2cb7 b53d
000001b0: 305a acbc 2629 7abe f64c 8cbe ae8d 94be
000001c0: 7f83 973e b0aa 0c3d 8eba 0a3e f204 1fbe
000001d0: 740f c73d dc80 9a3d a214 6bbe c2c8 48be
000001e0: f47d cf3d 0202 113e 6aa5 8ebe 3716 39be
000001f0: 00af 3f3c 312f a5be 7629 5b3e 9a5c 09be
00000200: 9c89 aa3d 204f 2b3d 622b c9be 85e4 973e
00000210: 92c3 a9be c05f 4f3c 4800 a3be d974 b33e
00000220: e87e 03be b68c 3bbe 4a38 2b3e a4a8 9bbd
00000230: 9341 9e3e 6073 063d 928e 593e 2a7c 0c3e
00000240: 5c9f ffbd 902f 32be cd20 983e 4441 e43d
00000250: c06a 99be d01e 60bd a8e9 22be 61ba aabe
00000260: 3016 4b3d afda bc3e e5ba b9be 708b b7bd
00000270: 0f20 8bbe 6ef9 85be 5801 34be fee1 bdbe
00000280: 9915 aa3e 1fcf 9c3e 8e52 9cbe 58c5 73bd
00000290: a845 6f3d 0c6c 87bd b57a ccbe a285 25be
000002a0: 2658 593e 8c20 06be dde7 b63e 006d 043d
000002b0: f603 623e 00ed bf3a 87f5 853e 0cc2 99bd
000002c0: ac34 bbbd 2bea a33e 80c2 b0bd 08e7 36be
000002d0: 4eeb 1a3e 46df 583e 3cb6 bebe 80d0 8d3b
000002e0: 5298 683e 66e9 a3be 4c52 95bd 0b06 c83e
000002f0: 1132 4cbe f5c2 cebe afbe d13e 32be 203e
00000300: 06eb 483e 044b bdbe 5666 793e 3290 bfbe
00000310: d87c 033d d049 5c3d 6c7a 833d 5fd3 c1be
00000320: cbcf 74be eca0 f73d 0b01 b53e 8543 a13e
00000330: d855 123d 20e8 1ebd 80d2 39bb fe43 90be
00000340: 0419 993d c925 c7be 00a5 13bb 28e2 b6bd
00000350: c249 2e3e 4886 5abd 60a9 9abd 08ac f4bd
00000360: 3c71 cb3d 513b 8d3e 9433 82bd d041 51bd
00000370: 3a67 3b3e 3654 023e 6b75 8f3e 6f00 c23e
00000380: 72ca 38be ab0a cbbe 56fc 9cbe 1d6a ba3e
00000390: 6f14 57be 2006 ccbd 5703 c03e 207b 2ebd
000003a0: 140c c9bd 5358 adbe 5113 43be 8d9a 4ebe
000003b0: a303 c23e b611 583e b2d7 94be d9f1 8d3e
000003c0: c272 6f3e c0c9 1dbe 4c33 ac3d 3149 c93e
000003d0: e88f 0e3d 5eaa d2be c6ba 153e 61c3 993e
000003e0: f056 c6bc 8065 22be 3926 b1be b874 1dbe
000003f0: c3c8 853e 7fb1 b63e 9721 d53e 8062 4bbc
0.049809903 0.34644726 0.3271971 -0.050153017 -0.26464087 0.33250073 0.17687687 -0.34615666
0.25407633 0.20342806 0.21071282 0.25944212 -0.08603138 -0.288795 -0.37835562 -0.25782794
0.38582876 0.035868943 0.27429596 0.041057467 0.18763468 0.32995424 0.31544492 0.1810402
-0.0070044994 -0.1932176 -0.08324927 0.12875137 -0.3015144 0.015592456 -0.4150162 -0.18722908
0.2473819 -0.26323697 -0.39145204 0.29310742 -0.24441934 0.055888206 0.106208295 0.24776676
0.3129789 -0.28315607 -0.39371344 0.21530321 0.11146489 -0.0826191 0.3736932 0.07955566
0.07891902 -0.32807896 -0.075947076 -0.20640759 -0.055139065 -0.16348615 -0.19051018 0.027234912
0.038913608 -0.4156239 -0.13827372 -0.11746827 -0.41099834 0.4040682 0.3490627 -0.3726626
0.042891204 -0.12786621 -0.0064885914 0.41023877 -0.252374 -0.05163732 0.4119918 -0.29734644
-0.024341315 -0.06555334 0.09996858 0.34715 -0.06689468 0.06681159 0.32619533 -0.25543267
-0.37926817 0.26268324 0.019851476 0.20151857 -0.15844733 -0.40655363 -0.008133352 0.051474273
-0.07413542 0.03018567 -0.3254913 0.38351032 0.3599806 0.07118243 -0.06914088 -0.2892373
0.3553147 0.29412273 -0.19816506 -0.41609842 0.058897078 -0.2604342 -0.16032675 0.30813584
0.18703517 -0.3974203 -0.0036245286 0.08872828 -0.021039099 -0.2442976 -0.27402467 -0.29014343
0.2959251 0.034342468 0.13547727 -0.1552923 0.09719744 0.07544109 -0.2295709 -0.19607833
0.101314455 0.14160922 -0.27860576 -0.1807488 0.011699438 -0.32262567 0.21402535 -0.13414231
0.08327028 0.041823506 -0.3929091 0.29666534 -0.3315702 0.012657106 -0.31836152 0.35050085
-0.1284138 -0.18315396 0.16720691 -0.07600525 0.30909404 0.032824874 0.21245793 0.1371924
-0.12481567 -0.17400956 0.29712525 0.11145261 -0.29964256 -0.054716885 -0.15909445 -0.3334532
0.049581707 0.36885592 -0.36275402 -0.089621425 -0.27172896 -0.26166862 -0.17578638 -0.3708648
0.33219603 0.3062677 -0.30531734 -0.059514374 0.05841604 -0.06612405 -0.39937368 -0.16164258
0.21225032 -0.13098353 0.35723773 0.032330513 0.22071823 0.0014642775 0.26163885 -0.07507715
-0.09140906 0.32014593 -0.08630848 -0.17861569 0.15128824 0.21178922 -0.3724841 0.0043278337
0.22714356 -0.32014006 -0.072910875 0.3906711 -0.19940974 -0.40383115 0.40965793 0.15697554
0.19620904 -0.36971295 0.24355444 -0.374147 0.032101482 0.05378133 0.064198345 -0.37856576
-0.23907392 0.1209124 0.35352358 0.31496826 0.0357264 -0.03879559 -0.0028354228 -0.28176874
0.074754745 -0.38896015 -0.0022528768 -0.08929855 0.17020324 -0.053350717 -0.07551837 -0.11946875
0.09933707 0.27584317 -0.06357494 -0.051088154 0.18301097 0.12727436 0.2801927 0.37890956
-0.18045977 -0.39656577 -0.30661267 0.36409083 -0.21003889 -0.09962106 0.37502548 -0.04259789
-0.09816757 -0.3385645 -0.19050337 -0.20176144 0.378934 0.21100506 -0.29070812 0.27723578
0.2338362 -0.15408993 0.084082216 0.39313653 0.03480521 -0.41145605 0.1462203 0.30031875
-0.024211377 -0.15859032 -0.34599474 -0.15376556 0.26129732 0.35682294 0.4162719 -0.012413621

exp_avg f4 [1, 64]
00000000: 0000 0000 0000 0000 0000 0000 0000 0000
00000010: 0000 0000 0000 0000 0000 0000 0000 0000
00000020: 0000 0000 0000 0000 0000 0000 0000 0000
00000030: 0000 0000 0000 0000 0000 0000 0000 0000
00000040: 0000 0000 0000 0000 0000 0000 0000 0000
00000050: 0000 0000 0000 0000 0000 0000 0000 0000
00000060: 0000 0000 0000 0000 0000 0000 0000 0000
00000070: 0000 0000 0000 0000 0000 0000 0000 0000
00000080: 0000 0000 0000 0000 0000 0000 0000 0000
00000090: 0000 0000 0000 0000 0000 0000 0000 0000
000000a0: 0000 0000 0000 0000 0000 0000 0000 0000
000000b0: 0000 0000 0000 0000 0000 0000 0000 0000
000000c0: 0000 0000 0000 0000 0000 0000 0000 0000
000000d0: 0000 0000 0000 0000 0000 0000 0000 0000
000000e0: 0000 0000 0000 0000 0000 0000 0000 0000
000000f0: 0000 0000 0000 0000 0000 0000 0000 0000
0.0 0.0 0.0 0.0 0.0 0.0 0.0 0.0
0.0 0.0 0.0 0.0 0.0 0.0 0.0 0.0
0.0 0.0 0.0 0.0 0.0 0.0 0.0 0.0
0.0 0.0 0.0 0.0 0.0 0.0 0.0 0.0
0.0 0.0 0.0 0.0 0.0 0.0 0.0 0.0
0.0 0.0 0.0 0.0 0.0 0.0 0.0 0.0
0.0 0.0 0.0 0.0 0.0 0.0 0.0 0.0
0.0 0.0 0.0 0.0 0.0 0.0 0.0 0.0

exp_avg_sq f4 [1, 64]
00000000: 0000 0000 0000 0000 0000 0000 0000 0000
00000010: 0000 0000 0000 0000 0000 0000 0000 0000
00000020: 0000 0000 0000 0000 0000 0000 0000 0000
00000030: 0000 0000 0000 0000 0000 0000 0000 0000
00000040: 0000 0000 0000 0000 0000 0000 0000 0000
00000050: 0000 0000 0000 0000 0000 0000 0000 0000
00000060: 0000 0000 0000 0000 0000 0000 0000 0000
00000070: 0000 0000 0000 0000 0000 0000 0000 0000
00000080: 0000 0000 0000 0000 0000 0000 0000 0000
00000090: 0000 0000 0000 0000 0000 0000 0000 0000
000000a0: 0000 0000 0000 0000 0000 0000 0000 0000
000000b0: 0000 0000 0000 0000 0000 0000 0000 0000
000000c0: 0000 0000 0000 0000 0000 0000 0000 0000
000000d0: 0000 0000 0000 0000 0000 0000 0000 0000
000000e0: 0000 0000 0000 0000 0000 0000 0000 0000
000000f0: 0000 0000 0000 0000 0000 0000 0000 0000
0.0 0.0 0.0 0.0 0.0 0.0 0.0 0.0
0.0 0.0 0.0 0.0 0.0 0.0 0.0 0.0
0.0 0.0 0.0 0.0 0.0 0.0 0.0 0.0
0.0 0.0 0.0 0.0 0.0 0.0 0.0 0.0
0.0 0.0 0.0 0.0 0.0 0.0 0.0 0.0
0.0 0.0 0.0 0.0 0.0 0.0 0.0 0.0
0.0 0.0 0.0 0.0 0.0 0.0 0.0 0.0
0.0 0.0 0.0 0.0 0.0 0.0 0.0 0.0
