results/Test_citation/version_16/checkpoints/epoch=264-step=265.ckpt (torch, 28113 bytes, 27 tensors)

simplicial_nn.0.W0 f4 [1, 16]
0	0x3f034f7e	0.5129317
1	0x3ecf82cf	0.40529487
2	0xbee4594e	-0.44599384
3	0x3e17e0cb	0.14831845
4	0xbed2f371	-0.41201356
5	0x3f10fd9e	0.5663699
6	0x3ed73fde	0.42040914
7	0x3e9b8dc4	0.30381596
8	0xbe6241c6	-0.22095403
9	0x3ce5d862	0.02805728
10	0x3ddab0c0	0.10678244
11	0x3ea19413	0.31558284
12	0x3f22ceba	0.6359669
13	0x3f1119c4	0.5667994
14	0x3eb07b61	0.3446913
15	0x3f225d39	0.63423496

simplicial_nn.0.W1 f4 [2, 1, 16]
0	0x3e8a4107	0.27002737
1	0xbead7cbf	-0.33884236
2	0x3d112960	0.03543985
3	0x3e7e548f	0.24836944
4	0x3e68dc2c	0.22740239
5	0x3e48aa49	0.19596209
6	0xbe74573e	-0.23861405
7	0x3e8c8440	0.2744465
8	0x3ecb30df	0.39685723
9	0x3eac74b0	0.33682775
10	0x3e3ffe98	0.18749464
11	0x3e9d451c	0.3071679
12	0x3ee28b67	0.4424698
13	0x3b94700d	0.004529959
14	0x3e5e29c6	0.21695623
15	0xbdbd7ac5	-0.09251932
16	0xbec26377	-0.3796651
17	0xbe18c9f3	-0.14920788
18	0xbdc0fa30	-0.094227195
19	0xbeeaeda9	-0.45884445
20	0xbe995778	-0.29949546
21	0xbed58171	-0.41700318
22	0x3e9c6190	0.30543184
23	0x3ee37d0d	0.44431344
24	0x3ea95eba	0.33080083
25	0x3e8d4c45	0.27597252
26	0xbef01683	-0.46892175
27	0x3e9fdefc	0.3122481
28	0xbe9d23b6	-0.30691308
29	0xbe423051	-0.18963744
30	0xbdaf56f7	-0.08561509
31	0xbe181924	-0.1485334

simplicial_nn.0.W2 f4 [2, 1, 16]
0	0x3df06e71	0.11739815
1	0xbead5aba	-0.3385828
2	0xbdc2c878	-0.09510893
3	0x3d03d4b3	0.032185268
4	0x3e8d6234	0.27613986
5	0xbed13f52	-0.40868622
6	0xbe143567	-0.14473496
7	0xbcb1675d	-0.021655733
8	0x3eac23d6	0.3362109
9	0x3e4b1b88	0.19834721
10	0x3eaed6b8	0.34148192
11	0x3e075369	0.13215412
12	0x3ec72e6f	0.38902614
13	0x3e28af0b	0.16473024
14	0x3e228cb6	0.1587399
15	0xbe555785	-0.20834167
16	0xbeeed782	-0.46648794
17	0xbc72e369	-0.014824727
18	0x3e88f256	0.26747388
19	0xbe71a9af	-0.23599885
20	0x3e829ad2	0.25508744
21	0x3ee067f5	0.43829313
22	0x3e195eb4	0.14977533
23	0xbeae6bfb	-0.34066758
24	0x3e83d404	0.25747693
25	0x3ed164cb	0.4089721
26	0xbdc05b8b	-0.093924604
27	0x3ee33a95	0.44380632
28	0x3e1e9a6d	0.15488596
29	0xbe11af1c	-0.14226955
30	0x3e04671b	0.12929957
31	0x3df4a400	0.11945343

simplicial_nn.2.W0 f4 [16, 16]
0	0x3eb25bfc	0.34835804
1	0x3f1c520f	0.6106271
2	0xbe775465	-0.24153288
3	0x3f1ad78b	0.6048514
4	0xbf08ea6b	-0.53482693
5	0x3e68408b	0.22680871
6	0xbdeef9df	-0.11668753
7	0x3e43c7e0	0.19119215
8	0x3efc2b2f	0.49251696
9	0xbe1ed5f9	-0.15511312
10	0x3c9f3853	0.019436037
11	0xbedac1da	-0.42726022
12	0x3e93f29f	0.28896043
13	0xbe5e5a4f	-0.21714137
14	0xbe0d752b	-0.13814227
15	0x3cc1af0f	0.023643045
16	0x3e747288	0.23871815
17	0x3f0d9d04	0.5531771
18	0x3cf9fa93	0.03051499
19	0x3f11b5dd	0.56918126
20	0xbdcc73fb	-0.09983059
21	0x3df5738a	0.11984928
22	0x3f14104c	0.5783737
23	0xbe858006	-0.26074237
24	0xbe9fac76	-0.31186265
25	0x3ded84f9	0.11597628
26	0x3ec07caa	0.3759511
27	0xbf0e5b46	-0.5560802
28	0x3ef0a984	0.4700433
29	0x3d7a7ba4	0.06115307
30	0x3f13ab35	0.57683116
31	0x3e8c1918	0.27362895
32	0xbebf0b2a	-0.37313205
33	0xbdb0e358	-0.086371124
34	0x3ed7a10a	0.4211505
35	0x3f047d1f	0.5175342
36	0xbe0548a6	-0.13015994
37	0x3d2efbb0	0.042720497
38	0x3e82671a	0.25469285
39	0x3eabb334	0.3353516
40	0xbee38062	-0.44433886
41	0x3e42842c	0.18995732
42	0xbda24890	-0.079239964
43	0x3e8305fe	0.2559051
44	0xbe344478	-0.17604244
45	0xbe95dcaa	-0.29269916
46	0xbda2d780	-0.079512596
47	0x3ed60cb6	0.41806573
48	0xbe30d906	-0.17270288
49	0x3e88a1cb	0.26685938
50	0x3f0ca931	0.54945666
51	0xbe88cb07	-0.26717398
52	0xbef25046	-0.4732687
53	0x3e991102	0.29895788
54	0x3ede13a3	0.43374357
55	0x3d92a61d	0.0716059
56	0xbe7bb436	-0.24580464
57	0x3d3b0664	0.04566039
58	0xbe2111dd	-0.1572947
59	0xbe0eb65e	-0.13936755
60	0xbec517dc	-0.38494766
61	0x3f064545	0.52449447
62	0xbecc2115	-0.3986899
63	0xbf1d8031	-0.6152373
64	0xbea67ea5	-0.32518497
65	0x3ebabca8	0.36472058
66	0xbf1135a0	-0.5672245
67	0xbeb0ded2	-0.34544998
68	0x3f1b8de5	0.6076339
69	0x3eb9ebc8	0.363127
70	0x3e85b68e	0.2611584
71	0xbda179c0	-0.0788455
72	0x3e5080a8	0.20361578
73	0x3e522c80	0.20524788
74	0x3efd99da	0.49531442
75	0x3ef65912	0.4811483
76	0x3f0e2b6b	0.55535
77	0xbe32ab84	-0.1744824
78	0x3d862b00	0.0655117
79	0x3e688844	0.22708231
80	0xbe28ed6a	-0.16496816
81	0x3e11d43a	0.14241114
82	0x3dea9f5e	0.11456178
83	0x3dcfc0e8	0.10144216
84	0x3f1c8d26	0.61152875
85	0xbe1d7196	-0.15375361
86	0xbf202acc	-0.625653
87	0xbdfb5e4d	-0.12273846
88	0xbe5aafc7	-0.21356116
89	0x3e524047	0.20532332
90	0x3edcd69d	0.43132487
91	0xbf0d9674	-0.553077
92	0xbb8b0466	-0.0042424677
93	0xbebd3e80	-0.36961746
94	0xbef7764e	-0.48332447
95	0x3e206f81	0.15667535
96	0xbee16dd4	-0.44029105
97	0x3e0998c7	0.13437186
98	0x3d88ca4d	0.06679211
99	0xbeb20636	-0.34770364
100	0xbdd83b45	-0.1055818
101	0x3f02c814	0.51086545
102	0xbdc8e195	-0.09808651
103	0x3eaca0f9	0.33716562
104	0x3d1a8110	0.03772074
105	0xbecf6ee9	-0.40514305
106	0x3f0f0d6a	0.55879843
107	0x3f033377	0.51250404
108	0x3edeb6ca	0.43498832
109	0xbeb5718c	-0.35438192
110	0x3e72f08a	0.23724571
111	0xbf1dd220	-0.6164875
112	0xbf01659b	-0.5054566
113	0xbe1a1b3d	-0.15049453
114	0x3e808aa7	0.25105783
115	0xbf190cfe	-0.5978545
116	0x3f1a8e08	0.6037297
117	0xbebd13d9	-0.36929205
118	0xbe844653	-0.25834903
119	0x3e2639ef	0.16233037
120	0x3f05eab3	0.5231125
121	0x3efc7599	0.4930847
122	0xbe177e1f	-0.14794205
123	0x3ea12406	0.31472796
124	0x3e79bdbc	0.24388784
125	0x3d9cbcdc	0.076532096
126	0x3e3cd33d	0.18439956
127	0x3f050f41	0.519764
128	0xbe9960fd	-0.2995681
129	0xbe2f8783	-0.17141537
130	0xbdaaa61f	-0.08332466
131	0x3d88de50	0.06683028
132	0x3f15afdb	0.5847146
133	0xbe78b7e7	-0.24288903
134	0x3e63ae1c	0.22234386
135	0x3dc5f67e	0.09666155
136	0xbf077067	-0.5290589
137	0xbf0414d9	-0.5159431
138	0xbe0e1c1a	-0.13877907
139	0x3db2d350	0.08731711
140	0xbe8e19af	-0.2775397
141	0xbe7e9a96	-0.24863657
142	0xbf15b6a5	-0.5848182
143	0xbf04f0c6	-0.5192989
144	0x3dc07378	0.09397024
145	0x3de6e7e6	0.112747
146	0xbe0ef6b5	-0.13961299
147	0xbe5c4e74	-0.21514302
148	0xbe67c30a	-0.22632995
149	0xbd63603e	-0.055511706
150	0x3ec623b2	0.38699108
151	0xbe90c4ea	-0.28275234
152	0xbeb3c7f6	-0.35113496
153	0xbf09dea8	-0.5385537
154	0xbdc5fc4d	-0.09667263
155	0xbe4db816	-0.20089754
156	0x3ea6d4c0	0.3258419
157	0xbee7a47b	-0.45242676
158	0xbd025e40	-0.031828165
159	0x3cb0a8e1	0.021564903
160	0x3d2cc2b0	0.042177856
161	0xbe15cea1	-0.14629604
162	0x3f217cef	0.6308126
163	0xbe890b87	-0.26766607
164	0x3d769138	0.060197085
165	0xbea30fbc	-0.31847942
166	0xbe28b13a	-0.16473857
167	0xbe548053	-0.20752077
168	0xbed44dc6	-0.41465586
169	0x3c2016c1	0.00977105
170	0xbd9d1d9b	-0.076716624
171	0xbe55dbce	-0.2088463
172	0x3ecda58c	0.40165365
173	0xbec6a975	-0.3880116
174	0x3ef92e0c	0.48667943
175	0xbe136cc3	-0.14396958
176	0xbdd9d4d0	-0.10636294
177	0xbe35c0f7	-0.17749391
178	0xbdb50738	-0.088392675
179	0x3e588ad4	0.21146709
180	0xbeeeba4d	-0.4662651
181	0x3f18e24c	0.597203
182	0x3ceb7bcb	0.028745553
183	0xbf1df5b3	-0.6170303
184	0x3e857d9d	0.26072398
185	0x3e614109	0.21997465
186	0x3e468c4d	0.19389458
187	0xbecd10e4	-0.4005195
188	0xbe818b91	-0.25301793
189	0xbf00d2e9	-0.50321823
190	0xbeabc231	-0.33546594
191	0x3ed28c3d	0.41122618
192	0x3f136757	0.5757956
193	0x3db1af0a	0.08675964
194	0x3eb70ced	0.3575205
195	0xbec90814	-0.39263976
196	0x3e96d480	0.29459
197	0x3e1b745b	0.15181105
198	0x3cee25d7	0.029070778
199	0x3f082624	0.531832
200	0x3ed5b83f	0.4174213
201	0xbe15c3a6	-0.14625415
202	0xbeedd54f	-0.46451804
203	0x3e6eeeb4	0.23333246
204	0xbf05f425	-0.5232566
205	0xbe8641e7	-0.26222154
206	0xbf16229b	-0.58646554
207	0x3ecca7d0	0.3997178
208	0xbf074661	-0.52841765
209	0x3efb4e49	0.49083164
210	0x3ef8021d	0.48439112
211	0xbe7a4e28	-0.24443877
212	0x3ef7fc83	0.4843484
213	0xbe760daa	-0.2402865
214	0x3ebd9e12	0.3703466
215	0xbf1a36af	-0.6023969
216	0x3e92f234	0.2870041
217	0xbe10f95c	-0.14157623
218	0x3dc1f979	0.09471411
219	0x3ee36382	0.44411856
220	0x3e0115bc	0.12605947
221	0x3f1464cd	0.5796631
222	0xbeeafba4	-0.45895112
223	0xbea58ef6	-0.32335633
224	0x3ea05ad4	0.31319296
225	0x3e8d8b96	0.27645558
226	0x3f2060ea	0.6264788
227	0x3f061895	0.5238126
228	0xbef48ede	-0.4776525
229	0x3f104f79	0.56371266
230	0xbebd63f2	-0.36990315
231	0xbe976cd9	-0.29575232
232	0xbebf059b	-0.37308964
233	0x3e833cda	0.25632364
234	0x3e633006	0.22186288
235	0xbee7a4de	-0.4524297
236	0xbee1010c	-0.4394611
237	0x3f1bc580	0.60848236
238	0x3e86706c	0.26257646
239	0x3e21b406	0.1579133
240	0xbec52eb6	-0.385122
241	0x3f162b7b	0.58660096
242	0x3eb06cff	0.34458157
243	0xbedf57f4	-0.4362179
244	0xbebece89	-0.3726695
245	0x3f16b68d	0.588723
246	0x3f0e076a	0.5548006
247	0x3e9e462d	0.30912915
248	0xbef38592	-0.47562844
249	0x3e7675c6	0.24068365
250	0xbf0e967c	-0.5569837
251	0xbd1e3f40	-0.03863454
252	0x3f0d8b35	0.5529054
253	0x3ebeee4e	0.37291187
254	0x3ec2b692	0.38029915
255	0xbecea066	-0.4035675

simplicial_nn.2.W1 f4 [2, 16, 16]
0	0xbe2b6188	-0.16736424
1	0x3e3d5e34	0.18492967
2	0xbe380def	-0.17974065
3	0x3e4b81c8	0.19873726
4	0x3ccddeeb	0.02513071
5	0x3d41a181	0.047273163
6	0xbe2f5492	-0.17122105
7	0xbc83d91d	-0.016094739
8	0xbdf833b5	-0.12119237
9	0xbca6339a	-0.020288277
10	0x3e17fee3	0.14843325
11	0xbdd257fa	-0.102706864
12	0xbe512f36	-0.20428166
13	0x3e223db1	0.15843846
14	0xbe12a2df	-0.14319943
15	0xbe1b78e1	-0.1518283
16	0x3e4ecf92	0.2019637
17	0x3dcc061c	0.09962103
18	0x3da2fbb7	0.07958167
19	0xbe238a23	-0.15970664
20	0xbe02fd2a	-0.12791887
21	0xbd8bd3a3	-0.06827476
22	0xbdfe787e	-0.12425326
23	0xbe5b7af6	-0.21433625
24	0x3dd81fb2	0.105529204
25	0xbe0a8ebc	-0.13531011
26	0x3c7c0d9a	0.015384102
27	0x3d772840	0.06034112
28	0xbcbbffba	-0.022949088
29	0xbe37f43b	-0.1796426
30	0xbe225028	-0.1585089
31	0x3d79bdb2	0.060971923
32	0x3dcd56d4	0.10026327
33	0x3d6710f0	0.056412637
34	0xbdeab2cf	-0.11459886
35	0x3db9a7a0	0.09065175
36	0x3e49a39c	0.19691318
37	0xbe1bcaf8	-0.15214145
38	0x3da8ed10	0.08248341
39	0x3d36aac8	0.044596463
40	0x3dc7e55c	0.09760544
41	0xbd663a58	-0.056207985
42	0x3ca41690	0.02003029
43	0x3ad23980	0.0016038865
44	0xbdbd9560	-0.09257007
45	0xbe340829	-0.17581238
46	0x3d2414a4	0.040058747
47	0xbe3c2e79	-0.18377103
48	0xbe15252b	-0.1456496
49	0x3e42438f	0.18971084
50	0x3d81232f	0.06305539
51	0x3e15fd1c	0.14647335
52	0xbdfad6ab	-0.12247976
53	0x3d7923ec	0.060825273
54	0xbd90a8a7	-0.07063418
55	0xbdfb35c6	-0.12266116
56	0xbe3dfe03	-0.18553929
57	0x3e052811	0.13003565
58	0xbba3f62f	-0.0050037126
59	0xbdb97ceb	-0.09057029
60	0xbc911231	-0.01770887
61	0x3c2000f0	0.0097658485
62	0x3e00a181	0.12561609
63	0x3e240bdb	0.16020148
64	0xbd61ef08	-0.0551596
65	0xbe43f62f	-0.1913688
66	0x3e1a936a	0.15095297
67	0xbdff00d1	-0.124513276
68	0xbc2f1610	-0.010686412
69	0xbe3f80bc	-0.18701452
70	0xbc87f500	-0.016596317
71	0x3d582028	0.05276504
72	0xbc945cb8	-0.018110618
73	0xbdc8becf	-0.09802019
74	0xbe31afad	-0.17352171
75	0x3e1b5ec0	0.15172863
76	0xbe3c128a	-0.18366447
77	0x3e19ed2c	0.1503188
78	0x3da77c40	0.08177996
79	0x3e48e898	0.19619977
80	0xbdd33696	-0.10313146
81	0xbe228510	-0.15871072
82	0x3e1a17b1	0.150481
83	0xbe17ba36	-0.14817128
84	0xbd98f9f3	-0.07469549
85	0x3db01294	0.085972935
86	0xbe1d1af5	-0.15342315
87	0x3db469c7	0.08809238
88	0xbdfca956	-0.12336986
89	0xbd2014ab	-0.03908221
90	0xbd8436e3	-0.06455781
91	0x3e449be2	0.1920009
92	0x3dddf759	0.108381934
93	0xbbe77408	-0.0070633925
94	0xbd57430c	-0.052554175
95	0x3c265658	0.010152422
96	0x3de96c04	0.113975555
97	0xbe0b7aca	-0.13621059
98	0x3dab9ff7	0.0838012
99	0x3dbb9d4c	0.091608614
100	0xbe2bc135	-0.16772921
101	0xbdeb3b31	-0.11485899
102	0x3bc53cc2	0.006019206
103	0xbd98bfec	-0.07458481
104	0xbdb2c8f9	-0.08729739
105	0xbdd8d2ec	-0.10587105
106	0x3e1b9515	0.15193589
107	0xbe27dad5	-0.16392072
108	0x3e1d794e	0.15378305
109	0xbe42fdab	-0.19042079
110	0x3e33f82b	0.17575137
111	0x3e3cbcda	0.18431416
112	0x3e082ac8	0.1329757
113	0xbd3a97c6	-0.0455549
114	0x3e1a4d20	0.15068483
115	0xbc284c10	-0.010272041
116	0xbdf8ef84	-0.12155059
117	0x3d161652	0.03664238
118	0xbe03a91a	-0.12857476
119	0xbd1d27ad	-0.038367916
120	0xbe15d81d	-0.14633222
121	0x3dbd47b2	0.092421904
122	0xbca402d4	-0.02002088
123	0xbda0c610	-0.078502774
124	0x3e1fee1d	0.15618177
125	0x3db1561a	0.08659001
126	0x3c88fd7f	0.016722439
127	0x3dc26a0a	0.094928816
128	0xbe116117	-0.14197193
129	0x3e244893	0.1604331
130	0x3e012806	0.12612924
131	0x3e46e742	0.19424155
132	0x3e0c4785	0.13699158
133	0x39d94c68	0.00041446392
134	0xbc556065	-0.0130234705
135	0x3c25822f	0.010101839
136	0xbe0a6113	-0.13513593
137	0x3d8aebc0	0.06783247
138	0xbd7261c8	-0.059175283
139	0xbdfb196a	-0.12260707
140	0x3e3c6f96	0.18401942
141	0x3dd2f2aa	0.10300191
142	0x3e1ad397	0.15119778
143	0x3dbe53df	0.09293341
144	0x3e031ffa	0.12805167
145	0xbd1b168d	-0.037863303
146	0xbbbfa084	-0.0058479924
147	0x3da7c0d8	0.08191079
148	0x3d3ab137	0.04557916
149	0xbba2ce34	-0.004968429
150	0x3dd854e0	0.105630636
151	0xbc9c761b	-0.019099286
152	0xbe1dc9a3	-0.1540895
153	0x3d24dcd5	0.040249664
154	0xbddb4c09	-0.10707862
155	0x3d680358	0.056643814
156	0x3e3e67c9	0.18594278
157	0x3db70cfb	0.08938023
158	0xbe2e716f	-0.17035459
159	0x3e323438	0.17402732
160	0x3e41e6e6	0.18935737
161	0x3e452102	0.19250873
162	0xbda41f20	-0.08013749
163	0x3d384dd8	0.044996113
164	0xbcc11f19	-0.023574399
165	0xbe3c8af6	-0.18412384
166	0xbd56e729	-0.052466545
167	0x3dd41e2b	0.103573166
168	0xbc89c096	-0.016815465
169	0xbe1af6fa	-0.15133277
170	0xbe24a07d	-0.16076846
171	0xbd98db44	-0.074636966
172	0x3cd4c708	0.025973812
173	0xbdb36135	-0.08758775
174	0xbd9a7450	-0.07541716
175	0xbe0f1eb8	-0.13976562
176	0xbd2dddbc	-0.04244779
177	0x3e5393ee	0.206619
178	0x3e245b23	0.16050391
179	0x3debcc04	0.11513522
180	0x3dcb186e	0.09916769
181	0xbe1eecb9	-0.1551999
182	0x3d4fe080	0.05075121
183	0xbe21cad4	-0.15800029
184	0xb9ffba62	-0.00048776256
185	0xbd1678c4	-0.036736265
186	0xbd6f07ea	-0.058357157
187	0xbe3c9841	-0.18417455
188	0xbda1bf5f	-0.07897829
189	0xbe597d1d	-0.21239133
190	0xbcd76036	-0.026290994
191	0x3e3726b9	0.17885865
192	0xbe2851ff	-0.16437529
193	0x3e45b24c	0.19306296
194	0x3e229164	0.15875775
195	0x3da7d6dc	0.08195278
196	0xbd59b440	-0.053150415
197	0xbdd9eb8e	-0.106406316
198	0xbe5605cb	-0.20900647
199	0x3dd65a78	0.10466474
200	0x3c9e2867	0.019306375
201	0x3e30caad	0.17264815
202	0x3e5bb390	0.21455216
203	0xbe25042c	-0.16114873
204	0xbe3f4209	-0.18677534
205	0x3e2bf7c8	0.1679374
206	0x3c850f56	0.016242664
207	0x3de68943	0.11256649
208	0x3e0cca56	0.1374906
209	0x3cda01c0	0.026612163
210	0x3c69dbc3	0.014273587
211	0x3de07a88	0.10960871
212	0x3e45a410	0.19300866
213	0x3dd19361	0.102331884
214	0x3e1164d7	0.14198624
215	0x3e39f2f6	0.18159088
216	0xbd7d7b09	-0.061884914
217	0x3e5ec235	0.21753772
218	0x3da74f4c	0.081694216
219	0xbde50e5d	-0.1118438
220	0xbd17c944	-0.037057176
221	0xbe0b9a9a	-0.13633195
222	0x3dafc2cf	0.08582079
223	0xbc5d2f1a	-0.013499999
224	0xbcbd9d08	-0.023146167
225	0x3e045b64	0.12925488
226	0xbe1e7a81	-0.15476419
227	0xbddb0003	-0.106933616
228	0x3df171fd	0.1178932
229	0x3db8c965	0.09022788
230	0x3cc6f8f7	0.024288638
231	0x3df008a9	0.11720402
232	0xbe27e429	-0.1639563
233	0x3dce2a6d	0.10066686
234	0xbcebc2d1	-0.02877942
235	0x3ddeb380	0.10874081
236	0x3dec2231	0.11529959
237	0xbe10cc11	-0.14140345
238	0x3c189b90	0.009314433
239	0xbe25afba	-0.16180316
240	0xbd6dc6c4	-0.058050886
241	0xbe349480	-0.17634773
242	0x3df475d4	0.119365364
243	0x3e04c4fc	0.12965769
244	0x3e4ca334	0.19984132
245	0x3dcf9daf	0.10137498
246	0x3df15fc2	0.117858425
247	0x3e18c7cd	0.14919968
248	0x3d4b38ff	0.049614903
249	0x3da2b1e0	0.07944083
250	0xbdf8cef6	-0.1214885
251	0x3c7613e0	0.015019387
252	0xbd6d4cdc	-0.057934627
253	0xbe0d3f95	-0.13793786
254	0xbe1ecb52	-0.15507248
255	0xbe17289b	-0.14761584

simplicial_nn.2.W2 f4 [2, 16, 16]
0	0xbd353c38	-0.044246882
1	0x3e2a4a6b	0.1662995
2	0xbd262dca	-0.04057101
3	0xbe4a6d62	-0.19768289
4	0x3e3549f7	0.17703997
5	0xbd49d506	-0.04927542
6	0xbd1459fa	-0.03621862
7	0x3e3dda72	0.18540362
8	0x3e3a2e9f	0.18181847
9	0x3e43fa06	0.19138345
10	0xbd987bf6	-0.07445519
11	0xbe4e6fea	-0.2015988
12	0x3cf87da3	0.030333346
13	0xbd0bbce5	-0.03411569
14	0xbd4dbce0	-0.050228953
15	0x3e3e037f	0.18556021
16	0xbdae60eb	-0.085145794
17	0x3d9b8822	0.07594325
18	0x3e464ef7	0.1936606
19	0x3dce1d60	0.100641966
20	0x3caf7264	0.02141685
21	0xbe27b617	-0.16378056
22	0xbe34343b	-0.1759805
23	0xbd6d62bd	-0.057955492
24	0x3d874f2e	0.06606899
25	0xbd589803	-0.052879345
26	0xbd461d12	-0.048367567
27	0x3dcfb604	0.101421386
28	0x3c9825bf	0.018572686
29	0x3e2c0055	0.16797002
30	0xbe2310b1	-0.15924336
31	0xbe237506	-0.1596261
32	0x3e194c80	0.14970589
33	0xbdb687f9	-0.089126535
34	0x3dc55220	0.09634805
35	0x3dc4e02c	0.0961307
36	0xbddd9a36	-0.10820429
37	0xbdc20de0	-0.09475303
38	0x3de38524	0.11109379
39	0x3dfae00c	0.12249765
40	0xbe16d49c	-0.14729542
41	0x3dbf707c	0.093476266
42	0xbc811160	-0.015755355
43	0xbd0dfb94	-0.03466375
44	0x3de2e0c8	0.1107803
45	0x3e24e120	0.16101503
46	0x3db3b5b0	0.087748885
47	0xbc80d888	-0.01572825
48	0xbe495b3c	-0.1966371
49	0x3d054622	0.032537587
50	0xbc0ae70c	-0.008477937
51	0xbd984154	-0.07434335
52	0x3dfe0087	0.12402444
53	0xbdd6470b	-0.10462769
54	0xbe574fc5	-0.21026523
55	0xbdd508ea	-0.10402091
56	0xbdc36130	-0.095400214
57	0x3e5559c4	0.20835024
58	0x3cf01cb2	0.029310558
59	0xbe1064f2	-0.14101008
60	0x3d5ba3b8	0.05362293
61	0x3d777639	0.06041548
62	0x3e22e3a5	0.15907152
63	0xbe30eaa3	-0.17277007
64	0xbe0454bd	-0.1292295
65	0xbd825e22	-0.06365611
66	0x3d8d39e0	0.068958044
67	0x3e4b16da	0.19832936
68	0x3e123026	0.1427618
69	0xbdd40e35	-0.10354272
70	0x3d40e918	0.047097296
71	0xbd9d6592	-0.076853886
72	0xbd4e3720	-0.05034554
73	0xbdd0f16c	-0.102022976
74	0xbe4b1f76	-0.1983622
75	0xbdb42dae	-0.08797775
76	0xbe3839f1	-0.17990853
77	0xbde8a7ef	-0.11360156
78	0xbe35e9f6	-0.1776503
79	0x3b938540	0.0045019686
80	0xbc7639a0	-0.015028387
81	0xbd9654c2	-0.07340385
82	0x3e510673	0.20412616
83	0x3d6ad0b0	0.057327926
84	0x3d7433fe	0.059619896
85	0xbe0d0627	-0.13771878
86	0xbcc2b41b	-0.023767522
87	0x3e2cbaa0	0.16868067
88	0x3ddf4547	0.109018855
89	0x3e23e0cd	0.16003723
90	0xbdfead71	-0.12435425
91	0xbda3b8e0	-0.079942465
92	0xbd531592	-0.051534243
93	0x3e1d27c8	0.15347207
94	0x3dc40d06	0.095727965
95	0x3dfaa8c6	0.12239222
96	0xbd1f5d10	-0.03890711
97	0x3e028306	0.12745294
98	0xbda04490	-0.07825577
99	0x3e396d70	0.18108153
100	0x3c4ce238	0.012505107
101	0xbddc8fdf	-0.10769629
102	0xbcce9304	-0.025216587
103	0x3e1c704c	0.15277213
104	0x3d25e9c8	0.040506154
105	0xbdfa24ec	-0.122140735
106	0xbd48a35f	-0.048983928
107	0xbe31a207	-0.17346965
108	0x3d5d01ff	0.05395698
109	0x3e09fd68	0.13475573
110	0x3d0afff3	0.0339355
111	0xbe4a1fbf	-0.19738673
112	0xbcf51ca0	-0.029920876
113	0x3db5a6f1	0.08869732
114	0xbd9f598a	-0.0778075
115	0xbe422462	-0.18959191
116	0x3d8c6dc3	0.06856873
117	0x3df1580a	0.1178437
118	0x3dd96d50	0.10616553
119	0xbd4ca8dc	-0.049965724
120	0xbe235ebe	-0.1595411
121	0xbe1d9276	-0.15387902
122	0x3de121ee	0.109928
123	0xbe3d0198	-0.18457639
124	0x3d082be5	0.033244986
125	0xbe15d8e5	-0.1463352
126	0xbe401e00	-0.18761444
127	0x3cdd7edc	0.02703803
128	0xbc1f1140	-0.009708703
129	0x3d98b315	0.07456032
130	0x3d81b605	0.063335456
131	0x3c2d7d50	0.010588959
132	0xbe2aaccf	-0.16667484
133	0x3c196eaf	0.009364768
134	0x3e4abe26	0.19799098
135	0x3db6a314	0.089178234
136	0x3e04468d	0.12917538
137	0xbd6463f1	-0.055759374
138	0xbe570b05	-0.21000297
139	0x3e23f09a	0.16009751
140	0x39c79173	0.00038064606
141	0xbc7fafd8	-0.015605889
142	0xbe49ac16	-0.19694552
143	0xbdbea0a6	-0.09307985
144	0xbccb44b8	-0.024813041
145	0xbdafb36f	-0.08579146
146	0x3dde52e0	0.10855651
147	0x3d5e8cf0	0.054333627
148	0xbda306a1	-0.07960249
149	0x3e12b042	0.1432505
150	0x3d9fbdc4	0.07799867
151	0xbe49d840	-0.19711399
152	0x3e40a7b4	0.18813974
153	0xbdda71d9	-0.10666246
154	0xbdba4ea5	-0.090970315
155	0x3d956084	0.072937995
156	0x3e234e0f	0.15947746
157	0x3e5d60b2	0.21618918
158	0xbd9321e8	-0.071842015
159	0xbdbc2ef2	-0.091886416
160	0x3e2a0f9a	0.16607514
161	0x3e253d65	0.16136701
162	0x3dcfdfae	0.101500854
163	0xbe4c3199	-0.19940795
164	0x3e0d5544	0.13802058
165	0x3be7d106	0.007074478
166	0x3dd9ed9c	0.106410235
167	0x3e270538	0.16310585
168	0x3e4a6de2	0.1976848
169	0x3d92c70f	0.07166874
170	0xbd1b9061	-0.037979487
171	0x3e0321ee	0.12805912
172	0xbe3abe9b	-0.18236773
173	0x3d83d6f9	0.06437487
174	0x3df4ab67	0.11946755
175	0xbd98f68e	-0.074689016
176	0x3dd4b1e4	0.103854924
177	0x3e0e8f8f	0.13921951
178	0x3d55f72b	0.05223767
179	0xbd01efa4	-0.03172268
180	0xbdd46082	-0.1036997
181	0xbe0a35e2	-0.13497117
182	0x3e0fc49f	0.14039849
183	0xbe324aae	-0.174113
184	0x3dcd1239	0.10013241
185	0xbe31f297	-0.17377697
186	0xbd370e91	-0.044691626
187	0xbe18ad75	-0.14909919
188	0xbd507030	-0.05088824
189	0xbd4e28a3	-0.050331723
190	0xbb247395	-0.0025093306
191	0x3d3128f2	0.04325194
192	0xbe459abc	-0.19297308
193	0xbccfe040	-0.025375485
194	0xbd5108d4	-0.05103381
195	0x3e38dba4	0.18052536
196	0xbd662e5e	-0.056196563
197	0xbdbbf2a1	-0.09177137
198	0xbe2034bb	-0.15645115
199	0x3de00c1d	0.109398104
200	0x3e262817	0.1622623
201	0xbd0496e8	-0.032370478
202	0xbe0f1fda	-0.13976994
203	0x3d996a94	0.07491031
204	0xbe3846c7	-0.1799575
205	0xbde2b311	-0.110693105
206	0x3e52a510	0.20570779
207	0x3df9a784	0.12190154
208	0xbe251fe9	-0.16125454
209	0x3e0bf21a	0.13666573
210	0xbce5bcef	-0.028044192
211	0xbd385e68	-0.045011908
212	0xbe4e121a	-0.20124093
213	0x3d534198	0.051576227
214	0xbdf693f1	-0.12039936
215	0xbcd42141	-0.025894763
216	0x3e1c638d	0.1527235
217	0x3c78d048	0.015186377
218	0x3d57c524	0.052678242
219	0x3da9fc10	0.0830003
220	0xbe008ea0	-0.12554407
221	0xbbe8547d	-0.00709015
222	0xbde73d7e	-0.112910256
223	0xbb843ff6	-0.004035945
224	0x3cf93f20	0.030425608
225	0xbd8f753a	-0.07004781
226	0x3b4147e3	0.002949231
227	0xbde613b5	-0.112342276
228	0xbe27b4e3	-0.16377597
229	0x3d884b8c	0.066550344
230	0xbe4b6495	-0.19862588
231	0x3c017f2e	0.007903857
232	0x3e0e38fb	0.13888924
233	0x3d37b0f1	0.04484648
234	0x3d0bfa43	0.034174215
235	0x3bad6060	0.00529103
236	0xbd1b6086	-0.03793385
237	0x3b8ec683	0.0043571605
238	0xbcbee406	-0.02330209
239	0xbe580275	-0.21094687
240	0xbd9af06a	-0.075653866
241	0xbe0e5f61	-0.13903572
242	0x3e36c24a	0.17847553
243	0x3debbc60	0.11510539
244	0x3c975204	0.018471725
245	0x3e500372	0.20313814
246	0x3d15a56f	0.036534723
247	0xbe43dde0	-0.19127607
248	0x3e64f68b	0.22359674
249	0x3e08ea06	0.13370523
250	0x3db4c191	0.08825982
251	0x3d1fcebc	0.039015517
252	0xbb142659	-0.0022605865
253	0xbc46bcda	-0.012129987
254	0xbe17763e	-0.147912
255	0xbc01e7aa	-0.007928768

simplicial_nn.4.W0 f4 [16, 1]
0	0xbef19dca	-0.47190696
1	0xbee450d4	-0.44592917
2	0xbef45218	-0.47718883
3	0xbe97efa6	-0.29675025
4	0xbf241320	-0.6409168
5	0xbe27b556	-0.16377768
6	0x3f2a8e55	0.6662343
7	0x3edf0806	0.4356081
8	0xbec389dd	-0.3819112
9	0xbea5b21c	-0.3236245
10	0xbf108fca	-0.56469405
11	0xbf01c936	-0.5069765
12	0x3e639320	0.22224092
13	0xbe88c201	-0.26710513
14	0x3f0e69db	0.5563027
15	0x3f3f2f01	0.746811

simplicial_nn.4.W1 f4 [2, 16, 1]
0	0xbc44e580	-0.012017608
1	0xbf4118a9	-0.75428253
2	0x3f07573a	0.5286747
3	0x3f17344c	0.59064174
4	0xbe5e1a3f	-0.216897
5	0xbf497bb1	-0.78704363
6	0x3f050276	0.5195688
7	0xbf1f50f7	-0.6223292
8	0xbf0329aa	-0.5123545
9	0xbeb12a42	-0.34602553
10	0xbe1b1c06	-0.15147409
11	0xbf39c010	-0.7255869
12	0xbe7c18b3	-0.24618797
13	0xbd98076d	-0.07423291
14	0x3f14247c	0.5786817
15	0x3eadefaa	0.33971912
16	0xbf171b92	-0.59026444
17	0xbedb4b6d	-0.42830983
18	0x3f093394	0.53594327
19	0x3e04fa24	0.12986046
20	0xbe3ff5c0	-0.1874609
21	0xbf0b4226	-0.5439781
22	0x3f44045b	0.76569146
23	0xbf2eff2a	-0.683581
24	0x3f03fb87	0.51555675
25	0xbf2f78ca	-0.68543684
26	0xbef859a3	-0.48505887
27	0x3e17ede4	0.14836842
28	0x3e69e77f	0.22842215
29	0x3e86a1c4	0.26295292
30	0xbf26272c	-0.6490352
31	0x3ebcd36b	0.3688005

simplicial_nn.4.W2 f4 [2, 16, 1]
0	0xbda88a48	-0.082295
1	0x3e0e490b	0.13895051
2	0x3d43cda1	0.047803525
3	0x3f41e078	0.7573314
4	0xbf217ef1	-0.6308432
5	0xbe8bfa9c	-0.27339637
6	0xbed1ec65	-0.41000667
7	0xbdc7de5e	-0.0975921
8	0x3eb9caf0	0.36287642
9	0x3f1a3e1b	0.60251015
10	0xbf15bf97	-0.5849547
11	0xbf29ea32	-0.6637298
12	0x3e4d9617	0.20076786
13	0xbf1710fe	-0.59010303
14	0x3d84c6b4	0.06483212
15	0xbdca4881	-0.0987711
16	0xbe17ccd4	-0.1482423
17	0xbd5594e4	-0.052143946
18	0xbe4bc846	-0.19900617
19	0xbed7e5ee	-0.4216761
20	0xbf161330	-0.5862303
21	0x3f082178	0.5317607
22	0xbe821afb	-0.2541121
23	0xbd98e3b7	-0.07465308
24	0xbe55160c	-0.20809191
25	0xbf2180f1	-0.63087374
26	0x3f1ee81d	0.62072927
27	0x3e6ad2d0	0.22931981
28	0x3f082c4a	0.5319258
29	0xbea5d41b	-0.32388386
30	0xbe66b929	-0.2253157
31	0xbf23650a	-0.6382605

exp_avg f4 [1, 16]
0	0xba291674	-0.0006450184
1	0xb9eded62	-0.00045381027
2	0x00000000	0.0
3	0x39916d25	0.00027737874
4	0x00000000	0.0
5	0x391eeaa0	0.00015155459
6	0xb998ea04	-0.00029166054
7	0x390392b5	0.00012547786
8	0x3784b677	1.5820593e-05
9	0x3a0c76bb	0.00053582684
10	0x39a58075	0.0003156696
11	0xb81f6e85	-3.8011483e-05
12	0x38a761eb	7.981419e-05
13	0x39dbf571	0.00041953803
14	0x39bc672d	0.00035935026
15	0xba159050	-0.0005705403

exp_avg_sq f4 [1, 16]
0	0x3b5a8411	0.0033342878
1	0x3b0f1f45	0.0021838706
2	0x00000000	0.0
3	0x3bd17fee	0.0063934242
4	0x00000000	0.0
5	0x3c7116b9	0.01471489
6	0x3c5b2bb1	0.013377116
7	0x3a32e603	0.00068244355
8	0x3405a2bd	1.2445794e-07
9	0x3caa4326	0.020783972
10	0x39883358	0.00025978195
11	0x3a499645	0.00076899334
12	0x3b7a4bf7	0.0038192251
13	0x3c8962d9	0.016770767
14	0x3cedb108	0.02901508
15	0x3abab2cc	0.001424396

exp_avg f4 [2, 1, 16]
0	0xb9ec8040	-0.0004510898
1	0x3971a7a2	0.00023045999
2	0x00000000	0.0
3	0xb98a6c89	-0.00026402276
4	0x00000000	0.0
5	0xba1a6350	-0.00058894325
6	0xb96f8533	-0.00022842437
7	0xb8b47148	-8.604169e-05
8	0x37856398	1.5901212e-05
9	0x3875dc16	5.8617523e-05
10	0x39b88f10	0.00035201805
11	0xb9675c66	-0.00022064298
12	0xb9c1af45	-0.00036942415
13	0xb9e80040	-0.00044250675
14	0xba18cb52	-0.0005828637
15	0x39a92666	0.000322628
16	0xb8a5aae9	-7.8996476e-05
17	0x382e4f1d	4.1558513e-05
18	0x00000000	0.0
19	0xb847b3dc	-4.7612804e-05
20	0x00000000	0.0
21	0xb8dd5e67	-0.00010555685
22	0xb82853e6	-4.0132458e-05
23	0xb78e4fb4	-1.6964834e-05
24	0x363df758	2.8307168e-06
25	0x37137e47	8.791284e-06
26	0x3881d8fc	6.191616e-05
27	0xb82696f8	-3.9718085e-05
28	0xb88a3d3f	-6.591761e-05
29	0xb8a81b4a	-8.015947e-05
30	0xb8dac2d9	-0.00010431343
31	0x387953d2	5.944429e-05

exp_avg_sq f4 [2, 1, 16]
0	0x38e47da9	0.00010895293
1	0x3897414e	7.212405e-05
2	0x00000000	0.0
3	0x37fa8870	2.9865856e-05
4	0x00000000	0.0
5	0x394da75f	0.00019612674
6	0x38f81a14	0.00011830419
7	0x379a57fd	1.8399203e-05
8	0x33398f52	4.3204018e-08
9	0x39f13d3a	0.0004601272
10	0x35b6f9dd	1.3632776e-06
11	0x366023cb	3.3399435e-06
12	0x3701368e	7.701701e-06
13	0x3915189a	0.00014218912
14	0x398b5d94	0.00026581867
15	0x35ff0174	1.8999403e-06
16	0x37f3c85b	2.9061155e-05
17	0x37bbce2e	2.2388147e-05
18	0x00000000	0.0
19	0x357d199b	9.4287105e-07
20	0x00000000	0.0
21	0x37eff314	2.8604212e-05
22	0x370f92f9	8.557684e-06
23	0x36ac513d	5.135457e-06
24	0x32d92322	2.5278101e-08
25	0x38d528e4	0.00010164248
26	0x33f44c29	1.1375989e-07
27	0x36f78d74	7.377641e-06
28	0x356474eb	8.5106757e-07
29	0x377f65b9	1.5222869e-05
30	0x3809f502	3.2891527e-05
31	0x36e56c4d	6.8373397e-06

exp_avg f4 [2, 1, 16]
0	0x34cda989	3.830758e-07
1	0x36083d44	2.030124e-06
2	0x00000000	0.0
3	0xb6d4b4eb	-6.339154e-06
4	0x00000000	0.0
5	0xb73ce21d	-1.1258319e-05
6	0xb5b94b91	-1.3805567e-06
7	0xb5f3b1e6	-1.8156686e-06
8	0x34d9e782	4.0587844e-07
9	0x3707f15a	8.102821e-06
10	0x35e307ff	1.6915145e-06
11	0xb68ea700	-4.251371e-06
12	0x3622a095	2.4233352e-06
13	0xb76c7983	-1.4094988e-05
14	0xb72c75fc	-1.0279469e-05
15	0x36abe234	5.1225306e-06
16	0x340ec23b	1.3295441e-07
17	0x338d0cff	6.568188e-08
18	0x00000000	0.0
19	0xb4c72d2a	-3.70995e-07
20	0x00000000	0.0
21	0xb53908f0	-6.8930876e-07
22	0xb37303f0	-5.6581428e-08
23	0xb402e89f	-1.219182e-07
24	0x32b2cd14	2.0815186e-08
25	0x352bc57f	6.398986e-07
26	0x32fdb12d	2.9533647e-08
27	0xb48cc6c3	-2.622165e-07
28	0x34a3ce7b	3.051135e-07
29	0xb5718771	-8.997659e-07
30	0xb5199939	-5.721991e-07
31	0x34923e4b	2.7239943e-07

exp_avg_sq f4 [2, 1, 16]
0	0x34b8999e	3.4384442e-07
1	0x352fe440	6.552473e-07
2	0x00000000	0.0
3	0x36471e99	2.967112e-06
4	0x00000000	0.0
5	0x36227127	2.4205744e-06
6	0x3616bcbe	2.2461604e-06
7	0x341d57a1	1.4653644e-07
8	0x3060d23b	8.178948e-10
9	0x367a6ace	3.7315071e-06
10	0x33cd3d58	9.557215e-08
11	0x344bdd6b	1.89864e-07
12	0x35760e76	9.1663185e-07
13	0x36c222f6	5.7857205e-06
14	0x3722e271	9.708675e-06
15	0x3479fb71	2.3281406e-07
16	0x3115daaa	2.180665e-09
17	0x3188fa68	3.986589e-09
18	0x00000000	0.0
19	0x329e8263	1.8452914e-08
20	0x00000000	0.0
21	0x3264cda8	1.33181075e-08
22	0x325cd3c4	1.2853835e-08
23	0x30858479	9.714675e-10
24	0x2c5e8ff0	3.1627999e-12
25	0x32b9aa26	2.1614209e-08
26	0x30168623	5.47603e-10
27	0x30a211ce	1.1792112e-09
28	0x31b47214	5.2516587e-09
29	0x33121648	3.401354e-08
30	0x337b651a	5.8532443e-08
31	0x309d671e	1.1452561e-09

exp_avg f4 [16, 16]
0	0x00000000	0.0
1	0xb9bc1dc4	-0.0003588033
2	0x3a2cb479	0.0006588172
3	0x00000000	0.0
4	0xb93cb43b	-0.00017996218
5	0xba0bfe9f	-0.00053403707
6	0x38eef055	0.0001139349
7	0xb8061cba	-3.1974843e-05
8	0xb8d7c41f	-0.00010288529
9	0xb9a98d93	-0.00032339673
10	0x38cb1174	9.683045e-05
11	0x00000000	0.0
12	0xb9804e27	-0.0002447229
13	0x38cd8ec5	9.801755e-05
14	0xb98d8b97	-0.00026997618
15	0x39a25638	0.00030963286
16	0x00000000	0.0
17	0xb8b745d1	-8.739124e-05
18	0x3a280d4b	0.0006410672
19	0x00000000	0.0
20	0xb90df8da	-0.00013539512
21	0xb9a5827c	-0.0003156847
22	0xb9283ea2	-0.00016045061
23	0xb7894a5b	-1.6366297e-05
24	0x3892229f	6.968271e-05
25	0xb96db9ab	-0.00022671248
26	0x3990c493	0.0002761228
27	0x00000000	0.0
28	0xb9856405	-0.00025442257
29	0x3933328a	0.00017089598
30	0xb9d1ba0c	-0.00040002202
31	0x396d6629	0.00022640139
32	0x00000000	0.0
33	0x00000000	0.0
34	0x00000000	0.0
35	0x00000000	0.0
36	0x00000000	0.0
37	0x00000000	0.0
38	0x00000000	0.0
39	0x00000000	0.0
40	0x00000000	0.0
41	0x00000000	0.0
42	0x00000000	0.0
43	0x00000000	0.0
44	0x00000000	0.0
45	0x00000000	0.0
46	0x00000000	0.0
47	0x00000000	0.0
48	0x00000000	0.0
49	0xb8ffd4ec	-0.00012199007
50	0x393db71a	0.00018092655
51	0x00000000	0.0
52	0xb85d63fb	-5.278362e-05
53	0xb92cefe9	-0.00016492572
54	0x386a75cc	5.5899654e-05
55	0xb731ef19	-1.0605691e-05
56	0xb834e722	-4.3130603e-05
57	0xb8caa57e	-9.662936e-05
58	0x372a7876	1.0160837e-05
59	0x00000000	0.0
60	0xb889744f	-6.554333e-05
61	0x37a9daeb	2.0248312e-05
62	0xb88187fb	-6.176528e-05
63	0x38bfd3a8	9.147014e-05
64	0x00000000	0.0
65	0x00000000	0.0
66	0x00000000	0.0
67	0x00000000	0.0
68	0x00000000	0.0
69	0x00000000	0.0
70	0x00000000	0.0
71	0x00000000	0.0
72	0x00000000	0.0
73	0x00000000	0.0
74	0x00000000	0.0
75	0x00000000	0.0
76	0x00000000	0.0
77	0x00000000	0.0
78	0x00000000	0.0
79	0x00000000	0.0
80	0x00000000	0.0
81	0xb9b9f092	-0.0003546519
82	0x3a45a2d1	0.0007539215
83	0x00000000	0.0
84	0xb94daa58	-0.00019613781
85	0xba14c1d7	-0.00056746363
86	0x38982a44	7.2557974e-05
87	0xb81730bf	-3.6046604e-05
88	0xb8aadb39	-8.147065e-05
89	0xb9b6f6ff	-0.00034897772
90	0x391dc838	0.00015047274
91	0x00000000	0.0
92	0xb994abdd	-0.00028356808
93	0x3906e8be	0.00012865939
94	0xb9b15fd0	-0.00033831457
95	0x39b039b7	0.00033612337
96	0x00000000	0.0
97	0xb9508bbf	-0.00019888485
98	0x3a1c3fa2	0.000596041
99	0x00000000	0.0
100	0xb916c33a	-0.00014377842
101	0xb9c9f1b3	-0.00038517787
102	0xb7e86089	-2.7701508e-05
103	0xb7b500a8	-2.1577187e-05
104	0xb74ab4cb	-1.2082232e-05
105	0xb9830a95	-0.0002499415
106	0x3937e1a6	0.000175363
107	0x00000000	0.0
108	0xb970b93e	-0.00022957192
109	0x3902ef6d	0.00012486959
110	0xb9a2b43a	-0.00031033327
111	0x397ffdf7	0.00024413304
112	0x00000000	0.0
113	0xb9b6f2b3	-0.0003489457
114	0x399f32d1	0.00030364704
115	0x00000000	0.0
116	0xb8e5ca7e	-0.00010957288
117	0xb9cc03a6	-0.0003891263
118	0x397e0d51	0.00024228288
119	0xb7e46b19	-2.722959e-05
120	0xb92f7cc6	-0.00016735782
121	0xb95a02ce	-0.00020791145
122	0xb8ab24a0	-8.160737e-05
123	0x00000000	0.0
124	0xb8d5b32e	-0.00010190006
125	0xb6feb460	-7.5907883e-06
126	0xb7ed8279	-2.8313358e-05
127	0x394a6b8d	0.00019304287
128	0x00000000	0.0
129	0xb59a6b8d	-1.1505196e-06
130	0x353abfbe	6.956942e-07
131	0x00000000	0.0
132	0x350436c0	4.9253504e-07
133	0xb54b2190	-7.5672233e-07
134	0x2e8a0b6c	6.2775424e-11
135	0xb54c5fa3	-7.613509e-07
136	0xb578cc8c	-9.2684854e-07
137	0xb5a590ab	-1.2335562e-06
138	0x34cc8817	3.809698e-07
139	0x00000000	0.0
140	0xb50b7182	-5.194671e-07
141	0x00000000	0.0
142	0x00000000	0.0
143	0x352b3b4e	6.3788764e-07
144	0x00000000	0.0
145	0xb8854003	-6.353857e-05
146	0x38445460	4.6808622e-05
147	0x00000000	0.0
148	0xb77b082e	-1.496267e-05
149	0xb888df1d	-6.5265434e-05
150	0x38399618	4.4247223e-05
151	0xb726c3ea	-9.939986e-06
152	0xb80fa71e	-3.4249497e-05
153	0xb8215756	-3.846673e-05
154	0xb772c7d5	-1.4470851e-05
155	0x00000000	0.0
156	0xb78f0beb	-1.7052478e-05
157	0xb5e4bc4c	-1.7042125e-06
158	0x00000000	0.0
159	0x3803432c	3.1295393e-05
160	0x00000000	0.0
161	0xb89a976b	-7.371496e-05
162	0x3911b8bd	0.00013897098
163	0x00000000	0.0
164	0xb82270c5	-3.8728835e-05
165	0xb8e9217d	-0.000111165435
166	0x37ba457d	2.2205286e-05
167	0xb69cb83f	-4.6706114e-06
168	0xb7a792ad	-1.9976253e-05
169	0xb892589e	-6.978329e-05
170	0x37aed9be	2.084381e-05
171	0x00000000	0.0
172	0xb857d450	-5.1457726e-05
173	0x37b071b9	2.1033791e-05
174	0xb872c43e	-5.788006e-05
175	0x388bad6e	6.66034e-05
176	0x00000000	0.0
177	0xb9b82853	-0.0003512526
178	0x39a91eed	0.00032257233
179	0x00000000	0.0
180	0xb8efb24a	-0.00011429617
181	0xb9d0ce79	-0.00039826686
182	0x3978d332	0.000237298
183	0xb7dc2683	-2.6243977e-05
184	0xb92cf9d4	-0.00016496266
185	0xb9627c78	-0.00021599408
186	0xb89ad924	-7.383738e-05
187	0x00000000	0.0
188	0xb8e5430f	-0.000109320616
189	0xb63049b2	-2.626894e-06
190	0xb828b95e	-4.0226958e-05
191	0x3952b696	0.00020095179
192	0x00000000	0.0
193	0xba05d3f6	-0.0005105132
194	0x3a4b3d5a	0.00077529775
195	0x00000000	0.0
196	0xb96cbcb9	-0.00022577019
197	0xba36c8de	-0.00069726806
198	0x396c4b5a	0.00022534785
199	0xb82d8431	-4.1369527e-05
200	0xb93b3652	-0.00017853946
201	0xb9d78c77	-0.0004111265
202	0x385bc567	5.2397514e-05
203	0x00000000	0.0
204	0xb9942b53	-0.0002826104
205	0x38bc246b	8.971322e-05
206	0xb98e4fd2	-0.0002714382
207	0x39ccc7f8	0.000390589
208	0x00000000	0.0
209	0xb9a48e0c	-0.0003138635
210	0x3a4bd8ab	0.00077761215
211	0x00000000	0.0
212	0xb94e2746	-0.00019660321
213	0xba0eda1d	-0.00054493715
214	0x37ace5f5	2.061108e-05
215	0xb7faa70f	-2.9880115e-05
216	0xb8539dec	-5.0453396e-05
217	0xb9b58157	-0.00034619376
218	0x3947554d	0.00019009896
219	0x00000000	0.0
220	0xb99b0ea5	-0.00029574815
221	0x391a3dcb	0.00014709604
222	0xb9c53cdf	-0.0003762012
223	0x39afdfb0	0.0003354526
224	0x00000000	0.0
225	0xb992220d	-0.0002787266
226	0x39db841f	0.00041869373
227	0x00000000	0.0
228	0xb90025f1	-0.00012221166
229	0xb9c6a7cf	-0.0003789053
230	0x3902d8cd	0.0001247853
231	0xb7bf7820	-2.2824912e-05
232	0xb8ce84de	-9.847594e-05
233	0xb9697b4e	-0.00022266546
234	0x37dd2371	2.6361757e-05
235	0x00000000	0.0
236	0xb91fe64a	-0.00015249211
237	0x3847ae57	4.7607664e-05
238	0xb91810af	-0.00014502065
239	0x395dc513	0.00021149618
240	0x00000000	0.0
241	0xb9a80d2d	-0.00032053274
242	0x3a69236c	0.0008893523
243	0x00000000	0.0
244	0xb96486e6	-0.00021794028
245	0xba1b83bc	-0.0005932411
246	0xb787bbd6	-1.6180722e-05
247	0xb80f2574	-3.4128738e-05
248	0xb809cda2	-3.2854856e-05
249	0xb9c7ca9c	-0.00038107194
250	0x39805ac3	0.00024481685
251	0x00000000	0.0
252	0xb9b2a084	-0.000340704
253	0x393c5104	0.00017959258
254	0xb9ec29fb	-0.00045044706
255	0x39c26d4f	0.00037084005

exp_avg_sq f4 [16, 16]
0	0x00000000	0.0
1	0x3c175c25	0.009238278
2	0x3bc02d80	0.005864799
3	0x00000000	0.0
4	0x38c8d73c	9.576834e-05
5	0x3b060259	0.0020448177
6	0x3c9d5f46	0.019210469
7	0x3baa9c0e	0.0052065914
8	0x3bb660c8	0.0055657364
9	0x3b8eb3c8	0.0043549277
10	0x3c2b0060	0.010437101
11	0x00000000	0.0
12	0x3ae59876	0.001751675
13	0x37b6374b	2.1721838e-05
14	0x352eeb71	6.5162664e-07
15	0x3cb00f39	0.021491634
16	0x00000000	0.0
17	0x3bb19912	0.0054198587
18	0x3b70fd4a	0.0036772066
19	0x00000000	0.0
20	0x382584a6	3.9462604e-05
21	0x3a96a233	0.0011492431
22	0x3c3a4953	0.011370021
23	0x3b540772	0.003235307
24	0x3b5ba72c	0.003351639
25	0x3b2621d9	0.0025349765
26	0x3bd27a91	0.0064233025
27	0x00000000	0.0
28	0x3a8bd8ff	0.0010669528
29	0x377f7351	1.5226034e-05
30	0x35c1564e	1.4404739e-06
31	0x3c513c11	0.012770669
32	0x00000000	0.0
33	0x00000000	0.0
34	0x00000000	0.0
35	0x00000000	0.0
36	0x00000000	0.0
37	0x00000000	0.0
38	0x00000000	0.0
39	0x00000000	0.0
40	0x00000000	0.0
41	0x00000000	0.0
42	0x00000000	0.0
43	0x00000000	0.0
44	0x00000000	0.0
45	0x00000000	0.0
46	0x00000000	0.0
47	0x00000000	0.0
48	0x00000000	0.0
49	0x3a1cdcef	0.00059838494
50	0x39fd5d54	0.00048325455
51	0x00000000	0.0
52	0x355e79da	8.287876e-07
53	0x38ea2c40	0.00011166232
54	0x3aa808c4	0.0012819995
55	0x39dc654c	0.00042037142
56	0x39d26927	0.00040132666
57	0x39905a55	0.00027533123
58	0x3a5491c0	0.00081088766
59	0x00000000	0.0
60	0x3906d157	0.00012857221
61	0x35fc6ee0	1.8807732e-06
62	0x330fd812	3.3491297e-08
63	0x3ac2b78f	0.001485573
64	0x00000000	0.0
65	0x00000000	0.0
66	0x00000000	0.0
67	0x00000000	0.0
68	0x00000000	0.0
69	0x00000000	0.0
70	0x00000000	0.0
71	0x00000000	0.0
72	0x00000000	0.0
73	0x00000000	0.0
74	0x00000000	0.0
75	0x00000000	0.0
76	0x00000000	0.0
77	0x00000000	0.0
78	0x00000000	0.0
79	0x00000000	0.0
80	0x00000000	0.0
81	0x3c3246d9	0.010881149
82	0x3be55e36	0.006999756
83	0x00000000	0.0
84	0x38dc4afa	0.00010504383
85	0x3b1c614e	0.002386171
86	0x3cb9a8f7	0.022663577
87	0x3bcb6620	0.0062072426
88	0x3bd80b35	0.006593133
89	0x3ba80a0a	0.00512815
90	0x3c4c2e9c	0.012462284
91	0x00000000	0.0
92	0x3b07f73c	0.0020746728
93	0x37d3675a	2.5201287e-05
94	0x3589829e	1.024531e-06
95	0x3cd00fb8	0.02539812
96	0x00000000	0.0
97	0x3bd02f71	0.0063533117
98	0x3b6b93c8	0.0035946239
99	0x00000000	0.0
100	0x38e1cedd	0.00010767367
101	0x3ac5bf99	0.0015087008
102	0x3c55a83c	0.0130405985
103	0x3b5383f2	0.003227469
104	0x3b6ec6dd	0.003643445
105	0x3b465044	0.0030260244
106	0x3bd7e304	0.0065883417
107	0x00000000	0.0
108	0x3a952752	0.0011379516
109	0x3760d91d	1.3401991e-05
110	0x3567bb2e	8.632659e-07
111	0x3c6ac5a8	0.0143293515
112	0x00000000	0.0
113	0x3ba1f5d7	0.0049426365
114	0x3b111c8b	0.0022142257
115	0x00000000	0.0
116	0x392b10fd	0.0001631416
117	0x3aadc7b4	0.0013258369
118	0x3c21ec88	0.009883054
119	0x3b067551	0.0020516703
120	0x3b29fe26	0.0025938838
121	0x3b1de9d7	0.0024095678
122	0x3b8f3caf	0.0043712477
123	0x00000000	0.0
124	0x3a4dc886	0.000785001
125	0x36c91bfb	5.993524e-06
126	0x31ffd7f2	7.446027e-09
127	0x3c2e1c0d	0.010626805
128	0x00000000	0.0
129	0x35f918e9	1.8559195e-06
130	0x3382b174	6.085875e-08
131	0x00000000	0.0
132	0x3581550c	9.636001e-07
133	0x35ad8915	1.29294e-06
134	0x363a8d6d	2.779848e-06
135	0x2dc639ac	2.2535605e-11
136	0x34960b43	2.794787e-07
137	0x3591c792	1.0861424e-06
138	0x2b63b743	8.0900927e-13
139	0x00000000	0.0
140	0x3331085f	4.1218637e-08
141	0x00000000	0.0
142	0x00000000	0.0
143	0x35fb8e3b	1.8742352e-06
144	0x00000000	0.0
145	0x39876735	0.00025826102
146	0x384655ba	4.7286718e-05
147	0x00000000	0.0
148	0x37f5d392	2.9304796e-05
149	0x38c85eae	9.5543786e-05
150	0x39fa8c84	0.00047788408
151	0x3853b7cb	5.047749e-05
152	0x38d49275	0.000101362275
153	0x390b649b	0.00013293551
154	0x3903ce22	0.00012569924
155	0x00000000	0.0
156	0x37e9ba07	2.786239e-05
157	0x3326a2a2	3.87978e-08
158	0x00000000	0.0
159	0x39f6d0b3	0.0004707627
160	0x00000000	0.0
161	0x399aadaa	0.0002950256
162	0x39839b83	0.00025102132
163	0x00000000	0.0
164	0x343e9ede	1.7752924e-07
165	0x385ea0c1	5.307864e-05
166	0x3a26d87f	0.0006364658
167	0x3965c3dc	0.00021912105
168	0x395456ba	0.00020250204
169	0x390c5677	0.00013383651
170	0x39d32afa	0.00040277076
171	0x00000000	0.0
172	0x3889c7ea	6.569906e-05
173	0x35b2a2f3	1.3309458e-06
174	0x32f650a3	2.8674839e-08
175	0x3a41446a	0.000737256
176	0x00000000	0.0
177	0x3b96e153	0.0046044975
178	0x3b0d8268	0.002159262
179	0x00000000	0.0
180	0x390ec370	0.00013614981
181	0x3a9e6334	0.0012084008
182	0x3c179022	0.0092506725
183	0x3b024c4a	0.0019881898
184	0x3b211e3b	0.002458467
185	0x3b126cd3	0.0022342696
186	0x3b895c5e	0.004191919
187	0x00000000	0.0
188	0x3a443046	0.0007484
189	0x36d2d7f4	6.283628e-06
190	0x32516255	1.2187759e-08
191	0x3c23c939	0.009996706
192	0x00000000	0.0
193	0x3c859677	0.016307099
194	0x3c201b4c	0.009772133
195	0x00000000	0.0
196	0x39666596	0.00021972353
197	0x3b7539d0	0.0037418492
198	0x3d09f002	0.033676155
199	0x3c0f0d04	0.0087311305
200	0x3c1d2841	0.009592117
201	0x3bfd3bca	0.0077280747
202	0x3c907071	0.017631741
203	0x00000000	0.0
204	0x3b44bf48	0.003002124
205	0x38147f12	3.5404293e-05
206	0x353308ff	6.669579e-07
207	0x3d194063	0.03741492
208	0x00000000	0.0
209	0x3c3614b1	0.011113332
210	0x3be53a58	0.0069954805
211	0x00000000	0.0
212	0x38fd6066	0.00012081936
213	0x3b2233ac	0.0024750037
214	0x3cbd2cbb	0.023092618
215	0x3bcb78be	0.006209462
216	0x3bda6166	0.006664443
217	0x3bab9d1e	0.0052372357
218	0x3c4bc8b0	0.012437984
219	0x00000000	0.0
220	0x3b09c577	0.002102224
221	0x37e550d4	2.7336566e-05
222	0x35aa159c	1.2672276e-06
223	0x3cd2f731	0.025752636
224	0x00000000	0.0
225	0x3b91ab41	0.004445464
226	0x3b2a9822	0.002603062
227	0x00000000	0.0
228	0x3889f2dd	6.577906e-05
229	0x3a878f0e	0.0010342316
230	0x3c1601e0	0.0091557205
231	0x3b18d109	0.0023317954
232	0x3b29bda7	0.0025900395
233	0x3b0a6760	0.0021118745
234	0x3b9afcff	0.0047298665
235	0x00000000	0.0
236	0x3a53f6a6	0.0008085765
237	0x371b5e37	9.260656e-06
238	0x3448a476	1.8686282e-07
239	0x3c262a0e	0.010141863
240	0x00000000	0.0
241	0x3c6fdc5e	0.014639942
242	0x3c1648a8	0.009172596
243	0x00000000	0.0
244	0x392a2652	0.00016226739
245	0x3b562c71	0.0032680298
246	0x3cf913e7	0.030404998
247	0x3c057e1d	0.0081477435
248	0x3c0f9140	0.008762658
249	0x3be25530	0.006907128
250	0x3c861c3e	0.016370889
251	0x00000000	0.0
252	0x3b34e7f7	0.0027604082
253	0x3812e07e	3.5018187e-05
254	0x35f8824b	1.851536e-06
255	0x3d0aca11	0.03388411

exp_avg f4 [2, 16, 16]
0	0x00000000	0.0
1	0xb9d72279	-0.0004103368
2	0xb983a595	-0.00025109635
3	0x00000000	0.0
4	0xb74141eb	-1.1519044e-05
5	0xb96972c9	-0.00022263372
6	0x3a095d62	0.00052400504
7	0xb7cb9424	-2.426847e-05
8	0xb9a594d5	-0.0003158214
9	0xb8685dbe	-5.5400415e-05
10	0xb9d9bd62	-0.00041530567
11	0x00000000	0.0
12	0x3905621e	0.0001272042
13	0xb94be47d	-0.00019444707
14	0x39cc674d	0.00038986877
15	0x380cda95	3.358217e-05
16	0x00000000	0.0
17	0xb997bbff	-0.00028941032
18	0xb938e60a	-0.00017633304
19	0x00000000	0.0
20	0xb70a74fb	-8.252678e-06
21	0xb924f596	-0.00015731747
22	0x39c1a8e6	0.00036937668
23	0xb7909ebb	-1.7240052e-05
24	0xb96945ed	-0.00022246661
25	0xb82541f3	-3.9400486e-05
26	0xb9996807	-0.0002925994
27	0x00000000	0.0
28	0x38bbaa8f	8.948624e-05
29	0xb90f8a54	-0.00013689074
30	0x398fe6c2	0.00027447013
31	0x37c8cb23	2.393645e-05
32	0x00000000	0.0
33	0x00000000	0.0
34	0x00000000	0.0
35	0x00000000	0.0
36	0x00000000	0.0
37	0x00000000	0.0
38	0x00000000	0.0
39	0x00000000	0.0
40	0x00000000	0.0
41	0x00000000	0.0
42	0x00000000	0.0
43	0x00000000	0.0
44	0x00000000	0.0
45	0x00000000	0.0
46	0x00000000	0.0
47	0x00000000	0.0
48	0x00000000	0.0
49	0xb900f051	-0.00012296556
50	0xb89beafc	-7.434745e-05
51	0x00000000	0.0
52	0xb671e8d5	-3.6047325e-06
53	0xb88ca465	-6.706341e-05
54	0x392499ee	0.00015697602
55	0xb6f66aff	-7.3438273e-06
56	0xb8c56cb4	-9.4139396e-05
57	0xb78f3cd8	-1.7075261e-05
58	0xb9023d4a	-0.00012420598
59	0x00000000	0.0
60	0x381f2fac	3.7952952e-05
61	0xb872fafe	-5.793105e-05
62	0x38f3d9b3	0.000116276926
63	0x372d1480	1.0316377e-05
64	0x00000000	0.0
65	0x00000000	0.0
66	0x00000000	0.0
67	0x00000000	0.0
68	0x00000000	0.0
69	0x00000000	0.0
70	0x00000000	0.0
71	0x00000000	0.0
72	0x00000000	0.0
73	0x00000000	0.0
74	0x00000000	0.0
75	0x00000000	0.0
76	0x00000000	0.0
77	0x00000000	0.0
78	0x00000000	0.0
79	0x00000000	0.0
80	0x00000000	0.0
81	0xb9e9e420	-0.0004461119
82	0xb98effe4	-0.00027275004
83	0x00000000	0.0
84	0xb752c76d	-1.2563408e-05
85	0xb97de5cb	-0.00024213565
86	0x3a155419	0.00056964305
87	0xb7dd98c8	-2.6416397e-05
88	0xb9b3f6c6	-0.000343254
89	0xb87d153d	-6.033968e-05
90	0xb9ecad68	-0.00045142625
91	0x00000000	0.0
92	0x3910f23c	0.0001382315
93	0xb95d9529	-0.00021131769
94	0x39de24d3	0.00042370576
95	0x38197251	3.6584508e-05
96	0x00000000	0.0
97	0xb9a69898	-0.00031775679
98	0xb94d26a3	-0.00019564717
99	0x00000000	0.0
100	0xb7123634	-8.714898e-06
101	0xb9344a63	-0.00017193849
102	0x39d4c0d3	0.00040579456
103	0xb79d085f	-1.8719757e-05
104	0xb98099f1	-0.00024528758
105	0xb8312cae	-4.22417e-05
106	0xb9a8c514	-0.00032190292
107	0x00000000	0.0
108	0x38cefbd0	9.869749e-05
109	0xb91e60ed	-0.00015104162
110	0x399eab92	0.00030263938
111	0x37d768b1	2.5678748e-05
112	0x00000000	0.0
113	0xb98b05f7	-0.0002651659
114	0xb92d106a	-0.0001650468
115	0x00000000	0.0
116	0xb6e9f07e	-6.971938e-06
117	0xb915bb82	-0.000142796
118	0x39b1b209	0.00033892717
119	0xb7813b7f	-1.5405703e-05
120	0xb9577ebb	-0.00020551209
121	0xb8104d27	-3.440413e-05
122	0xb98d292f	-0.000269243
123	0x00000000	0.0
124	0x38ada453	8.2798906e-05
125	0xb904d32c	-0.00012667169
126	0x39850173	0.00025368817
127	0x37af3265	2.0885092e-05
128	0x00000000	0.0
129	0xb53c9d35	-7.0264224e-07
130	0xb4eceec7	-4.413216e-07
131	0x00000000	0.0
132	0xb2976c6c	-1.7628018e-08
133	0xb4ca5921	-3.7690282e-07
134	0x356af3fc	8.7526837e-07
135	0xb3705b64	-5.5962474e-08
136	0xb5112ba4	-5.4080215e-07
137	0xb3c58eb0	-9.199482e-08
138	0xb540e8bd	-7.186425e-07
139	0x00000000	0.0
140	0x34704d4f	2.2379866e-07
141	0xb4b54e1f	-3.3770718e-07
142	0x353573e6	6.759641e-07
143	0x3364c1f9	5.3261804e-08
144	0x00000000	0.0
145	0xb8397865	-4.4219563e-05
146	0xb7ef62a2	-2.853695e-05
147	0x00000000	0.0
148	0xb585f3cc	-9.980226e-07
149	0xb7c47a66	-2.3422017e-05
150	0x386d199f	5.6529065e-05
151	0xb62a0975	-2.5337479e-06
152	0xb812087a	-3.4817007e-05
153	0xb6ae66f9	-5.1975917e-06
154	0xb83d8d0d	-4.5192475e-05
155	0x00000000	0.0
156	0x376b061e	1.4008516e-05
157	0xb7b46b5d	-2.1507667e-05
158	0x38341659	4.2936157e-05
159	0x36540df4	3.1598584e-06
160	0x00000000	0.0
161	0xb8b4dec9	-8.624566e-05
162	0xb8588fa2	-5.163218e-05
163	0x00000000	0.0
164	0xb62f8545	-2.6154605e-06
165	0xb8461e46	-4.7235073e-05
166	0x38e6c463	0.000110038345
167	0xb6aeb503	-5.2066766e-06
168	0xb889e73d	-6.5757406e-05
169	0xb74d5121	-1.22378415e-05
170	0xb8b65eef	-8.696119e-05
171	0x00000000	0.0
172	0x37de6a02	2.6513826e-05
173	0xb829a0ac	-4.0442377e-05
174	0x38aa5bd7	8.123338e-05
175	0x36f7c9b0	7.384653e-06
176	0x00000000	0.0
177	0xb98f8874	-0.0002737675
178	0xb9322a3d	-0.00016991138
179	0x00000000	0.0
180	0xb6f4503d	-7.2811076e-06
181	0xb91ac994	-0.00014761678
182	0x39b76fbd	0.00034987731
183	0xb785ccd3	-1.5950214e-05
184	0xb95e36bc	-0.0002119196
185	0xb81607f7	-3.5770205e-05
186	0xb991a9db	-0.00027783107
187	0x00000000	0.0
188	0x38b310dc	8.5385254e-05
189	0xb908f1a2	-0.00013059986
190	0x398928fc	0.00026161212
191	0x37b6107f	2.1703772e-05
192	0x00000000	0.0
193	0xba083a38	-0.00051966636
194	0xb9a72e27	-0.00031887108
195	0x00000000	0.0
196	0xb7724532	-1.4440435e-05
197	0xb993a5ce	-0.0002816156
198	0x3a2dfe65	0.0006637334
199	0xb80084b5	-3.064117e-05
200	0xb9d1ecc6	-0.00040039996
201	0xb8923cb5	-6.97313e-05
202	0xba09f375	-0.0005262413
203	0x00000000	0.0
204	0x392920bf	0.00016129295
205	0xb981461d	-0.00024657036
206	0x3a0193af	0.0004942966
207	0x38314b50	4.227023e-05
208	0x00000000	0.0
209	0xb9e5b064	-0.00043809705
210	0xb98ca234	-0.00026823732
211	0x00000000	0.0
212	0xb74de1b4	-1.2271503e-05
213	0xb9792dde	-0.00023763577
214	0x3a12a4ea	0.0005594032
215	0xb7d973d3	-2.592235e-05
216	0xb9b0db86	-0.00033732894
217	0xb8779ff8	-5.903837e-05
218	0xb9e878dc	-0.00044340536
219	0x00000000	0.0
220	0x390e66be	0.0001358045
221	0xb959c2eb	-0.00020767345
222	0x39da4685	0.0004163274
223	0x38164228	3.58244e-05
224	0x00000000	0.0
225	0xb993bf18	-0.000281804
226	0xb9359374	-0.00017316436
227	0x00000000	0.0
228	0xb702ac2d	-7.788692e-06
229	0xb9200842	-0.00015261865
230	0x39bcb763	0.00035994788
231	0xb78b344c	-1.6594444e-05
232	0xb963d0be	-0.0002172617
233	0xb81e110c	-3.768601e-05
234	0xb995a74d	-0.00028544143
235	0x00000000	0.0
236	0x38b78803	8.751454e-05
237	0xb90c4d30	-0.00013380195
238	0x398c9d40	0.0002682004
239	0x37bfb0e0	2.2851338e-05
240	0x00000000	0.0
241	0xb9fe34df	-0.00048486047
242	0xb99ba606	-0.000296876
243	0x00000000	0.0
244	0xb763d5bc	-1.3580018e-05
245	0xb989e31a	-0.0002629988
246	0x3a224aa0	0.00061909296
247	0xb7f0bc45	-2.86979e-05
248	0xb9c3bfa0	-0.0003733607
249	0xb888ff90	-6.5325876e-05
250	0xba00a3cd	-0.0004907221
251	0x00000000	0.0
252	0x391d96e8	0.00015028904
253	0xb9710380	-0.00022984855
254	0x39f1930f	0.0004607667
255	0x38264f9d	3.965163e-05
