results/Test_citation/version_59/checkpoints/epoch=0-step=1.ckpt (torch, 28049 bytes, 27 tensors)

simplicial_nn.0.W0 f4 [1, 16]
000000 f4 32 a2 be 2f 3a e1 be 81 47 2c bf f9 ac 2b 3e
       -0.316795 -0.43989703 -0.67296606 0.16765203
000010 e3 08 28 be c7 a3 55 bf d0 76 e7 bd 88 ab 49 3f
       -0.1640964 -0.8345303 -0.113019586 0.7877736
000020 13 01 19 3e 31 c8 da bd 36 2b 13 3f 06 59 35 3f
       0.14941816 -0.10682715 0.5748781 0.70838964
000030 39 40 c2 be 87 38 9b bc 09 b1 75 3e 66 83 87 be
       -0.37939623 -0.018947853 0.23993315 -0.26467437

simplicial_nn.0.W1 f4 [2, 1, 16]
000000 b2 7f 7b bc 13 5d 44 bd 4e 03 46 bd 28 ba 98 3e
       -0.015350269 -0.047940325 -0.048342995 0.29829526
000010 7e ec f0 be f0 ae 88 be 96 bb a4 be 38 ac 8e be
       -0.4705543 -0.26695967 -0.32174367 -0.27865767
000020 0e f6 a0 3e 0e 83 c0 be 06 0a af 3d a2 a6 a7 be
       0.31437725 -0.37599987 0.08546834 -0.32744318
000030 12 ea 85 be a0 38 a3 3e 26 b9 da be 66 67 b4 be
       -0.26155144 0.3187914 -0.42719382 -0.35235137
000040 20 19 c9 3e 88 5a ad be 5a 25 ce be 9a e0 8a 3e
       0.3927698 -0.33858132 -0.40262872 0.27124482
000050 7e d5 ba 3e c6 27 c2 be 98 5b 11 3e 6a 6d 8c 3d
       0.36491007 -0.3792097 0.14195096 0.068568066
000060 65 6c 5c be 52 ae 8c 3e 40 e7 ba 3e 4d c8 08 be
       -0.21525724 0.27476746 0.36504555 -0.13357659
000070 40 83 a6 3d 50 7c eb be b8 71 a1 be 01 17 b9 3d
       0.08130503 -0.4599328 -0.31532073 0.09037591

simplicial_nn.0.W2 f4 [2, 1, 16]
000000 b4 ab ff be f2 31 f1 3e a3 b4 1b 3e d7 a1 4c be
       -0.49935687 0.47108418 0.15205626 -0.19983612
000010 a6 0a a0 3e fe 57 fa 3e a8 30 ed be d2 08 8d be
       0.31258124 0.48895258 -0.46326184 -0.27545792
000020 b9 0f 92 3c 56 a7 96 be a4 ce e0 be 50 77 d2 3e
       0.017829763 -0.29424542 -0.43907654 0.41106653
000030 d0 8d 03 be ee 78 c1 3e 50 db 95 be 07 a7 eb 3d
       -0.12847066 0.37787575 -0.29268885 0.11506467
000040 3e 53 8f 3d 9e 69 9d be 58 5e be 3e bf 16 3d be
       0.06998299 -0.30744642 0.37181354 -0.18465708
000050 4a e1 ef be 1e b0 dc 3d 28 e1 bc 3d 43 5b 7b 3e
       -0.4685157 0.10775779 0.09222633 0.24546532
000060 b6 62 96 3e 57 87 da bd 6a 25 a0 bd 1e 42 a4 be
       0.29372185 -0.10670345 -0.07819636 -0.32081693
000070 90 d1 03 3d cb 85 4e be ad 1f 38 3e d2 bf cb be
       0.032182276 -0.20168225 0.17980833 -0.39794785

simplicial_nn.2.W0 f4 [16, 16]
000000 54 18 e5 be 27 91 e5 be 8b e8 0b bf b3 03 6a bd
       -0.44745123 -0.44837305 -0.5465171 -0.057132434
000010 82 ac a3 3d 7a e5 fa be d1 d3 07 bf 9f 4e 14 3f
       0.07991888 -0.49003202 -0.5305758 0.57932466
000020 26 70 d1 be 6c 8c f9 bd 1a 35 72 be 00 33 87 bd
       -0.40905875 -0.121849865 -0.23653069 -0.06601524
000030 3d 59 19 bf d2 18 d2 be d2 82 89 3e b9 0e e5 3c
       -0.5990179 -0.4103456 0.2685762 0.027961122
000040 f4 39 1c 3f c6 10 9d 3e 94 bc 84 3e 34 00 fa 3e
       0.6102593 0.3067686 0.25925124 0.4882828
000050 36 e5 12 3f 39 5f cf be 44 93 b2 3e ea 2d 0c bf
       0.57381 -0.40502337 0.3487798 -0.5475756
000060 82 0e bf 3e 1b cd 0a bf a8 c3 c1 3e ed 94 69 3d
       0.37315756 -0.54219216 0.37844586 0.057026792
000070 76 ed dd bd 3b 3b 43 be ad 90 4b be 68 58 88 3e
       -0.10836308 -0.19065563 -0.19879408 0.2662995
000080 4f 14 ac bd 80 61 e4 be a1 3c 4b be 8c ee 85 3e
       -0.08402311 -0.44605637 -0.19847347 0.2615856
000090 f1 df 28 be 5d 52 4f 3d 1f cf b7 be 41 58 0b 3f
       -0.16491677 0.050615657 -0.35900208 0.5443154
0000a0 d3 f8 44 be d5 12 c3 3d 2e 93 bc 3e e7 30 9c be
       -0.19235544 0.09525076 0.3683104 -0.3050606
0000b0 af 4b c0 bd d4 3b c7 3e 3a ce 99 be 44 be 87 3e
       -0.093894355 0.38912833 -0.3004015 0.2651235
0000c0 4c 8a 99 3e 54 35 bd 3e b5 51 f4 be 14 be ea 3e
       0.29988325 0.3695475 -0.47718588 0.45848143
0000d0 bd 21 8d be 31 2e 30 3e 84 4f e7 3e c8 6c 08 bf
       -0.27564803 0.1720512 0.45177853 -0.53290987
0000e0 e7 1f 6d be f0 f6 14 3d e9 09 0b bf 90 46 00 bf
       -0.23156701 0.03636831 -0.54311997 -0.5010767
0000f0 d1 58 09 3e 0f 47 42 3e 59 e8 ba be ee c6 05 3f
       0.13412787 0.18972419 -0.36505392 0.5225667
000100 50 49 ee 3e 5c 46 9e be 64 59 4d be 2a 86 9d be
       0.46540308 -0.30913055 -0.20053631 -0.30766422
000110 b1 8c 55 be 08 01 15 3f f8 5a 83 bd fc 0e f0 bd
       -0.20854451 0.582047 -0.06413835 -0.11721608
000120 08 49 94 3e 4f d5 e9 3e ef 65 a5 bd a8 96 c7 be
       0.28961968 0.45670554 -0.08076083 -0.3898213
000130 c3 a0 77 be 22 fc 71 3b a0 ef d8 3e cb 12 34 3e
       -0.2418242 0.0036923965 0.4237032 0.17585294
000140 fb 3c a0 be e9 54 f3 bd 37 a4 09 bf 2e 39 18 3f
       -0.31296524 -0.1188143 -0.53766197 0.5946225
000150 06 a7 1c be cc 7d c8 3e 67 1c b1 be 9e a7 c9 3e
       -0.1529809 0.39158475 -0.34591982 0.39385694
000160 e6 c1 81 3e a8 b8 dc 3e 05 b9 27 be c8 e5 d2 be
       0.25343245 0.43109632 -0.16379173 -0.41190934
000170 e4 f8 16 3d 2d f7 13 bd 04 fb f2 3e 20 83 e3 3e
       0.036858454 -0.036124397 0.47457135 0.44435978
000180 9c c0 03 bf 0f d7 30 3e d0 f9 4e 3e 8c b2 1b be
       -0.51465774 0.17269538 0.20212483 -0.15204829
000190 a2 d7 18 3d 14 f6 f8 3e 3c 49 b5 3e 86 af 37 be
       0.03731502 0.48625243 0.35407436 -0.1793805
0001a0 30 11 d8 bd da 5c 95 be d0 98 a5 bd 18 00 fb bd
       -0.10550153 -0.29172403 -0.08085787 -0.12255877
0001b0 fe 23 36 be c0 d1 92 bb 40 13 6f bd df d8 87 3d
       -0.17787167 -0.0044805706 -0.058367968 0.06633162
0001c0 36 7b 8d bd 72 a2 c5 3e a0 5a 1a 3f 12 1d ad 3d
       -0.06908266 0.38600498 0.6029453 0.0845281
0001d0 3a 42 c5 3e 9c 74 88 3e 14 8e 05 3f 62 eb de be
       0.3852709 0.26651466 0.5216992 -0.43538958
0001e0 9d 68 05 3e 86 98 ef 3d 81 a3 b8 be 6b c1 1d 3e
       0.13028188 0.116990134 -0.36062244 0.15405814
0001f0 b0 46 03 3f 9d 91 0d be 92 48 b9 be 84 04 0e 3f
       0.51279736 -0.13825078 -0.3618818 0.5547564
000200 e9 2b 5b 3e 10 6a 97 3e 2a e4 c7 be a2 8a 97 be
       0.21403469 0.29573107 -0.39041263 -0.29597956
000210 88 8c d4 3e 89 f8 10 be 6f 59 14 bf 73 4c 04 3f
       0.41513467 -0.14157309 -0.57948965 0.5167915
000220 9c ca b0 be 96 61 92 be 48 0a bb be e7 da 08 3e
       -0.3452958 -0.28590077 -0.3653128 0.13364755
000230 a8 34 13 3f 51 31 8b be 90 71 e7 3e 66 ec f7 bd
       0.5750222 -0.27186063 0.4520383 -0.12105636
000240 a0 a3 4a 3d d2 32 04 3f 37 c6 a2 be 38 01 e0 3e
       0.04947245 0.51640046 -0.3179185 0.4375093
000250 66 87 05 bf 0e a0 95 3e 0e b0 5c 3d a4 d7 6b 3e
       -0.52159727 0.29223675 0.053878836 0.23031479
000260 dc eb df be 0c 21 8a 3e 7c 26 26 3e 84 4c 39 be
       -0.43734634 0.26978338 0.16225618 -0.18095595
000270 18 36 45 be b7 d5 ff be ed 0b 00 3f c8 b3 17 bf
       -0.19258916 -0.4996774 0.500182 -0.592587
000280 72 02 e5 be 1e 76 a3 3d a6 cd 11 3f ca 58 b1 3e
       -0.44728428 0.079815134 0.5695442 0.34638053
000290 de f1 16 3f 98 03 04 3f 93 82 4b 3d 20 88 e8 bc
       0.5896281 0.51567984 0.049685072 -0.028385222
0002a0 ad 91 0e 3d 0a ce e0 be 30 d4 c3 be 56 33 a7 be
       0.034806896 -0.43907195 -0.38247824 -0.32656354
0002b0 de 47 c9 bd 7f cb 1a 3e 99 d0 08 be 18 a0 da 3e
       -0.09828161 0.1511669 -0.13360824 0.42700267
0002c0 88 ef b1 be 48 3b b0 3e f0 1b e8 3e 4e f5 a6 bd
       -0.3475306 0.34420228 0.45333815 -0.08152257
0002d0 92 c2 84 3e 40 bc 99 3e 0e 03 89 bd 9b e1 b7 be
       0.25929695 0.30026436 -0.06690036 -0.3591431
0002e0 59 33 1f 3e 41 cd 01 bf 48 0a c1 3e e7 46 ee bc
       0.15546931 -0.5070382 0.37703156 -0.029086543
0002f0 d5 01 a6 be 33 d8 57 3e c8 68 fa 3e f3 ec 48 3d
       -0.32423273 0.21078567 0.48908067 0.049054097
000300 c0 12 23 3c 5a 78 f0 3e 65 c2 16 3f 02 e6 5f be
       0.009953201 0.4696682 0.5889037 -0.21865085
000310 68 39 71 3e 30 b2 0b 3e 60 71 ec bd 16 a7 d4 be
       0.23557055 0.13642192 -0.11545062 -0.41533726
000320 3a cd e2 3e c4 75 a2 3e 36 fe d5 be c0 26 26 3d
       0.442972 0.31730473 -0.4179551 0.0405643
000330 40 2c 3b be 59 09 0d 3f 1d 3e b6 be 7e c9 d2 3e
       -0.18278599 0.5509239 -0.35594264 0.4116935
000340 a2 07 8c 3e 67 3c 2f 3e 74 cf cc 3e 9d a7 08 bf
       0.27349573 0.17112885 0.40002024 -0.5338076
000350 33 06 5c bd 7a 8b de bd 9e 9b 99 bd c5 e6 de be
       -0.05371685 -0.10866447 -0.07500385 -0.43535438
000360 8a 5e f4 3d 14 85 27 be 65 a1 07 3e 92 07 8a bd
       0.119320944 -0.16359359 0.13245161 -0.06739725
000370 9e 43 10 3f 58 9d ed 3e ae fd c0 bd 3a 33 ed 3d
       0.56353176 0.46409106 -0.094233856 0.11582036
000380 3e 8a 01 3f 1c e8 a1 3c 79 5b 35 3e b3 f9 a4 be
       0.50601566 0.019763999 0.17710675 -0.32221755
000390 bd 47 2f be 93 84 75 bd e3 61 3c be 45 36 0b 3f
       -0.1711721 -0.059940886 -0.18396716 0.54379684
0003a0 f8 b2 87 3e 2d 91 62 be 6d 0e 69 bd 10 95 b1 3e
       0.2650373 -0.22125693 -0.056898523 0.34684038
0003b0 69 b1 b6 3e 18 fe ea 3e c8 f2 93 3e 00 ae 08 3f
       0.35682228 0.45896983 0.28896165 0.533905
0003c0 be 21 6c 3d 2d d8 b6 be 60 bd 34 bc bd 23 89 3e
       0.057649367 -0.35711804 -0.011031479 0.2678508
0003d0 8e 89 16 3e f0 ca bf 3e 84 c5 54 be 18 48 cd bd
       0.1470091 0.37459517 -0.20778471 -0.100235164
0003e0 df 77 46 be 5d 5f b2 3e af 6d 60 3e b2 e0 e6 3e
       -0.19381665 0.3483838 0.21916841 0.45093304
0003f0 89 38 5f be 77 e8 36 3e db 82 96 3e 01 73 3f 3e
       -0.2179891 0.17862116 0.2939671 0.18696214

simplicial_nn.2.W1 f4 [2, 16, 16]
000000 7f 28 25 be c2 6f d7 3b f7 73 18 3e 62 67 b9 3c
       -0.1612873 0.006574602 0.14887987 0.022632305
000010 b3 18 40 3e 5c 19 2a bb 73 44 47 bd 0c c3 bd bd
       0.18759422 -0.0025955057 -0.048649263 -0.09265718
000020 af 0b 84 bd 03 66 1f be b5 be 39 be eb 7d 2f 3e
       -0.06447541 -0.15566258 -0.18139155 0.17137878
000030 cd c1 ca 3d 17 ec 07 3d db 6b 28 3e 32 92 b3 bd
       0.09900246 0.033184137 0.16447394 -0.08768119
000040 0f be 7e bd 63 7b 41 3e 66 44 2a 3d e7 fc e8 bd
       -0.062192973 0.18894725 0.041569136 -0.11376362
000050 85 4a 1b 3e f4 e1 11 3e 8d ce 0d 3d e6 69 20 3e
       0.15165146 0.1424635 0.03462081 0.15665397
000060 95 d7 c0 3d 87 b4 a8 3d 93 ea d5 bd 7a 0b 32 be
       0.09416119 0.08237558 -0.10445132 -0.1738719
000070 3e 11 3a 3e da a5 37 3e a3 cc a6 bc d3 68 85 3d
       0.1817064 0.17934361 -0.02036125 0.06514134
000080 98 1c 17 be ca 81 a5 3d bc 71 ec 3c 5e 58 63 3d
       -0.14757001 0.08081396 0.028862827 0.055504195
000090 86 d7 8d 3c 0d e7 32 3e 76 ac b3 bc 68 66 0b 3d
       0.017314684 0.17470951 -0.021932822 0.03403321
0000a0 53 2e d4 bd 22 09 f2 3c 02 26 b0 3c 8a 6c 48 3e
       -0.10360398 0.02954537 0.021502499 0.19572654
0000b0 a1 0a 2b be 3f 13 e9 bd ef c6 92 3d 8d 25 55 3d
       -0.16703273 -0.11380624 0.0716685 0.052037764
0000c0 4f 14 3b be 6d 40 5e bc 1b 7e 28 3e bd 39 51 3e
       -0.18269466 -0.013565165 0.16454355 0.20432182
0000d0 f7 b4 3f bd 93 2d 38 3e e3 8a 46 3d 7d 22 3c be
       -0.04680344 0.17986135 0.048472296 -0.18372531
0000e0 e2 1c 81 3c 40 78 26 be 14 df 2d 3c f9 c9 3e bd
       0.015760843 -0.16256809 0.010612268 -0.046579335
0000f0 87 2d 3e be 37 21 46 be e5 67 3e be 41 4c 18 bd
       -0.18572055 -0.19348608 -0.1859432 -0.037182096
000100 fc 97 d9 3d d3 cf 4b 3e dc d7 6b bd 00 0a a7 bd
       0.10624692 0.19903497 -0.057578906 -0.08156204
000110 e5 44 9e bd 34 4c 3b 3e 01 9a 36 be ec 1f b6 bd
       -0.07727984 0.18290788 -0.17832185 -0.08892807
000120 d0 1c e6 bd 56 ba 4d 3e 5e b5 a4 3c 56 8a 5f 3d
       -0.11235964 0.20090613 0.020106014 0.054575287
000130 1f c5 ee 3d 64 ed 7e bd 2a 4d 16 3e c6 ad 40 bd
       0.116586916 -0.062238112 0.14677873 -0.047040723
000140 79 8c 28 3e f4 aa c5 bd 45 6b 61 bc 94 62 6f 3c
       0.16459836 -0.09651747 -0.013758485 0.014610905
000150 ab 8e 0a be ea 96 35 3e 32 75 fe 3c 90 6a 82 3d
       -0.13530986 0.1773335 0.031061742 0.063679814
000160 ab 14 29 be a1 e1 3e 3e 01 74 11 3e e2 a1 06 be
       -0.1651179 0.18640758 0.14204408 -0.13147691
000170 45 fc 2a 3e 91 68 70 bd 5e 44 f9 bc 32 23 6e 3a
       0.16697796 -0.058693472 -0.030428108 0.0009084224
000180 49 2a b4 3d 73 cf a5 bd 41 b6 f4 bc 19 c3 0b be
       0.08797128 -0.080962084 -0.029872062 -0.13648643
000190 cc 0e 9b 3c 4c c6 29 3e 6a 2e 5f 3d 90 60 75 3c
       0.018927954 0.1657955 0.054487623 0.014976636
0001a0 01 c5 c3 bd b0 9f ce bd 7a 70 4e 3e 04 95 31 3e
       -0.0955906 -0.10089052 0.20160094 0.17342001
0001b0 1f 00 51 3d b3 04 e4 3c e7 ad 0a be f2 46 1a be
       0.051025506 0.027834272 -0.13542901 -0.15066126
0001c0 0b 77 1a be a1 ae 3d be 97 91 41 be a1 f9 54 bd
       -0.15084474 -0.18523647 -0.18903194 -0.051995877
0001d0 f0 5a 1d be e6 b6 4b be 60 60 91 bd 5e f7 3f 3e
       -0.15366721 -0.19893989 -0.0709846 0.18746707
0001e0 08 cf 3f be ad 42 09 3d f5 1c 17 3e b1 b8 e2 bd
       -0.1873132 0.033510853 0.1475714 -0.11070383
0001f0 d0 2f 82 bd bf 6a 53 bd 41 d3 0c be 63 e6 0e be
       -0.06356776 -0.051615473 -0.13752462 -0.13955073
000200 0a 52 4d be 91 3f 1b 3d 12 cb b1 3d 7f 4b 2c 3e
       -0.20050827 0.03790242 0.08681311 0.16825674
000210 6f f7 22 be ae 27 b3 bd 7a f1 d2 3d 48 21 3b bd
       -0.15914701 -0.08747803 0.10299964 -0.045686036
000220 55 e2 47 3e 2a b5 a1 bd be ca bb bc 35 6f 04 be
       0.19519933 -0.078958824 -0.022923823 -0.12933047
000230 fc 4f a4 bd b6 29 d1 3d 25 b1 47 be e6 b6 88 bd
       -0.08023068 0.10213034 -0.19501169 -0.0667551
000240 a1 1a 0a 3e 90 69 4f 3e f8 c9 e5 bd 85 4d 3d bd
       0.1348672 0.20255113 -0.11220163 -0.046216507
000250 c3 14 d6 3d 97 c8 08 3e df 7b 0f be 1f 0d be bd
       0.10453179 0.13357769 -0.14012097 -0.092798464
000260 e0 7f 63 bc 26 57 31 bd 45 11 2a 3e 0d 11 c4 3d
       -0.013885468 -0.043296 0.1660815 0.09573565
000270 15 81 89 bd c2 2c cf bd 3b 7b 71 bd 7d 4a f0 3d
       -0.067140736 -0.10115959 -0.058955412 0.117329575
000280 1d 69 2a 3e 86 bc be 3d 97 ae 41 be 2b 1c bd bd
       0.1664166 0.09313302 -0.18914257 -0.09233888
000290 f2 1d ed 3d c5 94 09 3e 5b 93 e0 bd 90 7b e3 bc
       0.11577977 0.13435657 -0.10965606 -0.02776888
0002a0 2f 48 e2 bd 35 19 93 3d 7e ad ea 3d b2 90 4d be
       -0.11048924 0.07182542 0.11458872 -0.20074728
0002b0 fd e9 1b 3e d3 1f 08 3e 32 fd 8a 3d 04 71 ab bb
       0.15225978 0.1329339 0.067865744 -0.0052319784
0002c0 5b fd 3b be 4d 64 38 3d da 86 43 be 85 10 30 3e
       -0.18358366 0.04501753 -0.1909441 0.17193802
0002d0 21 a1 d3 3c 36 87 f8 3d ef 04 0b be 2c e1 04 3e
       0.025833668 0.121351644 -0.13576101 0.12976521
0002e0 c7 ca 0f be 12 93 8e bc 98 76 80 bd b9 9f 44 bd
       -0.14042197 -0.017404113 -0.0627262 -0.048003886
0002f0 b8 bf 2d be 27 1f d9 bc 33 f6 36 3e e5 e5 45 3e
       -0.16967666 -0.026504112 0.17867355 0.19325979
000300 d0 e3 3e be db ee 4e be 08 4f f8 3c 44 c9 2b 3e
       -0.18641591 -0.20208304 0.030311123 0.16775995
000310 0a 41 0f be b0 82 42 bd 74 5f 0b 3d 78 d4 3b be
       -0.13989654 -0.047487915 0.034026578 -0.18342769
000320 fa 11 4f 3e 24 76 07 3d 7d 7b d9 bd dd 48 be bd
       0.20221701 0.033071652 -0.10619257 -0.09291241
000330 d5 d7 f7 bd c0 08 ea 3c c8 d6 42 3d a8 78 34 3e
       -0.121017136 0.028568625 0.047568113 0.17624152
000340 af 65 1e 3e cd d0 c4 bd 2d 99 14 be 36 8a a7 3d
       0.15468477 -0.09610138 -0.14511557 0.081806585
000350 17 25 21 be 53 c8 bb bd 39 2b b2 3b 40 8e f2 3d
       -0.15736805 -0.09169068 0.0054372814 0.11843538
000360 06 56 4a be 58 0c 2f 3b b8 96 35 3e 06 99 4d be
       -0.19759378 0.0026710238 0.17733276 -0.20077905
000370 79 b0 39 3e df 60 d5 3d 0e 3a 2f 3d 6d 66 75 3c
       0.18133725 0.10418867 0.042779975 0.0149780335
000380 fa da 39 3d 07 05 39 3e 56 72 47 be 34 a4 4d 3c
       0.045374848 0.18068324 -0.1947721 0.012551356
000390 a3 ae 47 3e 3b ed 40 be 25 f1 1b be fc 93 2e bd
       0.19500212 -0.18840496 -0.15228708 -0.042621598
0003a0 cf b2 30 3e 64 e4 d2 3d bc 8a 35 be 8c fd f9 bd
       0.1725571 0.10297468 -0.17728704 -0.12206563
0003b0 4d c4 94 bd 8b a3 79 3d 5d a3 b6 3d b1 77 19 be
       -0.07264004 0.060946982 0.08917878 -0.14987065
0003c0 97 9d 4d 3e 69 2b 01 3d 8e 92 39 be e4 77 dd ba
       0.20079647 0.03153554 -0.18122312 -0.0016896692
0003d0 4e 23 f5 3d 89 04 10 be 90 dc 39 bc 80 d1 8d 3d
       0.119696245 -0.1406423 -0.01134409 0.069247246
0003e0 6b ed d2 bd 93 2a 09 be 3f e0 1e 3d 9c 0c b7 3c
       -0.1029919 -0.13395147 0.038788076 0.02234488
0003f0 8d 7c 0b be c2 23 10 bd eb 32 72 bd 88 57 8c bd
       -0.13621731 -0.03519035 -0.05913059 -0.06852633

simplicial_nn.2.W2 f4 [2, 16, 16]
000000 3a 74 d6 bd e3 af 02 be 93 03 19 be e5 bf 05 3d
       -0.10471387 -0.12762408 -0.1494277 0.032653708
000010 d7 f3 02 3e 57 fb 3e 3d 3d 0d 37 be 14 dc 36 3e
       0.1278833 0.046626415 -0.17876144 0.1785739
000020 3e 6a da bd dc c1 00 be 2e 51 23 3e 8d 7e cb 3d
       -0.10664795 -0.12573951 0.15948936 0.09936247
000030 7f 77 9c 3d 3a 2b dd bb 83 ff 2c 3e 21 df 15 3e
       0.076399796 -0.006749538 0.16894345 0.14635898
000040 9e 6d 24 3e b1 a6 a8 bd e2 ad 9e 3c 3c d2 d0 3c
       0.1605744 -0.08234919 0.019370023 0.025490873
000050 e6 eb ab bc 3d 9b 2b 3e 1a 02 e7 bc 38 56 f8 3d
       -0.020986509 0.16758437 -0.028199244 0.1212582
000060 75 05 e8 3d c9 ce d2 3d 8d 0c ed 3d 59 1a 38 be
       0.11329166 0.102933474 0.115746595 -0.17978801
000070 41 2d a3 3d 62 f3 07 3e 70 11 33 bd 2e 77 0d be
       0.07967616 0.13276437 -0.0437178 -0.13814995
000080 88 b5 47 bc e2 a5 fb 3c f4 12 7a 3d 16 a9 6b bd
       -0.0121892765 0.030718748 0.06105323 -0.0575343
000090 db 35 47 3e 37 6c 5c bd 49 9f c4 3d f8 91 48 bd
       0.19454138 -0.05381414 0.09600694 -0.04896733
0000a0 b3 4f fe bd 1f 81 0d 3d 2e ad 5d bd 8d 12 a1 bd
       -0.12417545 0.034546968 -0.054120235 -0.078648664
0000b0 44 61 22 3e 79 b5 9a ba 84 83 f4 3d fd 9e 88 bd
       0.15857416 -0.0011803351 0.11939147 -0.066709496
0000c0 b9 bc 4b 3e 56 f2 79 bd ea 4d 25 be 55 13 df 3d
       0.1989621 -0.061022125 -0.16143003 0.10892359
0000d0 51 04 2f be ef 62 d1 bd 49 dc 84 bd 5c 77 26 3e
       -0.1709149 -0.10223948 -0.064873286 0.1625647
0000e0 ee 80 f9 3c e9 7d 4b be e8 34 07 be 2c 31 25 be
       0.030456986 -0.1987225 -0.13203776 -0.16132039
0000f0 70 ba 31 3b a2 0d 33 be 6d 13 a1 3d 1b e3 49 3e
       0.0027119182 -0.1748567 0.07865033 0.1971554
000100 80 9b 24 be 5f 3e 26 3e 0a 51 1f 3e 74 7d f1 3d
       -0.16074944 0.1623473 0.15558258 0.117915064
000110 06 a7 1c be b5 1d f1 3c 3f db 85 bd 4c a4 3e be
       -0.1529809 0.02943311 -0.065359585 -0.18617362
000120 bf 01 49 be 2f 4b 01 bd 06 54 48 bb 32 cb a8 bd
       -0.19629572 -0.03156584 -0.003056766 -0.082418814
000130 fe c7 08 3e 27 92 93 bd 26 73 d1 bd cb 3d ab 3b
       0.13357541 -0.07205611 -0.10227041 0.005225872
000140 53 02 25 3e 9a 9d 0a 3a d1 42 d4 bd f3 e6 3a 3d
       0.16114168 0.00052877667 -0.10364307 0.045630407
000150 99 75 c8 bb 1f a8 22 be 96 68 cf bd 7d e2 40 be
       -0.0061175344 -0.15884446 -0.1012737 -0.18836398
000160 2f 5b 18 be a7 fe 4b be db b1 02 3d 0a 1d 35 bc
       -0.14878534 -0.19921361 0.031907897 -0.011054287
000170 a8 b6 ef bd b7 3b 0b be a5 eb 04 be 8f d5 1e be
       -0.11704761 -0.13596998 -0.12980516 -0.15511154
000180 f6 d1 f1 3b bd 93 2a bd b0 85 b3 bd c3 49 d5 bd
       0.0073797656 -0.0416448 -0.08765733 -0.104144596
000190 18 92 44 be cd 96 79 bd 9a 9b 1d bd 90 23 d4 bd
       -0.19196355 -0.06093483 -0.03847847 -0.103583455
0001a0 ee d0 2f bc c5 87 93 bc 78 67 4f 3e ed 0c 9b 3d
       -0.010730965 -0.018009076 0.20254314 0.07570825
0001b0 7e f2 9e 3d ff e9 06 bd c5 29 b6 bc 12 a6 0c be
       0.077610955 -0.032938 -0.022236714 -0.13735226
0001c0 fd 89 3d 3c 75 10 56 3d f5 96 2e be 11 1a c4 bc
       0.0115685435 0.05226179 -0.17049773 -0.02393821
0001d0 49 ce 92 3c 93 67 05 3e 20 d7 0f be 2c e8 19 3e
       0.01792063 0.13027792 -0.14046907 0.15029973
0001e0 52 d9 3c bc b8 94 ea 3d 9b fc 40 3d f7 d6 84 bc
       -0.011526423 0.11454147 0.047115903 -0.016215784
0001f0 9f f5 e7 3c 1c 2f dd 3b 33 69 18 3e 37 f9 04 3e
       0.028315363 0.0067500006 0.1488388 0.12985693
000200 db 74 10 be 66 d8 9b 3d 7b 43 42 be 52 94 93 bd
       -0.14107077 0.07609634 -0.18971054 -0.07206024
000210 db 16 a9 bd e8 d0 bb bd 42 e0 f2 bd 50 06 4a 3e
       -0.082563125 -0.09170705 -0.1185918 0.1972897
000220 7e 78 d0 3d 62 b4 30 be 4a 0a b5 3d ea 11 eb 3d
       0.10179232 -0.1725631 0.08839853 0.11478026
000230 14 82 3a be c1 58 13 3e 59 46 25 be 43 4b d6 bd
       -0.18213683 0.14389326 -0.16140117 -0.10463574
000240 a2 31 8b 3b 4e f5 53 3d 98 b1 02 bc a6 5c ce 3d
       0.00424786 0.051747613 -0.007976912 0.10076265
000250 3f d0 86 3d d0 60 31 be be 5b d0 bd 36 79 c4 bd
       0.065826885 -0.17322087 -0.101737484 -0.09593432
000260 b3 1e b3 bd ac 29 e6 3c 76 99 ef 3d d9 7a 22 3e
       -0.0874609 0.028096043 0.11699192 0.15867175
000270 14 0b 76 bd 00 ec 41 bd 60 8d ae ba 93 b4 cc 3d
       -0.06006916 -0.047344208 -0.001331728 0.09995379
000280 2f f9 1c 3e 1d 94 29 be 33 15 e9 bd bf b8 a1 3c
       0.15329431 -0.16560407 -0.113809966 0.019741414
000290 f5 40 26 3e 21 b0 22 3e 89 2a 1a be 26 9f 36 be
       0.16235717 0.158875 -0.15055288 -0.17834148
0002a0 85 a3 a9 bd ac 14 cf 3c 23 1e 0c 3e 83 0c 01 bd
       -0.08283142 0.025278412 0.13683371 -0.031506073
0002b0 02 c2 db bc e8 0a 1f be 29 42 48 be 5b 23 46 3e
       -0.026825909 -0.15531504 -0.19556488 0.19349425
0002c0 36 3a 4c be c2 e2 9e 3d 25 ee 2c 3d a2 2b c1 3d
       -0.1994408 0.07758094 0.0422193 0.094321504
0002d0 ef b0 0f be 65 1b 30 3e 7d 07 51 bd 90 50 20 bc
       -0.14032339 0.1719795 -0.051032532 -0.009784833
0002e0 b8 fe b9 bd 82 76 4e 3e 5f 28 15 3e 3e f5 9b 3d
       -0.09081787 0.20162395 0.14566182 0.076151356
0002f0 8d 6a 44 3c e7 82 97 3c a3 10 5c 3d de 23 3f 3c
       0.011988294 0.018495036 0.053726804 0.011666266
000300 78 0e 95 3d aa 33 4e 3e 00 01 9e bc f8 26 e4 3d
       0.0727815 0.20136896 -0.019287586 0.11140245
000310 18 ba 32 3e 80 04 36 3e 46 af 4c 3e 7e da 90 bd
       0.17453802 0.17775154 0.19988737 -0.07072924
000320 c0 7c fa bb 28 47 66 3d 5c 88 33 be bf 4a e5 bd
       -0.007644266 0.056220204 -0.17532486 -0.11195897
000330 30 38 cf 3c e9 7a c3 bd cc ab 8d 3d 24 91 4f bd
       0.025295347 -0.095449276 0.06917533 -0.050675526
000340 0e ed aa bd 3b 94 22 be fa 7c 39 3e ba 79 8c 3b
       -0.08345996 -0.15876858 0.18114081 0.004286972
000350 a3 10 3d bd 39 b2 3e be b6 08 7d 3b 18 6a e8 bc
       -0.046158444 -0.18622674 0.0038609928 -0.028370902
000360 4d 42 e2 bd 6a a4 00 be f5 61 6c bc 7b d3 37 bd
       -0.11047802 -0.12562719 -0.014427652 -0.044879418
000370 14 3e 15 be 47 00 12 3e 0b c5 21 3e b3 30 43 3d
       -0.14574462 0.14257918 0.15797822 0.047653865
000380 51 5a d4 3d 05 24 a5 bd 29 1e b2 3c 33 10 2e 3e
       0.10368789 -0.08063511 0.021742897 0.16998367
000390 cb 2c 12 bd d1 85 22 be 39 fc 4e be 14 75 c5 3d
       -0.03568725 -0.1587136 -0.20213403 0.096414715
0003a0 3d fb 47 3e be fb 3d be 9b bc 91 bd 2f 56 4f be
       0.19529434 -0.18553063 -0.07116052 -0.2024772
0003b0 ae 94 86 bc c8 e6 47 be e9 40 3e be 21 f3 e4 bd
       -0.016428318 -0.1952163 -0.18579449 -0.11179186
0003c0 ea 2e 2d 3d d8 36 19 3e f1 8f 49 be 7c 39 1c 3e
       0.04228107 0.14962327 -0.19683816 0.15256304
0003d0 4e 67 bb 3d 84 41 fd 3d ef 05 d8 bd 38 df e0 3d
       0.09150563 0.12366012 -0.10548007 0.109800756
0003e0 11 a1 36 be 80 f4 e0 bd 23 e3 2f be 50 12 23 bd
       -0.1783488 -0.10984135 -0.1717649 -0.039812386
0003f0 a3 7a 16 3e a2 b9 3e be dc 7a 9a bd 90 88 11 3d
       0.1469522 -0.18625501 -0.07542965 0.035530627

simplicial_nn.4.W0 f4 [16, 1]
000000 8c 16 3d 3e 78 0c c4 3e 4e 72 36 bf 58 51 c2 3e
       0.18465632 0.38290763 -0.71268165 0.37952685
000010 c3 7c de be 8f 9c bb be be c3 4c 3f 31 15 4b 3f
       -0.4345456 -0.36642882 0.7998618 0.7932921
000020 a2 0d 36 bf 23 a0 44 bf 30 e0 2c bd 6a 2b e8 3e
       -0.7111455 -0.7680685 -0.04220599 0.45345622
000030 3a 3d ac be 9b ee 73 be 56 cd cd be 90 4e 28 3f
       -0.33640462 -0.2382149 -0.4019572 0.65744877

simplicial_nn.4.W1 f4 [2, 16, 1]
000000 0d a5 13 bf 4a dc 9b be 3e 85 99 bd 86 db 85 3e
       -0.5767372 -0.30441505 -0.07496117 0.26144046
000010 55 b3 43 bf f5 20 46 3f 93 74 2e be 38 b9 ac bd
       -0.76445514 0.7739404 -0.17036657 -0.08433765
000020 44 1b 25 bf cd 48 00 bf 27 b9 e4 be 4a 89 d0 3e
       -0.6449473 -0.50111085 -0.4467251 0.40729743
000030 bf 04 25 3f ee 60 f9 be 1f a0 c8 be 49 90 39 3f
       0.64460367 -0.48706764 -0.39184663 0.72485787
000040 db 62 35 bf 4e e5 1a bf f1 3e 4a 3f 69 d3 29 3e
       -0.70853966 -0.6050614 0.7900229 0.16584553
000050 a3 9a 31 be a3 ac 5a be 39 cf 23 3f 24 d0 10 be
       -0.17344145 -0.21354918 0.6398807 -0.141419
000060 4c f0 cb be c4 b8 3e 3f e4 66 70 3e 13 d8 38 3f
       -0.3983177 0.7450068 0.2347675 0.72204703
000070 c7 8c e8 3c 22 39 ca 3e 33 d6 7a bd 4e 11 29 3c
       0.02838744 0.39496714 -0.061239433 0.010319067

simplicial_nn.4.W2 f4 [2, 16, 1]
000000 11 f8 d6 3d 02 0a e7 be 99 f0 4a 3f 76 dc 0d bf
       0.10496534 -0.45124823 0.7927337 -0.5541452
000010 10 c9 25 bf 5b 25 f2 be de 60 cb 3e 00 d3 99 bc
       -0.6475992 -0.47294125 0.3972234 -0.01877737
000020 6a 06 a9 3a 1b 8e 6c 3e 6b 14 40 3f cb e2 29 be
       0.0012895588 0.23101084 0.75031155 -0.16590421
000030 75 80 07 3f 6e 34 a8 3e 89 2b 00 3f 45 05 0d 3e
       0.52930385 0.328525 0.5006643 0.13771541
000040 e2 8e 90 3e 1d 71 1d bf a5 43 2d 3e 9d d2 15 3f
       0.2823401 -0.6150072 0.16920336 0.58524495
000050 13 f7 76 be 9e 6e c5 bd a7 06 3b be 50 be c7 bd
       -0.24117689 -0.09640239 -0.18264256 -0.09753096
000060 7f cb 0f 3f 6d 80 91 be 69 76 15 3e 3d 71 35 3e
       0.56169885 -0.28418294 0.14595951 0.17718978
000070 15 95 4c 3e 35 7b 0c 3f 3b 66 32 bf 86 43 11 bf
       0.19978745 0.548755 -0.6968724 -0.5674366

exp_avg f4 [1, 16]
000000 c0 69 c7 bc 08 1e 34 bb 8f af d5 38 83 5f 10 bf
       -0.024342418 -0.002748372 0.00010189332 -0.5639574
000010 cb e0 16 ba d0 3a 1a 3b 0b e8 cf 38 2f 67 f2 bd
       -0.00057555427 0.002353359 9.9137505e-05 -0.11836087
000020 b4 45 9c 3e 3f bc 81 39 73 ba 23 3e 93 b8 20 3e
       0.3052193 0.00024745052 0.15989093 0.1569541
000030 00 00 00 00 57 44 5e 3d 47 a5 11 ba 94 57 03 39
       0.0 0.054264393 -0.0005555939 0.00012525759

exp_avg_sq f4 [1, 16]
000000 ee 88 78 38 98 c3 4a 35 49 b1 8e 30 be 45 02 3d
       5.9255333e-05 7.553549e-07 1.0382247e-09 0.031804793
000010 b8 46 0e 33 e7 aa 14 35 11 14 87 30 64 9f b7 3a
       3.312627e-08 5.538299e-07 9.828246e-10 0.0014009294
000020 a4 a1 18 3c 08 64 d2 31 23 8b 27 3b fc 71 21 3b
       0.009315882 6.1231766e-09 0.002556511 0.002463459
000030 00 00 00 00 14 62 9a 39 3a 94 04 33 66 a2 d7 30
       0.0 0.00029446243 3.0868456e-08 1.5689465e-09

exp_avg f4 [2, 1, 16]
000000 37 a5 f0 bc 01 19 31 3b f6 39 82 b9 d5 1c 87 be
       -0.029375656 0.002702296 -0.00024838716 -0.26389185
000010 2a 8e 4d 3a c3 6d 1b bb ee 2a 89 39 ae 5b 9e bd
       0.00078413135 -0.0023716546 0.0002616266 -0.0773233
000020 8b 79 f2 3d f4 e1 25 3a bd b7 64 3d 0d 86 8b 3d
       0.11839589 0.000632792 0.05583929 0.068126775
000030 00 00 00 00 db ac 01 3d 80 fc 10 3b e9 d7 8a b9
       0.0 0.03165899 0.0022123158 -0.00026482277
000040 2e 46 a0 bc 9a f8 dd 3a d0 67 0f b9 20 8b 20 be
       -0.019564714 0.0016935051 -0.00013676216 -0.15678072
000050 0a ab eb 39 d0 31 bf ba 57 4d 0c 39 94 0f 3f bd
       0.00044950127 -0.0014586989 0.00013380252 -0.046645716
000060 87 06 91 3d f3 c7 d5 39 4b 4e 07 3d 83 f6 26 3d
       0.07081323 0.000407755 0.03303365 0.040762436
000070 00 00 00 00 59 4a 88 3c 00 dc 9a 3a 96 2e 0c b9
       0.0 0.016637014 0.0011814833 -0.00013368795

exp_avg_sq f4 [2, 1, 16]
000000 27 f8 b4 38 bd 05 44 35 89 fc d3 31 5a 31 e4 3b
       8.629291e-05 7.302404e-07 6.169618e-09 0.006963891
000010 65 0a 84 33 f6 fc 16 35 ec 2f eb 31 ac bb 1c 3a
       6.14862e-08 5.624746e-07 6.8448482e-09 0.0005978893
000020 38 bb b7 3a 47 fb 2b 33 71 79 a3 39 e7 55 f3 39
       0.0014017588 4.0042575e-08 0.00031180264 0.00046412574
000030 00 00 00 00 1f 32 d2 38 a8 61 03 35 f8 f7 f0 31
       0.0 0.00010022916 4.894341e-07 7.01311e-09
000040 7a 8c 20 38 ef f8 99 34 3b 88 00 31 ba 16 21 3b
       3.82778e-05 2.8679594e-07 1.870389e-09 0.0024580196
000050 92 8f ad 32 98 78 64 34 fd 0e f6 30 cd 26 64 39
       2.0205139e-08 2.1278026e-07 1.7903116e-09 0.00021758229
000060 d4 73 03 3a e0 d1 8e 32 89 d8 e4 38 99 3a 2e 39
       0.0005014513 1.6626416e-08 0.0001091222 0.00016615762
000070 00 00 00 00 40 30 e8 37 49 e2 15 34 28 a3 f5 30
       0.0 2.7679023e-05 1.3959028e-07 1.7872468e-09

exp_avg f4 [2, 1, 16]
000000 ea 50 55 3c df 6a 93 bb 79 0d 9e 39 76 9a 92 bd
       0.01301978 -0.004498824 0.00030146146 -0.07158367
000010 0b ad 93 ba c7 c4 7f 3b b7 eb 5e b9 c3 66 0f 3c
       -0.0011266781 0.00390272 -0.0002125938 0.008752528
000020 73 2e 8b 3d 5a 6e f7 b9 9e 53 2c 3d 27 57 dc 3c
       0.06795969 -0.0004719373 0.04207193 0.026897026
000030 00 00 00 00 d7 30 a2 bb 5d a1 57 bb 5f fc ab 39
       0.0 -0.00494967 -0.0032902576 0.00032803693
000040 d4 59 0a 3c 03 f6 3c bb b7 66 2c 39 38 60 41 bd
       0.008444268 -0.0028833158 0.00016441463 -0.047210902
000050 96 7e 2c ba 5e dd 21 3b f8 d7 e7 b8 67 57 c8 3b
       -0.0006580142 0.0024698596 -0.00011055166 0.006113935
000060 ff f9 38 3d 16 a4 9e b9 ea 9d e6 3c 1e 18 94 3c
       0.04516029 -0.00030258362 0.028151471 0.018077906
000070 00 00 00 00 37 96 5f bb d5 e9 0f bb 19 77 2e 39
       0.0 -0.0034116635 -0.0021959443 0.000166383

exp_avg_sq f4 [2, 1, 16]
000000 ff 32 8e 37 0d d3 07 36 04 21 1c 32 13 54 06 3a
       1.6951466e-05 2.0239415e-06 9.087902e-09 0.00051242224
000010 1a 4d 08 34 15 6e cc 35 ee 4a 9b 31 57 86 00 37
       1.2694036e-07 1.5231223e-06 4.5196122e-09 7.660673e-06
000020 b8 24 f2 39 b4 51 bf 32 59 9a 39 39 ed b7 97 38
       0.00046185195 2.227248e-08 0.00017700474 7.2345e-05
000030 00 00 00 00 5b 69 24 36 27 4d 91 35 99 de 38 32
       0.0 2.449923e-06 1.0825796e-06 1.07608225e-08
000040 1a 43 ef 36 00 2a 5f 35 7f c3 39 31 c2 b6 69 39
       7.1305667e-06 8.313509e-07 2.703217e-09 0.00022288694
000050 f3 f6 39 33 4c c0 23 35 2d f9 a7 30 b0 da 7a 36
       4.3298268e-08 6.100206e-07 1.2221669e-09 3.7380196e-06
000060 1d da 55 39 20 4b 1d 32 4e 33 a6 38 08 13 09 38
       0.00020394516 9.155684e-09 7.925053e-05 3.268107e-05
000070 00 00 00 00 d6 38 9c 35 b6 71 01 35 fc 3c 3e 31
       0.0 1.1639447e-06 4.8221716e-07 2.7683305e-09

exp_avg f4 [16, 16]
000000 00 00 00 00 69 cb 12 bb f2 ae ef ba e1 bd a3 3b
       0.0 -0.0022399074 -0.0018286391 0.0049970006
000010 2f 1b 6b bc 11 df 0b bc 73 79 6c 3c 00 00 00 00
       -0.014349743 -0.00853707 0.014433253 0.0
000020 00 00 00 00 00 00 00 00 00 00 00 00 00 00 00 00
       0.0 0.0 0.0 0.0
000030 c3 c4 ce 39 7f 08 b7 3a 00 00 00 00 f9 9d 16 3c
       0.0003943798 0.0013964324 0.0 0.009192937
000040 17 05 09 ba 93 d1 9a 38 fd 84 7d b9 7f a7 44 39
       -0.00052268937 7.3823285e-05 -0.00024177502 0.00018754414
000050 f5 9e 1b b8 76 36 15 3a 00 00 00 00 00 00 00 00
       -3.710292e-05 0.0005692014 0.0 0.0
000060 96 80 19 ba e2 c1 17 b8 a0 74 10 ba 4c fd a5 39
       -0.00058556476 -3.6181773e-05 -0.00055105425 0.00031659973
000070 8b 55 e0 36 80 c5 e5 b9 fb 04 82 b9 c5 7b eb 39
       6.6856787e-06 -0.00043825433 -0.00024799243 0.00044914908
000080 1f a8 0c ba dd e3 9b 38 ff af 78 b9 40 60 43 39
       -0.0005365628 7.433419e-05 -0.00023716687 0.00018632505
000090 df c3 19 b8 c4 c1 15 3a 00 00 00 00 00 00 00 00
       -3.666046e-05 0.0005712772 0.0 0.0
0000a0 b6 c7 1c ba 0b 0f 02 b8 7f 13 11 ba cb ab a7 39
       -0.0005980687 -3.1008425e-05 -0.0005534216 0.00031980718
0000b0 8b 4e aa 36 d3 d6 e7 b9 f7 12 7f b9 5f b8 ef 39
       5.0755384e-06 -0.0004421981 -0.0002432576 0.00045723
0000c0 00 00 00 00 f1 c7 47 3a 6f 64 56 3d c2 5f 7c bd
       0.0 0.0007621041 0.052341875 -0.06161476
0000d0 f7 9f c9 3d 93 29 ce ba 8f f7 c4 bd 00 00 00 00
       0.09844964 -0.0015728943 -0.096175306 0.0
0000e0 0a a2 94 3a 00 00 00 00 00 00 00 00 15 5c e4 37
       0.0011339795 0.0 0.0 2.7222597e-05
0000f0 63 2d f4 bb 22 4a 27 3d 44 98 2e 3a bb 60 e8 bd
       -0.0074516996 0.040842183 0.00066602626 -0.11346575
000100 fb 51 89 b9 6e d2 0d 38 a2 ae fd b8 82 cb ef 38
       -0.00026191756 3.3812998e-05 -0.00012096508 0.000114343144
000110 13 1b 98 b7 f2 46 8a 39 00 00 00 00 00 00 00 00
       -1.813242e-05 0.0002637427 0.0 0.0
000120 17 67 85 b9 6a 01 f9 b7 61 d5 85 b9 30 aa f6 38
       -0.00025444545 -2.9683772e-05 -0.00025526716 0.00011761894
000130 6f 3b c1 36 8f ed 50 b9 e6 1d 02 b9 1d 3a 4f 39
       5.758767e-06 -0.00019924923 -0.00012408904 0.00019762707
000140 ea 8b 8e ba 37 59 33 39 63 d5 0e ba 02 9c c1 39
       -0.0010875438 0.00017104005 -0.0005448667 0.00036928063
000150 dd b4 b0 b8 6e 42 ac 3a 00 00 00 00 00 00 00 00
       -8.4260224e-05 0.0013142356 0.0 0.0
000160 7c 85 b4 ba 3f 3c 8a b8 5a c7 a2 ba 9f 26 4f 3a
       -0.0013772692 -6.5915745e-05 -0.001241903 0.00079021783
000170 58 32 40 37 17 61 85 ba 5b 80 12 ba fe fb 89 3a
       1.1455813e-05 -0.001017603 -0.00055885845 0.001052737
000180 00 00 00 00 a9 42 a3 b6 00 00 00 00 83 e6 99 38
       0.0 -4.865539e-06 0.0 7.338545e-05
000190 d7 34 27 b9 2b 3b 7b b8 78 6b 2f 39 00 00 00 00
       -0.00015946045 -5.9898168e-05 0.00016729336 0.0
0001a0 00 00 00 00 00 00 00 00 00 00 00 00 00 00 00 00
       0.0 0.0 0.0 0.0
0001b0 00 00 00 00 c0 61 c4 b7 00 00 00 00 a0 da 16 39
       0.0 -2.341054e-05 0.0 0.00014386559
0001c0 ea dc 8f ba 47 25 32 3c f1 b0 b3 3d 9d 20 ea bd
       -0.0010975872 0.010873145 0.08773983 -0.11432002
0001d0 d3 14 58 3e 65 bf 30 3d 42 be 55 be 00 00 00 00
       0.21101694 0.043151278 -0.20873359 0.0
0001e0 87 19 4d bb 99 0a 12 b8 4f cd 0d bb 97 74 95 3b
       -0.0031295733 -3.4818982e-05 -0.0021637266 0.0045610177
0001f0 c7 3e 60 bc c3 ac 4c 3d 83 52 66 ba 1d 8d 52 be
       -0.013686842 0.049969446 -0.0008786099 -0.20561643
000200 f1 00 c4 b9 57 f6 9f 3b 3f dc 0e 3d 56 94 3c bd
       -0.00037384735 0.004881661 0.03487801 -0.0460399
000210 b2 97 ae 3d d0 20 8f 3c f3 4c ac bd 00 00 00 00
       0.08525027 0.0174717 -0.084131144 0.0
000220 07 76 c8 ba ea b8 88 b6 2a 8c 56 ba f5 dd f3 3a
       -0.0015293964 -4.0746427e-06 -0.0008184338 0.0018605577
000230 18 9a bf bb db 2d a2 3c 4d f5 01 ba ab 3e a9 bd
       -0.005847227 0.019797256 -0.0004957512 -0.08263906
000240 00 00 00 00 87 28 c9 b7 00 00 00 00 84 7e 85 38
       0.0 -2.397994e-05 0.0 6.3654996e-05
000250 ba 3c 20 b9 3b 22 83 b8 c1 66 1c 39 00 00 00 00
       -0.00015281411 -6.252943e-05 0.00014915598 0.0
000260 00 00 00 00 00 00 00 00 00 00 00 00 00 00 00 00
       0.0 0.0 0.0 0.0
000270 00 00 00 00 ed 41 79 b6 00 00 00 00 2a 12 f3 38
       0.0 -3.7142265e-06 0.0 0.00011590526
000280 00 00 00 00 1e 53 a7 3b 88 35 c4 3d 28 01 ef bd
       0.0 0.005106344 0.09580523 -0.116701424
000290 87 30 4b 3e 80 6b 7a 3c 33 9f 47 be 00 00 00 00
       0.1984273 0.015284419 -0.19494323 0.0
0002a0 1a a0 d3 3a 00 00 00 00 03 01 0b b7 1f 76 5b 3a
       0.0016145736 0.0 -8.285281e-06 0.00083717884
0002b0 43 9f 63 bc a3 35 8a 3d e7 56 82 3a d5 fe 5a be
       -0.013892951 0.06748512 0.0009944112 -0.21386273
0002c0 5d 47 09 bb 9b 55 43 3c b1 22 89 3d 3b cc ba bd
       -0.0020947077 0.011922265 0.0669607 -0.09120985
0002d0 4f 75 35 3e 71 67 4c 3d b7 35 34 be 00 00 00 00
       0.17720531 0.049903337 -0.17598616 0.0
0002e0 b9 b0 c0 bb 21 a5 ba b8 2b f3 6f bb 52 e7 cc 3b
       -0.005880442 -8.899929e-05 -0.0036613445 0.0062531615
0002f0 6f 06 38 bc 1a fc fc 3c ac 18 04 bb f0 7a 25 be
       -0.011232003 0.03088193 -0.0020156307 -0.16160178
000300 00 00 00 00 00 00 00 00 00 00 00 00 00 00 00 00
       0.0 0.0 0.0 0.0
000310 00 00 00 00 00 00 00 00 00 00 00 00 00 00 00 00
       0.0 0.0 0.0 0.0
000320 00 00 00 00 00 00 00 00 00 00 00 00 00 00 00 00
       0.0 0.0 0.0 0.0
000330 00 00 00 00 00 00 00 00 00 00 00 00 00 00 00 00
       0.0 0.0 0.0 0.0
000340 08 bd 07 ba fe c8 03 3a 2c 94 07 3b bd 5c 54 bb
       -0.0005178009 0.00050272036 0.0020687683 -0.003240391
000350 37 65 d4 3b 9a a2 66 3b cf 5d d7 bb 00 00 00 00
       0.0064817923 0.0035192133 -0.006572462 0.0
000360 40 79 cf ba e3 2b a8 b7 e8 49 64 ba b1 70 a7 3a
       -0.0015828982 -2.0047597e-05 -0.00087085227 0.0012774674
000370 43 53 a9 b9 1f 0b 4f b8 dd 36 1c ba f6 f2 9a bb
       -0.00032296227 -4.9363003e-05 -0.0005959103 -0.00472867
000380 b0 05 61 ba ad c9 5a 39 ab 76 09 ba b7 ce ad b8
       -0.00085839164 0.0002086523 -0.0005243818 -8.2877865e-05
000390 12 5d 4d 39 a7 b2 03 3b a2 57 93 b9 00 00 00 00
       0.00019584995 0.0020095499 -0.00028103316 0.0
0003a0 9a a6 06 bb 0f 0d 1e b8 97 dd af ba c3 2b cd 3a
       -0.002054608 -3.7682297e-05 -0.0013417479 0.0015653301
0003b0 27 2c a3 37 dc 25 b9 ba c3 c0 41 ba 8f 4c a7 3a
       1.9451674e-05 -0.0014125663 -0.00073910895 0.0012763905
0003c0 e6 ec 40 b8 dd bf cd 36 7f 78 c5 b7 cd 56 d2 37
       -4.5996996e-05 6.131812e-06 -2.354034e-05 2.507437e-05
0003d0 a5 a6 68 b6 3b 9a 4a 38 00 00 00 00 00 00 00 00
       -3.4667694e-06 4.830419e-05 0.0 0.0
0003e0 c3 7b 38 b8 d8 94 28 b7 40 dc 43 b8 7e ed 81 37
       -4.398428e-05 -1.0048236e-05 -4.6696747e-05 1.548859e-05
0003f0 99 ef c4 35 96 93 16 b8 22 96 ca b7 17 fe 10 38
       1.467287e-06 -3.5900237e-05 -2.4150188e-05 3.4568915e-05

exp_avg_sq f4 [16, 16]
000000 00 00 00 00 d5 ad 06 35 80 86 b3 34 29 92 27 36
       0.0 5.017185e-07 3.343921e-07 2.4970016e-06
000010 ef bb ac 37 c9 8c f4 36 1f c0 ae 37 00 00 00 00
       2.0591511e-05 7.288156e-06 2.083188e-05 0.0
000020 00 00 00 00 00 00 00 00 00 00 00 00 00 00 00 00
       0.0 0.0 0.0 0.0
000030 9b 9a 85 32 d8 61 51 34 00 00 00 00 cf c8 0d 37
       1.5553544e-08 1.9500237e-07 0.0 8.451009e-06
000040 3b ae ea 32 1b ce 15 30 b4 d9 c8 31 a6 b4 71 31
       2.7320416e-08 5.449878e-10 5.845516e-09 3.5172802e-09
000050 99 5c 17 2f 1b 27 0b 33 00 00 00 00 00 00 00 00
       1.3766267e-10 3.2399026e-08 0.0 0.0
000060 b9 44 13 33 79 f0 0f 2f dc 6b 02 33 fe 33 2c 32
       3.4288608e-08 1.3091207e-10 3.036608e-08 1.0023539e-08
000070 a7 44 9d 2c f3 fb a4 32 31 50 d3 31 f9 49 ad 32
       4.4698303e-12 1.9206686e-08 6.150025e-09 2.017349e-08
000080 cf 4d f7 32 c1 e2 17 30 5f 44 c1 31 d7 92 6e 31
       2.8789968e-08 5.5255717e-10 5.624812e-09 3.4717027e-09
000090 f1 c5 13 2f 68 2b 0c 33 00 00 00 00 00 00 00 00
       1.3439895e-10 3.2635768e-08 0.0 0.0
0000a0 02 a0 19 33 e7 70 d3 2e 58 8b 03 33 bc b5 2f 32
       3.5768615e-08 9.6152246e-11 3.0627547e-08 1.0227662e-08
0000b0 0d 47 35 2c 85 f7 a7 32 3b 52 cb 31 9e 94 b3 32
       2.5761088e-12 1.9553918e-08 5.917426e-09 2.0905926e-08
0000c0 00 00 00 00 ee 73 79 33 41 a3 8f 39 21 0a c7 39
       0.0 5.8080268e-08 0.0002739672 0.00037963784
0000d0 24 14 7e 3a 59 d2 84 34 9d 79 72 3a 00 00 00 00
       0.0009692332 2.4739964e-07 0.0009249689 0.0
0000e0 d0 12 0a 34 00 00 00 00 00 00 00 00 85 f6 a2 2e
       1.2859095e-07 0.0 0.0 7.410698e-11
0000f0 0c 52 ba 36 49 e9 2e 39 59 85 3e 33 93 bf a8 3a
       5.5527835e-06 0.00016680839 4.43591e-08 0.0012874476
000100 eb b5 eb 31 20 6b fb 2e b6 1b c9 30 4c b1 b3 30
       6.860082e-09 1.1433188e-10 1.4632551e-09 1.3074355e-09
000110 db 99 10 2e cd 01 ef 31 00 00 00 00 00 00 00 00
       3.287846e-11 6.95602e-09 0.0 0.0
000120 19 74 de 31 00 c3 c1 2e 82 e4 df 31 d2 22 be 30
       6.474249e-09 8.811263e-11 6.5161325e-09 1.3834216e-09
000130 e0 5d 69 2c b7 68 88 31 37 a1 d3 30 6d 32 86 31
       3.3163403e-12 3.9700256e-09 1.5398091e-09 3.905646e-09
000140 72 fe fd 33 69 09 49 31 8e 04 ff 32 5c 47 6a 32
       1.1827514e-07 2.9254699e-09 2.9687978e-08 1.3636818e-08
000150 4d 28 43 30 55 75 39 34 00 00 00 00 00 00 00 00
       7.099786e-10 1.7272153e-07 0.0 0.0
000160 c7 ac 4b 34 d5 dc ee 2f 0f 9b 25 34 2f 19 86 33
       1.8968704e-07 4.3448858e-10 1.5423232e-07 6.244442e-08
000170 4a df 66 2d 14 60 de 33 40 24 06 33 f9 fe ed 33
       1.31235665e-11 1.0355157e-07 3.1232275e-08 1.1082552e-07
000180 00 00 00 00 55 96 26 2c 00 00 00 00 8e 08 14 30
       0.0 2.367347e-12 0.0 5.3854243e-10
000190 c5 bc 2e 31 ab 3d c5 2f 5f 53 40 31 00 00 00 00
       2.5427636e-09 3.587791e-10 2.7987068e-09 0.0
0001a0 00 00 00 00 00 00 00 00 00 00 00 00 00 00 00 00
       0.0 0.0 0.0 0.0
0001b0 00 00 00 00 53 09 71 2e 00 00 00 00 17 3b 0e 31
       0.0 5.4805337e-11 0.0 2.0697308e-09
0001c0 7a 5a 01 34 5f 59 46 37 46 ce 49 3a 83 4c ab 3a
       1.2046976e-07 1.1822528e-05 0.00076982786 0.0013069067
0001d0 ec e8 91 3b 90 3f 43 39 ed c4 8e 3b 00 00 00 00
       0.0044528153 0.00018620328 0.0043569715 0.0
0001e0 b7 74 83 35 f2 4c 05 2f fb 58 fb 34 15 9b 0b 36
       9.794229e-07 1.2123616e-10 4.6817135e-07 2.0802884e-06
0001f0 bc 24 9d 37 70 e9 82 39 b3 c6 a5 33 75 89 8a 3b
       1.8732964e-05 0.00024969457 7.7195544e-08 0.004227812
000200 e9 1b 70 32 ae ec 1f 36 09 1d ff 38 87 43 5e 39
       1.3976185e-08 2.3830612e-06 0.00012164756 0.00021196726
000210 19 84 3e 3a 15 09 00 38 fb 8b 39 3a 00 00 00 00
       0.0007267609 3.0526036e-05 0.00070780487 0.0
000220 6a 27 7b 34 94 a9 e9 2b 82 d8 8f 33 e7 d8 b9 34
       2.3390535e-07 1.6602713e-12 6.698339e-08 3.4616752e-07
000230 14 72 65 36 4f 63 24 38 3c 1d d3 32 14 06 33 3a
       3.4190061e-06 3.9193135e-05 2.4576927e-08 0.0006829214
000240 00 00 00 00 76 e7 7c 2e 00 00 00 00 40 c2 de 2f
       0.0 5.7503745e-11 0.0 4.0519588e-10
000250 8b 79 20 31 5c f3 d6 2f 3a e2 18 31 00 00 00 00
       2.3352154e-09 3.909929e-10 2.2247506e-09 0.0
000260 00 00 00 00 00 00 00 00 00 00 00 00 00 00 00 00
       0.0 0.0 0.0 0.0
000270 00 00 00 00 74 27 c2 2b 00 00 00 00 ca a2 b8 30
       0.0 1.379548e-12 0.0 1.3434029e-09
000280 00 00 00 00 13 fc 2e 36 d3 9c 70 3a 87 82 b2 3a
       0.0 2.6074747e-06 0.0009178642 0.0013619222
000290 cc 04 81 3b 1c f8 c3 37 3b 0e 79 3b 00 00 00 00
       0.0039373394 2.3361346e-05 0.0038002867 0.0
0002a0 3f f4 8b 34 00 00 00 00 b8 86 f1 2c a6 82 96 33
       2.606848e-07 0.0 6.8645888e-12 7.008684e-08
0002b0 77 e9 a1 37 fc c5 ee 39 cb 5a d4 33 34 df 95 3b
       1.9301411e-05 0.00045542407 9.8885344e-08 0.004573727
0002c0 78 91 eb 34 d7 78 6e 37 ad 13 eb 39 73 15 5a 3a
       4.3878003e-07 1.4214041e-05 0.00044837352 0.0008319236
0002d0 58 cb 4d 3b d1 90 82 39 ed f8 4a 3b 00 00 00 00
       0.003140172 0.0002490343 0.0030971125 0.0
0002e0 4c 0f 68 36 31 ba 59 30 c2 ec b3 35 63 34 83 36
       3.4579598e-06 7.9208734e-10 1.3405445e-06 3.910203e-06
0002f0 67 a8 53 37 0a 01 c8 38 40 1e da 34 ee 25 2b 3b
       1.2615789e-05 9.536937e-05 4.0627674e-07 0.0026115137
000300 00 00 00 00 00 00 00 00 00 00 00 00 00 00 00 00
       0.0 0.0 0.0 0.0
000310 00 00 00 00 00 00 00 00 00 00 00 00 00 00 00 00
       0.0 0.0 0.0 0.0
000320 00 00 00 00 00 00 00 00 00 00 00 00 00 00 00 00
       0.0 0.0 0.0 0.0
000330 00 00 00 00 00 00 00 00 00 00 00 00 00 00 00 00
       0.0 0.0 0.0 0.0
000340 ba 4f e6 32 6c 17 d9 32 27 c5 e5 34 2f ee 8c 35
       2.681178e-08 2.5272776e-08 4.279802e-07 1.0500133e-06
000350 6f f9 8c 36 10 3a a6 35 29 f2 90 36 00 00 00 00
       4.201363e-06 1.2384862e-06 4.3197256e-06 0.0
000360 3f 84 86 34 9d c2 30 2e 95 dc a2 33 f4 39 2f 34
       2.5055667e-07 4.0190618e-11 7.5838365e-08 1.6319228e-07
000370 a8 31 33 32 96 f5 85 2f a8 84 18 33 bd 0e 16 36
       1.0430462e-08 2.4367058e-10 3.5510908e-08 2.236032e-06
000380 00 3c 9e 33 7b 96 95 31 ee 33 ec 32 78 ce 3c 30
       7.368362e-08 4.3535784e-09 2.749763e-08 6.868741e-10
000390 5a cb 83 31 da cd d8 34 9c af 07 32 00 00 00 00
       3.83572e-09 4.0382912e-07 7.897963e-09 0.0
0003a0 ab a2 e2 34 32 20 1c 2f ec 4d 41 34 19 8c 83 34
       4.2214137e-07 1.4199555e-10 1.8002874e-07 2.4502586e-07
0003b0 68 68 26 2e 96 3f 56 34 58 a0 6a 33 5b ee 2e 34
       3.783676e-11 1.9953436e-07 5.4628202e-08 1.6291726e-07
0003c0 53 a0 68 2f 46 4a 84 2c 79 b7 73 2e 05 42 8a 2e
       2.1157236e-10 3.7599117e-12 5.541476e-11 6.287241e-11
0003d0 2d 25 a9 2b 36 46 80 2f 00 00 00 00 00 00 00 00
       1.2018491e-12 2.3332952e-10 0.0 0.0
0003e0 a1 b6 54 2f 84 9f 31 2d 0c c2 6f 2f dd 03 d3 2d
       1.934617e-10 1.0096705e-11 2.1805863e-10 2.3989638e-11
0003f0 05 66 72 2a 41 b5 0d 2f 04 41 80 2e 89 64 03 2f
       2.1529313e-13 1.288827e-10 5.832315e-11 1.1950098e-10
