results/Test_citation/version_19/checkpoints/epoch=800-step=801.ckpt (torch, 28113 bytes, 27 tensors)

simplicial_nn.0.W0 f4 [1, 16]
-0.8254173 -0.20073308 -0.0066604526 0.6058933 -0.5059271 0.41308594 0.59183425 0.18880436
0.18125503 0.44906616 -0.5400601 -0.44011 0.54455066 -0.15161693 0.13788167 -0.3469179
00000000: 8c4e 53bf f98c 4dbe ed3f dabb d31b 1b3f
00000010: 7084 01bf 0080 d33e 7382 173f ee55 413e
00000020: eb9a 393e 00ec e53e 6141 0abf 1956 e1be
00000030: ac67 0b3f 7841 1bbe da30 0d3e 399f b1be

simplicial_nn.0.W1 f4 [2, 1, 16]
-0.40060526 -0.31885183 0.24674375 0.13144204 -0.20998603 0.47615352 0.16876072 -0.470888
0.3752864 -0.35159245 -0.09098196 -0.41564077 0.08071118 -0.30475754 0.47497207 -0.4977759
-0.30990714 -0.08824483 0.2529821 0.097465195 -0.21847755 -0.28500617 0.35231003 -0.14981069
0.50139356 0.40619186 -0.16807508 -0.13555157 -0.32326514 0.23123473 -0.13660285 -0.07811135
00000000: 221c cdbe 8c40 a3be 65aa 7c3e be98 063e
00000010: 9406 57be 65ca f33e 9ccf 2c3e 3b18 f1be
00000020: 8a25 c03e ed03 b4be c054 babd dece d4be
00000030: e74b a53d 2e09 9cbe 8a2f f33e 7cdc febe
00000040: 26ac 9ebe b5b9 b4bd df86 813e d59b c73d
00000050: 94b8 5fbe 54ec 91be fb61 b43e f967 19be
00000060: 545b 003f 61f8 cf3e e01b 2cbe 08ce 0abe
00000070: 0283 a5be ccc8 6c3e 9ee1 0bbe d8f8 9fbd

simplicial_nn.0.W2 f4 [2, 1, 16]
0.411587 0.10063607 0.29059646 -0.28566322 0.4625426 0.07788842 -0.4660404 0.119134806
-0.20850323 -0.32217714 0.2755862 -0.36442018 0.17315346 -0.44479162 -0.04482068 0.04879737
-0.011863351 0.350795 -0.028397541 0.34319106 0.27519393 0.14726369 0.32757214 -0.43876114
-0.10054733 -0.056582794 0.024778306 -0.29683858 -0.17487356 0.20491701 0.18544021 0.06838989
00000000: 88bb d23e 491a ce3d 0fc9 943e 7342 92be
00000010: 62d2 ec3e f783 9f3d d99c eebe f3fc f33d
00000020: df81 55be 67f4 a4be a219 8d3e 4895 babe
00000030: 244f 313e babb e3be e495 37bd c0df 473d
00000040: 805e 42bc 679b b33e f6a1 e8bc bdb6 af3e
00000050: 38e6 8c3e 4bcc 163e 89b7 a73e 4da5 e0be
00000060: c2eb cdbd 5cc3 67bd e0fb ca3c 3afb 97be
00000070: 0e12 33be c4d5 513e 0ae4 3d3e 0010 8c3d

simplicial_nn.2.W0 f4 [16, 16]
-0.3343702 0.15314823 -0.12136382 0.13028497 0.07327366 -0.53762686 -0.47245184 0.077117264
-0.066503584 0.5980032 -0.3942415 -0.12912917 -0.055493116 0.19562137 -0.018512726 -0.54429704
0.5751936 0.27169955 0.13421291 0.26874655 -0.5733885 0.25540853 0.05633241 -0.5690249
0.05028798 0.54416317 -0.59673685 -0.019850146 -0.36939618 -0.22301283 -0.15554766 0.121633455
-0.32557774 -0.015926564 -0.2657319 -0.3810088 -0.4381868 -0.092607856 0.028128207 0.6070158
0.58949304 -0.5174798 -0.07359688 -0.036670122 -0.16009438 -0.55735964 -0.50677 0.024508353
0.37184197 0.5831132 0.17616692 0.1101733 0.3433483 -0.32115513 0.03101778 -0.05196015
-0.47797707 -0.037400603 0.19857015 0.6112807 -0.3580056 0.008046915 -0.57904464 0.21614805
-0.4428092 -0.52133363 -0.520153 0.56867844 0.40265757 0.053895593 0.29028374 0.07466328
-0.6121387 -0.18011913 0.38525552 -0.5011383 -0.27436772 -0.16601309 -0.25735736 0.42379445
0.06575933 0.13270882 0.26781622 0.30990908 0.48481077 -0.5451692 -0.49288344 0.40096712
0.36958063 -0.5951038 -0.4765909 -0.07950315 -0.3823458 0.47962156 -0.55523723 0.24531163
0.331455 0.33365723 0.38416332 -0.044425074 0.120404296 -0.55635816 -0.538341 -0.27667463
0.4252529 -0.35059854 -0.17467251 -0.342515 -0.13056481 -0.337754 0.056980915 0.545539
0.17260474 0.45608437 0.005369836 -0.38182354 0.31147185 -0.45142663 0.19238335 -0.30012876
-0.05536971 -0.48358464 -0.23622023 0.084168404 -0.31900328 -0.31095383 -0.27533576 0.22123063
0.5123743 0.36918497 0.18817817 0.31849012 0.44224915 -0.4675841 0.048915863 -0.11280132
-0.3605705 -0.13934106 0.48070574 0.4051882 -0.11938682 0.479744 -0.084667265 0.35676354
0.060987234 -0.5263023 -0.4220121 -0.17577028 0.26569423 0.2084887 0.51943463 -0.5033985
-0.21013038 -0.22241482 -0.15033984 0.5478018 -0.36407036 0.22509609 0.5850031 -0.39135608
0.21685421 0.10263556 -0.5750154 0.32999605 -0.4591332 0.23500443 0.13516265 0.08883566
-0.025877237 0.50771254 -0.28832176 -0.11776438 0.38771826 0.5090113 -0.22374949 -0.058380842
-0.21992826 -0.32413194 -0.5644474 -0.4094468 0.4346102 0.49808925 -0.24561268 0.59483904
0.28897858 0.1829341 0.5230079 -0.18959767 -0.47047162 -0.45101684 0.5596759 0.5622665
-0.5444797 0.5248558 -0.45448852 0.2129335 0.054886885 0.4256596 -0.60645914 0.61609566
0.2795796 0.0333212 0.60400254 0.34348038 -0.0334149 -0.587914 0.1527214 0.1541427
0.034294605 -0.2162481 0.16260296 -0.4243259 0.36261052 -0.3483729 0.36063957 0.2180013
0.19500428 -0.21320623 0.2074582 -0.2540657 0.5120943 -0.35259074 0.5471515 0.114708364
0.40270972 0.3203181 -0.11378694 -0.4666843 0.14070307 -0.4248351 -0.1981937 -0.3632531
0.42016238 0.100756645 -0.60651207 0.4199476 -0.2054798 0.11646522 -0.124368876 0.4874363
-0.43066126 -0.1419011 -0.13476962 0.2585584 0.5545916 -0.5039639 -0.43044057 0.6048402
-0.047495425 0.32907867 0.30090958 -0.4744728 -0.5417267 -0.11582899 0.5646817 0.44492334
00000000: 9232 abbe e4d2 1c3e 988d f8bd 6c69 053e
00000010: 8010 963d eaa1 09bf 35e5 f1be a8ef 9d3d
00000020: 0833 88bd bd16 193f 06da c9be 703a 04be
00000030: c04c 63bd f850 483e 00a8 97bc 0d57 0bbf
00000040: e33f 133f 341c 8b3e 1c6f 093e 2699 893e
00000050: 97c9 12bf e8c4 823e d0bc 663d 9eab 11bf
00000060: c5fa 4d3d 474e 0b3f bfc3 18bf c69c a2bc
00000070: 7f21 bdbe 7a5d 64be e347 1fbe f61a f93d
00000080: 20b2 a6be 6d78 82bc 030e 88be 9613 c3be
00000090: 055a e0be 30a9 bdbd 206d e63c 6365 1b3f
000000a0: 04e9 163f 8e79 04bf f6b9 96bd 6933 16bd
000000b0: c8ef 23be 1faf 0ebf aebb 01bf bec5 c83c
000000c0: 1262 be3e e846 153f 1a65 343e 8aa2 e13d
000000d0: 59cb af3e 726e a4be 0019 fe3c 2bd4 54bd
000000e0: 69b9 f4be 6031 19bd f955 4b3e e47c 1c3f
000000f0: 834c b7be 35d7 033c 453c 14bf ea55 5d3e
00000100: e3b7 e2be 1f76 05bf bf28 05bf e994 113f
00000110: 2229 ce3e a0c1 5c3d 12a0 943e 10e9 983d
00000120: 1fb5 1cbf 2671 38be 3640 c53e 9a4a 00bf
00000130: ed79 8cbe 56ff 29be 58c4 83be 96fb d83e
00000140: d4ac 863d d2e4 073e 351f 893e 67ac 9e3e
00000150: 1e39 f83e 3590 0bbf 385b fcbe 904b cd3e
00000160: ac39 bd3e b958 18bf b903 f4be 8cd2 a2bd
00000170: d4c2 c3be f590 f53e 0724 0ebf f932 7b3e
00000180: 78b4 a93e 1fd5 aa3e 0eb1 c43e 11f7 35bd
00000190: 8796 f63d 7d6d 0ebf b7d0 09bf 4ca8 8dbe
000001a0: c0ba d93e a781 b3be 5add 32be 205e afbe
000001b0: c8b2 05be 18ee acbe d264 693d 72a8 0b3f
000001c0: 4cbf 303e e483 e93e 73f5 af3b 607e c3be
000001d0: 3d79 9f3e 6421 e7be 2400 453e 7aaa 99be
000001e0: 59cb 62bd 6898 f7be b7e3 71be 7c60 ac3d
000001f0: 6654 a3be 5735 9fbe cff8 8cbe 488a 623e
00000200: f62a 033f d005 bd3e c7b1 403e 2311 a33e
00000210: 7b6e e23e 2f67 efbe 005c 483d 6104 e7bd
00000220: b29c b8be 6caf 0ebe 101f f63e d474 cf3e
00000230: 1481 f4bd 01a1 f53e 0866 adbd b6a9 b63e
00000240: c0cd 793d bfbb 06bf f811 d8be 20fd 33be
00000250: 1309 883e 107e 553e abf9 043f b9de 00bf
00000260: 6b2c 57be b6c0 63be b0f2 19be bd3c 0c3f
00000270: 6e67 babe 977f 663e c3c2 153f d35f c8be
00000280: 080f 5e3e 9832 d23d 3634 13bf 3ef5 a83e
00000290: 8213 ebbe 00a5 703e 1468 0a3e 78ef b53d
000002a0: 80fc d3bc 73f9 013f e99e 93be 742e f1bd
000002b0: 0283 c63e 914e 023f 961e 65be c020 6fbd
000002c0: e034 61be 9ff4 a5be a07f 10bf 03a3 d1be
000002d0: 3a85 de3e 8e05 ff3e e481 7bbe 5f47 183f
000002e0: 00f5 933e 1453 3b3e d9e3 053f e425 42be
000002f0: a8e1 f0be aeeb e6be eb46 0f3f b3f0 0f3f
00000300: 0663 0bbf f35c 063f b8b2 e8be 3d0b 5a3e
00000310: 12d1 603d 0ef0 d93e e840 1bbf 72b8 1d3f
00000320: 0f25 8f3e d07b 083d e99f 1a3f a9dc af3e
00000330: 10de 08bd 8881 16bf 0063 1c3e 95d7 1d3e
00000340: 8078 0c3d 2470 5dbe 6481 263e 3f41 d9be
00000350: 16a8 b93e ef5d b2be c0a5 b83e bc3b 5f3e
00000360: 34af 473e bc52 5abe ec6f 543e e614 82be
00000370: 9d18 033f c686 b4be 1f12 0c3f 38ec ea3d
00000380: f82f ce3e bc00 a43e 2109 e9bd 3ff1 eebe
00000390: 7714 103e fc83 d9be 4af3 4abe 4ffc b9be
000003a0: 861f d73e 8059 ce3d 6044 1bbf 5f03 d73e
000003b0: 4c69 52be 5185 ee3d 1cb5 febd 4091 f93e
000003c0: a27f dcbe 864e 11be 0c01 0abe c461 843e
000003d0: b7f9 0d3f c703 01bf b562 dcbe cfd6 1a3f
000003e0: 908a 42bd 007d a83e d210 9a3e 19ee f2be
000003f0: 9aae 0abf c037 edbd fb8e 103f fecc e33e

simplicial_nn.2.W1 f4 [2, 16, 16]
0.06860244 -0.19495633 -0.1904512 0.15368745 -0.17524244 0.09778744 0.17004871 0.13541535
0.021673188 -0.12003117 -0.07101016 0.13223869 0.1830115 0.15536958 -0.0046843737 -0.12492366
-0.054919943 0.14010625 -0.13478649 0.09124355 0.1278049 0.1347169 -0.20408586 0.05107152
0.081690244 -0.0072775185 0.095057435 0.08155514 0.06734517 0.07004585 0.13618979 0.048820417
-0.13441275 0.1772177 -0.15235648 0.03852425 -0.000557952 0.08878061 0.061615705 0.19554022
0.01833519 -0.039121345 -0.12992848 -0.017318297 0.011574179 0.2017545 -0.02247749 0.042033277
-0.18234517 0.011944622 0.12521756 -0.10267838 0.099073425 -0.07429442 -0.02521111 0.050613906
0.061042346 0.072704315 0.1860347 0.15448008 0.009492278 -0.1567083 0.085873075 -0.14828211
-0.030730113 0.14336786 0.18931675 -0.16509742 -0.00639759 -0.16942848 0.034834474 0.17154393
-0.016908124 0.039510027 0.13945308 -0.1476831 -0.16010381 0.081796676 -0.096865095 0.17604426
-0.10982997 0.04532837 0.1314183 -0.06898054 0.11981537 -0.18370125 0.13907275 -0.18894914
-0.07963252 0.051217914 -0.0020483178 0.20764044 -0.1752602 0.008126158 -0.10532096 2.010793e-05
0.09473972 -0.044142727 -0.15435228 -0.013863437 0.1674533 -0.17524752 0.0036685914 -0.14361435
0.12083569 0.09296322 -0.030680405 0.20589286 0.08978665 -0.061792478 -0.15906559 -0.07524488
0.14164427 -0.08417807 -0.11407039 -0.1721706 -0.15588264 0.14604741 -0.06317784 0.12068003
0.07274794 0.021361887 0.18203783 -0.047171373 0.027348101 -0.16928504 0.038885828 -0.11113489
-0.08524136 0.026897958 0.14266095 0.19285007 -0.1049222 0.18361172 0.03149472 0.12452933
0.13796663 0.09746981 -0.11070965 -0.06773844 -0.16348049 -0.09665848 0.17908835 0.1367086
0.09678252 -0.10311626 0.06305335 -0.17442451 0.090981424 -0.016411975 -0.097851604 -0.14251398
-0.14500166 0.16819865 0.18158971 0.06652637 0.04979086 0.2035162 0.17639546 0.17834389
-0.145329 -0.09791482 0.14844346 -0.051287323 -0.07111092 -0.1432609 -0.1397375 -0.014046848
-0.05904703 0.03272052 0.016543224 -0.09586214 -0.19801645 -0.16980949 0.0369419 0.039027855
0.09543264 -0.12786815 0.14211741 0.08613241 -0.19841982 0.1855633 -0.06840815 0.12181157
0.19939935 0.1878581 -0.09788776 0.01495561 -0.039637834 -0.09937116 0.022512674 0.039194956
0.053714782 -0.1160042 -0.03597595 -0.13038108 -0.010977915 0.20187178 0.15415817 -0.003558541
0.051134918 0.10499871 -0.11214015 -0.12090403 0.15130702 -0.09463477 -0.10282586 0.039016932
-0.18727155 -0.10412583 -0.098134845 -0.1571276 -0.16872953 0.09260613 0.1577889 -0.13076745
0.055139095 -0.002802074 0.022406965 -0.0111013055 -0.14732194 -0.06876935 0.07923868 -0.0059729964
-0.05449397 -0.008809091 0.11046257 -0.042689376 0.12923016 0.19614813 0.12063965 -0.12371274
-0.09085695 -0.15553656 0.14404285 0.085602306 0.1876018 0.052806113 -0.03534616 0.011064725
-0.06704956 -0.018877432 -0.18615778 0.061919063 0.13734293 -0.12059588 0.10655826 0.04719159
0.1087316 0.05920759 0.13273224 -0.12381936 -0.036560446 -0.12073764 -0.028713495 -0.1015802
00000000: 707f 8c3d a2a2 47be a405 43be 3e60 1d3e
00000010: c172 33be c844 c83d 4021 2e3e 52aa 0a3e
00000020: f88b b13c e7d2 f5bd c66d 91bd 9469 073e
00000030: 5e67 3b3e 3419 1f3e 607f 99bb fad7 ffbd
00000040: bcf3 60bd 0378 0f3e 7805 0abe e6dd ba3d
00000050: 4adf 023e 3af3 093e e2fb 50be 5f30 513d
00000060: 374d a73d 4078 eebb 79ad c23d 6206 a73d
00000070: 44ec 893d 3374 8f3d 5675 0b3e ebf7 473d
00000080: 7fa3 09be 8f78 353e 5603 1cbe 9bcb 1d3d
00000090: 8643 12ba 9cd2 b53d c060 7c3d b23b 483e
000000a0: ae33 963c b43d 20bd f90b 05be 1adf 8dbc
000000b0: a0a1 3d3c bb98 4e3e b722 b8bc 162b 2c3d
000000c0: b1b8 3abe 60b3 433c 0839 003e 0b49 d2bd
000000d0: 02e7 ca3d ac27 98bd 8887 cebc 8750 4f3d
000000e0: 8a07 7a3d 00e6 943d e17f 3e3e 0730 1e3e
000000f0: 8085 1b3c 2478 20be 39de af3d 44d7 17be
00000100: b8bd fbbc 06cf 123e 40dc 413e 4c0f 29be
00000110: e0a2 d1bb a97e 2dbe 98ae 0e3d 36a9 2f3e
00000120: e882 8abc 44d5 213d cacc 0e3e 3d3a 17be
00000130: 41f2 23be 0485 a73d 3561 c6bd f244 343e
00000140: 89ee e0bd 3eaa 393d 8592 063e ab45 8dbd
00000150: c361 f53d 2e1c 3cbe 1669 0e3e e27b 41be
00000160: 6016 a3bd e0c9 513d 123d 06bb b29f 543e
00000170: 6977 33be 9423 053c 84b2 d7bd 73ad a837
00000180: e606 c23d 01cf 34bd 860e 1ebe 7823 63bc
00000190: e178 2b3e 1674 33be c06c 703b a40f 13be
000001a0: b478 f73d 8063 be3d 7955 fbbc 94d5 523e
000001b0: 10e2 b73d 1c1a 7dbd 17e2 22be fd19 9abd
000001c0: 320b 113e 8d65 acbd bd9d e9bd 7d4d 30be
000001d0: b39f 1fbe 748d 153e 6263 81bd 1727 f73d
000001e0: dffc 943d 20ff ae3c 2068 3a3e c536 41bd
000001f0: 2009 e03c 0f59 2dbe bf46 1f3d b09a e3bd
00000200: 0693 aebd 1b59 dc3c b615 123e 7d7a 453e
00000210: 73e1 d6bd b604 3c3e 9c00 013d 3c09 ff3d
00000220: 2047 0d3e 409e c73d bebb e2bd 74ba 8abd
00000230: 6e67 27be e2f4 c5bd f062 373e 57fd 0b3e
00000240: ea35 c63d 9e2e d3bd 1d22 813d 579c 32be
00000250: 7854 ba3d 6872 86bc 6c66 c8bd 2fef 11be
00000260: 517b 14be 443c 2c3e a7f2 393e fa3e 883d
00000270: 80f1 4b3d 8d66 503e 03a1 343e c89f 363e
00000280: 20d1 14be 9187 c8bd 9001 183e a812 52bd
00000290: 9aa2 91bd fcb2 12be 5917 0fbe c024 66bc
000002a0: 4cdb 71bd f405 063d a885 873c 5f53 c4bd
000002b0: d3c4 4abe 8ae2 2dbe 6450 173d acdb 1f3d
000002c0: 3072 c33d deef 02be 3a87 113e 3066 b03d
000002d0: 912e 4bbe 4e04 3e3e 9219 8cbd 5878 f93d
000002e0: 582f 4c3e e05d 403e 6179 c8bd 6008 753c
000002f0: 485b 22bd 1b83 cbbd 806c b83c e48a 203d
00000300: 0804 5c3d 9c93 edbd 855b 13bd 9e82 05be
00000310: b6dc 33bc 7ab7 4e3e a4db 1d3e 6936 69bb
00000320: d972 513d 9009 d73d bca9 e5bd 889c f7bd
00000330: 3af0 1a3e e0cf c1bd 5d96 d2bd 38d0 1f3d
00000340: 1dc4 3fbe ec3f d5bd ecfa c8bd 0fe6 20be
00000350: 6fc7 2cbe 48a8 bd3d 6a93 213e e7e7 05be
00000360: 88d9 613d 00a3 37bb d08e b73c 40e2 35bc
00000370: 90db 16be f2d6 8cbd e447 a23d 20b9 c3bb
00000380: 1235 5fbd 0154 10bc 333a e23d 0edb 2ebd
00000390: e954 043e 0edb 483e ec11 f73d 1b5d fdbd
000003a0: 3513 babd fa44 1fbe f87f 133e 4350 af3d
000003b0: b01a 403e 394b 583d 23c7 10bd d248 353c
000003c0: 4851 89bd d8a4 9abc 25a0 3ebe d89e 7d3d
000003d0: a0a3 0c3e f9fa f6bd 383b da3d f84b 413d
000003e0: acae de3d a883 723d f6ea 073e 0195 fdbd
000003f0: 68c0 15bd 4c45 f7bd 9038 ebbc 4809 d0bd

simplicial_nn.2.W2 f4 [2, 16, 16]
0.110298306 -0.062340856 0.12504473 -0.19718239 -0.1129236 -0.15879458 -0.04436271 -0.17406961
0.065782845 -0.1395311 0.12676516 -0.029915422 -0.166076 0.0016475469 0.15384367 -0.0657631
-0.12345035 -0.10746338 0.14197311 0.07179576 0.06709775 -0.045611426 -0.1108892 0.031759266
0.030160174 0.13356781 0.078593224 -0.050915554 -0.1719397 -0.05304691 -0.020262271 0.012661323
0.19891857 -0.17871656 0.107806526 0.13715853 0.047722057 -0.07539767 0.14052814 0.15505087
0.16530564 -0.18866056 -0.055169873 -0.03494958 0.051730663 0.1895407 -0.18886165 -0.11217934
-0.06978732 0.11507759 0.20442991 -0.1802295 0.011587753 0.09790975 -0.04182972 -0.16959848
-0.12357721 -0.06408824 0.03337699 -0.122161426 0.052658796 -0.17990972 0.061108407 -0.20512171
0.020689487 -0.071762204 0.14226532 -0.1808314 -0.059917346 0.05172625 -0.08509382 -0.07287814
0.13578802 -0.026055574 -0.06926979 -0.10732731 -0.087221324 0.16212085 0.044148654 0.04558155
0.12080906 -0.07056236 0.153092 0.07353288 0.16802865 0.045572236 -0.1765249 0.052758064
0.11612453 -0.11296229 -0.16859919 0.1368253 0.0254606 0.1433617 -0.0035952928 -0.0674296
-0.16265216 0.09973038 0.051722754 0.1950722 -0.150562 -0.1131891 -0.18523863 -0.03208496
0.0702763 -0.017062888 0.11594458 0.028404025 -0.17971751 -0.14353557 0.2034183 0.18668911
-0.15547347 0.19081238 0.2021006 0.017678926 -0.13289453 0.12078938 -0.060682774 0.18551326
-0.01105783 0.0005135089 0.08722087 -0.10531951 0.054151 -0.07284261 0.027621323 -0.11472867
-0.16545074 -0.086021274 0.11151031 -0.06554429 -0.1473852 0.07312015 -0.054528266 0.08792663
0.14112091 0.191161 0.06959969 0.13948539 -0.09582764 -0.18183595 0.024734782 -0.08207761
0.15696792 -0.17766753 0.16251583 0.11005175 0.06258596 -0.009756148 -0.06702858 -0.1386064
0.0884996 0.105238676 0.0691308 0.15599565 -0.062435776 -0.073967844 0.2024398 0.0048033493
0.18301567 -0.001214698 -0.18635798 -0.19928955 -0.13989156 0.13178656 0.100914925 0.1339944
0.011648834 -0.0973096 0.15909272 0.045063198 -0.19414127 -0.030677438 -0.027561292 -0.18999147
-0.15973139 0.1453681 -0.05396755 0.002410084 0.022106111 0.03615892 -0.004150152 0.03425604
-0.17203785 -0.018470123 0.10149661 0.04553984 0.15223941 -0.17027368 -0.1125254 -0.10433027
0.011925543 0.19892544 0.04253759 -0.11700083 -0.07694097 0.06530097 0.070931524 -0.03320773
0.0044677546 0.0046855807 -0.052985642 -0.08624984 0.032422796 -0.18887892 0.110715225 -0.13319273
-0.025889665 -0.11788992 0.055089086 0.040511444 0.055276006 -0.083245985 0.14700305 0.07912859
-0.18884589 0.1150597 0.044337213 0.15552798 -0.106704615 -0.11710234 -0.03159663 0.009137616
-0.09613972 0.058286976 0.057701893 0.009990174 0.15277222 -0.14386067 0.06451574 0.15997043
0.01977358 0.18776062 -0.10933126 0.020511571 -0.09134534 -0.11636879 -0.1422395 -5.8406502e-05
-0.15896128 -0.07567717 -0.018687978 -0.07446033 0.12981299 -0.03685333 0.2013998 0.03227368
-0.14088269 0.09338644 0.09435594 -0.09233922 -0.057452917 0.008001775 0.17297539 0.07193765
00000000: 14e4 e13d 2059 7fbd ba0b 003e 2eea 49be
00000010: 7d44 e7bd 0c9b 22be acb5 35bd 4e3f 32be
00000020: 28b9 863d 3ee1 0ebe bace 013e 3011 f5bc
00000030: d40f 2abe 80f2 d73a 3289 1d3e ceae 86bd
00000040: 89d3 fcbd c315 dcbd 6661 113e a809 933d
00000050: 8c6a 893d 0cd3 3abd e019 e3bd 0116 023d
00000060: 7812 f73c 00c6 083e 7cf5 a03d d48c 50bd
00000070: f610 30be b747 59bd 10fd a5bc 7071 4f3c
00000080: 4fb1 4b3e 7901 37be abc9 dc3d 4973 0c3e
00000090: 3478 433d 186a 9abd 9ce6 0f3e a8c5 1e3e
000000a0: e245 293e 3c30 41be cef9 61bd 4a27 0fbd
000000b0: 88e3 533d f516 423e f364 41be 48be e5bd
000000c0: a8ec 8ebd cdad eb3d 1356 513e 158e 38be
000000d0: 8fda 3d3c e884 c83d a455 2bbd 39ab 2dbe
000000e0: 0c16 fdbd b240 83bd 50b6 083d c52f fabd
000000f0: c0b0 573d 413a 38be cf4c 7a3d 6d0b 52be
00000100: 007d a93c 10f8 92bd 00ae 113e de2b 39be
00000110: e46b 75bd e8de 533d ab45 aebd 2241 95bd
00000120: 040c 0b3e 8072 d5bc 52dd 8dbd 6cce dbbd
00000130: 18a1 b2bd 0203 263e 38d5 343d b8b3 3a3d
00000140: be6a f73d 0083 90bd 26c4 1c3e 6898 963d
00000150: b40f 2c3e f4a9 3a3d f2c2 34be d718 583d
00000160: b3d2 ed3d c658 e7bd 44a5 2cbe ee1b 0c3e
00000170: c092 d03c 69cd 123e 019f 6bbb 8818 8abd
00000180: 4a8e 26be 713f cc3d 3ddb 533d 02c1 473e
00000190: ed2c 1abe b0cf e7bd 32af 3dbe 856b 03bd
000001a0: 05ed 8f3d 78c7 8bbc 5a74 ed3d 8faf e83c
000001b0: de07 38be fdfa 12be e34c 503e 6e2b 3f3e
000001c0: 7034 1fbe 5264 433e 76f3 4e3e 65d3 903c
000001d0: 8115 08be 6c60 f73d 808e 78bd 30f7 3d3e
000001e0: e72b 35bc 009d 063a dba0 b23d c1b1 d7bd
000001f0: 70cd 5d3d 822e 95bd 1d46 e23c ddf6 eabd
00000200: eb6b 29be ec2b b0bd 845f e43d 163c 86bd
00000210: 25ec 16be 04c0 953d 0859 5fbd e112 b43d
00000220: 0082 103e b6bf 433e 488a 8e3d 42d5 0e3e
00000230: 4841 c4bd 3433 3abe 99a0 ca3c 4e18 a8bd
00000240: 33bc 203e 7aee 35be 8d6a 263e d062 e13d
00000250: 112d 803d 40d8 1fbc 4846 89bd d6ee 0dbe
00000260: 473f b53d 6087 d73d 7394 8d3d 53bd 1f3e
00000270: a8bc 7fbd 747c 97bd 614c 4f3e 6a65 9d3b
00000280: 7668 3b3e 8036 9fba a0d4 3ebe 8f12 4cbe
00000290: bc3f 0fbe 0ef3 063e 7cac ce3d d435 093e
000002a0: c0da 3e3c 414a c7bd 34e9 223e 3094 383d
000002b0: f8cc 46be 404f fbbc 38c8 e1bc 208d 42be
000002c0: a090 23be 60db 143e 140d 5dbd 80f2 1d3b
000002d0: e017 b53c 601b 143d 00fe 87bb 1050 0c3d
000002e0: b12a 30be a84e 97bc 74dd cf3d fc87 3a3d
000002f0: a6e4 1b3e 395c 2ebe b873 e6bd 1cab d5bd
00000300: 5a63 433c 1cb3 4b3e e53b 2e3d 229e efbd
00000310: 3a93 9dbd 84bc 853d 8c44 913d d404 08bd
00000320: 3e66 923b 8089 993b 7907 59bd c2a3 b0bd
00000330: c4cd 043d 7a69 41be aabe e23d ad63 08be
00000340: 9016 d4bc 4570 f1bd 18a5 613d 54ef 253d
00000350: 1869 623d df7c aabd f887 163e 2c0e a23d
00000360: d160 41be 6ca4 eb3d f09a 353d ba42 1f3e
00000370: f387 dabd 5ad3 efbd 786b 01bd f0b5 153c
00000380: e7e4 c4bd 53be 6e3d d258 6c3d d4ad 233c
00000390: 5270 1c3e 3650 13be d420 843d 4acf 233e
000003a0: 34fc a13c 5244 403e 11e9 dfbd e207 a83c
000003b0: 4413 bbbd c352 eebd 3ba7 11be 81f9 74b8
000003c0: bfc6 22be a2fc 9abd 8817 99bc a87e 98bd
000003d0: b2ed 043e 84f3 16bd c03b 4e3e 6831 043d
000003e0: 8d43 10be 6441 bf3d b03d c13d 581c bdbd
000003f0: c053 6bbd e019 033c 7620 313e 0c54 933d

simplicial_nn.4.W0 f4 [16, 1]
-0.80319935 -0.04606915 -0.7409748 0.7204706 0.47196624 0.086137235 -0.38982445 -0.3384361
-0.20052886 -0.77183723 -0.22138022 -0.7030134 -0.17605 -0.34492967 0.42033213 0.09678737
00000000: 799e 4dbf 01b3 3cbd 86b0 3dbf c370 383f
00000010: 8fa5 f13e b868 b03d 1297 c7be 7f47 adbe
00000020: 7057 4dbe 2097 45bf 7fb1 62be b0f8 33bf
00000030: 7446 34be 9f9a b0be c635 d73e 7538 c63d

simplicial_nn.4.W1 f4 [2, 16, 1]
-0.6384319 -0.6022781 0.06847845 0.677843 0.71904695 -0.5484043 0.5461314 0.6604966
-0.6352956 -0.5989139 -0.1767854 0.5679078 -0.18433744 -0.2657386 -0.45401233 -0.29089004
0.7883424 0.026086492 0.74188393 0.51672673 -0.020055173 -0.44010776 -0.42312786 -0.29681337
0.5111935 -0.47934017 -0.53408074 -0.08889469 0.6032157 0.68960625 0.36662504 -0.51238996
00000000: 4670 23bf e62e 1abf 6e3e 8c3d 1e87 2d3f
00000010: 7613 383f 3964 0cbf 44cf 0b3f 4e16 293f
00000020: bca2 22bf 6c52 19bf 3b07 35be 6862 113f
00000030: f4c2 3cbe e40e 88be 4e74 e8be 8aef 94be
00000040: cfd0 493f 57b3 d53c 1bec 3d3f 3448 043f
00000050: bf4a a4bc ce55 e1be 37a4 d8be ecf7 97be
00000060: 94dd 023f 136c f5be 84b9 08bf 6b0e b6bd
00000070: 586c 1a3f 098a 303f 47b6 bb3e fd2b 03bf

simplicial_nn.4.W2 f4 [2, 16, 1]
-0.26822358 -0.6760238 -0.57070553 -0.24805512 -0.21633327 -0.00090920925 -0.76084465 0.5057901
-0.38720304 0.50542855 0.41609967 -0.2284474 -0.42005736 -0.6750971 0.78506607 0.7783641
0.29200432 0.44925892 0.16461578 -0.48110947 0.13300689 0.64456916 0.6129116 0.6042535
-0.71016896 -0.027920961 -0.5843996 0.69866556 0.765584 0.6006698 -0.5733356 -0.3643846
00000000: 9a54 89be e50f 2dbf c219 12bf 2902 7ebe
00000010: 7886 5dbe 0058 6eba b7c6 42bf 767b 013f
00000020: 7a3f c6be c463 013f 040b d53e 1dee 69be
00000030: c211 d7be 2ad3 2cbf 17fa 483f df42 473f
00000040: 9781 953e 4405 e63e 0a91 283e fb53 f6be
00000050: f532 083e 7c02 253f c6e7 1c3f 5bb0 1a3f
00000060: a2cd 35bf 80ba e4bc 369b 15bf bfdb 323f
00000070: 50fd 433f 7fc5 193f 1fc6 12bf 9e90 babe

exp_avg f4 [1, 16]
0.0 -9.025687e-09 -1.6409758e-05 -0.00010654849 0.0 5.5642962e-05 -6.197023e-05 -5.48814e-05
-7.537961e-05 -6.9498033e-06 0.0 0.0 9.466425e-05 0.0 -0.00014023566 0.0
00000000: 0000 0000 640f 1bb2 b0a7 89b7 c972 dfb8
00000010: 0000 0000 2d62 6938 04f6 81b8 7430 66b8
00000020: 1f15 9eb8 5b32 e9b6 0000 0000 0000 0000
00000030: 7b86 c638 0000 0000 390c 13b9 0000 0000

exp_avg_sq f4 [1, 16]
0.0 1.2747804e-14 0.00020463184 0.0063570044 0.0 0.0033260204 0.0028213854 0.0017892938
0.0027461902 5.877124e-07 0.0 0.0 0.0058232066 0.0 0.0150522385 0.0
00000000: 0000 0000 dfa4 6528 7192 5639 6b4e d03b
00000010: 0000 0000 5df9 593b fee6 383b bd86 ea3a
00000020: 6df9 333b 4ac3 1d35 0000 0000 0000 0000
00000030: 99d0 be3b 0000 0000 aa9d 763c 0000 0000

exp_avg f4 [2, 1, 16]
0.0 8.9104955e-09 -9.270131e-07 -4.0613186e-06 0.0 2.3302725e-06 -2.801861e-06 -2.3755454e-06
-2.7737753e-06 3.2906467e-08 0.0 0.0 3.6788433e-06 0.0 -5.7756297e-06 0.0
0.0 1.6187088e-09 -6.51884e-08 -3.858131e-07 0.0 2.286228e-07 -2.8681748e-07 -2.3794964e-07
-2.5927488e-07 1.7506952e-08 0.0 0.0 3.5010623e-07 0.0 -5.686089e-07 0.0
00000000: 0000 0000 c614 1932 dbd7 78b5 7646 88b6
00000010: 0000 0000 c761 1c36 9b07 3cb6 8f6b 1fb6
00000020: 1925 3ab6 0b55 0d33 0000 0000 0000 0000
00000030: 0ce2 7636 0000 0000 48cc c1b6 0000 0000
00000040: 0000 0000 4179 de30 b4fd 8bb3 c021 cfb4
00000050: 0000 0000 5b7b 7534 e5fb 99b4 197f 7fb4
00000060: 7832 8bb4 3262 9632 0000 0000 0000 0000
00000070: 3cf6 bb34 0000 0000 82a2 18b5 0000 0000

exp_avg_sq f4 [2, 1, 16]
0.0 1.2371029e-14 1.912061e-05 5.117082e-05 0.0 9.234401e-05 9.1912196e-05 1.3727844e-05
1.7302906e-05 8.282499e-06 0.0 0.0 5.1057883e-05 0.0 0.00034489552 0.0
0.0 4.0593525e-16 6.9187877e-06 4.9657137e-06 0.0 2.625937e-05 2.3901915e-05 1.2017704e-06
1.0887801e-06 3.823197e-06 0.0 0.0 4.1421727e-06 0.0 8.021383e-05 0.0
00000000: 0000 0000 4ddb 5e28 3365 a037 40a0 5638
00000010: 0000 0000 d0a8 c138 fcc0 c038 a450 6637
00000020: b525 9137 10f5 0a37 0000 0000 0000 0000
00000030: fc26 5638 0000 0000 18d3 b439 0000 0000
00000040: 0000 0000 7801 ea25 ef27 e836 289f a636
00000050: 0000 0000 9147 dc37 f980 c837 844c a135
00000060: 3322 9235 0349 8036 0000 0000 0000 0000
00000070: fefc 8a36 0000 0000 7938 a838 0000 0000

exp_avg f4 [2, 1, 16]
0.0 -5.806631e-09 -2.8863252e-07 -1.9241759e-06 0.0 7.8957106e-07 -9.761463e-07 -9.072433e-07
-1.3960203e-06 -2.1533013e-07 0.0 0.0 1.6273855e-06 0.0 -2.3229236e-06 0.0
0.0 -4.963157e-10 -2.1710672e-08 -1.4802818e-07 0.0 6.070288e-08 -7.5144136e-08 -6.978643e-08
-1.07418764e-07 -1.6515521e-08 0.0 0.0 1.2525184e-07 0.0 -1.7866373e-07 0.0
00000000: 0000 0000 ab83 c7b1 5af5 9ab4 1721 01b6
00000010: 0000 0000 e9f2 5335 2204 83b5 4989 73b5
00000020: e45e bbb5 7f35 67b4 0000 0000 0000 0000
00000030: 8a6c da35 0000 0000 86e3 1bb6 0000 0000
00000040: 0000 0000 1d6d 08b0 467e bab2 adf1 1eb4
00000050: 0000 0000 c35b 8233 ed5e a1b3 7fdd 95b3
00000060: 17ae e6b3 04de 8db2 0000 0000 0000 0000
00000070: f77c 0634 0000 0000 b6d6 3fb4 0000 0000

exp_avg_sq f4 [2, 1, 16]
0.0 5.406582e-15 3.2894206e-08 2.6766334e-06 0.0 9.022711e-07 4.4254912e-07 5.995727e-07
1.2549336e-06 5.184465e-08 0.0 0.0 1.6452262e-06 0.0 3.66222e-06 0.0
0.0 3.9492233e-17 2.2905036e-10 1.647075e-08 0.0 5.2739795e-09 2.792858e-09 3.6596328e-09
7.731509e-09 3.2684144e-10 0.0 0.0 1.0647185e-08 0.0 2.3071145e-08 0.0
00000000: 0000 0000 ebca c227 9047 0d33 36a0 3336
00000010: 0000 0000 9933 7235 7d97 ed34 52f2 2035
00000020: 316f a835 ccab 5e33 0000 0000 0000 0000
00000030: 8bd1 dc35 0000 0000 76c4 7536 0000 0000
00000040: 0000 0000 3320 3624 f2d7 7b2f 907b 8d32
00000050: 0000 0000 6a36 b531 7aec 3f31 f17c 7b31
00000060: 89d3 0432 d8ae b32f 0000 0000 0000 0000
00000070: d1ea 3632 0000 0000 fc2d c632 0000 0000

exp_avg f4 [16, 16]
0.0 0.0 0.0 0.0 0.0 0.0 0.0 0.0
0.0 0.0 0.0 0.0 0.0 0.0 0.0 0.0
-1.3519424e-10 -4.4607295e-12 0.0 -8.863952e-11 3.4230778e-12 0.0 0.0 5.0891638e-11
-8.7660545e-11 0.0 9.160318e-11 1.5233169e-11 0.0 0.0 -6.2867114e-11 8.7886295e-11
-1.0095583e-06 -9.4707524e-08 -9.3197593e-07 8.9273806e-07 5.8739204e-07 0.0 0.0 -3.1985383e-11
-2.7573137e-07 0.0 -2.614225e-07 -8.628114e-07 0.0 -7.5031714e-10 0.0 1.4250224e-07
-0.0001869487 -1.814271e-05 -0.00016750334 0.0001677721 0.00011197062 0.0 0.0 3.138421e-09
-5.2076728e-05 0.0 -5.0506434e-05 -0.00015411784 0.0 6.9387007e-09 -2.0435735e-09 2.1630343e-05
0.0 0.0 0.0 0.0 0.0 0.0 0.0 0.0
0.0 0.0 0.0 0.0 0.0 0.0 0.0 0.0
-0.0001301352 -1.2681768e-05 -0.000116568895 0.00011680242 7.797153e-05 0.0 0.0 1.7286675e-09
-3.6289744e-05 0.0 -3.5161298e-05 -0.00010719889 0.0 6.008295e-09 -1.21377e-09 1.5030656e-05
-0.00018268058 -1.7738248e-05 -0.00016362975 0.00016398725 0.00010945963 0.0 0.0 2.1859794e-09
-5.0899325e-05 0.0 -4.9381153e-05 -0.0001505316 0.0 6.895786e-09 -1.3995106e-09 2.1072443e-05
-5.5297252e-05 -5.290367e-06 -4.969258e-05 4.950384e-05 3.298433e-05 0.0 0.0 3.4353735e-09
-1.5336725e-05 0.0 -1.4869676e-05 -4.5830096e-05 0.0 1.4316888e-13 -2.2057172e-09 6.5751897e-06
-5.8213205e-05 -5.715896e-06 -5.2034695e-05 5.2342068e-05 3.497812e-05 0.0 0.0 -1.5537548e-10
-1.6274085e-05 0.0 -1.5781454e-05 -4.778432e-05 0.0 2.5386713e-09 0.0 6.589751e-06
-0.00013580463 -1.31235265e-05 -0.000121741774 0.0001218302 8.128116e-05 0.0 0.0 3.2601766e-09
-3.778497e-05 0.0 -3.666693e-05 -0.00011208062 0.0 3.1745888e-09 -2.0499986e-09 1.5781097e-05
0.0 0.0 0.0 0.0 0.0 0.0 0.0 0.0
0.0 0.0 0.0 0.0 0.0 0.0 0.0 0.0
0.0 0.0 0.0 0.0 0.0 0.0 0.0 0.0
0.0 0.0 0.0 0.0 0.0 0.0 0.0 0.0
-0.00016833168 -1.6329237e-05 -0.00015090808 0.0001509856 0.00010074291 0.0 0.0 4.320128e-09
-4.6877387e-05 0.0 -4.5426394e-05 -0.0001388786 0.0 5.7901794e-09 -2.8661635e-09 1.9588944e-05
0.0 0.0 0.0 0.0 0.0 0.0 0.0 0.0
0.0 0.0 0.0 0.0 0.0 0.0 0.0 0.0
-4.5184122e-05 -4.4438857e-06 -4.0396444e-05 4.0614057e-05 2.7141012e-05 0.0 0.0 -1.7060767e-10
-1.2636428e-05 0.0 -1.2241998e-05 -3.7091646e-05 0.0 3.4216112e-09 0.0 5.1289417e-06
0.0 0.0 0.0 0.0 0.0 0.0 0.0 0.0
0.0 0.0 0.0 0.0 0.0 0.0 0.0 0.0
00000000: 0000 0000 0000 0000 0000 0000 0000 0000
00000010: 0000 0000 0000 0000 0000 0000 0000 0000
00000020: 0000 0000 0000 0000 0000 0000 0000 0000
00000030: 0000 0000 0000 0000 0000 0000 0000 0000
00000040: cca5 14af aef2 9cac 0000 0000 9deb c2ae
00000050: b0e0 702c 0000 0000 0000 0000 e4d2 5f2e
00000060: 80c4 c0ae 0000 0000 0270 c92e 0cfe 852d
00000070: 0000 0000 0000 0000 0a3f 8aae 9643 c12e
00000080: 2980 87b5 0362 cbb3 e62c 7ab5 7ea4 6f35
00000090: 46ad 1d35 0000 0000 0000 0000 57ac 0cae
000000a0: 3b08 94b4 0000 0000 a359 8cb4 f39b 67b5
000000b0: 0000 0000 e03e 4eb0 0000 0000 b802 1934
000000c0: a907 44b9 2c31 98b7 d6a3 2fb9 fbeb 2f39
000000d0: c5d1 ea38 0000 0000 0000 0000 b0ab 5731
000000e0: f66c 5ab8 0000 0000 dfd6 53b8 b19a 21b9
000000f0: 0000 0000 7569 ee31 ed6e 0cb1 cf72 b537
00000100: 0000 0000 0000 0000 0000 0000 0000 0000
00000110: 0000 0000 0000 0000 0000 0000 0000 0000
00000120: 0000 0000 0000 0000 0000 0000 0000 0000
00000130: 0000 0000 0000 0000 0000 0000 0000 0000
00000140: e774 08b9 c7c3 54b7 7376 f4b8 d2f3 f438
00000150: a584 a338 0000 0000 0000 0000 1596 ed30
00000160: d135 18b8 0000 0000 287a 13b8 f7cf e0b8
00000170: 0000 0000 8671 ce31 bcd1 a6b0 2d2c 7c37
00000180: f28d 3fb9 99cc 94b7 0794 2bb9 fef3 2b39
00000190: b18d e538 0000 0000 0000 0000 2838 1631
000001a0: bc7c 55b8 0000 0000 9c1e 4fb8 05d8 1db9
000001b0: 0000 0000 faef ec31 e758 c0b0 bac4 b037
000001c0: f9ee 67b8 e883 b1b6 006d 50b8 58a2 4f38
000001d0: a858 0a38 0000 0000 0000 0000 bb13 6c31
000001e0: 5ea7 80b7 0000 0000 c678 79b7 b139 40b8
000001f0: 0000 0000 9f31 212a 6393 17b1 73a0 dc36
00000200: f429 74b8 2ccb bfb6 d43f 5ab8 de89 5b38
00000210: 78b5 1238 0000 0000 0000 0000 4fd6 2aaf
00000220: 5584 88b7 0000 0000 6a62 84b7 066c 48b8
00000230: 0000 0000 c774 2e31 0000 0000 881d dd36
00000240: c766 0eb9 1e2d 5cb7 9e4f ffb8 177f ff38
00000250: 7e75 aa38 0000 0000 0000 0000 a209 6031
00000260: 4d7b 1eb8 0000 0000 d1ca 19b8 d30c ebb8
00000270: 0000 0000 f527 5a31 f5df 0cb1 a661 8437
00000280: 0000 0000 0000 0000 0000 0000 0000 0000
00000290: 0000 0000 0000 0000 0000 0000 0000 0000
000002a0: 0000 0000 0000 0000 0000 0000 0000 0000
000002b0: 0000 0000 0000 0000 0000 0000 0000 0000
000002c0: 0000 0000 0000 0000 0000 0000 0000 0000
000002d0: 0000 0000 0000 0000 0000 0000 0000 0000
000002e0: 0000 0000 0000 0000 0000 0000 0000 0000
000002f0: 0000 0000 0000 0000 0000 0000 0000 0000
00000300: 3182 30b9 c5fa 88b7 143d 1eb9 e351 1e39
00000310: f045 d338 0000 0000 0000 0000 3f70 9431
00000320: 369e 44b8 0000 0000 3888 3eb8 f19f 11b9
00000330: 0000 0000 f5f2 c631 15f6 44b1 f052 a437
00000340: 0000 0000 0000 0000 0000 0000 0000 0000
00000350: 0000 0000 0000 0000 0000 0000 0000 0000
00000360: 0000 0000 0000 0000 0000 0000 0000 0000
00000370: 0000 0000 0000 0000 0000 0000 0000 0000
00000380: 1584 3db8 b01c 95b6 5a6f 29b8 0359 2a38
00000390: e1ac e337 0000 0000 0000 0000 ca95 3baf
000003a0: 0c01 54b7 0000 0000 fb62 4db7 da92 1bb8
000003b0: 0000 0000 9f21 6b31 0000 0000 4619 ac36
000003c0: 0000 0000 0000 0000 0000 0000 0000 0000
000003d0: 0000 0000 0000 0000 0000 0000 0000 0000
000003e0: 0000 0000 0000 0000 0000 0000 0000 0000
000003f0: 0000 0000 0000 0000 0000 0000 0000 0000

exp_avg_sq f4 [16, 16]
0.0 0.0 0.0 0.0 0.0 0.0 0.0 0.0
0.0 0.0 0.0 0.0 0.0 0.0 0.0 0.0
3.2770974e-17 1.225377e-16 0.0 2.908094e-16 1.8430823e-16 0.0 0.0 1.00535644e-16
6.16723e-17 0.0 5.565887e-17 1.03418216e-16 0.0 0.0 3.3741756e-17 8.925204e-17
2.3747712e-05 4.9079504e-06 4.930955e-06 6.0563783e-05 2.689111e-05 0.0 0.0 7.116276e-10
4.1821745e-06 0.0 3.101184e-06 5.305782e-06 0.0 2.862942e-07 0.0 2.5616e-06
0.025125695 0.00054258486 0.015922321 0.024505623 0.011160592 0.0 0.0 3.5665917e-07
0.002292981 0.0 0.0019751345 0.0144886505 0.0 3.2024504e-06 2.2382722e-09 0.00010814713
0.0 0.0 0.0 0.0 0.0 0.0 0.0 0.0
0.0 0.0 0.0 0.0 0.0 0.0 0.0 0.0
0.012667424 0.00026017174 0.00810855 0.01216115 0.00554512 0.0 0.0 2.0914308e-07
0.0011474651 0.0 0.0009846552 0.007359497 0.0 1.3236344e-06 3.2128672e-10 6.268026e-05
0.024950268 0.0005943359 0.015559881 0.025081351 0.011412384 0.0 0.0 2.8994305e-07
0.0023192149 0.0 0.001995286 0.014120514 0.0 4.6000905e-06 1.5135344e-09 7.754521e-05
0.001633824 1.8437822e-05 0.0011122911 0.0013387116 0.000611608 0.0 0.0 6.29446e-08
0.00013365677 0.0 0.000111894566 0.001047123 0.0 1.4257633e-14 2.1665727e-09 2.3861252e-05
0.0032150138 0.00012305749 0.0018262572 0.00379118 0.0017175779 0.0 0.0 1.6792475e-08
0.00033075496 0.0 0.0002809747 0.0016326532 0.0 2.2460229e-06 0.0 4.4188977e-09
0.01362213 0.0003028332 0.008570747 0.013410029 0.0061000297 0.0 0.0 1.7621625e-07
0.0012474593 0.0 0.00107965 0.007831467 0.0 1.9071624e-06 2.8536045e-09 5.4258497e-05
0.0 0.0 0.0 0.0 0.0 0.0 0.0 0.0
0.0 0.0 0.0 0.0 0.0 0.0 0.0 0.0
0.0 0.0 0.0 0.0 0.0 0.0 0.0 0.0
0.0 0.0 0.0 0.0 0.0 0.0 0.0 0.0
0.019762924 0.0003572913 0.01286459 0.018290544 0.00834296 0.0 0.0 3.860494e-07
0.0017477166 0.0 0.0015086816 0.011761532 0.0 1.0778351e-06 2.788452e-09 0.00013425575
0.0 0.0 0.0 0.0 0.0 0.0 0.0 0.0
0.0 0.0 0.0 0.0 0.0 0.0 0.0 0.0
0.0015889521 4.0216757e-05 0.0009854834 0.0016261309 0.0007412811 0.0 0.0 2.024636e-08
0.00015007895 0.0 0.00012735408 0.0008827049 0.0 3.756417e-07 0.0 3.7339412e-06
0.0 0.0 0.0 0.0 0.0 0.0 0.0 0.0
0.0 0.0 0.0 0.0 0.0 0.0 0.0 0.0
00000000: 0000 0000 0000 0000 0000 0000 0000 0000
00000010: 0000 0000 0000 0000 0000 0000 0000 0000
00000020: 0000 0000 0000 0000 0000 0000 0000 0000
00000030: 0000 0000 0000 0000 0000 0000 0000 0000
00000040: 2321 1724 bf46 0d25 0000 0000 e5a3 a725
00000050: 307e 5425 0000 0000 0000 0000 c5d1 e724
00000060: e634 8e24 0000 0000 3357 8024 5777 ee24
00000070: 0000 0000 0000 0000 3c9b 1b24 1bcd cd24
00000080: d335 c737 f9ae a436 9574 a536 de05 7e38
00000090: 3894 e137 0000 0000 0000 0000 579c 4330
000000a0: 9b54 8c36 0000 0000 ef1d 5036 5208 b236
000000b0: 0000 0000 fab3 9934 0000 0000 f4e7 2b36
000000c0: 67d4 cd3c 413c 0e3a 876f 823c 04c0 c83c
000000d0: eada 363c 0000 0000 0000 0000 dd7a bf34
000000e0: d645 163b 0000 0000 4271 013b ce61 6d3c
000000f0: 0000 0000 aee9 5636 1ad0 1931 0ccd e238
00000100: 0000 0000 0000 0000 0000 0000 0000 0000
00000110: 0000 0000 0000 0000 0000 0000 0000 0000
00000120: 0000 0000 0000 0000 0000 0000 0000 0000
00000130: 0000 0000 0000 0000 0000 0000 0000 0000
00000140: 078b 4f3c a967 8839 b9d9 043c 8f3f 473c
00000150: d7b3 b53b 0000 0000 0000 0000 d090 6034
00000160: 8a66 963a 0000 0000 8c0f 813a ef27 f13b
00000170: 0000 0000 bba7 b135 16a1 b02f 3573 8338
00000180: 8164 cc3c 35cd 1b3a dfee 7e3c 6877 cd3c
00000190: 02fb 3a3c 0000 0000 0000 0000 78a9 9b34
000001a0: f8fd 173b 0000 0000 58c3 023b ba59 673c
000001b0: 0000 0000 7a5a 9a36 c204 d030 c59f a238
000001c0: 0926 d63a ecaa 9a37 4cca 913a b577 af3a
000001d0: 5154 203a 0000 0000 0000 0000 292c 8733
000001e0: 3726 0c39 0000 0000 f0a8 ea38 9e3f 893a
000001f0: 0000 0000 dd6b 8028 c0e2 1431 a629 c837
00000200: fbb2 523b fe08 0139 065f ef3a 7275 783b
00000210: 5a20 e13a 0000 0000 0000 0000 0b3f 9032
00000220: 2e69 ad39 0000 0000 c94f 9339 c0fe d53a
00000230: 0000 0000 61ba 1636 0000 0000 09d5 9731
00000240: 5b2f 5f3c 96c5 9e39 526c 0c3c bdb5 5b3c
00000250: c2e2 c73b 0000 0000 0000 0000 f435 3d34
00000260: ca81 a33a 0000 0000 0b83 8d3a 8e4f 003c
00000270: 0000 0000 9af9 ff35 2419 4431 9e93 6338
00000280: 0000 0000 0000 0000 0000 0000 0000 0000
00000290: 0000 0000 0000 0000 0000 0000 0000 0000
000002a0: 0000 0000 0000 0000 0000 0000 0000 0000
000002b0: 0000 0000 0000 0000 0000 0000 0000 0000
000002c0: 0000 0000 0000 0000 0000 0000 0000 0000
000002d0: 0000 0000 0000 0000 0000 0000 0000 0000
000002e0: 0000 0000 0000 0000 0000 0000 0000 0000
000002f0: 0000 0000 0000 0000 0000 0000 0000 0000
00000300: dbe5 a13c d452 bb39 00c6 523c 0dd6 953c
00000310: e9b0 083c 0000 0000 0000 0000 3a42 cf34
00000320: a313 e53a 0000 0000 f4be c53a 71b3 403c
00000330: 0000 0000 22aa 9035 f79e 3f31 01c7 0c39
00000340: 0000 0000 0000 0000 0000 0000 0000 0000
00000350: 0000 0000 0000 0000 0000 0000 0000 0000
00000360: 0000 0000 0000 0000 0000 0000 0000 0000
00000370: 0000 0000 0000 0000 0000 0000 0000 0000
00000380: 6344 d03a 6aae 2838 562b 813a e623 d53a
00000390: 8852 423a 0000 0000 0000 0000 37ea ad32
000003a0: 835e 1d39 0000 0000 5a8a 0539 5365 673a
000003b0: 0000 0000 cdab c934 0000 0000 9f94 7a36
000003c0: 0000 0000 0000 0000 0000 0000 0000 0000
000003d0: 0000 0000 0000 0000 0000 0000 0000 0000
000003e0: 0000 0000 0000 0000 0000 0000 0000 0000
000003f0: 0000 0000 0000 0000 0000 0000 0000 0000

exp_avg f4 [2, 16, 16]
0.0 0.0 0.0 0.0 0.0 0.0 0.0 0.0
0.0 0.0 0.0 0.0 0.0 0.0 0.0 0.0
7.3026314e-11 1.02089406e-10 -6.7747557e-12 -1.4020594e-10 -1.2240685e-10 0.0 0.0 2.482313e-12
8.530773e-11 0.0 5.5037835e-11 -9.327207e-11 0.0 -3.542923e-12 -1.7920629e-12 7.360364e-11
-1.6781359e-08 -3.084704e-09 -1.5268922e-08 1.8293544e-08 1.1968523e-08 0.0 0.0 -8.376228e-11
-5.415244e-09 0.0 -4.7086433e-09 -1.1750615e-08 0.0 -1.17293e-09 7.1719325e-11 -1.6904122e-11
-7.6067226e-06 -9.216371e-07 -6.539483e-06 7.0487426e-06 4.8120755e-06 0.0 0.0 -4.5515174e-09
-2.2718289e-06 0.0 -2.1739168e-06 -5.778683e-06 0.0 3.718127e-09 2.8361775e-09 5.5750553e-07
0.0 0.0 0.0 0.0 0.0 0.0 0.0 0.0
0.0 0.0 0.0 0.0 0.0 0.0 0.0 0.0
-5.3655476e-06 -6.5177915e-07 -4.6119794e-06 4.9725813e-06 3.3954718e-06 0.0 0.0 -3.3010579e-09
-1.6037621e-06 0.0 -1.5339908e-06 -4.0731047e-06 0.0 3.0851293e-09 2.0406727e-09 3.919806e-07
-7.493484e-06 -9.103023e-07 -6.44056e-06 6.947185e-06 4.7428075e-06 0.0 0.0 -4.497652e-09
-2.2393629e-06 0.0 -2.142205e-06 -5.689454e-06 0.0 2.8087828e-09 2.8249565e-09 5.4687433e-07
-2.0365194e-06 -2.4007286e-07 -1.7550614e-06 1.8798472e-06 1.282288e-06 0.0 0.0 -1.1073434e-09
-6.0405785e-07 0.0 -5.798261e-07 -1.5569206e-06 0.0 1.9935942e-09 6.6075045e-10 1.5534276e-07
-2.547114e-06 -3.1384363e-07 -2.1866774e-06 2.367793e-06 1.6165299e-06 0.0 0.0 -1.5649599e-09
-7.6368843e-07 0.0 -7.2925434e-07 -1.9279648e-06 0.0 -7.6554113e-10 1.0240602e-09 1.8156243e-07
-5.418288e-06 -6.541992e-07 -4.659141e-06 5.019759e-06 3.4260192e-06 0.0 0.0 -3.1298866e-09
-1.6165122e-06 0.0 -1.5477308e-06 -4.120187e-06 0.0 2.2656321e-09 1.9640138e-09 3.9885865e-07
0.0 0.0 0.0 0.0 0.0 0.0 0.0 0.0
0.0 0.0 0.0 0.0 0.0 0.0 0.0 0.0
0.0 0.0 0.0 0.0 0.0 0.0 0.0 0.0
0.0 0.0 0.0 0.0 0.0 0.0 0.0 0.0
-6.752532e-06 -8.147452e-07 -5.8073642e-06 6.252368e-06 4.268346e-06 0.0 0.0 -4.0220955e-09
-2.0147843e-06 0.0 -1.9288796e-06 -5.1343427e-06 0.0 4.5864725e-09 2.4718485e-09 4.9821796e-07
0.0 0.0 0.0 0.0 0.0 0.0 0.0 0.0
0.0 0.0 0.0 0.0 0.0 0.0 0.0 0.0
-1.9732481e-06 -2.4179118e-07 -1.6950379e-06 1.830907e-06 1.2505575e-06 0.0 0.0 -1.2656396e-09
-5.9115587e-07 0.0 -5.6469145e-07 -1.4947468e-06 0.0 7.5314127e-10 7.8935325e-10 1.4230558e-07
0.0 0.0 0.0 0.0 0.0 0.0 0.0 0.0
0.0 0.0 0.0 0.0 0.0 0.0 0.0 0.0
00000000: 0000 0000 0000 0000 0000 0000 0000 0000
00000010: 0000 0000 0000 0000 0000 0000 0000 0000
00000020: 0000 0000 0000 0000 0000 0000 0000 0000
00000030: 0000 0000 0000 0000 0000 0000 0000 0000
00000040: 2996 a02e 3a7f e02e 935d eeac 7728 1aaf
00000050: 7796 06af 0000 0000 0000 0000 60ad 2e2c
00000060: fc97 bb2e 0000 0000 180f 722e 821b cdae
00000070: 0000 0000 a04f 79ac df35 fcab 2adb a12e
00000080: 9926 90b2 b0fa 53b1 b728 83b2 ee23 9d32
00000090: 1f9e 4d32 0000 0000 0000 0000 f931 b8ae
000000a0: fd10 bab1 0000 0000 aac9 a1b1 c0df 49b2
000000b0: 0000 0000 ce34 a1b0 64b6 9d2e b3b0 94ad
000000c0: 403d ffb6 6b66 77b5 bb6d dbb6 3d84 ec36
000000d0: 6a77 a136 0000 0000 0000 0000 9263 9cb1
000000e0: b975 18b6 0000 0000 9be3 11b6 82e6 c1b6
000000f0: 0000 0000 fb81 7f31 90e6 4231 7da7 1535
00000100: 0000 0000 0000 0000 0000 0000 0000 0000
00000110: 0000 0000 0000 0000 0000 0000 0000 0000
00000120: 0000 0000 0000 0000 0000 0000 0000 0000
00000130: 0000 0000 0000 0000 0000 0000 0000 0000
00000140: b409 b4b6 ecf5 2eb5 9ac0 9ab6 26da a636
00000150: c3dd 6336 0000 0000 0000 0000 d3d8 62b1
00000160: d940 d7b5 0000 0000 86e3 cdb5 b4ab 88b6
00000170: 0000 0000 2b02 5431 e53b 0c31 6771 d234
00000180: 8a70 fbb6 7f5b 74b5 fd1b d8b6 dd1b e936
00000190: 6824 9f36 0000 0000 0000 0000 c489 9ab1
000001a0: f647 16b6 0000 0000 cdc2 0fb6 0ae8 beb6
000001b0: 0000 0000 a104 4131 2921 4231 ebcc 1235
000001c0: 23ab 08b6 5de3 80b4 738f ebb5 0f4f fc35
000001d0: 151b ac35 0000 0000 0000 0000 2f31 98b0
000001e0: 8a26 22b5 0000 0000 59a5 1bb5 62f7 d0b5
000001f0: 0000 0000 aeff 0831 2ea0 3530 4bcc 2634
00000200: 16ef 2ab6 577e a8b4 d5be 12b6 60e6 1e36
00000210: 8bf7 d835 0000 0000 0000 0000 2216 d7b0
00000220: 4500 4db5 0000 0000 fac1 43b5 2f62 01b6
00000230: 0000 0000 2b6e 52b0 eabe 8c30 80f3 4234
00000240: bdce b5b6 3a9c 2fb5 b755 9cb6 676f a836
00000250: 90ea 6536 0000 0000 0000 0000 8c15 57b1
00000260: f0f6 d8b5 0000 0000 a0bb cfb5 2340 8ab6
00000270: 0000 0000 6cb1 1b31 4cf7 0631 b722 d634
00000280: 0000 0000 0000 0000 0000 0000 0000 0000
00000290: 0000 0000 0000 0000 0000 0000 0000 0000
000002a0: 0000 0000 0000 0000 0000 0000 0000 0000
000002b0: 0000 0000 0000 0000 0000 0000 0000 0000
000002c0: 0000 0000 0000 0000 0000 0000 0000 0000
000002d0: 0000 0000 0000 0000 0000 0000 0000 0000
000002e0: 0000 0000 0000 0000 0000 0000 0000 0000
000002f0: 0000 0000 0000 0000 0000 0000 0000 0000
00000300: cf93 e2b6 ddb4 5ab5 e1dc c2b6 6fcb d136
00000310: d038 8f36 0000 0000 0000 0000 ba32 8ab1
00000320: bb35 07b6 0000 0000 e671 01b6 ab47 acb6
00000330: 0000 0000 0a97 9d31 38dd 2931 47bd 0535
00000340: 0000 0000 0000 0000 0000 0000 0000 0000
00000350: 0000 0000 0000 0000 0000 0000 0000 0000
00000360: 0000 0000 0000 0000 0000 0000 0000 0000
00000370: 0000 0000 0000 0000 0000 0000 0000 0000
00000380: 256c 04b6 87cf 81b4 0f81 e3b5 7cbd f535
00000390: d4d8 a735 0000 0000 0000 0000 bcf2 adb0
000003a0: ecaf 1eb5 0000 0000 4d95 17b5 1c9f c8b5
000003b0: 0000 0000 9b05 4f30 ccf9 5830 a9cc 1834
000003c0: 0000 0000 0000 0000 0000 0000 0000 0000
000003d0: 0000 0000 0000 0000 0000 0000 0000 0000
000003e0: 0000 0000 0000 0000 0000 0000 0000 0000
000003f0: 0000 0000 0000 0000 0000 0000 0000 0000

exp_avg_sq f4 [2, 16, 16]
0.0 0.0 0.0 0.0 0.0 0.0 0.0 0.0
0.0 0.0 0.0 0.0 0.0 0.0 0.0 0.0
3.4641472e-16 2.9928463e-17 3.0481086e-15 4.0582312e-16 2.1704773e-16 0.0 0.0 1.7622287e-18
1.4223556e-16 0.0 3.3234723e-18 7.828362e-17 0.0 3.620799e-17 7.850988e-17 1.8104545e-18
8.080258e-06 2.3487164e-06 1.4270571e-06 2.5496547e-05 1.1204058e-05 0.0 0.0 8.226238e-10
1.6134636e-06 0.0 1.2907644e-06 1.3093061e-06 0.0 1.4392847e-07 9.36292e-13 1.5640366e-06
0.00036824396 4.2001277e-05 0.000153669 0.00069172366 0.0003119638 0.0 0.0 4.9830753e-09
5.25656e-05 0.0 4.1928135e-05 0.00011858084 0.0 1.8624422e-06 4.643467e-09 1.3360791e-05
0.0 0.0 0.0 0.0 0.0 0.0 0.0 0.0
0.0 0.0 0.0 0.0 0.0 0.0 0.0 0.0
0.00017027346 1.7693157e-05 7.3836585e-05 0.00030438698 0.00013787768 0.0 0.0 1.0765994e-09
2.3720286e-05 0.0 1.8413817e-05 5.6965124e-05 0.0 7.7064766e-07 2.5106828e-09 4.9561877e-06
0.00043671613 5.6457422e-05 0.0001709973 0.00087547937 0.00039311248 0.0 0.0 1.0312361e-08
6.472335e-05 0.0 5.2580966e-05 0.00013232465 0.0 2.5957393e-06 4.599277e-09 2.0744217e-05
5.4703937e-06 3.3917555e-08 4.0658665e-06 3.8085127e-06 1.8693115e-06 0.0 0.0 8.0521934e-10
4.6709084e-07 0.0 2.4228981e-07 3.2455628e-06 0.0 1.7075177e-10 2.406262e-10 9.9649284e-08
0.00012232564 2.3033512e-05 3.7750826e-05 0.0003012444 0.00013358583 0.0 0.0 9.172073e-09
2.0524461e-05 0.0 1.752921e-05 2.9591461e-05 0.0 1.1657631e-06 5.8341615e-10 1.1848699e-05
0.00020841516 2.5235202e-05 8.4896885e-05 0.0004046812 0.00018193373 0.0 0.0 4.3456074e-09
3.0208368e-05 0.0 2.463024e-05 6.5482935e-05 0.0 1.1275013e-06 2.3163043e-09 8.664454e-06
0.0 0.0 0.0 0.0 0.0 0.0 0.0 0.0
0.0 0.0 0.0 0.0 0.0 0.0 0.0 0.0
0.0 0.0 0.0 0.0 0.0 0.0 0.0 0.0
0.0 0.0 0.0 0.0 0.0 0.0 0.0 0.0
0.00020544541 1.7263252e-05 9.788683e-05 0.00033195058 0.00015132218 0.0 0.0 2.342715e-10
2.694661e-05 0.0 2.056123e-05 7.5121075e-05 0.0 6.919452e-07 3.6695957e-09 3.4843872e-06
0.0 0.0 0.0 0.0 0.0 0.0 0.0 0.0
0.0 0.0 0.0 0.0 0.0 0.0 0.0 0.0
3.1681393e-05 4.179339e-06 1.2090764e-05 6.384174e-05 2.87183e-05 0.0 0.0 5.6716487e-10
4.750842e-06 0.0 3.7521006e-06 9.413284e-06 0.0 1.9750023e-07 3.4357395e-10 1.5512857e-06
0.0 0.0 0.0 0.0 0.0 0.0 0.0 0.0
0.0 0.0 0.0 0.0 0.0 0.0 0.0 0.0
00000000: 0000 0000 0000 0000 0000 0000 0000 0000
00000010: 0000 0000 0000 0000 0000 0000 0000 0000
00000020: 0000 0000 0000 0000 0000 0000 0000 0000
00000030: 0000 0000 0000 0000 0000 0000 0000 0000
00000040: cab1 c725 4b05 0a24 aea3 5b27 ecf0 e925
00000050: 2f3d 7a25 0000 0000 0000 0000 8f07 0222
00000060: 87fc 2325 0000 0000 9e3a 7522 7e82 b424
00000070: 0000 0000 d9fa 2624 0e08 b524 8596 0522
00000080: 7290 0737 a49e 1d36 4f89 bf35 6be1 d537
00000090: 10f9 3b37 0000 0000 0000 0000 011f 6230
000000a0: 308e d835 0000 0000 543e ad35 6abb af35
000000b0: 0000 0000 c28a 1a34 79c5 832b e3eb d135
000000c0: de10 c139 872a 3038 3522 2139 ca54 353a
000000d0: 138f a339 0000 0000 0000 0000 9837 ab31
000000e0: e279 5c38 0000 0000 fedb 2f38 9bae f838
000000f0: 0000 0000 07f9 f935 5e8c 9f31 2928 6037
00000100: 0000 0000 0000 0000 0000 0000 0000 0000
00000110: 0000 0000 0000 0000 0000 0000 0000 0000
00000120: 0000 0000 0000 0000 0000 0000 0000 0000
00000130: 0000 0000 0000 0000 0000 0000 0000 0000
00000140: 6f8b 3239 c46b 9437 b7d8 9a38 2196 9f39
00000150: 4293 1039 0000 0000 0000 0000 79f7 9330
00000160: edfa c637 0000 0000 5f77 9a37 d6ed 6e38
00000170: 0000 0000 81de 4e35 6688 2c31 544d a636
00000180: 0cf7 e439 b2cc 6c38 bd4d 3339 6d80 653a
00000190: aa1a ce39 0000 0000 0000 0000 3e2a 3132
000001a0: 15bc 8738 0000 0000 628a 5c38 a1c0 0a39
000001b0: 0000 0000 7632 2e36 ab07 9e31 de03 ae37
000001c0: 538e b736 bfac 1133 876d 8836 c095 7f36
000001d0: 0ee5 fa35 0000 0000 0000 0000 4656 5d30
000001e0: 7ac4 fa34 0000 0000 0f14 8234 58ce 5936
000001f0: 0000 0000 5abe 3b2f 2149 842f c6fe d533
00000200: 8a44 0039 1738 c137 a456 1e38 57f0 9d39
00000210: 2c13 0c39 0000 0000 0000 0000 3493 1d32
00000220: f22b ac37 0000 0000 b10b 9337 2e3b f837
00000230: 0000 0000 5177 9c35 435e 2030 c6c9 4637
00000240: 058a 5a39 2fb0 d337 ab0a b238 642b d439
00000250: 77c5 3e39 0000 0000 0000 0000 5e50 9531
00000260: fa67 fd37 0000 0000 0a9d ce37 e253 8938
00000270: 0000 0000 a654 9735 db2c 1f31 8c5d 1137
00000280: 0000 0000 0000 0000 0000 0000 0000 0000
00000290: 0000 0000 0000 0000 0000 0000 0000 0000
000002a0: 0000 0000 0000 0000 0000 0000 0000 0000
000002b0: 0000 0000 0000 0000 0000 0000 0000 0000
000002c0: 0000 0000 0000 0000 0000 0000 0000 0000
000002d0: 0000 0000 0000 0000 0000 0000 0000 0000
000002e0: 0000 0000 0000 0000 0000 0000 0000 0000
000002f0: 0000 0000 0000 0000 0000 0000 0000 0000
00000300: d56c 5739 8dd0 9037 9748 cd38 a709 ae39
00000310: 3dac 1e39 0000 0000 0000 0000 c8ca 802f
00000320: 680b e237 0000 0000 e87a ac37 528a 9d38
00000330: 0000 0000 1dbe 3935 362c 7c31 51d5 6936
00000340: 0000 0000 0000 0000 0000 0000 0000 0000
00000350: 0000 0000 0000 0000 0000 0000 0000 0000
00000360: 0000 0000 0000 0000 0000 0000 0000 0000
00000370: 0000 0000 0000 0000 0000 0000 0000 0000
00000380: a3e1 0438 403c 8c36 70d9 4a37 c6e2 8538
00000390: 14e8 f037 0000 0000 0000 0000 aee6 1b30
000003a0: 6c69 9f36 0000 0000 99cc 7b36 bfed 1d37
000003b0: 0000 0000 7310 5434 bce1 bc2f c535 d035
000003c0: 0000 0000 0000 0000 0000 0000 0000 0000
000003d0: 0000 0000 0000 0000 0000 0000 0000 0000
000003e0: 0000 0000 0000 0000 0000 0000 0000 0000
000003f0: 0000 0000 0000 0000 0000 0000 0000 0000
