results/Test_citation/version_97/checkpoints/epoch=0-step=0.ckpt (torch, 566353 bytes, 27 tensors)

simplicial_nn.0.W0 f4 [1, 64]
0.38434634 -0.35018134 0.26857647 0.12768938 0.32924673 0.32213536 -0.004665437 0.20634326
0.15970115 -0.37507358 0.035119873 0.23495981 0.31662604 -0.00054179225 0.09063568 0.2641115
0.3226095 -0.12618569 0.2798948 0.07786449 -0.02376834 -0.13849965 -0.013933779 0.3480719
-0.20202002 -0.30221027 0.08877661 -0.20245124 0.35188016 0.34977213 0.24804297 0.032525335
-0.3198178 0.17767431 0.20911579 -0.2672278 0.2796239 -0.16713649 0.046976723 -0.40266854
0.40749994 -0.40026665 -0.11841053 0.23180191 -0.4018919 0.10245464 0.3105491 -0.019376138
-0.37288195 0.40580913 -0.25905168 -0.35154435 0.027224053 -0.091466874 0.3198506 -0.28089833
-0.029938912 -0.14331421 -0.114473015 -0.2504986 0.104282424 0.01180503 -0.048784237 0.097915806
00000000: 0bc9 c43e f84a b3be db82 893e 01c1 023e
00000010: 0793 a83e edee a43e 86e0 98bb a64b 533e
00000020: b388 233e a509 c0be dbd9 0f3d 4e99 703e
00000030: cf1c a23e 1007 0eba 339f b93d 9f39 873e
00000040: 132d a53e d236 01be 5f4e 8f3e 6b77 9f3d
00000050: d2b5 c2bc dad2 0dbe 814a 64bc 7b36 b23e
00000060: 56de 4ebe 4ebb 9abe 83d0 b53d 614f 4fbe
00000070: a329 b43e 5515 b33e fafe 7d3e 4939 053d
00000080: 29bf a3be 41f0 353e 7322 563e 15d2 88be
00000090: dd2a 8f3e d425 2bbe aa6a 403d 922a cebe
000000a0: d5a3 d03e c0ef ccbe 3881 f2bd 7b5d 6d3e
000000b0: c6c4 cdbe bdd3 d13d 4b00 9f3e b5ba 9ebc
000000c0: 62ea bebe 37c6 cf3e 6ca2 84be 9ffd b3be
000000d0: fa04 df3c fc52 bbbd 75c3 a33e e8d1 8fbe
000000e0: 7342 f5bc f6c0 12be d470 eabd 5a41 80be
000000f0: 0692 d53d e269 413c fbd1 47bd 1588 c83d

simplicial_nn.0.W1 f4 [5, 1, 64]
-0.17009927 0.14206098 0.013507491 -0.16178772 0.014629476 0.048324805 -0.10278862 -0.09097153
-0.0075402358 -0.010752991 -0.14952636 -0.064484686 -0.057048753 0.16187961 -0.11597205 0.020915752
0.16434203 -0.15764728 -0.028798858 -0.09826418 0.11772211 0.053797126 0.0676294 0.033005565
0.07845776 -0.036331907 -0.07238638 -0.030525506 0.089540064 -0.060151488 -0.094822146 0.05587681
0.015340611 -0.1392848 0.017726056 0.16197462 -0.12981358 0.13032033 -0.07539053 -0.050052643
0.066181324 0.048123732 -0.07898519 0.13890602 0.016330808 0.15679596 -0.03683645 -0.07118575
-0.036684424 -0.16905132 -0.05794791 -0.12249564 -0.060289312 -0.10744106 -0.13279678 0.115098104
0.14012778 -0.17555225 -0.062766075 -0.17605193 -0.017553503 0.1119802 -0.07953682 -0.11940237
0.10497683 0.1483347 -0.101896934 -0.023417914 -0.036310878 0.039193004 0.050896242 0.07677967
-0.17205063 0.17676134 0.108851194 -0.066640265 0.07481759 -0.16701603 0.022997012 0.11434936
-0.014591992 -0.1423089 -0.06012024 0.015688185 -0.058137022 -0.09401721 -0.09154175 0.10513882
-0.1333301 0.0658312 -0.09003472 0.12215276 -0.102291465 0.004877322 -0.028272634 0.038451914
-0.093764156 0.03516611 0.12254781 0.080762014 0.13766713 -0.1280385 0.1198946 -0.09581934
0.1553229 -0.07654211 0.1347213 -0.14543916 -0.12429774 0.17406155 0.02219589 -0.04124828
0.010374218 0.08171172 0.11839436 -0.032494947 0.07379443 0.006210266 -0.03194811 0.025539666
0.118498966 0.1686811 -0.030238762 -0.0437904 0.094352506 0.05073635 0.02038177 0.01663939
-0.104962714 0.07747556 -0.07491633 0.018604241 -0.13343276 0.019418834 -0.060122192 0.16246796
-0.03150297 -0.054422706 0.04690167 0.057453327 -0.15114844 -0.00095786375 0.1168286 0.030158132
0.027275577 -0.15697809 0.15775108 -0.05378934 -0.04007361 -0.006370306 0.13795446 0.12975915
0.0016892105 0.11973758 -0.070080556 0.10121293 0.05756611 0.036892235 -0.0102191735 0.13159873
0.0819356 -0.03576451 -0.10542425 0.0420689 -0.08294118 0.06795855 0.118147455 -0.035734206
0.10684156 0.0037229806 0.15177901 0.1413985 -0.097891346 0.08498699 -0.042453032 -0.14182386
0.14920829 -0.1716981 -0.0011182874 0.07385497 -0.07855892 0.08149146 0.14114898 0.10465129
-0.041121077 -0.15049088 0.1039397 -0.05606498 0.15416577 -0.13915 -0.023748485 -0.06249013
-0.07922498 0.17606653 0.07097552 -0.002214012 0.09627257 -0.03653867 0.15676495 -0.14018771
-0.0033925744 0.011391297 0.035492692 -0.096147075 0.12361357 -0.095851555 0.04636161 0.065513514
0.15854809 0.11070073 -0.010872351 0.16227588 0.14266372 0.072984934 0.11318976 -0.1595512
0.07751061 -0.094012044 0.14597425 -0.056861408 -0.16783738 -0.0338392 -0.044876825 0.0008404895
0.051626474 0.017583821 -0.17498763 0.1320196 0.052769568 0.11177437 0.022413354 -0.16965993
-0.05368683 0.1375667 -0.15782568 -0.05422039 0.05252336 -0.1234471 -0.11163038 0.12807898
0.13738881 -0.14543343 0.14294846 0.11744143 0.082005724 -0.1614278 0.060418613 0.030422017
-0.1609428 0.080516 0.17148812 0.16263546 -0.11639997 0.026521688 0.055803545 0.11719975
00000000: 812e 2ebe 6f78 113e 864e 5d3c aeab 25be
00000010: 78b0 6f3c 3bf0 453d d782 d2bd 484f babd
00000020: 1514 f7bb 502d 30bc 701d 19be 8c10 84bd
00000030: f4ab 69bd c5c3 253e c182 edbd 8357 ab3c
00000040: 4749 283e 4a6e 21be 95eb ebbc bb3e c9bd
00000050: 4a18 f13d 605a 5c3d 4881 8a3d d830 073d
00000060: 76ae a03d c4d0 14bd 4f3f 94bd a010 fabc
00000070: c860 b73d 6861 76bd 1d32 c2bd 15df 643d
00000080: 3057 7b3c ada0 0ebe 3c36 913c addc 253e
00000090: daed 04be b172 053e 5a66 9abd 0004 4dbd
000000a0: 138a 873d 641d 453d fdc2 a1bd 613d 0e3e
000000b0: 30c8 853c 1f8f 203e d1e1 16bd d6c9 91bd
000000c0: 6842 16bd ca1b 2dbe ca5a 6dbd fede fabd
000000d0: edf1 76bd 0f0a dcbd e1fb 07be 8eb8 eb3d
000000e0: a87d 0f3e f8c3 33be 808b 80bd f546 34be
000000f0: 5dcc 8fbc e055 e53d 33e4 a2bd 3b89 f4bd
00000100: 18fe d63d 0de5 173e 57af d0bd edd6 bfbc
00000110: b7ba 14bd d888 203d 9478 503d a93e 9d3d
00000120: 0a2e 30be ed00 353e 60ed de3d b17a 88bd
00000130: f739 993d 4006 2bbe 3b64 bc3c ff2f ea3d
00000140: 4013 6fbc 6db9 11be a440 76bd 8284 803c
00000150: 1621 6ebd 188c c0bd 3e7a bbbd 0653 d73d
00000160: b087 08be 82d2 863d 2064 b8bd 3a2b fa3d
00000170: 307e d1bd f1d1 9f3b 039c e7bc c17f 1d3d
00000180: 6c07 c0bd 570a 103d 59fa fa3d 8e66 a53d
00000190: 9df8 0c3e 861c 03be 4d8b f53d ee3c c4bd
000001a0: f70c 1f3e 1cc2 9cbd 61f4 093e 01ee 14be
000001b0: d08f febd 313d 323e 28d4 b53c f5f3 28bd
000001c0: a0f8 293c 7958 a73d be78 f23d 6c19 05bd
000001d0: 8921 973d 7d7f cb3b 05dc 02bd 9038 d13c
000001e0: 96af f23d bdba 2c3e 48b7 f7bc 905d 33bd
000001f0: e33b c13d ebd0 4f3d abf7 a63c 544f 883c
00000200: b1f6 d6bd 82ab 9e3d bc6d 99bd ec67 983c
00000210: 99a2 08be 3f14 9f3c b042 76bd 005e 263e
00000220: 4209 01bd 58ea 5ebd f71b 403d 2e54 6b3d
00000230: a8c6 1abe 2619 7bba d543 ef3d 300e f73c
00000240: 0871 df3c ddbe 20be 8089 213e 3652 5cbd
00000250: 3a24 24bd 00be d0bb ef43 0d3e 95df 043e
00000260: 8068 dd3a fa38 f53d 6586 8fbd ba48 cf3d
00000270: 71ca 6b3d 501c 173d 526e 27bc d1c1 063e
00000280: dacd a73d cf7d 12bd abe8 d7bd 7050 2c3d
00000290: 11dd a9bd da2d 8b3d 4bf7 f13d 085e 12bd
000002a0: bfcf da3d 40fd 733b f56b 1b3e c5ca 103e
000002b0: 427b c8bd a90d ae3d 3be3 2dbd 463a 11be
000002c0: 0fca 183e a0d1 2fbe 8093 92ba 4641 973d
000002d0: 80e3 a0bd ffe4 a63d 5c89 103e 6a53 d63d
000002e0: 936e 28bd 481a 1abe 56de d43d 64a4 65bd
000002f0: a2dd 1d3e 567d 0ebe 2f8c c2bc a7f5 7fbd
00000300: b540 a2bd c94a 343e 9d5b 913d f518 11bb
00000310: 8e2a c53d 93a9 15bd fe86 203e 5e8d 0fbe
00000320: f455 5ebb 90a2 3a3c c960 113d c2e8 c4bd
00000330: 1d29 fd3d d24d c4bd ace5 3d3d f32b 863d
00000340: 6e5a 223e 10b7 e23d f221 32bc a62b 263e
00000350: 7016 123e 2079 953d 08d0 e73d 6461 23be
00000360: e2bd 9e3d 6389 c0bd 467a 153e 82e7 68bd
00000370: 90dd 2bbe f99a 0abd c3d0 37bd 4c54 5c3a
00000380: 4876 533d f20b 903c f52f 33be 2530 073e
00000390: e724 583d f6e9 e43d 369c b73c 55bb 2dbe
000003a0: b9e6 5bbd 49de 0c3e 0e9d 21be 3316 5ebd
000003b0: bc22 573d d5d1 fcbd 789e e4bd 2327 033e
000003c0: a7af 0c3e 80ec 14be 1561 123e 2285 f03d
000003d0: 9ef2 a73d 544d 25be 8279 773d 9837 f93c
000003e0: 30ce 24be 93e5 a43d 959a 2f3e e989 263e
000003f0: 1c63 eebd 0344 d93c 4292 643d 6c06 f03d

simplicial_nn.0.W2 f4 [5, 1, 64]
0.15518156 -0.11228135 0.0075408984 0.1371521 0.078559555 0.16509718 -0.037512988 -0.024592115
0.15223426 0.041104764 -0.12633808 -0.13770846 0.051012337 0.061104354 0.103956796 -0.057097524
0.01858939 0.13258909 0.021162774 0.07942724 -0.022287834 -0.02598086 -0.037031785 -0.020343948
-0.017723754 0.042246804 0.12289875 0.07527839 -0.16228466 -0.0052792085 0.16236374 0.012780185
0.04060836 -0.12224163 -0.039815746 -0.00019651651 0.051694926 -0.15027002 -0.09341495 0.065936744
0.14693609 -0.11392807 0.077136084 -0.027185861 -0.0844324 -0.15120696 0.10451141 0.002099145
-0.10916868 0.14727049 0.16547073 0.02468653 0.11441493 0.036251824 -0.11172543 0.09624542
-0.15320265 0.1710464 0.090573594 0.07364158 0.172318 -0.023822539 -0.0041736364 -0.10242682
-0.13443987 -0.059563614 -0.007800414 0.14569294 -0.09091404 -0.1394031 -0.13325588 -0.10938954
0.09281517 0.08169855 0.0038494165 0.1298514 -0.039954104 0.159795 0.08121803 -0.033231843
0.05917404 0.13030308 0.113409474 0.07811916 -0.04250269 0.14342599 0.05141638 0.0061996835
0.14498647 -0.15960145 0.045131873 0.07290962 -0.012168251 -0.03110987 0.08407118 -0.1309059
0.047835127 0.14740808 -0.09226332 0.16103081 0.019970277 -0.08230826 -0.12716658 0.13541709
-0.07489896 -0.09406698 0.10632913 -0.097935684 -0.1367652 -0.097206384 0.01775501 0.09397987
0.09638177 0.066866726 -0.07121129 0.0067255795 0.13910668 -0.055875365 -0.10755102 -0.13452286
-0.03483871 0.1484893 -0.15270479 -0.0014639646 -0.11801262 0.11210898 0.08486042 0.12460035
0.026709229 0.033623487 0.0227649 -0.0911589 0.043508723 0.15591352 0.074967705 0.16780882
-0.082866214 0.1734903 0.040608093 -0.07170307 0.08786794 0.05707929 0.03400241 -0.14935297
0.14147577 -0.039628413 -0.09149456 0.025530703 0.051343177 0.14846955 0.15487456 0.08271319
0.007193938 -0.088726826 0.15656696 -0.03870453 0.09684397 -0.011737312 0.063178 -0.12772119
-0.032352045 -0.15986717 -0.17371848 0.08167274 -0.17139883 0.12057738 0.06606725 0.11761613
0.08312168 0.074502006 -0.025759324 -0.12056016 -0.13414198 0.12518537 -0.0807651 -0.11306036
0.024475142 0.08615195 0.12590359 0.028101847 0.14101546 0.17531024 -0.123371154 -0.030047715
0.16297235 -0.0067506866 0.1245652 0.06810303 0.15955164 -0.027847193 0.107255414 0.05003382
-0.07768349 0.1396202 -0.11107406 0.14178546 -0.044457033 -0.069630295 0.030315926 0.05906243
-0.0052369093 -0.079970844 0.11030209 0.054574694 -0.072652616 0.14848779 0.13909988 -0.14365032
0.09838327 0.05785947 0.1461333 -0.16282453 0.16806474 -0.10380914 -0.16017275 -0.15392646
0.007725194 -0.101355985 -0.13928671 -0.0016406476 0.06020924 -0.047291394 0.17471656 0.07715773
0.11015566 -0.05198402 -0.11954174 0.12176339 -0.080397606 0.0666078 -0.052647896 -0.1489028
0.03535004 0.05744244 0.002389282 -0.02347864 0.081444874 0.019221922 0.043820966 -0.0059661674
-0.012895331 -0.087942 -0.10511413 -0.0002629161 0.0008626441 -0.058727566 -0.15896674 0.021557331
0.1349801 0.106293306 -0.14353041 -0.06523291 -0.04793899 -0.1638599 -0.047010913 0.17433105
00000000: eae7 1e3e c4f3 e5bd a419 f73b 9a71 0c3e
00000010: d5e3 a03d 3c0f 293e 38a7 19bd 6775 c9bc
00000020: 4ce3 1b3e 785d 283d c55e 01be 7203 0dbe
00000030: 50f2 503d 8f48 7a3d 4de7 d43d 18df 69bd
00000040: c748 983c 6fc5 073e 8e5d ad3c c0aa a23d
00000050: fa94 b6bc d0d5 d4bc a4ae 17bd 5aa8 a6bc
00000060: 6831 91bc fc0a 2d3d 57b2 fb3d 8e2b 9a3d
00000070: f32d 26be 36fd acbb ae42 263e fb63 513c
00000080: f454 263d d259 fabd d615 23bd 0010 4eb9
00000090: 0fbe 533d 62e0 19be 5650 bfbd d809 873d
000000a0: 6a76 163e 1f53 e9bd 86f9 9d3d e2b4 debc
000000b0: e5ea acbd ffd5 1abe 140a d63d cf91 093b
000000c0: d493 dfbd 13ce 163e 2971 293e 683b ca3c
000000d0: 6052 ea3d cb7c 143d 4dd0 e4bd 521c c53d
000000e0: 28e1 1cbe ca26 2f3e a67e b93d 66d1 963d
000000f0: 2174 303e 7c27 c3bc 00c3 88bb 27c5 d1bd
00000100: 9baa 09be faf8 73bd 9e9a ffbb 8830 153e
00000110: 2431 babd b0bf 0ebe 3b74 08be a007 e0bd
00000120: e115 be3d 9251 a73d 7e46 7c3b c4f7 043e
00000130: eaa6 23bd 4da1 233e a355 a63d 1d1e 08bd
00000140: 7a60 723d 2c6e 053e 3a43 e83d f0fc 9f3d
00000150: 4d17 2ebd 43de 123e fb99 523d b726 cb3b
00000160: 5577 143e 906e 23be 33dc 383d a451 953d
00000170: 585d 47bc 20da febc 832d ac3d 320c 06be
00000180: c4ee 433d 25f2 163e 8df4 bcbd 43e5 243e
00000190: b598 a33c 3c91 a8bd f537 02be c7aa 0a3e
000001a0: a064 99bd 30a6 c0bd 16c3 d93d 8192 c8bd
000001b0: 2d0c 0cbe 2414 c7bd f472 913c 8578 c03d
000001c0: ce63 c53d 6cf1 883d 3ad7 91bd 4062 dc3b
000001d0: fb71 0e3e 91dd 64bd b643 dcbd 5cc0 09be
000001e0: 09b3 0ebd 940d 183e a55e 1cbe 80e2 bfba
000001f0: 9ab0 f1bd 6599 e53d 4dcb ad3d 782e ff3d
00000200: 50cd da3c c8b8 093d 757d ba3c 84b1 babd
00000210: 3436 323d cba7 1f3e ab88 993d 13d6 2b3e
00000220: c3b5 a9bd 71a7 313e ac54 263d 0fd9 92bd
00000230: 1bf4 b33d f9cb 693d 1c46 0b3d fcef 18be
00000240: 06df 103e 6751 22bd 8061 bbbd c425 d13c
00000250: 394d 523d 6708 183e 7097 1e3e 8865 a93d
00000260: 20bb eb3b 69b6 b5bd 1753 203e a488 1ebd
00000270: 2256 c63d db4d 40bc 7863 813d 58c9 02be
00000280: 9483 04bd 38b4 23be 42e3 31be 0a44 a73d
00000290: 2d83 2fbe 46f1 f63d 444e 873d bae0 f03d
000002a0: b33b aa3d 8294 983d 3805 d3bc 3fe8 f6bd
000002b0: 845c 09be 9830 003e 2c68 a5bd 318c e7bd
000002c0: 1880 c83c 6f70 b03d dfec 003e d835 e63c
000002d0: 5b66 103e 8784 333e 04aa fcbd a026 f6bc
000002e0: 39e2 263e dd34 ddbb 0a1c ff3d 9a79 8b3d
000002f0: 8161 233e cc1f e4bc baa8 db3d 43f0 4c3d
00000300: 8618 9fbd 99f8 0e3e cc7a e3bd 3530 113e
00000310: 9418 36bd 549a 8ebd 1b59 f83c 72eb 713d
00000320: 619a abbb c1c7 a3bd 10e6 e13d b789 5f3d
00000330: e5ca 94bd 2f0d 183e 3370 0e3e 1219 13be
00000340: 2b7d c93d 0dfe 6c3d f8a3 153e 79bb 26be
00000350: 2a19 2c3e e399 d4bd 5304 24be e69e 1dbe
00000360: a023 fd3b ba93 cfbd 2da1 0ebe 000b d7ba
00000370: f79d 763d 9fb4 41bd e6e8 323e df04 9e3d
00000380: 4a99 e13d 32ed 54bd 4dd2 f4bd 165f f93d
00000390: 80a7 a4bd ac69 883d 52a5 57bd fa79 18be
000003a0: 34cb 103d c448 6b3d 8095 1c3b 4756 c0bc
000003b0: 92cc a63d 4b77 9d3c 9d7d 333d d77f c3bb
000003c0: f046 53bc ef1a b4bd 1446 d7bd 00d8 89b9
000003d0: 1123 623a 518c 70bd 2dc8 22be 0099 b03c
000003e0: 3938 0a3e 4eb0 d93d a3f9 12be d598 85bd
000003f0: ad5b 44bd e4ca 27be 848e 40bd d783 323e

simplicial_nn.2.W0 f4 [64, 64]
-0.07463391 -0.0647353 0.16945419 0.04410452 0.30024645 -0.21262091 -0.24715564 -0.0022602924
-0.0023770332 -0.22506016 0.12527026 -0.17828646 -0.048229396 -0.020345695 0.17394902 0.050369587
0.024172992 -0.035133123 -0.12840249 0.086397834 -0.21092048 0.2611837 -0.07097816 -0.05244052
0.28922543 -0.21819614 0.07557719 -0.13906541 0.05205796 0.2149336 -0.22693655 -0.15600093
-0.018223919 -0.011408746 -0.26638466 -0.08318891 0.29128686 -0.3019544 0.18568364 -0.08113025
0.08491639 -0.28378722 -0.13349065 0.29994604 0.024228156 -0.055070788 -0.08110666 -0.1401363
-0.09499369 -0.21047351 -0.23929732 -0.25154498 -0.0062685097 0.0008093496 -0.27480504 0.26262292
0.1327673 0.101353735 -0.085062206 -0.24347888 0.0747709 -0.07964429 0.1017373 -0.29249993
-0.24985139 0.22544643 -0.13757978 -0.04681465 0.19362861 0.13925737 -0.1883499 0.29573938
-0.035090238 0.22914234 0.076076984 -0.00784862 0.11326608 -0.28465942 -0.28595713 0.20387402
-0.20441647 0.24830952 0.16899028 0.13823798 0.04293713 -0.07782778 -0.03354001 -0.23021573
0.04191637 0.19642308 -0.18014118 -0.24753195 0.0785777 -0.11626561 0.01767093 -0.22276774
-0.10090043 0.06262782 -0.12673286 0.072151065 0.13793123 -0.12818564 -0.27883422 -0.06381939
0.24720415 0.19529954 -0.2853192 -0.033952415 -0.22568136 -0.0096490085 -0.23795697 -0.043336928
-0.295276 -0.06574431 -0.22711973 0.05360341 0.2969124 0.053131104 -0.20915559 0.13633952
0.23468062 -0.11156879 -0.16078332 0.0040344 0.052031428 -0.01280418 -0.032138944 -0.23629005
0.21471716 -0.23279694 0.045592368 0.07142075 0.061644167 -0.22683665 -0.2677074 0.26791367
-0.20661382 -0.12506141 -0.14357747 -0.12129782 -0.16515212 -0.2431487 -0.016933076 -0.19075686
-0.16060545 -0.038335323 0.24018112 0.19910452 0.21145277 -0.100344695 -0.14395621 0.03538808
7.801317e-05 0.0038374094 0.21534416 0.029276099 -0.28498766 0.13652658 0.07543921 0.23210558
-0.28434885 0.20533797 0.2249327 0.08908573 -0.2703509 -0.29002258 0.009626628 -0.2730565
0.07947127 0.022796541 -0.12655391 -0.23799214 0.18940508 -0.11431347 0.05112369 0.22520486
-0.13446173 -0.03814018 0.030695459 0.18584059 -0.16921426 -0.07469527 -0.22227567 0.22563735
-0.03599573 -0.099332176 0.1250595 -0.10729972 -0.18746936 -0.11246213 0.017699188 -0.18090451
-0.25590697 0.111279584 -0.2974133 -0.18411465 0.023148745 0.114489526 0.08246207 0.014794496
-0.1794369 0.149548 0.053541247 -0.22079647 -0.1431052 -0.22912775 -0.16759697 0.12707594
-0.24075578 0.17386022 0.10182825 0.10671582 -0.09883654 -0.16946726 0.1834012 0.23580398
0.28757766 -0.23797044 -0.16825993 -0.22761057 -0.17087385 0.006594209 -0.2933601 0.14257872
-0.26197746 0.22992226 -0.05641178 0.14574835 0.120441265 -0.29685614 -0.08108035 0.25150764
0.21020564 0.09000179 0.15820603 -0.06702033 -0.2031951 0.15010193 -0.08134141 -0.08704589
0.2107051 0.16906339 0.22994778 -0.12869918 -0.018848956 0.04831791 0.068357825 0.12292938
-0.11175273 0.20922111 0.025567573 0.18179512 -0.09677532 -0.030912459 0.095976144 -0.1782865
00000000: aad9 98bd f193 84bd 6685 2d3e f1a6 343d
00000010: e7b9 993e 4cb9 59be 5e16 7dbe 6a21 14bb
00000020: 00c8 1bbb 2c76 66be d946 003e ba90 36be
00000030: 308c 45bd 04ac a6bc b11f 323e 5750 4e3d
00000040: 7006 c63c c0e7 0fbd f17b 03be 59f1 b03d
00000050: 8afb 57be dfb9 853e ff5c 91bd dfcb 56bd
00000060: 5b15 943e cf6e 5fbe 37c8 9a3d 2a67 0ebe
00000070: ba3a 553d 8e17 5c3e 0e62 68be b5be 1fbe
00000080: 544a 95bc c0eb 3abc 9263 88be f25e aabd
00000090: 8d23 953e c499 9abe da23 3e3e 9e27 a6bd
000000a0: a5e8 ad3d 8f4c 91be c6b1 08be 8792 993e
000000b0: 207a c63c e891 61bd 401b a6bd e47f 0fbe
000000c0: 0d8c c2bd 5e86 57be 5b0a 75be 81ca 80be
000000d0: 1268 cdbb 882a 543a 3fb3 8cbe 8376 863e
000000e0: 27f4 073e 8c92 cf3d 1835 aebd 8752 79be
000000f0: 7c21 993d 8c1c a3bd a55b d03d 8dc2 95be
00000100: 0bd9 7fbe 6edb 663e b7e1 0cbe b8c0 3fbd
00000110: 9446 463e 7c99 0e3e ccde 40be 276b 973e
00000120: c8ba 0fbd 4aa4 6a3e 40ce 9b3d 8097 00bc
00000130: 0cf8 e73d e1be 91be f968 92be 5ac4 503e
00000140: 8d52 51be da44 7e3e ca0b 2d3e 428e 0d3e
00000150: d8de 2f3d 2c64 9fbd 4061 09bd acbd 6bbe
00000160: 80b0 2b3d 2223 493e ee76 38be 0479 7dbe
00000170: 58ed a03d aa1c eebd a0c2 903c 3a1d 64be
00000180: e2a4 cebd 0443 803d 42c6 01be f0c3 933d
00000190: d83d 0d3e 1943 03be 5cc3 8ebe beb3 82bd
000001a0: 1623 7d3e 9afc 473e 5c15 92be b011 0bbd
000001b0: 0419 67be e016 1ebc feaa 73be 1082 31bd
000001c0: 6a2e 97be f4a4 86bd 1392 68be 408f 5b3d
000001d0: e704 983e 00a0 593d e22c 56be 969c 0b3e
000001e0: 1e50 703e 2e7e e4bd 62a4 24be 0033 843b
000001f0: e81e 553d a0c8 51bc 20a4 03bd 05f6 71be
00000200: d1de 5b3e 5262 6ebe 10bf 3a3d 0b45 923d
00000210: 987e 7c3d de47 68be f210 89be fb2b 893e
00000220: 9392 53be 1910 00be f905 13be fe6a f8bd
00000230: a31d 29be f9fb 78be 3cb7 8abc c455 43be
00000240: c175 24be 8005 1dbd 0af2 753e 0ee2 4b3e
00000250: 1387 583e 8581 cdbd 4269 13be 17f3 103d
00000260: 009b a338 0c7d 7b3b 2e83 5c3e 6ed4 ef3c
00000270: e7e9 91be a0cd 0b3e df7f 9a3d 16ad 6d3e
00000280: 2c96 91be 1e44 523e c254 663e 9472 b63d
00000290: 6f6b 8abe d77d 94be 01b9 1d3c 10ce 8bbe
000002a0: d5c1 a23d d0bf ba3c 5997 01be 36b4 73be
000002b0: 68f3 413e 2e1d eabd 1367 513d 1a9c 663e
000002c0: 56b0 09be e138 1cbd 0b75 fb3c ff4c 3e3e
000002d0: 8146 2dbe d5f9 98bd 3c9c 63be 7a0d 673e
000002e0: 4270 13bd ab6e cbbd 990f 003e f5bf dbbd
000002f0: f8f7 3fbe 8c52 e6bd e3fd 903c 083f 39be
00000300: 3d06 83be 8de6 e33d 8e46 98be 8d88 3cbe
00000310: 70a2 bd3c 7c79 ea3d e0e1 a83d 9d64 723c
00000320: 4fbe 37be 1c23 193e 114e 5b3d 7818 62be
00000330: 2b8a 12be 77a0 6abe 8a9e 2bbe 3220 023e
00000340: af88 76be 6a08 323e 548b d03d d38d da3d
00000350: d06a cabd d388 2dbe 86cd 3b3e 9976 713e
00000360: 613d 933e 86ae 73be 554c 2cbe bf12 69be
00000370: 8ef9 2ebe 3c14 d83b 4c33 96be 2800 123e
00000380: e921 86be be70 6b3e 0a10 67bd 0e3f 153e
00000390: e9a9 f63d 87fd 97be 740d a6bd 9cc5 803e
000003a0: 2640 573e dc52 b83d c300 223e f441 89bd
000003b0: 6012 50be 52b4 193e 5396 a6bd 1e45 b2bd
000003c0: 14c3 573e f41e 2d3e 6e77 6b3e b8c9 03be
000003d0: 2069 9abc 00e9 453d 30ff 8b3d 66c2 fb3d
000003e0: 9ede e4bd 0f3e 563e 1673 d13c 8028 3a3e
000003f0: 2432 c6bd 203c fdbc 248f c43d bc90 36be

simplicial_nn.2.W1 f4 [5, 64, 64]
-0.024049468 0.019949317 0.017420486 0.03427835 0.037917603 -0.00958644 0.005815964 0.018436782
0.03414228 -0.034656078 0.008419418 -0.026331935 0.018720273 -0.013845745 -0.041843336 0.030087385
0.03161606 -0.017725088 0.03307126 -0.0034147226 -0.02759105 0.04428589 -0.041512486 0.024294298
-0.03923244 -0.03712296 0.010211294 0.05226557 0.019324476 -0.010302155 0.024475278 0.017300962
0.030679828 0.028368186 -0.0491505 -0.008186016 -0.03870023 -0.020531766 -0.003784011 0.029256234
0.02938837 -0.017942697 0.029334046 -0.05266807 0.021445315 0.016724866 -0.025131417 0.051261794
0.043899707 -0.010438611 -0.034690544 -0.004416248 0.040491004 -0.034448687 0.017690036 -0.008035553
0.022741774 0.01808058 -0.019411385 -0.010513207 -0.024934793 0.021978889 0.047438115 0.001252003
0.04273883 0.045110833 0.0036798902 -0.031848356 0.0075028986 0.027281653 -0.051772192 -0.03671033
-0.025624266 0.010379914 -0.048139345 0.034271766 -0.030732872 -0.013971187 0.028503943 -0.008385368
-0.042169195 -0.01603426 -0.04536473 -0.005742606 -0.049091835 0.010943893 0.009122651 -0.0014311522
0.020712245 0.02410226 0.0518384 -0.0086629875 -0.021839058 -0.016563963 -0.01164861 -0.030925406
0.04017694 0.017702196 -0.007118635 -0.029578725 -0.034352697 0.036913414 0.05124237 -0.021007529
-0.022193436 0.012703132 0.02767421 -0.046785038 0.004499458 0.048331406 -0.002524212 -0.049676437
0.049090963 -0.031219887 0.043997508 -0.019236304 -0.04360917 -0.049054824 -0.0002551973 0.015934799
-0.009192482 -0.016749274 0.0050385967 -0.033187047 -0.036561232 0.0459301 0.036943275 0.0125130005
0.015518696 0.030225853 0.025792465 0.026708785 0.014470551 -0.03167685 -0.040880498 0.006301555
-0.017918289 -0.04774773 0.013643639 -0.0038111955 0.00021166448 0.040224195 0.021447899 0.036255144
0.0015081726 -0.04157212 0.051716425 0.038234558 -0.008800398 -0.028352011 -0.033592038 0.047326997
-0.028481068 0.019452084 -0.025336094 -0.0028848918 -0.029189803 -0.0370592 0.004213511 -0.04633433
-0.04165462 -0.044263326 -0.014494238 0.008190099 -0.038745247 -0.039329987 -0.03890125 0.050469194
0.0016786515 -0.0012978688 -0.019932132 -0.012241077 -0.004629802 0.043801535 -0.02782067 0.049715456
-0.04536085 0.0260575 -0.044054843 -0.017263014 -0.031884912 -0.015693884 -0.036790263 -0.02588846
0.04267444 0.026729198 0.002338669 -0.038800947 -0.045275424 -0.028343873 0.019957151 -0.04278732
-0.033601217 -0.02217645 0.012445298 -0.012098921 -0.04715659 0.008008575 0.048062403 0.0047522415
0.0016889162 0.0059906878 -0.021500368 0.030344825 0.01642509 -0.046976734 -0.008124796 0.017900907
-0.0019318014 -0.039492782 0.03129643 -0.0448908 0.03965208 -0.009697204 0.023055395 0.0019051364
0.050524626 -0.03659635 -0.04275094 0.037328046 0.010418633 -0.013467881 0.019156301 -0.045890354
0.047815207 0.04994109 0.037988782 0.011135001 -0.034310132 -0.03994119 -0.017866433 -0.016287107
-0.050048158 0.018916417 0.0012283245 0.044635132 -0.04525204 0.039295387 0.021326419 -0.01766691
-0.046725836 0.036412474 0.03736382 0.024685178 -0.0135817155 0.025700945 0.0068034194 -0.018957138
0.016815737 0.008128831 -0.0019019214 -0.007056717 0.04522759 -0.041457616 0.04839044 0.017958794
00000000: 6403 c5bc c06c a33c 68b5 8e3c 7567 0c3d
00000010: 7d4f 1b3d 7210 1dbc d893 be3b bc08 973c
00000020: c7d8 0b3d 88f3 0dbd 99f1 093c 12b6 d7bc
00000030: 425b 993c 43d9 62bc eb63 2bbd d279 f63c
00000040: d77f 013d 3434 91bc bb75 073d 8ac9 5fbb
00000050: a006 e2bc 1f65 353d ff08 2abd d604 c73c
00000060: 32b2 20bd 3f0e 18bd 454d 273c 6c14 563d
00000070: 5d4e 9e3c 5fca 28bc 6180 c83c bfba 8d3c
00000080: 4354 fb3c 6664 e83c 0952 49bd a41e 06bc
00000090: 2284 1ebd 3c32 a8bc 2bfd 77bb c5aa ef3c
000000a0: e1bf f03c 90fc 92bc f44d f03c 79ba 57bd
000000b0: 16ae af3c 9602 893c 67e0 cdbc e3f7 513d
000000c0: 2ed0 333d b506 2bbc ac17 0ebd 2cb6 90bb
000000d0: e5d9 253d 111a 0dbd b2ea 903c 8da7 03bc
000000e0: f54c ba3c b91d 943c a004 9fbc 963f 2cbc
000000f0: 0d44 ccbc 120d b43c 784e 423d 401a a43a
00000100: e90e 2f3d 23c6 383d 502a 713b 6c73 02bd
00000110: e0da f53b c67d df3c 140f 54bd 925d 16bd
00000120: fbe9 d1bc 8410 2a3c c32d 45bd 8d60 0c3d
00000130: 81c3 fbbc 68e7 64bc 1a81 e93c c862 09bc
00000140: 9bb9 2cbd 485a 83bc 5ed0 39bd 782c bcbb
00000150: 8514 49bd 044e 333c 2c77 153c 8095 bbba
00000160: baac a93c 1a72 c53c 8154 543d 34ef 0dbc
00000170: d3e7 b2bc 26b1 87bc d0d9 3ebc 4757 fdbc
00000180: 9390 243d 3204 913c 7043 e9bb 154f f2bc
00000190: 6ab5 0cbd 8532 173d 85e3 513d fb17 acbc
000001a0: 02cf b5bc cc20 503c 06b5 e23c aba1 3fbd
000001b0: 3070 933b 27f7 453d 406d 25bb 8579 4bbd
000001c0: 9b13 493d d9c0 ffbc bb36 343d 7495 9dbc
000001d0: 879f 32bd b6ed 48bd 00cc 85b9 b289 823c
000001e0: 109c 16bc c635 89bc d01a a53b 24ef 07bd
000001f0: 3bc1 15bd 3321 3c3d d551 173d 5403 4d3c
00000200: 2142 7e3c 359c f73c b84a d33c 62cc da3c
00000210: e415 6d3c 96bf 01bd 4f72 27bd 467d ce3b
00000220: 60c9 92bc 2093 43bd 9289 5f3c 40c5 79bb
00000230: 40f2 5d39 20c2 243d 81b3 af3c 4680 143d
00000240: e0ad c53a 8747 2abd 9ad4 533d d79b 1c3d
00000250: 8b2f 10bc 7a42 e8bc ce97 09bd f4d9 413d
00000260: 2151 e9bc fa59 9f3c a48d cfbc 7410 3dbb
00000270: 741f efbc 63cb 17bd 7e11 8a3b 11c9 3dbd
00000280: 099e 2abd 764d 35bd 3e79 6dbc c42f 063c
00000290: 56b3 1ebd 7b18 21bd eb56 1fbd c9b8 4e3d
000002a0: 3306 dc3a 401d aaba b648 a3bc cc8e 48bc
000002b0: 98b5 97bb 3d69 333d 2ce8 e3bc 6fa2 4b3d
000002c0: 4ccc 39bd 8a76 d53c da72 34bd 2a6b 8dbc
000002d0: c199 02bd 7690 80bc 63b1 16bd 0914 d4bc
000002e0: 65cb 2e3d 31f7 da3c 5b44 193b beed 1ebd
000002f0: b972 39bd 6931 e8bc 2e7d a33c c241 2fbd
00000300: 6ea1 09bd 63ab b5bc 5de7 4b3c 8e3a 46bc
00000310: 4527 41bd 6636 033c 15dd 443d b1b8 9b3b
00000320: a05e dd3a 884d c43b 8a21 b0bc b695 f83c
00000330: e98d 863c ad6a 40bd dd1d 05bc eca4 923c
00000340: 8034 fdba 2fc3 21bd af30 003d 6adf 37bd
00000350: 386a 223d 06e1 1ebc abde bc3c c5b5 f93a
00000360: e9f2 4e3d 0ee6 15bd 9c1b 2fbd 4be5 183d
00000370: eab2 2a3c 63a8 5cbc aded 9c3c 86f7 3bbd
00000380: e1d9 433d 078f 4c3d 209a 1b3d 946f 363c
00000390: c888 0cbd 6099 23bd a05c 92bc 8a6c 85bc
000003a0: 4cff 4cbd 9af6 9a3c bbff a03a 54d3 363d
000003b0: 345a 39bd 33f4 203d beb4 ae3c 32ba 90bc
000003c0: 9763 3fbd 3f25 153d ce0a 193d 9238 ca3c
000003d0: d885 5ebc ca8a d23c 38ef de3b 004c 9bbc
000003e0: 28c1 893c ca2e 053c e449 f9ba 083c e7bb
000003f0: 9140 393d 76cf 29bd 0e35 463d 521e 933c

simplicial_nn.2.W2 f4 [5, 64, 64]
-0.0063198833 -0.01695801 -0.012240171 -0.038428165 -0.023794752 0.031417184 -0.027117511 0.05245575
-0.03359633 -0.025382603 0.0016270218 -0.018085308 -0.041250404 -0.0030776178 0.010659958 -0.025705509
0.011126112 -0.037535675 0.04445599 0.046399493 -0.0094664395 0.0364918 0.047391426 -0.039513733
0.00169304 0.03635433 0.008376656 0.007618012 -0.016075231 0.035856977 -0.044247303 0.05025676
-0.017185146 0.0115766935 0.032292116 0.025869105 -0.007002069 0.009679582 0.050729435 -0.0457922
0.039055098 -0.035569437 0.032580957 -0.021187687 -0.0048915297 0.04710323 0.04486691 0.035569217
0.026319385 -0.023106536 0.0035220268 0.032007232 0.029403264 0.04768835 0.0033956468 -0.013595428
-0.01604346 -0.045062587 -0.048828825 -0.049466494 0.035114136 -0.0074467547 0.007305529 -0.026141146
-0.0014874525 -0.020272851 0.042725008 -0.04258225 0.0436781 0.019870568 -0.021370674 -0.008991439
0.045219574 0.016118247 -0.02900742 0.017531034 0.0008734092 -0.036002018 0.0040666945 -0.037416097
-0.009200536 0.01265968 0.008702628 0.04036512 0.03615472 0.050672654 0.048011873 0.010400403
-0.027559347 0.042595554 -0.030743523 -0.046962917 -0.021212498 0.025258545 -0.002681613 0.016698305
-0.019036442 -0.04539181 0.019122858 -0.022123192 0.02572878 0.013667736 0.017204966 -0.017042946
-0.021166196 -0.045298826 -0.030839961 0.008042969 0.0069317445 -0.04959458 -0.0009663366 0.009384606
-0.048674867 0.027945962 0.022762422 -0.045166463 -0.006223131 -0.049724896 0.02222823 -0.03628602
-0.048289735 0.013640989 0.05087276 -0.019020956 -8.7291e-05 -0.02282728 0.019047972 0.015759539
-0.014793892 -0.030401642 0.04684986 0.011347891 0.01482169 0.048710894 0.013196763 0.05034272
0.023189958 -0.010199968 -0.04281649 0.015832286 -0.04901389 -0.011049841 -0.044004247 -0.02207001
0.0052515455 0.032113086 0.022635043 0.03888705 -0.0003929322 0.023859788 -0.04669275 -0.017760413
0.013267503 -0.02816469 -0.045668453 0.027475802 -0.01825111 0.048205975 0.04969911 -0.017521665
-0.01883505 0.021935437 -0.02232921 0.022839796 -0.023299472 -0.021141954 -0.031457204 -0.0010165474
0.021419184 0.023854952 0.01021772 0.052141547 0.025980975 0.019523282 0.02361967 -0.03131892
0.047149394 0.048948813 -0.051640835 0.052656412 0.03884179 -0.0063011753 0.035357784 -0.04804395
-0.027696265 0.042639233 -0.05258336 0.04669336 0.0110647045 0.014750954 -0.046704277 0.047522236
0.038710766 -0.037362095 0.052952755 0.036020536 -0.024735782 -0.025761709 0.050078552 -0.050391838
-0.0106689595 -0.04054751 -0.050063774 -0.0047179796 0.029699156 0.004091773 0.013185915 0.013254754
-0.022711664 -0.010177154 -0.031106615 0.0114994235 0.048907127 0.027076224 0.025405504 0.030971667
-0.045005977 -0.039651692 0.029149063 -0.01241566 -0.0077661667 0.025192192 0.053087987 0.025107663
-0.008902105 -0.02399519 0.017348299 0.021873537 0.009584894 0.012904514 0.014085007 0.03560048
-0.02328087 0.018385481 -0.037945233 0.016987318 -0.051895127 -0.01584633 0.017711254 0.0060530156
-0.028359717 0.04823252 -0.04815763 0.032145597 -0.037782006 0.010709648 0.016422909 -0.019316247
-0.0047233477 -0.018370617 -0.018491996 -0.0075798277 0.013162937 -0.009319805 0.05271623 0.009948079
00000000: 0617 cfbb 86eb 8abc 008b 48bc da66 1dbd
00000010: 36ed c2bc 4eaf 003d 8b25 debc d7db 563d
00000020: 4e9c 09bd 2def cfbc cb41 d53a a427 94bc
00000030: 2ff6 28bd dcb1 49bb 1ba7 2e3c 5c94 d2bc
00000040: 4c4a 363c 02bf 19bd 7c17 363d 650d 3e3d
00000050: 2019 1bbc 6d78 153d 831d 423d 27d9 21bd
00000060: ffe8 dd3a 47e8 143d 3e3e 093c 84a0 f93b
00000070: 34b0 83bc c4de 123d a93c 35bd 08da 4d3d
00000080: ddc7 8cbc 2cac 3d3c bd44 043d 72eb d33c
00000090: 9d71 e5bb 1c97 1e3c abc9 4f3d 9a90 3bbd
000000a0: 3df8 1f3d 42b1 11bd 9c73 053d cd91 adbc
000000b0: 2049 a0bb 51ef 403d 5dc6 373d 07b1 113d
000000c0: c09b d73c eb49 bdbc ced1 663b 041a 033d
000000d0: 1ddf f03c dc54 433d 8089 5e3b 5cbf 5ebc
000000e0: 936d 83bc 8c93 38bd bc00 48bd 619d 4abd
000000f0: d7d3 0f3d e803 f4bb 3863 ef3b f525 d6bc
00000100: a0f6 c2ba 4013 a6bc 6b00 2f3d ba6a 2ebd
00000110: cfe7 323d 9ac7 a23c 8d11 afbc d450 13bc
00000120: 2938 393d 6a0a 843c f8a0 edbc 3e9d 8f3c
00000130: 80f5 643a da76 13bd e841 853b 9f41 19bd
00000140: d8bd 16bc 8c6a 4f3c 7895 0e3c e555 253d
00000150: f916 143d 218e 4f3d 19a8 443d 7466 2a3c
00000160: 24c4 e1bc ad78 2e3d d7d9 fbbc 305c 40bd
00000170: d5c5 adbc 02eb ce3c 00be 2fbb e2ca 883c
00000180: 50f2 9bbc c3ec 39bd 8aa7 9c3c b23b b5bc
00000190: 2ac5 d23c a4ee 5f3c 6ef1 8c3c a69d 8bbc
000001a0: bb64 adbc 438b 39bd 16a4 fcbc a8c6 033c
000001b0: b023 e33b b023 4bbd c051 7dba e4c1 193c
000001c0: 4c5f 47bd eeee e43c 4278 ba3c 7800 39bd
000001d0: 68eb cbbb 55ac 4bbd fa17 b63c a6a0 14bd
000001e0: 75cb 45bd 747e 5f3c f55f 503d d6d1 9bbc
000001f0: 0010 b7b8 4700 bbbc 7e0a 9c3c 261a 813c
00000200: 1562 72bc dd0c f9bc a4e5 3f3d 81ec 393c
00000210: acd6 723c 1385 473d 3c37 583c 2b34 4e3d
00000220: def8 bd3c c41d 27bc 5860 2fbd b6b2 813c
00000230: cac2 48bd 640a 35bc cc3d 34bd 2acc b4bc
00000240: 2815 ac3b 0389 033d 206d b93c 0748 1f3d
00000250: 7802 ceb9 9a75 c33c e640 3fbd 497e 91bc
00000260: f15f 593c a3b9 e6bc d80e 3bbd ef14 e13c
00000270: 5a83 95bc a173 453d 4b91 4b3d 9889 8fbc
00000280: f64b 9abc f2b1 b33c bfeb b6bc 861a bb3c
00000290: 89de bebc e431 adbc 45d9 00bd ac3d 85ba
000002a0: 4977 af3c 766b c33c 3968 273c 6092 553d
000002b0: 0ed6 d43c 4aef 9f3c 0a7e c13c 4548 00bd
000002c0: b91f 413d 8d7e 483d 5785 53bd 40ae 573d
000002d0: 9218 1f3d 177a cebb 53d3 103d bcc9 44bd
000002e0: 47e3 e2bc 7aa6 2e3d a661 57bd 8941 3f3d
000002f0: bc48 353c fcad 713c fc4c 3fbd ada6 423d
00000300: 2e8f 1e3d ff08 19bd fde4 583d 458a 133d
00000310: b2a2 cabc 380a d3bc 2b1f 4d3d ac67 4ebd
00000320: dccc 2ebc 2515 26bd ac0f 4dbd 4899 9abb
00000330: a54b f33c 4814 863b bc09 583c 782a 593c
00000340: d00d babc 14be 26bc 4dd3 febc 1468 3c3c
00000350: d752 483d f5ce dd3c 341f d03c 4bb8 fd3c
00000360: 3058 38bd d069 22bd 04ca ee3c 0d6b 4bbc
00000370: 547b febb db5f ce3c ca72 593d 96ae cd3c
00000380: 22da 11bc 9091 c4bc 051e 8e3c 2230 b33c
00000390: f609 1d3c 746d 533c cdc4 663c cfd1 113d
000003a0: 86b7 bebc 269d 963c 766c 1bbd fd28 8b3c
000003b0: fc8f 54bd 2ad0 81bc 3117 913c 6058 c63b
000003c0: a352 e8bc 778f 453d ef40 45bd 1aab 033d
000003d0: 4ec1 1abd 8577 2f3c 5689 863c 1b3d 9ebc
000003e0: 50c6 9abb fa7d 96bc 877c 97bc 3460 f8bb
000003f0: 5ca9 573c 18b2 18bc f9ec 573d 44fd 223c

simplicial_nn.4.W0 f4 [64, 1]
0.08537778 -0.13317356 0.12224255 0.19691022 0.029732555 -0.41940612 0.41011742 0.28451797
-0.09896082 -0.24534357 0.41847357 -0.015961498 0.3568444 0.009992831 0.42558607 -0.35548106
0.20010176 -0.37445393 -0.42648706 0.18258974 -0.15912107 0.26577213 -0.3126148 0.17221503
0.028693944 0.30285946 -0.32349506 -0.33515513 0.42147467 -0.39501476 0.186054 -0.40804926
-0.37384275 -0.3886079 0.06959636 0.35544726 -0.14159314 0.12693569 -0.30932936 -0.028025478
0.40302604 0.14511135 -0.19408357 0.25101057 -0.34038007 0.20115861 -0.16245152 0.14927372
-0.116052955 0.2995311 0.16661146 0.40143743 0.079111844 0.3036175 -0.15782079 -0.15470079
0.21468392 -0.2301725 -0.19591217 0.007864863 0.40681896 0.23868832 0.371703 -0.31397486
00000000: 8cda ae3d a65e 08be 4d5a fa3d d5a2 493e
00000010: b091 f33c 66bc d6be e9fa d13e 57ac 913e
00000020: f8ab cabd 583b 7bbe 2b42 d63e b0c1 82bc
00000030: 4fb4 b63e f9b8 233c 6be6 d93e 9d01 b6be
00000040: 7ae7 4c3e 6db8 bfbe 835c dabe cef8 3a3e
00000050: a2f0 22be 4913 883e 0c0f a0be 2359 303e
00000060: 900f eb3c 6510 9b3e 25a1 a5be 7499 abbe
00000070: 87cb d73e 603f cabe f184 3e3e d5eb d0be
00000080: 5168 bfbe 9df7 c6be 8988 8e3d 2ffd b53e
00000090: cbfd 10be 6efb 013e 6b60 9ebe b095 e5bc
000000a0: 6e59 ce3e 1298 143e d8bd 46be 7584 803e
000000b0: 4c46 aebe 86fc 4d3e b159 26be 36db 183e
000000c0: 2cad edbd 245c 993e 329c 2a3e 3589 cd3e
000000d0: 6405 a23d c173 9b3e c69b 21be e269 1ebe
000000e0: 1ad6 5b3e 57b2 6bbe 339d 48be a0db 003c
000000f0: 934a d03e b66a 743e db4f be3e 50c1 a0be

simplicial_nn.4.W1 f4 [5, 64, 1]
0.11477939 0.33612058 -0.3274775 0.0037238756 0.14995655 -0.3347299 -0.14572838 0.042197634
-0.20254628 0.24148676 -0.29005015 -0.20876825 0.34306145 -0.26365596 -0.35460594 -0.1483888
-0.26621038 -0.12964699 0.12335082 -0.1907245 0.03881845 0.31419948 -0.026579741 -0.17226401
0.04884866 -0.2218556 0.06260323 0.1902963 0.116929196 -0.32057738 0.05178806 -0.36287963
0.26956582 -0.07941964 -0.2746746 -0.016456842 0.28623936 -0.3531472 -0.085496135 0.26655456
0.41634148 -0.20734023 -0.10038075 -0.22352348 0.15822914 0.11035976 -0.37196168 0.19626752
-0.07924157 0.05510646 0.11739233 -0.28944123 -0.04270199 -0.33440804 -0.12169075 0.07730765
-0.20290959 0.19105121 -0.0049932664 -0.18597893 0.33348212 -0.036067247 -0.34690875 0.1493828
-0.1222165 -0.22350742 0.3261355 -0.26131195 -0.329592 0.31031147 0.13301864 -0.299074
0.12469688 0.14851788 -0.39423552 -0.14974087 0.35107437 0.29036915 -0.17374516 0.025421303
-0.09505287 0.17975417 -0.2185148 0.1031323 -0.06775079 0.4132377 0.031739213 0.097259656
-0.30688024 0.24354658 0.0005353213 -0.22102533 -0.31956977 0.22537799 -0.17547458 0.005115456
0.2704554 0.26725575 0.093090646 0.38421753 0.32553953 -0.33244666 0.13872205 0.0503407
0.27560264 -0.33315343 -0.052750167 -0.09169658 0.027133048 -0.23529662 0.40144554 -0.3141927
0.048035484 -0.0013351951 -0.13091701 -0.03699857 -0.32203946 0.025417103 0.20284334 0.18901932
0.16936779 0.036928218 -0.038336985 0.29474154 0.064708024 0.2142596 0.13950193 0.1850532
-0.14222634 0.181226 0.17419522 0.0024490682 0.39995405 -0.30279022 -0.11652094 -0.24596855
-0.10364279 0.039613366 -0.322687 0.21181527 0.0021718564 0.26995677 -0.12567694 -0.060026903
-0.21473975 0.3519831 -0.078363016 -0.1453832 -0.27041423 0.15148522 0.29176697 0.40372872
-0.25105006 -0.06515602 -0.37226596 -0.1576106 0.12621714 0.03344004 0.26603252 0.35565987
0.117029235 0.009113729 -0.16021751 -0.38799775 -0.14770044 0.06658265 -0.16141696 0.39192128
0.098142825 -0.036136538 -0.35581082 -0.15868278 0.19937816 0.33508155 0.1450412 0.12706825
0.21749699 -0.14830673 0.013651595 -0.1401919 -0.22405581 -0.14922073 0.087696105 0.29123732
0.15662733 0.033605967 0.27750495 -0.16446425 0.24791077 -0.40088767 0.35110715 0.32135698
-0.18768837 0.14581458 0.031223983 0.07410888 0.40400097 -0.34015816 -0.036688864 0.036423262
-0.22710182 -0.15791485 0.16107534 -0.06293732 0.37104583 -0.1118383 0.24748644 0.389071
0.051927418 -0.1456609 0.29597667 0.1826581 -0.06656793 -0.1312323 -0.100575075 0.2696532
0.35323945 0.27074835 -0.16034456 0.36630958 0.1765023 -0.38485155 -0.11387739 0.22137238
-0.17046589 -0.24441527 -0.093717396 0.25490388 0.22390439 -0.3355636 0.084999524 -0.17258787
-0.087654755 0.08955446 0.022426913 -0.15021388 -0.41174102 -0.1271123 -0.11881522 0.1300337
-0.085774735 0.36552376 0.28797942 -0.2191926 -0.21115421 -0.13491708 -0.13979203 -0.23520887
0.41201526 0.4104974 -0.12353977 -0.2634544 0.13664994 0.0123283565 0.35358065 0.07492298
00000000: 7511 eb3d ff17 ac3e 22ab a7be 440c 743b
00000010: 368e 193e b861 abbe d239 15be 6dd7 2c3d
00000020: 4b68 4fbe 4e48 773e 7481 94be 58c7 55be
00000030: c0a5 af3e eafd 86be e98e b5be 3cf3 17be
00000040: ba4c 88be 2ec2 04be 5b9f fc3d 494d 43be
00000050: 1800 1f3d c1de a03e c2bd d9bc fa65 30be
00000060: 8815 483d 1d2e 63be 1f36 803d 09dd 423e
00000070: 9378 ef3d b822 a4be b81f 543d 5ccb b9be
00000080: 8804 8a3e c4a6 a2bd 26a2 8cbe 80d0 86bc
00000090: f78d 923e b6cf b4be 9918 afbd d779 883e
000000a0: b62a d53e ff50 54be 6c94 cdbd 57e3 64be
000000b0: d206 223e 4c04 e23d c371 bebe 5afa 483e
000000c0: 6749 a2bd 50b7 613d 646b f03d a431 94be
000000d0: 48e8 2ebd 8837 abbe 0039 f9bd 7953 9e3d
000000e0: 88c7 4fbe eea2 433e 8e9e a3bb 4371 3ebe
000000f0: 2bbe aa3e 40bb 13bd 069e b1be cef7 183e
00000100: a54c fabd 21df 64be 3bfb a63e aeca 85be
00000110: 48c0 a8be 25e1 9e3e 0a36 083e 3a20 99be
00000120: 1461 ff3d 1215 183e 3dd9 c9be ac55 19be
00000130: 05c0 b33e 44ab 943e 40ea 31be 5640 d03c
00000140: 14ab c2bd 7a11 383e 58c2 5fbe 0737 d33d
00000150: edc0 8abd e493 d33e fa00 023d 1230 c73d
00000160: 681f 9dbe 4664 793e ce54 0c3a 7754 62be
00000170: a69e a3be 7dc9 663e 9caf 33be 8e9f a73b
00000180: 2179 8a3e bfd5 883e 4fa6 be3d 29b8 c43e
00000190: 1ead a63e 7336 aabe 270d 0e3e 0d32 4e3d
000001a0: ca1b 8d3e 1693 aabe 8f10 58bd 6bcb bbbd
000001b0: 2046 de3c 99f1 70be 458a cd3e dedd a0be
000001c0: dbc0 443d b701 afba 1c0f 06be d08b 17bd
000001d0: 5be2 a4be 8737 d03c 2ab6 4f3e 488e 413e
000001e0: c06e 2d3e 0b42 173d 3e07 1dbd 5de8 963e
000001f0: a485 843d de66 5b3e 98d9 0e3e 967e 3d3e
00000200: c8a3 11be 4f93 393e 3b60 323e 8c80 203b
00000210: c7c6 cc3e 5207 9bbe 88a2 eebd 2edf 7bbe
00000220: ac42 d4bd a041 223d 3b37 a5be 1ae6 583e
00000230: b455 0e3b c637 8a3e 75b1 00be c5de 75bd
00000240: bde4 5bbe 2137 b43e ca7c a0bd 55df 14be
00000250: bc73 8abe f11e 1b3e 7b62 953e 88b5 ce3e
00000260: a289 80be 8570 85bd a599 bebe ac64 21be
00000270: 113f 013e 6cf8 083d 6a35 883e 0d19 b63e
00000280: 06ad ef3d c051 153c 0f10 24be a4a7 c6be
00000290: c93e 17be 7c5c 883d 7d4a 25be e8a9 c83e
000002a0: 1bff c83d e803 14bd d62c b6be bd7d 22be
000002b0: ca29 4c3e cf8f ab3e ae85 143e 2e1e 023e
000002c0: 88b7 5e3e b8dd 17be f1aa 5f3c 778e 0fbe
000002d0: e36e 65be 52cd 18be 049a b33d 0f1d 953e
000002e0: ea62 203e 69a6 093d 2115 8e3e 5169 28be
000002f0: 52dc 7d3e 2641 cdbe 51c4 b33e e788 a43e
00000300: 6131 40be 6b50 153e 70c9 ff3c 65c6 973d
00000310: 37d9 ce3e 3629 aebe 1047 16bd 8f30 153d
00000320: 618d 68be 6eb4 21be eff0 243e 48e5 80bd
00000330: b8f9 bd3e 7b0b e5bd 166d 7d3e 5034 c73e
00000340: d8b1 543d 2228 15be 418a 973e ba0a 3b3e
00000350: c454 88bd c361 06be 4efa cdbd fc0f 8a3e
00000360: cddb b43e 879f 8a3e 5d31 24be ee8c bb3e
00000370: 05bd 343e 430b c5be 8d38 e9bd 71af 623e
00000380: 9c8e 2ebe ff47 7abe e8ee bfbd c382 823e
00000390: 3147 653e fece abbe 3b14 ae3d e0ba 30be
000003a0: 5684 b3bd 5468 b73d a5b8 b73c abd1 19be
000003b0: b8cf d2be ba29 02be 6555 f3bd 8e27 053e
000003c0: aaaa afbd ee25 bb3e 0a72 933e 0674 60be
000003d0: cf38 58be b427 0abe a425 0fbe 98da 70be
000003e0: aaf3 d23e b72c d23e 6b02 fdbd 7fe3 86be
000003f0: f6ed 0b3e e0fc 493c 8608 b53e 3871 993d

simplicial_nn.4.W2 f4 [5, 64, 1]
0.29635796 0.075976186 -0.27284476 0.33404276 -0.02251345 -0.20203526 0.26803532 -0.061341137
0.14960203 -0.25278133 -0.037315894 -0.064861715 -0.31591213 0.16433287 0.091012575 0.36984736
0.16729501 -0.12974373 -0.37341222 -0.3103716 0.13174134 -0.39451432 0.2279598 -0.37132564
0.09497268 -0.22732165 0.121069066 -0.41389135 0.3826027 0.075320885 -0.25668883 0.00033410185
-0.0499056 0.2565734 -0.3302519 -0.09188914 0.049051862 -0.039821625 -0.36992198 0.40063736
0.13641372 -0.14828172 0.08964446 0.12304253 -0.20435989 0.11661556 -0.28285992 0.10686323
0.40230408 -0.35021326 0.023939252 0.2403347 0.31994823 0.061035953 0.26260844 0.31686193
-0.078507505 -0.30814633 0.17834596 -0.05082977 -0.1420761 0.30207935 -0.22793068 0.2368078
0.3618481 0.12142471 0.0714729 0.22947058 -0.2503298 -0.38914108 -0.15786594 0.39277843
0.18772808 -0.20017886 0.34824842 0.09461197 -0.038180083 -0.25761124 0.40389007 0.4178446
-0.065335006 -0.00726825 0.3849919 -0.14926374 -0.1281036 -0.234848 -0.3210848 0.3000131
-0.11344664 0.065998375 -0.06105136 0.29610053 0.017640881 0.00013921468 0.15037015 -0.17129429
0.27484295 -0.16505736 0.27860662 0.04284194 0.41151765 -0.15247592 -0.09866881 -0.010974918
0.21435854 -0.02859199 -0.390971 0.41432285 0.16712669 -0.03352642 -0.25769597 0.045685112
0.15513614 -0.17365913 -0.33413422 -0.21311322 -0.21672845 -0.13201714 -0.09144384 0.07307865
-0.30358583 -0.23993006 -0.14303112 -0.020937234 -0.32627082 -0.20376869 -0.047219153 -0.012774438
0.26202008 0.34317756 -0.21118687 0.24852294 -0.024526596 0.36501068 0.073037595 -0.3742092
-0.021174073 0.026304215 -0.16558927 0.14740708 0.21488425 0.026328105 0.059905443 0.33856797
0.20699665 0.28890434 0.19776702 0.3641315 -0.13922991 -0.14910243 0.2737318 -0.40869504
0.08269623 -0.3299094 0.037324347 0.17722641 0.24468638 -0.35601392 -0.12097437 0.31464538
0.41677406 0.3598012 -0.11775826 -0.138475 -0.15558428 -0.29340464 -0.2613344 0.19452395
-0.2778379 -0.2983671 0.3937701 -0.22597593 0.33060393 0.051774442 0.4136235 -0.2514391
-0.39766106 0.39060453 -0.015685529 -0.017692806 0.3894067 -0.38767523 0.089405805 -0.25031832
-0.18787843 0.38564783 0.040012192 -0.027315408 -0.29635435 -0.120223165 -0.026778871 0.12230006
-0.1926117 -0.011995581 -0.20251614 -0.08262882 -0.14502022 -0.009908584 0.1221697 0.21592578
0.109820694 0.1279439 -0.22350314 0.2790403 0.2529753 -0.17764354 -0.22610311 -0.1153289
0.11018565 0.112345845 -0.30984393 0.41128406 -0.122170955 0.12011311 -0.13377169 -0.093792014
0.2650111 -0.31763753 0.12628143 -0.16799584 -0.15259972 0.11500189 -0.23416081 -0.01240908
0.332476 -0.4106955 0.32719633 -0.08172083 -0.25924444 0.052008986 0.14101563 -0.016780851
0.35880396 0.113861114 0.34649327 -0.30146384 -0.21593934 -0.23116015 0.31497914 -0.14092106
-0.008526593 -0.27137753 0.032310367 0.002376975 -0.39457506 0.15308307 -0.35558447 0.32152924
0.2607127 0.38126513 0.31654152 -0.398979 0.08033422 -0.22225632 -0.14900556 -0.30980325
00000000: 3bbc 973e 6799 9b3d 4fb2 8bbe a707 ab3e
00000010: 206e b8bc 55e2 4ebe ed3b 893e d840 7bbd
00000020: 4631 193e 8e6c 81be 8dd8 18bd 38d6 84bd
00000030: 3cbf a1be e046 283e cd64 ba3d a25c bd3e
00000040: 624f 2b3e 8adb 04be e32f bfbe 07e9 9ebe
00000050: 34e7 063e c8fd c9be 4b6e 693e 651e bebe
00000060: 0981 c23d 02c7 68be 0ff3 f73d 91e9 d3be
00000070: 80e4 c33e d641 9a3d b86c 83be 642a af39
00000080: d069 4cbd 975d 833e c716 a9be 6030 bcbd
00000090: 9bea 483d 001c 23bd 6a66 bdbe 5720 cd3e
000000a0: 0ab0 0b3e 2ad7 17be 8497 b73d b9fd fb3d
000000b0: b843 51be 24d4 ee3d 04d3 90be 1cdb da3d
000000c0: cdfa cd3e 274f b3be 401c c43c 4d1a 763e
000000d0: 41d0 a33e d600 7a3d 9d74 863e ba3b a23e
000000e0: 8bc8 a0bd 5bc5 9dbe 53a0 363e e032 50bd
000000f0: 667c 11be 25aa 9a3e a966 69be be7d 723e
00000100: 2744 b93e 85ad f83d 6260 923d 56fa 6a3e
00000110: 3a2b 80be 803d c7be 9ca7 21be 411a c93e
00000120: ca3b 403e b0fb 4cbe 9e4d b23e ecc3 c13d
00000130: b862 1cbd 9fe5 83be aeca ce3e baef d53e
00000140: 5cce 85bd 802a eebb a91d c53e 98d8 18be
00000150: 972d 03be fe7b 70be 3a65 a4be 519b 993e
00000160: b656 e8bd 282a 873d fe10 7abd 7d9a 973e
00000170: 9c83 903c 28fa 1139 a2fa 193e c567 2fbe
00000180: 37b8 8c3e cc04 29be 87a5 8e3e 087b 2f3d
00000190: 71b2 d23e a622 1cbe e012 cabd 24d0 33bc
000001a0: ce80 5b3e c039 eabc 5a2d c8be 2022 d43e
000001b0: 4223 2b3e 0053 09bd baf0 83be 5020 3b3d
000001c0: 02dc 1e3e b3d3 31be a413 abbe 5a3a 5abe
000001d0: 10ee 5dbe 802f 07be e846 bbbd 42aa 953d
000001e0: 9a6f 9bbe 3ab0 75be c076 12be 9084 abbc
000001f0: f80c a7be bda8 50be df68 41bd e04b 51bc
00000200: 7f27 863e f8b4 af3e 5f41 58be cc7c 7e3e
00000210: 00ec c8bc aee2 ba3e bc94 953d 5998 bfbe
00000220: 4075 adbc f07b d73c 3c90 29be e2f1 163e
00000230: 9e0a 5c3e 0aae d73c 695f 753d c858 ad3e
00000240: eef6 533e 45eb 933e 7083 4a3e 726f ba3e
00000250: 4992 0ebe 4fae 18be 9326 8c3e 7a40 d1be
00000260: a45c a93d e3e9 a8be 6ae1 183d d77a 353e
00000270: 118f 7a3e 7547 b6be 69c1 f7bd 3319 a13e
00000280: 6963 d53e dd37 b83e 3e2b f1bd 64cc 0dbe
00000290: 7c51 1fbe 2239 96be 9fcd 85be 4931 473e
000002a0: c540 8ebe 93c3 98be 3c9c c93e 3c66 67be
000002b0: eb44 a93e 7011 543d 76c6 d33e a0bc 80be
000002c0: 3b9a cbbe 51fd c73e f07e 80bc 81f0 90bc
000002d0: 5160 c73e 5e7d c6be 641a b73d b929 80be
000002e0: 3463 40be a273 c53e d3e3 233d 90c4 dfbc
000002f0: c2bb 97be 9037 f6bd 5d5f dbbc 7478 fa3d
00000300: 003c 45be 1d89 44bc 6460 4fbe 4c39 a9bd
00000310: 2e80 14be 9d57 22bc 1c34 fa3d a61b 5d3e
00000320: ace9 e03d ba03 033e 02de 64be 5fde 8e3e
00000330: fb85 813e 30e8 35be 9387 67be 8f31 ecbd
00000340: 04a9 e13d 9415 e63d dda3 9ebe d393 d23e
00000350: c434 fabd ddfd f53d 72fb 08be 0716 c0bd
00000360: 89af 873e 63a1 a2be eb4f 013e 1a07 2cbe
00000370: 1a43 1cbe 1c86 eb3d dac7 6fbe 744f 4bbc
00000380: 4b3a aa3e ae46 d2be 4786 a73e 405d a7bd
00000390: b0bb 84be 6007 553d 6766 103e ff77 89bc
000003a0: 27b5 b73e 0430 e93d 9167 b13e 7859 9abe
000003b0: 341f 5dbe 3fb5 6cbe f244 a13e 9c4d 10be
000003c0: 20b3 0bbc fff1 8abe e057 043d 06c7 1b3b
000003d0: be05 cabe cfc1 1c3e 2b0f b6be 7b9f a43e
000003e0: 237c 853e 2f35 c33e bb11 a23e fa46 ccbe
000003f0: 4486 a43d 2997 63be ea94 18be 889e 9ebe

exp_avg f4 [1, 64]
-0.00024992257 0.0 0.00017013629 0.000306023 -0.0001671207 -9.428096e-05 -3.9387714e-06 -0.00017678252
-0.0006753132 0.0 -0.00066103396 -0.00011758318 7.923863e-06 3.7390342e-05 0.00016841225 7.1953706e-05
0.0003041173 -7.931962e-06 -0.00011092203 0.00025707792 -2.4776787e-06 0.0 -7.503383e-06 -0.00023953302
0.0 0.0 0.00019143413 0.0 -9.68296e-05 -0.00019754074 0.00016279046 -2.5756128e-05
0.0 0.00081195374 -0.0002101979 0.0 -0.00043177928 0.0 -1.0359718e-05 0.0
0.00018324812 0.0 0.0 -0.0003340557 0.0 -0.0002502268 0.0007209866 0.00028691196
0.0 0.0002115524 0.0 0.0 0.0004472002 2.0952496e-07 -0.00023227472 0.0
-7.242853e-06 1.5807229e-06 0.0 0.0 -0.00066339143 6.929339e-05 1.4532158e-06 -0.00016575206
00000000: 0a08 83b9 0000 0000 9d66 3239 b671 a039
00000010: 1f3d 2fb9 b4b8 c5b8 ca29 84b6 b25e 39b9
00000020: 8007 31ba 0000 0000 3d49 2dba fd96 f6b8
00000030: bcf0 0437 93d3 1c38 d297 3039 dae5 9638
00000040: ef71 9f39 8413 05b7 d09e e8b8 6ac8 8639
00000050: 3246 26b6 0000 0000 92c5 fbb6 282b 7bb9
00000060: 0000 0000 0000 0000 b5bb 4839 0000 0000
00000070: ff10 cbb8 f022 4fb9 bbb2 2a39 dd0e d8b7
00000080: 0000 0000 4bd9 543a 9268 5cb9 0000 0000
00000090: 6f60 e2b9 0000 0000 a6ce 2db7 0000 0000
000000a0: 4b26 4039 0000 0000 0000 0000 3224 afb9
000000b0: 0000 0000 df30 83b9 9700 3d3a ac6c 9639
000000c0: 0000 0000 2ad4 5d39 0000 0000 0000 0000
000000d0: 3276 ea39 c8f9 6034 c58e 73b9 0000 0000
000000e0: a207 f3b6 3a29 d435 0000 0000 0000 0000
000000f0: 72e7 2dba 9b51 9138 1d0c c335 bbcd 2db9

exp_avg_sq f4 [1, 64]
6.246129e-09 0.0 2.8946359e-09 9.365007e-09 2.7929326e-09 8.888899e-10 1.5513919e-12 3.1252059e-09
4.560479e-08 0.0 4.369659e-08 1.3825804e-09 6.2787614e-12 1.3980377e-10 2.8362688e-09 5.177336e-10
9.248734e-09 6.291602e-12 1.2303698e-09 6.608905e-09 6.1388915e-13 0.0 5.630076e-12 5.737607e-09
0.0 0.0 3.6647025e-09 0.0 9.375971e-10 3.9022345e-09 2.6500735e-09 6.633781e-11
0.0 6.592689e-08 4.418316e-09 0.0 1.8643334e-08 0.0 1.0732375e-11 0.0
3.3579872e-09 0.0 0.0 1.1159321e-08 0.0 6.2613448e-09 5.198216e-08 8.231848e-09
0.0 4.475442e-09 0.0 0.0 1.9998803e-08 4.390071e-15 5.395154e-09 0.0
5.2458923e-12 2.4986849e-13 0.0 0.0 4.4008818e-08 4.801574e-10 2.111836e-13 2.747375e-09
00000000: 889d d631 0000 0000 f9ea 4631 bde3 2032
00000010: caed 3f31 1156 7430 c956 da2b 34c3 5631
00000020: ffde 4333 0000 0000 e9ac 3b33 3905 be30
00000030: 0eea dc2c 43b7 192f 2be8 4231 4350 0e30
00000040: 5de4 1e32 b65d dd2c ca19 a930 8b14 e331
00000050: 60cb 2c2b 0000 0000 3717 c62c 8624 c531
00000060: 0000 0000 0000 0000 21d6 7b31 0000 0000
00000070: c4dc 8030 6b14 8631 961c 3631 dee0 912e
00000080: 0000 0000 b193 8d33 ebcf 9731 0000 0000
00000090: 2025 a032 0000 0000 52ce 3c2d 0000 0000
000000a0: 56c2 6631 0000 0000 0000 0000 36b7 3f32
000000b0: 0000 0000 5f23 d731 fd42 5f33 0d6c 0d32
000000c0: 0000 0000 67c6 9931 0000 0000 0000 0000
000000d0: d5c9 ab32 422b 9e27 4760 b931 0000 0000
000000e0: cc92 b82c d8a9 8c2a 0000 0000 0000 0000
000000f0: 3504 3d33 13fc 0330 87c5 6d2a 55cc 3c31
