results/Test_citation/version_62/checkpoints/epoch=999-step=1000.ckpt (torch, 23111 bytes, 9 tensors)

simplicial_nn.0.W f4 [5, 1, 16]
0	0x3ed14b07	0.40877554
1	0xbe1bda4a	-0.1521999
2	0xbe97c39f	-0.29641435
3	0xbea8d632	-0.32975918
4	0xbe831151	-0.2559915
5	0xbe8c286c	-0.2737459
6	0x3e4dde09	0.20104231
7	0xbeae9a43	-0.34102067
8	0x3ece3666	0.40275878
9	0x3e729c22	0.23692372
10	0xbe6f763c	-0.23384947
11	0x3eacfa87	0.33784887
12	0xbdb909cc	-0.09035072
13	0xbe4a12b7	-0.19733702
14	0x3e239914	0.15976363
15	0x3edddb78	0.43331504
16	0xbd601483	-0.05470706
17	0x3eaf41af	0.342298
18	0x3e808d89	0.25107983
19	0x3e838beb	0.25692686
20	0xbeb21995	-0.34785143
21	0xbde13e76	-0.109982416
22	0x3e9ba845	0.30401817
23	0x3e47cf42	0.19512656
24	0x3ddafcb7	0.10692733
25	0x3e8862d1	0.2663789
26	0xbe46e838	-0.19424522
27	0x3c3ef2ab	0.011654536
28	0x3dca427c	0.09875962
29	0xbca837c0	-0.020534396
30	0xbe507f00	-0.20360947
31	0xbe8a6ccd	-0.27036133
32	0x3eb1debc	0.34740245
33	0x3e46e092	0.19421604
34	0xbcd836e0	-0.026393354
35	0x3eaf7cdf	0.34274957
36	0x3eb4fe95	0.3535048
37	0xbe2e000f	-0.1699221
38	0xbe1b859d	-0.15187688
39	0xbdc16fa4	-0.09445122
40	0xbda8e166	-0.08246116
41	0x3e8e0733	0.27739868
42	0x3e6888ce	0.22708437
43	0xbe7cc363	-0.24683909
44	0xbdbcc468	-0.09217149
45	0xbce48cc0	-0.027899146
46	0x3cff2b16	0.031148475
47	0x3ead4c04	0.33847058
48	0x3e14caa4	0.14530426
49	0x3e295232	0.16535261
50	0xbe852122	-0.2600184
51	0xbe6552c4	-0.22394854
52	0x3e6410fa	0.22272101
53	0x3e759116	0.23981127
54	0xbda0db1d	-0.078542925
55	0x3e81e6e9	0.25371483
56	0xbe4c53dc	-0.19953865
57	0xbd284ca3	-0.04108871
58	0x3ea4b041	0.3216572
59	0xbe512aa5	-0.20426424
60	0xbea0ad08	-0.31382012
61	0x3e53ebbe	0.20695397
62	0x3e8a1e24	0.2697612
63	0xbe8781a2	-0.2646609
64	0xbe5c6b61	-0.21525337
65	0x3c5009e0	0.012697667
66	0xbdb266d4	-0.08711019
67	0xbe87c69b	-0.2651871
68	0xbe75a18e	-0.2398741
69	0x3e40e0b2	0.18835714
70	0xbdf66502	-0.120309845
71	0x3dc5bc3c	0.096550435
72	0xbc746e38	-0.014918856
73	0xbe44fd4c	-0.1923725
74	0xbd743290	-0.059618533
75	0xbe31a572	-0.17348269
76	0x3e9acff9	0.30236796
77	0xbe7dc994	-0.24783927
78	0xbeac2c8b	-0.33627734
79	0xbd905d5f	-0.07049059

simplicial_nn.2.W f4 [5, 16, 16]
0	0x3d53c2ea	0.051699556
1	0x3dadae96	0.08480565
2	0xbe00efbb	-0.1259145
3	0xbdd92368	-0.10602456
4	0xbe151875	-0.14560111
5	0x3d942b16	0.072347805
6	0xbe690f03	-0.22759633
7	0xbe078056	-0.1323255
8	0x3e056d65	0.13030012
9	0x3d0f28f7	0.034951176
10	0xbe36e64c	-0.17861289
11	0x3d0c94ec	0.03432171
12	0xbd901db0	-0.070369124
13	0xbe21bfb6	-0.15795788
14	0x3da2628f	0.07928955
15	0x3e94e3ef	0.2908015
16	0xbe31363b	-0.17305844
17	0xbe2e0aeb	-0.16996352
18	0xbe2e6f49	-0.1703464
19	0x3cc45198	0.023964688
20	0xbdabdffa	-0.083923295
21	0xbd37c824	-0.044868603
22	0x3db19f02	0.086729065
23	0xbc7f5470	-0.015584096
24	0x3cf65e90	0.030074388
25	0xbdd7c106	-0.10534863
26	0x3e1b47fd	0.1516418
27	0x3e2d8753	0.16946153
28	0xbe3038bf	-0.17209147
29	0x3cf77060	0.030204952
30	0xbdfe1c0b	-0.124076925
31	0xbd900020	-0.07031274
32	0x3e01feff	0.1269493
33	0xbcc50880	-0.024051905
34	0xbe2b2b75	-0.16715796
35	0x3c74cbf0	0.014941201
36	0xbe23e5fd	-0.16005702
37	0xbd0251a4	-0.03181614
38	0xbdd12710	-0.10212529
39	0xbdaeeed9	-0.0854165
40	0xbd5e378c	-0.054252192
41	0x3e259691	0.16170718
42	0xbd1e4994	-0.03864439
43	0x3daa4626	0.08314161
44	0xbe3bd9fd	-0.18344875
45	0xbe17e8c6	-0.1483489
46	0xbd7a4fa0	-0.061111093
47	0x3e238781	0.1596966
48	0x3da9f9b6	0.08299582
49	0xbd2aad68	-0.04166928
50	0x3ca40990	0.020024091
51	0x3d22ecd8	0.039776653
52	0x3da8fa72	0.08250894
53	0xbd1940f8	-0.037415475
54	0xbe3a0f7c	-0.1816997
55	0xbd6f23f0	-0.058383882
56	0xbe0eb7a7	-0.13937245
57	0x3ca81c28	0.020521238
58	0xbd10318c	-0.0352035
59	0x3e103f29	0.14086594
60	0x3def8b16	0.116964504
61	0xbd2cb540	-0.04216504
62	0xbdcaa914	-0.0989553
63	0xbe3b478f	-0.18289016
64	0xbe1eabeb	-0.15495269
65	0xbdabfb0d	-0.083974935
66	0xbda61a93	-0.081105374
67	0xbb741b40	-0.0037247688
68	0xbe10b155	-0.14130147
69	0x3e393329	0.18085922
70	0x3dc25582	0.094889656
71	0xbd587200	-0.052843094
72	0xbc627d90	-0.013823882
73	0xbd075848	-0.033043176
74	0x3da79476	0.081826136
75	0xbc8cbb28	-0.017179087
76	0x3dc48d42	0.09597255
77	0xbdd9eb49	-0.1064058
78	0xbe0d922c	-0.13825291
79	0xbe058c13	-0.13041715
80	0x3d184490	0.03717476
81	0x3d1b8758	0.03797087
82	0xbdf2ddf6	-0.11858742
83	0x3c193f90	0.009353533
84	0x3e321ca5	0.1739374
85	0x3e2a1e7f	0.16613196
86	0xbe184536	-0.14870152
87	0x3e35712b	0.17718951
88	0xbb98ca40	-0.004662782
89	0xbe13e92c	-0.14444417
90	0x3d4aafa0	0.049483895
91	0x3c9d8ac0	0.0192312
92	0xbc69b780	-0.014264941
93	0xbde76f50	-0.11300528
94	0xbe1ecebc	-0.1550855
95	0x3d7b5694	0.061361864
96	0xbd854cae	-0.06508766
97	0x3e0a826b	0.13526313
98	0xbdcd90b1	-0.10037363
99	0xba633377	-0.00086670317
100	0xbda24b2d	-0.07924495
101	0x3e0cdcfa	0.13756171
102	0xbe873844	-0.26410115
103	0x3e144301	0.14478685
104	0x3e9452f6	0.28969544
105	0xbe042a81	-0.12906839
106	0xbe05dbe6	-0.13072166
107	0xbd0a5ff8	-0.03378293
108	0xbd8915d2	-0.06693615
109	0xbd5707b0	-0.052497566
110	0xbcf385ed	-0.029726947
111	0x3ddb841c	0.10718557
112	0xbdbd1bac	-0.092337936
113	0x3dfbd56a	0.12296565
114	0x3c156ba0	0.009119898
115	0x3e24ee9f	0.16106652
116	0xbe2355af	-0.15950654
117	0xbcf64520	-0.030062258
118	0xbd022720	-0.031775594
119	0x3d84aece	0.06478654
120	0xbdf7a0a0	-0.12091184
121	0x3d8baf8e	0.06820594
122	0x3d6b05fc	0.057378754
123	0x3d5a48b8	0.053292006
124	0x3d6eba60	0.05828321
125	0xbe07f7b0	-0.13278079
126	0x3e29808f	0.16552947
127	0xbe18c2c0	-0.14918041
128	0x3e8976df	0.26848504
129	0x3e49ed35	0.19719394
130	0x3dabb155	0.08383433
131	0x3dc3b8b7	0.09556716
132	0xbd92160f	-0.071331136
133	0xbe549158	-0.20758569
134	0xbd9d090a	-0.0766774
135	0x3dbeeab2	0.09322108
136	0x3e96f540	0.29483986
137	0xbc611e71	-0.013740168
138	0xbe2f2b6e	-0.17106411
139	0xbe2c3d9e	-0.1682038
140	0xbd573825	-0.052543778
141	0xbe40247e	-0.1876392
142	0x3d86a5d1	0.06574596
143	0x3e99a2ec	0.30007112
144	0x3e914560	0.2837324
145	0x3e5c2e81	0.21502115
146	0xbbb44006	-0.0055007963
147	0x3daa0a7d	0.08302782
148	0xbd376ac4	-0.044779554
149	0xbe4c010e	-0.19922277
150	0xbeaa8069	-0.33301094
151	0xbe28c6de	-0.16482112
152	0xbc9e584b	-0.01932921
153	0xbd980173	-0.074221514
154	0xbe066498	-0.13124311
155	0xbdfcf909	-0.12352187
156	0x3d1ba4d3	0.037998985
157	0xbcfb4ca8	-0.030676201
158	0x3e343bf3	0.17600994
159	0x3da2307f	0.07919406
160	0xbe1930cc	-0.14960021
161	0xbc8c9208	-0.017159477
162	0x3e1d5611	0.15364863
163	0x3e0674db	0.13130514
164	0x3c8dd0d0	0.017311484
165	0xbd27e428	-0.04098907
166	0x3c7838d0	0.015150264
167	0xbde04fd0	-0.10952723
168	0x3e3ded7d	0.18547626
169	0xbe049c08	-0.12950146
170	0xbe330c56	-0.17485175
171	0xbd875620	-0.06608224
172	0x3d836fb6	0.064177915
173	0xbcfdd9d8	-0.030987665
174	0xbde8871a	-0.113538936
175	0x3e07dd61	0.13268043
176	0x3e257692	0.16158512
177	0x3e0790d7	0.13238846
178	0xbda6d77c	-0.08146569
179	0x3ddce9e1	0.10786796
180	0xbe1db924	-0.15402657
181	0xbd1463d4	-0.036228016
182	0x3de5669a	0.1120121
183	0xbd0dfa7e	-0.034662716
184	0xbc4d8742	-0.012544455
185	0x3d6efbf0	0.058345735
186	0xbe2c9550	-0.16853833
187	0xbde267b5	-0.11054937
188	0x3d84eabf	0.06490087
189	0xbe00425c	-0.12525314
190	0x3e7df681	0.24801065
191	0x3e713310	0.23554635
192	0x3da1486a	0.0787514
193	0xbd7b187c	-0.061302647
194	0x3cb5df38	0.022201166
195	0x3deb687e	0.1149454
196	0xbe099489	-0.13435568
197	0x3e1cb023	0.15301566
198	0xbdbcbff8	-0.09216303
199	0xbe1b6834	-0.15176469
200	0x3d6543a0	0.055972695
201	0xbe09b702	-0.13448718
202	0xbd93b2a5	-0.07211808
203	0xbddae43e	-0.10688065
204	0x3e022897	0.12710796
205	0x3e0a05c3	0.1347876
206	0xbd886235	-0.066593565
207	0x3dfcd07a	0.12344451
208	0x3e3a7853	0.18209963
209	0xbe315770	-0.17318511
210	0xbd165710	-0.036704123
211	0x3bfea6c0	0.007771343
212	0x3e3b260b	0.18276231
213	0xbbae61a0	-0.0053216964
214	0x3cd906d8	0.026492521
215	0x3e2fa9e1	0.17154647
216	0x3d06b460	0.032886863
217	0x3c03afd0	0.008037522
218	0x3c230490	0.009949818
219	0xbe110aaa	-0.14164224
220	0x3dcba392	0.09943308
221	0xbd7f9508	-0.062397987
222	0xbe3e389f	-0.18576287
223	0x3c2c8f70	0.010532245
224	0x3d3601d8	0.044435352
225	0x3e80b4b8	0.25137877
226	0xbd8807ba	-0.06642099
227	0xbe76f5f9	-0.24117269
228	0x3b2c43c0	0.00262855
229	0x3c328c19	0.01089766
230	0xbe609940	-0.2193346
231	0x3c053150	0.008129433
232	0x3db0acc9	0.08626706
233	0xbe19800a	-0.1499025
234	0xbc4cb4b0	-0.012494251
235	0xbda34839	-0.0797276
236	0x3e0b2a64	0.1359039
237	0xbe0aa440	-0.13539219
238	0x3e9a0e6d	0.3008913
239	0x3e816004	0.25268567
240	0x3c27b9c4	0.010237161
241	0x3dab8150	0.08374274
242	0x3d294133	0.041321944
243	0xbe0ed0c7	-0.1394683
244	0x3d58fc84	0.052975193
245	0x3e18e57b	0.1493129
246	0xbdbe34fb	-0.09287449
247	0x3cf15fbc	0.029464595
248	0x3e8efe98	0.27928615
249	0xbbf176ea	-0.007368912
250	0xbdf37f00	-0.11889458
251	0xbd9605d8	-0.07325333
252	0xbe208253	-0.15674715
253	0x3e02afb5	0.1276234
254	0x3d2587a5	0.040412564
255	0x3e831a88	0.2560618

simplicial_nn.4.W f4 [5, 16, 1]
0	0x3f48a6fc	0.783798
1	0x3f423a91	0.75870615
2	0xbeef9e2f	-0.46800372
3	0xbe417615	-0.18892701
4	0x3f13a8b7	0.57679313
5	0xbeea3630	-0.45744467
6	0xbe1771e1	-0.14789535
7	0xbf1a8c15	-0.6037
8	0x3f582f1e	0.84446895
9	0xbe55dbb5	-0.20884593
10	0xbe2f0638	-0.17092216
11	0xbdfc8498	-0.12329978
12	0x3da1a896	0.07893483
13	0x3d4d35b0	0.05010003
14	0x3ebba1d1	0.36646894
15	0x3eb0b65c	0.3451413
16	0xbdc96197	-0.09833067
17	0xbe2dfe3c	-0.16991514
18	0xbf104809	-0.56359917
19	0xbec624ba	-0.38699895
20	0xbed5ee94	-0.41783583
21	0xbe723f34	-0.23656923
22	0xbefc4bd9	-0.49276617
23	0x3e687929	0.22702469
24	0x3f5226e0	0.8209057
25	0xbf14b696	-0.58091104
26	0xbe468b68	-0.19389117
27	0xbf1492a0	-0.5803623
28	0xbe8c007b	-0.27344117
29	0xbef96796	-0.48711842
30	0x3e8aeb5f	0.271327
31	0xbecf6f49	-0.4051459
32	0xbf02d730	-0.511096
33	0xbf40fda3	-0.7538702
34	0x3e54f20e	0.20795462
35	0xbeb6071b	-0.35552296
36	0xbf059a86	-0.5218891
37	0x3f21aa59	0.63150555
38	0xbef4da4f	-0.47822806
39	0x3f3dbef9	0.74119526
40	0x3e8bc220	0.27296543
41	0x3ea6bf9a	0.32568055
42	0x3e97fb6a	0.29684
43	0xbf0ed709	-0.5579687
44	0x3c4e20f7	0.012581102
45	0x3e7e0bc9	0.24809183
46	0xbee97c64	-0.45602715
47	0x3cf6e516	0.030138534
48	0x3ecfe234	0.40602267
49	0x3e38b9e5	0.18039663
50	0x3f225c2f	0.6342191
51	0xbd833611	-0.06406797
52	0x3ea06a32	0.3133102
53	0x3f160991	0.5860835
54	0xbf40f7df	-0.7537822
55	0xbd2a0334	-0.04150696
56	0xbc7b94ec	-0.01535533
57	0xbf1c43f8	-0.6104121
58	0xbe5953b0	-0.2122333
59	0x3e00a4cc	0.12562865
60	0xbefff00d	-0.49987832
61	0x3f3dffe1	0.74218565
62	0xbf3a5f80	-0.7280197
63	0xbf13ea0a	-0.5777899
64	0xbef7f020	-0.48425388
65	0xbe8a0b2c	-0.26961648
66	0xbdeb9721	-0.11503435
67	0xbe75307d	-0.23944278
68	0x3ece62d2	0.4030977
69	0xbf1a6c8b	-0.60321873
70	0xbf0d9efd	-0.5532072
71	0xbe5ef315	-0.21772416
72	0xbebdb7d5	-0.37054315
73	0xbdd09f77	-0.101866655
74	0x3ecc8362	0.39943987
75	0x3f410029	0.7539087
76	0xbee719e6	-0.45136946
77	0x3c196cae	0.00936429
78	0xbf3220d7	-0.6958136
79	0x3ec614a3	0.3868762

exp_avg f4 [5, 1, 16]
0	0xbe8597c9	-0.26092365
1	0x00000000	0.0
2	0x00000000	0.0
3	0x00000000	0.0
4	0x00000000	0.0
5	0x00000000	0.0
6	0xbe79aac2	-0.24381545
7	0x00000000	0.0
8	0xbf0f3165	-0.55934745
9	0xbeb32058	-0.34985614
10	0x00000000	0.0
11	0xbe9737fb	-0.29534897
12	0x00000000	0.0
13	0x00000000	0.0
14	0xbec1b903	-0.37836465
15	0xbe9fb082	-0.31189352
16	0x3a7dc8d2	0.00096811086
17	0x00000000	0.0
18	0x00000000	0.0
19	0x00000000	0.0
20	0x00000000	0.0
21	0x00000000	0.0
22	0x3a83e37f	0.0010062306
23	0x00000000	0.0
24	0x3a27ffe4	0.0006408675
25	0x383a5231	4.4422402e-05
26	0x00000000	0.0
27	0xb9b4e349	-0.00034501616
28	0x00000000	0.0
29	0x00000000	0.0
30	0xba2ccaff	-0.0006591528
31	0x3a339917	0.000685112
32	0x3a748901	0.00093282765
33	0x00000000	0.0
34	0x00000000	0.0
35	0x00000000	0.0
36	0x00000000	0.0
37	0x00000000	0.0
38	0x3a46ea26	0.00075879914
39	0x00000000	0.0
40	0x3a103320	0.0005500782
41	0x38cf34d7	9.880371e-05
42	0x00000000	0.0
43	0xb95ca514	-0.00021042331
44	0x00000000	0.0
45	0x00000000	0.0
46	0xb8921cc3	-6.96718e-05
47	0x3a17977c	0.0005782766
48	0x3a4d8fef	0.0007841577
49	0x00000000	0.0
50	0x00000000	0.0
51	0x00000000	0.0
52	0x00000000	0.0
53	0x00000000	0.0
54	0x3a230a33	0.00062194763
55	0x00000000	0.0
56	0x3a45ba1c	0.0007542686
57	0x39d9cbaa	0.00041541207
58	0x00000000	0.0
59	0x39015448	0.00012333796
60	0x00000000	0.0
61	0x00000000	0.0
62	0x39e4255c	0.00043515384
63	0x3a46f570	0.00075896736
64	0x39cccefa	0.00039064122
65	0x00000000	0.0
66	0x00000000	0.0
67	0x00000000	0.0
68	0x00000000	0.0
69	0x00000000	0.0
70	0x39912644	0.00027685065
71	0x00000000	0.0
72	0x39a5ce6a	0.00031625043
73	0x398de3d5	0.00027063364
74	0x00000000	0.0
75	0x385afc3b	5.2210158e-05
76	0x00000000	0.0
77	0x00000000	0.0
78	0x39bebe51	0.0003638142
79	0x3a18571d	0.0005811321

exp_avg_sq f4 [5, 1, 16]
0	0x40a45333	5.135156
1	0x00000000	0.0
2	0x00000000	0.0
3	0x00000000	0.0
4	0x00000000	0.0
5	0x00000000	0.0
6	0x408e2586	4.4420805
7	0x00000000	0.0
8	0x41bbb95c	23.465508
9	0x410ff143	8.996402
10	0x00000000	0.0
11	0x40c8f0ba	6.2793856
12	0x00000000	0.0
13	0x00000000	0.0
14	0x41255a8d	10.334607
15	0x40e03cd8	7.007427
16	0x3b38114b	0.002808648
17	0x00000000	0.0
18	0x00000000	0.0
19	0x00000000	0.0
20	0x00000000	0.0
21	0x00000000	0.0
22	0x3b0fc1d4	0.00219356
23	0x00000000	0.0
24	0x3c19a5b3	0.009377885
25	0x3b5440ce	0.003238726
26	0x00000000	0.0
27	0x3b0aeb28	0.0021197293
28	0x00000000	0.0
29	0x00000000	0.0
30	0x3b6467f4	0.0034852
31	0x3b17921d	0.0023127862
32	0x398dbede	0.00027035823
33	0x00000000	0.0
34	0x00000000	0.0
35	0x00000000	0.0
36	0x00000000	0.0
37	0x00000000	0.0
38	0x392ff879	0.00016781864
39	0x00000000	0.0
40	0x39e767fc	0.00044137228
41	0x38e9a8c3	0.0001114174
42	0x00000000	0.0
43	0x3851ca13	5.001768e-05
44	0x00000000	0.0
45	0x00000000	0.0
46	0x386a8d6f	5.5921668e-05
47	0x38272b69	3.985633e-05
48	0x391d6a3b	0.0001501226
49	0x00000000	0.0
50	0x00000000	0.0
51	0x00000000	0.0
52	0x00000000	0.0
53	0x00000000	0.0
54	0x38a9544e	8.074251e-05
55	0x00000000	0.0
56	0x3943fdcc	0.00018691196
57	0x3862865a	5.4007724e-05
58	0x00000000	0.0
59	0x37b03c92	2.100904e-05
60	0x00000000	0.0
61	0x00000000	0.0
62	0x38004384	3.0580457e-05
63	0x37280e27	1.0016875e-05
64	0x38eb30c5	0.00011214757
65	0x00000000	0.0
66	0x00000000	0.0
67	0x00000000	0.0
68	0x00000000	0.0
69	0x00000000	0.0
70	0x386be6cc	5.6243312e-05
71	0x00000000	0.0
72	0x390ad460	0.00013239821
73	0x38444c60	4.680117e-05
74	0x00000000	0.0
75	0x37920f0b	1.7411561e-05
76	0x00000000	0.0
77	0x00000000	0.0
78	0x37f49132	2.9154678e-05
79	0x36bb97ba	5.5906976e-06

exp_avg f4 [5, 16, 16]
0	0xbe796e23	-0.2435842
1	0xbe71cdc6	-0.23613653
2	0x00000004	6e-45
3	0xb918ea4b	-0.0001458313
4	0x00000000	0.0
5	0x00000004	6e-45
6	0x001b620e	2.514734e-39
7	0x00000004	6e-45
8	0xbe85b666	-0.2611572
9	0x00000004	6e-45
10	0x00000000	0.0
11	0x00000000	0.0
12	0x00041605	3.75241e-40
13	0x00000004	6e-45
14	0xbdeabad8	-0.11461419
15	0xbddc8a49	-0.10768563
16	0x00000000	0.0
17	0x00000000	0.0
18	0x00000000	0.0
19	0x00000000	0.0
20	0x00000000	0.0
21	0x00000000	0.0
22	0x00000000	0.0
23	0x00000000	0.0
24	0x00000000	0.0
25	0x00000000	0.0
26	0x00000000	0.0
27	0x00000000	0.0
28	0x00000000	0.0
29	0x00000000	0.0
30	0x00000000	0.0
31	0x00000000	0.0
32	0x00000000	0.0
33	0x00000000	0.0
34	0x00000000	0.0
35	0x00000000	0.0
36	0x00000000	0.0
37	0x00000000	0.0
38	0x00000000	0.0
39	0x00000000	0.0
40	0x00000000	0.0
41	0x00000000	0.0
42	0x00000000	0.0
43	0x00000000	0.0
44	0x00000000	0.0
45	0x00000000	0.0
46	0x00000000	0.0
47	0x00000000	0.0
48	0x00000000	0.0
49	0x00000000	0.0
50	0x00000000	0.0
51	0x00000000	0.0
52	0x00000000	0.0
53	0x00000000	0.0
54	0x00000000	0.0
55	0x00000000	0.0
56	0x00000000	0.0
57	0x00000000	0.0
58	0x00000000	0.0
59	0x00000000	0.0
60	0x00000000	0.0
61	0x00000000	0.0
62	0x00000000	0.0
63	0x00000000	0.0
64	0x00000000	0.0
65	0x00000000	0.0
66	0x00000000	0.0
67	0x00000000	0.0
68	0x00000000	0.0
69	0x00000000	0.0
70	0x00000000	0.0
71	0x00000000	0.0
72	0x00000000	0.0
73	0x00000000	0.0
74	0x00000000	0.0
75	0x00000000	0.0
76	0x00000000	0.0
77	0x00000000	0.0
78	0x00000000	0.0
79	0x00000000	0.0
80	0x00000000	0.0
81	0x00000000	0.0
82	0x00000000	0.0
83	0x00000000	0.0
84	0x00000000	0.0
85	0x00000000	0.0
86	0x00000000	0.0
87	0x00000000	0.0
88	0x00000000	0.0
89	0x00000000	0.0
90	0x00000000	0.0
91	0x00000000	0.0
92	0x00000000	0.0
93	0x00000000	0.0
94	0x00000000	0.0
95	0x00000000	0.0
96	0xbdf5a84c	-0.11994991
97	0xbdee31cd	-0.116305925
98	0x00000004	6e-45
99	0xb93cd792	-0.00018009383
100	0x00000000	0.0
101	0x00000004	6e-45
102	0x000ce2cd	1.183387e-39
103	0x00000004	6e-45
104	0xbe03d8a6	-0.12875614
105	0x00000004	6e-45
106	0x00000000	0.0
107	0x00000000	0.0
108	0x0001352c	1.1091e-40
109	0x00000000	0.0
110	0xbd68579d	-0.05672418
111	0xbd58e16b	-0.05294935
112	0x00000000	0.0
113	0x00000000	0.0
114	0x00000000	0.0
115	0x00000000	0.0
116	0x00000000	0.0
117	0x00000000	0.0
118	0x00000000	0.0
119	0x00000000	0.0
120	0x00000000	0.0
121	0x00000000	0.0
122	0x00000000	0.0
123	0x00000000	0.0
124	0x00000000	0.0
125	0x00000000	0.0
126	0x00000000	0.0
127	0x00000000	0.0
128	0xbe761e9e	-0.24035117
129	0xbe6e71db	-0.2328562
130	0x00000004	6e-45
131	0x3920b638	0.00015326671
132	0x00000000	0.0
133	0x00000004	6e-45
134	0x002f1529	4.323859e-39
135	0x00000004	6e-45
136	0xbe845bad	-0.25851193
137	0x00000004	6e-45
138	0x00000000	0.0
139	0x00000000	0.0
140	0x0009086e	8.29543e-40
141	0x00000004	6e-45
142	0xbde7b7e4	-0.11314371
143	0xbdd919c8	-0.106006205
144	0xbe108e5f	-0.1411681
145	0xbe0c3843	-0.13693337
146	0x00000004	6e-45
147	0xb982e479	-0.00024965758
148	0x00000000	0.0
149	0x00000004	6e-45
150	0x00058afc	5.09036e-40
151	0x00000004	6e-45
152	0xbe1ad411	-0.1511996
153	0x00000004	6e-45
154	0x00000000	0.0
155	0x00000000	0.0
156	0x00004b00	2.6905e-41
157	0x00000000	0.0
158	0xbd8871c2	-0.066623226
159	0xbd7fb51c	-0.06242858
160	0x00000000	0.0
161	0x00000000	0.0
162	0x00000000	0.0
163	0x00000000	0.0
164	0x00000000	0.0
165	0x00000000	0.0
166	0x00000000	0.0
167	0x00000000	0.0
168	0x00000000	0.0
169	0x00000000	0.0
170	0x00000000	0.0
171	0x00000000	0.0
172	0x00000000	0.0
173	0x00000000	0.0
174	0x00000000	0.0
175	0x00000000	0.0
176	0xbe4eac6a	-0.20182958
177	0xbe4813e0	-0.19538832
178	0x00000004	6e-45
179	0x39f83074	0.00047338346
180	0x00000000	0.0
181	0x00000004	6e-45
182	0x0043e0ba	6.233595e-39
183	0x00000004	6e-45
184	0xbe5ef408	-0.21772778
185	0x00000004	6e-45
186	0x00000000	0.0
187	0x00000000	0.0
188	0x000ecc9a	1.359094e-39
189	0x00000004	6e-45
190	0xbdc26ca4	-0.09493378
191	0xbdb5ecbb	-0.088830434
192	0x00000000	0.0
193	0x00000000	0.0
194	0x00000000	0.0
195	0x00000000	0.0
196	0x00000000	0.0
197	0x00000000	0.0
198	0x00000000	0.0
199	0x00000000	0.0
200	0x00000000	0.0
201	0x00000000	0.0
202	0x00000000	0.0
203	0x00000000	0.0
204	0x00000000	0.0
205	0x00000000	0.0
206	0x00000000	0.0
207	0x00000000	0.0
208	0x00000000	0.0
209	0x00000000	0.0
210	0x00000000	0.0
211	0x00000000	0.0
212	0x00000000	0.0
213	0x00000000	0.0
214	0x00000000	0.0
215	0x00000000	0.0
216	0x00000000	0.0
217	0x00000000	0.0
218	0x00000000	0.0
219	0x00000000	0.0
220	0x00000000	0.0
221	0x00000000	0.0
222	0x00000000	0.0
223	0x00000000	0.0
224	0xbdc2e15e	-0.09515642
225	0xbdbca856	-0.09211795
226	0x00000004	6e-45
227	0x3989cefe	0.00026284897
228	0x00000000	0.0
229	0x00000004	6e-45
230	0x00223227	3.140398e-39
231	0x00000004	6e-45
232	0xbdd1e57b	-0.10248848
233	0x00000004	6e-45
234	0x00000000	0.0
235	0x00000000	0.0
236	0x0007c459	7.13285e-40
237	0x00000004	6e-45
238	0xbd36b8e7	-0.04460993
239	0xbd2bd015	-0.04194649
240	0xbe846289	-0.25856426
241	0xbe80393c	-0.25043666
242	0x00000004	6e-45
243	0x39c76fc5	0.00038039513
244	0x00000000	0.0
245	0x00000004	6e-45
246	0x004507a5	6.339392e-39
247	0x00000004	6e-45
248	0xbe8e660e	-0.27812237
249	0x00000004	6e-45
250	0x00000000	0.0
251	0x00000000	0.0
252	0x000eae39	1.348196e-39
253	0x00000004	6e-45
254	0xbdf8b24f	-0.12143385
255	0xbde99a55	-0.114063896

exp_avg_sq f4 [5, 16, 16]
0	0x408e73e3	4.4516463
1	0x4084db3e	4.151763
2	0x3621684c	2.4051578e-06
3	0x3b8791cd	0.004137254
4	0x00000000	0.0
5	0x3cc48c03	0.023992544
6	0x378d4bfe	1.6843896e-05
7	0x3d20f6ea	0.039297976
8	0x40ad3f1d	5.4139543
9	0x3b8b7ba9	0.004256685
10	0x00000000	0.0
11	0x00000000	0.0
12	0x38f515d6	0.00011686578
13	0x2d7db32f	1.4421172e-11
14	0x3f77079c	0.96495986
15	0x3f534c1f	0.82538027
16	0x00000000	0.0
17	0x00000000	0.0
18	0x00000000	0.0
19	0x00000000	0.0
20	0x00000000	0.0
21	0x00000000	0.0
22	0x00000000	0.0
23	0x00000000	0.0
24	0x00000000	0.0
25	0x00000000	0.0
26	0x00000000	0.0
27	0x00000000	0.0
28	0x00000000	0.0
29	0x00000000	0.0
30	0x00000000	0.0
31	0x00000000	0.0
32	0x00000000	0.0
33	0x00000000	0.0
34	0x00000000	0.0
35	0x00000000	0.0
36	0x00000000	0.0
37	0x00000000	0.0
38	0x00000000	0.0
39	0x00000000	0.0
40	0x00000000	0.0
41	0x00000000	0.0
42	0x00000000	0.0
43	0x00000000	0.0
44	0x00000000	0.0
45	0x00000000	0.0
46	0x00000000	0.0
47	0x00000000	0.0
48	0x00000000	0.0
49	0x00000000	0.0
50	0x00000000	0.0
51	0x00000000	0.0
52	0x00000000	0.0
53	0x00000000	0.0
54	0x00000000	0.0
55	0x00000000	0.0
56	0x00000000	0.0
57	0x00000000	0.0
58	0x00000000	0.0
59	0x00000000	0.0
60	0x00000000	0.0
61	0x00000000	0.0
62	0x00000000	0.0
63	0x00000000	0.0
64	0x00000000	0.0
65	0x00000000	0.0
66	0x00000000	0.0
67	0x00000000	0.0
68	0x00000000	0.0
69	0x00000000	0.0
70	0x00000000	0.0
71	0x00000000	0.0
72	0x00000000	0.0
73	0x00000000	0.0
74	0x00000000	0.0
75	0x00000000	0.0
76	0x00000000	0.0
77	0x00000000	0.0
78	0x00000000	0.0
79	0x00000000	0.0
80	0x00000000	0.0
81	0x00000000	0.0
82	0x00000000	0.0
83	0x00000000	0.0
84	0x00000000	0.0
85	0x00000000	0.0
86	0x00000000	0.0
87	0x00000000	0.0
88	0x00000000	0.0
89	0x00000000	0.0
90	0x00000000	0.0
91	0x00000000	0.0
92	0x00000000	0.0
93	0x00000000	0.0
94	0x00000000	0.0
95	0x00000000	0.0
96	0x3f8e600d	1.1123062
97	0x3f84b2c3	1.0367054
98	0x341195b4	1.3558639e-07
99	0x3a782262	0.00094655727
100	0x00000000	0.0
101	0x3bac8453	0.0052647977
102	0x361bcfe6	2.3217813e-06
103	0x3c0f759d	0.008756069
104	0x3fada4d5	1.3565928
105	0x3a7e4b0a	0.0009700513
106	0x00000000	0.0
107	0x00000000	0.0
108	0x37de1c96	2.6477774e-05
109	0x00000000	0.0
110	0x3e79f772	0.24410799
111	0x3e52e5fe	0.20595548
112	0x00000000	0.0
113	0x00000000	0.0
114	0x00000000	0.0
115	0x00000000	0.0
116	0x00000000	0.0
117	0x00000000	0.0
118	0x00000000	0.0
119	0x00000000	0.0
120	0x00000000	0.0
121	0x00000000	0.0
122	0x00000000	0.0
123	0x00000000	0.0
124	0x00000000	0.0
125	0x00000000	0.0
126	0x00000000	0.0
127	0x00000000	0.0
128	0x408bdd02	4.3707285
129	0x4082963c	4.080839
130	0x361ba2ec	2.3191633e-06
131	0x3b91eaae	0.004453025
132	0x00000000	0.0
133	0x3cd331d1	0.02578059
134	0x38000181	3.051898e-05
135	0x3d2da5d1	0.042394463
136	0x40a9c9d6	5.305888
137	0x3b956f56	0.0045603914
138	0x00000000	0.0
139	0x00000000	0.0
140	0x38fe7f50	0.000121353776
141	0x2ee3a113	1.03513774e-10
142	0x3f738223	0.9512045
143	0x3f4f969f	0.81089205
144	0x3fc5b9eb	1.5447363
145	0x3fb7f95a	1.4372971
146	0x33b0e197	8.236673e-08
147	0x3a82ee43	0.000998922
148	0x00000000	0.0
149	0x3bb950be	0.005655377
150	0x362bd6c9	2.5606007e-06
151	0x3c17e434	0.009270716
152	0x3ff1cf97	1.8891476
153	0x3a7a613e	0.00095512334
154	0x00000000	0.0
155	0x00000000	0.0
156	0x380f3fa0	3.4153112e-05
157	0x00000000	0.0
158	0x3eac1611	0.33610585
159	0x3e921516	0.28531712
160	0x00000000	0.0
161	0x00000000	0.0
162	0x00000000	0.0
163	0x00000000	0.0
164	0x00000000	0.0
165	0x00000000	0.0
166	0x00000000	0.0
167	0x00000000	0.0
168	0x00000000	0.0
169	0x00000000	0.0
170	0x00000000	0.0
171	0x00000000	0.0
172	0x00000000	0.0
173	0x00000000	0.0
174	0x00000000	0.0
175	0x00000000	0.0
176	0x40414d26	3.0203338
177	0x4034c6e7	2.82464
178	0x35ed0b36	1.7661139e-06
179	0x3b4120dd	0.002946905
180	0x00000000	0.0
181	0x3c8662f0	0.016404599
182	0x3894d39c	7.096605e-05
183	0x3cde7e5f	0.027159868
184	0x4069967e	3.6498103
185	0x3b44ee5c	0.00300493
186	0x00000000	0.0
187	0x00000000	0.0
188	0x38e97ad3	0.000111331836
189	0x2f0a2852	1.2565352e-10
190	0x3f2a0b75	0.6642373
191	0x3f1020c3	0.5629999
192	0x00000000	0.0
193	0x00000000	0.0
194	0x00000000	0.0
195	0x00000000	0.0
196	0x00000000	0.0
197	0x00000000	0.0
198	0x00000000	0.0
199	0x00000000	0.0
200	0x00000000	0.0
201	0x00000000	0.0
202	0x00000000	0.0
203	0x00000000	0.0
204	0x00000000	0.0
205	0x00000000	0.0
206	0x00000000	0.0
207	0x00000000	0.0
208	0x00000000	0.0
209	0x00000000	0.0
210	0x00000000	0.0
211	0x00000000	0.0
212	0x00000000	0.0
213	0x00000000	0.0
214	0x00000000	0.0
215	0x00000000	0.0
216	0x00000000	0.0
217	0x00000000	0.0
218	0x00000000	0.0
219	0x00000000	0.0
220	0x00000000	0.0
221	0x00000000	0.0
222	0x00000000	0.0
223	0x00000000	0.0
224	0x3f21c7ce	0.631955
225	0x3f171ba9	0.5902658
226	0x33ab8b3e	7.988136e-08
227	0x38cd05b5	9.776225e-05
228	0x00000000	0.0
229	0x39c79ab8	0.00038071512
230	0x3796336e	1.7905342e-05
231	0x3a1e01e0	0.0006027501
232	0x3f427459	0.7595878
233	0x387de77a	6.053548e-05
234	0x00000000	0.0
235	0x00000000	0.0
236	0x37e89ff2	2.7731036e-05
237	0x2d2923c1	9.614477e-12
238	0x3e100abf	0.140666
239	0x3df2ffa7	0.11865168
240	0x409d8ef8	4.9237022
241	0x40934387	4.601993
242	0x368cd0fc	4.196654e-06
243	0x3ba7bf32	0.005119228
244	0x00000000	0.0
245	0x3cf20245	0.029542098
246	0x38848c73	6.320411e-05
247	0x3d4738f2	0.04863829
248	0x40beb98d	5.9601502
249	0x3bb06ac3	0.0053838207
250	0x00000000	0.0
251	0x00000000	0.0
252	0x39266b8c	0.00015871058
253	0x2f6b1839	2.1381731e-10
254	0x3f89372f	1.0719966
255	0x3f6a9be0	0.91644096

exp_avg f4 [5, 16, 1]
0	0xbe416e6c	-0.18889779
1	0xbe73f40c	-0.23823565
2	0x80000004	-6e-45
3	0xb97dbed2	-0.00024199046
4	0x00000000	0.0
5	0x80000004	-6e-45
6	0x80032c0d	-2.91309e-40
7	0x80000004	-6e-45
8	0xbe8a6157	-0.2702739
9	0x80000004	-6e-45
10	0x00000000	0.0
11	0x00000000	0.0
12	0x80028150	-2.3006e-40
13	0x00000000	0.0
14	0xbe3e0bbb	-0.18559162
15	0xbec6fed6	-0.388663
16	0x3a191dda	0.0005840935
17	0x37949179	1.7710716e-05
18	0x00000004	6e-45
19	0xb9e21a53	-0.00043125692
20	0x00000000	0.0
21	0x80000004	-6e-45
22	0x80057ab4	-5.03195e-40
23	0x00000004	6e-45
24	0x3a3632a7	0.0006950297
25	0x80000004	-6e-45
26	0x00000000	0.0
27	0x00000000	0.0
28	0x8002a637	-2.43298e-40
29	0x00000004	6e-45
30	0xb9d94532	-0.0004144102
31	0x39394160	0.00017667329
32	0x3a1d7430	0.0006006388
33	0x38b84c6a	8.788037e-05
34	0x00000004	6e-45
35	0xb9921f55	-0.00027870634
36	0x00000000	0.0
37	0x80000004	-6e-45
38	0x8004a11e	-4.2514e-40
39	0x80000004	-6e-45
40	0x3a410098	0.0007362454
41	0x80000004	-6e-45
42	0x00000000	0.0
43	0x00000000	0.0
44	0x8001f7f9	-1.80791e-40
45	0x00000004	6e-45
46	0xb9c44124	-0.00037432567
47	0x3958bdb3	0.00020670034
48	0x3a0be0d1	0.00053359295
49	0x39b4de44	0.00034497876
50	0x00000004	6e-45
51	0xb93b837c	-0.00017882691
52	0x00000000	0.0
53	0x80000004	-6e-45
54	0x8003fed5	-3.66923e-40
55	0x80000004	-6e-45
56	0x3a42d2cb	0.00074319233
57	0x80000004	-6e-45
58	0x00000000	0.0
59	0x00000000	0.0
60	0x8001794a	-1.35346e-40
61	0x00000004	6e-45
62	0xb84f9ac9	-4.94968e-05
63	0x3a1663b4	0.0005736903
64	0x39928929	0.00027949482
65	0x3996b607	0.0002874585
66	0x00000004	6e-45
67	0xb8e4cffe	-0.00010910629
68	0x00000000	0.0
69	0x80000004	-6e-45
70	0x800388bc	-3.24558e-40
71	0x80000004	-6e-45
72	0x39f1801d	0.00046062554
73	0x80000004	-6e-45
74	0x00000000	0.0
75	0x00000000	0.0
76	0x80011d9e	-1.0246e-40
77	0x00000004	6e-45
78	0x352d88af	6.4646423e-07
79	0x39eb522e	0.00044883922

exp_avg_sq f4 [5, 16, 1]
0	0x402c883a	2.6958146
1	0x40820f40	4.0643616
2	0x31300d35	2.5618878e-09
3	0x3a430361	0.0007439163
4	0x00000000	0.0
5	0x3a83abda	0.0010045723
6	0x3503746c	4.897072e-07
7	0x3a5a47a1	0.00083267136
8	0x40af733a	5.4828157
9	0x39c3a6bf	0.00037317534
10	0x00000000	0.0
11	0x00000000	0.0
12	0x375bfe35	1.3112604e-05
13	0x00000000	0.0
14	0x40181301	2.37616
15	0x412f70f2	10.965075
16	0x3aaf9e13	0.001339855
17	0x3aa4c58e	0.0012571083
18	0x3054ca77	7.741287e-10
19	0x375019c5	1.2403766e-05
20	0x00000000	0.0
21	0x3170496f	3.4966339e-09
22	0x374fee8c	1.23937025e-05
23	0x2fcf6bb6	3.7729614e-10
24	0x3b1a47ba	0.0023541288
25	0x31281a75	2.4462257e-09
26	0x00000000	0.0
27	0x00000000	0.0
28	0x363b0347	2.786708e-06
29	0x283b7672	1.0406269e-14
30	0x3a27af21	0.00063966407
31	0x3b6022be	0.0034200395
32	0x38a3d18b	7.811476e-05
33	0x3750b491	1.24398075e-05
34	0x30276829	6.0902267e-10
35	0x37108d23	8.61593e-06
36	0x00000000	0.0
37	0x3297bdc4	1.7665009e-08
38	0x372efad6	1.04296105e-05
39	0x321845fc	8.863477e-09
40	0x38ce48bd	9.836394e-05
41	0x31f99478	7.2637327e-09
42	0x00000000	0.0
43	0x00000000	0.0
44	0x36031851	1.9534675e-06
45	0x27c67524	5.5083044e-15
46	0x3708d15f	8.15498e-06
47	0x38257426	3.9447237e-05
48	0x380890eb	3.2559892e-05
49	0x36574cf9	3.20823e-06
50	0x3007a212	4.934303e-10
51	0x36d910a7	6.4690425e-06
52	0x00000000	0.0
53	0x3280d83b	1.4999491e-08
54	0x37195a68	9.14056e-06
55	0x3209f789	8.0307325e-09
56	0x38187dd6	3.6356818e-05
57	0x31d1caa5	6.1057386e-09
58	0x00000000	0.0
59	0x00000000	0.0
60	0x35d31d1b	1.5729196e-06
61	0x2751ef08	2.9134156e-15
62	0x36915662	4.331393e-06
63	0x36d28876	6.274374e-06
64	0x37ade55b	2.0730009e-05
65	0x364f2479	3.0866634e-06
66	0x2fe3c85c	4.1433423e-10
67	0x36af4bd4	5.224234e-06
68	0x00000000	0.0
69	0x32593262	1.2642518e-08
70	0x370ade58	8.277209e-06
71	0x31f4df0c	7.126692e-09
72	0x37b75e3a	2.1859178e-05
73	0x31b11473	5.153703e-09
74	0x00000000	0.0
75	0x00000000	0.0
76	0x35b68557	1.3598864e-06
77	0x26de1b00	1.5411663e-15
78	0x36831877	3.9069523e-06
79	0x368e7e29	4.2466168e-06
