results/Test_citation/version_108/checkpoints/epoch=0-step=0.ckpt (torch, 566417 bytes, 27 tensors)

simplicial_nn.0.W0 f4 [1, 64]
0	0x3e886763	0.26641378
1	0xbdb39a80	-0.08769703
2	0x3e6f1827	0.23349057
3	0x3b0de8c9	0.0021653643
4	0x3d1c841b	0.038211923
5	0xbe81a2db	-0.2531956
6	0x3ea49c71	0.32150605
7	0xbe844794	-0.2583586
8	0x3e82ba93	0.2553297
9	0xbec717fe	-0.38885492
10	0x3ec1235b	0.37722287
11	0x3d3a1793	0.04543264
12	0xbe6aacd5	-0.22917493
13	0xbe7f5182	-0.24933437
14	0x3ea80839	0.32818773
15	0x3dbddb7a	0.092703775
16	0xbecf6178	-0.4050405
17	0x3d9aef7e	0.07565211
18	0xbd6df118	-0.058091253
19	0x3d2b15e3	0.04176892
20	0x3c812639	0.015765296
21	0xbc784e20	-0.015155345
22	0x3ec92999	0.3928955
23	0x3e8fcff3	0.2808834
24	0xbc3c6bd2	-0.011500316
25	0x3e2db107	0.16962062
26	0x3bbc88e4	0.0057536233
27	0x3cce43a7	0.025178744
28	0xbdbbae18	-0.09164065
29	0x3e518d6f	0.20464109
30	0xbe5bffb0	-0.21484256
31	0xbea7879d	-0.32720652
32	0x3d51e72b	0.05124585
33	0xbe3d8c64	-0.18510586
34	0x3e6619e1	0.2247081
35	0xbeba47c2	-0.36382872
36	0xbc87b9e9	-0.016568141
37	0xbe8a157b	-0.26969513
38	0xbe198502	-0.14992145
39	0xbea9c278	-0.3315618
40	0x3eb349b9	0.35017183
41	0x3e813a69	0.25239876
42	0xbc629a92	-0.013830798
43	0xbe18ec60	-0.1493392
44	0x3e60733d	0.2191896
45	0xbddd64c4	-0.10810235
46	0x3e43bb0b	0.1911432
47	0xbec41bd7	-0.3830249
48	0x3dfcbca6	0.12340669
49	0x3e6c8ff9	0.23101796
50	0x3e7b8dd7	0.24565826
51	0x3cd38219	0.025818871
52	0xbedbb762	-0.42913347
53	0x3eb65dcd	0.3561844
54	0xbe5138c2	-0.20431808
55	0x3dc2bb36	0.09508364
56	0x3e9aa2e7	0.3020241
57	0x3e8df707	0.2772753
58	0xbe6edb7a	-0.23325911
59	0xbedb5e9c	-0.4284562
60	0x3e34e127	0.17664014
61	0x3e5d937f	0.21638297
62	0xbdd811e8	-0.1055029
63	0xbed81c72	-0.42209202

simplicial_nn.0.W1 f4 [5, 1, 64]
0	0x3def70b2	0.11691417
1	0xbd2f1ff0	-0.042755067
2	0xbdd82269	-0.10553438
3	0x3e24671d	0.1605496
4	0xbdd7f859	-0.105454154
5	0xbdd227cf	-0.10261499
6	0x3d6bd63c	0.057577357
7	0x3d95f9f2	0.07323064
8	0xbe0ba0c7	-0.1363555
9	0x3d828dec	0.06374726
10	0x3e22c519	0.158955
11	0xbd697d1a	-0.05700407
12	0xbda7cc1e	-0.08193229
13	0xbd8df665	-0.06931762
14	0x3d9280a8	0.071534455
15	0xbd851a2c	-0.064991325
16	0xbe1edc34	-0.15513688
17	0xbd47323c	-0.04863189
18	0x3c21d8d0	0.009878352
19	0x3c5ff410	0.013669029
20	0x3d80b982	0.06285383
21	0x3d01dd78	0.03170535
22	0x3dee4946	0.116350695
23	0xbcff26a0	-0.031146348
24	0xbd8860cd	-0.06659088
25	0x3e0cf863	0.13766627
26	0x3e0f7a27	0.14011441
27	0xbcde5738	-0.027141199
28	0xbdcc02ad	-0.09961448
29	0x3ca69ad0	0.020337492
30	0xbe1be26c	-0.15223092
31	0x3d066be0	0.03281772
32	0x3dad931a	0.08475323
33	0xbca680e0	-0.020325124
34	0x3d116c70	0.035503805
35	0x3d605bd4	0.054775074
36	0x3c0cef10	0.008601919
37	0xbe089c78	-0.13340938
38	0x3d329fcc	0.043609425
39	0x3e31e911	0.17374064
40	0x3daacf12	0.08340277
41	0x3e00789b	0.12546007
42	0x3ca90530	0.020632356
43	0xbda38403	-0.079841636
44	0xbe234583	-0.15944485
45	0x3e2541cf	0.16138385
46	0xbdf46e66	-0.11935119
47	0xbce97f30	-0.02850303
48	0x3daa0c4e	0.08303128
49	0xbd18a4e8	-0.03726664
50	0x3dd714f2	0.10502042
51	0xbd336a4c	-0.043802544
52	0x3d257ee8	0.04040423
53	0x3de268ba	0.11055131
54	0x3da4a7d6	0.08039825
55	0xbe2ae8fd	-0.1669044
56	0x3d6fc118	0.058533758
57	0x3db9ec86	0.090783164
58	0x3e1b9535	0.15193637
59	0x3d87220c	0.06598291
60	0xbd6ea04e	-0.058258347
61	0xbe2095e1	-0.15682174
62	0xbd8ad1df	-0.06778311
63	0xbbee6c40	-0.007276088
64	0x3d06cc34	0.032909587
65	0x3dcf54ca	0.10123594
66	0xbdd921eb	-0.106021725
67	0x3b1c1240	0.0023814589
68	0x3cf80638	0.030276403
69	0xbcac2a80	-0.02101636
70	0xbdfcc5a0	-0.123423815
71	0xbd789b0e	-0.060694747
72	0xbe03fef2	-0.12890223
73	0x3e2783ed	0.1635892
74	0xbe28ae8a	-0.16472831
75	0xbe2ef208	-0.17084515
76	0xbcca2350	-0.024675041
77	0xbe251fb0	-0.16125369
78	0xbd8e13fe	-0.06937407
79	0xbdf7125c	-0.12064049
80	0x3d339258	0.043840736
81	0x3e04a17f	0.12952231
82	0x3dd5a062	0.10430981
83	0x3da763c2	0.08173324
84	0x3e001e31	0.12511517
85	0xbc046c20	-0.00808242
86	0x3d466f38	0.04844591
87	0x3c9645e0	0.018343866
88	0x3c0d94b0	0.008641407
89	0xbe1db737	-0.15401922
90	0xbd1bfce0	-0.038082957
91	0x3def1b72	0.11675157
92	0x3e27b8ff	0.16379164
93	0x3d1376d8	0.03600201
94	0x3d964c7e	0.073388085
95	0x3d95847e	0.073006615
96	0xbe217d8d	-0.1577055
97	0xbd0b974c	-0.034079835
98	0xbe05492a	-0.13016191
99	0x3c0a21d0	0.008430913
100	0xbdfe772a	-0.124250725
101	0xbd8f12ba	-0.06985994
102	0x3da74136	0.08166735
103	0xbc6e8650	-0.01455839
104	0x3cab9038	0.020942792
105	0x3e1866ab	0.14882915
106	0xbda99595	-0.08280484
107	0xbd24b3ac	-0.04021041
108	0x3e0585b7	0.1303929
109	0xbdb4da6a	-0.08830722
110	0x3d3a4e60	0.0454849
111	0x3e32ec79	0.1747302
112	0x3c1c5650	0.009542063
113	0xbe2861eb	-0.16443603
114	0x3e089edf	0.13341855
115	0x3d55f684	0.05223705
116	0x3b3ca280	0.002878338
117	0xbe150859	-0.14553966
118	0xbccae9b0	-0.024769634
119	0xbd9d7623	-0.076885484
120	0xbdb265a9	-0.087107964
121	0xbd9945eb	-0.07484039
122	0xbdaa308f	-0.08310043
123	0xbdabef11	-0.08395208
124	0xbd9c27e2	-0.076247945
125	0xbd25137c	-0.040301785
126	0xbd8a1b18	-0.06743449
127	0xbdbb2b4a	-0.09139116
128	0xbb7a3dc0	-0.0038183779
129	0xbd4923a4	-0.049106255
130	0xbd7eed84	-0.06223823
131	0x3d07048c	0.03296332
132	0x3c137170	0.008999214
133	0x3d8c7612	0.068584576
134	0xbda50952	-0.08058418
135	0xbc70c580	-0.014695525
136	0x3dbc70ae	0.092011794
137	0x3e13f7fb	0.14450066
138	0x3e1ce4e5	0.15321691
139	0xbd35a764	-0.04434909
140	0xbdc593c4	-0.09647325
141	0xbe075b58	-0.13218439
142	0xbdf27482	-0.11838628
143	0x3dfb5776	0.12272541
144	0x3e2b5d93	0.16734914
145	0x3d8f3020	0.06991601
146	0x3da5c0c2	0.08093406
147	0x3d356b68	0.044291884
148	0x3e0dd2dd	0.13849969
149	0x3da37cc6	0.07982783
150	0x3974a800	0.00023332238
151	0x3e20126f	0.15632032
152	0x3d7bc398	0.06146583
153	0xbd8d4264	-0.06897429
154	0xbd7e42c0	-0.062075377
155	0x3c9a0e30	0.018805593
156	0x3e0219c5	0.12705143
157	0xbd3e9d20	-0.046536565
158	0xbc2d4fc0	-0.010578096
159	0xbdb606db	-0.08888026
160	0xbe2e7e37	-0.17040335
161	0x3da62eea	0.08114417
162	0x3e23e003	0.16003422
163	0x3e21b7db	0.15792792
164	0xbdd3befb	-0.10339161
165	0xbe27e9d8	-0.16397798
166	0xbda08f30	-0.07839811
167	0xbdf6228c	-0.12018308
168	0xbe14f454	-0.14546329
169	0xbe20ca7f	-0.15702246
170	0x3daac0c6	0.0833755
171	0x3e02ff19	0.12792625
172	0x3e238a23	0.15970664
173	0xbdeab1c8	-0.1145969
174	0xbd3523ac	-0.044223472
175	0xbc3e4390	-0.011612788
176	0xbe34fc07	-0.17674266
177	0x3e097f7d	0.13427539
178	0xbd5af3ce	-0.053455167
179	0x3e1f60d7	0.15564285
180	0xbe1ada27	-0.15122281
181	0xbe2986ec	-0.16555375
182	0xbe25cb2f	-0.1619079
183	0x3deb9786	0.1150351
184	0xbdc67a3d	-0.09691284
185	0xbdc67a02	-0.0969124
186	0x3bf41960	0.007449314
187	0x3c9d8ee8	0.019233182
188	0xbdec5482	-0.11539556
189	0x3d061af8	0.032740563
190	0x3e1fe92b	0.1561629
191	0xbe0276ca	-0.12740627
192	0x3df39c86	0.11895089
193	0x3d8d6772	0.06904496
194	0xbbda8000	-0.006668091
195	0x3d1ebc30	0.03875369
196	0x3de8a60a	0.113597944
197	0xbce80e08	-0.028327003
198	0x3df0ff0a	0.11767395
199	0xbd3110e0	-0.043228984
200	0xbd228750	-0.039679825
201	0xbdce8e5f	-0.10085749
202	0x3e2e88c7	0.17044364
203	0xbd699afc	-0.05703257
204	0xbe0c00cc	-0.13672179
205	0x3d1f3b68	0.038875014
206	0x3d36f8e4	0.044670954
207	0x3d733eb8	0.059385985
208	0xbdcd700f	-0.10031139
209	0xbde401f4	-0.11133185
210	0x3d9a7d56	0.07543437
211	0x3d9f4be2	0.077781454
212	0xbc1b3230	-0.009472415
213	0x3d585534	0.05281563
214	0xbe177f2c	-0.14794606
215	0xbc0bc650	-0.008531168
216	0x3dbae37e	0.09125422
217	0xbced6368	-0.028978065
218	0xbda0eca0	-0.07857633
219	0xbc0b2070	-0.00849162
220	0x3dcddd42	0.10051967
221	0x3dda4ed6	0.10659568
222	0xbba815a0	-0.005129531
223	0xbda63df6	-0.08117287
224	0xbe225016	-0.15850863
225	0xbd70d132	-0.058793254
226	0xbddaa01f	-0.10675072
227	0xbc692a80	-0.014231324
228	0xbe22e34c	-0.1590702
229	0x3cbd4ae0	0.023106992
230	0x3c1ba4c0	0.009499729
231	0x3c4e9b40	0.012610257
232	0xbdecc304	-0.11560634
233	0x3d87e34a	0.06635149
234	0xbdd02317	-0.10162943
235	0x3e18d83f	0.14926241
236	0x3e0f1159	0.13971461
237	0xbe0aeda0	-0.13567209
238	0xbded3074	-0.11581507
239	0x3ccafc00	0.024778366
240	0x3d732898	0.059364885
241	0x3c98ad18	0.018637225
242	0xbca3ba60	-0.019986331
243	0x3db7ef2a	0.08981164
244	0x3e2ff369	0.17182697
245	0x3d5bfa6c	0.053705618
246	0x3e314831	0.17312695
247	0x3cdc0a98	0.02686052
248	0x3e2ebe3b	0.17064755
249	0x3c448ea0	0.011996895
250	0xbdcee06e	-0.101014
251	0xbe2013d1	-0.1563256
252	0xbd40c108	-0.04705909
253	0xbe07680f	-0.13223289
254	0x3e036e41	0.12835027
255	0x3cd88300	0.026429653

simplicial_nn.0.W2 f4 [5, 1, 64]
0	0xbdfa1fef	-0.12213122
1	0x3d15c1a8	0.036561638
2	0x3d5a7a33	0.053339195
3	0x3e22cd6c	0.15898675
4	0x3cdb56c7	0.026774777
5	0xbe2b4b45	-0.16727932
6	0x3dce73ac	0.100806564
7	0x3c3f8860	0.011690229
8	0x3e2aa0ac	0.16662854
9	0x3e0745fd	0.13210292
10	0xbdaf8ecc	-0.08572158
11	0xbe279ef1	-0.16369225
12	0xbdf7aef6	-0.12093918
13	0xbdf075a8	-0.11741191
14	0xbda0e8ba	-0.07856889
15	0x3da00695	0.078137554
16	0x3d0772e8	0.033068568
17	0xbdcdca04	-0.10048297
18	0x3e34f63b	0.17672054
19	0x3e1d6a62	0.15372613
20	0xbdb84277	-0.08997052
21	0x3dc8dff2	0.09808339
22	0x3da3a748	0.07990891
23	0xbe2c4ed4	-0.16826946
24	0x3e1dfdb2	0.15428808
25	0x3e28ab1c	0.16471523
26	0xbc8b57f7	-0.017009718
27	0xbdf6ca86	-0.12050347
28	0x3c5a26e0	0.013314933
29	0x3cd4ae67	0.025962068
30	0x3db61a52	0.08891739
31	0xbd2ba960	-0.041909575
32	0x3ce5ff67	0.028075887
33	0xbe0db961	-0.13840248
34	0xbd4a41bf	-0.049379107
35	0x3e238037	0.15966879
36	0xbe35c69d	-0.17751546
37	0x3e0f0e2f	0.13970254
38	0xbd9c87cc	-0.07643089
39	0x3d898ac0	0.067159176
40	0x3d334155	0.043763477
41	0xbd4cb6d5	-0.04997905
42	0xbdd127f6	-0.102127
43	0x3e29bacf	0.16575168
44	0xbbfbf59a	-0.00768919
45	0x3d697ce4	0.05700387
46	0x3d409387	0.047015693
47	0xbe031111	-0.12799479
48	0xbe0404cf	-0.1289246
49	0x3d960db4	0.073268324
50	0xbe2cd7d4	-0.16879207
51	0xbe325d60	-0.17418432
52	0x3da5ea2e	0.08101307
53	0x3dcbeb70	0.099570155
54	0x3cd7f5d0	0.02636233
55	0xbd29dfb1	-0.041473094
56	0xbd34645b	-0.04404102
57	0xbd8e29d1	-0.069415696
58	0xbdd932e6	-0.10605411
59	0x3d842654	0.06452623
60	0xbdc2f636	-0.09519617
61	0xbe02f01d	-0.12786908
62	0x3d9df6ca	0.07713087
63	0xbe0645f1	-0.13112618
64	0x3e2bd50c	0.1678049
65	0x3d70b4b4	0.058766082
66	0x3d6e688e	0.05820518
67	0x3e0b178e	0.13583204
68	0x3e20d9f0	0.15708137
69	0xbddcb8e1	-0.1077745
70	0x3d44148b	0.047871154
71	0x3e2ed005	0.1707154
72	0xbd87743b	-0.06613966
73	0xbd99dcd5	-0.075128235
74	0x3df6f8a8	0.12059146
75	0x3e123b58	0.1428045
76	0xbe0d5958	-0.13803613
77	0xbd07a96c	-0.033120558
78	0xbcd4b28d	-0.025964046
79	0x3d028825	0.03186812
80	0x3cd694b0	0.026193947
81	0xbe0b85d0	-0.13625264
82	0x3c1663d0	0.009179071
83	0xbe2004a3	-0.15626769
84	0x3e1cf71e	0.15328643
85	0xbad71300	-0.0016408861
86	0xbd3aedb7	-0.04563686
87	0xbde157a0	-0.11003041
88	0x3e0b1312	0.13581493
89	0x3e0a875c	0.13528198
90	0x3db1b361	0.08676792
91	0x3df50749	0.1196428
92	0x3dd99572	0.106242076
93	0xbe08fd10	-0.13377786
94	0x3d021be8	0.031764895
95	0x3e0e3187	0.1388608
96	0x3dbf03b7	0.093268804
97	0xbe11c576	-0.14235482
98	0xbe0f2cd7	-0.13981949
99	0xbe0a07b7	-0.13479505
100	0x3d86e195	0.06585995
101	0xbced9418	-0.02900128
102	0xbe1e94ce	-0.15486452
103	0xbdce882a	-0.10084565
104	0xbdd96e06	-0.106166884
105	0xbd918536	-0.07105486
106	0xbc37b1fa	-0.0112118665
107	0xbe11377e	-0.14181325
108	0x3bcdfc74	0.0062861983
109	0x3e02d131	0.12775113
110	0x3dd3617d	0.10321329
111	0xbdffc6ce	-0.12489091
112	0xbe0a2e49	-0.13494219
113	0xbda1d41a	-0.07901783
114	0x3dfa90dc	0.12234661
115	0x3e107c00	0.14109802
116	0x3d3d6624	0.046239987
117	0xbcc6f21a	-0.024285365
118	0x3e04e46f	0.12977766
119	0xbd858c54	-0.06520906
120	0xbd6c55de	-0.057699077
121	0xbdaca254	-0.08429399
122	0x3db1c62e	0.08680378
123	0x3daaf8ca	0.08348234
124	0xbe2d767b	-0.16939728
125	0x3dafb0cf	0.085786454
126	0x3d4e96f8	0.050436944
127	0x3da8105e	0.08206247
128	0xbe2907ea	-0.16506925
129	0x3d1e5be8	0.038661867
130	0x3e2e0598	0.16994321
131	0x3e00ba3f	0.12571047
132	0xbe29556c	-0.16536492
133	0x3ce164a8	0.027513817
134	0x3db684ab	0.08912023
135	0x3d2f37c4	0.04277779
136	0x3de942da	0.11389704
137	0xbd49b634	-0.049246028
138	0x3e2b6c50	0.16740537
139	0x3b92e4c8	0.0044828393
140	0xbdeda6f2	-0.11604108
141	0x3d9e0412	0.0771562
142	0xbc25ec87	-0.010127193
143	0xbe136053	-0.14392214
144	0xbdb724c5	-0.0894256
145	0x3dd40c73	0.10353937
146	0x3cd4d328	0.025979593
147	0x3e13966f	0.14412855
148	0xbde9bff5	-0.11413566
149	0x3e28fa39	0.16501702
150	0x3dc89d5a	0.097956374
151	0x3e0e62f4	0.13904935
152	0x3dfa22a6	0.1221364
153	0x3c9b3afe	0.018949028
154	0xbd3a6361	-0.04550493
155	0x3d808f98	0.06277388
156	0xbd58b4ba	-0.05290673
157	0xbdd84925	-0.10560826
158	0x3b883ee0	0.004157886
159	0xbe1bd308	-0.15217221
160	0x3e2fabd0	0.17155385
161	0xbbe772a0	-0.007063225
162	0xbbce5434	-0.006296659
163	0x3d8da9e4	0.0691717
164	0xbd2afb3e	-0.04174351
165	0xbd9dc7cb	-0.07704123
166	0xbddb21f6	-0.10699837
167	0xbe2c6f84	-0.16839415
168	0xbdee605b	-0.11639472
169	0x3d12f2a1	0.03587592
170	0x3dda5d54	0.10662332
171	0x3ceebbe8	0.029142335
172	0x3e0ee5ea	0.13954893
173	0x3e1c9961	0.15292884
174	0xbd50b453	-0.05095322
175	0x3cffe390	0.03123644
176	0xbd93defc	-0.07220265
177	0xbcab273e	-0.020892736
178	0x3d808e49	0.06277139
179	0xbb2689d4	-0.0025411742
180	0xbd9277a7	-0.07151728
181	0xbda4b6be	-0.08042668
182	0x3c675660	0.0141197145
183	0x3d934732	0.07191314
184	0xbe2e08e3	-0.16995578
185	0x3d276fd2	0.040878125
186	0x3d148378	0.03625819
187	0xbdc07b4f	-0.09398519
188	0xbdc96017	-0.09832781
189	0xbdcd5e44	-0.10027745
190	0xbbc128e0	-0.0058947653
191	0x3e31b05f	0.17352436
192	0xbcb505eb	-0.022097548
193	0x3e28168b	0.1641485
194	0x3d8bf663	0.06834104
195	0x3deb251e	0.11481689
196	0x3dfa0fc8	0.12210041
197	0xbe0107b1	-0.1260059
198	0xbdc89ad9	-0.0979516
199	0xbda8368f	-0.08213531
200	0xbd8944ea	-0.067025974
201	0x3db179b6	0.08665793
202	0xbe2cde4b	-0.16881673
203	0x3d5cb96d	0.053887773
204	0x3e34b387	0.17646609
205	0x3d8f3d3e	0.06994103
206	0xbdf653f0	-0.120277286
207	0xbdd4cce5	-0.10390643
208	0x3e1a5e7d	0.15075107
209	0x3d6e5656	0.058187805
210	0xbde7d4e0	-0.113198996
211	0x3db26d49	0.08712251
212	0x3e0785f8	0.13234699
213	0xbe08047f	-0.13282965
214	0xbc449d52	-0.012000399
215	0x3deffa05	0.11717609
216	0xbd354727	-0.04425731
217	0xbdda1ce9	-0.106500454
218	0xbe0a8daf	-0.1353061
219	0xbcedb973	-0.029019093
220	0x3cdd61a0	0.02702409
221	0xbc912f53	-0.017722761
222	0x3db5564e	0.08854352
223	0xbe02ec34	-0.12785417
224	0xbda2d77e	-0.07951258
225	0x3db8dce2	0.09026505
226	0x3e27a85f	0.16372822
227	0xbdaa2334	-0.08307496
228	0x3e0d881e	0.13821456
229	0x3e0941ad	0.1340396
230	0x3c507610	0.012723461
231	0x3e11b9ed	0.14231081
232	0x3d8dded8	0.0692727
233	0x3e1c803c	0.15283293
234	0x3d78f423	0.060779702
235	0x3d789e1c	0.06069766
236	0x3d53ab03	0.05167676
237	0x3db29cda	0.08721323
238	0xbc69740b	-0.014248858
239	0x3ce557b0	0.027995914
240	0xbcfd339a	-0.030908395
241	0xbe1c8ffc	-0.152893
242	0xbe1dfc41	-0.15428258
243	0x3d109f27	0.03530803
244	0xbc88e078	-0.016708598
245	0x3e1e81a0	0.15479136
246	0x3e2e9c43	0.17051797
247	0xbe092a92	-0.13395146
248	0x3bd6a0d0	0.006549932
249	0x3d09c556	0.03363546
250	0xbdcdaf1d	-0.10043166
251	0xbe238788	-0.1596967
252	0x3df5e068	0.12005693
253	0xbdad989e	-0.08476375
254	0xbd0ed544	-0.034871355
255	0x3dbc500e	0.09194957

simplicial_nn.2.W0 f4 [64, 64]
0	0x3e514123	0.20435004
1	0x3c1e69f3	0.009668815
2	0xbe919949	-0.2843726
3	0xbe7ff466	-0.24995574
4	0xbe97fd5b	-0.29685482
5	0x3e7dae5a	0.24773541
6	0x3e6ae25b	0.2293791
7	0x3cfbb390	0.03072527
8	0xbe9928ad	-0.29913846
9	0x3e6be853	0.23037843
10	0x3e24e1fc	0.16101831
11	0xbe4803a1	-0.19532634
12	0x3d18688b	0.037209075
13	0xbe92ad7c	-0.28647983
14	0xbdb91b2e	-0.09038387
15	0x3e822c95	0.25424638
16	0x3e52c326	0.20582256
17	0xbe98f52e	-0.29874557
18	0xbd66ec98	-0.056377977
19	0x3e62c9f3	0.2214735
20	0xbe085454	-0.13313419
21	0x3e97243f	0.2951984
22	0xbe8f3889	-0.2797282
23	0xbdf83df8	-0.121211946
24	0x3e92c9db	0.28669629
25	0x3d9b583a	0.07585187
26	0xbc568c00	-0.013094902
27	0xbd10d90d	-0.035363246
28	0xbd4e8800	-0.05042267
29	0xbddd6d28	-0.108118355
30	0x3d84cea6	0.064847276
31	0x3e67b086	0.22625932
32	0xbe97374d	-0.2953438
33	0x3d862aca	0.0655113
34	0xbe201efa	-0.15636817
35	0xbddcd750	-0.10783255
36	0x3ce6f160	0.028191268
37	0x3e419f09	0.18908323
38	0x3b19d000	0.0023469925
39	0xbd357bf0	-0.04430765
40	0xbc02dfee	-0.007987959
41	0xbe534e30	-0.20635295
42	0x3cb61157	0.022225065
43	0x3dd3533e	0.103186116
44	0xbe997b3d	-0.29976836
45	0x3e38f495	0.1806205
46	0xbe4967e9	-0.19668545
47	0xbe3aa2b4	-0.18226129
48	0xbc3e2440	-0.011605322
49	0xbe0afcd0	-0.13573003
50	0xbce86820	-0.028369963
51	0x3d9e7aba	0.07738252
52	0xbe1d7a85	-0.15378769
53	0xbe9a6241	-0.30153087
54	0xbdfc6aac	-0.123250335
55	0x3b6a1a00	0.0035721064
56	0xbe580788	-0.21096623
57	0x3d40290b	0.04691414
58	0xbe223d59	-0.15843715
59	0xbe936358	-0.2878673
60	0x3d1f6edb	0.03892408
61	0x3e2c2d2a	0.16814104
62	0x3da91c26	0.08257322
63	0xbdbaae96	-0.09115331
64	0x3e5e8d32	0.21733549
65	0x3e808227	0.25099298
66	0x3e93ddcb	0.28880152
67	0x3cab3030	0.020897001
68	0x3d2b0408	0.04175189
69	0xbe18312d	-0.14862509
70	0xbde4b556	-0.111673996
71	0xbdf571ea	-0.11984618
72	0x3e945da5	0.28977695
73	0xbe7dd9cc	-0.24790114
74	0x3e92cb75	0.2867085
75	0x3c62fbe0	0.013853997
76	0x3d389008	0.045059234
77	0xbe0b93d4	-0.1363061
78	0xbd8aa800	-0.06770325
79	0xbe88b7c5	-0.26702705
80	0xbdf2988a	-0.11845501
81	0x3e23aa9a	0.15983048
82	0x3e3171a6	0.1732851
83	0xbe6039f0	-0.21897101
84	0xbb866040	-0.0041008294
85	0xbdea948e	-0.11454116
86	0x3e0326bc	0.12807745
87	0xbdcc29a0	-0.09968877
88	0x3e205706	0.15658197
89	0x3e2ac06e	0.16674969
90	0xbc9a4cf0	-0.018835515
91	0x3e76705e	0.24066302
92	0xbe033269	-0.12812199
93	0xbd680220	-0.05664265
94	0xbe814ab5	-0.2525231
95	0xbd8468d8	-0.0646531
96	0xbe1f054e	-0.15529367
97	0xbe52ccf3	-0.20585994
98	0x3df6caa8	0.12050372
99	0xbe1313bd	-0.14362998
100	0xbe978ba7	-0.29598734
101	0x3da061a8	0.078311265
102	0xbdbd0352	-0.09229149
103	0xbe8d5ecc	-0.27611387
104	0xbd17de38	-0.03707716
105	0xbe622f76	-0.22088417
106	0x3e15f51a	0.1464428
107	0x3d5466f0	0.05185598
108	0xbd402758	-0.04691252
109	0x3e12d118	0.14337575
110	0x3d56c6b8	0.052435607
111	0x3e9b0c87	0.30282995
112	0xbe9cbcaa	-0.3061269
113	0x3ce833c0	0.028344989
114	0xbd165760	-0.03670442
115	0xbe66d3f4	-0.22541791
116	0x3e4b9eae	0.1988475
117	0xbe868e19	-0.26280287
118	0x3e937db7	0.2880685
119	0x3deae380	0.114691734
120	0xbe8b70e8	-0.27234578
121	0x3d8aa714	0.06770149
122	0x3daa25a0	0.08307958
123	0xbcd13260	-0.025536716
124	0x3d3ccc50	0.046093285
125	0xbd9d2d90	-0.07674706
126	0x3da343cc	0.079719156
127	0x3d3046f0	0.0430364
128	0x3e8612a7	0.26186106
129	0xbe975e40	-0.29564095
130	0xbc5bf152	-0.013424234
131	0x3bd2b3e5	0.0064301365
132	0xbcd0d780	-0.025493383
133	0x3dc5bc9c	0.09655115
134	0xbe9a005f	-0.30078408
135	0xbe4666dc	-0.19375175
136	0xbcbbd289	-0.02292754
137	0x3c2b2fee	0.010448439
138	0xbdb19970	-0.08671844
139	0xbe8ca572	-0.27469975
140	0x3e84630f	0.25856826
141	0xbdc17f66	-0.094481274
142	0x3e83797d	0.25678626
143	0x3e2c5185	0.16827972
144	0x3d263268	0.040575415
145	0xbd10ba1b	-0.035333734
146	0x3e0aa95e	0.13541171
147	0x3e38674f	0.18008159
148	0xbe9bc7b5	-0.30425802
149	0x3d80aa96	0.06282537
150	0x3e9a207b	0.30102906
151	0xbe743f89	-0.23852362
152	0x3d4034e5	0.046925444
153	0xbd671abb	-0.056421977
154	0xbe6f4020	-0.23364305
155	0x3e9d08c9	0.30670765
156	0xbe58b033	-0.21160965
157	0x3c128a80	0.008944154
158	0x3da77116	0.08175866
159	0x3c4992a0	0.0123030245
160	0x3dae1b18	0.085012615
161	0x3def486a	0.11683734
162	0xbe67e728	-0.22646773
163	0x3e5e35c6	0.217002
164	0x3e24f344	0.16108423
165	0xbdd48ae0	-0.10378051
166	0x3d2dfb20	0.04247582
167	0x3e63c886	0.22244462
168	0x3dd33f1a	0.1031477
169	0x3e96a6cb	0.29424128
170	0x3e38f2ff	0.18061446
171	0x3e0fc891	0.14041354
172	0xbd9b5b86	-0.07585816
173	0xbd929904	-0.07158092
174	0x3dce18fa	0.10063358
175	0xbe1c4778	-0.15261638
176	0xbe1c9070	-0.15289474
177	0x3e15d848	0.14633286
178	0xbe5000a3	-0.20312743
179	0xbe119baf	-0.14219545
180	0xbe291e09	-0.16515364
181	0xbe3e0a67	-0.18558656
182	0xbe33c9be	-0.17557427
183	0xbdeaaa46	-0.11458258
184	0x3d813214	0.0630838
185	0xbe241fbc	-0.1602773
186	0x3e974fbd	0.29553023
187	0xbe99a3b5	-0.3000771
188	0x3e869c95	0.26291338
189	0xbe68536e	-0.22688076
190	0xbe86838e	-0.26272243
191	0x3e3198f5	0.17343505
192	0x3e655d0f	0.2239878
193	0x3e4f8352	0.20264938
194	0x3e5c1ebb	0.21496098
195	0xbe2cb581	-0.16866113
196	0xbc942a10	-0.018086463
197	0x3e80124d	0.25013962
198	0xbd744d55	-0.059644062
199	0x3e7018f2	0.23447016
200	0xbdbb90f6	-0.091585085
201	0x3e878439	0.26468065
202	0xbe5d39c4	-0.21604067
203	0x3e7f5ce2	0.24937776
204	0x3d65198b	0.055932563
205	0x3d0f5108	0.034989387
206	0x3d194770	0.037421644
207	0xbddd729c	-0.10812876
208	0xbe4642e4	-0.19361454
209	0x3df0914e	0.11746465
210	0x3e91267d	0.28349677
211	0x3e702322	0.23450902
212	0xbe76c0fe	-0.24097058
213	0x3e0b1bd5	0.13584836
214	0xbe1a5133	-0.15070038
215	0x3e80b035	0.25134435
216	0xbd4e25b3	-0.05032892
217	0x3e59ea49	0.21280779
218	0x3d949ce4	0.07256487
219	0xbdd60a18	-0.10451144
220	0xbe8fe971	-0.2810779
221	0x3e11dd30	0.14244533
222	0xbd94ebce	-0.07271539
223	0x3df2b7a4	0.11851433
224	0xbd237490	-0.039906085
225	0xbbea2dd2	-0.0071465755
226	0xbe2d3a96	-0.1691688
227	0xbd58b170	-0.052903593
228	0x3e79381e	0.24337813
229	0xbe3180d9	-0.17334308
230	0xbd3bdb40	-0.04586339
231	0x3ddb076c	0.10694775
232	0x3ce05f49	0.027389186
233	0x3e9046cf	0.28179023
234	0x3e88b04f	0.26697013
235	0x3ba462e5	0.005016672
236	0xbe7a7b25	-0.24461038
237	0x3e06648d	0.13124295
238	0xbe1d5c80	-0.15367317
239	0xbcc89cb0	-0.024488777
240	0xbe5df7a6	-0.21676502
241	0x3debc57c	0.115122765
242	0x3e8e6e13	0.27818355
243	0x3e0131f6	0.12616715
244	0xbe357ef5	-0.17724212
245	0x3e5a34da	0.21309224
246	0x3e1f7013	0.15570097
247	0x3e7ab15a	0.24481717
248	0x3e141e88	0.14464772
249	0xbe615c98	-0.22007978
250	0xbe38c333	-0.18043213
251	0xbc52ba00	-0.012861729
252	0x3d815a32	0.063160315
253	0x3e1b4d5c	0.15166229
254	0x3e7f9e3d	0.24962707
255	0xbe5f3295	-0.2179664

simplicial_nn.2.W1 f4 [5, 64, 64]
0	0x3cf310fe	0.029671188
1	0x3a78b500	0.00094874203
2	0xbb2a0210	-0.002594117
3	0xbd40ac8f	-0.047039565
4	0xbb590530	-0.0033114664
5	0xbd11f13a	-0.035630442
6	0x3d3d42bb	0.046206217
7	0xbc8223b4	-0.015886165
8	0xbcba3098	-0.02272825
9	0x3cc04fee	0.023475613
10	0x3c0de254	0.008659918
11	0xbc2c48bc	-0.010515388
12	0x3c9cb7d6	0.019130629
13	0xbca49f80	-0.020095587
14	0x3cfac86e	0.03061315
15	0xbafd1740	-0.0019309297
16	0xbd1a5fe8	-0.03768912
17	0x3cf2310a	0.0295644
18	0x3d00e807	0.03147128
19	0x3d4114bd	0.04713892
20	0x3c696144	0.014244381
21	0x3d2f4001	0.04278565
22	0xbb359210	-0.0027705468
23	0xbc7357ec	-0.014852505
24	0xbd529d8f	-0.05141979
25	0xbd511e7e	-0.05105447
26	0x3d0c9cad	0.034329105
27	0x3c4eb4dc	0.012616362
28	0xbd1b65bc	-0.03793882
29	0x3c9e9da2	0.019362275
30	0x3cfef942	0.031124715
31	0xbd12e7a5	-0.035865445
32	0x3d4bff8d	0.04980426
33	0x3d3acc9d	0.04560529
34	0xbd447ae8	-0.047968775
35	0x3c707c4c	0.014678072
36	0x3c54a16c	0.012977939
37	0xbd0e6f82	-0.03477431
38	0x3a7b27c0	0.00095808133
39	0xbc592294	-0.013252873
40	0x3d28af47	0.041182783
41	0x3d0c59c5	0.0342653
42	0x3ced196a	0.028942782
43	0x3ce6e6ae	0.028186169
44	0xbc6a59f8	-0.014303677
45	0x3d4bb337	0.04973146
46	0xbd101505	-0.035176296
47	0x3d43b6b3	0.047781657
48	0xbc920666	-0.017825317
49	0xbc9c727e	-0.019097563
50	0x3c7882bc	0.015167888
51	0x3c2eb6d4	0.010663707
52	0x3d494853	0.04914124
53	0x3a369200	0.0006964505
54	0x3d3afbe1	0.045650367
55	0x3d2b3595	0.041799147
56	0x3d51c7f5	0.051216085
57	0x3ce4226a	0.027848441
58	0x3d213367	0.03935566
59	0xbd35c37d	-0.044375885
60	0x3c9753c6	0.018472563
61	0x3cd8d64e	0.026469376
62	0xbd50014f	-0.050782498
63	0x3c44210c	0.01197077
64	0x3d120e99	0.035658453
65	0xbc421a80	-0.011847138
66	0x3ca28a6e	0.019841399
67	0x3d36396d	0.04448836
68	0x3c97c66e	0.018527236
69	0x3d0506e5	0.03247728
70	0x39003d00	0.00012229756
71	0xbce12014	-0.027481116
72	0xbd2b2ae0	-0.041788936
73	0x3d50ec81	0.051006798
74	0xbc98b968	-0.018643096
75	0x3cb021f6	0.021500569
76	0xbccc7b3e	-0.02496111
77	0x3d3630c7	0.04448011
78	0x3d076dc3	0.03306366
79	0x3c8769be	0.016529914
80	0x3ceed3ce	0.02915373
81	0x3c72769c	0.0147987865
82	0xbd471e4e	-0.048612885
83	0x3cee05c2	0.02905548
84	0xbc5650f0	-0.01308082
85	0x3cd44166	0.02591009
86	0xbcb7cf04	-0.02243758
87	0xbbcfff08	-0.0063475408
88	0xbcca5dd6	-0.024702948
89	0x3d0c23c1	0.034213785
90	0xbce737a0	-0.028224766
91	0x3c8776b2	0.01653609
92	0x3a3d3300	0.00072173774
93	0x3c5a599c	0.013327029
94	0xbc713234	-0.014721442
95	0xbc56f57c	-0.0131200515
96	0x3ca914f6	0.020639878
97	0x3d428f5f	0.04750001
98	0x3cbc0a9e	0.022954281
99	0x3c66420c	0.014053833
100	0x3d4a7d97	0.049436178
101	0xbb875e40	-0.0041311085
102	0xbb8c0fb8	-0.0042743348
103	0xbb6c8380	-0.0036089122
104	0x3cf2335a	0.029565502
105	0x3c0aa530	0.008462235
106	0xbd03f6d8	-0.03221783
107	0xbbbe6330	-0.005810164
108	0xbd53946f	-0.05165523
109	0xbced9d20	-0.029005587
110	0xbd41aafb	-0.0472822
111	0x3d5314af	0.051533397
112	0x3c9e337a	0.019311655
113	0x3d036cb9	0.032086108
114	0xbbc84ab0	-0.006112419
115	0xbc5ccbfc	-0.013476368
116	0xbd23e954	-0.04001744
117	0x3c71e05c	0.014762964
118	0xbb8dd7c0	-0.004328698
119	0xb985f000	-0.0002554655
120	0xbc735a28	-0.014853038
121	0x3ca73cd6	0.020414751
122	0xbbef9898	-0.0073118918
123	0x3c41261c	0.011788871
124	0xbb40e7b0	-0.0029434972
125	0xbc80a20e	-0.015702274
126	0x3ca42ed2	0.020041857
127	0x3d1f4e29	0.0388929
128	0xbcfe24c2	-0.031023387
129	0xbd53cf97	-0.051711645
130	0xbd485194	-0.048905924
131	0x3c1ca910	0.009561792
132	0x3ce287c2	0.027652625
133	0x3d3e660b	0.046484035
134	0xbcdd1630	-0.026988119
135	0xbd47a3ce	-0.0487402
136	0x3c3cf214	0.011532325
137	0xbcc4767c	-0.023982279
138	0xbd2ce814	-0.042213514
139	0xbd0b9869	-0.034080897
140	0x3cc4ef86	0.024039995
141	0x3d393565	0.045216937
142	0x3d07d791	0.033164565
143	0xbd499a36	-0.049219333
144	0x3d400f9b	0.046889883
145	0xbc9faf30	-0.019492716
146	0x3d43f6a7	0.047842648
147	0x3d267e89	0.040648017
148	0xbd4963dd	-0.049167503
149	0x3cdc2782	0.026874308
150	0xbc28d774	-0.010305274
151	0xbd220bc4	-0.039562
152	0x3c480d8c	0.012210261
153	0xbcbb1bf5	-0.02284048
154	0xbca96b6a	-0.020681102
155	0x3c98c122	0.01864678
156	0xbd42c6e6	-0.047552966
157	0x3d4f857b	0.050664406
158	0xbd074bdf	-0.03303134
159	0xbbdd5178	-0.0067540966
160	0x3c1aa6b4	0.009439159
161	0x3cb5312e	0.022118177
162	0x3c8d600e	0.017257717
163	0xbbb8ab10	-0.0056356266
164	0x3cab9c42	0.020948533
165	0xbd1f2fc8	-0.038863927
166	0x3c1c80c4	0.0095521845
167	0x3ce0610e	0.02739003
168	0x3cfbd82e	0.030742731
169	0xbd02158a	-0.031758823
170	0x3d50036d	0.050784517
171	0x3cd20c5a	0.025640655
172	0xbcfb550b	-0.0306802
173	0x3d4a8dd7	0.049451675
174	0x3c9e60f2	0.019333337
175	0x3d063b51	0.032771412
176	0xbcbae798	-0.02281551
177	0x3d0133a1	0.031543378
178	0x3b332650	0.0027336068
179	0x3cd7f57e	0.026362177
180	0x3cf63b2e	0.030057516
181	0x3d287ecf	0.04113656
182	0x3d099a17	0.033594217
183	0xbcd665ac	-0.026171528
184	0x3d3e015f	0.046388026
185	0x3d53994f	0.05165988
186	0xbc75d518	-0.015004419
187	0xbcf31e80	-0.02967763
188	0xbcb4cb9e	-0.022069748
189	0xbbf51078	-0.00747877
190	0x3cc44396	0.023958009
191	0xbba03688	-0.004889313
192	0xbcac7a63	-0.021054452
193	0x3d4257fd	0.047447193
194	0x3c8d2062	0.017227355
195	0xbbf599c8	-0.007495139
196	0xb9335400	-0.00017102063
197	0xbccb0abf	-0.024785398
198	0x3a1ea380	0.0006051585
199	0xbd3e947b	-0.04652832
200	0x3d381a5b	0.04494701
201	0xbcb94384	-0.022615202
202	0xbd18a9e8	-0.03727141
203	0x3d520255	0.051271755
204	0x3d230cb9	0.039807055
205	0x3bd598d0	0.006518461
206	0x3c4665cc	0.012109231
207	0x3c6364b4	0.01387899
208	0x3d0728df	0.032997962
209	0xbc82c99e	-0.01596528
210	0xbd3d7179	-0.046250794
211	0x3d1e52dd	0.038653243
212	0xbd46e6b2	-0.048559852
213	0x3c3c6a6c	0.011499982
214	0x3d4dea67	0.05027237
215	0x3d3a7c1d	0.04552852
216	0xbd12ca92	-0.035837717
217	0xbc012a10	-0.007883564
218	0x3d0c93c1	0.034320597
219	0xbcb96d5c	-0.022635154
220	0xbb901f38	-0.004398253
221	0x3cdcd272	0.026955817
222	0x3cc66fc2	0.024223212
223	0x3c1d0dd4	0.009585816
224	0xbd40c9a0	-0.047067285
225	0x3a2d83c0	0.00066190585
226	0x3c768064	0.015045259
227	0xbc99d76e	-0.018779483
228	0x3c3a6f4c	0.011379074
229	0xbb0dd020	-0.0021638945
230	0xbcf7c64e	-0.030245926
231	0x3ca5ed9a	0.020254899
232	0x3cb4abbe	0.02205455
233	0x3cc4ed9a	0.024039079
234	0xbc254bac	-0.010088842
235	0xbd50e755	-0.051001865
236	0xbcfe2aa9	-0.031026201
237	0x3cac9dde	0.02107137
238	0x3d18ad77	0.037274804
239	0x3cd47ee2	0.025939409
240	0xbd3a5e42	-0.045500048
241	0xbd0ca616	-0.03433808
242	0x3d3720c1	0.04470897
243	0xbd38a8ce	-0.04508286
244	0xbd343b3c	-0.044001803
245	0x3d2a1257	0.041521396
246	0x3ca738a2	0.020412747
247	0xbd28007e	-0.041016094
248	0x3d075069	0.03303567
249	0x3c7347fc	0.014848705
250	0x3bf29cb8	0.0074039362
251	0x3c82067a	0.015872229
252	0xbd46b4fc	-0.048512444
253	0x3d24ac5f	0.04020345
254	0x3d53d559	0.051717136
255	0xbd214833	-0.039375495

simplicial_nn.2.W2 f4 [5, 64, 64]
0	0x3d13cb90	0.036082804
1	0x3bf391c1	0.0074331467
2	0xbd3ee41b	-0.046604257
3	0x39b454fc	0.00034395594
4	0xbc87ffec	-0.016601525
5	0xbcfda19a	-0.030960847
6	0x3bb07f29	0.0053862524
7	0xbd09afaa	-0.033614792
8	0xbcb339f0	-0.021878213
9	0xbd44e3a6	-0.048068665
10	0xbc0a1f38	-0.008430295
11	0xbac8dae0	-0.0015324019
12	0xbc5f1a50	-0.013617113
13	0x3cae5a96	0.02128343
14	0x3cf362fa	0.029710282
15	0xbc38c570	-0.0112775415
16	0xbd1c6a14	-0.0381871
17	0xbc941999	-0.018078612
18	0x3b264120	0.0025368407
19	0xbd1447e4	-0.036201373
20	0x3d491114	0.049088553
21	0x3cd62c7c	0.026144259
22	0x3d4e71ab	0.05040137
23	0xbd3ea2c6	-0.04654195
24	0xbceb49d8	-0.028721735
25	0xbd3fbb36	-0.046809398
26	0x3d2538eb	0.040337484
27	0xbb596b6e	-0.0033175605
28	0xbc88d678	-0.01670383
29	0xbc8be7c0	-0.01707828
30	0x3d4f6724	0.050635472
31	0xbd4a26d8	-0.04935345
32	0xbc430e70	-0.011905298
33	0x3d33681b	0.043800455
34	0x3d0f3213	0.034959864
35	0xbc0a4ac0	-0.008440673
36	0x3cf5d0fa	0.030006874
37	0x3cbb6e78	0.022879824
38	0x3c5e3244	0.013561789
39	0x3d2940f5	0.041321713
40	0xbc91614c	-0.01774659
41	0xbce123cb	-0.027482888
42	0xbb806cc6	-0.003919217
43	0xbbe69e8a	-0.0070379423
44	0x3aa4b568	0.001256627
45	0xbc257ae6	-0.010100102
46	0xbcfc428a	-0.030793447
47	0xbb22ee00	-0.0024861097
48	0xbd21bf3a	-0.03948901
49	0xbce23182	-0.027611498
50	0x3cc5516e	0.02408668
51	0xbc8ce7f0	-0.01720044
52	0xbcbc1398	-0.022958562
53	0x3cd31344	0.025766023
54	0x3d2dbd80	0.04241705
55	0x3cb97a92	0.022641454
56	0x3c614734	0.013749886
57	0xbc27cf13	-0.010242241
58	0x3bfa5470	0.0076394603
59	0xbcfe8d1b	-0.031073144
60	0x3c7c210f	0.015388741
61	0xbcd785b2	-0.026308868
62	0xbd1429f3	-0.03617282
63	0x3c14206c	0.009040933
64	0xbb11bc00	-0.00222373
65	0xbd2c9f1e	-0.042143933
66	0x3ca857ca	0.020549674
67	0x3bcf4e68	0.0063264854
68	0xbc8d1dca	-0.017226119
69	0xbbb89398	-0.005632829
70	0xbc0633c0	-0.008191049
71	0x3cf3f962	0.029782
72	0x3acc7120	0.0015597679
73	0xbc51fd68	-0.012816764
74	0xbba2f430	-0.004972957
75	0xbc3c424c	-0.011490416
76	0x3d27b011	0.040939394
77	0x3c1c1080	0.009525418
78	0x3ac0f0e0	0.0014720224
79	0xbc64cee8	-0.013965346
80	0xbd50bb29	-0.05095974
81	0x3c52882c	0.012849849
82	0x3c971096	0.018440526
83	0x3cd0bb9e	0.025480088
84	0x3d23d1d1	0.03999502
85	0xbcce9a0b	-0.025219938
86	0x3d2c10b1	0.042008106
87	0x3cd16e32	0.02556524
88	0xbcde1872	-0.027111266
89	0x3cd3aeee	0.025840249
90	0xbc9f21de	-0.019425329
91	0xbc614e44	-0.01375157
92	0xbc446d20	-0.011988908
93	0x3d082435	0.033237655
94	0xbc88881c	-0.016666465
95	0x3d52520f	0.05134779
96	0x3baf5868	0.005351115
97	0x3d4aa739	0.049475882
98	0x3d3d1245	0.04616
99	0xbd06ac80	-0.032879353
100	0xbcba8886	-0.022770178
101	0x3c8077ea	0.01568218
102	0x3c11774c	0.00887854
103	0x3d3839d9	0.044977043
104	0x3d28da8b	0.041224044
105	0xbd41566f	-0.04720157
106	0x3d48a8d5	0.048989136
107	0x3ceaa70e	0.028644111
108	0x3d10c779	0.035346482
109	0xbbf304c8	-0.0074163415
110	0x3d02feb3	0.03198118
111	0x3d37ef2d	0.04490583
112	0xbd22cce0	-0.039746165
113	0x3c478014	0.012176532
114	0x3c27d2a0	0.010243088
115	0xbd1fa110	-0.03897196
116	0x3c6ba32c	0.014382165
117	0x3d3749f7	0.044748273
118	0xbcb89bc7	-0.022535218
119	0xbcdd8b5f	-0.027043996
120	0x3d151a3f	0.036401983
121	0xbb6b34a0	-0.0035889521
122	0xbae63620	-0.0017563738
123	0xbc22c9bc	-0.009935793
124	0xbc906c76	-0.017629843
125	0x3be49df0	0.0069768354
126	0x3d35c7cb	0.04437999
127	0x3bc5a140	0.0060311854
128	0x3c3762d6	0.011192998
129	0xbd44e132	-0.048066325
130	0xbc647671	-0.013944254
131	0x3b453ec0	0.0030097216
132	0xbc83c522	-0.016085211
133	0xbd2b5822	-0.041832097
134	0xbccc3797	-0.024928851
135	0x3c97f90e	0.018551376
136	0xbca21322	-0.019784514
137	0xbd4eb8cd	-0.05046921
138	0x3cb6e8f6	0.022327881
139	0x3d07d737	0.03316423
140	0x3ccc3dd8	0.024931833
141	0xbc7e4330	-0.015518948
142	0x3bb65da8	0.005565364
143	0x3cd5a420	0.026079237
144	0x3d4058bd	0.046959627
145	0x3d207f74	0.03918405
146	0xbc8f1776	-0.017467242
147	0xbcec7f93	-0.028869426
148	0x3cdbe3c3	0.026842004
149	0x3c5354d0	0.012898639
150	0xbbe600fd	-0.007019161
151	0xbc8455c2	-0.016154174
152	0x3cf01514	0.029306926
153	0xbd376fd8	-0.044784397
154	0x3c2f4c54	0.01069935
155	0x3d4bfb56	0.04980024
156	0xbd3de4d2	-0.0463608
157	0xbc12bb68	-0.008955814
158	0xbd268bbb	-0.0406606
159	0xbd0c0232	-0.03418178
160	0xbc8f3850	-0.017482907
161	0x3d32e54d	0.04367571
162	0x3d3c18fd	0.04592227
163	0x3d3c3a07	0.045953777
164	0x3b3914a0	0.0028241053
165	0xbc29d35b	-0.0103653325
166	0xbd1fa62c	-0.038976833
167	0xbd0802f1	-0.03320593
168	0x3d415c50	0.047207177
169	0xbcc8bfcd	-0.02450552
170	0xbcb5bba8	-0.022184208
171	0xbd171cd3	-0.036892723
172	0x3aeaa407	0.0017901667
173	0x3cea0595	0.028567115
174	0xbcf2a709	-0.029620664
175	0x3c2c6ddc	0.010524239
176	0x3d2248a1	0.039620046
177	0xbab0da80	-0.0013492852
178	0xbd0afa06	-0.033929847
179	0xbcb92981	-0.022602798
180	0x3d1b97d0	0.037986577
181	0x3d04bef2	0.032408662
182	0x3c9fb950	0.019497544
183	0x3d181579	0.037129853
184	0x3cf25086	0.029579412
185	0x3d56fc4c	0.052486703
186	0xbd34d966	-0.04415264
187	0x3d3113e7	0.04323187
188	0x3d3360ea	0.043793596
189	0x3abc71a0	0.0014377125
190	0x3bd78307	0.006576899
191	0x3c42fb88	0.01190079
192	0x3d5443a0	0.051822305
193	0xbc964901	-0.018345358
194	0x3d0e57e5	0.03475179
195	0xbccb9830	-0.024852842
196	0x3c91c172	0.017792437
197	0xbc1c7464	-0.009549234
198	0x3a4fe82c	0.00079310196
199	0xbca737c6	-0.020412337
200	0xbc975549	-0.018473284
201	0xbcc64121	-0.024200978
202	0xbbd3eb08	-0.006467227
203	0x3cfcff52	0.030883465
204	0x3c94ccf7	0.018164141
205	0x3d0e9125	0.03480639
206	0xbd47e027	-0.048797753
207	0xbc09294a	-0.0083716605
208	0xbcc0451a	-0.02347045
209	0x3d2f2f89	0.042769942
210	0x3c190480	0.009339452
211	0xbcb922da	-0.022599626
212	0x3d121aca	0.03567008
213	0xbcbb4f0e	-0.022864845
214	0x3cd50ab4	0.02600608
215	0xbcc8476f	-0.024448125
216	0xbd36fe95	-0.044676382
217	0xbd1f4be2	-0.038890727
218	0x3cc8e142	0.024521474
219	0xbd24aade	-0.040202014
220	0xbd1af51a	-0.037831403
221	0xbd2924b7	-0.04129478
222	0x3d14f7ba	0.036369063
223	0x3cdd535a	0.027017284
224	0x3d4a90df	0.049454566
225	0xbab6c52a	-0.0013944258
226	0x3c9ce87e	0.01915383
227	0x3d351613	0.044210505
228	0x3c93ba1a	0.018033076
229	0xbbdf504f	-0.0068149935
230	0x3cb383aa	0.021913368
231	0xbca9ecc8	-0.020742789
232	0xbd523aac	-0.051325485
233	0x3c2aa019	0.010414147
234	0xbd2f660c	-0.04282193
235	0xbc9c508e	-0.01908138
236	0xbca81641	-0.020518424
237	0x3ce62721	0.02809483
238	0x3d1dfe10	0.03857237
239	0xbc208d78	-0.009799354
240	0xbd310f8f	-0.04322773
241	0x3d2828d5	0.041054565
242	0x3caeb2c6	0.02132548
243	0x3d2c35dd	0.042043556
244	0xbd4f0b3a	-0.050547816
245	0xbd210782	-0.0393138
246	0x3cd7a113	0.026321923
247	0xbd02860c	-0.03186612
248	0x3d0f931b	0.0350524
249	0x3d2a17b5	0.041526515
250	0x3d4c7d4f	0.04992419
251	0xbc35117c	-0.011051532
252	0xbc60cb12	-0.013720291
253	0xbd273d0a	-0.040829696
254	0x3c23f45d	0.010006991
255	0xbc47a792	-0.012185948

simplicial_nn.4.W0 f4 [64, 1]
0	0x3d8f42d6	0.0699517
1	0xbb9053e5	-0.0044045323
2	0x3e5b8e93	0.21441106
3	0xbe47f66a	-0.19527593
4	0x3dc690ec	0.096956104
5	0xbe2facd0	-0.17155766
6	0x3e48fb9b	0.1962723
7	0xbbd5b680	-0.006522
8	0x3e94008b	0.28906664
9	0x3da8e7ae	0.082473144
10	0x3e1f58e6	0.15561256
11	0x3cb939d0	0.022610575
12	0x3e0e7c17	0.13914524
13	0xbed71dac	-0.42014825
14	0x3d7f3228	0.062303692
15	0xbe43293d	-0.190587
16	0x3e92eb7f	0.28695294
17	0xbdaf88ce	-0.08571015
18	0x3ea9af0f	0.33141372
19	0x3cd52fb7	0.026023729
20	0xbe114ff2	-0.14190653
21	0xbe56b2b8	-0.20966613
22	0xbed9c427	-0.42532465
23	0xbdd76ce2	-0.105188146
24	0xbed7daa5	-0.42159
25	0xbed7923c	-0.42103755
26	0xbe9c6ccf	-0.30551764
27	0x3e8bf82f	0.27337787
28	0x3ed5b449	0.4173911
29	0x3e74537a	0.23859969
30	0xbe850ed1	-0.25987867
31	0x3d9d074c	0.076674074
32	0x3eb8a75d	0.36065188
33	0xbd05fefd	-0.03271388
34	0x3d1cd350	0.03828746
35	0xbe7ed24c	-0.2488491
36	0xbece8a62	-0.40339953
37	0x3ed471b3	0.41492996
38	0x3de2707c	0.11056611
39	0xbecce88c	-0.4002117
40	0xbe9e517a	-0.30921537
41	0x3e8fb0af	0.28064486
42	0x3e9b05ff	0.30278012
43	0xbed81248	-0.42201447
44	0x3e82ad63	0.2552291
45	0xbd3ab895	-0.045586187
46	0x3ecfb277	0.40565845
47	0xbca9b410	-0.020715743
48	0xbe8d576a	-0.27605754
49	0xbeae918b	-0.34095415
50	0x3e032cd6	0.12810072
51	0x3e56b713	0.20968275
52	0xbe9aa0c8	-0.3020079
53	0xbe979b5d	-0.2961072
54	0x3eaeb1ed	0.34120122
55	0xbdf75938	-0.12077564
56	0xbc8dace0	-0.017294347
57	0x3ea73095	0.32654253
58	0x3ea140b3	0.31494674
59	0x3eba33a7	0.36367533
60	0x3e002517	0.12514149
61	0xbd64bb70	-0.055842817
62	0xbe8dc8ec	-0.27692354
63	0xbe33bd3d	-0.17552657

simplicial_nn.4.W1 f4 [5, 64, 1]
0	0xbe82503a	-0.25451833
1	0x3de4b2c4	0.11166909
2	0xbe69a9b0	-0.22818637
3	0xbec11477	-0.37710926
4	0x3ce84500	0.028353214
5	0xbe98d832	-0.29852444
6	0xbea0a1bc	-0.31373394
7	0x3ed12e11	0.40855458
8	0xbe47422f	-0.19458841
9	0x3e88746f	0.26651332
10	0xbce8c220	-0.028412879
11	0x3eade341	0.33962443
12	0xbe340433	-0.17579727
13	0xbe774124	-0.24145943
14	0xbdc1cd08	-0.09462935
15	0xbcf5faa0	-0.030026734
16	0xbe746d45	-0.23869808
17	0x3db9fecc	0.09081802
18	0xbdce2150	-0.100649476
19	0xbdd0ff70	-0.10204971
20	0x3def942c	0.116981834
21	0x3ebc2b9b	0.36752018
22	0x3eb4ed9b	0.3533753
23	0xbe7b4723	-0.24538855
24	0xbe08e888	-0.13369954
25	0x3e1214be	0.14265725
26	0x3ded98bc	0.116013974
27	0xbe37e669	-0.17958988
28	0xbe3a57dc	-0.18197578
29	0x3d168620	0.036749005
30	0x3cef4aa0	0.029210389
31	0xbd3e2a48	-0.04642704
32	0xbe974302	-0.2954331
33	0x3e6b12c2	0.22956374
34	0x3ec5e4b3	0.38651046
35	0x3db81f8c	0.08990392
36	0x3cf87860	0.030330837
37	0x3e325a6e	0.17417309
38	0xbed4eae1	-0.41585448
39	0x3ec65655	0.3873774
40	0x3ec0f877	0.37689564
41	0xbd0b4400	-0.034000397
42	0x3eba1ffb	0.36352524
43	0x3e68506a	0.22686926
44	0xbea2ea79	-0.31819513
45	0x3e865707	0.26238272
46	0x3dec5834	0.11540261
47	0x3eb1efcd	0.34753266
48	0x3ed0cc37	0.40780804
49	0x3ed15d5d	0.40891543
50	0x3d687890	0.056755602
51	0xbe52d05d	-0.20587297
52	0xbeba5bcc	-0.3639816
53	0xbd83e034	-0.06439248
54	0xbea1063b	-0.31450066
55	0xbe39e497	-0.18153606
56	0xbe3d5cbf	-0.18492411
57	0xbdd0de34	-0.10198632
58	0xbdb6f684	-0.08933738
59	0xbe6e8805	-0.23294075
60	0xbecc280f	-0.39874312
61	0x3e224e2e	0.15850136
62	0xbeae8060	-0.34082317
63	0x3d170a80	0.036875248
64	0xbecad7d2	-0.39617783
65	0xbe9cec04	-0.30648816
66	0xbecc347e	-0.39883798
67	0x3ecccba1	0.39999107
68	0xbe8d9ce2	-0.27658755
69	0x3ec3d6c7	0.382498
70	0x3e2caf86	0.16863832
71	0xbe974068	-0.29541326
72	0x3e6c095a	0.23050442
73	0x3dc98684	0.0984011
74	0xbe23ff94	-0.16015464
75	0x3e6ccefa	0.2312583
76	0x3e831399	0.2560089
77	0x3d4da230	0.050203502
78	0x3eb1ef25	0.34752765
79	0xbe45a665	-0.19301756
80	0xbebf7f7a	-0.37401944
81	0x3ea90cdb	0.3301762
82	0x3ed18bdd	0.4092702
83	0xbd9393a0	-0.072058916
84	0xbe474ad3	-0.19462137
85	0xbec7a11e	-0.3899011
86	0xbeaba54e	-0.33524555
87	0x3d2eb2c0	0.042650938
88	0xbed38aac	-0.41316736
89	0xbd8bacc8	-0.06820065
90	0xbeb89d59	-0.36057547
91	0x3d94266c	0.07233891
92	0xbd01eb90	-0.03171879
93	0x3cbd07d0	0.023075014
94	0x3e915cc5	0.2839109
95	0xbe3f6ba6	-0.18693408
96	0x3e9169f5	0.2840115
97	0xbeabe910	-0.3357625
98	0x3e789366	0.24274978
99	0x3eaea4e3	0.34110174
100	0xbe83f248	-0.25770783
101	0x3e656e12	0.2240527
102	0x3dcae5cc	0.099071115
103	0x3e4b934a	0.19880405
104	0xbe983576	-0.29728287
105	0x3dff8344	0.12476209
106	0x3ed5740b	0.41690096
107	0x3e3874a6	0.18013248
108	0x3e7629b6	0.24039349
109	0xbe9143cc	-0.28372037
110	0xbdd8ef98	-0.10592574
111	0xbd16b8b8	-0.036797255
112	0x3eb319e9	0.34980705
113	0xbeb18d82	-0.34678274
114	0x3e8db1f7	0.2767484
115	0xbd71c588	-0.05902627
116	0xbe9a9158	-0.30189013
117	0x3e89adcd	0.26890412
118	0x3dc515fc	0.09623334
119	0xbed2fc7f	-0.41208264
120	0x3d252288	0.040316135
121	0x3e8a5491	0.27017644
122	0x3c2f1320	0.010685712
123	0x3dcf879c	0.10133287
124	0x3ea69629	0.32536438
125	0xbcd0cbd0	-0.02548781
126	0xbe35fa79	-0.17771329
127	0x3ec9622d	0.39332715
128	0x3e4761fe	0.19470975
129	0x3dba7edc	0.09106228
130	0x3e7fe35e	0.24989077
131	0x3d35f560	0.04442346
132	0xbe66febd	-0.22558112
133	0xbecfab4c	-0.40560377
134	0xbe32a6c5	-0.1744643
135	0x3ecf3ebd	0.40477553
136	0x3dd2fb14	0.103017956
137	0x3e0750c2	0.132144
138	0xbde59b4c	-0.11211261
139	0x3e83a14b	0.25708994
140	0x3e8fe1b9	0.281019
141	0xbe60de3e	-0.21959779
142	0xbe5733c9	-0.21015848
143	0xbc78a500	-0.015176058
144	0xbdda2600	-0.10651779
145	0xbda3e7e8	-0.08003217
146	0xbe2e93fd	-0.1704864
147	0xbeafc6bb	-0.34331307
148	0xbdc313f4	-0.0952529
149	0xbe928ec6	-0.28624552
150	0xbd77c450	-0.060489953
151	0xbe925e04	-0.28587353
152	0xbd1c5980	-0.03817129
153	0x3ea4d401	0.32192996
154	0xbe1778fe	-0.14792249
155	0xbeb1e4a2	-0.34744745
156	0x3e476f6a	0.19476095
157	0xbe1ce1de	-0.15320536
158	0xbe9c9081	-0.30578998
159	0x3de0de1c	0.10979864
160	0xbeacc738	-0.33745742
161	0xbed4a108	-0.41529107
162	0xbe977d61	-0.29587844
163	0xbe045528	-0.1292311
164	0x3e1fc77a	0.15603438
165	0xbec34a95	-0.3814284
166	0xbe60f051	-0.21966673
167	0x3e055246	0.13019666
168	0xbe7f9be0	-0.24961805
169	0xbe9d3874	-0.30707133
170	0x3e2aeb8a	0.16691414
171	0xbe152edc	-0.14568657
172	0x3e6795f6	0.226158
173	0x3ea1b1ab	0.31580862
174	0x3eaa8c99	0.33310392
175	0xbec5f241	-0.38661388
176	0xbe4f43bc	-0.20240682
177	0x3e10b0a2	0.1412988
178	0x3ebc538b	0.36782488
179	0xbb291280	-0.002579838
180	0x3dc163fc	0.09442899
181	0x3e23c036	0.15991291
182	0xbe8e6e90	-0.27818727
183	0xbdcb26c0	-0.099195
184	0xbe0da886	-0.13833818
185	0xbe4cce27	-0.20000516
186	0x3e96dc2d	0.29464856
187	0xbe8ef652	-0.27922302
188	0x3df58ed4	0.11990133
189	0xbe930fbc	-0.28722942
190	0x3ea2a371	0.3176532
191	0x3e13194e	0.14365122
192	0x3ec7aeed	0.39000645
193	0x3e985a79	0.29756525
194	0xbe5de653	-0.21669893
195	0x3da5bccc	0.08092651
196	0xbe1ae760	-0.15127325
197	0xbdffbe10	-0.124874234
198	0x3da1e3fc	0.07904813
199	0xbe216bf8	-0.15763843
200	0xbb804c40	-0.0039153397
201	0x3c2044c0	0.009782016
202	0xbea10312	-0.31447655
203	0xbe75cd34	-0.2400406
204	0x3e9fe975	0.312328
205	0x3e03de72	0.12877825
206	0xbe8af621	-0.27140906
207	0xbe33746a	-0.17524877
208	0x3ecc6d43	0.3992711
209	0x3c4a6200	0.012352467
210	0x3e1edfc2	0.15515044
211	0xbecc8b92	-0.39950234
212	0x3e7b2d56	0.24529013
213	0xbebb1d30	-0.36545706
214	0x3e7ffcc2	0.24998763
215	0x3ec234e7	0.37930986
216	0xbe99a7d8	-0.30010867
217	0xbdd1ccfc	-0.10244176
218	0xbdcfe2b8	-0.10150665
219	0x3d968f84	0.07351592
220	0xbeb6459c	-0.35599983
221	0xbdb33410	-0.087501645
222	0xbe4270fd	-0.18988414
223	0xbec08e5d	-0.37608615
224	0xbe29bb5e	-0.16575381
225	0x3e92d81f	0.28680512
226	0xbe930d56	-0.28721112
227	0x3ea7c359	0.32766226
228	0x3df9fb54	0.1220614
229	0xbd92224c	-0.07135448
230	0x3e1940ca	0.14966121
231	0xbe1d87e2	-0.15383866
232	0xbe188188	-0.14893162
233	0xbe0de00a	-0.13854995
234	0xbcb20730	-0.021731943
235	0xbdbea284	-0.09308341
236	0x3e715a16	0.23569521
237	0x3d0e0620	0.03467381
238	0xbe2d6800	-0.16934204
239	0xbea24291	-0.3169141
240	0x3b4a7c80	0.0030896962
241	0xbda0d9b0	-0.078540206
242	0x3dfd70b4	0.12375012
243	0x3e70023a	0.2343835
244	0x3e138a6e	0.14408275
245	0x3e22ee92	0.1591132
246	0xbdf288b0	-0.11842477
247	0xbeaed8ea	-0.34149867
248	0xbe2a3b04	-0.16624075
249	0xbc7c1f60	-0.01538834
250	0x3e8b27e9	0.27178887
251	0x3eb7bf11	0.3588796
252	0xbec3f21e	-0.38270658
253	0xbddc08a0	-0.107438326
254	0xbe24ea0e	-0.1610491
255	0xbe8af10e	-0.27137035
