results/Test_citation/version_107/checkpoints/epoch=0-step=0.ckpt (torch, 566417 bytes, 27 tensors)

simplicial_nn.0.W0 f4 [1, 64]
000000 ad 76 86 3e 5a a4 5b 3e 40 b8 7b 3d 58 01 99 be
       0.26262417 0.21449414 0.06145501 -0.29883838
000010 d4 a3 9c be ae 3c 27 be c0 b0 a0 be 08 e9 57 bd
       -0.3059374 -0.16331741 -0.3138485 -0.05271247
000020 b3 b8 b4 3e df 2f af 3e 88 ac 89 be 44 d0 99 3d
       0.35297164 0.3421621 -0.26889443 0.07510427
000030 90 05 2a bd 2e 53 7c 3e 90 cb d7 be 80 cf c0 3c
       -0.04150921 0.24641106 -0.42147493 0.023536444
000040 b0 6d 27 bd 60 5a e4 3c 9a 77 76 3e 6d 51 b3 be
       -0.04087609 0.027875125 0.24069062 -0.3502306
000050 92 cc 79 3e 6e 1c 6d be 72 98 30 3e ae 7e 0c 3e
       0.24394444 -0.23155376 0.17245653 0.137202
000060 6a 74 47 3e 85 02 a8 3e 80 e4 be bd e4 1b c1 3d
       0.19478002 0.32814422 -0.09320927 0.09429148
000070 00 a4 51 3c 40 01 b1 bb 34 46 d7 3d 04 fb 55 be
       0.012795448 -0.0054017603 0.10511437 -0.20896536
000080 10 0c 40 bd 2b 32 d1 3e 63 ef c2 be 41 73 a3 3e
       -0.046886504 0.40858588 -0.38073263 0.3192387
000090 f6 a3 6b 3e 44 77 d4 3d dc 07 ba be 0f 73 ac 3e
       0.23011765 0.103743106 -0.3633412 0.33681533
0000a0 e0 47 f5 bd 28 30 28 3d 97 ce 6a be 41 b0 8c be
       -0.119766 0.04106155 -0.2293037 -0.2747822
0000b0 55 0a ca 3e 02 0c 17 3e f8 95 3a 3d d2 05 14 3e
       0.39461008 0.14750674 0.045553178 0.14455345
0000c0 20 dc 32 3c ed ee d9 3e dc 49 df 3d ce d5 a0 be
       0.01091674 0.42565098 0.109027594 -0.3141312
0000d0 df 9b 86 3e ef 07 85 3e 95 92 9d be fe 3a 91 be
       0.26290795 0.25982615 -0.30775896 -0.2836532
0000e0 79 d1 a5 be 03 9f 9d 3e f5 82 cb be dd 1f c4 be
       -0.32386377 0.3078538 -0.3974835 -0.3830556
0000f0 d0 c1 b5 bc ac 9b f7 3d 63 e8 b6 be c6 73 23 3e
       -0.022187144 0.12090239 -0.35724172 0.15962133

simplicial_nn.0.W1 f4 [5, 1, 64]
000000 00 3d 3d bb 32 8d 15 be a0 2a 1b bd fc 7f 2c be
       -0.002887547 -0.14604643 -0.037882447 -0.16845697
000010 7e cd fd 3d e2 b6 6f bd 9f 98 af bd 80 7a 68 bd
       0.1239271 -0.05852402 -0.08574032 -0.05675745
000020 7c c5 2d be 98 ab 02 bd ff e1 e8 bd 0a 0a 27 be
       -0.16969866 -0.031901926 -0.1137123 -0.16312423
000030 f6 3f 8f bd 1c 1f 4a bd 00 28 5d 3c 3f c3 11 3e
       -0.069946215 -0.049346074 0.013498306 0.14234637
000040 8d 61 a1 bd 48 38 5e 3d 08 ca b3 3c e6 b1 86 3d
       -0.078799345 0.054252893 0.021946922 0.065769
000050 6d b8 aa bd 8a 35 00 be 34 e7 27 bd c8 61 9f 3c
       -0.08335958 -0.12520424 -0.040991977 0.019455805
000060 82 22 18 be 5d 1a 17 3e f0 16 e4 3c a2 8c ec bd
       -0.14856914 0.1475615 0.027842969 -0.11550261
000070 b3 86 cf bd 8d 10 22 3e e6 d0 02 be 52 d4 bb 3d
       -0.10133114 0.15826626 -0.12775001 0.09171356
000080 19 4c 9f bd a2 84 cf 3d bc ac 12 be dc 9d 81 bd
       -0.07778186 0.101327196 -0.14323705 -0.063289374
000090 60 29 b8 bc c0 b9 b7 bb 40 06 23 3b b1 2f 28 be
       -0.022480667 -0.00560686 0.0024875551 -0.16424443
0000a0 86 8d 58 bd da 0a ea 3d 5e ab 1d be 6a 1d a6 bd
       -0.052869342 0.11427851 -0.15397403 -0.08111079
0000b0 a8 19 01 bd 27 c5 32 3e 81 c7 1f 3e 00 89 c6 bd
       -0.03151861 0.1745802 0.15603448 -0.096940994
0000c0 88 33 42 bd 84 d6 54 3d 00 63 22 be 34 2d 0d be
       -0.047412425 0.05196239 -0.15858078 -0.13786775
0000d0 6d fa 21 be e0 c5 25 3c 1d 4a 06 3e a3 77 03 be
       -0.15818186 0.010117978 0.1311421 -0.12838607
0000e0 48 e0 47 bd bf f9 0d 3e 61 0a 34 3e 2a d9 07 be
       -0.048797876 0.13864802 0.17582084 -0.13266435
0000f0 b1 3a 80 bd 6a 13 cf 3d f4 93 1c bd 59 2f 17 3e
       -0.062611945 0.10111125 -0.038227037 0.14764155
000100 50 9d b9 3c d9 0c 17 be 0f 46 89 bd 25 fe 96 bd
       0.02265802 -0.14750995 -0.06702816 -0.07372693
000110 83 23 2b be a8 c1 b7 bc 0d 78 0b 3e 7d 1c 0d be
       -0.16712765 -0.02243121 0.13620014 -0.13780399
000120 b3 e4 2b 3e 7e be 1a be 3b 94 03 3e 20 e3 3c bd
       0.1678646 -0.1511173 0.12849514 -0.04611504
000130 3a da eb 3d 0d c2 2c 3e ce d3 0a be 48 28 10 3d
       0.11516233 0.168709 -0.1355736 0.035194665
000140 2b 57 d1 bd 20 a6 70 bc 90 c6 cd 3c 53 ad 18 3e
       -0.10221704 -0.014688045 0.025119096 0.14909868
000150 80 a4 f4 3c 52 ea a0 3d e3 7a 07 be fe 77 d3 3d
       0.029863596 0.07857193 -0.13230471 0.10325621
000160 7d 4a a2 bd f0 10 44 bd 56 7d b5 bd 84 dc 12 3d
       -0.07924364 -0.047867715 -0.088617966 0.03585483
000170 c0 e6 96 3c 07 de 03 3e b5 2f 2b 3e 60 ec d9 bc
       0.018420577 0.12877665 0.16717418 -0.02660197
000180 ac 4c 3b 3d ce c8 bc bd d3 cd 13 be aa 2a 75 bd
       0.045727417 -0.09217988 -0.14433984 -0.05985514
000190 20 29 f3 bb 00 3b 05 be 36 ef 9e 3d 80 2e da ba
       -0.007420674 -0.13010788 0.077604696 -0.0016645938
0001a0 d4 f1 32 bd 86 96 9e 3d 71 1e 09 be 80 95 90 3d
       -0.043687657 0.07743554 -0.13390519 0.07059765
0001b0 2f bb 17 3e 0a d8 a2 3d 00 54 f9 bc e6 57 00 be
       0.14817499 0.079513624 -0.030435562 -0.1253353
0001c0 58 15 b7 3c 65 30 30 3e 58 78 f1 3c 27 29 2a be
       0.022349045 0.17205961 0.02947633 -0.16617261
0001d0 05 5a 01 3e 75 56 03 3e 98 70 f5 3c 68 2e cd 3c
       0.12631996 0.1282595 0.029960915 0.025046542
0001e0 f3 ff 25 3e ec bc 86 bd ea 30 c7 3d 20 29 e8 3c
       0.16210918 -0.06579003 0.097261265 0.028339922
0001f0 f2 ac ee 3d 42 cb c4 3d a4 70 21 bd 4d fc 17 be
       0.116540805 0.09609081 -0.039414063 -0.14842339
000200 90 2c c1 3c 8e db e0 3d da fb d7 3d a6 ae c0 3d
       0.02358082 0.10979377 0.10546084 0.094083115
000210 00 09 4c bc b2 c9 5c bd 20 3c 08 bd da 8f bb 3d
       -0.012453318 -0.05390329 -0.033260465 0.09158297
000220 e2 d7 e2 3d e5 de 11 3e e4 60 21 bd 66 93 cb 3d
       0.11076333 0.14245184 -0.039399043 0.099402234
000230 42 1c e6 bd 91 5f d7 bd 60 92 9b bb d0 85 1c bc
       -0.112358585 -0.10516275 -0.004747674 -0.009553388
000240 7a 3e 96 bd de 7f ba 3d 44 4a 94 bd 73 ec b3 bd
       -0.07336135 0.0910642 -0.072407275 -0.087853335
000250 68 9e b2 bd 9e 5d ce 3d be 03 be bd 0a 65 00 be
       -0.0872162 0.1007645 -0.092780575 -0.12538543
000260 b0 9a e3 3c 29 f5 b6 bd 88 a7 36 3d b0 d2 20 bc
       0.027783722 -0.08933479 0.044593364 -0.009815857
000270 85 51 0a 3e a2 fa 2f be 60 3a 0f bc 00 e7 90 3b
       0.1350766 -0.17185453 -0.008741945 0.0044220686
000280 af 0f 94 bd d0 3b db bc 62 c1 86 3d e9 d4 1e 3e
       -0.07229554 -0.02676192 0.065798536 0.15510906
000290 5c 88 1b be 55 c2 02 3e 52 e9 b0 3d b0 61 8c 3c
       -0.15188736 0.12769444 0.08638252 0.017136425
0002a0 e5 6f 0e be e0 5d e0 3c e2 1c d3 3d 71 9e 1a 3e
       -0.13909872 0.027388513 0.10308243 0.15099503
0002b0 f6 8b 29 be 79 97 2b be e2 4f 5b bd 2a f5 bb 3d
       -0.16557297 -0.16757001 -0.05354298 0.09177621
0002c0 cd 5c 30 3e ea 48 88 bd 02 d9 eb 3d 1b 92 0d 3e
       0.172229 -0.06654532 0.11516 0.13825266
0002d0 40 2e 4b bc 3a 9e 99 3d 00 8b 94 ba 52 89 e6 3d
       -0.012401164 0.075008824 -0.0011332929 0.112566605
0002e0 ee df e8 3d 13 27 05 3e 70 97 50 3d 70 be 07 3d
       0.11370836 0.13003187 0.050925672 0.0331406
0002f0 00 76 a8 3c 9a 83 ac bd dc e6 6d 3d 8c 2b b2 bd
       0.02056408 -0.084235385 0.058081493 -0.08699712
000300 19 96 d4 bd 81 ef 2c 3e 54 30 18 be d0 c1 4a bd
       -0.10380191 0.16888238 -0.14862186 -0.04950124
000310 1e 2c 03 be ed ed 32 3e 28 57 02 bd de ed f4 3d
       -0.12809798 0.17473574 -0.0318214 0.11959432
000320 e3 c9 1c be 8e 58 96 3d b5 6b b4 bd 24 8a 29 3d
       -0.15311389 0.07341109 -0.08809606 0.041391507
000330 e0 45 d8 bc a6 79 fb 3d 9c 4a 09 3d e0 c9 4e 3d
       -0.026400506 0.12279062 0.03351842 0.05048549
000340 e5 66 a4 bd 40 c7 7d 3b 7e 70 fd 3d 01 eb b7 bd
       -0.08027438 0.0038723499 0.12374972 -0.0898037
000350 20 c2 01 3c 6b 72 17 3e 3e 26 80 bd d8 cb af bc
       0.007919818 0.1478974 -0.06257294 -0.021459505
000360 40 16 11 3b fa cb 83 3d 20 42 6a bd 49 9d 2a be
       0.0022138506 0.0643539 -0.057191968 -0.16661562
000370 ec cb 0e 3d 8b 08 a8 bd 62 cc 8b 3d 58 56 71 3d
       0.034862444 -0.082047544 0.06826092 0.058920234
000380 a3 30 0d 3e da 60 6c bd 8c 15 0f bd 92 0d fa bd
       0.13788085 -0.057709552 -0.034932658 -0.122096196
000390 6f 1f 32 be ab c3 b7 bd bb 48 24 3e 84 d7 6c 3d
       -0.17394803 -0.089728676 0.1604337 0.05782272
0003a0 d4 93 3f bd ea 2e fe 3d fc 4a 0d be d2 71 af 3d
       -0.04677184 0.12411292 -0.13798136 0.085666314
0003b0 96 e3 9d 3d 00 5f 5f bb 8d 88 25 3e f9 af 31 be
       0.07709424 -0.0034083724 0.16165371 -0.17352284
0003c0 22 31 dc 3d f0 cf 7b 3c af 54 18 3e e4 61 39 3d
       0.10751559 0.0153694 0.14876054 0.04525937
0003d0 4f 83 bc bd 63 92 0e be bf 4a dc bd 9d 5c c1 bd
       -0.092047326 -0.1392303 -0.10756444 -0.09441493
0003e0 e2 7e 15 be f4 8c 43 bd fe fd de 3d ef 13 2c be
       -0.14599183 -0.047741845 0.10888289 -0.16804479
0003f0 20 0b 88 3c 18 78 1c bd 82 59 8c 3d 2a 35 f7 3d
       0.016606867 -0.038200468 0.0685301 0.12070687

simplicial_nn.0.W2 f4 [5, 1, 64]
000000 18 48 d8 3c c0 2c 6c 3d fc a6 5f bd 75 18 de bd
       0.026401564 0.057659864 -0.054602608 -0.108445086
000010 a0 0b 34 bc a0 f7 69 bc be db d7 3d c6 29 fb bd
       -0.0109891 -0.01428023 0.10539959 -0.12263827
000020 76 60 ec 3d f1 ff 8f bd 00 a5 16 be 70 14 b4 3c
       0.11541836 -0.07031239 -0.1471138 0.021982402
000030 92 33 e0 bd ae d8 ec bd 33 4d e5 bd c8 28 e9 bd
       -0.10947336 -0.11564766 -0.11196365 -0.113847315
000040 00 f4 b3 3a 07 df 2a 3e 6e 25 f4 3d 9a ed ef 3d
       0.0013729334 0.1668664 0.11921202 0.11715241
000050 76 c7 ca bd 60 3b 0b bc cf 9c bc bd d4 ad 18 bd
       -0.099013254 -0.008498043 -0.09209596 -0.03727515
000060 42 b0 ae 3d 2a eb 90 3d 9a 77 b7 bd de 29 b4 bd
       0.08529712 0.07076104 -0.08958359 -0.08797048
000070 2c 85 79 bd 1c c3 75 3d 5d 19 e2 bd 2e 7d ed 3d
       -0.06091802 0.060000524 -0.11039994 0.11596142
000080 ea 76 1c be 2d 7a 26 be 3a 98 93 bd 58 d9 85 3d
       -0.15279737 -0.16257544 -0.07206769 0.06535596
000090 13 4f e3 bd 08 ce ef bc 22 44 ca 3d 20 bb cd bc
       -0.110990666 -0.029273048 0.098762766 -0.025113642
0000a0 6b 2a 33 be 50 bb 37 3d 68 d3 59 3d e4 96 47 3d
       -0.1749665 0.04485637 0.05318013 0.048727885
0000b0 ca 98 f3 3d ec fd 5b 3d 40 a6 4b bc 80 0b 1f 3d
       0.118943766 0.053708956 -0.012429774 0.038829327
0000c0 f6 1b a8 3d 5e 5e ca 3d de ed f3 3d d6 77 88 3d
       0.08208458 0.0988128 0.11910604 0.06663482
0000d0 2c bd ea bd 30 8e 63 3c a1 b8 0e 3e a0 1e 20 bd
       -0.11461863 0.013888881 0.13937618 -0.039091706
0000e0 c3 20 d8 bd 71 eb 25 3e be e1 34 be af af 32 3e
       -0.10553124 0.16203095 -0.17664239 0.1744983
0000f0 e0 e1 d5 bb 28 a2 2a be e0 9e 97 3b 55 76 8f bd
       -0.0065271705 -0.1666342 0.0046270937 -0.07004992
000100 81 4d 0d be 08 00 45 3d c6 6f e8 bd cd 53 20 3e
       -0.13799097 0.048095733 -0.11349444 0.15656967
000110 3f d3 04 be fd 67 0a 3e 4c cb 2b bd 71 67 28 3e
       -0.12971209 0.13516231 -0.041941926 0.1644571
000120 08 03 86 3d d4 f7 3c 3d fd 87 ae bd 6a 31 ff 3d
       0.06543547 0.046134785 -0.085220315 0.12460597
000130 4c 02 31 be fe 4a 92 3d 17 36 f9 bd 64 8f 06 bd
       -0.17286032 0.0714321 -0.1216852 -0.03285159
000140 00 1a d2 bd e0 ab c8 3b 34 c5 17 be 74 bd 72 3d
       -0.10258865 0.0061240047 -0.14821321 0.059262708
000150 8e ed f3 3d d0 6a 95 bc 53 6d c4 bd 50 f9 e3 bd
       0.11910544 -0.018239409 -0.095911644 -0.11131537
000160 98 ed d0 bc bb 4b 21 be 31 5a a6 bd 40 91 77 bc
       -0.025503919 -0.15751545 -0.081226714 -0.015110314
000170 00 c4 21 bc 9e 73 b7 3d ae e0 0a be c8 93 31 bd
       -0.00987339 0.08957599 -0.13562271 -0.043353826
000180 98 1e 58 bd 16 39 d8 3d 23 63 c6 bd ae 01 ee bd
       -0.05276355 0.10557763 -0.096868776 -0.11621414
000190 48 97 ca bc e8 54 34 bd 05 16 15 3e 8b 1d 89 bd
       -0.02473034 -0.044026285 0.14559181 -0.06695088
0001a0 e8 49 12 be aa fa f2 3d f0 2f 02 3d 31 96 b1 bd
       -0.14286005 0.118642166 0.031783998 -0.08671225
0001b0 56 30 b0 3d 40 88 e4 bc 3a 28 ac 3d 4c 15 92 3d
       0.08602969 -0.027897 0.0840611 0.07132968
0001c0 de b1 bc 3d 20 9c 33 bc 47 ae 21 3e 00 f4 71 3a
       0.09213613 -0.010962516 0.15789138 0.0009229779
0001d0 ef b6 0c 3e 75 08 24 be 80 a3 9b bb be 7a e1 3d
       0.13741659 -0.16018851 -0.0047497153 0.11009739
0001e0 2e 31 b7 3d 67 26 8b bd 54 2e 1c be c0 8a 1a be
       0.08944927 -0.06794434 -0.15252048 -0.15091991
0001f0 80 a4 06 bd 63 99 21 be 17 fe 07 3e 61 1e 32 3e
       -0.032871723 -0.15781169 0.13280521 0.17394401
000200 8c c5 02 3d 08 a5 f2 bd ec cc 4f bd a2 70 da 3d
       0.031926677 -0.118478835 -0.050732538 0.10666014
000210 b5 d8 2f 3e 20 c8 3f bd 6d 54 29 3e 00 3c e4 bb
       0.17172511 -0.046821713 0.16536112 -0.0069651604
000220 18 90 bc 3c 5a 50 fb 3d a8 56 9b bd b0 56 25 bc
       0.023017928 0.12271185 -0.07584888 -0.010091469
000230 dc 17 1d 3d 20 86 b4 3c c4 9d 11 bd 62 84 89 bd
       0.038352832 0.022036612 -0.035550848 -0.06714703
000240 b2 ea c7 3d 28 bd c5 bd 77 d3 34 3e 82 31 c4 3d
       0.097615615 -0.09655219 0.17658792 0.09579755
000250 27 24 8f bd d5 9a ee bd 35 a6 bf bd 7a 54 74 bd
       -0.069893174 -0.116506256 -0.09357873 -0.059650876
000260 48 7c be bc 44 9c 2a be b0 bf 7a 3c bb df 2f 3e
       -0.023252621 -0.16661173 0.015304491 0.1717519
000270 d2 26 01 be 9a 6c a5 3d 3c 0e 7f 3d 71 ac cf bd
       -0.12612465 0.08077355 0.062269434 -0.101403125
000280 07 91 0f 3e 61 44 10 3e 49 7d 17 3e 2e 49 de 3d
       0.14020167 0.14088584 0.14793886 0.10853802
000290 80 94 e5 ba db e0 a5 bd 88 fa 93 3c 38 6c f4 3c
       -0.001751557 -0.080995284 0.018063799 0.029836759
0002a0 aa 15 ac 3d 86 c0 ce 3d 37 71 24 be 48 3f 87 3d
       0.084025696 0.10095315 -0.16058813 0.06603867
0002b0 18 a0 70 bd dc 68 43 bd 01 05 18 3e bc 92 1b 3d
       -0.058746427 -0.047707424 0.14845659 0.037981734
0002c0 a7 8d 12 3e 88 40 5d bd 88 bc c6 bd 43 23 2d 3e
       0.14311849 -0.05401662 -0.09703928 0.16907983
0002d0 38 fa 10 be 87 ca e4 bd 2c 50 33 3d 07 83 2c be
       -0.14157951 -0.111714415 0.04377763 -0.16846858
0002e0 28 69 24 be ab 3e 95 bd fb 2d 16 3e 2e d5 72 bd
       -0.16055739 -0.072873436 0.14665978 -0.059285335
0002f0 ac bb 93 3d 41 e6 00 3e ec 71 1f bd c8 48 29 3d
       0.0721353 0.12587835 -0.038927004 0.041329175
000300 39 be db bd 00 89 2b bb 60 ba 10 be 61 da 00 3e
       -0.107296415 -0.0026174188 -0.14133596 0.12583305
000310 80 7c 34 3d 5c c4 6f bd 5c 69 57 3d fe 13 25 be
       0.044064045 -0.058536872 0.052590713 -0.16120908
000320 80 fe 1d bd 44 6f 23 bd 18 12 d7 bd 0f c8 10 3e
       -0.03857279 -0.039901033 -0.10501498 0.14138816
000330 1a 1c f1 bd a2 66 6d bd ce 77 d5 3d 0c 82 11 be
       -0.11772938 -0.057959206 0.104232416 -0.14209765
000340 a0 75 98 3b 28 f7 21 be 70 d9 7c bd b6 2c a3 3d
       0.004652694 -0.15816939 -0.061730802 0.07967512
000350 8a 57 ab 3d df 0a 2c 3e cb 2d 01 be e0 5f a1 bc
       0.08366306 0.16801022 -0.12615125 -0.019699037
000360 a1 94 0b 3e fa bd a1 3d 56 0d d1 3d 9b a8 0a be
       0.13630916 0.07897563 0.10207622 -0.1354088
000370 d0 09 5e bc 40 5f 0d bc 08 01 81 bc 23 80 29 be
       -0.013552144 -0.008628666 -0.015747562 -0.16552787
000380 c0 22 8c 3b 4a 0b b4 3d c9 d9 21 3e 9d 0e 03 be
       0.0042766035 0.08791216 0.15805735 -0.12798543
000390 d0 07 61 3d 50 23 43 bc ce 6e 8d bd 33 be 87 bd
       0.05493909 -0.011910275 -0.069059 -0.066280745
0003a0 e5 6d 08 3e 6c 6b 1d 3d e9 2a 2b 3e 28 bd f5 3c
       0.13323171 0.038432524 0.16715588 0.029997423
0003b0 46 62 ab 3d a8 0d 1b bd 00 7b 46 3b 80 58 fa bb
       0.083683535 -0.03785482 0.0030285716 -0.0076399446
0003c0 02 c5 02 be c5 14 16 3e ec c1 78 3d 50 4b 59 bc
       -0.12770465 0.1465636 0.060731813 -0.013262585
0003d0 74 b5 12 3d 1c 31 7c 3d 5a 40 a5 bd 94 1d 1d bd
       0.03581758 0.06157027 -0.08068915 -0.038358286
0003e0 70 12 fc bc 9b fd 0a 3e a6 32 f8 bd 28 8d 12 bd
       -0.03077051 0.13573305 -0.121190354 -0.03577915
0003f0 de 57 ec 3d 13 13 26 3e 96 74 a4 3d fc e9 3f 3d
       0.11540197 0.16218214 0.080300495 0.046854004

simplicial_nn.2.W0 f4 [64, 64]
000000 ba 4c 70 3e 4f 6f 93 3e a5 c7 98 3e e0 c5 25 3d
       0.23466769 0.2879586 0.29839817 0.04047191
000010 b8 dd 8a be ea 25 b7 bd e0 8e 31 bd 32 86 ef bd
       -0.27122283 -0.089427784 -0.043349147 -0.116955176
000020 e9 79 8c 3e 50 61 02 3e 3d 95 83 3e fa 7d 6d be
       0.2743676 0.12732434 0.25699797 -0.23192587
000030 06 09 4c 3e 00 6a 97 bc 14 e4 d6 3d a6 bf 1a be
       0.19925317 -0.018483162 0.10492721 -0.1511217
000040 c6 25 c6 bd d8 fb af bd 78 35 4d be ee 8e 1d 3e
       -0.096751735 -0.08592957 -0.20039928 0.15386555
000050 48 c0 95 3d c6 ad 97 bd 8a 15 4a be d8 45 81 be
       0.07312065 -0.074061915 -0.19734779 -0.252486
000060 cc d7 84 be 00 93 c3 3d 2d 11 87 be 76 8d 15 be
       -0.2594589 0.095495224 -0.26380292 -0.14604744
000070 9c 11 4b be f8 05 3e 3e 38 3f 2d 3d ca 13 63 be
       -0.19830936 0.18556964 0.04229662 -0.22175518
000080 e2 8c 54 be f4 60 04 3e 21 06 8e 3e 3c e4 45 be
       -0.20756868 0.1292761 0.2773905 -0.19325346
000090 4a d2 20 be f7 1e 9b 3e 74 2e 95 3d 40 d5 74 be
       -0.15705219 0.30297062 0.07284251 -0.23909473
0000a0 d2 d7 48 3e c0 26 28 be 30 8c b9 3c 1c 9d 3b 3e
       0.19613579 -0.16421032 0.022649854 0.18321651
0000b0 d4 90 83 bd b0 fb 1a 3d 8c 07 56 be 5c cb a2 3d
       -0.06424108 0.037837684 -0.20901316 0.07948944
0000c0 90 1d 78 bd 6f 5e 1d be ba 3e cf bd 38 d8 16 bd
       -0.060575068 -0.15368055 -0.10119386 -0.036827296
0000d0 32 b9 70 3e 3c 2c 3c 3e 4d e9 6b be d0 6a 49 be
       0.23508146 0.18376249 -0.23038216 -0.19669652
0000e0 39 a7 88 3e c4 91 7a be 62 59 96 be 30 02 d3 3c
       0.2669008 -0.24469668 -0.2936507 0.025757879
0000f0 c6 6f 1e 3e 50 7c 52 bd 26 c5 70 3e 40 09 36 3d
       0.15472326 -0.051388085 0.23512706 0.044442415
000100 35 99 96 3e 12 57 67 3e 12 0c 37 be 08 41 00 3e
       0.29413763 0.22591808 -0.17875698 0.12524807
000110 00 d8 29 ba 73 ad 81 be 78 82 62 3d 00 a5 8f ba
       -0.0006479025 -0.25327644 0.055300206 -0.0010959208
000120 d9 51 90 3e 32 f4 48 3e a4 11 f4 3d 12 5d 6a 3e
       0.28187445 0.19624403 0.11917427 0.22887066
000130 02 fa aa bd 30 c8 99 bc 9b 7b 1a be c0 d4 9f 3d
       -0.083484665 -0.018772215 -0.15086214 0.07804251
000140 38 e4 77 3d 3c 29 be 3d 00 de 75 ba 8d 62 84 3e
       0.06052038 0.092852086 -0.0009379089 0.25856438
000150 3e 6f 7d 3e 80 6a 98 bd 20 ce 7b bc 24 eb 17 3e
       0.24749467 -0.07442188 -0.015368968 0.14835793
000160 d8 43 13 bd e1 ed 91 be d8 e7 3e bd 16 9b ab bd
       -0.035953373 -0.285018 -0.046607822 -0.0837919
000170 74 af 23 be 40 2d 31 3c f8 2c b6 3d e8 bc 80 bd
       -0.15984899 0.010814011 0.08895296 -0.06286031
000180 e6 53 e9 bd 10 fb 83 be d0 21 4b 3d 18 78 ae bd
       -0.113929555 -0.25777483 0.049592793 -0.08519
000190 20 ec 8e 3d 4c 24 92 3d 20 f7 4d 3c 8e 33 f2 bd
       0.06978631 0.07135829 0.012571126 -0.118262395
0001a0 c0 ad 16 bd a7 77 82 3e 00 1c ee 3c 35 e8 8f 3e
       -0.036786795 0.25481912 0.029066086 0.28106847
0001b0 c0 ec bd bb 60 8d de bd bc 73 ba bd 80 eb 50 bb
       -0.005796045 -0.10866809 -0.09104106 -0.003187865
0001c0 c0 74 99 3c 87 33 34 be 36 10 97 be a7 5a 01 be
       0.018732429 -0.17597781 -0.29504555 -0.12632237
0001d0 e3 45 8b 3e 26 4b 75 be b4 0c 3c be 36 0b 3b be
       0.27201757 -0.23954448 -0.18364221 -0.18265995
0001e0 b6 bb cc bd d5 8c 37 be 30 22 e6 3d e0 5b ea 3d
       -0.099967405 -0.17924817 0.112369895 0.11443305
0001f0 00 91 79 bb 08 cc 33 3d c0 2b af 3c 50 9b 6a bd
       -0.0038080812 0.04389575 0.021383166 -0.057277024
000200 28 27 78 be cc ff fa 3d c0 d5 7c be 6f aa 97 3e
       -0.24233687 0.12255821 -0.24690914 0.29622218
000210 a1 87 8c 3e 5f 7f 9c 3e 84 1c 8d 3d 36 0c dd bd
       0.27447227 0.30565926 0.068902045 -0.10793345
000220 62 fc 81 be af 7a 8f 3e 20 36 8b bd ab 49 32 be
       -0.25387865 0.28023288 -0.06797433 -0.17410915
000230 a0 ef 8d 3d 92 02 cc bd 28 d3 1a bd e0 b5 20 3c
       0.069304705 -0.09961428 -0.03779903 0.009808987
000240 b0 c5 43 3e ae d3 49 3e 40 36 3e bd 26 a0 8a be
       0.1911838 0.19709656 -0.046438456 -0.2707531
000250 00 ae b8 bb b4 96 97 be e0 4e 00 be 08 28 26 3d
       -0.005635977 -0.29607165 -0.12530088 0.04056552
000260 e0 42 41 be 45 e0 8c 3e 61 4b 93 3e 11 98 98 be
       -0.18873167 0.27514854 0.28768447 -0.29803517
000270 6b 5e 98 be be b8 22 be 00 9a c0 3c e0 f7 ad 3d
       -0.29759535 -0.15890786 0.023510933 0.08494544
000280 46 0a 06 3e 84 fa cb 3d 08 c7 33 3d dc 4c 3c be
       0.13089857 0.099598914 0.043890983 -0.18388695
000290 d2 0e 41 be 8e 05 58 3e c1 72 8d 3e 20 a0 72 3c
       -0.1885331 0.21095869 0.27626613 0.014808685
0002a0 28 c6 3e bd 70 1d 25 3d 7a 45 7f 3e 11 78 97 be
       -0.046575695 0.040311277 0.24928847 -0.2958379
0002b0 c0 5b bc 3c 03 47 82 3e a4 14 cf bd 80 40 24 3e
       0.022992969 0.25444803 -0.10111359 0.1604023
0002c0 a0 ff 39 bc 46 aa 0a be 95 62 86 be 8f 0e 04 be
       -0.01135245 -0.13541517 -0.26247087 -0.12896179
0002d0 6e 6e 2c 3e d8 99 08 3d 00 f1 99 3d ee 9e 3d be
       0.16839 0.03334984 0.0751667 -0.18517658
0002e0 dc 9e 98 bd 18 6b 32 3d 84 eb 3f be ba 0b 36 be
       -0.07452175 0.043559164 -0.18742186 -0.17777911
0002f0 d5 1a 87 3e 79 59 40 be 60 34 aa 3c 4d 13 81 3e
       0.2638766 -0.18784131 0.020776927 0.25210038
000300 ca d8 21 3e 00 c6 58 3d 1e 9f 5a 3e 58 17 0d be
       0.15805355 0.052923203 0.21349761 -0.13778436
000310 14 26 64 be 33 b7 66 be 78 6a 12 3e 4a f2 75 be
       -0.2228015 -0.22530822 0.14298427 -0.24018207
000320 88 9d 8a bd 08 8c 0a 3e 84 53 2d 3e cb ac 88 3e
       -0.06768328 0.1352998 0.1692639 0.2669433
000330 f4 03 bf 3d 1c 93 1e be a2 c0 bb bd 02 a4 59 3e
       0.09326926 -0.15485805 -0.09167601 0.2125397
000340 f1 a5 3d be 70 c6 24 3d 3a 99 78 3e 84 95 28 3e
       -0.18520333 0.040228307 0.24277201 0.16463286
000350 12 69 85 be 73 ea 87 3e aa db 20 3e bc ad db 3d
       -0.26056725 0.26546058 0.15708795 0.107264966
000360 35 b9 95 3e 78 86 07 bd 9a 89 39 3e d6 4d 87 bd
       0.29242864 -0.033087224 0.18118897 -0.06606643
000370 b0 00 85 3d 9a f4 3e 3e 9c ab b7 3d 38 99 cf bd
       0.06494272 0.18647996 0.08968279 -0.10136646
000380 dc 34 d3 3d 00 58 cc bc ec bb be bd 30 b1 44 3e
       0.103128165 -0.024944305 -0.09313187 0.19208217
000390 2a 67 ff bd 68 5d 78 be 00 4c 90 bc d0 5b 30 3e
       -0.12470849 -0.24254382 -0.017614365 0.17222524
0003a0 14 e3 49 be fc 4e aa 3d 82 4a 25 3e 46 c0 0f be
       -0.1971553 0.08315846 0.16141704 -0.1403819
0003b0 dc c2 b9 3d 77 94 36 be 2c 51 50 be 46 cd 61 3e
       0.090703696 -0.17830072 -0.20343465 0.22050962
0003c0 a8 78 c2 3d f8 64 3a be 22 0b 4f 3e 54 83 1a be
       0.094956696 -0.18202579 0.2021909 -0.1508916
0003d0 08 6d be 3d 84 07 ab 3d a8 25 6c be 5c c7 32 3e
       0.0929814 0.08351043 -0.2306124 0.17458862
0003e0 70 74 c5 3c 58 c9 40 3d ce 34 d4 bd fe 12 50 3e
       0.024103373 0.047067016 -0.10361634 0.20319745
0003f0 51 c6 1c be e3 a0 96 be 66 86 c8 bd 88 73 53 bd
       -0.15310027 -0.29419622 -0.097912595 -0.05162385

simplicial_nn.2.W1 f4 [5, 64, 64]
000000 dc 41 6a 3c fc 0d 01 3c 0e f7 bd 3c 2f 9a 17 3d
       0.014297929 0.007876869 0.023189094 0.037012275
000010 a8 21 8a bc 5b 6b 2c 3d 01 10 54 3d ee 08 23 bd
       -0.016861752 0.04209457 0.051773075 -0.039803438
000020 16 0b f0 bc 96 cb 85 3c 3b 4a 21 3d 8e 4e 8e 3c
       -0.029302161 0.016332429 0.039377432 0.017371442
000030 dd a7 25 3d be f6 bb 3c d0 82 97 3b 1d 19 08 3d
       0.04044329 0.022944804 0.0046237484 0.033227075
000040 c2 b4 a4 3c 99 05 26 3d 0a 0d d8 3c 84 1f 3b 3c
       0.020105723 0.040532682 0.026373405 0.011421088
000050 95 ff 4d 3d 8a 8a 29 bd fa 3b b5 3c 4e ce 99 3c
       0.05029257 -0.041391887 0.022123326 0.018775132
000060 80 0a 1d bb d6 96 ff 3c e9 98 47 3d 67 a5 48 3d
       -0.0023962557 0.031199854 0.04872981 0.048985865
000070 3a 75 04 bd b0 d2 a8 bc 20 29 4a bd a1 52 b1 bc
       -0.03233836 -0.020608276 -0.049355626 -0.021645846
000080 0a 09 04 bd ee 1d 32 bd 9a ad 99 bc 10 34 c7 bb
       -0.032235183 -0.043485574 -0.018759537 -0.0060792044
000090 cc 98 2a bd bc 2a 39 bd 6b 36 33 3d f0 43 67 bb
       -0.041649625 -0.04520677 0.04375307 -0.0035288297
0000a0 69 ac 30 bd a0 55 12 bd aa 39 12 bd 92 d2 f6 3c
       -0.043133173 -0.03572619 -0.035699524 0.030129705
0000b0 ff ed 01 3d 5f 53 54 3d eb 07 52 3d 00 1f 2d bc
       0.03172111 0.05183732 0.051277082 -0.010566473
0000c0 c6 91 e3 3c 00 fe e9 b9 f4 48 3f bc a2 2b d0 3c
       0.027779471 -0.00044630468 -0.011675108 0.02541143
0000d0 66 d9 0f bd ba 7e e7 bc 50 38 48 3b ba 72 29 bd
       -0.035119437 -0.02825867 0.0030551143 -0.041369177
0000e0 dc 07 92 bc 2d d2 1d bd 3e 2e b6 3c f0 4c 9d bb
       -0.017826013 -0.038530517 0.022238847 -0.0048004314
0000f0 ea 80 8c bc 87 e4 29 3d 40 da cd 3a 00 96 e7 bb
       -0.017151315 0.041477706 0.0015705302 -0.007067442
000100 b0 ea 46 bc c4 8d 51 3c 7c bc 8b bc 05 75 21 3d
       -0.012140915 0.012790147 -0.01705765 0.03941824
000110 00 ab 59 bc 5c 14 57 bc 02 7c 18 bd 2e ef 2a bd
       -0.0132853985 -0.013127413 -0.037227638 -0.041732006
000120 54 c7 17 bd 82 ad b6 bc fe 21 ef bc 0c 21 62 bc
       -0.03705533 -0.022299532 -0.029191013 -0.013801824
000130 d0 34 60 bb af 26 1c 3d 0e e8 88 3c 35 c9 4b 3d
       -0.0034211166 0.03812283 0.016712215 0.049752433
000140 14 82 36 3c 80 12 0b 3a e7 bf 23 3d b8 1a f5 bb
       0.0111394115 0.0005305186 0.039977934 -0.0074799918
000150 d1 5f 4c bd ae 90 ac 3c e0 53 90 3b 4c d4 02 bd
       -0.049896065 0.021065082 0.00440453 -0.031940743
000160 cc 57 6a 3c f4 46 4e 3c 5a c8 29 bd 1f e5 ad bc
       0.014303159 0.012590159 -0.041450836 -0.021227418
000170 e0 2c e1 bc e0 52 3b bb 40 98 2f 3b 80 98 2f 3b
       -0.027487218 -0.0028583333 0.002679363 0.0026793778
000180 c0 9b bd bb 77 56 34 3d f7 91 0f 3d f1 61 cb bc
       -0.005786389 0.04402777 0.035051312 -0.024826976
000190 57 91 53 3d e8 62 01 bd 4e e9 b4 3c 7e ea 3e bd
       0.05165228 -0.031588465 0.022083905 -0.046610348
0001a0 f6 75 82 3c fc 7c 5a 3c d0 fe 1e 3c e2 ce 20 bd
       0.015925389 0.013335463 0.009704307 -0.0392598
0001b0 92 51 8c 3c 10 4d 94 3b 6b c8 32 bd d8 37 5a bc
       0.01712874 0.004525788 -0.043648165 -0.013318978
0001c0 41 d3 bb bc 04 6b 09 bd 60 ea a0 bb 52 12 87 3c
       -0.022927882 -0.033549324 -0.004910752 0.016488228
0001d0 5e 01 8e 3c 00 c6 3a bd 59 5c 55 bd d9 3a 2d 3d
       0.017334636 -0.045598984 -0.052090023 0.04229245
0001e0 ee e5 d8 3c 4a 59 15 bd 5e 9d f8 3c 1d fb 49 3d
       0.026476827 -0.036462106 0.030348476 0.049311746
0001f0 1a 23 df 3c 28 89 e1 3b 69 ae d8 bc c0 f7 f6 3b
       0.027238417 0.0068828054 -0.026450353 0.0075368583
000200 c8 93 30 bc e6 50 01 bd 4c a5 99 bc df 77 52 3d
       -0.010777421 -0.03157129 -0.018755578 0.05138385
000210 da ec 24 bd a5 60 e9 bc f0 3c 47 bd ce 0a 54 bd
       -0.04026494 -0.028488467 -0.0486421 -0.051768117
000220 a8 e9 09 bc 8a 47 9f bc f0 e7 c6 bb c9 8f 10 3d
       -0.008417524 -0.019443292 -0.0060701296 0.035293374
000230 79 91 37 bd 43 d7 4d 3d 9a 1f 89 3c 58 4d 24 bc
       -0.044816468 0.050254118 0.016738702 -0.010028206
000240 9c a2 2b 3c ee 0c 85 bc 8c 95 80 bc 4a 61 a6 bc
       0.010475781 -0.016241517 -0.01569631 -0.020310063
000250 1e da a7 bc 47 5c d7 bc ef 53 10 3d 5b 28 cf bc
       -0.020489749 -0.026289118 0.035236295 -0.025287798
000260 12 41 26 bd 0f 15 2f bd 30 9a 0c bd 90 73 52 bd
       -0.0405894 -0.042744692 -0.034326732 -0.05137974
000270 e2 16 03 bd de ac 84 3c 84 06 68 3c 80 ad 4e bb
       -0.032004245 0.01619571 0.01416171 -0.003153652
000280 c3 22 36 3d b8 ee 0a bd 0e ec 8f bc 63 ff b9 bc
       0.044466745 -0.033919066 -0.017568614 -0.022704786
000290 c6 1a e1 bc 86 b7 f2 3c 04 de 7a 3c 30 20 6f 3b
       -0.027478587 0.029628526 0.015311722 0.003648769
0002a0 00 11 89 ba 30 1d 7e 3b 12 26 a1 3c 8e a6 84 bc
       -0.0010457337 0.0038774721 0.019671474 -0.0161927
0002b0 55 91 3f 3d 60 69 96 3b e8 3a 81 3b 04 b5 c2 bc
       0.04676946 0.0045901984 0.0039437898 -0.023767956
0002c0 48 e6 56 bc 98 74 1b bc 88 b4 12 bd 00 e9 80 3a
       -0.013116427 -0.009488247 -0.0358167 0.0009835064
0002d0 2c f1 51 3c d6 84 0f bd 0c d7 81 bc 0b cb 20 3d
       0.0128138475 -0.03503879 -0.015849613 0.039256137
0002e0 f6 3d ef 3c 30 75 bd bb 80 37 5f bb 70 5d 47 bd
       0.02920435 -0.005781792 -0.003406018 -0.048673093
0002f0 00 a7 6b bb 77 fc 23 3d 00 3f f9 b9 90 fb 46 bd
       -0.0035957694 0.04003569 -0.0004753992 -0.048579752
000300 70 89 7b 3b 7b bc 2f 3d 4a 7d f0 3c 28 ef 03 3c
       0.003838148 0.04290436 0.029356617 0.008052625
000310 70 52 df bb 3c 8a 59 3c fc 5b 9e bc 4b b2 12 3d
       -0.0068152472 0.013277587 -0.019330971 0.035814565
000320 80 68 f5 3a ec 2f 9a bc 00 08 57 38 e4 cc 65 3c
       0.001872316 -0.018821679 5.1267445e-05 0.0140259005
000330 47 24 20 bd f1 80 e7 bc af c5 05 bd 51 27 2a 3d
       -0.039097097 -0.028259726 -0.03265923 0.0415414
000340 ed 1e 54 3d 4c 8f d6 bc 65 54 28 3d e4 09 a4 bc
       0.051787306 -0.026191376 0.04109611 -0.020024247
000350 10 78 96 3b 70 e3 3d bd aa ef e2 3c 4a 72 c5 3c
       0.0045919493 -0.04635948 0.027702171 0.024102349
000360 47 a3 f4 bc ea 23 95 bc 61 06 3a bd 44 ae 2d bd
       -0.029863013 -0.018205602 -0.04541624 -0.04240252
000370 99 d2 28 bd 87 12 2f 3d d6 8c d3 3c 3c 3e 89 bc
       -0.041216467 0.04274228 0.025823992 -0.016753308
000380 6a 68 b9 3c 61 65 48 bd af a2 08 bd f0 97 09 bd
       0.022632796 -0.048924807 -0.033358272 -0.033592165
000390 56 e5 4e bd de 97 dc bc 13 1a 03 3d 06 7d 0f bd
       -0.05051168 -0.026927885 0.03200729 -0.03503134
0003a0 eb be 47 3d c0 a6 d1 3a 36 89 f6 3c 10 a3 ed bb
       0.048766058 0.001599513 0.030094724 -0.0072521046
0003b0 56 6c 17 bd dc 57 57 3c a6 ce 96 3c b1 2f 45 3d
       -0.03696855 0.013143506 0.018409085 0.048141185
0003c0 d1 d8 42 3d 03 61 2b 3d 66 d9 eb 3c 2e 31 dc 3c
       0.047570053 0.041840564 0.028790187 0.02687892
0003d0 e8 a4 9a bb d8 b9 a2 bb 95 b5 31 3d 9e 2b e0 3c
       -0.0047193654 -0.004966002 0.04338606 0.027364548
0003e0 70 ed 09 3b 30 62 2a bb 10 9e de bb 78 da ed 3b
       0.0021046065 -0.0025998466 -0.006793745 0.0072587095
0003f0 d1 fa 37 3d fa 6d f3 3c fc cd 0b bc 3f 81 2a bd
       0.04491693 0.029715527 -0.008532997 -0.041627165

simplicial_nn.2.W2 f4 [5, 64, 64]
000000 5d e2 19 3d 94 0f 4b bc 30 42 d3 bb 27 8b 36 3d
       0.037569392 -0.012393851 -0.006447099 0.0445663
000010 02 d8 b1 3c 87 a7 0f 3d 20 19 a2 ba ec d4 02 bd
       0.021709446 0.035071876 -0.0012367107 -0.03194134
000020 90 ac 2b bb 48 ad 04 bc 79 b8 04 3d 61 38 0c 3d
       -0.0026195385 -0.008097954 0.03240249 0.034233455
000030 07 7f 43 3d d6 ea 8a 3c 7c 5f 01 bd 70 5d 79 3b
       0.047728565 0.016957682 -0.0315852 0.0038050078
000040 aa 91 d2 bc e7 27 0b 3d 2a 5b ed 3c 20 a7 93 bc
       -0.025704224 0.0339736 0.028974134 -0.018024027
000050 3e ee 8b 3c ec 49 47 bd fa 6b 2b bd 0f e1 b9 bc
       0.017081376 -0.04865448 -0.04185102 -0.022690324
000060 b2 cb 41 bd 00 8c 17 bd 22 d9 b2 3c 14 96 52 bd
       -0.0473134 -0.03699875 0.021832053 -0.051412657
000070 f0 aa 0f bd 34 7c 2e bd cc 2b 00 bd 00 cc 9f 3a
       -0.035075128 -0.042598918 -0.031291768 0.0012191534
000080 ba 68 a8 bc a5 db 4e 3d 00 0c 4d 38 ee 9c e0 3c
       -0.02055775 0.050502438 4.8886985e-05 0.02741858
000090 9a 0f 8f 3c 1b 38 17 3d 19 d7 50 3d df 5e 4d 3d
       0.017463494 0.03691874 0.050986383 0.050139304
0000a0 24 43 93 bc 3a 49 35 bd 6c fd 38 bd 2c ca 45 bc
       -0.017976351 -0.044259287 -0.045163557 -0.012072127
0000b0 6a 8a f4 3c 80 11 6a 3b 58 64 0d bd bf 65 0e bd
       0.029851157 0.0035715997 -0.034519523 -0.034765
0000c0 9c f1 3a 3c ff 60 42 3d a1 46 3d bd 08 54 93 bc
       0.011410143 0.047455784 -0.046209935 -0.017984405
0000d0 f2 28 a6 3c a3 da 3f bd 8b 7d 47 bd d2 e1 8a bc
       0.020283196 -0.046839368 -0.04870371 -0.016953383
0000e0 fc e8 34 3c c1 3c d7 bc 30 9c 19 bd 0a c7 17 bd
       0.011041876 -0.026274087 -0.037502468 -0.037055053
0000f0 76 06 96 3c d1 c8 22 3d ef 63 23 3d 80 48 cd 3a
       0.018313628 0.039742295 0.039890226 0.0015661865
000100 60 9e 46 bc 94 0f 08 bc b1 26 1c 3d 10 ce 67 bb
       -0.0121227205 -0.008304495 0.038122837 -0.0035370626
000110 b8 8f a4 3b fc f5 e7 bc 64 de 5b 3c 0f 54 2d 3d
       0.0050220154 -0.028315537 0.013419721 0.042316493
000120 f4 94 5b 3c 4e fb a8 3c 44 45 01 bd e6 33 ad bc
       0.013402212 0.020627644 -0.031560197 -0.021142911
000130 68 cf 58 bc 8a 77 cd 3c 9e 57 92 3c 57 90 3d 3d
       -0.013233043 0.025081415 0.017864045 0.04628023
000140 e1 9d 13 3d fe 8a b9 3c 00 a7 04 3b 1a 9f fd 3c
       0.036039237 0.022649284 0.0020241141 0.030959655
000150 27 54 f6 bc 20 2c 9f ba 09 d8 1b 3d 46 89 85 3c
       -0.030069424 -0.0012143888 0.038047824 0.016300809
000160 f0 04 ae bb 00 fc 6b ba d7 f4 d6 bc 9e ed f6 bc
       -0.005310647 -0.00090020895 -0.026239796 -0.030142602
000170 f5 b6 c9 bc 70 c9 e0 bb 40 b6 c0 3b 60 68 3a bb
       -0.024623374 -0.0068599507 0.005881101 -0.002844356
000180 20 40 e6 ba e4 0e 70 3c 7f b9 29 3d 0f 19 41 bd
       -0.0017566718 0.014651988 0.04143667 -0.04714304
000190 c0 b0 80 bb 8f 47 4f 3d 60 03 e1 ba e0 ab 71 3b
       -0.0039273202 0.050605353 -0.0017167144 0.0036876127
0001a0 7a 3f fa 3c 34 cd 0a 3c 99 4a 47 3d 0c a4 f4 bc
       0.030547846 0.008471776 0.048655126 -0.02986338
0001b0 2c a9 58 3c 12 ed 93 bc a1 a8 28 bd 56 2c fe 3c
       0.0132239275 -0.01805738 -0.041176442 0.031027
0001c0 88 b9 a3 bb f4 7f ce bc fb 02 13 bd d1 57 34 3d
       -0.0049964823 -0.025207497 -0.035891514 0.04402906
0001d0 8d 3a ba bc 02 1a 86 bc 1a e1 32 bd 2a 1c 2a bd
       -0.022732997 -0.016369823 -0.043671705 -0.041530766
0001e0 d6 6a 92 bc c0 f4 4d 3b d8 db a4 bb 3e 5d 48 bd
       -0.017873209 0.00314264 -0.00503109 -0.048917048
0001f0 22 39 b5 3c d7 8b 41 3d 8a df 19 bd 53 c2 2e bd
       0.02212197 0.047252502 -0.0375667 -0.04266579
000200 43 25 36 3d 39 b9 2f bd 78 41 29 3c f4 c0 6d 3c
       0.04446913 -0.04290125 0.01033055 0.014511336
000210 a4 04 dc bc 32 78 99 bc e4 60 7e 3c 28 58 0b bd
       -0.026857682 -0.018734071 0.01552603 -0.03401962
000220 b8 c6 10 bd a0 50 03 bd fe 5a e3 3c aa 33 15 bd
       -0.035345763 -0.032059312 0.02775335 -0.036426224
000230 ea e4 a7 3c 28 e6 08 bd 61 34 00 3d 90 7e 34 bb
       0.020494897 -0.03342262 0.031299952 -0.0027541257
000240 95 30 26 3d a0 0d 0e bd aa 49 97 3c 66 27 e2 3c
       0.040573675 -0.034680963 0.018467743 0.027606677
000250 f5 2e 4c bd 44 67 68 3c 80 b5 ec b9 c2 7a fb 3c
       -0.04984947 0.014184777 -0.00045148656 0.030698184
000260 e1 f5 ca bc 8b be 28 bd fb c5 48 bd 4b 7a 31 3d
       -0.024775447 -0.04119734 -0.049016934 0.04332952
000270 0e b6 08 bd 94 11 30 3c 6c ea a4 bc 70 9b 3a bd
       -0.033376746 0.010746378 -0.020131312 -0.045558393
000280 e8 78 0e bd 80 56 a4 bb 18 a6 8a 3b e6 9c 9b bc
       -0.034783274 -0.0050151944 0.0042312257 -0.018995713
000290 e8 56 a3 bb 6b 3d 3d 3d 15 51 2f 3d 00 0e b2 b9
       -0.0049847253 0.04620115 0.042801935 -0.00033961236
0002a0 3a a8 16 bd 2c 8a 03 bc 3f a4 44 3d 2d 05 50 3d
       -0.036781527 -0.008028548 0.0480082 0.050786186
0002b0 af b9 43 3d 29 54 13 3d e0 b3 e3 3a 60 af 15 3c
       0.047784504 0.035968933 0.0017372333 0.009136051
0002c0 88 17 2c bc 6a 8c 9b 3c b8 f1 83 3b 6b 85 53 3d
       -0.010503657 0.018987853 0.004026618 0.05164091
0002d0 c9 a6 36 3d 63 f2 b0 bc 72 4e c1 3c 1e 95 ca bc
       0.044592652 -0.021599954 0.023596976 -0.024729308
0002e0 a5 0e da bc 44 cd 62 3c 4a 71 b5 3c 94 01 b4 bc
       -0.026618311 0.013842884 0.022148747 -0.021973409
0002f0 f3 15 36 3d ea ef 0c bd 0c fe 74 3c 8c e7 00 bc
       0.044454526 -0.034408487 0.014953148 -0.007867705
000300 a0 79 eb bb 90 38 11 bd ba 0e 91 3c 74 56 02 3c
       -0.0071861297 -0.035454333 0.017707217 0.007955182
000310 80 30 08 3a 14 e8 23 bc 39 23 0c 3d b7 b9 53 3d
       0.00051952153 -0.010004062 0.03421328 0.051690783
000320 32 1a a0 3c c0 71 cb bc 00 ad e8 b9 cf 9d 4d 3d
       0.01954374 -0.024834514 -0.00044379383 0.050199326
000330 42 4d c1 3c 94 5c 62 bc a8 ce d5 bb c5 37 4b bd
       0.02359641 -0.013816018 -0.0065248795 -0.049613733
000340 d4 7c 28 3c a5 b0 e8 bc b9 71 04 3d 3b e1 52 3d
       0.010283668 -0.028404543 0.032335017 0.051484328
000350 c6 fb 15 bd 57 65 1d 3d cf 8e 49 3d cc 1d 3c 3c
       -0.036617063 0.038426723 0.04920846 0.0114817135
000360 98 23 c6 bc b8 30 e3 bb 00 d9 af 3b 2e 9e 86 3c
       -0.024186894 -0.006933298 0.0053664446 0.016432848
000370 8e 5a 07 bd 00 76 f3 39 7f 72 42 bd e2 10 87 3c
       -0.033045344 0.0004643649 -0.047472473 0.016487543
000380 60 c3 54 bb 2c b9 5a 3c 9e 16 00 bd 1a a8 f4 3c
       -0.0032465085 0.0133498125 -0.03127157 0.029865313
000390 b8 83 d8 bb 34 79 36 3c f4 5e 3d 3c 94 db db bc
       -0.006607499 0.0111372955 0.011558283 -0.026838101
0003a0 fa 8a cf 3c 48 96 da bb 42 fe c1 3c 25 56 53 3d
       0.025334824 -0.006670747 0.02368081 0.051595826
0003b0 84 cc ac bc ab 1c 1a 3d 40 55 0e 3b 5c 8f 98 bc
       -0.021093614 0.037624996 0.0021718293 -0.018623047
0003c0 9a 6a e4 3c 56 ef a2 bc df 0d 17 3d a4 4c a5 bc
       0.027882863 -0.019889515 0.036878463 -0.020178147
0003d0 f0 6d 20 3b c8 bd 13 3c d6 bd 43 bd e3 70 3d bd
       0.002447959 0.009017415 -0.047788464 -0.046250235
0003e0 80 e1 22 3a 09 4b f0 bc 00 c6 a0 ba 38 f4 1e bc
       0.00062134117 -0.029332655 -0.001226604 -0.009701781
0003f0 1a 9f 03 bd f5 34 2c bd fe b6 da 3c ba fd 9c 3c
       -0.032134153 -0.04204269 0.026698586 0.019163955

simplicial_nn.4.W0 f4 [64, 1]
000000 25 38 99 3e 43 3b b5 3e 54 24 eb bd ba f9 12 3e
       0.29925647 0.35396776 -0.114815384 0.14353076
000010 f4 ef 03 be 85 ca c8 3e 6a c3 29 3e 3b 60 cb 3e
       -0.12884504 0.3921701 0.16578451 0.39721856
000020 f2 2c 35 be 94 94 d1 be 19 ec a2 3e c0 fb d7 be
       -0.17692927 -0.4093367 0.31820753 -0.42184258
000030 44 e4 bf 3d 18 4c 24 be 19 36 d3 3e 2c 46 e4 bd
       0.0936971 -0.16044652 0.4125221 -0.11146197
000040 e3 e4 b6 3e 87 b3 d4 3e 20 2f 22 bc dc fb f8 3d
       0.35721502 0.41543218 -0.009898931 0.12157413
000050 91 06 a2 3e 86 1f aa be c4 69 5e be 3c 92 90 be
       0.31645635 -0.33227175 -0.21720034 -0.28236568
000060 d2 4f 1f 3e 12 1b 5a 3e a0 3f 67 3c 1d 46 91 3e
       0.15557793 0.21299389 0.0141142905 0.28373805
000070 56 27 14 3e db af 9e 3e 4b 60 a1 be d8 b4 8a be
       0.1446813 0.30993542 -0.31518778 -0.27091098
000080 3d 18 a5 be f0 66 56 3d 2c 9a 96 be ef 46 ba 3e
       -0.32245055 0.052344263 -0.294145 0.36382243
000090 7d 73 bd 3e a2 68 3b 3e 30 0f aa bd da b0 4e 3e
       0.37002173 0.18301633 -0.08303678 0.20184651
0000a0 00 2b a7 be c6 91 7e 3e 18 cb 99 bd 0c 2f 91 3d
       -0.32649994 0.24860296 -0.0750944 0.070890516
0000b0 2b cf 90 3e 4f b2 b6 3e ea 85 5a 3e bf 8d 80 3e
       0.28283057 0.35682914 0.21340147 0.25108144
0000c0 88 f4 9f be dd b3 db be 90 dd f9 bd f8 34 5f 3d
       -0.3124125 -0.42910662 -0.12200463 0.054493874
0000d0 7d a2 6d be c0 9b 69 bd 0e 61 5e 3e 21 69 d5 3e
       -0.23206516 -0.0570333 0.21716711 0.4168177
0000e0 5c 64 dd bd 10 9c 8c bc 96 ab 84 be 28 81 83 be
       -0.10810158 -0.01716426 -0.2591216 -0.25684476
0000f0 ec 8e 8e bd 7e 88 0c 3e 69 f3 83 be 80 ea 12 3b
       -0.06960854 0.13723943 -0.25771645 0.0022417605

simplicial_nn.4.W1 f4 [5, 64, 1]
000000 08 25 82 be bf 22 bc 3e 98 d7 04 3d f2 07 2e 3e
       -0.25418878 0.3674526 0.03243217 0.16995218
000010 6b 4b ce 3e bd 8c 87 3e 2a 3f 61 3e ae 46 61 be
       0.40291914 0.26474562 0.21996751 -0.21999618
000020 9e ec 6c 3e 52 b2 59 3e a9 c6 be be b0 4c 43 3d
       0.23137137 0.2125943 -0.3726094 0.047680557
000030 46 e5 33 3e e6 5f 38 3e 84 95 d0 bd 1d d6 90 3e
       0.1756793 0.18005332 -0.10184768 0.28288355
000040 64 f7 b3 bd b3 3b b0 3e 06 bd 33 3e 00 c7 b1 bc
       -0.087874204 0.34420547 0.17552575 -0.021701336
000050 35 5b a5 be 40 ba cb bd 57 c7 9d 3e 9e 4f 5e 3e
       -0.32296148 -0.09947634 0.30816147 0.21710059
000060 3a 91 09 3e 18 79 7c be 02 6f b0 be 07 b5 36 be
       0.13434306 -0.24655569 -0.34459692 -0.17842494
000070 9e 98 58 3e bb bf bc 3e f4 54 bf be 57 92 ae be
       0.21151969 0.3686503 -0.37369502 -0.34096023
000080 be c6 21 be 93 dc b7 3e 10 3e 34 be 74 8a bd 3d
       -0.1579847 0.35910472 -0.176018 0.092549235
000090 18 20 63 3d 5a 26 11 be e0 ba 23 bd fe b4 55 be
       0.05545053 -0.14174786 -0.03997314 -0.20869824
0000a0 80 08 a6 be 06 fd 00 3e 23 d8 87 be 83 a2 37 be
       -0.3242836 0.12596521 -0.26532087 -0.17933087
0000b0 dd af 8d 3e f3 24 b2 3e 80 51 18 3c 8c e8 a1 bd
       0.27673236 0.34793815 0.009296775 -0.07905683
0000c0 59 7e cb be d0 07 17 be 60 9d 11 be 0e 34 5a 3e
       -0.39744833 -0.14749074 -0.1422019 0.2130892
0000d0 a5 a1 89 3e 0a b0 9f be 96 83 27 3e 41 d3 92 3e
       0.26881137 -0.31188995 0.1635879 0.286768
0000e0 63 22 a6 3e 03 fc a2 3e 94 11 9e be 78 e4 38 3d
       0.3244811 0.31832895 -0.30872786 0.04513976
0000f0 1a 04 30 3e c0 ce 10 bc 00 bc d4 39 c1 e1 cf 3e
       0.17189065 -0.008838356 0.00040575862 0.40601924
000100 e8 88 b6 be 0e b4 c2 be 4f 73 b0 3e b0 c0 98 be
       -0.35651326 -0.38027996 0.34462973 -0.2983451
000110 14 97 c4 3d e8 05 13 3d 5e b7 57 3e ad a7 ba 3e
       0.09599128 0.035894305 0.21066043 0.3645605
000120 6b 24 95 3e c0 91 cd bb 12 33 6f 3e 80 8f e9 bd
       0.29129347 -0.0062734783 0.23359326 -0.114043236
000130 28 7b 34 3d 58 05 8b be d2 a9 6b 3e 90 63 9b be
       0.044062763 -0.27152514 0.23014 -0.30349398
000140 fa 65 20 3e f4 f5 da 3d 1c 1e bf 3d 1d 63 d3 3e
       0.15663901 0.10691443 0.09331915 0.41286555
000150 a7 8f 93 3e a5 e7 a8 3e 14 1c d4 3d 16 88 3a 3e
       0.28820536 0.3298923 0.10356918 0.18215975
000160 cb 6e c9 be 0a a4 63 3e 34 4f 98 bd 3e 41 9d be
       -0.3934234 0.22230545 -0.07436982 -0.30713838
000170 b8 88 0f bd e0 08 45 3c b8 2d 5c be 5c 19 82 3d
       -0.035042495 0.012026042 -0.21501815 0.06352493
000180 b1 3d c5 3e 4c 8d b7 bd dd 0f aa 3e e6 85 84 be
       0.3852363 -0.08962497 0.33215228 -0.25883406
000190 91 25 32 be 81 a6 85 be 7b d9 c1 3e 33 b1 46 be
       -0.17397143 -0.26103595 0.37861237 -0.19403534
0001a0 02 ad a4 be 98 09 4e 3d 30 f9 7d bd 48 88 26 bd
       -0.32163244 0.050302118 -0.06200522 -0.04065731
0001b0 37 e9 96 3e 62 30 6c 3e 08 14 be be 48 e3 7c bd
       0.29474804 0.23065332 -0.37124658 -0.06174019
0001c0 56 bc 68 3e f0 b1 a6 3d b6 52 ab be 96 5d 08 3e
       0.22728094 0.08139408 -0.3346154 0.1331695
0001d0 ca ec 62 3e 00 fb 7a bc f1 2d 92 3e d0 3f 26 be
       0.2216064 -0.015318632 0.28550676 -0.1623528
0001e0 74 f7 a0 3d 3a 1f 02 3e f0 be 86 bc ca 8d 31 3e
       0.07859698 0.12707224 -0.016448468 0.17339244
0001f0 c8 d0 a3 be 4b dc 8c be 84 29 88 be f5 b5 c2 3e
       -0.31995225 -0.2751182 -0.26594174 0.38029447
000200 70 b5 b3 be 37 30 62 be de 59 0b be 9d 16 9a 3e
       -0.35099363 -0.22088705 -0.136085 0.30095378
000210 3b 1b 92 3e 34 9c 8e be 9c a2 ff bd 31 52 c4 3e
       0.285364 -0.2785355 -0.12482187 0.38343957
000220 58 7e 9d bd 48 b7 ba be 8a 7a 34 3e 42 4a 79 3e
       -0.07690114 -0.36467957 0.1762487 0.24344733
000230 f2 65 72 3e f1 6d d5 3e 80 a3 85 be 6d 02 6b be
       0.23671702 0.4168544 -0.26101303 -0.22950144
000240 d0 7f ae bc 5a ca 64 3e 1a c4 36 3e 50 02 af be
       -0.02130118 0.22342816 0.17848244 -0.34181452
000250 38 fc 94 be fd 30 89 3e f6 e1 01 3e 12 d4 64 3e
       -0.29098678 0.26795188 0.12683854 0.22346523
000260 00 cf 3f bd e7 66 81 3e 88 7f 98 be 50 e4 bc bd
       -0.04682827 0.2527382 -0.297848 -0.09223235
000270 ca 99 2e 3e fe f6 90 be 75 75 a7 3e fb fe bb 3e
       0.17050853 -0.2831344 0.327068 0.36717972
000280 cb e6 44 be 8a 42 b6 be 70 89 99 3d 26 0b 16 3e
       -0.19228666 -0.3559764 0.07496917 0.1465269
000290 5e 7b 2b 3e 54 80 d8 3d 38 f1 71 bd cc e8 cb 3d
       0.1674628 0.10571352 -0.059067935 0.09956512
0002a0 c2 b7 be be 5c b5 0f be 7e eb 4c 3e 1c 4d c1 bd
       -0.3724957 -0.14034027 0.20011708 -0.094385356
0002b0 fb 56 c0 3e e3 c3 97 3e fe 5d 78 3e 80 50 f6 bb
       0.3756636 0.29641637 0.24254605 -0.0075169206
0002c0 e0 e7 73 be ba 76 54 3e 9c 81 a8 bd 38 86 3f 3d
       -0.23818922 0.20748416 -0.08227846 0.04675886
0002d0 00 80 f7 39 ac cb 95 bd 91 16 d1 be 10 19 16 be
       0.0004720688 -0.07314238 -0.4083753 -0.14657998
0002e0 f1 50 37 be 8e 46 01 3e 9e 9c 19 be 38 90 29 bd
       -0.1790197 0.1262457 -0.15001151 -0.041397303
0002f0 41 5e 9f 3e 3c 5b b4 bd 7d 10 97 3e 1a 1f 18 be
       0.31126598 -0.08806464 0.29504767 -0.14855614
000300 63 a0 a4 3e 76 fe 14 3e c6 1c 41 3e cd fb a5 3e
       0.32153615 0.14550194 0.18858632 0.3241867
000310 7d d5 b0 3e 98 f5 87 3d ce 40 44 3e 14 c8 ae 3d
       0.3453788 0.0663864 0.19165346 0.085342556
000320 a7 40 cb 3e 2e 7d 77 3e 8d 0b 9d 3e d6 9b 26 3e
       0.39697763 0.24168846 0.30672875 0.16270384
000330 c0 d9 f5 bd df 8c cc 3e 72 cd 33 3e b1 09 a7 be
       -0.12004423 0.39951226 0.1755884 -0.3262458
000340 ba f1 78 3e e0 5a ab bc 72 96 89 be b8 39 90 bd
       0.24310961 -0.020917356 -0.26872593 -0.07042259
000350 40 1d b1 3c b9 ff b0 3e 90 cf fb bd be 4a 74 3e
       0.021620393 0.345701 -0.12295449 0.23856637
000360 3e d5 bf be 58 21 5d be d0 bd f1 3c 98 18 11 3d
       -0.37467378 -0.21594751 0.029509455 0.035423845
000370 e8 dc ad be 24 29 d0 be 83 2b ad be 8d d6 b1 3e
       -0.339576 -0.40656388 -0.3382226 0.34734002
000380 26 a2 12 3e 03 6c a4 3e 0e 86 42 3e d0 d3 aa 3c
       0.14319667 0.32113656 0.1899645 0.020852953
000390 24 d4 83 3d 48 66 7e be ac 53 c0 be a0 1f 0f bd
       0.06436947 -0.24843705 -0.37563837 -0.03494227
0003a0 aa b0 50 3e ca c3 08 3e 4e a0 5a be 0f 01 8a 3e
       0.20379892 0.13355938 -0.21350214 0.26953933
0003b0 69 b8 d1 3e e1 42 bc be b0 1d 2a bd 16 7e 04 be
       0.40961006 -0.36769775 -0.04153222 -0.12938723
0003c0 b0 5e cc bc cb c9 3f be 40 bb 67 bd 25 e1 be 3e
       -0.024947494 -0.18729322 -0.05657506 0.37281147
0003d0 1d 1f 52 be 07 d6 87 3e 09 a2 b5 be ae 8e 6a 3e
       -0.20519681 0.26530477 -0.35475186 0.2290599
0003e0 62 c0 c0 be f2 7c 6e 3e d6 ca 22 3e e6 c2 6c 3e
       -0.37646776 0.2328985 0.15897688 0.23121223
0003f0 47 75 63 be 2a 7b 1d 3e 6c f7 ee bd b8 31 54 be
       -0.22212707 0.15379015 -0.11668286 -0.20722091
