results/Test_citation/version_103/checkpoints/epoch=0-step=0.ckpt (torch, 566417 bytes, 27 tensors)

simplicial_nn.0.W0 f4 [1, 64]
0.23569497 0.07623264 0.18628016 -0.27385455 -0.031559795 -0.1464276 0.26763925 0.28705993
-0.104845285 0.33490786 0.06834632 -0.07423359 -0.29753032 0.07360378 -0.3670855 -0.3065275
-0.048761576 -0.10057643 0.07354328 0.087960154 0.28489646 -0.40725008 0.14544019 0.41985026
-0.08115476 0.29587057 0.32411608 0.244109 0.1989452 -0.18165125 -0.21271665 -0.05761373
-0.20998214 0.20907024 0.103735894 0.02985531 0.2388998 0.14262453 -0.38763118 -0.33873278
-0.24058707 0.28729418 -0.34271312 -0.09487066 -0.33692843 -0.21763413 0.08654085 0.017498583
0.24098113 -0.3574536 -0.4035967 -0.18472765 -0.106639564 0.004541278 -0.41661376 0.34799048
0.15390155 0.2802656 0.39097956 -0.35409018 -0.26642364 0.08840707 -0.28880623 -0.36097002
00000000: 065a 713e dc1f 9c3d 3ac0 3e3e aa36 8cbe
00000010: d844 01bd 1ef1 15be 0308 893e 85f9 923e
00000020: 20b9 d6bd 0b79 ab3e 28f9 8b3d c807 98bd
00000030: e555 98be 94bd 963d a1f2 bbbe 2cf1 9cbe
00000040: 38ba 47bd 04fb cdbd dc9d 963d 7424 b43d
00000050: f3dd 913e 1583 d0be 46ee 143e 9df6 d63e
00000060: 7834 a6bd 597c 973e 8bf2 a53e b6f7 793e
00000070: 4ab8 4b3e c902 3abe 65d2 59be 60fc 6bbd
00000080: 8f05 57be 8216 563e 7c73 d43d 2093 f43c
00000090: 26a2 743e 2a0c 123e 9877 c6be 626e adbe
000000a0: 755c 76be 3918 933e 1878 afbe 8c4b c2bd
000000b0: e281 acbe 7bdb 5ebe 543c b13d 3059 8f3c
000000c0: c2c3 763e 2904 b7be 3aa4 cebe 3f29 3dbe
000000d0: d865 dabd 00cf 943b 664e d5be cf2b b23e
000000e0: 5e98 1d3e f97e 8f3e 792e c83e 4f4b b5be
000000f0: ae68 88be c40e b53d 69de 93be 10d1 b8be

simplicial_nn.0.W1 f4 [5, 1, 64]
0.03330545 -0.11700865 0.062266737 -0.00017039478 -0.13775443 -0.13554096 0.13874577 0.04322669
0.046522617 -0.008675322 -0.06480929 0.012519255 0.11994617 -0.1328759 0.11534093 -0.0053750724
-0.1449302 -0.025755912 -0.0751677 0.00042155385 0.021744028 0.057044238 -0.013663441 -0.018641472
0.08420615 -0.07595052 0.025366053 0.1735907 -0.0066734254 0.09732841 -0.106532626 0.16219963
0.05757436 -0.07873486 0.039739102 -0.016470328 -0.06397084 -0.04759504 -0.17521337 0.12613721
-0.13633454 -0.021815628 0.040363356 0.17174114 -0.033205435 0.01749286 0.0049675703 -0.12575662
-0.036483616 0.1667593 0.007149413 -0.052178368 -0.11854325 0.030247092 0.0046635866 -0.13831024
-0.047259897 -0.114155434 0.048023567 0.0007701665 0.011677474 -0.15907651 0.1303031 -0.042167872
0.07269463 0.011986673 -0.012932956 -0.019336194 0.16531514 -0.014844164 0.1419064 -0.058778584
-0.15821746 -0.16465294 0.17337908 0.1482905 -0.11976527 0.16793512 -0.069229335 -0.15434298
-0.14929885 -0.08357404 0.099821165 0.17445244 -0.07806218 -0.14441088 0.08957006 -0.016448334
-0.121454276 -0.05965098 0.045452446 -0.04062353 -0.14963321 0.13774957 -0.10600221 0.0008378178
-0.06606455 0.100392416 0.028476328 -0.09326377 0.002573058 -0.10082782 -0.11728842 0.03166297
0.12860177 -0.12994337 0.064703286 -0.16418266 0.030800447 -0.04344891 -0.10002889 -0.014598936
0.035448745 -0.06457529 -0.08054496 0.12147556 -0.10659903 0.12245451 -0.08614236 0.15575542
0.04538788 0.07822473 -0.04220316 0.10325073 0.11261265 0.112198874 0.121809795 0.1265011
-0.13418752 -0.15864247 0.13904415 0.10910483 -0.15590951 -0.013293311 0.049526885 -0.14478719
0.0010770857 -0.11309685 0.026670486 0.13834818 0.17658044 0.111252174 -0.052402355 -0.024150014
0.009181023 0.0037070662 -0.069989204 -0.09907871 -0.051438227 0.021664098 -0.10080304 -0.14401378
-0.008947626 0.064330205 0.033127278 -0.17063864 0.06848197 0.048992187 -0.04474318 -0.08981613
-0.15921408 0.066316575 0.07281178 0.103757754 -0.11175104 0.11727922 -0.14984857 -0.05544711
0.091458604 -0.13894144 0.03565775 0.019015253 -0.17317595 0.111170724 -0.04674256 0.09037681
0.074520424 0.047448963 -0.107564 -0.0736956 0.032410413 -0.107401356 0.025413811 0.12934895
-0.032252178 0.09113498 -0.012378991 -0.14197335 0.079235986 0.07475968 0.006136924 -0.12770337
-0.14338134 -0.16950573 0.114255086 0.07372849 -0.0456886 -0.07214702 -0.07728678 -0.17592682
-0.08519844 0.023832485 -0.022099316 -0.06115838 -0.15133667 0.11200629 0.09394722 -0.022288248
-0.014480397 -0.03503874 0.07730268 0.12676926 0.10775237 0.037636444 0.089676455 -0.081586584
0.015491113 0.11923136 0.05323364 0.0063208044 0.17451335 -0.099301726 -0.11071823 -0.08107956
0.12229623 0.113525674 0.096576676 -0.039931625 -0.09049162 -0.17622267 -0.09601762 0.12251605
0.1361491 -0.08609229 -0.068337575 -0.15305327 0.12499045 0.09707858 0.11679186 -0.079462826
0.063901246 -0.14585957 0.13203959 0.04614328 0.0018736571 0.11194588 -0.10421685 0.061511934
0.055065066 -0.04890825 -0.04731609 0.12575398 -0.0027981997 -0.09520507 -0.103365205 -0.057131782
00000000: 4c6b 083d 3ba2 efbd 680b 7f3d 00ac 32b9
00000010: 7f0f 0dbe 40cb 0abe 5f13 0e3e 780e 313d
00000020: 808e 3e3d f022 0ebc bcba 84bd 901d 4d3c
00000030: 56a6 f53d 9f10 08be de37 ec3d 6021 b0bb
00000040: 9568 14be 10fe d2bc 86f1 99bd 0004 dd39
00000050: 8820 b23c 38a7 693d a0dc 5fbc 00b6 98bc
00000060: 4674 ac3d f28b 9bbd 78cc cf3c c3c1 313e
00000070: c0ac dabb 1e54 c73d c72d dabd a917 263e
00000080: 18d3 6b3d be3f a1bd 78c5 223d c8ec 86bc
00000090: 2503 83bd 04f3 42bd 226b 33be 1d2a 013e
000000a0: 489b 0bbe b0b6 b2bc 0c54 253d e9dc 2f3e
000000b0: 6c02 08bd 304d 8f3c 00c7 a23b 58c6 00be
000000c0: d86f 15bd f3c2 2a3e a045 ea3b fcb8 55bd
000000d0: cec6 f2bd c0c8 f73c 00d1 983b 33a1 0dbe
000000e0: 9893 41bd 53ca e9bd 5cb4 443d 00e5 493a
000000f0: e052 3f3c f4e4 22be 2d6e 053e 38b8 2cbd
00000100: ece0 943d c063 443c c0e4 53bc f066 9ebc
00000110: 5f48 293e f034 73bc e94f 113e d0c1 70bd
00000120: c203 22be c89a 28be 498a 313e 77d9 173e
00000130: 7e47 f5bd 2ff7 2b3e 1cc8 8dbd 160c 1ebe
00000140: cce1 18be de28 abbd 0a6f cc3d a9a3 323e
00000150: 10df 9fbd 72e0 13be 8270 b73d a8be 86bc
00000160: 05bd f8bd 9654 74bd 582c 3a3d dc64 26bd
00000170: 7339 19be 390e 0d3e b017 d9bd 00a1 5b3a
00000180: da4c 87bd 8a9a cd3d 3047 e93c 1301 bfbd
00000190: c0a0 283b d17e cebd e934 f0bd 08b1 013d
000001a0: 2fb0 033e e00f 05be 2883 843d 801f 28be
000001b0: 3851 fc3c 7cf7 31bd f2db ccbd 6030 6fbc
000001c0: b432 113d 0d40 84bd c2f4 a4bd 2ec8 f83d
000001d0: 9850 dabd 6ec9 fa3d 686b b0bd 597e 1f3e
000001e0: a4e8 393d 4a34 a03d 38dd 2cbd 1e75 d33d
000001f0: 76a1 e63d 86c8 e53d 6a77 f93d 8189 013e
00000200: 7468 09be 2c73 22be 9761 0e3e 5a72 df3d
00000210: bea6 1fbe 30cc 59bc b4dc 4a3d 1843 14be
00000220: 002d 8d3a 529f e7bd 107c da3c 25ab 0d3e
00000230: 81d1 343e 2ed8 e33d daa3 56bd 40d6 c5bc
00000240: 006c 163c 40f2 723b 8056 8fbd c7e9 cabd
00000250: e4b0 52bd e878 b13c d371 cebd 5978 13be
00000260: 1099 12bc 8ebf 833d 78b0 073d e5bb 2ebe
00000270: 4640 8c3d 08ac 483d a044 37bd 85f1 b7bd
00000280: 0409 23be fcd0 873d 581e 953d f27e d43d
00000290: bbdd e4bd 1630 f03d e771 19be 821c 63bd
000002a0: a64e bb3d aa46 0ebe dc0d 123d e0c5 9b3c
000002b0: 0955 31be 7aad e33d 2075 3fbd 7a17 b93d
000002c0: 2a9e 983d d859 423d 844a dcbd b8ed 96bd
000002d0: c8c0 043d 3ef5 dbbd a030 d03c 0d74 043e
000002e0: dc1a 04bd faa4 ba3d 40d1 4abc 7661 11be
000002f0: 7a46 a23d 9a1b 993d 4018 c93b acc4 02be
00000300: 8fd2 12be e992 2dbe 92fe e93d f6fe 963d
00000310: f823 3bbd d1c1 93bd 8848 9ebd 2926 34be
00000320: 857c aebd 583c c33c a009 b5bc 3681 7abd
00000330: 00f8 1abe 8e63 e53d 6667 c03d d895 b6bc
00000340: 303f 6dbc c884 0fbd de50 9e3d cdcf 013e
00000350: 46ad dc3d ac28 1a3d 4aa8 b73d de16 a7bd
00000360: 70ce 7d3c 922f f43d 840b 5a3d c01e cf3b
00000370: a1b3 323e b45e cbbd 3dc0 e2bd 0a0d a6bd
00000380: 7276 fa3d 2680 e83d fec9 c53d 588f 23bd
00000390: ac53 b9bd b773 34be e3a4 c4bd b2e9 fa3d
000003a0: ab6a 0b3e 2851 b0bd 92f4 8bbd ffb9 1cbe
000003b0: fefa ff3d 22d1 c63d 9230 ef3d 68bd a2bd
000003c0: a8de 823d 365c 15be 6335 073e bc00 3d3d
000003d0: 8095 f53a e243 e53d a56f d5bd f0f3 7b3d
000003e0: e88b 613d 0454 48bd 84ce 41bd a7c5 003e
000003f0: 0062 37bb e0fa c2bd 23b1 d3bd 0403 6abd

simplicial_nn.0.W2 f4 [5, 1, 64]
0.091285065 0.053978413 0.09882335 -0.092996426 -0.0070533454 -0.098789535 0.10416947 0.11970942
-0.16824432 -0.15121788 -0.03437242 -0.13491313 0.13606705 -0.09719013 0.046548545 0.031827256
-0.06860883 0.077509746 0.082765356 -0.16106138 -0.039014205 0.15092437 -0.13424149 -0.008211255
-0.1281659 0.1737356 0.13408454 -0.07623448 0.009938613 0.03365685 0.052848414 0.07159343
-0.10765827 -0.095630206 0.03174348 -0.13719805 0.09568693 0.09627174 0.035823554 0.123637035
0.108601436 -0.12766823 0.0005579144 -0.11187091 0.12887247 -0.010019988 0.047535464 -0.048547328
0.1252877 0.036070794 0.01699458 0.1079462 0.11237989 -0.013975561 -0.012035385 -0.1043254
0.05682057 0.096902415 -0.067038186 -0.08691133 -0.004152283 0.10141225 0.0554156 -0.058998823
-0.14430778 -0.102074586 -0.106505446 -0.101772666 -0.12009199 -0.053799443 -0.11767276 -0.17534994
0.14101763 -0.10400634 -0.026945174 0.1363364 -0.0040342063 -0.077290446 0.01631917 0.05734998
-0.062256202 0.09490763 0.031393304 0.03329508 0.09810944 0.10005228 0.12081103 -0.04007268
-0.080661036 -0.13078386 0.002825901 0.16681258 0.09956013 -0.03283128 -0.08703225 -0.10544035
-0.0883757 -0.12063226 -0.08191232 -0.16609137 0.1301497 -0.17524077 0.05713056 -0.07114883
0.013011426 -0.00086027384 -0.15248647 0.03990531 -0.026965275 0.10224973 0.068005264 0.07500671
0.079587415 -0.17636332 -0.042476118 0.021765292 -0.03121692 -0.09153113 -0.16581957 0.020692497
-0.0974307 0.03436935 0.14488684 0.109652564 -0.101682894 -0.00046746433 0.08377279 0.144228
0.00071130693 0.15268888 -0.16538021 0.14861415 -0.052956752 0.056727484 0.13728334 -0.06183657
0.14500044 -0.0033238828 -0.02201143 0.002377987 -0.031342715 -0.010219768 -0.024412766 -0.14790857
0.05716546 -0.15625033 -0.11028338 -0.08374686 -0.17010851 -0.034995988 0.050429016 0.16088305
-0.12105742 0.12561773 0.004981801 -0.16617994 -0.13228846 -0.087579735 0.15384288 0.115330264
0.11629252 0.14880334 -0.0825807 -0.09184055 -0.0176408 -0.14592998 -0.055166475 0.015167043
-0.056248173 0.082025155 0.101589665 0.004092738 -0.13268529 -0.069681086 -0.032129675 -0.09380074
0.12330936 0.09263076 0.10412024 -0.17539963 0.11440654 -0.035008103 -0.11042487 -0.036969304
-0.050244823 -0.09801949 -0.05848714 -0.0031549037 0.11431764 -0.03717108 -0.07343408 0.029849932
0.08341111 -0.013519198 -0.04943618 0.073418066 0.17139275 -0.12737727 0.052888796 0.058837846
-0.012356311 0.094784245 -0.11569969 0.075204745 -0.05555734 0.05770099 -0.16619118 -0.03134501
0.088346854 0.17093404 -0.02914241 -0.048943445 0.12137531 -0.0535324 -0.15462965 -0.048481226
-0.14020044 -0.10844285 -0.03334911 0.11476512 -0.030071542 0.09764983 0.12788792 0.042927444
-0.037500203 -0.048531055 -0.14207469 -0.046556666 -0.024680853 -0.027349547 0.045200676 -0.09487688
0.031194046 0.14488928 0.063482106 -0.17282882 -0.031940594 0.067204714 -0.12159294 0.020188525
0.028246 -0.103303865 -0.17196706 0.0974745 0.045840696 -0.0086438805 0.12801494 -0.07069082
-0.122017525 -0.13039878 0.108648315 0.13579832 0.15377595 -0.17279766 -0.12985456 -0.02463609
00000000: aaf3 ba3d 7818 5d3d e663 ca3d e974 bebd
00000010: c01f e7bb 2b52 cabd ce56 d53d 362a f53d
00000020: 3d48 2cbe dcd8 1abe 18ca 0cbd ab26 0abe
00000030: 2955 0b3e 9e0b c7bd b0a9 3e3d 4c5d 023d
00000040: c982 8cbd 6ebd 9e3d e280 a93d 46ed 24be
00000050: 5ccd 1fbd eb8b 1a3e 9a76 09be 8088 06bc
00000060: ec3d 03be bfe7 313e 754d 093e d320 9cbd
00000070: 90d5 223c c4db 093d 9477 583d 949f 923d
00000080: f07b dcbd c5d9 c3bd 7405 023d a57d 0cbe
00000090: 82f7 c33d 1e2a c53d b8bb 123d 6a35 fd3d
000000a0: 6e6a de3d 76bb 02be 0041 123a 931c e5bd
000000b0: 25f7 033e e02a 24bc 8cb4 423d 90d9 46bd
000000c0: 6b4b 003e f8be 133d 3838 8b3c e612 dd3d
000000d0: 6e27 e63d c0f9 64bc 1030 45bc 8ea8 d5bd
000000e0: b0bc 683d c674 c63d 514b 89bd 91fe b1bd
000000f0: e00f 88bb 3ab1 cf3d 78fb 623d c0a8 71bd
00000100: 6bc5 13be 7b0c d1bd 871f dabd 306e d0bd
00000110: caf2 f5bd ce5c 5cbd 6afe f0bd ef8e 33be
00000120: ed66 103e 4701 d5bd 20bc dcbc c59b 0b3e
00000130: 6031 84bb 744a 9ebd c8af 853c d0e7 6a3d
00000140: 5c00 7fbd ee5e c23d 4496 003d 6c60 083d
00000150: 9aed c83d 36e8 cc3d c66b f73d 4023 24bd
00000160: 9d31 a5bd 34ec 05be c032 393b ebd0 2a3e
00000170: 2ee6 cb3d 187a 06bd f73d b2bd 1cf1 d7bd
00000180: 52fe b4bd 0c0e f7bd a5c1 a7bd db13 2abe
00000190: f745 053e 5172 33be bc01 6a3d 7ab6 91bd
000001a0: e02d 553c 0084 61ba 6a25 1cbe c073 233d
000001b0: 48e6 dcbc 4e68 d13d 5846 8b3d 1e9d 993d
000001c0: bafe a23d 9698 34be 70fb 2dbd 204d b23c
000001d0: a0ba ffbc ac74 bbbd 9bcc 29be 5083 a93c
000001e0: bf89 c7bd e0c6 0c3d 375d 143e 8691 e03d
000001f0: 1f3f d0bd 0016 f5b9 1291 ab3d 81b0 133e
00000200: 0077 3a3a 795a 1c3e 6e59 29be 4f2e 183e
00000210: 2ee9 58bd 145b 683d 0194 0c3e 5848 7dbd
00000220: ff7a 143e 80d5 59bb 5051 b4bc 00d8 1b3b
00000230: 3861 00bd d070 27bc 48fd c7bc 5875 17be
00000240: 5426 6a3d 1600 20be 41dc e1bd 7983 abbd
00000250: ed30 2ebe f457 0fbd a88e 4e3d 87be 243e
00000260: f4ec f7bd efa1 003e 603e a33b 132b 2abe
00000270: a076 07be 015d b3bd fd88 1d3e 4632 ec3d
00000280: c62a ee3d e75f 183e 1220 a9bd e616 bcbd
00000290: 7083 90bc ab6e 15be 3ef6 61bd 307f 783c
000002a0: 7c64 66bd cefc a73d 3e0e d03d 601c 863b
000002b0: a7de 07be f5b4 8ebd 689a 03bd 9a1a c0bd
000002c0: 9e89 fc3d 32b5 bd3d fe3c d53d f69b 33be
000002d0: fa4d ea3d a864 0fbd 6f26 e2bd 206d 17bd
000002e0: 84cd 4dbd 71be c8bd 3690 6fbd 80c2 4ebb
000002f0: 5e1f ea3d b440 18bd 9b64 96bd d887 f43c
00000300: 72d3 aa3d a07f 5dbc 987d 4abd 365c 963d
00000310: 9581 2f3e 306f 02be eca1 583d f4ff 703d
00000320: 2072 4abc 3e1e c23d f6f3 ecbd f204 9a3d
00000330: 1890 63bd e057 6c3d 052e 2abe a063 00bd
00000340: 32ef b43d 5509 2f3e 10bc eebc ec78 48bd
00000350: 9e93 f83d ca44 5bbd 3c57 1ebe 4094 46bd
00000360: b490 0fbe 4917 debd 1499 08bd fa09 eb3d
00000370: 9858 f6bc a2fc c73d 0df5 023e b0d4 2f3d
00000380: d099 19bd 80c8 46bd 077c 11be 34b2 3ebd
00000390: 802f cabc 280c e0bc 5824 393d cf4e c2bd
000003a0: a88a ff3c db5d 143e e802 823d 0afa 30be
000003b0: 24d4 02bd a0a2 893d b805 f9bd 6862 a53c
000003c0: 2864 e73c fa90 d3bd 2218 30be b6a0 c73d
000003d0: 74c3 3b3d 109f 0dbc 5916 033e 59c6 90bd
000003e0: 53e4 f9bd 4287 05be 0283 de3d b70e 0b3e
000003f0: 7177 1d3e dff1 30be 98f8 04be a0d1 c9bc

simplicial_nn.2.W0 f4 [64, 64]
0.021315694 -0.20514318 0.23633215 -0.1803105 0.043770134 -0.21739581 0.040198177 0.0816893
-0.17434524 -0.28505135 -0.23783292 0.16108882 -0.09454858 -0.23704046 0.28060904 0.29283115
0.28503087 0.11595267 -0.009529382 0.29835227 -0.19046691 -0.029785693 -0.05324629 -0.022131205
0.08707988 -0.28799567 0.30384573 -0.084088385 0.21381989 -0.07546666 -0.2632243 0.2419503
-0.2645898 -0.18000087 -0.24615231 -0.18899664 -0.020149589 -0.2835842 -0.04481265 -0.09972301
0.040643483 -0.23616777 -0.13715097 0.19511583 -0.28810796 0.13035864 -0.002583772 -0.15506898
0.19719127 0.085739315 -0.16653703 -0.12513605 -0.04347968 0.14451453 -0.08670491 -0.27444145
-0.13868208 0.056476355 -0.028940856 -0.21221694 -0.2786276 -0.1602771 0.24920622 -0.0045746267
-0.22025791 0.1176016 -0.25742084 -0.14816979 -0.15994644 -0.2601663 0.19405177 0.15760899
0.2640085 0.069734484 0.3045006 -0.19624016 0.1804485 0.024929702 0.25919846 0.29110155
-0.2666641 0.19673315 0.062743634 0.08766958 -0.033105135 0.11354166 -0.21232727 0.23813477
-0.04559958 0.28268638 -0.12807772 -0.086806595 0.12536582 -0.027825803 0.03893283 -0.26665133
0.2157282 0.21984407 0.28133586 -0.059452623 -0.17929788 -0.1557289 -0.1773334 0.09791207
0.011575222 0.06019011 -0.13411346 -0.11028439 0.09202838 0.07781583 0.2883884 -0.11226562
0.0153552 0.20031354 -0.17208456 -0.035229474 -0.16891615 0.2782872 -0.234455 -0.008303404
-0.22410291 0.15265995 -0.14740276 0.09430623 -0.110468864 -0.2484228 0.22311375 0.05374083
-0.30592334 0.028482854 0.24627385 -0.10541566 -0.14313994 -0.15496328 -0.22915351 -0.041848272
-0.27630216 -0.14451654 0.17249826 -0.11467318 0.11178094 0.17253244 0.14384136 0.08907315
-0.11974873 -0.21395737 -0.11032969 0.025344312 0.14881372 0.0338839 -0.036065787 -0.29869193
0.13216624 -0.0076580346 0.2851362 0.28571084 0.1337587 0.28255466 -0.04724005 -0.30052927
-0.26298976 0.30491254 -0.29373354 0.2758312 0.23731002 -0.1645136 -0.21940354 0.18229178
-0.20498879 -0.28694424 -0.18615139 -0.27512857 -0.046650708 -0.14908119 0.23530093 0.12549838
-0.21121289 0.017056882 0.30393746 -0.09405787 -0.16478688 0.17921492 0.16204217 0.09903124
-0.11225562 0.07650587 -0.018138021 -0.2130083 0.21221384 0.13025495 0.10167563 -0.19778284
-0.22029966 0.028273791 -0.08906847 -0.19808358 0.039373934 0.24078777 0.2930195 -0.2989104
-0.015519619 0.22216585 0.032506317 -0.2166911 -0.20646349 0.20080814 -0.29754815 -0.19399059
0.07714695 0.008569062 -0.26552498 -0.103157535 0.19901589 -0.21998474 -0.0366354 0.2145876
-0.10550414 0.053709984 0.20606777 0.12252861 0.16479185 -0.22386669 -0.08649437 0.30204162
0.10648435 0.12942317 0.2969297 -0.21881804 0.045193255 -0.057102367 -0.15228394 -0.2867592
0.13205546 -0.15394755 0.13425702 0.24647066 0.19814506 -0.19667265 0.03259939 0.2433556
-0.010408878 0.04238829 -0.14242268 -0.22095275 -0.03067848 0.29529628 0.105585575 -0.19354382
-0.101276815 -0.13187979 0.15884602 -0.27945256 -0.07361245 0.25482938 -0.02398786 -0.16954418
00000000: 409e ae3c 0e11 52be 0e01 723e 51a3 38be
00000010: 5048 333d 029d 5ebe d8a6 243d b84c a73d
00000020: 8f87 32be 40f2 91be 798a 73be 78f4 243e
00000030: b0a2 c1bd bcba 72be fdab 8f3e f7ed 953e
00000040: 91ef 913e 9878 ed3d 2021 1cbc a1c1 983e
00000050: c209 43be 2001 f4bc c818 5abd 804c b5bc
00000060: f056 b23d 2b74 93be ab91 9b3e 8836 acbd
00000070: 9af3 5a3e 448e 9abd 56c5 86be d2c1 773e
00000080: 5078 87be 2652 38be 5a0f 7cbe 5688 41be
00000090: c010 a5bc f331 91be 788d 37bd 943b ccbd
000000a0: c879 263d f7d5 71be 4e71 0cbe 72cc 473e
000000b0: e382 93be bc7c 053e 8054 29bb 67ca 1ebe
000000c0: 82ec 493e 1898 af3d af88 2abe aa23 00be
000000d0: c017 32bd 9efb 133e 5892 b1bd 9783 8cbe
000000e0: ad02 0ebe c053 673d 6015 edbc 664f 59be
000000f0: 47a8 8ebe ae1f 24be ea2f 7f3e c0e6 95bb
00000100: 4a8b 61be 1cd9 f03d aacc 83be d2b9 17be
00000110: 00c9 23be 8434 85be 82b5 463e 4064 213e
00000120: 1f2c 873e f4d0 8e3d 81e7 9b3e 2ef3 48be
00000130: 7ec7 383e 6039 cc3c a9b5 843e 430b 953e
00000140: 3288 88be 6a74 493e bc7f 803d 1c8c b33d
00000150: 4099 07bd 8888 e83d 526c 59be 9ad9 733e
00000160: a0c6 3abd 45bc 903e ce26 03be a8c7 b1bd
00000170: e65f 003e f0f2 e3bc 0878 1f3d 8686 88be
00000180: dae7 5c3e ce1e 613e 410b 903e 9884 73bd
00000190: dd99 37be 6677 1fbe e396 35be 2086 c83d
000001a0: 00a6 3d3c e889 763d 0a55 09be c8dc e1bd
000001b0: 6079 bc3d e85d 9f3d a5a7 933e 84eb e5bd
000001c0: 6094 7b3c fe1e 4d3e ef36 30be c84c 10bd
000001d0: 5bf8 2cbe a97b 8e3e f914 70be 000b 08bc
000001e0: 3c7b 65be e452 1c3e c0f0 16be a023 c13d
000001f0: 803d e2bd 8c62 7ebe ee77 643e 581f 5c3d
00000200: fca1 9cbe e054 e93c 362f 7c3e 2ae4 d7bd
00000210: 4793 12be b2ae 1ebe 38a7 6abe 1869 2bbd
00000220: 7a77 8dbe 25fc 13be 62a3 303e c6d9 eabd
00000230: 68ed e43d 58ac 303e 264b 133e fc6b b63d
00000240: d23e f5bd a417 5bbe 88f4 e1bd e09e cf3c
00000250: a062 183e d8c9 0a3d b8b9 13bd 26ee 98be
00000260: 9656 073e 40f0 fabb 5ffd 913e b148 923e
00000270: 0af8 083e 01ab 903e c87e 41bd f9de 99be
00000280: 98a6 86be 7f1d 9c3e 3e64 96be bf39 8d3e
00000290: 6601 733e 4176 28be 52ab 60be b2aa 3a3e
000002a0: 95e8 51be 5bea 92be 789e 3ebe a7dd 8cbe
000002b0: d014 3fbd bda8 18be baf2 703e a682 003e
000002c0: 3148 58be e0ba 8b3c b19d 9b3e 6aa1 c0bd
000002d0: e4bd 28be 1e84 373e 62ee 253e e4d0 ca3d
000002e0: 46e6 e5bd 1caf 9c3d 3096 94bc d91e 5abe
000002f0: 964e 593e 8e61 053e 503b d03d 9687 4abe
00000300: 3c96 61be 709e e73c 8869 b6bd 6cd6 4abe
00000310: 9046 213d 1291 763e a706 963e c90a 99be
00000320: 0046 7ebc 727f 633e 5825 053d 46e4 5dbe
00000330: 2a6b 53be a6a0 4d3e 3b58 98be 78a5 46be
00000340: 38ff 9d3d 4065 0c3c e4f2 87be 4244 d3bd
00000350: d2ca 4b3e ae43 61be 000f 16bd dabc 5b3e
00000360: 8e12 d8bd 00ff 5b3d 6e03 533e 48f0 fa3d
00000370: 32bf 283e 4f3d 65be f623 b1bd 33a5 9a3e
00000380: 7814 da3d 8287 043e 2b07 983e d611 60be
00000390: 901c 393d 2ce4 69bd 52f0 1bbe 1ad2 92be
000003a0: 8c39 073e 6da4 1dbe ac7a 093e ce62 7c3e
000003b0: 8ae6 4a3e 8e64 49be f086 053d 3632 793e
000003c0: 008a 2abc 589f 2d3d 40d7 11be 7041 62be
000003d0: 7051 fbbc 1331 973e 403d d83d 5a30 46be
000003e0: 386a cfbd 7f0b 07be 88a8 223e 6814 8fbe
000003f0: 20c2 96bd ff78 823e 3082 c4bc fd9c 2dbe

simplicial_nn.2.W1 f4 [5, 64, 64]
-0.034345057 0.024654318 0.05201069 -0.0014210232 -0.012882892 0.049873065 -0.017219499 -0.03441412
0.038336273 0.016814325 -0.047049787 0.0022718161 0.0033662207 0.03473993 -0.02719241 -0.041937377
-0.0025769286 -0.04654034 -0.03718279 0.015314143 0.00337594 -0.036392152 0.024309833 0.041096803
0.001959987 0.030656893 0.0021116883 0.0040205456 0.026232932 0.047062803 -0.020755846 0.033852305
0.04458097 0.043706182 -0.04923979 -0.04491666 -0.04678982 -0.036125407 0.01738296 0.011779647
0.051817168 -0.0066791624 0.005231753 -0.044625025 -0.012874678 -0.011677574 -0.033994954 0.010048363
-0.011539765 0.005422946 0.021456178 0.006462533 0.018639196 -0.040401816 -0.04964663 -0.040602446
0.017307092 -0.0038886443 0.010087103 -0.00030276924 -0.029186975 -0.00036101416 0.016766 -0.049049135
-0.028769273 -0.014607735 -0.008353673 0.030698683 0.004200965 0.051358636 0.012131784 0.039565723
-0.03052515 -0.012311153 -0.025166558 0.03929792 0.03815824 0.024088655 -0.046567205 -0.034822695
-0.009870052 -0.04310059 0.041395117 -0.026833136 0.032562178 0.050429564 -0.047358565 0.03885014
0.039305348 -0.036349304 -0.022430696 0.052099194 -0.030534795 0.02178337 -0.010039963 -0.012204733
-0.04725305 -0.02891952 0.031446118 -0.013111923 -0.039446343 0.030196581 0.051149238 0.03659861
-0.027737211 -0.008229006 -0.02231408 0.044434812 -0.04461512 -0.02229246 0.0009884126 0.028998446
-0.045890365 0.0017441139 -0.03230565 0.03447904 -0.015844423 -0.020814296 -0.03135182 -0.028665714
0.0011359937 -0.028008131 0.040399548 0.01793776 -0.015354373 0.039711606 0.019174982 0.029103514
-0.050495848 -0.048604764 -0.04963224 0.025556449 -0.021588836 0.007864546 0.03875621 -0.042678505
0.03957795 0.02354874 0.0010291748 0.026778419 -0.013083339 -0.03213373 -0.04684889 0.006836567
-0.039221432 -0.022055972 0.02073307 -0.02078038 0.016069133 0.025161985 -0.043456722 -0.018342163
-0.0012666732 0.036805946 0.017796595 -0.028763605 -0.0101750605 0.039472442 0.01703218 0.047835726
-0.0046480335 0.023223277 0.050577495 -0.046084538 0.013807092 -0.029173117 -0.024040928 -0.03177362
0.0049135424 -0.03977334 -0.006823752 0.012947131 -0.023275523 -0.050078563 -0.03744328 0.004290778
-0.044228427 -0.023129402 -0.020403657 -0.009769291 -0.04851926 0.022011343 -0.04628527 -0.018412959
0.04529723 0.05126768 0.04524227 0.041052107 -0.014001444 0.04403865 0.0035409443 -0.010251645
0.035505597 -0.029680656 0.014040258 0.0062255748 0.02328131 -0.01742484 0.028918345 0.018736925
-0.04810936 -0.0033775382 -0.032559842 -0.017830852 -0.041527614 0.034393255 0.038298 0.016671631
-0.048410103 -0.019018818 -0.01771519 -0.048150126 0.014684726 -0.016017333 -0.00040942803 -0.024798429
-0.021385048 0.034410838 -0.0005822964 0.036593076 -0.020100947 -0.04749068 -0.048541825 0.03915188
0.035251226 0.01922239 -0.035202727 -0.03197677 -0.0471159 0.030721825 0.015611108 -0.016912766
0.050599355 0.035513606 -0.012512904 0.0021275543 0.018638443 0.042956483 0.019794751 0.015205551
0.04619917 0.033316325 -0.013485696 0.021569517 -0.025866795 -0.013796985 -0.009508286 -0.032030176
0.01106954 -0.008609284 0.02709369 0.036701422 -0.0175273 -0.050745036 -0.010782182 -0.03861154
00000000: 67ad 0cbd daf7 c93c 2909 553d a041 baba
00000010: c412 53bc b347 4c3d e80f 8dbc d2f5 0cbd
00000020: 7f06 1d3d 32be 893c 47b7 40bd c0e2 143b
00000030: d09b 5c3b 754b 0e3d 9ec2 debc 87c6 2bbd
00000040: b0e1 28bb 15a1 3ebd fb4c 18bd 2ce8 7a3c
00000050: e03e 5d3b f00f 15bd 6a25 c73c 1f55 283d
00000060: 2073 003b 2a24 fb3c 4064 0a3b c8be 833b
00000070: 72e6 d63c edc4 403d 2a08 aabc b7a8 0a3d
00000080: 899a 363d 4105 333d a9af 49bd 88fa 37bd
00000090: afa6 3fbd 3cf8 13bd b666 8e3c 6cff 403c
000000a0: 3d3e 543d e0dc dabb 206f ab3b bbc8 36bd
000000b0: 50f0 52bc 4c53 3fbc 4b3e 0bbd e4a1 243c
000000c0: 4811 3dbc f8b2 b13b dec4 af3c a8c3 d33b
000000d0: 3ab1 983c 607c 25bd 445a 4bbd c04e 26bd
000000e0: 9ac7 8d3c a0d8 7ebb 6044 253c 00bd 9eb9
000000f0: 8619 efbc 8046 bdb9 da58 893c bfe7 48bd
00000100: 8aad ebbc 4855 6fbc d8dd 08bc ce7b fb3c
00000110: 40a8 893b 6f5d 523d 64c4 463c ab0f 223d
00000120: e10f fabc b8b4 49bc 192a cebc dbf6 203d
00000130: d14b 1c3d 9255 c53c 41bd 3ebd 3ea2 0ebd
00000140: 00b6 21bc 3f8a 30bd ed8d 293d 2ad1 dbbc
00000150: eb5f 053d 3b8f 4e3d 0efb 41bd 5321 1f3d
00000160: a5fe 203d 02e3 14bd 94c0 b7bc f765 553d
00000170: 1b24 fabc 0a73 b23c a87e 24bc 5cf6 47bc
00000180: 6a8c 41bd a1e8 ecbc a5cd 003d 64d3 56bc
00000190: 7d92 21bd d25e f73c dd81 513d 6de8 153d
000001a0: 2639 e3bc f4d2 06bc 04cc b6bc 4701 363d
000001b0: 58be 36bd ad9e b6bc a08d 813a 268e ed3c
000001c0: 89f7 3bbd c09a e43a ee52 04bd e539 0d3d
000001d0: 2acc 81bc be82 aabc c46a 00bd 5cd4 eabc
000001e0: a0e5 943a 4f71 e5bc ff79 253d 36f2 923c
000001f0: e890 7bbc a3a8 223d da14 9d3c 7e6a ee3c
00000200: bcd4 4ebd ca15 47bd 2d4b 4bbd c25b d13c
00000210: 12db b0bc 4cda 003c d5be 1e3d a8cf 2ebd
00000220: 7d1c 223d 4ae9 c03c 60e5 863a 6a5e db3c
00000230: 805b 56bc a89e 03bd 9fe4 3fbd 4805 e03b
00000240: a7a6 20bd baae b4bc 66d8 a93c 9e3b aabc
00000250: 6aa3 833c 8220 ce3c adff 31bd 4e42 96bc
00000260: 8006 a6ba d5c1 163d 2aca 913c a7a1 ebbc
00000270: 4cb5 26bc dbad 213d 1287 8b3c 65ef 433d
00000280: 884e 98bb be3e be3c 592a 4f3d 24c3 3cbd
00000290: 2437 623c 76fc eebc 7bf1 c4bc 0e25 02bd
000002a0: c801 a13b 5fe9 22bd c899 dfbb 3420 543c
000002b0: 4fac bebc 2e1f 4dbd 205e 19bd a899 8c3b
000002c0: de28 35bd df79 bdbc 9225 a7bc 600f 20bc
000002d0: 22bc 46bd 2251 b43c a095 3dbd c6d6 96bc
000002e0: 9789 393d 0ffe 513d f54f 393d 4126 283d
000002f0: 5066 65bc df61 343d 300f 683b 84f6 27bc
00000300: 516e 113d d924 f3bc 1c09 663c e8ff cb3b
00000310: 72b8 be3c 8abe 8ebc 2ae6 ec3c 2e7e 993c
00000320: 520e 45bd b059 5dbb 785d 05bd 0212 92bc
00000330: dc18 2abd f1df 0c3d 5dde 1c3d f292 883c
00000340: ac49 46bd 5acd 9bbc 721f 91bc 1139 45bd
00000350: 3498 703c c836 83bc 80a8 d6b9 1326 cbbc
00000360: b22f afbc 61f2 0c3d 40a5 18ba 9fe2 153d
00000370: beaa a4bc 9685 42bd cbd3 46bd b95d 203d
00000380: 9763 103d 4678 9d3c bc30 10bd 13fa 02bd
00000390: 9afc 40bd 56ac fb3c bcc5 7f3c a48c 8abc
000003a0: 4541 4f3d b776 113d ec02 4dbc 706e 0b3b
000003b0: a6af 983c 23f3 2f3d 9a28 a23c b420 793c
000003c0: 573b 3d3d b376 083d 1cf3 5cbc 8eb2 b03c
000003d0: 9ae6 d3bc c00c 62bc a4c8 1bbc 1332 03bd
000003e0: 045d 353c f40d 0dbc 96f3 dd3c 3b54 163d
000003f0: 6a95 8fbc 07da 4fbd c0a7 30bc 2227 1ebd

simplicial_nn.2.W2 f4 [5, 64, 64]
0.04746558 0.042830463 0.016634274 0.02816109 0.04130275 0.020136978 0.0018749535 0.0012127608
0.045187313 0.01592258 -0.030802974 0.024246808 0.04209887 0.037537206 -0.008932304 0.04702263
-0.022098191 0.0017595217 0.018196832 -0.030578261 -0.029387997 0.013428073 0.0070047975 0.0467499
-0.039955646 -0.03872323 0.043734204 -0.026734056 -0.03300745 0.044214968 0.005686179 0.010903355
-0.050081044 0.030383725 -0.03783782 0.04807694 -0.020447701 0.042940695 0.017605063 0.04683027
0.015925717 0.02099106 0.048863936 -0.049148526 -0.046773262 0.014056262 -0.042937513 -0.047290646
-0.022055605 -0.024548164 -0.030698556 0.028821718 0.0300862 0.024271335 0.04000506 -0.044685174
0.016939696 -0.024638977 0.035758864 -0.023680946 0.03830379 -0.013162829 0.0039984174 0.03276931
0.023057532 -0.012734782 0.00885541 0.0044846795 0.006441746 -0.00889371 -0.005188782 -0.041813206
0.0077126175 -0.0064388067 -0.043427322 -0.034226753 0.027144637 0.03375626 0.014418658 0.046186354
-0.044026114 0.009467132 -0.020795997 -0.007939737 -0.033611804 -0.051496882 -0.010765646 -0.032932155
-0.034496013 -0.005931679 -0.036751542 0.045976993 0.04469638 -0.025517605 0.011022855 -0.05130335
-0.029577488 0.0065800697 0.046540406 -0.018249515 0.047827672 0.03661454 0.046079833 -0.045157157
-0.029916933 0.039067913 -0.0008083582 -0.03311343 0.05166618 0.041928854 -0.008678794 0.026227433
-0.03017834 0.013600189 -0.027801683 -0.043030757 -0.031040998 0.020395506 0.04930718 0.014131445
0.015421573 -0.021774784 0.04173204 0.009695105 0.01902311 0.010120891 0.023336355 0.0012274422
-0.023147529 0.025708947 0.046140645 -0.039990768 0.027322527 0.04446129 -0.021405933 -0.004865866
0.024162512 -0.03615402 0.028958593 -0.040543035 -0.04040498 -0.018068325 0.03193425 0.016684953
0.039174903 0.019698057 -0.013617579 0.009081341 -0.001697585 -0.033443313 -0.01422612 0.037013542
0.01101381 0.030541975 -0.050197057 0.049315806 0.047583077 -0.03663174 -0.02392166 -0.023145925
-0.030884461 0.04047611 -0.0041649714 -0.04773594 0.021259654 -0.017699037 0.013391469 0.04197069
0.007606171 -0.037820324 0.030910496 0.02865148 0.02247348 0.049910244 0.022375468 0.006190188
0.051310632 0.042014647 -0.030030517 -0.0126058385 -0.029027896 -0.03987946 0.001197435 -0.020368334
-0.046820395 -0.011176337 0.05208851 -0.030360522 0.049958866 -1.225993e-05 -0.010385014 -0.021752605
0.013113309 0.014555123 -0.006303858 0.044445384 -0.0017939135 -0.037774727 0.021166097 -0.026582392
0.031652417 -0.049271718 0.014646854 0.01062632 -0.03741225 0.034995843 0.039112326 0.00089403987
0.019140083 -0.045125183 -0.051782276 -0.044961855 -0.0052621886 -0.01862286 -0.015291404 0.0006180294
0.023882639 -0.025680773 0.05159053 0.03652637 -0.042283013 0.03036454 -0.003475599 -0.0436277
-0.035982005 -0.013232857 -0.00019814074 -0.037312176 0.03933322 -0.04736207 0.03583925 -0.021910112
0.008254737 0.012584519 0.040439833 0.013131004 -0.030411802 0.019837085 -0.022526456 -0.0228283
-0.040063687 0.040236402 0.022625115 -0.03215275 -0.00222715 0.014210869 -0.01131345 0.013677027
-0.019185819 0.05068097 -0.039413378 -0.026537793 0.005412847 0.04996263 -0.00605518 0.031030897
00000000: 456b 423d ff6e 2f3d 9a44 883c 16b2 e63c
00000010: 132d 293d 4ef6 a43c 00c1 f53a 80f5 9e3a
00000020: 5516 393d 1270 823c 8556 fcbc 3ea1 c63c
00000030: dd6f 2c3d 9dc0 193d cc58 12bc cd9a 403d
00000040: 4407 b5bc c09f e63a 8611 953c 437f fabc
00000050: 19bf f0bc 6c01 5c3c 8088 e53b d37c 3f3d
00000060: 88a8 23bd 409c 1ebd a322 333d 6101 dbbc
00000070: d232 07bd c11a 353d 2053 ba3b fca3 323c
00000080: c821 4dbd 4ae7 f83c d4fb 1abd 53ec 443d
00000090: f081 a7bc 95e2 2f3d 7e38 903c 19d1 3f3d
000000a0: a676 823c 72f5 ab3c 8d25 483d f74f 49bd
000000b0: 5295 3fbd 3c4c 663c 3fdf 2fbd d6b3 41bd
000000c0: f5ad b4bc 3b19 c9bc 8a7b fbbc 861b ec3c
000000d0: 5677 f63c aed4 c63c 59dc 233d cd07 37bd
000000e0: 1ec5 8a3c aed7 c9bc e377 123d 8bfe c1bc
000000f0: 6fe4 1c3d e8a8 57bc 2805 833b 1d39 063d
00000100: 26e3 bc3c 8ca5 50bc 4816 113c 38f4 923b
00000110: 4815 d33b ecb6 11bc a806 aabb 5344 2bbd
00000120: 20ba fc3b a0fc d2bb d9e0 31bd 5a31 0cbd
00000130: 6e5e de3c 0144 0a3d 3c3c 6c3c e72d 3d3d
00000140: ba54 34bd 081c 1b3c 5e5c aabc ac15 02bc
00000150: 88ac 09bd 65ee 52bd 6462 30bc dee3 06bd
00000160: b14b 0dbd 885e c2bb c988 16bd 5f52 3c3d
00000170: 8d13 373d 4c0a d1bc 3499 343c 7623 52bd
00000180: 7d4c f2bc a09d d73b 27a1 3e3d 0280 95bc
00000190: f3e6 433d 21f9 153d 35be 3c3d b6f6 38bd
000001a0: 5b14 f5bc ad05 203d 00e8 53ba f3a1 07bd
000001b0: eb9f 533d 97bd 2b3d 8031 0ebc eada d63c
000001c0: 9138 f7bc 54d3 5e3c 5bc0 e3bc 0541 30bd
000001d0: b149 febc 7a14 a73c 53f6 493d 9487 673c
000001e0: c4aa 7c3c 0861 b2bc 37ef 2a3d 38d8 1e3c
000001f0: 5ad6 9b3c 18d2 253c e22b bf3c 20e2 a03a
00000200: e39f bdbc 929b d23c f9fd 3c3d 5ccd 23bd
00000210: 7ed3 df3c 0b1d 363d 7f5b afbc d871 9fbb
00000220: 76f0 c53c 3d16 14bd 923a ed3c 7410 26bd
00000230: b17f 25bd 0604 94bc 7dcd 023d e2ae 883c
00000240: dd75 203d d25d a13c 441c 5fbc e8c9 143c
00000250: 8081 deba dbfb 08bd ac14 69bc 839b 173d
00000260: 4473 343c 2a33 fa3c 6e9b 4dbd 5fff 493d
00000270: 79e6 423d 2a0b 16bd 5bf7 c3bc 869c bdbc
00000280: 6901 fdbc 47ca 253d 507a 88bb c386 43bd
00000290: ba28 ae3c 92fd 90bc e467 5b3c 75e9 2b3d
000002a0: 303d f93b 7ce9 1abd 0238 fd3c 82b6 ea3c
000002b0: 4e1a b83c af6e 4c3d c24c b73c 10d7 ca3b
000002c0: 192b 523d 8d17 2c3d 8f02 f6bc b888 4ebc
000002d0: e9cb edbc a558 23bd 40f3 9c3a 7edb a6bc
000002e0: bec6 3fbd f41c 37bc c35a 553d a1b6 f8bc
000002f0: aba1 4c3d 00b0 4db7 e825 2abc 8532 b2bc
00000300: 34d9 563c 9c78 6e3c 9890 cebb 5d0c 363d
00000310: c021 ebba acb9 1abd 8664 ad3c 51c3 d9bc
00000320: f7a5 013d 24d1 49bd 5cf9 6f3c 041a 2e3c
00000330: 963d 19bd cd57 0f3d 3f34 203d 005e 6a3a
00000340: aacb 9c3c 2fd5 38bd a719 54bd ec29 38bd
00000350: 706e acbb f88e 98bc cc88 7abc 4003 223a
00000360: 86a5 c33c 7c60 d2bc 9750 533d ad9c 153d
00000370: f430 2dbd 0ebf f83c e0c6 63bb f6b2 32bd
00000380: de61 13bd a0ce 58bc 00c4 4fb9 a7d4 18bd
00000390: df1b 213d bbfe 41bd 2dcc 123d d67c b3bc
000003a0: e03e 073c 4c2f 4e3c 3da4 253d 6c23 573c
000003b0: 2c22 f9bc 6281 a23c 6789 b8bc 6a02 bbbc
000003c0: d219 24bd edce 243d 4e58 b93c 9ab2 03bd
000003d0: 60f5 11bb b4d4 683c 0c5c 39bc 9c15 603c
000003e0: 942b 9dbc d996 4f3d ec6f 21bd c965 d9bc
000003f0: 405e b13b 9da5 4c3d 886a c6bb 8234 fe3c

simplicial_nn.4.W0 f4 [64, 1]
-0.07899624 -0.27730244 0.33828083 -0.2899108 -0.28727764 0.03177142 0.004495561 -0.41191185
0.1965045 -0.11353716 0.17873427 -0.3617648 -0.016134113 0.08401516 0.108596295 -0.07318783
0.27032736 -0.1283701 0.3178685 -0.24870394 -0.20972322 -0.1790207 -0.4205142 0.260915
-0.41990957 -0.3871482 0.250976 -0.42840436 0.3456771 0.15573123 -0.0099336505 0.21929821
-0.12073359 -0.024789512 -0.19141138 0.29350087 -0.39059684 0.3453345 -0.19051757 0.025004894
0.24607512 -0.23902321 0.15591511 -0.06529361 0.32410905 -0.06237614 -0.16031733 0.27916053
0.37149855 -0.014906704 0.21209541 -0.0050880015 0.097573906 0.07212642 -0.04365045 -0.16909987
0.14202467 -0.1469366 -0.011084884 -0.22378592 -0.086046994 -0.3912582 0.06634468 0.06512466
00000000: c8c8 a1bd 96fa 8dbe 2533 ad3e 306f 94be
00000010: 0e16 93be c022 023d 804f 933b 1ce6 d2be
00000020: 7a38 493e 2c86 e8bd 1e06 373e 3c39 b9be
00000030: b02b 84bc 2410 ac3d bc67 de3d 80e3 95bd
00000040: 5968 8a3e 7473 03be a9bf a23e 3fac 7ebe
00000050: afc1 56be 3451 37be a34d d7be a796 853e
00000060: 63fe d6be 4a38 c6be ed7f 803e d157 dbbe
00000070: 97fc b03e 0278 1f3e c0c0 22bc b68f 603e
00000080: 2c43 f7bd 6013 cbbc 5801 44be bf45 963e
00000090: 4ffc c7be afcf b03e 0a17 43be 10d7 cc3c
000000a0: 1efb 7b3e 80c2 74be 36a8 1f3e a8b8 85bd
000000b0: 9ff1 a53e 207e 7fbd 3a2a 24be 21ee 8e3e
000000c0: 0f35 be3e 403b 74bc 8a2f 593e 40b9 a6bb
000000d0: d4d4 c73d 04b7 933d d0ca 32bd 8428 2dbe
000000e0: ea6e 113e 8c76 16be 609d 35bc 2328 65be
000000f0: 6839 b0bd ff52 c8be b8df 873d 1460 853d

simplicial_nn.4.W1 f4 [5, 64, 1]
-0.00072681904 -0.29726362 0.09033027 -0.13345665 -0.363947 0.19073603 -0.33024424 -0.18832363
-0.3519824 0.390286 -0.16311172 0.1416587 -0.29861987 0.09750745 -0.20278864 -0.3710348
0.32299158 0.20660779 0.005052805 0.09080657 -0.11631426 0.24537328 -0.08405316 -0.3667322
0.30271724 -0.34660423 0.33413133 -0.358373 -0.388347 0.22752652 -0.33007115 0.05184537
0.24778172 -0.09532559 -0.30516577 -0.34964353 -0.1203953 0.22492507 0.25888476 -0.20507999
-0.38771 -0.15433064 -0.2076294 -0.25191903 -0.40153897 -0.08531931 -0.29998848 -0.18613648
0.28921857 0.14328268 0.32890955 -0.35959053 0.21122536 -0.34973162 0.2532008 -0.095108986
0.14001939 -0.34281316 0.36437765 -0.05983287 0.34175995 0.2959781 -0.19113131 -0.28841195
-0.2828884 -0.02049011 -0.2767483 -0.20299588 0.11848459 -0.23866473 -0.26696628 0.08000657
0.10321692 0.31665042 -0.36431444 0.34682068 0.37189898 0.31025657 -0.10889226 -0.13234892
-0.35322475 0.11586252 0.15884826 -0.08731702 0.15592006 0.21203968 0.22816196 -0.41244844
0.2653393 0.07822561 -0.05838254 0.12157503 -0.17260793 0.21156254 0.3415366 -0.35962644
0.39249447 -0.26050782 0.32726988 -0.35007167 0.08353123 0.3569061 -0.043049544 -0.4051801
-0.30051136 -0.25852555 -0.38878855 0.29277673 0.39996782 0.18323049 -0.07249239 0.061336815
-0.011451542 -0.41057104 -0.37150523 0.22557327 0.4006935 -0.04029724 0.22318235 -0.25886333
0.018069237 0.04540941 0.06359258 0.34144232 0.05423367 -0.072258145 -0.41509748 -0.27751487
0.19344398 -0.370859 0.2022523 0.2767696 0.052376926 0.2464591 -0.2789501 0.38649067
-0.17417109 0.1357967 0.15031728 -0.38748938 0.025575817 -0.11251783 0.26420137 0.030049741
-0.0914197 -0.111347824 -0.24610305 -0.28142118 -0.39861694 -0.01651162 -0.22036874 0.09319386
0.08314511 -0.35420495 0.038511425 0.32883975 -0.032735944 -0.3079378 0.4020318 -0.33269075
-0.0025927722 0.006083727 -0.0634788 0.28369543 -0.028284252 0.09865692 -0.32918978 -0.33341184
-0.26940447 0.25671968 0.39693245 -0.055059582 0.22792199 -0.18555075 -0.05207625 0.3763531
0.16582021 0.3848506 -0.039934874 -0.29015586 0.19562665 -0.3163036 0.18989083 -0.3281997
-0.10902986 0.114393026 -0.38444763 -0.29674733 -0.34111977 0.40135184 -0.366664 0.031612992
0.043798387 0.10974398 -0.09684262 -0.0035755634 0.37424836 0.34317812 -0.28576183 -0.06006521
-0.3002321 0.29032955 0.054707795 0.24493167 -0.07908741 -0.120627046 -0.12361315 -0.20045353
0.2909024 0.19420657 -0.34624374 -0.37957108 0.15704003 0.3570896 0.087969154 -0.06732187
-0.2165907 0.014053822 0.23362383 0.3860623 -0.11231902 0.23111609 -0.14780468 0.1531348
0.3455858 0.25229213 -0.0035607517 -0.28385168 -0.19106132 0.025394022 -0.14744416 0.14509764
0.0726704 -0.34427986 -0.40708208 0.111712545 -0.38541105 -0.34215337 -0.3256936 0.069024354
0.37872323 -0.3595862 0.014871657 -0.3775633 -0.19653882 0.005689025 0.20145985 -0.31760025
-0.2790534 -0.23160379 -0.27955118 -0.0590733 -0.36108303 -0.078593135 0.078659564 -0.21517928
00000000: 0088 3eba f032 98be 14ff b83d dca8 08be
00000010: 4357 babe 4e50 433e c615 a9be e9d7 40be
00000020: 0a37 b4be 91d3 c73e c206 27be fa0e 113e
00000030: b4e4 98be fcb1 c73d d3a7 4fbe 46f8 bdbe
00000040: 275f a53e fe90 533e 0092 a53b ccf8 b93d
00000050: 2c36 eebd 2243 7b3e 1024 acbd 53c4 bbbe
00000060: c1fd 9a3e 1c76 b1be 4313 ab3e aa7c b7be
00000070: 6bd5 c6be b6fc 683e 16ff a8be d05b 543d
00000080: 7eba 7d3e 103a c3bd b03e 9cbe 7a04 b3be
00000090: d091 f6bd c252 663e 8b8c 843e 7d00 52be
000000a0: ed81 c6be da08 1ebe cd9c 54be 88fb 80be
000000b0: 8496 cdbe e4bb aebd 1798 99be 909a 3ebe
000000c0: 7514 943e b2b8 123e d566 a83e 401c b8be
000000d0: 764b 583e 0610 b3be 89a3 813e 80c8 c2bd
000000e0: 3e61 0f3e 3585 afbe b58f ba3e 5013 75bd
000000f0: 29fb ae3e 718a 973e edb7 43be bbaa 93be
00000100: c0d6 90be e0da a7bc f4b1 8dbe 27de 4fbe
00000110: 0ca8 f23d 8764 74be ceaf 88be 7cda a33d
00000120: 6463 d33d 0120 a23e 6c87 babe 7b92 b13e
00000130: 8b69 be3e f3d9 9e3e e802 dfbd 7a86 07be
00000140: e0d9 b4be 5449 ed3d 1ea9 223e 44d3 b2bd
00000150: 82a9 1f3e ee20 593e 4aa3 693e 712c d3be
00000160: 8dda 873e c034 a03d 8822 6fbd 54fc f83d
00000170: 22c0 30be daa3 583e e3dd ae3e f520 b8be
00000180: 09f5 c83e 4861 85be eb8f a73e 983c b3be
00000190: 6c12 ab3d 65bc b63e b854 30bd c473 cfbe
000001a0: a0dc 99be 765d 84be 4b0f c7be d5e6 953e
000001b0: 95c8 cc3e c6a0 3b3e e476 94bd 503c 7b3d
000001c0: 409f 3bbc 5e36 d2be ef35 bebe aefc 663e
000001d0: b327 cd3e b80e 25bd ea89 643e bc89 84be
000001e0: f005 943c 38ff 393d d43c 823d 87d1 ae3e
000001f0: 2024 5e3d 14fc 93bd a887 d4be 6e16 8ebe
00000200: 2e16 463e 3be1 bdbe 3a1b 4f3e bfb4 8d3e
00000210: 3089 563d c65f 7c3e 8cd2 8ebe 1be2 c53e
00000220: e859 32be 4a0e 0b3e c6ec 193e 0265 c6be
00000230: 6084 d13c c06f e6bd 6745 873e e02a f63c
00000240: 403a bbbd 540a e4bd 7002 7cbe 7016 90be
00000250: 8517 ccbe 6043 87bc 58a8 61be 6cdc be3d
00000260: fc47 aa3d 5a5a b5be 28be 1d3d af5d a83e
00000270: 2016 06bd 06aa 9dbe 1dd7 cd3e 7156 aabe
00000280: 80eb 29bb 005a c73b 2c01 82bd 8740 913e
00000290: 60b4 e7bc a40c ca3d 908b a8be f5b4 aabe
000002a0: 62ef 89be c370 833e bb3a cb3e 2886 61bd
000002b0: 6264 693e 0401 3ebe e84d 55bd 5bb1 c03e
000002c0: c6cc 293e 230b c53e c092 23bd 4f8f 94be
000002d0: 5a52 483e 8cf2 a1be be72 423e cb09 a8be
000002e0: 0c4b dfbd e446 ea3d 52d6 c4be 44ef 97be
000002f0: 40a7 aebe fd7d cd3e 62bb bbbe a07c 013d
00000300: f065 333d 74c1 e03d 6c55 c6bd 0054 6abb
00000310: 7b9d bf3e 0bb5 af3e 604f 92be f006 76bd
00000320: 06b8 99be 13a6 943e 4815 603d 5ecf 7a3e
00000330: 94f8 a1bd 500b f7bd e428 fdbd b143 4dbe
00000340: 29f1 943e 16de 463e dc46 b1be 2457 c2be
00000350: 1acf 203e 73d4 b63e 2c29 b43d 0ce0 89bd
00000360: f4c9 5dbe 0042 663c 163b 6f3e f5a9 c53e
00000370: 8407 e6bd b2a9 6c3e 1c5a 17be 5ecf 1c3e
00000380: 9ff0 b03e 6f2c 813e 805b 69bb 0255 91be
00000390: 94a5 43be 2007 d03c 9afb 16be 7a94 143e
000003a0: 38d4 943d 7345 b0be 106d d0be 8cc9 e43d
000003b0: 9954 c5be ba2e afbe 50c1 a6be a45c 8d3d
000003c0: 03e8 c13e af1b b8be 40a8 733c fa4f c1be
000003d0: 7941 49be 006b ba3b 7e4b 4e3e 809c a2be
000003e0: 16e0 8ebe 8b29 6dbe 5521 8fbe d8f6 71bd
000003f0: e0df b8be 70f5 a0bd 4418 a13d f557 5cbe

simplicial_nn.4.W2 f4 [5, 64, 1]
-0.27034494 0.026471794 0.14711455 -0.3670957 -0.13363844 -0.26749575 -0.20384793 0.31470135
-0.38876414 -0.11762652 0.12588611 0.39140555 0.046325922 -0.2851311 -0.12028763 -0.25783637
-0.25880563 -0.2975396 -0.30191776 0.39383402 0.18700251 0.28221592 0.046269298 0.2059255
-0.28555244 0.24375513 -0.2552212 -0.13339067 -0.37469152 0.36808953 0.057258666 -0.037063956
0.1148549 -0.1548306 -0.09184089 0.14550284 -0.34187526 0.28940102 -0.29612404 -0.21933316
0.39563593 0.11049566 -0.40119722 0.16132256 0.3530567 0.0999597 0.15251699 -0.408215
-0.18463244 -0.24131522 0.37298718 -0.38232383 -0.014028966 0.17702928 -0.32996136 -0.122857094
0.2721937 0.38989684 0.1709719 0.07893041 0.38100585 0.24215963 0.16106167 -0.32794702
-0.03616634 -0.19984707 -0.14474285 0.11556956 -0.21500298 0.39427647 -0.105952054 0.1235446
-0.2013892 -0.3924254 -0.233045 -0.3295557 -0.19230595 0.23531446 -0.37801284 -0.16349557
-0.24875288 -0.10138628 -0.11785221 -0.10896942 -0.31682268 -0.3808492 0.057706624 0.20132491
0.18672451 0.3495941 -0.13628381 0.35616913 -0.21078588 -0.3552012 -0.40393388 -0.27294552
0.08158651 0.050482333 -0.21099234 -0.19459134 0.3314831 0.40623572 0.11719105 -0.051753372
-0.16172716 0.37520227 -0.036664158 0.40651533 0.0011695623 -0.22816315 -0.11961043 0.0827792
0.37601176 -0.017107219 -0.2496605 -0.22997448 -0.2936551 -0.19829327 -0.08172223 0.12771478
0.16044775 0.0780907 0.33055112 -0.32461125 -0.3354022 0.2126455 0.32419834 0.29181197
0.40052673 0.33785465 0.27948466 0.054263115 -0.21363756 -0.394547 -0.04975781 0.14359114
-0.26775706 -0.17082158 0.17033455 -0.23621921 -0.21411937 0.2467955 0.16750154 0.10695562
-0.14831924 0.13512275 -0.11020887 -0.23565899 -0.29024535 -0.38501742 0.3666089 -0.4019343
0.22298053 -0.3831421 -0.29938787 -0.39587757 -0.36445695 0.2575042 0.3531929 0.020755708
-0.30885327 -0.2507319 0.20570925 0.105450004 0.30619612 -0.19048592 0.3056117 0.009917051
0.39428177 0.11001465 -0.0063132048 0.010496616 0.053444624 -0.3369696 0.037632376 -0.22203122
-0.1512104 -0.10963181 -0.34964824 -0.29271978 -0.31969026 0.3534374 -0.037917256 -0.41464466
-0.021235108 -0.3787697 0.31821212 0.111317545 -0.1385965 -0.23999949 0.36553285 0.022108376
-0.2929966 -0.28795338 -0.01829803 0.05780998 0.38242683 0.10986015 -0.37308154 0.27014133
-0.07432002 -0.16813952 0.1578863 0.12763664 -0.096194685 -0.37566826 -0.29472712 0.002655208
0.32571438 0.062048227 -0.17522949 0.38042787 0.017158777 0.3844945 0.2612159 0.408007
-0.1693149 -0.24959707 -0.1531592 -0.23266414 0.18519601 0.27869293 -0.23910245 -0.3520157
0.0759528 -0.15481785 -0.159617 -0.1532413 0.26300976 0.23982105 0.17063269 -0.3184614
-0.06493768 -0.20164204 0.39777622 -0.23169895 -0.2723472 -0.2537866 0.24008784 -0.39057958
0.04386908 -0.06388098 -0.17422806 -0.15399656 0.30304417 0.36528626 0.19065383 -0.2501142
0.36576238 0.33792153 -0.26750314 0.032378227 0.15087989 0.11569694 -0.053402662 -0.25369966
00000000: a76a 8abe 60db d83c 32a5 163e f8f3 bbbe
00000010: 84d8 08be 34f5 88be 83bd 50be 8920 a13e
00000020: 180c c7be 2ce6 f0bd 4ae8 003e 4f66 c83e
00000030: 40c0 3d3d b4fc 91be 5c59 f6bd 2103 84be
00000040: 2c82 84be 1c57 98be f794 9abe 9da4 c93e
00000050: 967d 3f3e 9b7e 903e e084 3d3d 22de 523e
00000060: ee33 92be f29a 793e 5aac 82be 9097 08be
00000070: 91d7 bfbe 3b76 bc3e 1088 6a3d 60d0 17bd
00000080: 0c39 eb3d ea8b 1ebe 1417 bcbd b2fe 143e
00000090: 460a afbe 5f2c 943e 929d 97be df98 60be
000000a0: cb90 ca3e 8c4b e23d b969 cdbe be31 253e
000000b0: d9c3 b43e acb7 cc3d 6a2d 1c3e 8e01 d1be
000000c0: 4910 3dbe 561b 77be 2df8 be3e f3bf c3be
000000d0: c0d9 65bc 2a47 353e b2f0 a8be 809c fbbd
000000e0: f95c 8b3e 8fa0 c73e 4213 2f3e 44a6 a13d
000000f0: 3313 c33e b2f8 773e 5aed 243e ace8 a7be
00000100: 2823 14bd b6a4 4cbe 7837 14be bcaf ec3d
00000110: be29 5cbe 9bde c93e 64fd d8bd f404 fd3d
00000120: f838 4ebe fbeb c8be 59a3 6ebe 86bb a8be
00000130: daeb 44be 46f6 703e e68a c1be 626b 27be
00000140: 13b9 7ebe 9ca3 cfbd 805c f1bd 5c2b dfbd
00000150: 9536 a2be abfe c2be c85d 6c3d 1e28 4e3e
00000160: b634 3f3e fffd b23e fc8d 0bbe cd5b b63e
00000170: 41d8 57be efdc b5be 6cd0 cebe 84bf 8bbe
00000180: d416 a73d 90c6 4e3d 600e 58be f442 47be
00000190: 27b8 a93e 21fe cf3e dc01 f03d 58fb 53bd
000001a0: ce9b 25be 831a c03e 282d 16bd c722 d03e
000001b0: 004c 993a 9aa3 69be 50f6 f4bd 2488 a93d
000001c0: 9d84 c03e 7024 8cbc 01a7 7fbe 6e7e 6bbe
000001d0: f659 96be 640d 4bbe fc5d a7bd aac7 023e
000001e0: 6a4c 243e 04ee 9f3d ff3d a93e 7233 a6be
000001f0: d6b9 abbe bebf 593e 53fd a53e 6168 953e
00000200: d711 cd3e 49fb ac3e 9d18 8f3e 0043 5e3d
00000210: cec3 5abe 1002 cabe d8ce 4bbd 8e09 133e
00000220: 7417 89be daeb 2ebe 2e6c 2e3e 73e3 71be
00000230: 1c42 5bbe f6b7 7c3e 8685 2b3e 8c0b db3d
00000240: 00e1 17be 9e5d 0a3e 30b5 e1bd 9750 71be
00000250: 0a9b 94be 0121 c5be 29b4 bb3e 55ca cdbe
00000260: 0255 643e 342b c4be 5e49 99be 77b0 cabe
00000270: 1a9a babe 97d7 833e b3d5 b43e e007 aa3c
00000280: 0422 9ebe ee5f 80be 72a5 523e 2cf6 d73d
00000290: bdc5 9c3e be0e 43be 2379 9c3e 207b 223c
000002a0: 4ddf c93e 5c4f e13d 00df cebb 00fa 2b3c
000002b0: c0e8 5a3d 4887 acbe 6824 1a3d 275c 63be
000002c0: e6d6 1abe a486 e0bd 1805 b3be 5edf 95be
000002d0: 71ae a3be bff5 b43e 204f 1bbd 4e4c d4be
000002e0: 40f5 adbc 1aee c1be b3ec a23e 74fa e33d
000002f0: 3eec 0dbe 6dc2 75be 1f27 bb3e a01c b53c
00000300: a603 96be a06e 93be c0e5 95bc 28ca 6c3d
00000310: 73cd c33e 5cfe e03d 8b04 bfbe f74f 8a3e
00000320: 1835 98bd c42c 2cbe f2ac 213e 2eb3 023e
00000330: b801 c5bd 9757 c0be 79e6 96be 0003 2e3b
00000340: 09c4 a63e 4826 7e3d 5c6f 33be 71c7 c23e
00000350: 9090 8c3c 77dc c43e 17be 853e 4be6 d03e
00000360: e360 2dbe 6096 7fbe c4d5 1cbe 823f 6ebe
00000370: 06a4 3d3e d7b0 8e3e 46d7 74be 673b b4be
00000380: 248d 9b3d 9288 1ebe a472 23be 4aeb 1cbe
00000390: 37a9 863e a693 753e 56ba 2e3e 5f0d a3be
000003a0: 0cfe 84bd 407b 4ebe 53a9 cb3e 7d42 6dbe
000003b0: 1871 8bbe 51f0 81be 96d9 753e 0cfa c7be
000003c0: 10b0 333d 08d4 82bd d768 32be 46b1 1dbe
000003d0: 9b28 9b3e cd06 bb3e c23a 433e f80e 80be
000003e0: 3545 bb3e 0d04 ad3e 2cf6 88be 089f 043d
000003f0: 4280 1a3e 84f2 ec3d c0bc 5abd ece4 81be

exp_avg f4 [1, 64]
0.0 0.0 0.0 0.0 0.0 0.0 0.0 0.0
0.0 0.0 0.0 0.0 0.0 0.0 0.0 0.0
0.0 0.0 0.0 0.0 0.0 0.0 0.0 0.0
0.0 0.0 0.0 0.0 0.0 0.0 0.0 0.0
0.0 0.0 0.0 0.0 0.0 0.0 0.0 0.0
0.0 0.0 0.0 0.0 0.0 0.0 0.0 0.0
0.0 0.0 0.0 0.0 0.0 0.0 0.0 0.0
0.0 0.0 0.0 0.0 0.0 0.0 0.0 0.0
00000000: 0000 0000 0000 0000 0000 0000 0000 0000
00000010: 0000 0000 0000 0000 0000 0000 0000 0000
00000020: 0000 0000 0000 0000 0000 0000 0000 0000
00000030: 0000 0000 0000 0000 0000 0000 0000 0000
00000040: 0000 0000 0000 0000 0000 0000 0000 0000
00000050: 0000 0000 0000 0000 0000 0000 0000 0000
00000060: 0000 0000 0000 0000 0000 0000 0000 0000
00000070: 0000 0000 0000 0000 0000 0000 0000 0000
00000080: 0000 0000 0000 0000 0000 0000 0000 0000
00000090: 0000 0000 0000 0000 0000 0000 0000 0000
000000a0: 0000 0000 0000 0000 0000 0000 0000 0000
000000b0: 0000 0000 0000 0000 0000 0000 0000 0000
000000c0: 0000 0000 0000 0000 0000 0000 0000 0000
000000d0: 0000 0000 0000 0000 0000 0000 0000 0000
000000e0: 0000 0000 0000 0000 0000 0000 0000 0000
000000f0: 0000 0000 0000 0000 0000 0000 0000 0000

exp_avg_sq f4 [1, 64]
0.0 0.0 0.0 0.0 0.0 0.0 0.0 0.0
0.0 0.0 0.0 0.0 0.0 0.0 0.0 0.0
0.0 0.0 0.0 0.0 0.0 0.0 0.0 0.0
0.0 0.0 0.0 0.0 0.0 0.0 0.0 0.0
0.0 0.0 0.0 0.0 0.0 0.0 0.0 0.0
0.0 0.0 0.0 0.0 0.0 0.0 0.0 0.0
0.0 0.0 0.0 0.0 0.0 0.0 0.0 0.0
0.0 0.0 0.0 0.0 0.0 0.0 0.0 0.0
00000000: 0000 0000 0000 0000 0000 0000 0000 0000
00000010: 0000 0000 0000 0000 0000 0000 0000 0000
00000020: 0000 0000 0000 0000 0000 0000 0000 0000
00000030: 0000 0000 0000 0000 0000 0000 0000 0000
00000040: 0000 0000 0000 0000 0000 0000 0000 0000
00000050: 0000 0000 0000 0000 0000 0000 0000 0000
00000060: 0000 0000 0000 0000 0000 0000 0000 0000
00000070: 0000 0000 0000 0000 0000 0000 0000 0000
00000080: 0000 0000 0000 0000 0000 0000 0000 0000
00000090: 0000 0000 0000 0000 0000 0000 0000 0000
000000a0: 0000 0000 0000 0000 0000 0000 0000 0000
000000b0: 0000 0000 0000 0000 0000 0000 0000 0000
000000c0: 0000 0000 0000 0000 0000 0000 0000 0000
000000d0: 0000 0000 0000 0000 0000 0000 0000 0000
000000e0: 0000 0000 0000 0000 0000 0000 0000 0000
000000f0: 0000 0000 0000 0000 0000 0000 0000 0000
