results/Test_citation/version_21/checkpoints/epoch=999-step=1000.ckpt (torch, 28113 bytes, 27 tensors)

simplicial_nn.0.W0 f4 [1, 16]
0.079719074 0.13936628 -0.8338085 0.023729809 0.04830173 -0.6215655 0.2035883 0.37101728
-0.19346103 -0.43050915 0.0723239 -0.73115957 0.53868437 -0.8027245 0.056206744 0.18686588
00000000: c143 a33d 09b6 0e3e 7974 55bf 0465 c23c
00000010: 09d8 453d eb1e 1fbf 7479 503e faf5 bd3e
00000020: a61a 46be b26b dcbe 8e1e 943d 462d 3bbf
00000030: 38e7 093f 5a7f 4dbf 0b39 663d c559 3f3e

simplicial_nn.0.W1 f4 [2, 1, 16]
0.22906348 -0.18746978 0.46171182 0.41348308 -0.11370364 -0.15912598 0.37717307 -0.042607866
-0.43871173 -0.1197685 -0.40183884 -0.46108615 -0.13979428 0.06068635 0.35801503 0.17576882
0.11475932 0.0056359135 0.30114323 -0.21611771 -0.23690821 -0.26905626 -0.34992716 -0.09938798
-0.27697292 0.1459375 -0.3126025 -0.43995726 0.019263387 -0.2989294 -0.24086155 0.3768276
00000000: 9e8f 6a3e 14f8 3fbe 7e65 ec3e 0eb4 d33e
00000010: 74dd e8bd ecf1 22be d41c c13e 9685 2ebd
00000020: d39e e0be 3049 f5bd d2bd cdbe 7c13 ecbe
00000030: 3b26 0fbe 4092 783d bf4d b73e befc 333e
00000040: ef06 eb3d 78ad b83b 722f 9a3e f64d 5dbe
00000050: 1198 72be bec1 89be a729 b3be ed8b cbbd
00000060: 65cf 8dbe a470 153e 6f0d a0be 1442 e1be
00000070: 40ce 9d3c 460d 99be 69a4 76be 8cef c03e

simplicial_nn.0.W2 f4 [2, 1, 16]
-0.45861673 -0.34971756 -0.1792751 -0.17151318 -0.14718002 -0.333498 -0.3154474 -0.33459255
0.16283335 -0.12449032 -0.090307035 -0.25926077 0.17706664 -0.10466808 0.112699926 0.2329669
0.22253494 0.1926272 -0.1993894 0.40691918 -0.42581123 0.10241258 -0.38730955 -0.45765778
-0.11891884 0.08337611 -0.46679103 -0.3304751 -0.24449974 0.37148476 -0.24767211 0.14541996
00000000: d0cf eabe 2e0e b3be e493 37be 27a1 2fbe
00000010: 5cb6 16be 40c0 aabe 5282 a1be b74f abbe
00000020: c9bd 263e c8f4 febd e5f2 b8bd d4bd 84be
00000030: f550 353e 385c d6bd 38cf e63d e08e 6e3e
00000040: 33e0 633e 1140 453e bc2c 4cbe b657 d03e
00000050: ee03 dabe b0bd d13d 704d c6be 1f52 eabe
00000060: b98b f3bd 18c1 aa3d 3cff eebe 0834 a9be
00000070: 245e 7abe 4033 be3e c29d 7dbe f8e8 143e

simplicial_nn.2.W0 f4 [16, 16]
0.033498414 0.5687203 0.52730596 0.49684435 -0.028444111 0.52303725 0.60182935 0.23743567
-0.16653518 0.51278913 -0.62834316 0.24637373 0.20421597 -0.52263397 -0.013767168 0.57509774
-0.43376815 -0.35524142 0.14460172 -0.48779967 0.22101575 0.1758356 -0.3475388 -0.11920817
-0.48107752 -0.36945486 -0.12336482 0.59598595 -0.43419188 0.36882305 0.35501945 -0.5931456
0.1963523 -0.1877431 0.17044657 -0.43178833 0.12089217 -0.31294563 -0.46674445 0.09537125
-0.25137833 -0.40658057 -0.102617085 0.29800063 -0.60495335 0.10680401 0.29392487 -0.44764674
0.49573153 0.27467775 -0.40768802 -0.12404121 0.2138778 0.5487455 -0.036316928 -0.15955831
0.013922607 -0.48092 0.4670539 -0.26743245 0.016182655 0.40758866 0.23408364 -0.08593316
-0.04668413 0.5253919 -0.35770726 -0.1543741 -0.24236965 -0.5180511 -0.0566057 -0.4057605
-0.056748796 -0.5172125 -0.6190636 0.24618055 -0.26965308 0.36218095 -0.26881418 -0.29179847
0.42551655 0.4616832 0.061784208 0.10888022 -0.24017218 -0.5931474 -0.22389635 0.5308636
0.41772598 -0.5215718 -0.43297333 0.054659963 -0.0033305883 -0.42738122 0.2623542 -0.29000136
0.39051294 0.23135357 0.38227552 0.05143332 -0.24257573 -0.4000859 0.4348563 0.22844177
0.40847138 -0.2106363 0.3582726 -0.2997018 -0.04805976 -0.1787925 -0.5199554 -0.37958837
-0.22432512 0.36466506 0.42483777 -0.0024356232 0.06247008 -0.24687953 -0.55898446 -0.06546758
0.632483 0.5273344 0.20758553 0.52172226 -0.43603125 0.06245904 0.40751603 -0.026133483
-0.35265988 -0.4693209 -0.48273516 0.47150537 -0.29470545 -0.5281448 0.18273818 -0.5120377
0.12306366 -0.054031968 -0.19453551 -0.5123383 0.031660303 0.47677422 0.290704 0.4834116
-0.04642999 -0.55700225 0.40307564 0.28424412 0.56423336 -0.46128 0.5625953 0.12721115
0.3709811 -0.3736773 0.5440472 0.02508223 0.07940042 0.23309928 -0.60247964 0.45636183
-0.41547406 0.13239363 -0.33998758 0.13450532 -0.50074327 -0.21872091 0.4386915 -0.37041566
0.35209632 -0.2537445 0.11834671 0.24597704 -0.16760924 -0.3803342 0.1625584 -0.38708276
0.2530042 0.60414547 0.011421382 0.071409464 0.5267394 -0.22277302 -0.58491045 -0.51638347
-0.27448547 0.59750634 -0.3745349 0.57327193 0.22498995 -0.30054155 0.4220031 -0.42964283
0.12229767 -0.1412053 0.4634583 0.25886947 -0.42897028 -0.48247913 -0.24533927 0.27322897
0.076397754 -0.24716309 0.12986588 -0.55619127 0.59817785 0.16722748 -0.31880125 -0.21341386
0.44171292 0.31688082 -0.086654425 0.023031771 -0.10816997 -0.35665926 -0.21917105 0.075339794
-0.5053314 0.12285179 -0.14055571 -0.18620461 0.6067237 -0.009714663 0.18615103 -0.40550703
0.5710674 0.48734578 0.08983404 0.2949579 -0.32107183 0.5504483 0.09020213 -0.41704774
0.05208146 -0.33608732 0.32069814 -0.026066829 0.35296777 -0.39654505 -0.38143766 0.5501108
-0.45524952 0.16907889 -0.42242536 -0.22167957 0.010801196 0.26395962 -0.21693364 0.44897243
0.21534614 -0.3559566 -0.095414355 -0.48793286 -0.33319876 -0.01949155 0.011226213 0.54972285
00000000: a235 093d a797 113f 86fd 063f 6262 fe3e
00000010: a003 e9bc c5e5 053f 7d11 1a3f 5622 733e
00000020: 3388 2abe 2646 033f 19db 20bf 6549 7c3e
00000030: fe1d 513e 57cb 05bf b08f 61bc 9b39 133f
00000040: dc16 debe 34e2 b5be 7912 143e e1c0 f9be
00000050: f451 623e 3f0e 343e 9bf0 b1be 6a23 f4bd
00000060: cb4f f6be 3029 bdbe b2a6 fcbd 8992 183f
00000070: 664e debe 60d6 bc3e 1cc5 b53e 64d8 17bf
00000080: 9410 493e ba3f 40be 8c89 2e3e 5c13 ddbe
00000090: 5096 f73d 693a a0be 21f9 eebe 0052 c33d
000000a0: a9b4 80be 542b d0be e828 d2bd 8a93 983e
000000b0: 39de 1abf 10bc da3d 527d 963e f431 e5be
000000c0: 86d0 fd3e 90a2 8c3e 7cbc d0be 5109 febd
000000d0: c802 5b3e 967a 0c3f 0fc1 14bd 4163 23be
000000e0: a51b 643c 253b f6be b021 ef3e e8ec 88be
000000f0: 7d91 843c 76af d03e 9fb3 6f3e b9fd afbd
00000100: dc37 3fbd 1580 063f 6825 b7be 3e14 1ebe
00000110: c02f 78be ff9e 04bf 61db 67bd d7bf cfbe
00000120: 6d71 68bd 0a68 04bf f47a 1ebf c116 7c3e
00000130: f80f 8abe c86f b93e 03a2 89be 9c66 95be
00000140: 4edd d93e be61 ec3e 7011 7d3d 98fc de3d
00000150: b2ef 75be 82d8 17bf 1645 65be ade6 073f
00000160: 2ee0 d53e bb85 05bf aeae ddbe 20e3 5f3d
00000170: 0046 5abb b6d1 dabe 4a53 863e 0f7b 94be
00000180: 50f1 c73e f3e7 6c3e 9eb9 c33e bfab 523d
00000190: c665 78be 0fd8 ccbe 7ca5 de3e a4ec 693e
000001a0: 2923 d13e 0bb1 57be 826f b73e 8472 99be
000001b0: 50da 44bd 6215 37be cc1b 05bf 6859 c2be
000001c0: 7cb5 65be 61b5 ba3e 5684 d93e fa9e 1fbb
000001d0: a0e0 7f3d fdcd 7cbe 9b19 0fbf de13 86bd
000001e0: 68ea 213f 63ff 063f 4d91 543e 978f 053f
000001f0: 7d3f dfbe 0dd5 7f3d f1a5 d03e e315 d6bc
00000200: d68f b4be d44a f0be 1029 f7be 2769 f13e
00000210: a2e3 96be 7f34 07bf b81f 3b3e e714 03bf
00000220: cd08 fc3d a050 5dbd 5134 47be 9a28 03bf
00000230: 3cae 013d c01b f43e 28d7 943e ba81 f73e
00000240: 602d 3ebd b397 0ebf ee5f ce3e 7288 913e
00000250: 9971 103f e42c ecbe 3f06 103f a443 023e
00000260: 3cf1 bd3e a252 bfbe ad46 0b3f 4079 cd3c
00000270: b09c a23d 94b1 6e3e 1b3c 1abf 42a8 e93e
00000280: 04b9 d4be 3292 073e da12 aebe c3bb 093e
00000290: b630 00bf 60f8 5fbe 2c9c e03e 1fa7 bdbe
000002a0: f845 b43e cdea 81be c35f f23d 68e1 7b3e
000002b0: c2a1 2bbe 2abb c2be b675 263e b62f c6be
000002c0: c489 813e 47a9 1a3f c020 3b3c 203f 923d
000002d0: 65d8 063f 9c1e 64be b1bc 15bf b531 04bf
000002e0: 5c89 8cbe 2df6 183f 0ac3 bfbe f3c1 123f
000002f0: c463 663e 95e0 99be ca10 d83e 25fa dbbe
00000300: 3377 fa3d 1f98 10be 684a ed3e 8a8a 843e
00000310: fea1 dbbe 8107 f7be 383a 7bbe abe4 8b3e
00000320: 6d76 9c3d 5218 7dbe 90fb 043e 8d62 0ebf
00000330: 2f22 193f ae3d 2b3e eb39 a3be 2a89 5abe
00000340: 3228 e23e 343e a23e e077 b1bd 20ad bc3c
00000350: 3888 ddbd 0b9c b6be 606e 60be c04b 9a3d
00000360: 665d 01bf b899 fb3d d6ed 0fbe 6cac 3ebe
00000370: 3f52 1b3f 402a 1fbc 609e 3e3e 9e9e cfbe
00000380: 7931 123f 6385 f93e e9fa b73d b904 973e
00000390: 8763 a4be 2eea 0c3f e5bb b83d 4887 d5be
000003a0: 5e53 553d a313 acbe 8c32 a43e 1a8a d5bc
000003b0: 31b8 b43e f407 cbbe cc4b c3be 10d4 0c3f
000003c0: 7716 e9be 0423 2d3e 2348 d8be f8ff 62be
000003d0: 80f7 303c b725 873e da23 5ebe b7df e53e
000003e0: b383 5c3e f23f b6be 9a68 c3bd 56d2 f9be
000003f0: 0799 aabe beac 9fbc 26ee 373c a3ba 0c3f

simplicial_nn.2.W1 f4 [2, 16, 16]
0.1684758 -0.108909875 -0.116122946 0.13528751 0.07764214 -0.082109615 0.21823433 0.081144385
-0.09257407 -0.17958057 -0.13204472 -0.14414097 -0.042203207 -0.05709031 -0.22229777 -0.23034884
0.13720842 -0.17878523 -0.1939901 -0.050023418 0.13717222 0.015513968 -0.031867746 -7.302382e-05
0.053335775 -0.032732118 -0.041438133 -0.20120968 0.09462257 0.19806205 -0.035402365 0.067457646
0.110225976 0.08310348 0.17620254 0.0034882277 0.07712105 -0.12086527 -0.16679667 0.15442845
0.09391019 -0.06512739 -0.01467979 -0.04335311 0.12902936 -0.16253911 -0.062152863 -0.13356249
-0.07008786 0.08382716 0.125194 0.078974806 0.07830551 0.13806596 -0.18568699 -0.10611413
-0.12296362 -0.15758456 0.01964572 0.08683871 0.1200827 0.20460026 0.08227772 0.03441693
0.09971044 0.043906897 -0.051879786 0.23390765 -0.06349476 -0.16882683 0.01605169 0.045581065
-0.1757325 -0.024280798 0.17505102 -0.019579291 -0.18399715 -0.023201896 -0.21935904 -0.11568439
0.11759108 0.079068094 -0.099814005 -0.19750427 -0.14058806 -0.13810834 0.15108547 -0.18570384
-0.18557344 0.116342604 0.20061338 0.15663263 0.17936087 -0.11872668 -0.13009591 -0.11280933
-0.034128916 -0.08664215 -0.17994885 -0.16751346 0.037706047 0.028748345 0.0629786 -0.19222383
-0.041536875 0.08897859 0.14636347 -0.0742492 0.11921292 -0.12353663 0.11729884 0.014473622
-0.165821 -0.13112858 0.037520476 0.005490344 -0.12881663 0.1638328 0.11625619 -0.15540338
0.16443516 -0.048144314 0.005895523 -0.23298614 0.17326148 0.04857939 0.12717041 0.16569851
-0.28481284 -0.11441225 -0.107530504 0.12472413 -0.18839471 -0.0340463 0.10579551 0.012636453
-0.13158037 0.15678647 0.20174645 0.1907355 -0.066986255 -0.10721843 0.0775206 -0.30124474
0.18904403 -0.041804403 -0.13090518 -0.13290408 -0.18998066 -0.040279865 0.11712846 -0.06229721
0.020834923 0.07529554 -0.07790393 -0.12540534 -0.01001589 0.12964314 -0.18803205 0.14183778
-0.038779907 -0.037840776 -0.014698713 0.0358539 0.12894475 -0.18433216 0.15696476 0.16854152
0.026554372 0.12862028 0.03467566 -0.16621196 0.018028617 -0.051026054 0.04707589 0.13036922
-0.0075181425 -0.17608735 0.15782902 -0.14428824 -0.19714326 0.14030612 0.083690375 -0.026681334
0.05335012 0.1532431 0.093758136 -0.15376116 0.03557296 0.20285314 0.11833441 0.046450973
-0.1842112 0.11440442 -0.05043726 0.05336583 -0.08421767 -0.15141419 0.04820728 0.110853195
-0.036896504 0.09775869 -0.030114502 -0.07823949 -0.089806974 -0.062049463 -0.18308654 0.14865546
0.022377938 -0.037214577 0.076984644 0.12824729 0.092722654 0.15053806 -0.01379624 -0.19193643
0.16856769 0.17252123 0.04014401 0.10430995 -0.15315562 -0.020378202 -0.03263195 0.00040122867
0.03239311 0.027622623 -0.09365785 0.07356468 0.0028856099 -0.20085888 0.1438142 0.12923364
0.12822771 -0.06576435 -0.075366765 0.030172694 0.033110302 -0.13273582 -0.14659308 0.103354245
-0.07497622 -0.06842075 0.13399757 -0.14216529 0.035246804 -0.098229475 -0.14409122 0.04065899
-0.13684233 0.13990767 -0.028219335 -0.22223395 0.20435627 -0.15637566 -0.04462637 -0.111024305
00000000: ec84 2c3e 240c dfbd ded1 edbd cf88 0a3e
00000010: d802 9f3d 1629 a8bd d278 5f3e 072f a63d
00000020: 7997 bdbd f8e3 37be bb36 07be b199 13be
00000030: 45dd 2cbd 87d7 69bd 07a2 63be 91e0 6bbe
00000040: 5d80 0c3e 7a13 37be 57a5 46be 5be5 4cbd
00000050: e076 0c3e 4c2e 7e3c c187 02bd 5d24 99b8
00000060: 9d76 5a3d 1d12 06bd 08bb 29bd e909 4ebe
00000070: 7ac9 c13d c7d0 4a3e 1202 11bd 3c27 8a3d
00000080: 28be e13d 2832 aa3d 706e 343e c09a 643b
00000090: a4f1 9d3d 3688 f7bd bfcc 2abe 7e22 1e3e
000000a0: fc53 c03d 8261 85bd 8083 70bc 0893 31bd
000000b0: 4620 043e a770 26be 0094 7ebd 9bc4 08be
000000c0: 398a 8fbd 93ad ab3d db32 003e 8bbd a13d
000000d0: a45e a03d 2a61 0d3e bb24 3ebe 5d52 d9bd
000000e0: 5ad4 fbbd d95d 21be 10f0 a03c 7ed8 b13d
000000f0: ebed f53d bb82 513e 3981 a83d c4f8 0c3d
00000100: fd34 cc3d b8d7 333d e67f 54bd 7d85 6f3e
00000110: 8a09 82bd f1e0 2cbe d57e 833c 36b3 3a3d
00000120: 38f3 33be 86e8 c6bc 9340 333e c064 a0bc
00000130: c069 3cbe e711 bebc a89f 60be f0eb ecbd
00000140: 98d3 f03d 74ee a13d 496b ccbd 8f3e 4abe
00000150: 51f6 0fbe 466c 0dbe 26b6 1a3e 2629 3ebe
00000160: f706 3ebe 0845 ee3d 986d 4d3e 4e64 203e
00000170: 60aa 373e f926 f3bd dd37 05be 9408 e7bd
00000180: c3ca 0bbd 7171 b1bd 8344 38be a688 2bbe
00000190: a871 1a3d a681 eb3c edfa 803d 53d6 44be
000001a0: 9222 2abd 683a b63d 4ee0 153e f70f 98bd
000001b0: e725 f43d c600 fdbd 603a f03d c522 6d3c
000001c0: fbcc 29be 9246 06be 12af 193d 58e8 b33b
000001d0: 82e8 03be c9c3 273e ba17 ee3d 1022 1fbe
000001e0: b161 283e f932 45bd 3b2f c13b eb93 6ebe
000001f0: 756b 313e 2ffb 463d f638 023e dfac 293e
00000200: fdd2 91be f850 eabd f438 dcbd 5d6f ff3d
00000210: 8bea 40be 2274 0bbd 51ab d83d 2009 4f3c
00000220: 01bd 06be a28c 203e 9f96 4e3e 2b50 433e
00000230: 1730 89bd 5695 dbbd 1fc3 9e3d c03c 9abe
00000240: c294 413e 183b 2bbd 020c 06be 0218 08be
00000250: 4a8a 42be 80fc 24bd 0ce1 ef3d 5c2b 7fbd
00000260: 00ae aa3c 8c34 9a3d 188c 9fbd 426a 00be
00000270: b019 24bc 2cc1 043e 798b 40be ec3d 113e
00000280: aed7 1ebd eefe 1abd dfd2 70bc 8adb 123d
00000290: 180a 043e 92c1 3cbe 5fbb 203e 2696 2c3e
000002a0: 8e88 d93c 09b5 033e 1108 0e3d 7833 2abe
000002b0: c0b0 933c b200 51bd a6d2 403d 827f 053e
000002c0: c05a f6bb 3e50 34be ee9d 213e 4cc0 13be
000002d0: ecdf 49be 68ac 0f3e dc65 ab3d d092 dabc
000002e0: a885 5a3d c2eb 1c3e 4404 c03d 9173 1dbe
000002f0: f4b4 113d bcb8 4f3e 5059 f23d 6043 3e3d
00000300: dca1 3cbe dd4c ea3d 4d97 4ebd 2196 5a3d
00000310: 507a acbd 520c 1bbe ff74 453d 0007 e33d
00000320: ca20 17bd b535 c83d b0b2 f6bc 073c a0bd
00000330: b8ec b7bd 9427 7ebd 0a7b 3bbe 2339 183e
00000340: f051 b73c 506e 18bd 20aa 9d3d 4253 033e
00000350: 60e5 bd3d a626 1a3e a009 62bc fc8a 44be
00000360: 029d 2c3e 68a9 303e 0c6e 243d 74a0 d53d
00000370: d4d4 1cbe 30f0 a6bc 14a9 05bd 005c d239
00000380: a3ae 043d d748 e23c b0cf bfbd 14a9 963d
00000390: 801c 3d3b f3ad 4dbe 0844 133e d355 043e
000003a0: 204e 033e 76af 86bd e459 9abd ba2c f73c
000003b0: ab9e 073d e6eb 07be 7f1c 16be 64ab d33d
000003c0: 228d 99bd 2e20 8cbd a936 093e c793 11be
000003d0: f45e 103d 892c c9bd a68c 13be 0b8a 263d
000003e0: 6520 0cbe f543 0f3e 3c2c e7bc 4c91 63be
000003f0: c542 513e f120 20be 24ca 36bd b660 e3bd

simplicial_nn.2.W2 f4 [2, 16, 16]
-0.20788202 0.049081475 0.18684657 0.07813519 -0.019772813 0.28923997 -0.10022214 0.19243829
-0.089564785 0.13982993 0.12528011 0.11199401 -0.008964222 -0.12590353 0.1138268 0.039864097
-0.23566265 0.008027685 -0.12791935 -0.0070928484 0.14569339 0.1813003 0.12850502 0.06587878
0.120297104 -0.15451078 0.09525405 0.139959 -0.21034764 -0.0997678 -0.17885362 -0.16885382
-0.031836748 -0.070007 -0.017312065 -0.17729539 0.1173144 0.11176023 -0.17928712 0.17066792
0.022667572 0.19522339 -0.20036553 0.008331105 -0.2032471 -0.15821113 0.006982982 -0.1321257
-0.05650474 -0.074407674 -0.10050125 -0.04487155 -0.17207855 -0.058073193 -0.10180801 -0.113706045
0.10991801 -0.12516257 -0.19623013 -0.09658678 -0.18937919 -0.1745689 0.10371363 0.061525512
-0.18870085 0.17958614 -0.056324918 0.03156154 -0.11008553 0.21218123 -0.10566652 -0.019707749
-0.04799674 0.17489453 -0.13177238 0.027598374 0.056284606 -0.07808248 0.079370715 -0.1545183
0.113725215 0.116999835 -0.040319353 -0.10433013 -0.107682064 -0.025248706 0.06881064 -0.09310601
-0.07564634 0.14899373 -0.09071534 -0.05606009 -0.05868329 0.14379254 -0.14413717 0.16382477
0.089291364 -0.08122539 0.13814604 -0.009517664 -0.11398194 0.22234169 0.084464036 -0.1891329
-0.03333586 -0.20333567 -0.08728327 0.15477508 -0.103742726 0.060054988 -0.00093396177 0.10890506
0.032681152 -0.024241261 0.1250938 -0.14271621 0.05368069 -0.068410404 0.02432691 0.08278776
-0.08730952 -0.070045136 0.0042368453 0.026174417 0.1392517 -0.106141314 -0.0025808075 -0.016032835
0.19037935 0.08114133 -0.030771414 0.13275011 0.057418227 0.08494264 -0.1493918 0.122361235
-0.13724251 -0.06439969 -0.16955812 -0.018569754 0.027982542 0.23580064 -0.08130612 0.054421704
-0.02687481 -0.16868132 0.040197626 -0.08886785 0.19670686 -0.03210622 0.14998299 -0.031975523
0.14702412 0.09965786 0.20163846 -0.17703116 -0.15643911 0.06474987 0.066885054 0.11868709
0.039511986 0.08942166 -0.106479906 -0.005408809 -0.10840244 0.25535706 0.055657666 0.09586152
-0.18013138 -0.16089392 -0.20895414 0.1377955 -0.20837344 -0.11411261 -0.22238015 -0.18992008
0.1314477 -0.021747276 -0.18412773 0.16587546 -0.077086374 0.050970048 0.13117388 0.06340289
0.12861592 0.09472963 0.03293176 0.13233447 -0.0020020902 0.2013984 -0.05802685 -0.20094177
0.12318126 -0.052788254 -0.08425963 -0.031368095 -0.0475488 0.15131265 -0.047336925 0.074777916
-0.058121312 0.090869874 -0.104129806 0.08573395 -0.20821844 0.21727368 -0.12511204 -0.11201064
0.034118608 -0.123801306 -0.19015577 0.016187444 0.04738915 -0.14787655 0.09818396 0.18473592
-0.026114687 -0.10731011 -0.17162135 -0.07212913 0.019333616 -0.15976556 0.19358218 -0.08107981
0.023478348 0.13084881 -0.046628967 0.1765558 0.09476942 -0.062274877 -0.13908805 0.1198956
0.043874312 -0.15926026 -0.23317353 0.1365629 0.0028681294 -0.007941975 -0.108972915 0.13782537
-0.08240388 -0.12914732 -0.10017867 0.0872292 0.13425669 0.08558058 0.16328052 -0.034037877
0.019509543 0.029937167 -0.06554444 0.07356499 0.114093356 0.10576456 -0.15561563 -0.09651906
00000000: 06df 54be a809 493d b554 3f3e 5805 a03d
00000010: 98fa a1bc 4317 943e 4441 cdbd 8b0e 453e
00000020: be6d b7bd 942f 0f3e 6e49 003e 1e5d e53d
00000030: acde 12bc dbec 00be 061e e93d 8948 233d
00000040: 8d51 71be 8d86 033c 4afd 02be 206b e8bb
00000050: a630 153e c9a6 393e d296 033e 74eb 863d
00000060: 545e f63d 1338 1ebe 8e14 c33d 6951 0f3e
00000070: 5f65 57be 0f53 ccbd 6725 37be 04e8 2cbe
00000080: 4067 02bd d45f 8fbd 08d2 8dbc ec8c 35be
00000090: 8842 f03d 8ce2 e43d 0b97 37be 92c3 2e3e
000000a0: 58b1 b93c a4e8 473e 9f2c 4dbe 307f 083c
000000b0: 0220 50be 1902 22be 80d1 e43b f64b 07be
000000c0: 8471 67bd 0d63 98bd 99d3 cdbd 3bcb 37bd
000000d0: 5c35 30be 28de 6dbd b880 d0bd b7de e8bd
000000e0: b21c e13d 9e2a 00be 8df0 48be 4acf c5bd
000000f0: 9eec 41be 31c2 32be d067 d43d 2d02 7c3d
00000100: cc3a 41be 6ee5 373e f5b4 66bd ac46 013d
00000110: 8674 e1bd 0946 593e b067 d8bd 2572 a1bc
00000120: 3b98 44bd 8d17 333e 57ef 06be fc15 e23c
00000130: b08a 663d b5e9 9fbd 1d8d a23d 0c3a 1ebe
00000140: c4e8 e83d 9c9d ef3d e825 25bd 09ab d5bd
00000150: 6a88 dcbd 60d6 cebc 98ec 8c3d 5dae bebd
00000160: 78ec 9abd d091 183e f7c8 b9bd 449f 65bd
00000170: e45d 70bd 5a3e 133e b298 13be aec1 273e
00000180: 64de b63d 7f59 a6bd 2876 0d3e faef 1bbc
00000190: 5d6f e9bd 8aad 633e 7bfb ac3d 0eac 41be
000001a0: 2f8b 08bd 3a37 50be 92c1 b2bd 5c7d 1e3e
000001b0: 1177 d4bd 38fc 753d 1dd5 74ba 9e09 df3d
000001c0: acdc 053d 9c95 c6bc 9718 003e 3324 12be
000001d0: 48e0 5b3d c11a 8cbd 3a49 c73c a18c a93d
000001e0: 55cf b2bd d373 8fbd 3cd5 8a3b bb6b d63c
000001f0: ff97 0e3e 9e60 d9bd c422 29bb 4b57 83bc
00000200: cef2 423e 6d2d a63d 5514 fcbc a5ef 073e
00000210: 602f 6b3d 68f6 ad3d 2afa 18be 8798 fa3d
00000220: 4d89 0cbe fce3 83bd a5a0 2dbe 991f 98bc
00000230: a53b e53c b975 713e d383 a6bd 4be9 5e3d
00000240: 9028 dcbc ccba 2cbe 44a6 243d 5900 b6bd
00000250: 866d 493e d081 03bd 2495 193e c4f8 02bd
00000260: 7e8d 163e 6c19 cc3d 507a 4e3e a847 35be
00000270: 9331 20be 949b 843d 08fb 883d 3812 f33d
00000280: 52d7 213d b422 b73d 2312 dabd 613c b1bb
00000290: 1902 debd 29be 823e 4bf9 633d 0b53 c43d
000002a0: 5c74 38be 60c1 24be 13f8 55be 431a 0d3e
000002b0: d95f 55be dfb3 e9bd 9fb7 63be 697a 42be
000002c0: 3a9a 063e 5827 b2bc fb8b 3cbe 42db 293e
000002d0: 76df 9dbd f8c5 503d 7252 063e 60d9 813d
000002e0: e4b3 033e 9c01 c23d 74e3 063d b082 073e
000002f0: 8035 03bb 623b 4e3e 90ad 6dbd aec3 4dbe
00000300: 7546 fc3d 7f38 58bd 5090 acbd d57b 00bd
00000310: 88c2 42bd b4f1 1a3e 5de4 41bd 2a25 993d
00000320: 9d10 6ebd fc19 ba3d 0242 d5bd 4895 af3d
00000330: 3737 55be fe7c 5e3e 5f1d 00be d665 e5bd
00000340: f4bf 0b3d 8a8b fdbd 32b8 42be 889b 843c
00000350: 201b 423d f36c 17be ac14 c93d 6a2b 3d3e
00000360: 78ee d5bc 67c5 dbbd 82bd 2fbe 70b8 93bd
00000370: 8861 9e3c 9599 23be 683a 463e 2c0d a6bd
00000380: aa55 c03c 3bfd 053e 04fe 3ebd 0bcb 343e
00000390: 7816 c23d f113 7fbd 196d 0ebe d38b f53d
000003a0: 8db5 333d 1f15 23be 0bc5 6ebe 25d7 0b3e
000003b0: 3af7 3b3b 0f1f 02bc 312d dfbd 1822 0d3e
000003c0: 5ec3 a8bd 323f 04be 792a cdbd 39a5 b23d
000003d0: 967a 093e df44 af3d 0233 273e 4d6b 0bbd
000003e0: 7ad2 9f3c ca3e f53c 2a3c 86bd 3ea9 963d
000003f0: c7a9 e93d 179b d83d b459 1fbe c9ab c5bd

simplicial_nn.4.W0 f4 [16, 1]
0.12005233 0.35969087 0.43117255 -0.81448543 0.7949986 0.6970812 0.4537472 -0.4523068
0.09538534 -0.2740777 -0.053671006 0.33499867 0.5488888 -0.29310375 -0.70568943 0.19671802
00000000: ffdd f53d 6729 b83e a6c2 dc3e 1e82 50bf
00000010: 0785 4b3f ea73 323f 8e51 e83e c294 e7be
00000020: 6459 c33d ea53 8cbe 21d6 5bbd f284 ab3e
00000030: fa83 0c3f b211 96be 10a8 34bf 7370 493e

simplicial_nn.4.W1 f4 [2, 16, 1]
-0.0031146326 -0.26717407 0.0005816916 0.22208814 -0.10615653 0.6406185 0.80964226 -0.4133915
-0.30007252 -0.31116724 0.4734378 0.07110767 0.74572796 -0.72056603 0.14471927 0.30097187
-0.034711473 -0.5484117 -0.29715014 -0.29864943 -0.5379453 0.66607165 0.552664 -0.39025503
0.4667772 0.26885942 -0.70725787 0.4257023 0.54907864 0.18719503 -0.38589942 -0.7371641
00000000: dd1e 4cbb 0acb 88be aa7c 183a 136b 633e
00000010: 9868 d9bd 93ff 233f b744 4f3f 0da8 d3be
00000020: 1ba3 99be 5051 9fbe 7066 f23e e6a0 913d
00000030: 07e8 3e3f 0477 38bf 4a31 143e fc18 9a3e
00000040: 9e2d 0ebd b664 0cbf 1024 98be 94e8 98be
00000050: c8b6 09bf ac83 2a3f 637b 0d3f 82cf c7be
00000060: 6cfd ee3e f1a7 893e da0e 35bf a7f5 d93e
00000070: 6b90 0c3f 0eb0 3f3e 9c94 c5be c9b6 3cbf

simplicial_nn.4.W2 f4 [2, 16, 1]
-0.33524233 0.5602692 0.11626723 0.7763998 0.65149844 0.45416743 0.1146317 0.085163146
-0.23479214 -0.4090984 0.44477144 0.97255623 0.46336368 0.7495516 0.3125533 0.36419544
0.24833924 -0.22853819 -0.2159633 -0.283146 0.006435156 0.5887865 -0.52247304 0.26785722
0.72100645 -0.71422154 0.66466475 -0.5248216 0.18152784 -0.23665373 -0.58339 0.46352756
00000000: e2a4 abbe cd6d 0f3f 831d ee3d 23c2 463f
00000010: 9ac8 263f a288 e83e 06c4 ea3d 046a ae3d
00000020: 5a6d 70be 5875 d1be 15b9 e33e 72f9 783f
00000030: 013e ed3e 9de2 3f3f fc06 a03e d377 ba3e
00000040: a44c 7e3e ea05 6abe 7c25 5dbe 83f8 90be
00000050: 00de d23b b6ba 163f cbc0 05bf 9524 893e
00000060: e193 383f 39d7 36bf 7827 2a3f b55a 06bf
00000070: 6fe2 393e 5b55 72be 0c59 15bf 7c53 ed3e

exp_avg f4 [1, 16]
-0.437155 0.10668356 0.0 0.05810648 -0.117642395 0.0 -0.35734844 -0.25195706
0.00055194896 0.0 -0.0022449493 0.0 -0.26559836 0.0 -1.1319472 0.72487277
00000000: c8d2 dfbe e97c da3d 0000 0000 0f01 6e3d
00000010: 7fee f0bd 0000 0000 60f6 b6be 8400 81be
00000020: abb0 103a 0000 0000 0020 13bb 0000 0000
00000030: 82fc 87be 0000 0000 a5e3 90bf 4391 393f

exp_avg_sq f4 [1, 16]
1.4949499 0.08904919 0.0 0.05429291 0.152612 0.0 1.0131344 0.5219633
9.645299e-05 0.0 0.015414047 0.0 0.6049013 0.0 10.303917 4.038039
00000000: 855a bf3f 6c5f b63d 0000 0000 3e62 5e3d
00000010: 5246 1c3e 0000 0000 63ae 813f 639f 053f
00000020: ce46 ca38 0000 0000 338b 7c3c 0000 0000
00000030: d0da 1a3f 0000 0000 d8dc 2441 9e37 8140

exp_avg f4 [2, 1, 16]
-0.024833115 0.0030521494 0.0 -0.0032674624 -0.0023161185 0.0 -0.02755217 -0.017694158
0.0002769889 0.0 -0.0037886526 0.0 -0.018968122 0.0 -0.08215889 0.048101924
-0.003933024 -0.0014475972 0.0 -0.0052890033 0.0016903422 0.0 -0.0069089304 -0.004490169
-0.0013515097 0.0 -0.0021769663 0.0 -0.004992838 0.0 -0.018063173 0.008293198
00000000: d16e cbbc 9206 483b 0000 0000 ec22 56bb
00000010: 05ca 17bb 0000 0000 17b5 e1bc 57f3 90bc
00000020: d238 9139 0000 0000 0b4b 78bb 0000 0000
00000030: 0963 9bbc 0000 0000 ec42 a8bd 8606 453d
00000040: 99e0 80bb 4dbd bdba 0000 0000 604f adbb
00000050: 798e dd3a 0000 0000 4f64 e2bb 4522 93bb
00000060: 2425 b1ba 0000 0000 6fab 0ebb 0000 0000
00000070: f69a a3bb 0000 0000 38f9 93bc 32e0 073c

exp_avg_sq f4 [2, 1, 16]
0.011988258 0.0013308816 0.0 0.024437493 0.00064557703 0.0 0.010698122 0.004679254
9.4472554e-05 0.0 0.0005049409 0.0 0.01195376 0.0 0.14739425 0.039905198
0.0030463224 0.0010405278 0.0 0.013510008 0.00046731107 0.0 0.002782638 0.0015139001
1.1948435e-05 0.0 0.0003360994 0.0 0.0036929771 0.0 0.03651001 0.0072800745
00000000: 666a 443c fa70 ae3a 0000 0000 2331 c83c
00000010: f13b 293a 0000 0000 2d47 2f3c 6d54 993b
00000020: 911f c638 0000 0000 035e 043a 0000 0000
00000030: b4d9 433c 0000 0000 85ee 163e a273 233d
00000040: cfa4 473b 5262 883a 0000 0000 1559 5d3c
00000050: 6e01 f539 0000 0000 eb5c 363b 0f6e c63a
00000060: 2376 4837 0000 0000 7f36 b039 0000 0000
00000070: e005 723b 0000 0000 858b 153d b18d ee3b

exp_avg f4 [2, 1, 16]
-0.011374244 0.0028073173 0.0 0.0009525997 -0.0053319302 0.0 -0.0078086364 -0.0072209714
-0.00082932645 0.0 0.0013224327 0.0 -0.005751495 0.0 -0.023689266 0.015753211
-0.00093439943 0.00026049142 0.0 7.390511e-05 -0.00041959505 0.0 -0.0006326766 -0.0005630228
-0.000115308656 0.0 0.00012072639 0.0 -0.00049561786 0.0 -0.0019379136 0.00127543
00000000: 095b 3abc f8fa 373b 0000 0000 e2b7 793a
00000010: 79b7 aebb 0000 0000 97df ffbb e69d ecbb
00000020: 2867 59ba 0000 0000 7a55 ad3a 0000 0000
00000030: 0977 bcbb 0000 0000 fe0f c2bc e10c 813c
00000040: 7cf2 74ba 9192 8839 0000 0000 81fd 9a38
00000050: 18fd dbb9 0000 0000 35da 25ba d297 13ba
00000060: ddd1 f1b8 0000 0000 7d2e fd38 0000 0000
00000070: 5aec 01ba 0000 0000 9701 feba 542c a73a

exp_avg_sq f4 [2, 1, 16]
0.0011822355 8.5162275e-05 0.0 2.6209238e-05 0.00034581186 0.0 0.00067451544 0.0006367081
1.1733215e-05 0.0 3.238191e-05 0.0 0.0003918706 0.0 0.005791956 0.0026217112
7.481669e-06 5.774442e-07 0.0 1.5469836e-07 2.188808e-06 0.0 4.3023006e-06 4.096239e-06
8.474398e-08 0.0 2.1323675e-07 0.0 2.5059385e-06 0.0 3.6790352e-05 1.6675776e-05
00000000: 3ef5 9a3a 2699 b238 0000 0000 e9db db37
00000010: 154e b539 0000 0000 f7d1 303a c2e8 263a
00000020: c6d9 4437 0000 0000 d0d1 0738 0000 0000
00000030: fb73 cd39 0000 0000 73ca bd3b 04d1 2b3b
00000040: 0c0b fb36 aa01 1b35 0000 0000 291b 2634
00000050: 6fe3 1236 0000 0000 7b5c 9036 6d72 8936
00000060: 7ffc b533 0000 0000 12f6 6434 0000 0000
00000070: b22b 2836 0000 0000 574f 1a38 f5e2 8b37

exp_avg f4 [16, 16]
-0.0004961502 -0.12162239 -0.15602358 0.290534 0.0 -0.000119308526 6e-45 0.1821883
-0.028072504 6e-45 0.007737109 6.3301926e-11 -0.23360813 0.11885117 4.5e-44 -0.00063256716
-0.00030801102 -0.19946773 -0.24647534 0.451621 0.0 -2.3234474e-05 6e-45 0.27573848
-0.043256868 6e-45 0.010945931 -0.0005087595 -0.35513443 0.18349561 -0.00038118009 -0.00017664953
0.0 0.0 0.0 0.0 0.0 0.0 0.0 0.0
0.0 0.0 0.0 0.0 0.0 0.0 0.0 0.0
-0.00034524256 -0.049653582 -0.06337202 0.117492765 0.0 -4.610095e-05 6e-45 0.07297343
-0.011008509 6e-45 0.0027898971 0.0 -0.09291631 0.04841797 1.1e-44 -0.0002938928
-7.9663376e-05 -0.06372779 -0.07672777 0.13894764 0.0 -1.269293e-39 6e-45 0.08242475
-0.012988858 0.0 0.0029102904 -0.0005323284 -0.10654282 0.055449042 -0.0002539362 2.1374169e-07
0.0 0.0 0.0 0.0 0.0 0.0 0.0 0.0
0.0 0.0 0.0 0.0 0.0 0.0 0.0 0.0
-0.0007891015 -0.31721026 -0.39390448 0.7228927 0.0 -8.017934e-05 6e-45 0.44231686
-0.06886298 6e-45 0.017229553 -0.0005349242 -0.5669817 0.29433578 -8.182585e-05 -0.0005955983
-0.00095377746 -0.5554129 -0.6884257 1.2630332 0.0 -0.0001170966 6e-45 0.77345747
-0.121107414 6e-45 0.030678391 -0.001208491 -0.99498683 0.51260436 -0.00059538125 -0.0008694247
6e-45 -0.00010890293 -5.905404e-05 9.225485e-05 0.0 0.0 6e-45 -0.00029978578
-3.0035942e-05 0.0 3.831323e-05 -0.0003253146 1.1634349e-05 -7.863931e-05 -0.0001986449 0.0
0.0 0.0 0.0 0.0 0.0 0.0 0.0 0.0
0.0 0.0 0.0 0.0 0.0 0.0 0.0 0.0
-8.45787e-06 -0.08971422 -0.10670412 0.19217476 0.0 0.0 6e-45 0.11312442
-0.01801199 0.0 0.0038748889 -0.0010607425 -0.14776461 0.075327374 -0.00055677147 7.3228154e-36
0.0 0.0 0.0 0.0 0.0 0.0 0.0 0.0
0.0 0.0 0.0 0.0 0.0 0.0 0.0 0.0
-0.0011530201 -0.81741947 -1.012524 1.8574188 0.0 -0.00017382209 6e-45 1.1383357
-0.17862521 6e-45 0.04530867 -0.0018944773 -1.4659274 0.7520401 -0.00081449497 -0.001362606
0.0 0.0 0.0 0.0 0.0 0.0 0.0 0.0
0.0 0.0 0.0 0.0 0.0 0.0 0.0 0.0
-0.00031007038 -0.10032783 -0.12477855 0.22903349 0.0 -3.449178e-05 6e-45 0.14036155
-0.021730514 6e-45 0.0053234585 -0.000111468566 -0.1792252 0.09312743 1e-44 -0.00028852947
-0.00056214974 -0.2991217 -0.37720162 0.697623 0.0 -0.0001933107 6e-45 0.4343111
-0.067884706 6e-45 0.018099027 -0.00022494586 -0.55890185 0.28212327 4.5885652e-05 -0.0011814536
00000000: 1410 02ba 2915 f9bd a5c4 1fbe dfc0 943e
00000010: 0000 0000 4735 fab8 0400 0000 928f 3a3e
00000020: 4ff8 e5bc 0400 0000 9387 fd3b d133 8b2e
00000030: f836 6fbe 3e68 f33d 2000 0000 ddd2 25ba
00000040: 8a7c a1b9 4541 4cbe 0864 7cbe de3a e73e
00000050: 0000 0000 a7e7 c2b7 0400 0000 982d 8d3e
00000060: 1d2e 31bd 0400 0000 9056 333c 465e 05ba
00000070: 2ed4 b5be 46e6 3b3e 20d9 c7b9 ff3a 39b9
00000080: 0000 0000 0000 0000 0000 0000 0000 0000
00000090: 0000 0000 0000 0000 0000 0000 0000 0000
000000a0: 0000 0000 0000 0000 0000 0000 0000 0000
000000b0: 0000 0000 0000 0000 0000 0000 0000 0000
000000c0: ac01 b5b9 8e61 4bbd 31c9 81bd 0ca0 f03d
000000d0: 0000 0000 855c 41b8 0400 0000 1873 953d
000000e0: 095d 34bc 0400 0000 b5d6 363b 0000 0000
000000f0: e84a bebd ec51 463d 0800 0000 a015 9ab9
00000100: f310 a7b8 b783 82bd 7323 9dbd 4a48 0e3e
00000110: 0000 0000 46d2 0d80 0400 0000 4fce a83d
00000120: 38cf 54bc 0000 0000 92ba 3e3b f48b 0bba
00000130: 1f33 dabd 891e 633d bd22 85b9 de80 6534
00000140: 0000 0000 0000 0000 0000 0000 0000 0000
00000150: 0000 0000 0000 0000 0000 0000 0000 0000
00000160: 0000 0000 0000 0000 0000 0000 0000 0000
00000170: 0000 0000 0000 0000 0000 0000 0000 0000
00000180: b5db 4eba 6269 a2be d9ad c9be 7f0f 393f
00000190: 0000 0000 f525 a8b8 0400 0000 5b77 e23e
000001a0: 0908 8dbd 0400 0000 fe24 8d3c 283a 0cba
000001b0: b625 11bf 2eb3 963e eb99 abb8 ed21 1cba
000001c0: ec06 7aba 8a2f 0ebf ab3c 30bf 12ab a13f
000001d0: 0000 0000 c291 f5b8 0400 0000 4f01 463f
000001e0: 2a07 f8bd 0400 0000 4051 fb3c 3b66 9eba
000001f0: 75b7 7ebf 0a3a 033f 5c13 1cba 1bea 63ba
00000200: 0400 0000 d162 e4b8 cbb0 77b8 f278 c138
00000210: 0000 0000 0000 0000 0400 0000 912c 9db9
00000220: b2f5 fbb7 0000 0000 84b2 2038 fd8e aab9
00000230: 2631 4337 28eb a4b8 564b 50b9 0000 0000
00000240: 0000 0000 0000 0000 0000 0000 0000 0000
00000250: 0000 0000 0000 0000 0000 0000 0000 0000
00000260: 0000 0000 0000 0000 0000 0000 0000 0000
00000270: 0000 0000 0000 0000 0000 0000 0000 0000
00000280: 46e6 0db7 17bc b7bd b187 dabd 76c9 443e
00000290: 0000 0000 0000 0000 0400 0000 c7ad e73d
000002a0: e18d 93bc 0000 0000 d9f1 7d3b 9d08 8bba
000002b0: 9b4f 17be 3d45 9a3d 4df4 11ba 33bd 1b05
000002c0: 0000 0000 0000 0000 0000 0000 0000 0000
000002d0: 0000 0000 0000 0000 0000 0000 0000 0000
000002e0: 0000 0000 0000 0000 0000 0000 0000 0000
000002f0: 0000 0000 0000 0000 0000 0000 0000 0000
00000300: ef20 97ba 6742 51bf 639a 81bf e6bf ed3f
00000310: 0000 0000 0344 36b9 0400 0000 fcb4 913f
00000320: 87e9 36be 0400 0000 9595 393d 1c50 f8ba
00000330: 82a3 bbbf b385 403f d583 55ba 7899 b2ba
00000340: 0000 0000 0000 0000 0000 0000 0000 0000
00000350: 0000 0000 0000 0000 0000 0000 0000 0000
00000360: 0000 0000 0000 0000 0000 0000 0000 0000
00000370: 0000 0000 0000 0000 0000 0000 0000 0000
00000380: f190 a2b9 ad78 cdbd e58b ffbd c187 6a3e
00000390: 0000 0000 44ab 10b8 0400 0000 f0ba 0f3e
000003a0: 3104 b2bc 0400 0000 6870 ae3b 3bc4 e9b8
000003b0: d086 37be 98b9 be3d 0700 0000 c545 97b9
000003c0: 3b5d 13ba 7b26 99be 9220 c1be 6c97 323f
000003d0: 0000 0000 72b3 4ab9 0400 0000 065e de3e
000003e0: 2307 8bbd 0400 0000 6944 943c 72df 6bb9
000003f0: 3114 0fbf 7672 903e 5875 4038 01db 9aba

exp_avg_sq f4 [16, 16]
5.9694426e-05 0.113780074 0.20147082 0.7132228 0.0 0.0028891414 2.4386704e-09 0.32356685
0.007399076 1.5916714e-07 0.00072971784 3.796733e-09 0.55372024 0.11234745 5.7784073e-05 7.197971e-05
4.8406855e-05 0.3040304 0.46928605 1.5729156 0.0 0.00057636393 5.0014326e-09 0.6057278
0.01522833 7.2654602e-09 0.0010185025 1.813582e-06 1.0054532 0.25750104 1.3717826e-05 2.5884474e-05
0.0 0.0 0.0 0.0 0.0 0.0 0.0 0.0
0.0 0.0 0.0 0.0 0.0 0.0 0.0 0.0
1.1019822e-05 0.027880851 0.047360007 0.16339219 0.0 0.00035432156 1.4208682e-09 0.068684295
0.0015460075 1.742583e-09 0.000102736056 0.0 0.11531871 0.027279658 3.042271e-06 1.835453e-05
3.9584415e-06 0.030751446 0.044144157 0.1439913 0.0 2.3224228e-10 1.8825238e-08 0.0515495
0.0013502964 0.0 0.00010077885 1.5255101e-06 0.08406297 0.022892777 3.6119158e-07 2.4925802e-08
0.0 0.0 0.0 0.0 0.0 0.0 0.0 0.0
0.0 0.0 0.0 0.0 0.0 0.0 0.0 0.0
0.00022908808 0.7676043 1.1993932 4.037656 0.0 0.0011370693 2.7567639e-08 1.5668018
0.03845789 4.798046e-08 0.002464029 1.2510576e-06 2.5994124 0.6581035 2.8837141e-05 0.00010651868
0.00059986726 2.3573925 3.6697006 12.343007 0.0 0.004542848 5.529165e-08 4.80985
0.119792506 1.4850453e-07 0.00801719 8.807433e-06 8.007758 1.9941685 0.00011560107 0.0002611739
3.4000006e-15 7.405197e-07 1.4282489e-06 5.1467505e-06 0.0 0.0 3.0934135e-08 5.998653e-07
5.994757e-08 0.0 9.265208e-09 1.0388908e-06 6.3133746e-07 1.4127118e-06 2.449663e-07 0.0
0.0 0.0 0.0 0.0 0.0 0.0 0.0 0.0
0.0 0.0 0.0 0.0 0.0 0.0 0.0 0.0
2.3917793e-05 0.072161816 0.10116881 0.3274755 0.0 0.0 6.298583e-08 0.11657902
0.0031550848 0.0 0.00025752996 7.5302464e-06 0.1907952 0.049137466 2.162057e-06 8.431841e-09
0.0 0.0 0.0 0.0 0.0 0.0 0.0 0.0
0.0 0.0 0.0 0.0 0.0 0.0 0.0 0.0
0.0011693423 5.0159297 7.803319 26.245085 0.0 0.008808822 1.5428975e-07 10.267941
0.25676483 1.5041465e-07 0.017256366 2.3873494e-05 17.137028 4.2142715 0.00017137344 0.0005382365
0.0 0.0 0.0 0.0 0.0 0.0 0.0 0.0
0.0 0.0 0.0 0.0 0.0 0.0 0.0 0.0
2.2936782e-05 0.077146135 0.12189279 0.4109755 0.0 0.00018181955 4.9410973e-09 0.16152197
0.0038858084 9.372685e-10 0.0002348705 5.0244495e-08 0.26869047 0.06721843 2.1871635e-06 1.6678678e-05
0.0001671225 0.6674063 1.11648 3.865755 0.0 0.010128195 4.6579838e-09 1.6804618
0.04027068 4.2737105e-07 0.003583658 3.2890782e-07 2.8708627 0.6069076 0.00022693403 0.00022820725
00000000: 6760 7a38 8705 e93d 5e4e 4e3e c595 363f
00000010: 0000 0000 c057 3d3b 8b95 2731 8eaa a53e
00000020: f373 f23b 88e7 2a34 894a 3f3a 6b74 8231
00000030: 9cc0 0d3f 6b16 e63d 2d5d 7238 d0f3 9638
00000040: 7708 4b38 dfa9 9b3e 4346 f03e 4c55 c93f
00000050: 0000 0000 2117 173a 11d9 ab31 fa10 1b3f
00000060: 3f80 793c aaa3 f931 467f 853a 346a f335
00000070: b1b2 803f 2dd7 833e 9d25 6637 7c22 d937
00000080: 0000 0000 0000 0000 0000 0000 0000 0000
00000090: 0000 0000 0000 0000 0000 0000 0000 0000
000000a0: 0000 0000 0000 0000 0000 0000 0000 0000
000000b0: 0000 0000 0000 0000 0000 0000 0000 0000
000000c0: c6e1 3837 6266 e43c 91fc 413d 4850 273e
000000d0: 0000 0000 3cc4 b939 5b48 c330 5aaa 8c3d
000000e0: 67a3 ca3a b07f ef30 0074 d738 0000 0000
000000f0: 372c ec3d 9779 df3c d129 4c36 0ef8 9937
00000100: c1d2 8436 75ea fb3c 81d0 343d 7572 133e
00000110: 0000 0000 645a 7f2f 23b5 a132 9225 533d
00000120: 6efc b03a 0000 0000 3c59 d338 21c0 cc35
00000130: 3529 ac3d a289 bb3c cbe9 c134 6b1c d632
00000140: 0000 0000 0000 0000 0000 0000 0000 0000
00000150: 0000 0000 0000 0000 0000 0000 0000 0000
00000160: 0000 0000 0000 0000 0000 0000 0000 0000
00000170: 0000 0000 0000 0000 0000 0000 0000 0000
00000180: 5d37 7039 b781 443f b785 993f 7a34 8140
00000190: 0000 0000 b709 953a e1cd ec32 f68c c83f
000001a0: 0586 1d3d 1313 4e33 8c7b 213b 03ea a735
000001b0: c65c 2640 7979 283f 4ae7 f137 c862 df38
000001c0: 6940 1d3a 85df 1640 60dc 6a40 f57c 4541
000001d0: 0000 0000 2cdc 943b d079 6d33 4bea 9940
000001e0: c655 f53d 9d74 1f34 885a 033c a3c3 1337
000001f0: c71f 0041 ea40 ff3f da6e f238 2bee 8839
00000200: f1fe 7427 20c8 4635 42b2 bf35 40b2 ac36
00000210: 0000 0000 0000 0000 71dc 0433 6e06 2135
00000220: 86bc 8033 0000 0000 d12c 1f32 0470 8b35
00000230: 2e79 2935 689c bd35 e983 8334 0000 0000
00000240: 0000 0000 0000 0000 0000 0000 0000 0000
00000250: 0000 0000 0000 0000 0000 0000 0000 0000
00000260: 0000 0000 0000 0000 0000 0000 0000 0000
00000270: 0000 0000 0000 0000 0000 0000 0000 0000
00000280: 12a3 c837 93c9 933d 9831 cf3d deaa a73e
00000290: 0000 0000 0000 0000 d442 8733 fbc0 ee3d
000002a0: 8ac5 4e3b 0000 0000 1605 8739 53ac fc36
000002b0: d15f 433e 5e44 493d db17 1136 a1db 1032
000002c0: 0000 0000 0000 0000 0000 0000 0000 0000
000002d0: 0000 0000 0000 0000 0000 0000 0000 0000
000002e0: 0000 0000 0000 0000 0000 0000 0000 0000
000002f0: 0000 0000 0000 0000 0000 0000 0000 0000
00000300: 9e44 993a 7f82 a040 cab4 f940 eff5 d141
00000310: 0000 0000 e152 103c d8aa 2534 7d49 2441
00000320: ae76 833e aa81 2134 395d 8d3c f043 c837
00000330: a218 8941 50db 8640 b5b2 3339 7118 0d3a
00000340: 0000 0000 0000 0000 0000 0000 0000 0000
00000350: 0000 0000 0000 0000 0000 0000 0000 0000
00000360: 0000 0000 0000 0000 0000 0000 0000 0000
00000370: 0000 0000 0000 0000 0000 0000 0000 0000
00000380: 5d68 c037 cbfe 9d3d eda2 f93d 616b d23e
00000390: 0000 0000 d0a6 3e39 5ac6 a931 0466 253e
000003a0: 0ca9 7e3b 34d1 8030 9247 7639 68cc 5733
000003b0: cc91 893e d1a9 893d 2fc7 1236 30e9 8b37
000003c0: 9b3d 2f39 24db 2a3f d1e8 8e3f 8868 7740
000003d0: 0000 0000 bbf0 253c 0f0c a031 5f19 d73f
000003e0: def2 243d 6e71 e534 cedb 6a3b bf94 b034
000003f0: 37bc 3740 4c5e 1b3f 24f5 6d39 eb4a 6f39

exp_avg f4 [2, 16, 16]
-0.00012533387 -0.006305229 -0.01220592 0.026109576 0.0 -8.0309124e-05 -6e-45 0.02041433
-0.0029765957 6e-45 0.0013649757 0.00042630767 -0.025972154 0.010782866 0.00016833932 -0.0004072513
-0.00017582488 -0.011248355 -0.015675474 0.030006867 0.0 -3.583316e-05 -6e-45 0.019645866
-0.0028016355 6e-45 0.00075999915 0.00019718792 -0.024044923 0.012572174 0.0002159121 -0.00021967251
0.0 0.0 0.0 0.0 0.0 0.0 0.0 0.0
0.0 0.0 0.0 0.0 0.0 0.0 0.0 0.0
-5.710074e-05 -0.0034228645 -0.005102153 0.00999675 0.0 -2.353319e-05 -6e-45 0.006911955
-0.0009358781 6e-45 0.00023519475 0.00012904702 -0.00848741 0.0039494396 7.890867e-05 -0.00012495328
-5.1078732e-05 -0.004404174 -0.0042709266 0.006675153 0.0 -3.0467781e-06 6e-45 0.0026758395
-0.00024954203 6e-45 -0.00036863753 1.1042684e-05 -0.002845661 0.0019990404 5.549396e-05 -2.6262203e-05
0.0 0.0 0.0 0.0 0.0 0.0 0.0 0.0
0.0 0.0 0.0 0.0 0.0 0.0 0.0 0.0
-0.0003017024 -0.018766072 -0.026262484 0.05027803 0.0 -7.368654e-05 -6e-45 0.03307744
-0.004624185 6e-45 0.0011439406 0.00040270368 -0.040322635 0.020684853 0.00039557574 -0.00043036643
-0.0005012625 -0.030881554 -0.044733446 0.08694662 0.0 -0.00013421787 -6e-45 0.05859135
-0.008342753 6e-45 0.0024770752 0.00072693685 -0.072089665 0.036166277 0.0006371421 -0.00077029516
3.1535494e-06 3.0224011e-05 5.8561636e-05 -0.000120404584 0.0 5.2798134e-07 6e-45 -9.460731e-05
9.696501e-06 -6e-45 6.278906e-07 -9.288309e-06 9.477697e-05 -3.6161367e-05 -9.0376e-06 6.0524053e-06
0.0 0.0 0.0 0.0 0.0 0.0 0.0 0.0
0.0 0.0 0.0 0.0 0.0 0.0 0.0 0.0
-6.229552e-05 -0.006064939 -0.0053755613 0.007821117 0.0 -2.9676694e-06 6e-45 0.0023459352
-0.00010863111 6e-45 -0.0007004472 3.83799e-06 -0.002204155 0.0018704215 5.9655184e-05 -2.7803355e-05
0.0 0.0 0.0 0.0 0.0 0.0 0.0 0.0
0.0 0.0 0.0 0.0 0.0 0.0 0.0 0.0
-0.0007251563 -0.044049997 -0.06522534 0.12789494 0.0 -0.00021225422 -6e-45 0.08746773
-0.0125117665 6e-45 0.0039695133 0.0011494287 -0.10804827 0.053268697 0.0009217918 -0.0012000111
0.0 0.0 0.0 0.0 0.0 0.0 0.0 0.0
0.0 0.0 0.0 0.0 0.0 0.0 0.0 0.0
-9.948764e-05 -0.0061139027 -0.008517492 0.016250413 0.0 -2.7348964e-05 -6e-45 0.010676469
-0.0014592066 6e-45 0.00031087056 0.00015055241 -0.012945727 0.006559751 0.00013583759 -0.00015554763
-0.00027973013 -0.014123727 -0.026648369 0.056617938 0.0 -0.00016209061 -6e-45 0.04379822
-0.006410372 6e-45 0.0029141433 0.000874611 -0.05560944 0.023553975 0.00037507954 -0.0008393921
00000000: 0e6c 03b9 189c cebb 57fb 47bc c0e3 d53c
00000010: 0000 0000 a26b a8b8 0400 0080 f43b a73c
00000020: fd12 43bb 0400 0000 fce8 b23a 0c82 df39
00000030: 8ec3 d4bc 9eaa 303c 3e84 3039 5884 d5b9
00000040: a25d 38b9 054b 38bc da69 80bc f6d0 f53c
00000050: 0000 0000 904b 16b8 0400 0080 5ef0 a03c
00000060: a59b 37bb 0400 0000 ae3a 473a 3bc4 4e39
00000070: dcf9 c4bc 85fb 4d3c 7766 6239 e457 66b9
00000080: 0000 0000 0000 0000 0000 0000 0000 0000
00000090: 0000 0000 0000 0000 0000 0000 0000 0000
000000a0: 0000 0000 0000 0000 0000 0000 0000 0000
000000b0: 0000 0000 0000 0000 0000 0000 0000 0000
000000c0: 747f 6fb8 2352 60bb f62f a7bb 69c9 233c
000000d0: 0000 0000 2469 c5b7 0400 0080 ae7d e23b
000000e0: b755 75ba 0400 0000 9c9e 7639 cc50 0739
000000f0: c70e 0bbc 4d6a 813b c57b a538 e405 03b9
00000100: 5f3d 56b8 e450 90bb 21f3 8bbb 3ebb da3b
00000110: 0000 0000 4077 4cb6 0400 0000 235d 2f3b
00000120: f7d4 82b9 0400 0000 b145 c1b9 f743 3937
00000130: 457e 3abb 5502 033b 30c2 6838 a74d dcb7
00000140: 0000 0000 0000 0000 0000 0000 0000 0000
00000150: 0000 0000 0000 0000 0000 0000 0000 0000
00000160: 0000 0000 0000 0000 0000 0000 0000 0000
00000170: 0000 0000 0000 0000 0000 0000 0000 0000
00000180: d02d 9eb9 4ebb 99bc 6c24 d7bc 56f0 4d3d
00000190: 0000 0000 2988 9ab8 0400 0080 367c 073d
000001a0: 7a86 97bb 0400 0000 47f0 953a f921 d339
000001b0: 5929 25bd 4873 a93c 4765 cf39 cea2 e1b9
000001c0: 2867 03ba 50fb fcbc 6b3a 37bd 1211 b23d
000001d0: 0000 0000 d6bc 0cb9 0400 0080 7cfd 6f3d
000001e0: 0bb0 08bc 0400 0000 6d56 223b e88f 3e3a
000001f0: bfa3 93bd 1723 143d e205 273a a2ed 49ba
00000200: 91a1 5336 9289 fd37 14a0 7538 b881 fcb8
00000210: 0000 0000 9aba 0d35 0400 0000 ea67 c6b8
00000220: 28ae 2237 0400 0080 508c 2835 fcd4 1bb7
00000230: 00c3 c638 f9ab 17b8 32a0 17b7 c415 cb36
00000240: 0000 0000 0000 0000 0000 0000 0000 0000
00000250: 0000 0000 0000 0000 0000 0000 0000 0000
00000260: 0000 0000 0000 0000 0000 0000 0000 0000
00000270: 0000 0000 0000 0000 0000 0000 0000 0000
00000280: a7a4 82b8 65bc c6bb 7a25 b0bb 2424 003c
00000290: 0000 0000 2c28 47b6 0400 0000 43be 193b
000002a0: e2d0 e3b8 0400 0000 379e 37ba 15c8 8036
000002b0: 9673 10bb ee28 f53a 4436 7a38 403b e9b7
000002c0: 0000 0000 0000 0000 0000 0000 0000 0000
000002d0: 0000 0000 0000 0000 0000 0000 0000 0000
000002e0: 0000 0000 0000 0000 0000 0000 0000 0000
000002f0: 0000 0000 0000 0000 0000 0000 0000 0000
00000300: 6a18 3eba c56d 34bd dd94 85bd e4f6 023e
00000310: 0000 0000 8f90 5eb9 0400 0080 4822 b33d
00000320: 27fe 4cbc 0400 0000 b112 823b 6da8 963a
00000330: 6948 ddbd 4730 5a3d 67a4 713a b149 9dba
00000340: 0000 0000 0000 0000 0000 0000 0000 0000
00000350: 0000 0000 0000 0000 0000 0000 0000 0000
00000360: 0000 0000 0000 0000 0000 0000 0000 0000
00000370: 0000 0000 0000 0000 0000 0000 0000 0000
00000380: 05a4 d0b8 2257 c8bb f38c 0bbc 961f 853c
00000390: 0000 0000 746b e5b7 0400 0080 5bec 2e3c
000003a0: d942 bfba 0400 0000 57fc a239 9bdd 1d39
000003b0: 511a 54bc 2ef3 d63b a06f 0e39 801a 23b9
000003c0: bea8 92b9 3467 67bc ae4d dabc 36e8 673d
000003d0: 0000 0000 def6 29b9 0400 0080 c365 333d
000003e0: 190e d2bb 0400 0000 36fb 3e3b 2746 653a
000003f0: b9c6 63bd 44f4 c03c 53a6 c439 a60a 5cba

exp_avg_sq f4 [2, 16, 16]
1.0519401e-06 0.00047775195 0.0029822877 0.017303487 0.0 0.0014697405 1.9068484e-08 0.020947633
0.0004243294 7.811775e-08 0.00017346819 1.0384626e-06 0.04070099 0.001987413 3.0008003e-05 1.7721952e-05
1.0272347e-06 0.0009112233 0.0025475363 0.010133822 0.0 0.0003732956 1.458224e-09 0.0068850485
0.0001274941 4.9655124e-09 2.2208944e-05 6.629592e-07 0.01238018 0.0015867831 7.02448e-06 6.746104e-06
0.0 0.0 0.0 0.0 0.0 0.0 0.0 0.0
0.0 0.0 0.0 0.0 0.0 0.0 0.0 0.0
2.1087675e-07 0.00011997629 0.0005314577 0.0023148775 0.0 0.0001701512 1.637307e-10 0.002125383
3.5591027e-05 1.1368779e-10 6.2988133e-06 1.7658654e-07 0.004017778 0.00026607243 1.6131852e-06 3.0427984e-06
8.0676784e-08 0.0002287987 0.00013341942 0.00048305962 0.0 8.618511e-08 1.036026e-11 0.00045755733
1.8757159e-05 8.287724e-12 2.9537365e-05 2.6936739e-08 0.0008477979 0.0001930489 2.3770617e-08 5.4102406e-07
0.0 0.0 0.0 0.0 0.0 0.0 0.0 0.0
0.0 0.0 0.0 0.0 0.0 0.0 0.0 0.0
3.8126975e-06 0.0026195112 0.0073363907 0.02918509 0.0 0.00069848605 6.579835e-09 0.019040655
0.00032601968 2.816311e-08 3.229773e-05 2.1123458e-06 0.034248892 0.004117124 1.589071e-05 2.3637807e-05
1.0148491e-05 0.0068796915 0.021978192 0.09279183 0.0 0.002966908 2.5843509e-08 0.0680042
0.0012477037 1.0933953e-07 0.0002242121 6.0893576e-06 0.1242966 0.013232443 6.1564126e-05 6.922009e-05
7.976456e-11 6.7685084e-09 6.9603516e-08 3.9946988e-07 0.0 9.362059e-08 9.07368e-12 5.9233884e-07
9.722435e-09 9.73365e-12 2.2766107e-09 1.097938e-09 1.1830838e-06 4.75596e-09 4.004436e-09 1.5200765e-09
0.0 0.0 0.0 0.0 0.0 0.0 0.0 0.0
0.0 0.0 0.0 0.0 0.0 0.0 0.0 0.0
2.85714e-07 0.00053733843 0.00024594695 0.0011096606 0.0 2.763913e-07 1.7929845e-10 0.001394946
5.8119727e-05 1.8217555e-10 8.953515e-05 3.4418072e-08 0.0026152744 0.00057850906 3.601399e-08 1.688748e-06
0.0 0.0 0.0 0.0 0.0 0.0 0.0 0.0
0.0 0.0 0.0 0.0 0.0 0.0 0.0 0.0
1.9841656e-05 0.013734253 0.04732025 0.20761734 0.0 0.0061022406 3.4585863e-08 0.15977369
0.0029853175 1.5186038e-07 0.0005979485 1.3224289e-05 0.29452223 0.028873358 9.1820235e-05 0.00015664755
0.0 0.0 0.0 0.0 0.0 0.0 0.0 0.0
0.0 0.0 0.0 0.0 0.0 0.0 0.0 0.0
4.134801e-07 0.00028740402 0.00084599503 0.0033511394 0.0 0.00010442036 2.2786577e-10 0.002291503
3.689493e-05 2.4824223e-10 3.1076374e-06 2.6945966e-07 0.0041650804 0.0004373342 1.253468e-06 3.5344146e-06
3.7984844e-06 0.0021398934 0.012737511 0.07317262 0.0 0.0057655387 6.31524e-08 0.086636685
0.0017734899 2.5579908e-07 0.000729457 4.5138077e-06 0.16788991 0.008751699 0.000119245095 7.153574e-05
00000000: 6330 8d35 c87a fa39 7c72 433b 0bc0 8d3c
00000010: 0000 0000 4fa4 c03a 0acc a332 5f9a ab3c
00000020: 8778 de39 b0c1 a733 03e5 3539 4e61 8b35
00000030: 15b6 263d 423f 023b b2b9 fb37 9aa9 9437
00000040: 84df 8935 29df 6e3a 91f4 263b 5508 263c
00000050: 0000 0000 e3b6 c339 b26a c830 f99b e13b
00000060: f0af 0539 1c9d aa31 584d ba37 36f6 3135
00000070: 3dd6 4a3c 9bfb cf3a d3b3 eb36 985c e236
00000080: 0000 0000 0000 0000 0000 0000 0000 0000
00000090: 0000 0000 0000 0000 0000 0000 0000 0000
000000a0: 0000 0000 0000 0000 0000 0000 0000 0000
000000b0: 0000 0000 0000 0000 0000 0000 0000 0000
000000c0: 5c6d 6234 c89b fb38 8651 0b3a 33b5 173b
000000d0: 0000 0000 9d6a 3239 1806 342f 024a 0b3b
000000e0: 9347 1538 8900 fa2e 655a d336 bd9b 3d34
000000f0: 91a7 833b a37f 8b39 9f84 d835 e132 4c36
00000100: 8840 ad33 afe9 6f39 81e6 0b39 2a43 fd39
00000110: 0000 0000 c414 b933 7742 362d 4ee4 ef39
00000120: b158 9d37 97cc 112d 02c7 f737 8462 e732
00000130: c13e 5e3a 2b6d 4a39 2430 cc32 e43a 1135
00000140: 0000 0000 0000 0000 0000 0000 0000 0000
00000150: 0000 0000 0000 0000 0000 0000 0000 0000
00000160: 0000 0000 0000 0000 0000 0000 0000 0000
00000170: 0000 0000 0000 0000 0000 0000 0000 0000
00000180: a5dd 7f36 1bac 2b3b 1b66 f03b 9215 ef3c
00000190: 0000 0000 9b1a 373a d714 e231 26fb 9b3c
000001a0: 9fed aa39 55eb f132 6c77 0738 d3c1 0d36
000001b0: 9148 0c3d f0e8 863b 0a4d 8537 ce49 c637
000001c0: 7043 2a37 096f e13b 9c0b b43c a509 be3d
000001d0: 0000 0000 7570 423b 7afe dd32 c945 8b3d
000001e0: fd89 a33a 0bce ea33 7a1a 6b39 2f53 cc36
000001f0: 378f fe3d e3cc 583c fd1b 8138 412a 9138
00000200: 7567 af2e 6e90 e831 f078 9533 b976 d634
00000210: 0000 0000 770c c933 39a0 1f2d 3701 1f35
00000220: b907 2732 763c 2b2d 8f72 1c31 42e6 9630
00000230: 73ca 9e35 de69 a331 6497 8931 f0ea d030
00000240: 0000 0000 0000 0000 0000 0000 0000 0000
00000250: 0000 0000 0000 0000 0000 0000 0000 0000
00000260: 0000 0000 0000 0000 0000 0000 0000 0000
00000270: 0000 0000 0000 0000 0000 0000 0000 0000
00000280: 3c64 9934 2cdc 0c3a 71f2 8039 0872 913a
00000290: 0000 0000 ee62 9434 0724 452f 9fd6 b63a
000002a0: 95c5 7338 dc4d 482f d1c4 bb38 12d3 1333
000002b0: 0665 2b3b 16a7 173a cdad 1a33 f0a8 e235
000002c0: 0000 0000 0000 0000 0000 0000 0000 0000
000002d0: 0000 0000 0000 0000 0000 0000 0000 0000
000002e0: 0000 0000 0000 0000 0000 0000 0000 0000
000002f0: 0000 0000 0000 0000 0000 0000 0000 0000
00000300: a271 a637 a205 613c e1d2 413d a499 543e
00000310: 0000 0000 4ef5 c73b 8f8b 1433 b79b 233e
00000320: 51a5 433b 100f 2334 a5bf 1c3a e4dd 5d37
00000330: 9ecb 963e d287 ec3c 9d8f c038 c241 2439
00000340: 0000 0000 0000 0000 0000 0000 0000 0000
00000350: 0000 0000 0000 0000 0000 0000 0000 0000
00000360: 0000 0000 0000 0000 0000 0000 0000 0000
00000370: 0000 0000 0000 0000 0000 0000 0000 0000
00000380: 46fc dd34 b7ae 9639 c4c5 5d3a ca9e 5b3b
00000390: 0000 0000 41fc da38 838a 7a2f 0a2d 163b
000003a0: a1bf 1a38 fd78 882f ce8c 5036 41aa 9034
000003b0: 3a7b 883b 014a e539 d53c a835 c830 6d36
000003c0: 77e9 7e36 743d 0c3b feb0 503c 87db 953d
000003d0: 0000 0000 d8ec bc3b 669e 8733 936e b13d
000003e0: 7274 e83a c254 8934 0839 3f3a 5075 9736
000003f0: 55eb 2b3e 4963 0f3c 3913 fa38 7505 9638
