results/Test_citation/version_53/checkpoints/epoch=9-step=10.ckpt (torch, 21137 bytes, 27 tensors)

simplicial_nn.0.W0 f4 [1, 16]
00000000: ff63 263f 3bd3 993d 3d78 353f edc7 e0be
00000010: 4cfe 04bf 69ae 2e3e d715 51bf 7cd3 9dbe
00000020: bb7c 443f 4d8a 293f 8216 f1be 5076 35be
00000030: 3eb4 c63e 44ce 16bf f381 1e3f e328 313f
0.6499633 0.07510992 0.70886594 -0.4390253 -0.51950526 0.1705872 -0.8167395 -0.30825412
0.76752824 0.66226655 -0.47087485 -0.17720914 0.3880939 -0.58908486 0.61917037 0.69203013

simplicial_nn.0.W1 f4 [1, 16]
00000000: 8e83 c93e 8c52 15be e5ec 1f3f 24b1 6b3e
00000010: 801e 023c ded0 25bf 6074 a3be e8af 43bf
00000020: 99d0 f3be 465c 82be 644d 59be 2fc3 aebe
00000030: 003f cc3b cc2d 783e 722f 83be 603e 543d
0.3935818 -0.1458227 0.6247085 0.23016793 0.007941842 -0.6477183 -0.31924725 -0.76440287
-0.47620085 -0.25461024 -0.21220928 -0.34133288 0.006233096 0.2423622 -0.25622135 0.051817298

simplicial_nn.0.W2 f4 [1, 16]
00000000: d421 83bd 452c 67bc fd5b 2dbf 0050 733b
00000010: 2003 053e 6ed3 1e3e 11a0 c2be cc05 2a3e
00000020: 4a6c 443f e676 4bbe 0b0c 543f d140 453f
00000030: 2eb1 1c3f 6b06 553f 152d 343e 6648 433f
-0.064029366 -0.014109676 -0.6771849 0.003712654 0.12989473 0.15510342 -0.38012746 0.16603774
0.76727736 -0.19869575 0.82830876 0.77052027 0.61207855 0.8321292 0.17595322 0.76282346

simplicial_nn.2.W0 f4 [16, 16]
00000000: bb9f 173f dee6 db3e ee09 59be 6627 be3e
00000010: 997c 05bd b435 dfbc 2af8 e93e 421e cc3e
00000020: 5ef7 f2be a47b a4be 53e7 043f 37e9 153f
00000030: 6334 393d f5bb d23e 2e1b f0be 7905 64be
00000040: b900 11bf 92d1 8fbe 6bf2 03bf a7d6 8abe
00000050: ebfc 1f3e 4788 02bd 3f1b 023f 688e a73d
00000060: 003f f83e b2a9 75be c4e3 b73e ff30 893e
00000070: fa61 d53e b8a4 87be 0ae5 963e 5872 dc3e
00000080: a4e0 143e 6543 1dbe ccbe e3be 94fd a7be
00000090: 7bb7 093f 3ef2 09bf 66f2 89be f459 053e
000000a0: a04d 48be 3e72 9ebe 659e e9bd 7867 aa3d
000000b0: ffcd e23e 8313 073e 304b 5f3e 9b61 0f3f
000000c0: d64e c43e 024b 7dbe a76a 11bf 083a bcbd
000000d0: 70a3 ba3d 48d5 b63e 420b b53e 6cc3 bf3e
000000e0: c89a 0dbe 26ee cfbe 7053 7c3e 36f2 9e3e
000000f0: f04e bdbd f2d0 f7be 20b2 c6be 1c79 f0bd
00000100: 49c9 11bf 1050 133e c311 0a3f b18e 0ebf
00000110: 39a0 123f 464c 893e 2232 05bf 88fe e03d
00000120: a716 fbbe eade 04bf 4285 ef3e 73ed 023f
00000130: ee82 12bf b895 793e 8037 ad3b 862b 0cbf
00000140: d293 00bd c140 503e ebea 19bf 904a a2bd
00000150: 71d5 babe 54db 1fbe 24f7 453e b0ce 14bf
00000160: 02df 153f 8077 edbc 6b99 16bf c119 e6be
00000170: 9173 febe 9729 f43c 1cc1 8d3d b745 bdbe
00000180: 5a82 51be 8028 f73d 901f 0bbf 576b b4be
00000190: 8000 513d ba03 1bbf 1cd9 b43e a047 0a3e
000001a0: 8043 b4bd d47b 79be 82b5 a63e b4bf 223e
000001b0: 0020 9538 561c 0cbe e2e6 b13e 361e 4fbe
000001c0: 00b4 3abb d84e e83d 92e0 fc3e e5ec 0ebf
000001d0: aaed bf3e 3506 15bf fc9c f1be fb50 cfbe
000001e0: 9807 983d 7e1a fd3e e02e 4c3e 60b6 3b3d
000001f0: 00e4 b63e 6944 013f 10fe 9b3e 3a19 833e
00000200: f7c0 603e bb92 b53d e6a7 9cbe 6809 bebe
00000210: 06f8 9fbe 4b99 c13e b1f4 0bbf 48a5 64be
00000220: ea85 28be 4867 6d3e 2868 79bc 9d0c 6b3e
00000230: 735f ac3e c6b9 113e ce38 42be 52ad 84be
00000240: 4a02 08be 7939 db3c be7b cdbe 1aa2 0ebf
00000250: 2873 c23e 56e7 21bc 74f4 443e 88a9 37bd
00000260: a6e3 79be 0ef9 12bf d08c c83e 0fad c8be
00000270: fedb ccbe f47d 4ebd 8f0e bd3e b11f f6be
00000280: 6436 4a3e fced 06bf 40c8 b1bc 02f8 f93e
00000290: b8cf a9be 42ce cabe b661 ddbe c84a 25be
000002a0: 7e4d d23e e7ce d2be 5c78 583e 36d9 e53e
000002b0: 6adb b6be bd28 09bf b0d4 86be 0216 fbbe
000002c0: f83d aabd 3004 813e 4473 12bf c04b 93bd
000002d0: 241a 7e3e 3f22 143f 800f 7f3e 60cb 09bf
000002e0: 0036 0b3c 1ce6 3a3e 2696 e0be 2290 a1be
000002f0: 1a47 bfbe 3227 fd3e c0f4 1ebc 2067 efbe
00000300: 96d9 67bd d042 d23e 87df 0dbf 4002 b3bc
00000310: a106 cc3e cf35 ce3a e8ac 1c3e 3dd1 63be
00000320: b577 16bf 9cd5 653e ceff e13e cc14 343e
00000330: 4fc5 e4bc 3032 073f 1eaa 2f3e 9367 f73d
00000340: 4493 fdbd 5d5b a0be dcd2 9abe 8a3c f2be
00000350: 1668 0dbf 58c4 a9bd 2244 e9be 4cae 16bf
00000360: c076 c13c dc9a b7be 3431 cdbe 0082 b5be
00000370: 109c 6a3e 3cc9 b2be e20b c23e 3689 973e
00000380: 61c4 42be 3bb0 d8be 7f5b fcbe 38ba 9bbd
00000390: 1768 b0be 955e eb3e 5f2d a9be 2983 963e
000003a0: 608b 0a3f 806b c23d 2891 b1be 5a70 8bbd
000003b0: 880b 55be 020a 083d b9d6 923d 90c1 db3d
000003c0: 56d2 0dbf 80c7 0c3f d9c8 c2be f050 403d
000003d0: 0c69 b33e 9e5b 0c3f cf32 afbe 8546 6a3d
000003e0: 4317 0cbf 6ed5 fd3e a54a db3e 5d86 e03e
000003f0: 42c0 023f 61d1 e0bd 53d0 813d 3cd9 843e
0.59228104 0.42949575 -0.21195194 0.37139434 -0.03258953 -0.027247287 0.45697147 0.39866835
-0.4745435 -0.3212558 0.5191547 0.5855898 0.045215975 0.41159025 -0.46895736 -0.22267713
-0.5664173 -0.28089577 -0.51541775 -0.27116892 0.15623824 -0.031868245 0.50822824 0.08181459
0.48485565 -0.23990515 0.3591596 0.26795194 0.41676313 -0.26492858 0.29471618 0.43055987
0.14538819 -0.1535774 -0.44481504 -0.32810652 0.53795594 -0.5388526 -0.26942748 0.13022596
-0.19560862 -0.30946535 -0.114071645 0.08320516 0.44297788 0.13191037 0.21806026 0.5600831
0.38341397 -0.24735644 -0.56803364 -0.09190756 0.091132045 0.35709596 0.35360152 0.37453783
-0.13828576 -0.4061138 0.24641204 0.31044167 -0.09243572 -0.484016 -0.38807774 -0.1174185
-0.5694776 0.1438601 0.5393335 -0.5568648 0.5727573 0.26816005 -0.5202962 0.10986048
-0.4904072 -0.5190264 0.46781355 0.5114357 -0.5723103 0.2437352 0.005286157 -0.5475391
-0.031390972 0.20337202 -0.6012408 -0.07924378 -0.36490968 -0.15611011 0.19332558 -0.5812788
0.5854341 -0.028987646 -0.5882785 -0.44941524 -0.49697545 0.029804988 0.06921598 -0.3696725
-0.20459881 0.12068272 -0.54345036 -0.35238144 0.051025867 -0.6055256 0.3532189 0.13503885
-0.08801937 -0.24363643 0.32560354 0.15893441 7.110834e-05 -0.13682684 0.34746462 -0.20226368
-0.0028488636 0.11343163 0.49390084 -0.5583022 0.3748601 -0.58212596 -0.47190082 -0.4049147
0.074233234 0.49434274 0.19939756 0.045828223 0.35720825 0.5049501 0.30467272 0.25605184
0.2194861 0.08865877 -0.30596846 -0.3711655 -0.31243914 0.37812266 -0.54670244 -0.22328675
-0.16457334 0.2318393 -0.015222587 0.2295403 0.33666572 0.14231023 -0.18966982 -0.25913483
-0.13282123 0.026760804 -0.4013347 -0.557161 0.37978482 -0.009881815 0.19233876 -0.044839412
-0.24403247 -0.5741128 0.3916993 -0.39194533 -0.4001159 -0.050413087 0.3692517 -0.48071054
0.19747311 -0.52706885 -0.021701932 0.48822027 -0.3316629 -0.39610487 -0.4323861 -0.16141808
0.41074747 -0.4117348 0.21139663 0.4489228 -0.35714275 -0.53577787 -0.26334143 -0.49040228
-0.08312601 0.25198507 -0.5720713 -0.071921825 0.2481466 0.57864755 0.24908257 -0.5382595
0.008496761 0.18251842 -0.43864554 -0.31555277 -0.37358934 0.49443966 -0.009701908 -0.46758366
-0.05660399 0.410666 -0.554192 -0.021851659 0.39848807 0.0015732589 0.15300333 -0.22247787
-0.5877641 0.22444767 0.44140476 0.17586058 -0.027926115 0.52810955 0.17154738 0.12080302
-0.12381604 -0.31319705 -0.30238998 -0.47311813 -0.5523695 -0.08289403 -0.45559794 -0.58859706
0.023616195 -0.35860336 -0.40076602 -0.35450745 0.22911096 -0.34919155 0.3789969 0.2959687
-0.19020225 -0.42321953 -0.49288556 -0.07603878 -0.34454414 0.45970598 -0.33042428 0.29396942
0.5411892 0.0949316 -0.34681058 -0.06808539 -0.2080518 0.03321267 0.07169861 0.107302785
-0.5539907 0.5499191 -0.3804386 0.046952188 0.35041082 0.54827297 -0.3421845 0.05719616
-0.54722995 0.49576896 0.42830387 0.4385251 0.5107461 -0.10977436 0.06338563 0.25946987

simplicial_nn.2.W1 f4 [16, 16]
00000000: 5323 0cbf 7a09 dc3e 7024 99be d4c5 9ebe
00000010: e08f eebc 6c3e 72be 50d8 15bd 860a 8c3e
00000020: 07ea 053f ec0b 6e3e 86c1 a03e 925f 94be
00000030: 4b0f 163f 7e0d bfbe 45d0 0a3f 90de e0be
00000040: d005 433d b49a 223e 6e02 de3e a8a0 b0bd
00000050: 2874 6c3e 6ece e53e 7d44 133f ce6f 0cbf
00000060: 40d0 2f3e 9a56 c83e 68dc cfbd 04da 263e
00000070: 28db a43e 7a74 e93e 10d4 2d3d c4b1 1a3e
00000080: 3f8d 0ebf a099 923d 80f9 3b3c 38ce ccbd
00000090: b0cc 84be d6a1 1dbe a004 5abd 0a20 82be
000000a0: d4c1 f4be 9c60 60be ea39 903e 0556 10bf
000000b0: 0c49 163e c08c 06bc d8a3 2b3e 80e0 693c
000000c0: 81d0 ddbe b07b 0e3d 2035 883e baa9 f6be
000000d0: ae9e c33e 4c92 bbbe af78 123f c09d 03be
000000e0: f081 653e bd8c 1b3f 84ed 4c3e 86f6 f53e
000000f0: 8608 d23e 73e0 89be 6c13 613e 8106 edbe
00000100: 00ad 36bc 905b 6abd febb a13e e2eb 83be
00000110: bd40 183f 5183 adbe f2b9 3abe 40b1 7bbc
00000120: 0062 16bf ad52 e9be 80f4 15bd 0a20 b63e
00000130: 4c5e c7be 3283 1fbe ee6a 9cbe 80f7 b93b
00000140: 6c82 7e3e 98cf d4bd 5a16 af3e e8a6 933d
00000150: c819 9f3e 60d4 9cbc c0c8 553d 0ccd 7c3e
00000160: 8832 cbbe 6a31 e9be 000d 823c d8ca e2be
00000170: 0eec b13e 3efb 8abe e666 e53e 367a 58be
00000180: 1f05 b3be 4e62 d6be 28ea d6bd b54f 143f
00000190: e0e5 58be 89cd 0a3f e33d 17bf 809b 63bd
000001a0: 262f e13e bcd7 edbe 91de bcbe e4b9 42be
000001b0: 01fc 123f f865 6dbe 8a79 af3e 00b0 8f3b
000001c0: 32b4 1cbe 60c8 8b3d de22 c0be cd1b 123f
000001d0: e266 bcbe 68f5 483e c93b 113f a0a6 7e3d
000001e0: f0a3 28bd 4aaf e33e df07 a5be 30a4 f5bd
000001f0: 5048 33bd 2c35 99be f2a4 a03e a025 083d
00000200: dd55 093f 2d23 113f c0fa d2bd 623b 5bbe
00000210: 4a02 cf3e 4a24 de3e 98a4 cabd 12d2 a63e
00000220: 5da1 fbbe a693 fb3e f91c 113f 9a26 ef3e
00000230: e096 b13e aea7 e6be 8369 debe b464 b73e
00000240: e078 503e 70be 2d3d 88cc e23d 45e7 97be
00000250: b2eb 963e 7694 f4be 929c af3e d58d 1a3f
00000260: 4841 5c3e 4665 e13e 59b4 123f 2890 d43d
00000270: 350a 10bf 00cc 683d 791b 19bf 0081 bc3e
00000280: 18cb 9b3e 4cd6 0bbf 8a04 f03e f8fb c8bd
00000290: 3a7c 66be 7af4 e03e 4cce 953e 002c e63c
000002a0: f880 9b3d bf8c 183f 5d34 193f 1436 333e
000002b0: 2afb cbbe 4068 d0be c978 063f 7eb6 c03e
000002c0: 7a26 ffbe 683c 82be 4081 383c bec8 acbe
000002d0: c40d a43e c2f7 70be 3046 2cbe a4ad e9be
000002e0: 502e ad3d bb02 0c3f a24d 0cbf 51e1 12bf
000002f0: b0ae 093e 2e84 09be c8d3 e33d a43c d4be
00000300: 78d6 be3e 0bfc 113f 4abd 04bf ac79 0ebe
00000310: 20b9 2dbe 90bb cabd 56ca f8be baf1 ae3e
00000320: 39b1 c0be f02a d3bd 1db7 1b3f 56e3 f93e
00000330: 2a1a a33e 20e9 95bc a535 d1be a9c8 afbe
00000340: 903b b53d b097 6ebd 9a0e a53e 586c 68be
00000350: c8b1 97be dcda 683e b0b9 af3e 467f df3e
00000360: 7059 753d 6c07 253e 78dc bebe 22a4 e03e
00000370: a25d a1be 5431 10bf 0640 d53e d6bf be3e
00000380: 902f 513e 963e 54be 1c59 f1be aa0a b03e
00000390: e1a2 09bf 3200 823e c075 eb3c e0e0 863d
000003a0: b4d4 053e c054 e93d 0ab7 f63e f680 57be
000003b0: 221a 19bf 5fd4 0ebf 5c34 fabd b237 4ebe
000003c0: 8cd1 aa3e 10e5 19be cbef 95be a2cf b53e
000003d0: 6c20 813e b78c 023f 5d9a a5be a85d e4bd
000003e0: 42e8 a33e 3cb6 273e 325d e93e 94ca eabd
000003f0: 4588 1cbf 312f 053f bce0 573e 38ad 23be
-0.547414 0.4297598 -0.29910612 -0.31010306 -0.02912134 -0.23656625 -0.036583245 0.2735178
0.5231022 0.23246735 0.31397647 -0.28979164 0.58617085 -0.3731498 0.54224044 -0.43919802
0.047612965 0.15879327 0.4336123 -0.08624393 0.23091185 0.44884056 0.5752638 -0.548581
0.17169285 0.39128572 -0.10149461 0.16294104 0.32198453 0.45596677 0.042438567 0.15106875
-0.55684274 0.07158208 0.01147306 -0.100002706 -0.25937414 -0.15393767 -0.053227067 -0.2541507
-0.4780413 -0.21911854 0.28169185 -0.56381255 0.14676303 -0.008212268 0.1676172 0.014274716
-0.43323138 0.034785926 0.2660303 -0.48176366 0.38207 -0.36635053 0.572154 -0.12853146
0.22412848 0.60761625 0.2001248 0.48039645 0.41022128 -0.26929054 0.21980065 -0.46294025
-0.011149645 -0.057216227 0.3158874 -0.25765902 0.5947378 -0.3388925 -0.18234995 -0.015362084
-0.58743286 -0.4557089 -0.036610126 0.3557132 -0.3893913 -0.15577391 -0.3055033 0.0056752563
0.2485444 -0.10391158 0.3419674 0.07209569 0.31074357 -0.019144237 0.052193403 0.24687594
-0.3968699 -0.45545512 0.01587534 -0.44295382 0.34750408 -0.27144808 0.44805068 -0.2114037
-0.34964845 -0.41871876 -0.104938805 0.57934123 -0.2118144 0.5421987 -0.59078807 -0.05556822
0.43981284 -0.46453655 -0.36888555 -0.19016224 0.5741578 -0.23183429 0.34272414 0.0043849945
-0.15303114 0.06825328 -0.37526602 0.5707367 -0.36797243 0.19624865 0.5673185 0.062170625
-0.041171968 0.44469672 -0.32232568 -0.11994207 -0.043770134 -0.2992338 0.31375843 0.033239007
0.5364664 0.566943 -0.10301733 -0.21409371 0.40431434 0.4338706 -0.09894675 0.32582146
-0.49146548 0.49136084 0.56684834 0.46709138 0.3468542 -0.45049804 -0.43439874 0.35819018
0.2035861 0.042417943 0.110741675 -0.29668632 0.29476696 -0.47769517 0.3429914 0.6037267
0.21509278 0.44022578 0.5730644 0.10379058 -0.56265575 0.056835175 -0.59807545 0.3681717
0.30428386 -0.54623866 0.46878463 -0.09813684 -0.22508326 0.4393652 0.29258955 0.028097153
0.07592958 0.5958976 0.59845525 0.17501098 -0.3984006 -0.40704536 0.52528054 0.3763923
-0.49834043 -0.2543671 0.011261284 -0.33746904 0.32041752 -0.23532012 -0.1682365 -0.4564029
0.08456099 0.54691666 -0.5480596 -0.57375056 0.13445544 -0.13429329 0.111243784 -0.41452515
0.37273002 0.5702521 -0.5185133 -0.13913602 -0.16965151 -0.09899056 -0.4859187 0.34168798
-0.3763521 -0.10310924 0.60826284 0.48806256 0.318559 -0.01829964 -0.4086124 -0.3433278
0.08849251 -0.05825013 0.32237703 -0.2269758 -0.29627824 0.22739738 0.34321356 0.4365179
0.059899747 0.16116112 -0.3727758 0.43875223 -0.3151675 -0.5632527 0.41650409 0.37255734
0.204283 -0.20727 -0.47138298 0.34383136 -0.5376416 0.25390774 0.028742671 0.0658586
0.13069421 0.11393118 0.48186523 -0.21045288 -0.598055 -0.557928 -0.12217018 -0.20138434
0.33362997 -0.15028787 -0.2928451 0.35509974 0.25220048 0.50995964 -0.32344332 -0.11150676
0.32013136 0.1637811 0.45578915 -0.1146442 -0.6114543 0.52025133 0.21081823 -0.15984046

simplicial_nn.2.W2 f4 [16, 16]
00000000: f8f9 efbe adc4 9fbd a4b1 613e 16ab 983e
00000010: 066d ff3d 8417 f53e 1c29 6a3e 4ada d3be
00000020: dccc 9ebd 0b55 8fbe 9d15 793e 2b15 413e
00000030: 8c4b 56be 2850 1d3e cfe3 59be c896 d6bd
00000040: c326 0a3f d046 da3e c58c 0f3f 30ad 833d
00000050: 6890 05bd 9940 16be 22a4 833e 3609 f03e
00000060: 05f8 8ebe f87f e1bd d5e3 533e c070 8bbe
00000070: 116c b03e 24ca 61be 7966 08bf 61ce f13e
00000080: 29d3 933e 16e3 b03e c65f 38be d8b6 093e
00000090: 49d4 523e 1764 153f fcac 3a3e 6377 9f3e
000000a0: 48d6 fd3c 9dbe 0abf 9f38 cebe 109e f7be
000000b0: cae0 7abe cabd d23e 1cbc 123e 22ab dfbe
000000c0: 508e 63bd 5a4f 9d3e 95a9 05bf f068 703e
000000d0: 4821 ca3d 2042 be3d e0dd 863c 7aa8 c93e
000000e0: 332b 92be d09e d0be 08b7 763e f6cd 06be
000000f0: e0bd f23d 9627 f33e 88ca fe3d b2be bdbe
00000100: 84b8 793e 203a 78bd e211 f63e 938d 113f
00000110: 7846 fabd 5e90 a73e d252 9c3e f8d8 0cbf
00000120: ed35 1b3f 5f07 e6be 7e3e 963e 1426 bc3e
00000130: c527 03bf 720e d63e ece9 9ebe 0bb2 cebe
00000140: e411 003f f63c d33e 4103 c6be e80a c53e
00000150: 258c c0be 6898 573d 66f6 993e f4f5 3b3e
00000160: 1d6e 9d3d 6f68 1cbf e33d 913e 6dca f33e
00000170: 4046 93be b753 103f 7e96 c33e c839 91be
00000180: a695 fa3e 156d 1c3f 00e4 46bd 1096 75be
00000190: e0c4 4d3e 6f5c 87be 16a3 f6be b285 9e3e
000001a0: ca61 01bf b8f5 cdbd 906c 34bd de96 b9be
000001b0: 6e28 a33e b070 98be f014 9abe c035 03bc
000001c0: 02a2 c93e 1deb 12bf 9aea d73e 2a96 903e
000001d0: 9a09 893e 693f c3be e6d1 1ebe 6476 933e
000001e0: a84b f5bd d0fb a03e 62a9 fcbe 55dd 133f
000001f0: 4aad 88be 35c8 113f 50c3 723d ea89 04be
00000200: 75a4 293c 9f44 b53e 0364 e5be 3abf 06bf
00000210: d5c2 093f 9afe 96be 9c2c a73e 0192 0a3f
00000220: bf84 2dbe 4004 7d3d eb6c f93e 6684 a1be
00000230: f0b7 d6be e199 f7be f4cd 47be 94b8 863e
00000240: d102 7f3e 7734 29bd 9808 e13d ccc4 36be
00000250: 2c98 ffbd ffed 3d3e 1e2b e63e a71a f5bd
00000260: 4312 c6be 9ada 1abf 86e1 093f 151d 0ebf
00000270: dca9 e7bd a2c9 a8bc abf1 61be e228 cdbe
00000280: eea3 d73e dfd2 153f 2b39 0f3f 5680 03bf
00000290: 0092 9e3e 7074 833d e052 a53e a82d 263e
000002a0: 1897 bc3e fed6 fe3e 5ae0 e6be f8fd 743e
000002b0: e053 163d 3c1c af3e 360c f1be ee9a c9be
000002c0: 29c0 033f 2782 1a3f 9060 2b3e a094 c2be
000002d0: d017 11bd 87d5 f6be 7032 8b3e b032 15be
000002e0: 4863 07bf 866e 2cbe d0f7 b53e cf17 193f
000002f0: 902e 85be f272 b53e a0d2 a73e 1327 b9be
00000300: fbc3 68be 9650 1ebf d370 fdbe dedf bebe
00000310: 8c2d a3be 5852 4fbd c08e 75bc 8d63 db3d
00000320: ccbd f03e f036 6d3d d45e 133f acd7 82be
00000330: 9c82 56bd 9d05 cf3e 91a6 0bbf ee1f f73e
00000340: 1101 9fbe 128f 15bf 40a2 99bc c07f 68bd
00000350: beec f83e 0069 b53d 21cf b1be ecca 813e
00000360: f813 ecbe 4868 bb3e 68c7 3a3e f2de e63e
00000370: 14f3 d1be eaa9 f4be 98fd 5e3e 181a 4d3e
00000380: 78a3 01bf dcdc 8dbe a6d8 65be 8c30 b9be
00000390: aed7 ad3e 24b5 1dbd 038a 163f b84f a03e
000003a0: b05d 3bbd ced8 a63e 68f4 cfbe 21a9 a6be
000003b0: a127 c63d 0f7b 1b3f 1917 03bd dd23 d3bd
000003c0: eba5 4cbe 9d64 4f3e 3018 4c3e 4fb1 063f
000003d0: db2c 553e d4e2 40be 8a71 15bf 2065 cf3e
000003e0: 19f8 a7be 9a92 b93e 765d f7be 434e a9bd
000003f0: 7e54 333e a6a1 02bf 2dc2 e53e d5a3 b53e
-0.468704 -0.07801185 0.22040421 0.29818028 0.124719664 0.47869503 0.22867244 -0.4137748
-0.077539176 -0.2799457 0.24324651 0.18855731 -0.20927256 0.15362608 -0.21278308 -0.10477978
0.53965396 0.4263215 0.5607417 0.06429517 -0.03260842 -0.1467308 0.2571116 0.46882027
-0.279236 -0.11010736 0.2069238 -0.2723446 0.34457448 -0.22049767 -0.5328136 0.47227767
0.2887204 0.34548253 -0.18005285 0.13448656 0.20588793 0.5835585 0.18230051 0.31145772
0.030985966 -0.541971 -0.40277573 -0.4836278 -0.24499813 0.41160423 0.1432957 -0.4368525
-0.05555564 0.30724603 -0.52211887 0.2347753 0.09869629 0.09289956 0.01646322 0.3938635
-0.28548583 -0.40746164 0.24093258 -0.13164505 0.11852622 0.4749114 0.124409735 -0.3705955
0.24386793 -0.060602307 0.48060519 0.5685665 -0.12220472 0.3272733 0.30531937 -0.5501857
0.6062916 -0.449275 0.29344553 0.367478 -0.5123256 0.41807896 -0.31037843 -0.4037021
0.500273 0.41257447 -0.38674358 0.38484883 -0.37606922 0.05263558 0.300708 0.18355542
0.07687018 -0.61096853 0.28367528 0.47615376 -0.28764534 0.5637774 0.38200754 -0.28364396
0.48942298 0.61103946 -0.04855728 -0.23983026 0.20094633 -0.2643771 -0.481713 0.30961376
-0.5053984 -0.10056633 -0.044048846 -0.36247915 0.31866783 -0.29773474 -0.300941 -0.0080084205
0.39381415 -0.57390004 0.42171174 0.28239566 0.26765138 -0.38134316 -0.15509757 0.28801262
-0.11977321 0.31442118 -0.4934798 0.577596 -0.2669471 0.56946117 0.059268296 -0.12943235
0.010354151 0.35403916 -0.44802865 -0.5263554 0.53812915 -0.2949112 0.32651222 0.54129034
-0.1694517 0.06177163 0.4871591 -0.31546324 -0.41937208 -0.48359588 -0.19512159 0.26312697
0.24903418 -0.0413098 0.10987967 -0.1784851 -0.12480196 0.1854782 0.4495477 -0.11967974
-0.38685808 -0.6048981 0.53859746 -0.55513126 -0.11311695 -0.020603959 -0.22064845 -0.40070254
0.42117256 0.5852489 0.55946606 -0.513677 0.30970764 0.06418693 0.3228979 0.16228354
0.36834025 0.497734 -0.45093042 0.23925006 0.036701083 0.3420123 -0.4707963 -0.39376014
0.5146509 0.60354847 0.16736054 -0.38004017 -0.0354231 -0.48209783 0.27186918 -0.14570117
-0.52885866 -0.16839036 0.35540628 0.59801954 -0.26012087 0.3543926 0.32777882 -0.36162624
-0.2273101 -0.61841714 -0.4950014 -0.37280172 -0.31870687 -0.05061564 -0.0149876475 0.10712347
0.47019804 0.05791372 0.5756657 -0.2555517 -0.052370653 0.4043397 -0.54551035 0.48266548
-0.310555 -0.5842143 -0.018754125 -0.056762457 0.4861812 0.08857918 -0.3472834 0.2535013
-0.46108985 0.36602998 0.1824013 0.4509197 -0.41005766 -0.47785884 0.21776426 0.20029485
-0.5064006 -0.27707565 -0.22445926 -0.3616985 0.33953613 -0.038502827 0.5880434 0.3131082
-0.045743644 0.32587284 -0.40616155 -0.3255091 0.09675527 0.6073465 -0.03200445 -0.10309575
-0.19985168 0.20253225 0.19931102 0.526143 0.20817892 -0.18836528 -0.5837637 0.4050684
-0.3280647 0.3624466 -0.48313493 -0.0826688 0.175127 -0.51027906 0.44874707 0.35476556

simplicial_nn.4.W0 f4 [16, 1]
00000000: 88cd 613d 9a46 5dbe 4bc9 dabe ac0a 3a3e
00000010: 8f13 7abe ae0d 1d3f aacb 51bf daa3 02bf
00000020: 6b62 bd3e d728 133f c1a9 3f3f 1c7f 8bbe
00000030: 9551 6dbe 2daf 9b3e d9f6 12bd 3897 4dbe
0.05512765 -0.21608964 -0.427317 0.18168133 -0.24421524 0.61349 -0.8195139 -0.5103127
0.3698915 0.5748419 0.748684 -0.27245414 -0.23175652 0.30407086 -0.035879944 -0.20077217

simplicial_nn.4.W1 f4 [16, 1]
00000000: 34ea 13bf 489a e83d 2f63 2a3f bd2d 203f
00000010: 0a88 dc3e 9c61 b7be 483c 76be 25e7 4a3f
00000020: e0d0 263d 4145 41bf 7a1b a03e 7835 1bbf
00000030: d278 8dbe 462b 0fbf 0af5 823e 44da 443e
-0.5777924 0.11357552 0.6655759 0.6256979 0.4307254 -0.35816658 -0.24046433 0.7925895
0.040726542 -0.754963 0.31270963 -0.6062846 -0.2763124 -0.55925405 0.25577575 0.19223887

simplicial_nn.4.W2 f4 [16, 1]
00000000: 59f3 283f c0e1 07bf c83e 153e c6fa b13e
00000010: 930c 253e 58c3 eb3e ada5 bdbe 9d9b f43d
00000020: 8ac7 dbbe 9139 18bf 82b9 cebe 404c b1bd
00000030: debc 1a3f 896f d7be 1d85 063f d3ce 033d
0.6599632 -0.5307884 0.1457473 0.34761637 0.16118078 0.46047473 -0.37040463 0.119437434
-0.42925674 -0.5946284 -0.40375906 -0.08657122 0.6044444 -0.42077282 0.52546865 0.032179665

exp_avg f4 [1, 16]
00000000: e1b6 1bbf 6031 843f 3921 c040 0000 0000
00000010: 0000 0000 83cf 56bf 0000 0000 0000 0000
00000020: 5892 20c0 159e 5ac0 0000 0000 0000 0000
00000030: c457 1ec0 0000 0000 5299 28bf b3ea 00bf
-0.60825926 1.0327568 6.0040555 0.0 0.0 -0.8391039 0.0 0.0
-2.508932 -3.4158986 0.0 0.0 -2.4741068 0.0 -0.6585895 -0.5035812

exp_avg_sq f4 [1, 16]
00000000: 3ba1 053c 3018 e53c d95f 5b3f 0000 0000
00000010: 0000 0000 c239 8d3c 0000 0000 0000 0000
00000020: 3ed3 143e 5165 8c3e 0000 0000 0000 0000
00000030: ffe8 0d3e 0000 0000 a033 1d3c 426d b63b
0.008156116 0.027965635 0.85693127 0.0 0.0 0.017239455 0.0 0.0
0.14533707 0.27421048 0.0 0.0 0.13858412 0.0 0.009594828 0.0055672238

exp_avg f4 [1, 16]
00000000: 0000 0000 0000 0000 0000 0000 0000 0000
00000010: 0000 0000 0000 0000 0000 0000 0000 0000
00000020: 0000 0000 0000 0000 0000 0000 0000 0000
00000030: 0000 0000 0000 0000 0000 0000 0000 0000
0.0 0.0 0.0 0.0 0.0 0.0 0.0 0.0
0.0 0.0 0.0 0.0 0.0 0.0 0.0 0.0

exp_avg_sq f4 [1, 16]
00000000: 0000 0000 0000 0000 0000 0000 0000 0000
00000010: 0000 0000 0000 0000 0000 0000 0000 0000
00000020: 0000 0000 0000 0000 0000 0000 0000 0000
00000030: 0000 0000 0000 0000 0000 0000 0000 0000
0.0 0.0 0.0 0.0 0.0 0.0 0.0 0.0
0.0 0.0 0.0 0.0 0.0 0.0 0.0 0.0

exp_avg f4 [1, 16]
00000000: d5b0 aaba c1d2 a2bb ecbb a93b 0000 0000
00000010: 0000 0000 b882 eb3b 0000 0000 0000 0000
00000020: a995 893b d4c8 07bc 0000 0000 0000 0000
00000030: 07c1 89bb 0000 0000 5850 823a 74e6 6ebb
-0.0013022671 -0.0049689715 0.0051798727 0.0 0.0 0.0071872137 0.0 0.0
0.004198749 -0.008287627 0.0 0.0 -0.004203919 0.0 0.0009942157 -0.0036453279

exp_avg_sq f4 [1, 16]
00000000: dea9 1835 60ab 0736 c460 6737 0000 0000
00000010: 0000 0000 d6d5 f435 0000 0000 0000 0000
00000020: e49a f135 9ffe 0637 0000 0000 0000 0000
00000030: d086 c335 0000 0000 788f 0134 c28b 3c35
5.68716e-07 2.021632e-06 1.3791203e-05 0.0 0.0 1.8241651e-06 0.0 0.0
1.8000978e-06 8.046306e-06 0.0 0.0 1.4567868e-06 0.0 1.2066255e-07 7.023883e-07

exp_avg f4 [16, 16]
00000000: 9425 67bd 007f 893f 0000 0000 0000 0000
00000010: e779 9b3f 44fb 3dc0 0000 0000 2ba9 2040
00000020: 5ac0 f2ba 0000 0000 8173 68c0 ef66 ad3f
00000030: 9614 943f 3286 bbbf 9e69 4b3e 53fe 613f
00000040: 7719 e2bb 20d2 073e 0000 0000 0000 0000
00000050: 2f8c 193e 1086 bbbe 0000 0000 baa2 9e3e
00000060: da86 7bb9 0000 0000 6b6f e5be fd46 2b3e
00000070: f33c 123e cf0e 39be f722 c93c e7ad e03d
00000080: 1ac0 89bd f99c 973f 0000 0000 0000 0000
00000090: 84be ab3f 1eac 51c0 0000 0000 6862 3140
000000a0: 08f6 6abb 0000 0000 2e5e 80c0 9acc bf3f
000000b0: 01da a33f 9c70 cfbf 7572 613e 6454 7b3f
000000c0: 0000 0000 0000 0000 0000 0000 0000 0000
000000d0: 0000 0000 0000 0000 0000 0000 0000 0000
000000e0: 0000 0000 0000 0000 0000 0000 0000 0000
000000f0: 0000 0000 0000 0000 0000 0000 0000 0000
00000100: 0000 0000 0000 0000 0000 0000 0000 0000
00000110: 0000 0000 0000 0000 0000 0000 0000 0000
00000120: 0000 0000 0000 0000 0000 0000 0000 0000
00000130: 0000 0000 0000 0000 0000 0000 0000 0000
00000140: 5c01 57bc 0ff8 8d3e 0000 0000 0000 0000
00000150: aa2e a03e 8bf4 43bf 0000 0000 38a0 253f
00000160: 322e 0eb8 0000 0000 c089 6fbf 305b b23e
00000170: f03d 983e 12de c0be d6ae 503d 5cd3 663e
00000180: 0000 0000 0000 0000 0000 0000 0000 0000
00000190: 0000 0000 0000 0000 0000 0000 0000 0000
000001a0: 0000 0000 0000 0000 0000 0000 0000 0000
000001b0: 0000 0000 0000 0000 0000 0000 0000 0000
000001c0: 0000 0000 0000 0000 0000 0000 0000 0000
000001d0: 0000 0000 0000 0000 0000 0000 0000 0000
000001e0: 0000 0000 0000 0000 0000 0000 0000 0000
000001f0: 0000 0000 0000 0000 0000 0000 0000 0000
00000200: d1f7 73bd b832 a33f 0000 0000 0000 0000
00000210: bd16 b83f 4f2d 61c0 0000 0000 2a57 3e40
00000220: 5e1f acb7 0000 0000 269e 89c0 94f5 cc3f
00000230: a0ee ae3f ab8f ddbf 7cdb 6f3e 37db 843f
00000240: d62f 70bd c409 8c3f 0000 0000 0000 0000
00000250: d86b 9e3f fa8a 41c0 0000 0000 a2af 2340
00000260: 8923 12bb 0000 0000 3cda 6cc0 1bbe b03f
00000270: bef2 963f 5c26 bfbf 446c 4f3e 9f94 663f
00000280: 0000 0000 0000 0000 0000 0000 0000 0000
00000290: 0000 0000 0000 0000 0000 0000 0000 0000
000002a0: 0000 0000 0000 0000 0000 0000 0000 0000
000002b0: 0000 0000 0000 0000 0000 0000 0000 0000
000002c0: 0000 0000 0000 0000 0000 0000 0000 0000
000002d0: 0000 0000 0000 0000 0000 0000 0000 0000
000002e0: 0000 0000 0000 0000 0000 0000 0000 0000
000002f0: 0000 0000 0000 0000 0000 0000 0000 0000
00000300: 437e ecbc e25e 243f 0000 0000 0000 0000
00000310: 6f2e 393f b5a5 e2bf 0000 0000 7b88 bf3f
00000320: 0000 0000 0000 0000 b971 0ac0 9840 4e3f
00000330: ffd4 2f3f 2dd0 5ebf 750d f03d 8b0f 053f
00000340: 0000 0000 0000 0000 0000 0000 0000 0000
00000350: 0000 0000 0000 0000 0000 0000 0000 0000
00000360: 0000 0000 0000 0000 0000 0000 0000 0000
00000370: 0000 0000 0000 0000 0000 0000 0000 0000
00000380: 97d9 53bd 8b1e 833f 0000 0000 0000 0000
00000390: 5f23 943f 0115 35c0 0000 0000 411c 1940
000003a0: 2db6 96ba 0000 0000 b47b 5dc0 081e a53f
000003b0: 65fa 8c3f 7a8a b2bf 4587 413e f6c8 563f
000003c0: 1056 5abd e116 933f 0000 0000 0000 0000
000003d0: 5fe1 a53f eeec 4ac0 0000 0000 0886 2b40
000003e0: 0000 0000 0000 0000 8a03 78c0 21b2 b83f
000003f0: 1e9b 9d3f 07a2 c7bf 78f1 573e ec41 6f3f
-0.05643232 1.0741882 0.0 0.0 1.2146577 -2.968461 0.0 2.5103252
-0.001852046 0.0 -3.6320498 1.3547038 1.1568782 -1.4650328 0.19864509 0.8827869
-0.0069000083 0.1326375 0.0 0.0 0.14994882 -0.3662572 0.0 0.30983526
-0.00023987461 0.0 -0.44811568 0.16726299 0.14281063 -0.18072055 0.024552805 0.10970669
-0.067260936 1.1844779 0.0 0.0 1.3417516 -3.2761302 0.0 2.7716312
-0.0035852212 0.0 -4.0114965 1.4984314 1.2800905 -1.6206241 0.22016318 0.98175645
0.0 0.0 0.0 0.0 0.0 0.0 0.0 0.0
0.0 0.0 0.0 0.0 0.0 0.0 0.0 0.0
0.0 0.0 0.0 0.0 0.0 0.0 0.0 0.0
0.0 0.0 0.0 0.0 0.0 0.0 0.0 0.0
-0.013122883 0.27728316 0.0 0.0 0.31285602 -0.7654502 0.0 0.646976
-3.389846e-05 0.0 -0.93569565 0.34835196 0.29734755 -0.37669426 0.050947987 0.22541565
0.0 0.0 0.0 0.0 0.0 0.0 0.0 0.0
0.0 0.0 0.0 0.0 0.0 0.0 0.0 0.0
0.0 0.0 0.0 0.0 0.0 0.0 0.0 0.0
0.0 0.0 0.0 0.0 0.0 0.0 0.0 0.0
-0.059562508 1.2749853 0.0 0.0 1.4381939 -3.5183904 0.0 2.97407
-2.0518604e-05 0.0 -4.300555 1.6012444 1.3666573 -1.7309469 0.2342357 1.0379399
-0.05863937 1.094048 0.0 0.0 1.2376661 -3.0241075 0.0 2.5575948
-0.0022299013 0.0 -3.70082 1.3808016 1.1792829 -1.4933581 0.20256144 0.9007053
0.0 0.0 0.0 0.0 0.0 0.0 0.0 0.0
0.0 0.0 0.0 0.0 0.0 0.0 0.0 0.0
0.0 0.0 0.0 0.0 0.0 0.0 0.0 0.0
0.0 0.0 0.0 0.0 0.0 0.0 0.0 0.0
-0.0288688 0.6420728 0.0 0.0 0.7233648 -1.770682 0.0 1.4963526
0.0 0.0 -2.163191 0.8056731 0.6868438 -0.870364 0.11721317 0.5197684
0.0 0.0 0.0 0.0 0.0 0.0 0.0 0.0
0.0 0.0 0.0 0.0 0.0 0.0 0.0 0.0
-0.05172118 1.0243696 0.0 0.0 1.1573294 -2.829407 0.0 2.3923495
-0.0011498384 0.0 -3.4606752 1.289979 1.1013914 -1.394851 0.18899257 0.8390039
-0.05330473 1.1491357 0.0 0.0 1.2959403 -3.170711 0.0 2.6800556
0.0 0.0 -3.875216 1.4429361 1.2312963 -1.5596322 0.21088207 0.93459964

exp_avg_sq f4 [16, 16]
00000000: c0a1 9438 1416 de3c 0000 0000 0000 0000
00000010: 7137 0d3d 815e 513e 0000 0000 5c6a 163e
00000020: 98ab da33 0000 0000 1083 9c3e 45cb 2f3d
00000030: a592 ff3c 27da 4a3d d793 753a 67cb a63c
00000040: 581a 8d35 7043 de39 0000 0000 0000 0000
00000050: 7424 0d3a f1d2 503b 0000 0000 d938 163b
00000060: 64a0 eb30 0000 0000 cf0d 9c3b e4c5 2f3a
00000070: 7b4e ff39 060a 4a3a 667d 7637 a688 a939
00000080: 2e1c d238 3b7f 073d 0000 0000 0000 0000
00000090: c5f3 2c3d 49e4 7f3e 0000 0000 a008 383e
000000a0: cce7 cc34 0000 0000 6697 bf3e f8db 573d
000000b0: b10b 1d3d 6f15 793d 4b92 973a 3bce cd3c
000000c0: 0000 0000 0000 0000 0000 0000 0000 0000
000000d0: 0000 0000 0000 0000 0000 0000 0000 0000
000000e0: 0000 0000 0000 0000 0000 0000 0000 0000
000000f0: 0000 0000 0000 0000 0000 0000 0000 0000
00000100: 0000 0000 0000 0000 0000 0000 0000 0000
00000110: 0000 0000 0000 0000 0000 0000 0000 0000
00000120: 0000 0000 0000 0000 0000 0000 0000 0000
00000130: 0000 0000 0000 0000 0000 0000 0000 0000
00000140: fccd 8136 c975 eb3a 0000 0000 0000 0000
00000150: 540b 153b d491 5d3c 0000 0000 69f5 1e3c
00000160: e457 132e 0000 0000 5b4f a53c a3ee 383b
00000170: 8c4a 063b ae71 553b fe4a 8038 1241 ae3a
00000180: 0000 0000 0000 0000 0000 0000 0000 0000
00000190: 0000 0000 0000 0000 0000 0000 0000 0000
000001a0: 0000 0000 0000 0000 0000 0000 0000 0000
000001b0: 0000 0000 0000 0000 0000 0000 0000 0000
000001c0: 0000 0000 0000 0000 0000 0000 0000 0000
000001d0: 0000 0000 0000 0000 0000 0000 0000 0000
000001e0: 0000 0000 0000 0000 0000 0000 0000 0000
000001f0: 0000 0000 0000 0000 0000 0000 0000 0000
00000200: 6a91 a638 cfd4 1c3d 0000 0000 0000 0000
00000210: 4962 463d 7e60 933e 0000 0000 b38a 533e
00000220: aae9 572d 0000 0000 90da db3e 6921 763d
00000230: 26a8 323d cad6 8d3d 5ae6 aa3a 7540 e93c
00000240: a855 a038 1b4e e63c 0000 0000 0000 0000
00000250: a695 123d 7a3d 593e 0000 0000 be19 1c3e
00000260: e87f 1e34 0000 0000 0e76 a23e c796 363d
00000270: 81c2 043d afbb 523d fd59 7f3a 4f4e ad3c
00000280: 0000 0000 0000 0000 0000 0000 0000 0000
00000290: 0000 0000 0000 0000 0000 0000 0000 0000
000002a0: 0000 0000 0000 0000 0000 0000 0000 0000
000002b0: 0000 0000 0000 0000 0000 0000 0000 0000
000002c0: 0000 0000 0000 0000 0000 0000 0000 0000
000002d0: 0000 0000 0000 0000 0000 0000 0000 0000
000002e0: 0000 0000 0000 0000 0000 0000 0000 0000
000002f0: 0000 0000 0000 0000 0000 0000 0000 0000
00000300: eb70 9c37 bbe8 1e3c 0000 0000 0000 0000
00000310: 2c7c 483c 6422 953d 0000 0000 37ec 553d
00000320: 0000 0000 0000 0000 783a de3d 78ef 783c
00000330: 813f 343c 7944 8f3c 24d1 aa39 98bf ea3b
00000340: 0000 0000 0000 0000 0000 0000 0000 0000
00000350: 0000 0000 0000 0000 0000 0000 0000 0000
00000360: 0000 0000 0000 0000 0000 0000 0000 0000
00000370: 0000 0000 0000 0000 0000 0000 0000 0000
00000380: da35 7a38 8c16 ca3c 0000 0000 0000 0000
00000390: 9842 003d bc4e 3e3e 0000 0000 7aab 083e
000003a0: 6069 2833 0000 0000 f426 8e3e a979 1f3d
000003b0: a0bb e73c f5f3 373d 1a4e 5e3a 5837 973c
000003c0: 9165 8538 2dc9 fe3c 0000 0000 0000 0000
000003d0: ff10 213d f35c 6f3e 0000 0000 cdc4 2b3e
000003e0: 0000 0000 0000 0000 5f80 b23e bfda 473d
000003f0: ea00 113d b848 663d 647c 8a3a 5242 bd3c
7.087318e-05 0.027110137 0.0 0.0 0.0344767 0.20446207 0.0 0.1468901
1.0182629e-07 0.0 0.30568743 0.042918462 0.031197855 0.049524453 0.0009368038 0.020360662
1.0512986e-06 0.00042393385 0.0 0.0 0.0005384155 0.0031864012 0.0 0.0022922067
1.7144086e-09 0.0 0.0047623883 0.0006705208 0.00048695863 0.0007707182 1.4691939e-05 0.00032336003
0.00010018829 0.03308032 0.0 0.0 0.042224664 0.24989428 0.0 0.1797204
3.8166615e-07 0.0 0.37420195 0.052700013 0.038341228 0.060811456 0.0011563984 0.025122752
0.0 0.0 0.0 0.0 0.0 0.0 0.0 0.0
0.0 0.0 0.0 0.0 0.0 0.0 0.0 0.0
0.0 0.0 0.0 0.0 0.0 0.0 0.0 0.0
0.0 0.0 0.0 0.0 0.0 0.0 0.0 0.0
3.8684793e-06 0.001796418 0.0 0.0 0.0022742348 0.013523538 0.0 0.009702065
3.3501993e-11 0.0 0.020179441 0.002821841 0.002049121 0.003256898 6.117484e-05 0.0013294539
0.0 0.0 0.0 0.0 0.0 0.0 0.0 0.0
0.0 0.0 0.0 0.0 0.0 0.0 0.0 0.0
0.0 0.0 0.0 0.0 0.0 0.0 0.0 0.0
0.0 0.0 0.0 0.0 0.0 0.0 0.0 0.0
7.942582e-05 0.038288888 0.0 0.0 0.048433576 0.28784555 0.0 0.20658378
1.2273219e-11 0.0 0.42940187 0.060090456 0.04361739 0.069257334 0.0013038621 0.028473118
7.645349e-05 0.028113415 0.0 0.0 0.035787247 0.21214858 0.0 0.15244195
1.4761429e-07 0.0 0.31730694 0.044577386 0.032412056 0.05144852 0.00097408873 0.021155505
0.0 0.0 0.0 0.0 0.0 0.0 0.0 0.0
0.0 0.0 0.0 0.0 0.0 0.0 0.0 0.0
0.0 0.0 0.0 0.0 0.0 0.0 0.0 0.0
0.0 0.0 0.0 0.0 0.0 0.0 0.0 0.0
1.864923e-05 0.009699042 0.0 0.0 0.012236636 0.0728195 0.0 0.052227225
0.0 0.0 0.10850996 0.015193813 0.011001469 0.017488705 0.0003258075 0.007163953
0.0 0.0 0.0 0.0 0.0 0.0 0.0 0.0
0.0 0.0 0.0 0.0 0.0 0.0 0.0 0.0
5.9654798e-05 0.024668954 0.0 0.0 0.03131351 0.18584722 0.0 0.13346663
3.9211386e-08 0.0 0.27764094 0.038934384 0.028287709 0.04491039 0.0008480266 0.018459007
6.3608524e-05 0.031101787 0.0 0.0 0.03932285 0.23375301 0.0 0.16774292
0.0 0.0 0.34863564 0.048792597 0.035401262 0.056221694 0.0010565636 0.023102913

exp_avg f4 [16, 16]
00000000: 0000 0000 0000 0000 0000 0000 0000 0000
00000010: 0000 0000 0000 0000 0000 0000 0000 0000
00000020: 0000 0000 0000 0000 0000 0000 0000 0000
00000030: 0000 0000 0000 0000 0000 0000 0000 0000
00000040: 0000 0000 0000 0000 0000 0000 0000 0000
00000050: 0000 0000 0000 0000 0000 0000 0000 0000
00000060: 0000 0000 0000 0000 0000 0000 0000 0000
00000070: 0000 0000 0000 0000 0000 0000 0000 0000
00000080: 0000 0000 0000 0000 0000 0000 0000 0000
00000090: 0000 0000 0000 0000 0000 0000 0000 0000
000000a0: 0000 0000 0000 0000 0000 0000 0000 0000
000000b0: 0000 0000 0000 0000 0000 0000 0000 0000
000000c0: 0000 0000 0000 0000 0000 0000 0000 0000
000000d0: 0000 0000 0000 0000 0000 0000 0000 0000
000000e0: 0000 0000 0000 0000 0000 0000 0000 0000
000000f0: 0000 0000 0000 0000 0000 0000 0000 0000
00000100: 0000 0000 0000 0000 0000 0000 0000 0000
00000110: 0000 0000 0000 0000 0000 0000 0000 0000
00000120: 0000 0000 0000 0000 0000 0000 0000 0000
00000130: 0000 0000 0000 0000 0000 0000 0000 0000
00000140: 0000 0000 0000 0000 0000 0000 0000 0000
00000150: 0000 0000 0000 0000 0000 0000 0000 0000
00000160: 0000 0000 0000 0000 0000 0000 0000 0000
00000170: 0000 0000 0000 0000 0000 0000 0000 0000
00000180: 0000 0000 0000 0000 0000 0000 0000 0000
00000190: 0000 0000 0000 0000 0000 0000 0000 0000
000001a0: 0000 0000 0000 0000 0000 0000 0000 0000
000001b0: 0000 0000 0000 0000 0000 0000 0000 0000
000001c0: 0000 0000 0000 0000 0000 0000 0000 0000
000001d0: 0000 0000 0000 0000 0000 0000 0000 0000
000001e0: 0000 0000 0000 0000 0000 0000 0000 0000
000001f0: 0000 0000 0000 0000 0000 0000 0000 0000
00000200: 0000 0000 0000 0000 0000 0000 0000 0000
00000210: 0000 0000 0000 0000 0000 0000 0000 0000
00000220: 0000 0000 0000 0000 0000 0000 0000 0000
00000230: 0000 0000 0000 0000 0000 0000 0000 0000
00000240: 0000 0000 0000 0000 0000 0000 0000 0000
00000250: 0000 0000 0000 0000 0000 0000 0000 0000
00000260: 0000 0000 0000 0000 0000 0000 0000 0000
00000270: 0000 0000 0000 0000 0000 0000 0000 0000
00000280: 0000 0000 0000 0000 0000 0000 0000 0000
00000290: 0000 0000 0000 0000 0000 0000 0000 0000
000002a0: 0000 0000 0000 0000 0000 0000 0000 0000
000002b0: 0000 0000 0000 0000 0000 0000 0000 0000
000002c0: 0000 0000 0000 0000 0000 0000 0000 0000
000002d0: 0000 0000 0000 0000 0000 0000 0000 0000
000002e0: 0000 0000 0000 0000 0000 0000 0000 0000
000002f0: 0000 0000 0000 0000 0000 0000 0000 0000
00000300: 0000 0000 0000 0000 0000 0000 0000 0000
00000310: 0000 0000 0000 0000 0000 0000 0000 0000
00000320: 0000 0000 0000 0000 0000 0000 0000 0000
00000330: 0000 0000 0000 0000 0000 0000 0000 0000
00000340: 0000 0000 0000 0000 0000 0000 0000 0000
00000350: 0000 0000 0000 0000 0000 0000 0000 0000
00000360: 0000 0000 0000 0000 0000 0000 0000 0000
00000370: 0000 0000 0000 0000 0000 0000 0000 0000
00000380: 0000 0000 0000 0000 0000 0000 0000 0000
00000390: 0000 0000 0000 0000 0000 0000 0000 0000
000003a0: 0000 0000 0000 0000 0000 0000 0000 0000
000003b0: 0000 0000 0000 0000 0000 0000 0000 0000
000003c0: 0000 0000 0000 0000 0000 0000 0000 0000
000003d0: 0000 0000 0000 0000 0000 0000 0000 0000
000003e0: 0000 0000 0000 0000 0000 0000 0000 0000
000003f0: 0000 0000 0000 0000 0000 0000 0000 0000
0.0 0.0 0.0 0.0 0.0 0.0 0.0 0.0
0.0 0.0 0.0 0.0 0.0 0.0 0.0 0.0
0.0 0.0 0.0 0.0 0.0 0.0 0.0 0.0
0.0 0.0 0.0 0.0 0.0 0.0 0.0 0.0
0.0 0.0 0.0 0.0 0.0 0.0 0.0 0.0
0.0 0.0 0.0 0.0 0.0 0.0 0.0 0.0
0.0 0.0 0.0 0.0 0.0 0.0 0.0 0.0
0.0 0.0 0.0 0.0 0.0 0.0 0.0 0.0
0.0 0.0 0.0 0.0 0.0 0.0 0.0 0.0
0.0 0.0 0.0 0.0 0.0 0.0 0.0 0.0
0.0 0.0 0.0 0.0 0.0 0.0 0.0 0.0
0.0 0.0 0.0 0.0 0.0 0.0 0.0 0.0
0.0 0.0 0.0 0.0 0.0 0.0 0.0 0.0
0.0 0.0 0.0 0.0 0.0 0.0 0.0 0.0
0.0 0.0 0.0 0.0 0.0 0.0 0.0 0.0
0.0 0.0 0.0 0.0 0.0 0.0 0.0 0.0
0.0 0.0 0.0 0.0 0.0 0.0 0.0 0.0
0.0 0.0 0.0 0.0 0.0 0.0 0.0 0.0
0.0 0.0 0.0 0.0 0.0 0.0 0.0 0.0
0.0 0.0 0.0 0.0 0.0 0.0 0.0 0.0
0.0 0.0 0.0 0.0 0.0 0.0 0.0 0.0
0.0 0.0 0.0 0.0 0.0 0.0 0.0 0.0
0.0 0.0 0.0 0.0 0.0 0.0 0.0 0.0
0.0 0.0 0.0 0.0 0.0 0.0 0.0 0.0
0.0 0.0 0.0 0.0 0.0 0.0 0.0 0.0
0.0 0.0 0.0 0.0 0.0 0.0 0.0 0.0
0.0 0.0 0.0 0.0 0.0 0.0 0.0 0.0
0.0 0.0 0.0 0.0 0.0 0.0 0.0 0.0
0.0 0.0 0.0 0.0 0.0 0.0 0.0 0.0
0.0 0.0 0.0 0.0 0.0 0.0 0.0 0.0
0.0 0.0 0.0 0.0 0.0 0.0 0.0 0.0
0.0 0.0 0.0 0.0 0.0 0.0 0.0 0.0

exp_avg_sq f4 [16, 16]
00000000: 0000 0000 0000 0000 0000 0000 0000 0000
00000010: 0000 0000 0000 0000 0000 0000 0000 0000
00000020: 0000 0000 0000 0000 0000 0000 0000 0000
00000030: 0000 0000 0000 0000 0000 0000 0000 0000
00000040: 0000 0000 0000 0000 0000 0000 0000 0000
00000050: 0000 0000 0000 0000 0000 0000 0000 0000
00000060: 0000 0000 0000 0000 0000 0000 0000 0000
00000070: 0000 0000 0000 0000 0000 0000 0000 0000
00000080: 0000 0000 0000 0000 0000 0000 0000 0000
00000090: 0000 0000 0000 0000 0000 0000 0000 0000
000000a0: 0000 0000 0000 0000 0000 0000 0000 0000
000000b0: 0000 0000 0000 0000 0000 0000 0000 0000
000000c0: 0000 0000 0000 0000 0000 0000 0000 0000
000000d0: 0000 0000 0000 0000 0000 0000 0000 0000
000000e0: 0000 0000 0000 0000 0000 0000 0000 0000
000000f0: 0000 0000 0000 0000 0000 0000 0000 0000
00000100: 0000 0000 0000 0000 0000 0000 0000 0000
00000110: 0000 0000 0000 0000 0000 0000 0000 0000
00000120: 0000 0000 0000 0000 0000 0000 0000 0000
00000130: 0000 0000 0000 0000 0000 0000 0000 0000
00000140: 0000 0000 0000 0000 0000 0000 0000 0000
00000150: 0000 0000 0000 0000 0000 0000 0000 0000
00000160: 0000 0000 0000 0000 0000 0000 0000 0000
00000170: 0000 0000 0000 0000 0000 0000 0000 0000
00000180: 0000 0000 0000 0000 0000 0000 0000 0000
00000190: 0000 0000 0000 0000 0000 0000 0000 0000
000001a0: 0000 0000 0000 0000 0000 0000 0000 0000
000001b0: 0000 0000 0000 0000 0000 0000 0000 0000
000001c0: 0000 0000 0000 0000 0000 0000 0000 0000
000001d0: 0000 0000 0000 0000 0000 0000 0000 0000
000001e0: 0000 0000 0000 0000 0000 0000 0000 0000
000001f0: 0000 0000 0000 0000 0000 0000 0000 0000
00000200: 0000 0000 0000 0000 0000 0000 0000 0000
00000210: 0000 0000 0000 0000 0000 0000 0000 0000
00000220: 0000 0000 0000 0000 0000 0000 0000 0000
00000230: 0000 0000 0000 0000 0000 0000 0000 0000
00000240: 0000 0000 0000 0000 0000 0000 0000 0000
00000250: 0000 0000 0000 0000 0000 0000 0000 0000
00000260: 0000 0000 0000 0000 0000 0000 0000 0000
00000270: 0000 0000 0000 0000 0000 0000 0000 0000
00000280: 0000 0000 0000 0000 0000 0000 0000 0000
00000290: 0000 0000 0000 0000 0000 0000 0000 0000
000002a0: 0000 0000 0000 0000 0000 0000 0000 0000
000002b0: 0000 0000 0000 0000 0000 0000 0000 0000
000002c0: 0000 0000 0000 0000 0000 0000 0000 0000
000002d0: 0000 0000 0000 0000 0000 0000 0000 0000
000002e0: 0000 0000 0000 0000 0000 0000 0000 0000
000002f0: 0000 0000 0000 0000 0000 0000 0000 0000
00000300: 0000 0000 0000 0000 0000 0000 0000 0000
00000310: 0000 0000 0000 0000 0000 0000 0000 0000
00000320: 0000 0000 0000 0000 0000 0000 0000 0000
00000330: 0000 0000 0000 0000 0000 0000 0000 0000
00000340: 0000 0000 0000 0000 0000 0000 0000 0000
00000350: 0000 0000 0000 0000 0000 0000 0000 0000
00000360: 0000 0000 0000 0000 0000 0000 0000 0000
00000370: 0000 0000 0000 0000 0000 0000 0000 0000
00000380: 0000 0000 0000 0000 0000 0000 0000 0000
00000390: 0000 0000 0000 0000 0000 0000 0000 0000
000003a0: 0000 0000 0000 0000 0000 0000 0000 0000
000003b0: 0000 0000 0000 0000 0000 0000 0000 0000
000003c0: 0000 0000 0000 0000 0000 0000 0000 0000
000003d0: 0000 0000 0000 0000 0000 0000 0000 0000
000003e0: 0000 0000 0000 0000 0000 0000 0000 0000
000003f0: 0000 0000 0000 0000 0000 0000 0000 0000
0.0 0.0 0.0 0.0 0.0 0.0 0.0 0.0
0.0 0.0 0.0 0.0 0.0 0.0 0.0 0.0
0.0 0.0 0.0 0.0 0.0 0.0 0.0 0.0
0.0 0.0 0.0 0.0 0.0 0.0 0.0 0.0
0.0 0.0 0.0 0.0 0.0 0.0 0.0 0.0
0.0 0.0 0.0 0.0 0.0 0.0 0.0 0.0
0.0 0.0 0.0 0.0 0.0 0.0 0.0 0.0
0.0 0.0 0.0 0.0 0.0 0.0 0.0 0.0
0.0 0.0 0.0 0.0 0.0 0.0 0.0 0.0
0.0 0.0 0.0 0.0 0.0 0.0 0.0 0.0
0.0 0.0 0.0 0.0 0.0 0.0 0.0 0.0
0.0 0.0 0.0 0.0 0.0 0.0 0.0 0.0
0.0 0.0 0.0 0.0 0.0 0.0 0.0 0.0
0.0 0.0 0.0 0.0 0.0 0.0 0.0 0.0
0.0 0.0 0.0 0.0 0.0 0.0 0.0 0.0
0.0 0.0 0.0 0.0 0.0 0.0 0.0 0.0
0.0 0.0 0.0 0.0 0.0 0.0 0.0 0.0
0.0 0.0 0.0 0.0 0.0 0.0 0.0 0.0
0.0 0.0 0.0 0.0 0.0 0.0 0.0 0.0
0.0 0.0 0.0 0.0 0.0 0.0 0.0 0.0
0.0 0.0 0.0 0.0 0.0 0.0 0.0 0.0
0.0 0.0 0.0 0.0 0.0 0.0 0.0 0.0
0.0 0.0 0.0 0.0 0.0 0.0 0.0 0.0
0.0 0.0 0.0 0.0 0.0 0.0 0.0 0.0
0.0 0.0 0.0 0.0 0.0 0.0 0.0 0.0
0.0 0.0 0.0 0.0 0.0 0.0 0.0 0.0
0.0 0.0 0.0 0.0 0.0 0.0 0.0 0.0
0.0 0.0 0.0 0.0 0.0 0.0 0.0 0.0
0.0 0.0 0.0 0.0 0.0 0.0 0.0 0.0
0.0 0.0 0.0 0.0 0.0 0.0 0.0 0.0
0.0 0.0 0.0 0.0 0.0 0.0 0.0 0.0
0.0 0.0 0.0 0.0 0.0 0.0 0.0 0.0

exp_avg f4 [16, 16]
00000000: 35b8 b23b 36cd 5d3b 0000 0000 0000 0000
00000010: 324c b83a 0b08 c3bb 0000 0000 89c1 873b
00000020: 0e78 c93a 0000 0000 6b7d 8cbb 11d8 d1b9
00000030: 7816 59ba cfb6 663a 68b3 dbb9 1fb8 99bb
00000040: efa5 2e3a 02f2 d439 0000 0000 0000 0000
00000050: b2be 3839 c765 3dba 0000 0000 71c1 043a
00000060: 3dab 3439 0000 0000 f10d 0cba 9468 12b8
00000070: 6ad4 b2b8 c61d bc38 758a 40b8 6181 0dba
00000080: fe1c c63b 329b 0b3a 0000 0000 0000 0000
00000090: de90 1b39 a0ba 31ba 0000 0000 adba 243a
000000a0: 7bdc 133a 0000 0000 238e afb9 11a0 3fba
000000b0: 237c d0b9 8941 373a 0575 d038 7432 c9bb
000000c0: 0000 0000 0000 0000 0000 0000 0000 0000
000000d0: 0000 0000 0000 0000 0000 0000 0000 0000
000000e0: 0000 0000 0000 0000 0000 0000 0000 0000
000000f0: 0000 0000 0000 0000 0000 0000 0000 0000
00000100: 0000 0000 0000 0000 0000 0000 0000 0000
00000110: 0000 0000 0000 0000 0000 0000 0000 0000
00000120: 0000 0000 0000 0000 0000 0000 0000 0000
00000130: 0000 0000 0000 0000 0000 0000 0000 0000
00000140: b573 b73a e209 ec3a 0000 0000 0000 0000
00000150: f687 493a 2d67 54bb 0000 0000 7dd8 103b
00000160: 20a0 3d3a 0000 0000 95d9 1bbb cc91 adb7
00000170: b9e3 beb9 3a05 a139 320b 8eb9 2778 74ba
00000180: 0000 0000 0000 0000 0000 0000 0000 0000
00000190: 0000 0000 0000 0000 0000 0000 0000 0000
000001a0: 0000 0000 0000 0000 0000 0000 0000 0000
000001b0: 0000 0000 0000 0000 0000 0000 0000 0000
000001c0: 0000 0000 0000 0000 0000 0000 0000 0000
000001d0: 0000 0000 0000 0000 0000 0000 0000 0000
000001e0: 0000 0000 0000 0000 0000 0000 0000 0000
000001f0: 0000 0000 0000 0000 0000 0000 0000 0000
00000200: 46f3 d13b d385 0c3c 0000 0000 0000 0000
00000210: 9ad4 713b c799 7dbc 0000 0000 f300 2d3c
00000220: 1666 5e3b 0000 0000 f8f5 3abc 7e90 8ab7
00000230: c841 dbba e8a7 b43a be91 a8ba a506 85bb
00000240: 9f5a b63b f1db 323b 0000 0000 0000 0000
00000250: d80f 923a f03f 9bbb 0000 0000 fc5a 5a3b
00000260: b5ac ac3a 0000 0000 d406 5dbb 7219 fbb9
00000270: 2c64 40ba e2ed 5c3a 3688 9eb9 343f a4bb
00000280: 0000 0000 0000 0000 0000 0000 0000 0000
00000290: 0000 0000 0000 0000 0000 0000 0000 0000
000002a0: 0000 0000 0000 0000 0000 0000 0000 0000
000002b0: 0000 0000 0000 0000 0000 0000 0000 0000
000002c0: 0000 0000 0000 0000 0000 0000 0000 0000
000002d0: 0000 0000 0000 0000 0000 0000 0000 0000
000002e0: 0000 0000 0000 0000 0000 0000 0000 0000
000002f0: 0000 0000 0000 0000 0000 0000 0000 0000
00000300: df0b 303b 7054 a93b 0000 0000 0000 0000
00000310: c173 023b 6e08 14bc 0000 0000 3af4 c33b
00000320: 03c7 e13a 0000 0000 ebb0 cbbb e665 d739
00000330: 96b8 9eba 53d6 503a 3044 98ba f847 02bb
00000340: 0000 0000 0000 0000 0000 0000 0000 0000
00000350: 0000 0000 0000 0000 0000 0000 0000 0000
00000360: 0000 0000 0000 0000 0000 0000 0000 0000
00000370: 0000 0000 0000 0000 0000 0000 0000 0000
00000380: 51d6 a93b 9423 943b 0000 0000 0000 0000
00000390: 45d4 fa3a 9415 04bc 0000 0000 2ddf b53b
000003a0: b86f fa3a 0000 0000 7ab0 c0bb d683 84b9
000003b0: 6e47 81ba eb22 753a 876f 23ba f1a3 84bb
000003c0: 0af0 b73b 1d46 033c 0000 0000 0000 0000
000003d0: 5b7c 5d3b 3d89 6bbc 0000 0000 78c8 1f3c
000003e0: 8c68 493b 0000 0000 a586 2bbc 6ce6 ef38
000003f0: 824c d4ba 18d6 a63a 1888 acba 92c5 6dbb
0.005454088 0.003384424 0.0 0.0 0.0014060794 -0.0059518865 0.0 0.0041429442
0.0015370862 0.0 -0.004287412 -0.00040024568 -0.0008281241 0.00088010443 -0.00041904603 -0.0046911384
0.0006662299 0.000406161 0.0 0.0 0.00017618647 -0.0007224944 0.0 0.00050642254
0.00017229929 0.0 -0.00053426536 -3.490651e-05 -8.5272666e-05 8.970084e-05 -4.5905315e-05 -0.0005398002
0.0060459366 0.0005325555 0.0 0.0 0.00014835919 -0.00067798235 0.0 0.00062839204
0.0005640459 0.0 -0.000334845 -0.00073099235 -0.0003976534 0.00069906615 9.9400095e-05 -0.0061400477
0.0 0.0 0.0 0.0 0.0 0.0 0.0 0.0
0.0 0.0 0.0 0.0 0.0 0.0 0.0 0.0
0.0 0.0 0.0 0.0 0.0 0.0 0.0 0.0
0.0 0.0 0.0 0.0 0.0 0.0 0.0 0.0
0.0013996275 0.0018008316 0.0 0.0 0.0007687801 -0.003241013 0.0 0.0022101693
0.00072336383 0.0 -0.0023780812 -2.0691099e-05 -0.0003640929 0.00030712207 -0.00027092692 -0.00093257654
0.0 0.0 0.0 0.0 0.0 0.0 0.0 0.0
0.0 0.0 0.0 0.0 0.0 0.0 0.0 0.0
0.0 0.0 0.0 0.0 0.0 0.0 0.0 0.0
0.0 0.0 0.0 0.0 0.0 0.0 0.0 0.0
0.0064071743 0.008576828 0.0 0.0 0.0036900402 -0.015478558 0.0 0.010559308
0.003393536 0.0 -0.011411183 -1.6518166e-05 -0.0016727978 0.001378295 -0.0012860817 -0.00405963
0.005565002 0.002729174 0.0 0.0 0.0011143638 -0.0047378466 0.0 0.003331839
0.0013174029 0.0 -0.0033725994 -0.0004789341 -0.00073391455 0.0008427781 -0.00030237593 -0.005012417
0.0 0.0 0.0 0.0 0.0 0.0 0.0 0.0
0.0 0.0 0.0 0.0 0.0 0.0 0.0 0.0
0.0 0.0 0.0 0.0 0.0 0.0 0.0 0.0
0.0 0.0 0.0 0.0 0.0 0.0 0.0 0.0
0.0026862544 0.0051675364 0.0 0.0 0.001990542 -0.009035213 0.0 0.005980042
0.0017225448 0.0 -0.0062161586 0.00041083916 -0.0012109454 0.0007966507 -0.0011617001 -0.0019879322
0.0 0.0 0.0 0.0 0.0 0.0 0.0 0.0
0.0 0.0 0.0 0.0 0.0 0.0 0.0 0.0
0.005183019 0.004520843 0.0 0.0 0.0019136748 -0.008061785 0.0 0.0055502863
0.0019106781 0.0 -0.0058804126 -0.00025275227 -0.0009863207 0.00093512115 -0.00062345754 -0.0040478637
0.0056133317 0.008012322 0.0 0.0 0.0033796045 -0.014375982 0.0 0.009752385
0.003073248 0.0 -0.0104691135 0.000114393275 -0.0016197118 0.00127286 -0.0013163118 -0.003628109
