results/Test_citation/version_100/checkpoints/epoch=0-step=0.ckpt (torch, 566417 bytes, 27 tensors)

simplicial_nn.0.W0 f4 [1, 64]
00000000: fcae a03d 2451 c7bd 90cb 6c3d 66b7 7b3e
00000010: ec93 993d 7cae d23d 2665 4cbe b37a c53e
00000020: 03fe bf3e 2a86 9cbe baa7 1bbe 4653 4d3e
00000030: b05d 0fbe b659 bfbe 13f2 8a3e a339 c23e
00000040: 6c3e 36be 2649 76be 3d4b a33e ecbf 3cbe
00000050: 77ee ac3e 9cbd 9ebd 0029 c73b b6dc 343e
00000060: 80b9 df3c 8e46 073e 3dc7 d73e 30c1 8c3d
00000070: f8db e9bd 280c 9dbd 53b5 a53e 00d4 f8b9
00000080: ca8a 94be 2c15 943d 35c7 c9be 3a39 20be
00000090: 4ec6 8cbe 2df2 bdbe bc08 8c3d 0871 0abd
000000a0: c370 ce3e fc6b b5bd d87f 02bd 6689 793e
000000b0: 43f8 ce3e 5af5 1cbe 5229 673e 4a1d 1b3e
000000c0: 60f9 e9bd 19f9 7cbe 1aa5 023e c0a2 d5bb
000000d0: dc43 77be 7196 53be 57c8 67be 4971 38be
000000e0: 81e9 cabe e11e 8abe a2b8 3d3e 8c7c 76be
000000f0: dc19 56be b46e b5bd 3a99 1f3e b466 e33d
0.078458756 -0.09732273 0.05781132 0.2458168 0.07498917 0.102871865 -0.1996046 0.38570175
0.37498483 -0.3057111 -0.15200701 0.20051298 -0.14000583 -0.37373132 0.27137813 0.37934598
-0.1779725 -0.24051341 0.3189334 -0.18432587 0.33775684 -0.07751009 0.0060778856 0.1766232
0.027310133 0.13210508 0.42144194 0.06872785 -0.11418909 -0.07668334 0.32364902 -0.00047460198
-0.29012138 0.07230601 -0.39409795 -0.1564683 -0.27495044 -0.37098828 0.068376034 -0.0337992
0.40320405 -0.08858487 -0.031860203 0.2436882 0.40423784 -0.15327969 0.22574356 0.15147892
-0.11424518 -0.24704398 0.12758294 -0.0065196455 -0.2414698 -0.20662858 -0.22635017 -0.18011965
-0.39631274 -0.26976684 0.18527463 -0.24070948 -0.20908302 -0.088590056 0.15585795 0.111035734

simplicial_nn.0.W1 f4 [5, 1, 64]
00000000: ee28 c9bd fec6 e13d c1e2 86bd 26c4 f23d
00000010: 992d 013e 2499 873d d17e e5bd c604 bc3d
00000020: 1616 c93d 1840 773d 2c9c 22bd 38ae e23c
00000030: b29b f33d 008f 833c 26ad 863d 0cbb 783d
00000040: fcf6 24be 000f ab3c 3846 12be 3f7d 293e
00000050: b3eb 2d3e 9fde 33be 98f3 653d 80b4 f6ba
00000060: 20fd cbbc 308b 903d 256d 2b3e 8b15 153e
00000070: aaba 20be 49f6 0b3e e2c4 ed3d d1ec 0a3e
00000080: 2099 07bc dee6 c03d ea99 c93d 6311 203e
00000090: d057 393d 2b2b 103e da93 0ebe 5c65 08bd
000000a0: 2f99 21be 02b1 f0bd a898 e43c e0cc 463d
000000b0: 1c41 6abd 83da 043e 9cc6 a0bd 5480 23bd
000000c0: 416b 013e d1d5 08be 4b14 323e 2018 2e3d
000000d0: 688b 793d e50b bebd 7a8b cabd 6162 84bd
000000e0: c805 293d 107b ebbc cf8b 32be ddcc 093e
000000f0: bea0 d03d ae0f 8e3d 70c6 7a3d 254a 89bd
00000100: 576c a0bd f072 9b3c dd03 2ebe 76a5 94bd
00000110: 8065 bcbc 950c 96bd 90c1 2abe 0d9d 283e
00000120: 804f 09bc d2cd dbbd 34fd 813d 9ce0 09bd
00000130: 022b f03d 4b87 c9bd dee2 d13d d09c 733c
00000140: 0214 87bd 80ee 16be 823f f6bd e0c8 40bd
00000150: 87b4 033e 97bb bcbd 1f3c 2e3e 647a 033d
00000160: e045 0d3d 600b 8dbb 19bd 1abe 57f6 d2bd
00000170: 11f7 003e 0287 c93d 0460 73bd 346c 323d
00000180: a062 02be 3bc6 243e 2fa5 c6bd 38ba 05be
00000190: d715 18be 0ae9 a63d aaff ce3d 9882 683d
000001a0: e579 2b3e a226 b83d efa7 d3bd ec8a 01be
000001b0: 8363 343e 86ab 2bbe 8e7b c73d 94a5 313d
000001c0: 30a2 26be d0ae 073d 066f a83d 8299 a43d
000001d0: d3dc 213e 81bb cebd afee c5bd 8e88 f63d
000001e0: 201a 8cbd b4a7 2fbe f846 46bd 1852 2dbe
000001f0: 1a77 ce3d 9eda e63d c040 33bd d847 f8bc
00000200: 024e f1bd 5452 0fbd b502 f8bd b87d c63c
00000210: 645b 1ebe 08fe cf3c 87a3 2ebe 6041 de3c
00000220: b662 a93d 5b97 2dbe 852d 003e 964d e9bd
00000230: dada bc3d 3973 17be 8054 25be 18fd 633d
00000240: c005 09bd 36c5 bb3d 60ee f73c 16fb ac3d
00000250: 6a7c f13d 236c 183e b0ca d4bd 32df 18be
00000260: a818 c83c 774b 283e 6969 e4bd 48b9 17bd
00000270: 5773 33be 9033 4ebc f222 eebd 3553 1ebe
00000280: c07c 43bc 4f60 253e 31c6 d4bd 75f5 febd
00000290: 64df 09bd 7348 143e 001f 9fbc 9ac9 06be
000002a0: 5b05 03be f488 353d 80ba 3c3c cac8 ea3d
000002b0: 0c46 203d aa48 fc3d 3a7e 89bd 029e dd3d
000002c0: 4c2d 10bd c711 b1bd a0b4 d7bb 96e3 a23d
000002d0: 6428 813d bf12 ffbd 3a51 ba3d e0b7 1f3d
000002e0: e041 20be 000d 42bb 468c febd 0063 d4ba
000002f0: 2038 96bd 40d6 09bc 7f38 26be 7273 2ebe
00000300: 72e3 a93d 7e94 00be 9c1c 30be 59f0 1bbe
00000310: c202 de3d 52f1 8e3d 460e 6cbd 7ff0 2a3e
00000320: e0a0 653d 60be 15bc e00c 0abe 59e4 a5bd
00000330: 562e 0dbe ca8e f43d 40e1 f83c d072 a5bd
00000340: e69a 8f3d e0f9 6f3d 4685 22be 23bb 243e
00000350: a60f ee3d 4007 2f3d 2cdb 2bbd ab52 00be
00000360: f287 f5bd 6aab 943d a78a 2fbe 26cd 953d
00000370: 08c1 0abe 5552 2b3e 8053 ae3c 048c ddbd
00000380: 6274 d83d 7c90 1dbd 381c 88bc 80c1 37bd
00000390: 4240 f6bd fc95 443d 4855 5dbd 4218 fd3d
000003a0: 6314 213e b8ff 47bd 603c db3c e636 bc3d
000003b0: df2d 043e 14b7 6a3d dbb9 243e 7b64 193e
000003c0: e9ab 2f3e 6000 febc 87c2 bebd fc2b 22be
000003d0: fff6 11be 050b 143e 280f b73c 7240 a0bd
000003e0: c02f 2ebd 0a8d d73d aa96 e13d c800 fbbc
000003f0: 440f 37bd b88d 0e3d e53a cdbd 8538 1e3e
-0.0982226 0.11024283 -0.065862186 0.118538186 0.1261505 0.06621006 -0.11205829 0.09180598
0.09818666 0.06036386 -0.03969972 0.027670965 0.11894931 0.016059399 0.06575994 0.060725257
-0.16109842 0.020881176 -0.14284599 0.16551684 0.16984443 -0.17565392 0.056140512 -0.0018822104
-0.024900973 0.07057798 0.16740854 0.14558999 -0.15696207 0.13668169 0.11609818 0.13566901
-0.008276254 0.094190344 0.0984381 0.15631633 0.04524976 0.14078967 -0.13923588 -0.03329979
-0.15781091 -0.117525116 0.027904823 0.048535228 -0.057191 0.1297398 -0.07850382 -0.039917305
0.1263857 -0.13362814 0.17390554 0.042503476 0.060923964 -0.092796125 -0.09889884 -0.06464077
0.04126528 -0.028745204 -0.17436145 0.13457055 0.10186909 0.069365844 0.0612244 -0.06703595
-0.07833164 0.018975705 -0.16993661 -0.07258122 -0.022997618 -0.073266186 -0.166754 0.1646616
-0.008380771 -0.107326165 0.06347123 -0.03366147 0.11726953 -0.09840258 0.102483496 0.01486893
-0.06595613 -0.14739418 -0.12023832 -0.04706657 0.12861834 -0.092154674 0.17015122 0.032099143
0.034490466 -0.0043043345 -0.15111198 -0.10300892 0.12594248 0.09840204 -0.05941774 0.04356022
-0.12732935 0.16091244 -0.09699475 -0.13059318 -0.14852081 0.081499174 0.10107358 0.05676517
0.16745718 0.089917436 -0.10334765 -0.1265065 0.17616086 -0.1676465 0.09740363 0.0433708
-0.16272807 0.0331257 0.08224301 0.08037092 0.15806894 -0.10094357 -0.09664666 0.120377645
-0.068409204 -0.17153817 -0.048407525 -0.16925848 0.100813106 0.11272167 -0.043762922 -0.030307695
-0.11782457 -0.034990624 -0.12109891 0.02422987 -0.1546455 0.025389686 -0.17054568 0.027130783
0.08270781 -0.16952269 0.12517364 -0.113917515 0.0922143 -0.14790048 -0.16145515 0.05566129
-0.03345275 0.091684744 0.030265033 0.08446328 0.11791308 0.14885001 -0.10390222 -0.14928892
0.02442582 0.16435038 -0.11152918 -0.037041932 -0.17524467 -0.012585536 -0.11627759 -0.15461428
-0.011931598 0.1615002 -0.103893645 -0.12449161 -0.033660308 0.14480762 -0.019423962 -0.13162842
-0.12795012 0.04432006 0.011519074 0.11464079 0.039129302 0.12318547 -0.06713529 0.10821153
-0.03519945 -0.08645969 -0.0065828115 0.07953565 0.06306532 -0.124547474 0.09097524 0.038993716
-0.1565013 -0.00296098 -0.12429099 -0.0016203821 -0.07334924 -0.008412898 -0.16232489 -0.17036226
0.08295335 -0.12556645 -0.17198414 -0.15228404 0.1084037 0.06979622 -0.0576308 0.16693304
0.056061625 -0.009139627 -0.13481474 -0.081001945 -0.13787207 0.11941297 0.030380845 -0.08078539
0.070119664 0.05858791 -0.15871152 0.16087012 0.116240785 0.042731524 -0.041957065 -0.12531535
-0.1198882 0.07259257 -0.17142735 0.073145196 -0.13550198 0.16730626 0.02128005 -0.108177215
0.10569073 -0.03846787 -0.016615018 -0.04486227 -0.12023975 0.0479946 -0.05403641 0.123581424
0.15730433 -0.048827857 0.026762187 0.091901585 0.12908123 0.057303503 0.16086523 0.14979737
0.17155422 -0.031006038 -0.09314447 -0.15837091 -0.14254378 0.14457329 0.022346094 -0.07824792
-0.042526007 0.10524948 0.11015065 -0.030640021 -0.044692293 0.034803122 -0.10020999 0.15451248

simplicial_nn.0.W2 f4 [5, 1, 64]
00000000: bb64 243e 7076 de3c 5c78 683d fc1f 403d
00000010: 2eec bb3d 2a3a ad3d 3941 a8bd a2d6 c3bd
00000020: 2b24 b2bd 00f7 88bc bc3b 1dbe 790d debd
00000030: 4c84 04be 74a5 cabd c061 ce3c d394 043e
00000040: fdfb a3bd ea69 c5bd 4012 213d 2077 323d
00000050: 080b 0fbd 6d6b 8bbd 10cf 1cbe aa30 94bd
00000060: c8c7 423d 0ff7 18be 4a14 f73d 20cd 433d
00000070: 8dfe 2fbe 363f a63d 30c3 5fbc 65df 223e
00000080: 9419 0cbe a903 333e 34f3 863d 285f adbc
00000090: 385f a4bc 982b 8ebd f80c 42bd f47d 283d
000000a0: 9ed0 e23d bdb5 2f3e 6461 31be b441 5a3d
000000b0: f7a3 b8bd 00d5 d1bb dd58 103e 56d4 b53d
000000c0: 4a90 1fbe ab95 283e 8079 d9bb 808e 793d
000000d0: d818 983c b079 363c e622 de3d b0e3 da3c
000000e0: 1e86 a93d ba1d f23d 0000 a43a ce16 fd3d
000000f0: a97d 1b3e 00f2 d0bb d00c 1fbc 1914 23be
00000100: 0e1a f93d 271e dfbd 1cbc 46bd 913c 063e
00000110: d089 043d a01f d63c 6bef 313e 50e5 653c
00000120: 8fb4 1ebe 18ea 2fbe fc2b a0bd 4551 26be
00000130: 351e 0dbe 3750 243e 3ea3 ea3d c07b 66bc
00000140: 473b 0d3e a55f 033e ea94 e43d 4ae1 fe3d
00000150: 4898 6b3d 28be fbbc 7511 043e b63a 9a3d
00000160: 660d ee3d 0019 893d c86b 8fbc 2014 633c
00000170: 5cd2 0d3d 1449 34be 13e7 1ebe ac53 04bd
00000180: 22c8 eb3d f84c ae3c 2863 debd b8fe fdbc
00000190: 4973 333e ecb8 93bd d001 573d 003e 17bd
000001a0: 0fa5 033e 35df cdbd a025 21bd ea82 d53d
000001b0: 7d36 2e3e 2090 a0bc c87b 833c 6541 053e
000001c0: 30bf 00be a09f 21be 0c35 7f3d 9825 413d
000001d0: 30a7 4ebd 00b7 e23b dbe7 cebd 9c2f a8bd
000001e0: 6df4 2f3e f0b2 903d fa7d e53d 4c0a 123d
000001f0: c087 bbbb 682b 0ebe 7c32 11bd d1df a9bd
00000200: 49bc f9bd 70b2 a53c 8a8e 72bd b9b5 0c3e
00000210: 4fe1 0b3e 50e9 a0bd 103e 583c 97f1 023e
00000220: d8c4 793d 3fa8 003e 50fa 58bc d1c0 8bbd
00000230: 40ba f1bb b89a 64bd 608d 0dbe 1eaa 2cbe
00000240: 268a bb3d e419 6a3d d183 1d3e 8fee 273e
00000250: 64f8 1abe aa85 68bd 489f 33be 1ed7 d4bd
00000260: 00ba 4d3d 4d4a 9cbd ea63 ec3d bba4 0a3e
00000270: b841 4f3d 92c6 8ebd 34f2 0bbe ac47 0ebe
00000280: f48d 6bbd 6609 d33d d636 e53d 8970 063e
00000290: 0921 2c3e b833 4f3d 9b2b 89bd aac1 0ebe
000002a0: 2ccd 163d 6857 0bbe d006 15bc e043 e6bc
000002b0: b0f4 833d 23da 8abd fee5 21be e65f c4bd
000002c0: 2882 ae3c 0e13 25be 40a5 b8bc b18d 133e
000002d0: 2884 25be e390 2f3e 2413 19be d7f2 023e
000002e0: 600f a1bd 152e 23be 5208 93bd e31c bebd
000002f0: e96a b2bd 3e87 a63d 4066 d73c e525 0bbe
00000300: 88ad 1ebd 582f c2bc e97d 02be 5575 223e
00000310: 6077 1fbd d461 35bd fb15 2e3e d6e3 c43d
00000320: 3d06 103e b8de 40bd 6042 713d 9c12 16bd
00000330: ce12 cd3d 5970 193e 4cd2 4d3d 606d 50bd
00000340: 72f5 22be 6ec5 ee3d 9e0c d83d 6fe0 183e
00000350: f00e 7b3c 62a8 ca3d 6027 afbd 9e2d cabd
00000360: 40aa d5bb 7b40 2d3e 5a73 fbbd 48aa 873d
00000370: c00f bbbb 84bb 623d 90ba 50bd 9f6e 2dbe
00000380: e033 9dbd ce9d e73d 6c46 6d3d dcee 733d
00000390: b014 26bd b613 0cbe d002 6cbc ce94 b0bd
000003a0: 2acd 9e3d 5021 12be c504 26be 80a2 d4ba
000003b0: 4848 9f3c 1059 4dbc b1a0 19be 0718 02be
000003c0: fa91 e43d 0c6c 573d 50c4 2cbd 949d c3bd
000003d0: a401 8ebd b7ac 103e 60d9 113d 80e2 903d
000003e0: 1c29 04bd c898 1fbd 9c8d a8bd 583d 17bd
000003f0: 442f 28bd 2634 c43d 65a8 343e 2634 ef3d
0.1605405 0.027156085 0.05675541 0.046905503 0.09175907 0.084583595 -0.08215565 -0.09562422
-0.08698305 -0.016719341 -0.15354818 -0.108424135 -0.12941092 -0.09894839 0.025193095 0.12947397
-0.08007047 -0.09639342 0.039324045 0.043570638 -0.03492263 -0.06807599 -0.15313363 -0.072358444
0.047553807 -0.14937995 0.12064417 0.047803044 -0.17186947 0.08117525 -0.013657376 0.15905531
-0.13681632 0.17481865 0.06589356 -0.021163538 -0.020064935 -0.069419086 -0.04737565 0.041135743
0.11074947 0.17159171 -0.17322308 0.053285316 -0.09015649 -0.0064035654 0.14096399 0.088783905
-0.15582386 0.16463344 -0.0066367984 0.060926914 0.018566534 0.011137411 0.108465 0.026719898
0.08277534 0.11822076 0.0012512207 0.12357865 0.15184654 -0.006376505 -0.009707645 -0.15925635
0.12163173 -0.10894423 -0.04851924 0.13109042 0.03235799 0.026138127 0.17376487 0.014031723
-0.15498565 -0.17179143 -0.07820889 -0.1624194 -0.13781054 0.16046225 0.11456917 -0.01406759
0.13792144 0.12829454 0.111612156 0.12445314 0.057518274 -0.030730322 0.12897284 0.075307295
0.11623649 0.066942215 -0.017507449 0.013859779 0.034624442 -0.17606002 -0.15517835 -0.03230636
0.11512782 0.021276936 -0.10858756 -0.031005248 0.17524447 -0.072130054 0.052491963 -0.036924362
0.12855934 -0.10052339 -0.039342523 0.104253605 0.17012973 -0.019599974 0.016050234 0.13013227
-0.12572932 -0.15783548 0.06230645 0.047154993 -0.05045241 0.006918788 -0.10102817 -0.08212206
0.17183085 0.070653796 0.11205669 0.03565435 -0.00572297 -0.13883746 -0.035448536 -0.08294643
-0.12194116 0.020226687 -0.059217967 0.13741197 0.13660167 -0.07857001 0.013198391 0.12787472
0.06097874 0.12564181 -0.013243273 -0.06823886 -0.007376939 -0.055811614 -0.13823462 -0.1686177
0.09157209 0.057153597 0.15382315 0.16399597 -0.15133816 -0.056768097 -0.1754123 -0.10392593
0.05022621 -0.07631359 0.115424946 0.13539402 0.050599784 -0.06971468 -0.13666612 -0.13894528
-0.057508424 0.10304527 0.111921 0.13128866 0.16809477 0.050586432 -0.0669777 -0.13941064
0.03681676 -0.13607562 -0.0090958625 -0.028108537 0.06443155 -0.067798875 -0.15810391 -0.09588604
0.021302298 -0.1612055 -0.022539735 0.1440952 -0.16163695 0.17145114 -0.14948708 0.12787949
-0.07864261 -0.15935548 -0.07179321 -0.092828535 -0.08711798 0.08131264 0.026293874 -0.13588674
-0.03873971 -0.023704216 -0.12743343 0.15865071 -0.038932204 -0.04428275 0.17000572 0.09613769
0.1406488 -0.0470874 0.05890119 -0.03663884 0.10013352 0.14984263 0.050249383 -0.050885558
-0.15913942 0.116587505 0.105492815 0.14929365 0.015323386 0.09895398 -0.08552432 -0.09871982
-0.0065205395 0.16919129 -0.12277861 0.066242754 -0.0057086647 0.05535461 -0.05095917 -0.1693673
-0.0767591 0.11309396 0.057928488 0.059553966 -0.040547073 -0.13679394 -0.014404967 -0.08622132
0.07753976 -0.1427052 -0.16212757 -0.0016222745 0.019443646 -0.012533441 -0.15002705 -0.12704478
0.11160655 0.052593276 -0.042179406 -0.0955154 -0.06933907 0.14128385 0.035607696 0.070744514
-0.032265767 -0.038964063 -0.08230135 -0.036923736 -0.0410607 0.09580259 0.17642362 0.116798684

simplicial_nn.2.W0 f4 [64, 64]
00000000: 2068 663d 97cd 86be b392 91be 7087 793d
00000010: da0d ecbd 781e 39bd 663f dfbd 52e7 5b3e
00000020: 8240 563e e093 4e3c c267 6cbe b218 0fbe
00000030: 52b6 3cbe 727b ecbd 9ab2 5a3e 05b0 873e
00000040: 6440 e2bd 407c 60bd 1075 153d dc56 963d
00000050: 005c d139 6a43 473e ce5e 113e 04b4 8abd
00000060: 8e8a e1bd f047 933c d06b 133e 8067 22bd
00000070: e090 91be b9b6 833e eae6 6c3e bd0e 8e3e
00000080: 98a1 94be b491 c43d 31c5 6fbe d844 9e3d
00000090: 2097 3bbd c8ac 82be 6d83 803e 2826 083e
000000a0: 30d9 ebbd 8ac1 8fbd c884 08bd 343f 3f3e
000000b0: d00f e7bd 2226 083e 38ad ecbd e421 e33d
000000c0: 4e65 86bd 006f ddbb 44be 913d 182e 08bd
000000d0: b80f b03d ff96 9b3e f6b8 6dbe 1edd 043e
000000e0: 6823 afbd 5067 ab3c 885e 75bd 929b 5dbe
000000f0: 859c 7abe 001b 73be fe83 593e 2078 06be
00000100: f240 333e 501b 8dbe 90c1 fabc 46d8 6e3e
00000110: 60b8 803d 40ce 76bc 4849 fb3d ae9c 85bd
00000120: a531 66be 465f 143e 602d 663d 901c 81bc
00000130: 4887 59bd 06b5 2abe 224e 7e3e 88f9 443e
00000140: 829e 383e 7749 83be 012e 58be bca2 c9bd
00000150: 392b 963e 00ea 1a3e 0abc febd 3e98 013e
00000160: 2ca2 b33d 1305 16be e5d1 30be e27d 613e
00000170: 5095 943c f00b 293e 604c eb3d 4099 57bd
00000180: d02e a33d 00f0 f939 c861 283d 3776 0ebe
00000190: 004a bf3c 1e60 423e 282a b13d c0a1 153e
000001a0: 40ca 2bbd 909f 03bd fe79 013e d02d be3c
000001b0: d191 38be 6618 29be f090 50be 4e61 723e
000001c0: 5748 853e 9896 d4bd ea2c 573e 8067 23bc
000001d0: e0c2 b63c 6550 873e e079 a03d 8827 c53d
000001e0: 8e4d 07be ca82 433e 9447 223e 4ab6 e0bd
000001f0: 8cde 083e f28b 3fbe 58f0 0bbe f878 803d
00000200: 9eba 713e d592 8f3e 8b01 97be d0fd 593d
00000210: bb7b 91be b8e9 51bd b7b5 63be fa0a 01be
00000220: f0d3 8ebc dc20 fcbd 2306 05be dcb2 1f3e
00000230: 7c10 96be 4eec e3bd ebc4 8c3e 8016 85be
00000240: 8ac4 6f3e c818 9c3d 2702 993e d31f 973e
00000250: 4cd0 21be 7025 333e d4aa 78bd 6dd3 64be
00000260: aec9 7b3e 6c5a bb3d 2ef7 7f3e e4ae 353e
00000270: 5a81 433e 8039 4a3d c2f3 04be e1a3 843e
00000280: acbf b1bd 5860 653d 104c dcbc 2a86 ecbd
00000290: 1cce 3cbe 6923 933e b698 773e 20e9 f2bd
000002a0: 409c f43b 9630 503e 08ee 93bd 7c39 8fbe
000002b0: 6098 6cbc 20e8 ab3d bdfb 893e aec1 09be
000002c0: 08f5 ca3d 18f0 0cbe a64a 89be e0a7 95bc
000002d0: e096 553c 9ac7 693e 2155 73be 800f 173b
000002e0: b061 a93d 8800 7cbe 7b5c 903e b03b ec3d
000002f0: 9780 92be c0aa 34bc 80af 1abd e280 c6bd
00000300: ffb5 6bbe c035 28bd 6e39 513e 410f 1bbe
00000310: eefb 6abe b273 243e 9902 36be 40e0 5cbe
00000320: 627e 4dbe c015 ebbc 89b4 8f3e 3303 01be
00000330: d803 913d 3f9d 42be b91b 93be 368c bcbd
00000340: 4055 6cbe b6f7 6bbe 9202 5f3e dd74 8bbe
00000350: 5670 94bd dedf 67be c898 103d c937 02be
00000360: 0ea3 1b3e 54a6 8cbe 6946 883e a23e 75be
00000370: 870b 98be 958a 4dbe 8815 273d abef 8bbe
00000380: d17a 56be 8d54 21be 7a92 5d3e bc0e 9a3d
00000390: 0ca1 4cbe a02b cfbd f064 88bc ee9e 5e3e
000003a0: ec28 24be d429 f53d 8674 10be 5602 573e
000003b0: 2c92 ed3d 6ecb 753e 8082 293e b370 34be
000003c0: de62 debd e0dc f03c e345 92be 0a68 debd
000003d0: 92bf 49be 265f 123e 1e78 0b3e 8205 473e
000003e0: 4006 f53c ff5a 9b3e 1ec5 7b3e 9cd6 02be
000003f0: e0c3 04bc 34c9 8d3d 409d bd3c ce72 83be
0.056251645 -0.26328728 -0.28432235 0.06092018 -0.115260795 -0.045195073 -0.10900764 0.2147496
0.20923045 0.012608498 -0.23086455 -0.13974264 -0.18428925 -0.11546983 0.21357194 0.2650148
-0.11047438 -0.054805994 0.036488593 0.07340786 0.00039932132 0.1945931 0.14196321 -0.067726165
-0.11012755 0.017978638 0.14396596 -0.039649487 -0.28430843 0.25725344 0.23134962 0.2774562
-0.29029536 0.09598103 -0.23415066 0.07727975 -0.04579842 -0.25522447 0.2510027 0.13295805
-0.115160346 -0.070193365 -0.033329755 0.18676454 -0.11282313 0.13295797 -0.11556476 0.110904485
-0.06562291 -0.006757617 0.071163684 -0.033247083 0.08596748 0.30388638 -0.23215088 0.12974975
-0.08551675 0.020923287 -0.059904605 -0.21641377 -0.2447377 -0.23740768 0.21241757 -0.13131762
0.17505243 -0.275599 -0.030609876 0.2332469 0.06285167 -0.015063822 0.12269837 -0.06524025
-0.22479875 0.14489469 0.056195617 -0.01576069 -0.05310753 -0.16670617 0.24834493 0.19235814
0.18029216 -0.25641987 -0.21111299 -0.09845492 0.2932985 0.15128326 -0.12438209 0.12655732
0.08771166 -0.14650373 -0.17267568 0.22020677 0.018137604 0.1650846 0.11489177 -0.052636385
0.07967913 0.00047671795 0.041108876 -0.13912283 0.023350716 0.18981978 0.08650619 0.14612484
-0.041940928 -0.032134593 0.12644193 0.023215204 -0.18024375 -0.16513214 -0.2036779 0.23669931
0.26031753 -0.10380286 0.21013227 -0.009973407 0.02230972 0.26428524 0.07835746 0.096266806
-0.13213179 0.19092861 0.15847617 -0.10972269 0.13366145 -0.18705729 -0.13665903 0.06273073
0.23606345 0.2804171 -0.29493365 0.05322057 -0.2841471 -0.051248282 -0.22237287 -0.12601843
-0.017435044 -0.12310955 -0.12990622 0.15595573 -0.29309452 -0.11129056 0.27493986 -0.2599373
0.23414817 0.07621914 0.29884455 0.29516467 -0.15802115 0.1749475 -0.06070979 -0.22346278
0.24588653 0.09148106 0.24996635 0.17742497 0.19092312 0.049371243 -0.12983611 0.2590628
-0.08679137 0.056000084 -0.026891738 -0.11549027 -0.18438 0.28737953 0.24179348 -0.11860871
0.0074649155 0.20331034 -0.07223135 -0.27973545 -0.014440626 0.08393884 0.26949874 -0.13452789
0.09910017 -0.13763463 -0.26814765 -0.018268526 0.01303646 0.22830048 -0.23762943 0.002305001
0.082705855 -0.24609578 0.28195557 0.11534822 -0.2861373 -0.011027038 -0.037765026 -0.09692551
-0.23018645 -0.041066885 0.20432064 -0.15142538 -0.22947666 0.1605976 -0.17774428 -0.2156992
-0.20067742 -0.028696895 0.28067425 -0.12598877 0.07080811 -0.19005297 -0.28732088 -0.092064306
-0.23079395 -0.23043713 0.21778324 -0.27237597 -0.07247989 -0.22643992 0.035301954 -0.12716593
0.15198919 -0.27470648 0.2661622 -0.23949674 -0.29696295 -0.20072396 0.04079202 -0.2733129
-0.20945288 -0.1575491 0.21637908 0.075223416 -0.1998331 -0.10115743 -0.016649693 0.21740314
-0.16031235 0.11970869 -0.1410695 0.20996985 0.11600146 0.24003384 0.16553688 -0.17621116
-0.10858701 0.029402196 -0.28568944 -0.108596876 -0.19701985 0.14294109 0.1362004 0.19435695
0.029910207 0.30342862 0.24586913 -0.1277718 -0.008103341 0.06923142 0.023146272 -0.25673527

simplicial_nn.2.W1 f4 [5, 64, 64]
00000000: 3a76 993c d12b 333d 77a8 1f3d 7003 35bc
00000010: da93 883c e991 393d e071 43bb 6e1c 0cbd
00000020: 8878 1e3c a041 52bb dc6c 2bbd 5f98 413d
00000030: 1e43 cf3c 88b3 1b3c 507d 173c 30a2 573b
00000040: d028 7fbb 40eb 4d3b 8aa8 a93c 0b0d 05bd
00000050: 4f15 49bd 68c8 07bd 4553 dabc 45c2 093d
00000060: 0cd9 31bd 2a33 8abc fc63 eabc dccf 94bc
00000070: b815 803b 0822 e6bb eaa6 8f3c 1822 a23b
00000080: b3b1 153d 80d1 60bc c8c9 28bc b3e9 4dbd
00000090: 120b e03c 9198 4dbd b4cc 5abc 2d5e 073d
000000a0: c674 fc3c 8f40 abbc 076f 2cbd fdd6 163d
000000b0: cef3 ee3c 20ad 31bd ade2 2d3d 30ba 24bd
000000c0: a9dd 023d 9a7c e63c 9970 dbbc 23a9 2e3d
000000d0: 7dfe 46bd 2e78 4abd 8897 49bc 7cf7 383c
000000e0: 90aa f7bb 84b4 8dbc b947 3f3d 2c95 563c
000000f0: dc2c f2bc d728 003d 9a6c d9bc de7e 0bbd
00000100: 6ac7 01bd 66e7 acbc 0ca1 89bc 1995 173d
00000110: 4423 12bc b8df babb b844 7bbc d818 8b3b
00000120: f096 e03b 12b5 b0bc 309f 82bb 7281 e03c
00000130: 606a 0e3c 5080 18bc fcb1 69bc 678c 323d
00000140: ba2e cb3c 9b1a 483d 137e 2b3d 5aab 91bc
00000150: 5ad8 d2bc 276b 133d 6614 d83c 67e8 033d
00000160: 5e7b 963c fe12 993c 615b 433d 92d4 d23c
00000170: 2cdc 0ebc c025 593b e576 0fbd 6124 073d
00000180: b51e e4bc c03c 203b 5556 283d 7c26 1fbc
00000190: 6afd 17bd 8ca4 4d3c ca3f c33c a056 25bc
000001a0: eff7 083d e8e1 a93b 4650 8c3c e914 183d
000001b0: 87d3 0f3d c846 c7bb 675e 3fbd 1ace 91bc
000001c0: 120a 8b3c 2c8c f8bc a4eb 393c 8cea 86bc
000001d0: f780 43bd d039 b7bc 8ee9 873c 2898 ecbc
000001e0: c426 41bd 50d0 0fbc 6f9a 4b3d 98cf f1bb
000001f0: f061 203b 6a40 ce3c 3ee9 fc3c 0424 27bc
00000200: fe39 05bd b0ea f63b 2791 4b3d f8a8 54bc
00000210: ee3a 12bd 889d 14bd b023 203b de2e fb3c
00000220: 0fd7 163d ac0a 0e3c 00b8 f537 78ef 70bc
00000230: d2a2 e5bc f3c8 40bd 00f5 ad39 5bb0 4cbd
00000240: f8c8 18bd c7a0 2f3d 17ad 36bd 29d6 dcbc
00000250: c969 b4bc 105e 633b eaf6 b13c fb19 18bd
00000260: 70bb 5dbb 42b2 fe3c 7eb3 903c 14e4 e7bc
00000270: 0070 0d3b 6f50 0a3d 0edc 953c d0d2 633b
00000280: a78d 31bd f044 4ebd 5c90 a6bc b9a1 393d
00000290: b5e2 493d 2bf8 d7bc 3e4d 28bd 724e 82bc
000002a0: ab4f e3bc 7f22 423d 84c5 3a3c f759 20bd
000002b0: 4088 ff3b 186b 02bd 3727 32bd e43d 2f3c
000002c0: f152 03bd 5807 9fbb 8523 39bd 5657 28bd
000002d0: 8c5b 08bd 514f 1e3d af81 00bd 6c07 20bc
000002e0: 50bb 94bb d095 643b 3cb1 debc d0c7 e0bc
000002f0: 1e13 b23c e973 53bd c862 debc e009 b1ba
00000300: 5c01 b8bc 82ce 99bc f03d d2bb 64e9 08bc
00000310: 0c88 10bc 7ad1 cf3c db2a 083d 17ce 533d
00000320: 001e a238 c56b 09bd ff83 37bd add6 0ebd
00000330: a989 293d 5025 81bb b834 dc3b c7b3 14bd
00000340: 8d7f 2abd 3436 17bd 2ca4 4fbd c6d2 08bd
00000350: 18e7 7dbc ee5f a03c 2692 06bd c4c8 2a3c
00000360: 33fa e5bc ac79 3d3c fefa d03c 7ddf 21bd
00000370: c14f c8bc 4338 b4bc bf9a b4bc 9733 d3bc
00000380: 31f6 3e3d 2475 1dbd 0995 3d3d fb47 41bd
00000390: 8409 c6bc 6a6e 38bd ea02 c83c 92d6 ab3c
000003a0: 0736 523d 067c 853c 7b89 363d caad 85bc
000003b0: 26be 843c 1088 5dbc daa5 32bd 2585 51bd
000003c0: 6062 d93a 902e 60bc bfc6 213d 0fda 043d
000003d0: 79a1 0d3d 469b d7bc d4bb 333c e49c 1cbd
000003e0: 95bc 0c3d 72c1 10bd 629d ac3c 9081 213c
000003f0: 7e6f 44bd 5709 293d 9c65 19bd 25ee 483d
0.018733133 0.04374296 0.03897902 -0.011048183 0.016672064 0.045305166 -0.0029822513 -0.0342068
0.009672292 -0.0032082573 -0.041851863 0.047264453 0.025300559 0.009503253 0.009246185 0.0032903068
-0.0038934238 0.0031420738 0.020710249 -0.032483142 -0.049092587 -0.033150107 -0.026651034 0.033632535
-0.043419883 -0.0168701 -0.02861213 -0.018165521 0.003908839 -0.0070231 0.017535646 0.004947912
0.03654642 -0.013721824 -0.010302015 -0.0502717 0.027349029 -0.050194327 -0.013354469 0.033048797
0.0308174 -0.020904807 -0.04209807 0.036826123 0.02916899 -0.043377995 0.042452503 -0.040216625
0.031949673 0.028135587 -0.02678709 0.04264177 -0.048582543 -0.04943102 -0.012304194 0.011289474
-0.0075581744 -0.01729799 0.04669926 0.013097089 -0.029562406 0.031288948 -0.026541043 -0.034056537
-0.031684317 -0.021106433 -0.016800426 0.037007425 -0.008919541 -0.005702939 -0.015336208 0.004244905
0.0068539307 -0.021570716 -0.003986262 0.027405474 0.008692354 -0.009307936 -0.014263626 0.04359093
0.024802554 0.048853498 0.04186828 -0.017781902 -0.02573793 0.03599086 0.026376914 0.032204058
0.018369373 0.018685814 0.047694568 0.025736127 -0.008719485 0.0033134073 -0.035025496 0.032993678
-0.027846674 0.0024450272 0.041097958 -0.009713765 -0.03710691 0.012551438 0.023834128 -0.010091454
0.033439573 0.005184401 0.017128121 0.037129316 0.035113838 -0.006081436 -0.04672089 -0.017798472
0.016972575 -0.030340277 0.011347685 -0.016469263 -0.047730412 -0.022366434 0.01659086 -0.028881148
-0.04715611 -0.008777693 0.049707826 -0.0073794834 0.0024472438 0.0251772 0.030872937 -0.010201458
-0.03252601 0.007535301 0.049698975 -0.012979738 -0.03570073 -0.036283046 0.0024435334 0.030661996
0.03682619 0.008669537 2.9291958e-05 -0.014705531 -0.02803174 -0.04706664 0.0003317967 -0.049972873
-0.037301034 0.04287794 -0.044598665 -0.026957588 -0.022023099 0.0034693517 0.021724183 -0.037134152
-0.0033833645 0.03109086 0.017663714 -0.028306998 0.002158165 0.033768114 0.018293407 0.0034763105
-0.04334798 -0.050358713 -0.020332508 0.045320246 0.04928847 -0.026363453 -0.04108929 -0.015906546
-0.02774795 0.04739618 0.01139963 -0.039148297 0.0077982247 -0.031840414 -0.04349443 0.010695908
-0.03206152 -0.0048531704 -0.04519989 -0.041098915 -0.03329043 0.03864986 -0.031373676 -0.0097673945
-0.004538931 0.0034879334 -0.027184121 -0.027439028 0.021737631 -0.051624212 -0.027146712 -0.0013506971
-0.022461586 -0.018775228 -0.006416075 -0.008356426 -0.008821499 0.02536844 0.033243995 0.051710214
7.73035e-05 -0.033550043 -0.044803616 -0.0348727 0.04139105 -0.0039412156 0.0067201518 -0.03630426
-0.04162555 -0.036916927 -0.050693676 -0.033404134 -0.015496992 0.019576993 -0.03285422 0.010423843
-0.028073406 0.011564653 0.025510307 -0.039519776 -0.024452092 -0.021999484 -0.022046445 -0.025781436
0.046621505 -0.038441792 0.04628471 -0.047187787 -0.02417446 -0.045027174 0.024415452 0.020976339
0.051321056 0.01629449 0.044564705 -0.01631822 0.016203951 -0.013521209 -0.0436152 -0.051152367
0.0016585104 -0.013682976 0.03949618 0.03243452 0.03457782 -0.026319157 0.010970075 -0.03823556
0.034359533 -0.035340734 0.02107114 0.00985755 -0.04795789 0.041268673 -0.037450418 0.049055237

simplicial_nn.2.W2 f4 [5, 64, 64]
00000000: 29f6 003d a807 dabc ec33 473c 18ff 9bbb
00000010: f387 0b3d fe4e f73c 4b03 303d e894 1cbc
00000020: 43bf 503d 0ecd fc3c 06d5 14bd 8663 99bc
00000030: e2ef a73c d0b6 063b ec64 453c 2c81 26bd
00000040: 070d 103d d353 0c3d fd41 f0bc 919d 513d
00000050: eb7d 023d ef69 2f3d 51c9 1ebd 4287 b83c
00000060: 7636 cc3c 82d7 ef3c 72e0 ca3c 644c 30bc
00000070: 5503 1f3d 3997 423d eb7e 0c3d f54c 48bd
00000080: cb50 b9bc e072 0cbc 2dc7 cebc f60a f23c
00000090: eb7d f5bc d98a 3d3d ee43 0fbd 8212 a73c
000000a0: 6517 313d f5f1 4cbd e602 d63c 6050 a2bb
000000b0: 6f6b 41bd 8caf 4dbc bcfe 23bc 7006 70bc
000000c0: eed3 b7bc fbbb 0e3d d598 383d 1c3d 783c
000000d0: 6591 c4bc d1ef dfbc 3903 b1bc c0cd 5aba
000000e0: 482d f53b a0ed 4abd 60f9 10bc badf d83c
000000f0: 5e64 a13c 2606 c33c 6618 a5bc aab8 8c3c
00000100: 3284 e33c 600e b8bb d3bc 193d 22f1 12bd
00000110: 3808 2ebd ae0e fa3c 88d2 253c edb8 133d
00000120: 67a3 4c3d 2d01 46bd 2ee5 cfbc 7676 87bc
00000130: fcff 663c bae9 90bc 8f4f 403d 51cd 30bd
00000140: 3c1d 68bc a420 67bc 002b c7b9 4011 55bc
00000150: 293c 2c3d 59f1 b5bc 5a95 c03c d070 45bb
00000160: 7e7c b6bc 830b f3bc 4044 7bba 9ad5 9fbc
00000170: 5dca c5bc 1048 08bc 96b0 e63c 80fa 83bc
00000180: 6f7a 08bd 3d3d 2b3d d5df f3bc e06a 66bc
00000190: dc2f 13bc 0b7c 493d e077 21bb 1e6a f33c
000001a0: 4a32 a23c 2c9c 3dbd 4128 0f3d 35a4 3e3d
000001b0: e80d 273c 823a fc3c 3ea9 a93c 1c6b 4fbc
000001c0: 338d 1f3d 22b9 833c c3d6 273d e291 ea3c
000001d0: 0014 923a b136 513d d924 43bd 6842 13bd
000001e0: 4bbc 3a3d a800 c7bb 4ee7 853c 33cb 08bd
000001f0: 4a3a da3c 88ac 8ebc a628 c2bc a4e3 c8bc
00000200: 32c2 d83c a6ac d23c 2031 293b 28d5 dd3b
00000210: 6149 433d abee 473d 5d5a 113d 50aa 203b
00000220: e19b 533d 6e33 1dbd b862 f83b d125 2c3d
00000230: 4acb 40bd 4c97 163c 1588 223d 7a26 893c
00000240: 2e7a 97bc b8eb 8e3b 043d 583c fdfb d7bc
00000250: 0f1d 053d 4ebe 21bd 2e84 c4bc 9697 0fbd
00000260: 0634 d63c a949 51bd 1b9b 1d3d 6431 1abc
00000270: 8467 4dbd 1aa3 b93c 3f1e 28bd 285e 14bc
00000280: 000c eaba bad6 d13c 3565 503d 49e3 253d
00000290: f5b4 0e3d 8fd3 3bbd 36de dbbc 0fb0 27bd
000002a0: 6bfb 0fbd c539 dbbc a0b9 fa3b 08b5 e4bb
000002b0: a8af 6ebc fbdc 27bd ad6d 163d 8c4a 39bc
000002c0: 6de9 04bd b6f7 ca3c 89b9 abbc b6f3 46bd
000002d0: ce17 0fbd 97a8 343d 1796 393d 9e49 e83c
000002e0: d2d7 f83c 616b 0fbd 14c3 673c 1aef a2bc
000002f0: 407e 18bb a6c9 44bd a1d6 2b3d 3c34 4cbc
00000300: e046 5dbb 9e38 d83c a645 52bd 6ae7 13bd
00000310: e902 50bd c3dd fbbc 9e8a 2abd 80bb 5e3a
00000320: 5875 873b c005 2dbd 9bfe 4a3d f4b2 5b3c
00000330: ec5d 6f3c 473a 2a3d 342e 1ebc f983 d3bc
00000340: 8005 06bd 5c91 743c c3f9 14bd 7019 773b
00000350: 6130 48bd b04e 28bb 0f66 e4bc eb39 3abd
00000360: 18ba fa3b f477 8fbc beaa e03c 279a 4abd
00000370: c42b 53bd 4057 443a f606 01bd 2261 c13c
00000380: 99b5 2e3d 833f 293d c85b d93b 009c 96b8
00000390: a3ee 0e3d 536b 323d 30c5 2cbd 5c78 17bc
000003a0: 40fd df3b 5437 2cbc fd41 463d 1c79 1f3c
000003b0: dad9 e5bc 27a3 433d 5f21 c4bc 840d 41bc
000003c0: 9867 15bd b450 83bc 766c 863c d1c8 52bd
000003d0: c109 173d cbb3 393d 36c6 42bd 7045 20bd
000003e0: 2fa8 2bbd b7de 283d f4b0 2fbd 80fa 1a3c
000003f0: 1176 e5bc f34a f2bc 07a4 093d 3de1 fdbc
0.031484757 -0.026614979 0.012158375 -0.004760634 0.0340652 0.030189034 0.04297189 -0.009556986
0.05096365 0.030859496 -0.036335967 -0.018724214 0.020500127 0.0020555742 0.012047987 -0.04065053
0.035168674 0.03425963 -0.02932834 0.051175658 0.031858366 0.042825636 -0.03876621 0.022525433
0.024928313 0.029277567 0.024765227 -0.0107604 0.038821537 0.0475075 0.034300726 -0.048901517
-0.022621533 -0.00857231 -0.025241459 0.029546242 -0.029967269 0.046274994 -0.034976892 0.020394567
0.0432352 -0.050035436 0.026124429 -0.004953429 -0.047221597 -0.012554061 -0.010009464 -0.014649972
-0.022439923 0.03484724 0.045067627 0.015151288 -0.02399511 -0.027336033 -0.021607982 -0.0008346699
0.0074822046 -0.049543023 -0.008848518 0.026473869 0.01970118 0.023806643 -0.020153236 0.017177898
0.027772997 -0.005616948 0.037533592 -0.035874493 -0.042488307 0.030524578 0.010120995 0.03606503
0.04996052 -0.048340965 -0.025377836 -0.016535979 0.014099117 -0.017689575 0.046950873 -0.043164555
-0.014167126 -0.014106903 -0.00037988275 -0.013004601 0.04204956 -0.02220981 0.023508716 -0.0030127056
-0.02227616 -0.029668575 -0.000958506 -0.019511033 -0.024144346 -0.008317962 0.028160375 -0.016110659
-0.033319887 0.04180645 -0.029769817 -0.014063567 -0.0089835785 0.049190562 -0.0024638101 0.029713687
0.01979937 -0.046291515 0.0349505 0.04654332 0.010196187 0.030789617 0.020710584 -0.012659814
0.038953017 0.01607949 0.040976297 0.028634015 0.0011144876 0.05107755 -0.047642563 -0.035952
0.045589726 -0.0060730763 0.016345646 -0.03339691 0.026639123 -0.017416254 -0.023701023 -0.02452261
0.026459787 0.02571709 0.0025816634 0.006769795 0.0476774 0.048811596 0.035486568 0.0024515577
0.05166233 -0.038379125 0.0075801276 0.042028252 -0.04706887 0.009191345 0.03968056 0.01674198
-0.018490877 0.004361596 0.013198141 -0.026365275 0.032498416 -0.03948813 -0.02398881 -0.035056673
0.026147854 -0.05109564 0.038478 -0.00941119 -0.05014755 0.02266078 -0.04104447 -0.009055652
-0.001785636 0.025615085 0.05087777 0.04049996 0.034840543 -0.045856055 -0.026839357 -0.040939387
-0.03515188 -0.026760945 0.0076515228 -0.0069795884 -0.014568247 -0.040982228 0.03672569 -0.011309277
-0.032449175 0.02477632 -0.020962493 -0.048572265 -0.03493481 0.044106092 0.045309152 0.028355416
0.030376349 -0.035014514 0.014145631 -0.019889403 -0.002326861 -0.04804387 0.041952733 -0.0124636255
-0.0033764169 0.026394185 -0.051335953 -0.036109366 -0.050784025 -0.030745393 -0.041636102 0.00084965676
0.0041338615 -0.04224181 0.049559217 0.013409365 0.014609795 0.041559484 -0.00965457 -0.025819765
-0.03272009 0.0149272345 -0.036371004 0.003770437 -0.048874263 -0.0025681667 -0.027880697 -0.04546539
0.0076515786 -0.017513253 0.027425166 -0.049463417 -0.05155541 0.0007489808 -0.03150078 0.023605887
0.042653654 0.041320335 0.0066332556 -7.181615e-05 0.03489555 0.043559384 -0.04218024 -0.0092450045
0.0068356097 -0.010511238 0.048402775 0.009733465 -0.028057981 0.047763016 -0.023941694 -0.0117830075
-0.036475748 -0.016029693 0.01640914 -0.051461045 0.036874536 0.04533748 -0.04755231 -0.03912872
-0.04190844 0.041228022 -0.042893365 0.009459138 -0.0280104 -0.029576754 0.033603694 -0.030991191

simplicial_nn.4.W0 f4 [64, 1]
00000000: 20a3 5bbc a83e 7abe f585 a93e cc9f f03d
00000010: 893c cdbe 200a 12bd 096c ba3e 4beb bb3e
00000020: f936 9c3e 8806 3bbd 24bf acbd 0b02 b8be
00000030: 0e2f 673e b9f0 813e 50d1 66bd b168 903e
00000040: b450 e6bd 10cd 8bbc 2ae8 783e 4049 a5bb
00000050: b8db a3bd 6a74 32be 6dc7 a83e aba8 5bbe
00000060: ea1e 653e 7a2a 2b3e e088 24be 404c 91bc
00000070: 6c94 a3be 48ae 28be 06ff a1be 5687 26be
00000080: 5391 cc3e 3a94 8bbe 5885 70bd 3a57 b6be
00000090: 7168 97be 4e57 bcbe 8c7b e43d 1482 e63d
000000a0: 26bf 2b3e 84c6 ccbd 98de 353d a5f9 41be
000000b0: 40cb 6c3c 16b2 45be 7047 77bd b9d8 b53e
000000c0: f653 33be 5927 3abe 1677 23be 4774 bb3e
000000d0: 2638 3e3e 4d2f a53e 6246 413e 78b2 513d
000000e0: 709c 28bd 42d4 433e 00ba 973b 8415 d33d
000000f0: 3860 f0bd 7d14 c63e 78ce babd d86b 30be
-0.013405591 -0.24437964 0.33110014 0.11749229 -0.40085247 -0.035654187 0.3641055 0.36702952
0.3051069 -0.045660526 -0.08434895 -0.3593906 0.22576544 0.2537897 -0.05635196 0.28204873
-0.11245862 -0.017065555 0.24307314 -0.0050441325 -0.080008924 -0.17427221 0.3296465 -0.2145106
0.22375074 0.16715422 -0.16067839 -0.017736554 -0.31949174 -0.16472733 -0.3163988 -0.16262564
0.39954624 -0.27261525 -0.058720917 -0.35613424 -0.2957187 -0.36785358 0.11156377 0.11255279
0.16772136 -0.09998801 0.044401735 -0.18942888 0.014452755 -0.19306216 -0.060370862 0.3551691
-0.17512497 -0.18179072 -0.15963396 0.3661215 0.18576106 0.3226265 0.18874505 0.05119559
-0.041164815 0.19123939 0.004630327 0.10306838 -0.11737102 0.38687506 -0.09121412 -0.17228639

simplicial_nn.4.W1 f4 [5, 64, 1]
00000000: f65b 183e 0856 a6be 38ad 70be 44d3 6bbe
00000010: ac9b b4be 489f 90be 87d8 a73e 662c 88be
00000020: 7f73 52be e743 863e f6a3 38be 5194 aa3e
00000030: d168 41be 9682 613e af9f 42be bf42 61be
00000040: e09d 7fbd 4044 f4bb 5cfa d93d 30db a5bc
00000050: 0aa4 7b3e 643d 15be 0f5d 963e 0c1f 8d3d
00000060: 7f96 8c3e 9a34 103e 5c69 32be 7393 3fbe
00000070: 0484 c83d 40cf fdbb 0b9e 3fbe dcdd c4bd
00000080: 0d21 8e3e 84df b73d bb27 cb3e 7e61 263e
00000090: d7d8 a33e c463 d23d b420 f8bd 7744 b53e
000000a0: 0c1e d9bd cabc 2a3e e69a 83be 57da cf3e
000000b0: cc8e c1be 2675 563e 5ec3 693e 9912 913e
000000c0: 34c6 c73d 3ba1 57be fc1b 76be 2248 a3be
000000d0: 7cb6 cb3d 477e be3e 17b3 9abe b5c1 ae3e
000000e0: d0b2 413d f8de 30bd bc79 cfbd 20e0 efbc
000000f0: feac 1abe 14e2 82be febd 1f3e abf9 a6be
00000100: 369f bfbe 0894 3c3d 80d3 253c 106b 67bd
00000110: 293b 96be 7d70 933e 1a13 723e aea1 55be
00000120: c0b5 28bd e016 7abc aec1 a3be 324b 2e3e
00000130: 9508 a3be 3590 92be 9c35 41be d743 aebe
00000140: 0021 d83c 88fa eabd 243a b3bd 8db8 cc3e
00000150: 08c2 803d 0008 e63a 92e2 733e 9012 80be
00000160: 80d1 923d 70c6 83be cf3c c73e 9bdd bc3e
00000170: 353c b03e 9c80 70be 7cab 85bd c544 ae3e
00000180: e254 193e bc92 fa3d 2c8e e33d fbd8 d33e
00000190: c69b 683e 38cd a4bd 61f2 903e 78c0 163d
000001a0: 589f 25be 95f0 a43e abd2 b53e 1839 98be
000001b0: 3b39 70be 706c e5bd 0542 bb3e 6e9b abbe
000001c0: 2026 a5be e432 b03d 13a2 b23e cc12 dcbd
000001d0: 6868 c1be b86f f5bd 6b6b 7ebe 8c21 c0bd
000001e0: 4cb2 18be 3051 0dbe 51aa 993e 00f1 433c
000001f0: 07d1 813e 4c2d d13d 2b7b cc3e d72b aabe
00000200: 0641 17be 2671 593e 6326 813e 6c99 e93d
00000210: 8cb9 ccbd 78d9 3ebe daa8 323e 44c9 a2be
00000220: 4046 d8bd c018 41bc f3c1 cb3e 272f 3bbe
00000230: bee5 743e 4509 babe 5823 c4bd e73d 953e
00000240: 7ce6 80be 6ae2 11be 026a 313e 025b 94be
00000250: 9342 cdbe d853 573d 0076 87bc d377 973e
00000260: ea35 1d3e e2e6 453e c455 95be 14a2 c8bd
00000270: 0088 24ba f0eb fabd 774f 9abe c0aa e4bb
00000280: 51c2 963e 5bba c23e f42f d63d e0b5 ba3c
00000290: 9905 b43e 807a 0ebe d7de 923e 3ddd 843e
000002a0: 52c0 3a3e 6b6f d4be a005 4b3d 0f1b c1be
000002b0: b81f 28be c4e8 99be 0c15 e8bd 13ce c1be
000002c0: 579f a63e a259 adbe c470 d33d fb95 7bbe
000002d0: 52fe c8be 53d7 a63e 8026 a73c 8e87 1a3e
000002e0: 4421 9abe 6c04 f33d 8cb8 af3d a7cf a33e
000002f0: 772f 8f3e b88b a9be e460 8cbe 50bf 8cbc
00000300: 7349 a1be 323b 14be b890 5abe 32e4 8fbe
00000310: 21c9 823e b938 5abe d855 823d e0a0 523d
00000320: 7059 b4be 98ef 50be a8ea 333d 8f88 c0be
00000330: 0621 243e 6193 d0be 932f 70be 20c5 7fbd
00000340: 8860 94be 4a01 3ebe 60e8 6abd 6d87 48be
00000350: 2273 bdbe 408f debb 6e1e 683e cc3e acbd
00000360: 0267 10be 42e1 19be c075 10be 8db5 c4be
00000370: dfbc ac3e 10b5 63bd 1e0c d3be 058d ad3e
00000380: 44f1 60be 0ace 033e 0723 d33e 5811 97be
00000390: 156d c03e 000f 10bd 9d54 77be c872 99bd
000003a0: b08a cebc f8a5 4c3d 266e 5f3e 089b 4e3d
000003b0: 484a 3ebe 50e0 bfbd c7f4 56be 18e1 853d
000003c0: c38b c63e 2e04 7e3e 809e 8ebb aade 273e
000003d0: d13d b43e ae7b 1fbe c69c 99be 7a17 9abe
000003e0: d4f2 50be 5089 bebd 3da0 9b3e 56e3 9ebe
000003f0: 7081 76be 151b 6abe 15f1 8b3e 806f 8abe
0.1487883 -0.32487512 -0.23503578 -0.2302981 -0.35275018 -0.28246522 0.32782385 -0.26596373
-0.20551871 0.2622368 -0.18031296 0.3331628 -0.1888764 0.22022471 -0.19006227 -0.21998118
-0.06240642 -0.007454425 0.106434554 -0.020246118 0.24574295 -0.145742 0.29367873 0.06890687
0.2745857 0.14082566 -0.17423004 -0.18708591 0.09790805 -0.0077456534 -0.18712632 -0.09612629
0.2775959 0.08978179 0.3967875 0.16248128 0.32001373 0.10272935 -0.121156126 0.35403797
-0.10601434 0.1667358 -0.25704116 0.40596268 -0.37804258 0.20943126 0.22828433 0.283345
0.09754601 -0.21057598 -0.24034113 -0.3189097 0.099469155 0.37205717 -0.3021476 0.34132162
0.04728967 -0.04318139 -0.10130641 -0.029281676 -0.15105054 -0.2556311 0.1559982 -0.32612357
-0.37426156 0.04603961 0.010121226 -0.056498587 -0.2934201 0.2879676 0.23640099 -0.20862457
-0.041188955 -0.015264243 -0.31983703 0.17020872 -0.31842485 -0.28625646 -0.18868107 -0.34036133
0.026382923 -0.11473566 -0.08751324 0.3998455 0.062870085 0.0017549992 0.23816898 -0.25014162
0.07168865 -0.25737333 0.3891358 0.36887822 0.34420934 -0.2348656 -0.06526849 0.34036842
0.14973786 0.122350186 0.111111015 0.4137648 0.22715673 -0.08046955 0.2830992 0.036804646
-0.16174066 0.322148 0.3551229 -0.2973106 -0.23459332 -0.112023234 0.36573806 -0.3351702
-0.3225565 0.086034566 0.34889278 -0.10745773 -0.37774968 -0.11984199 -0.24845664 -0.093813986
-0.14911765 -0.13800502 0.30012754 0.011959314 0.25354788 0.10213718 0.3993772 -0.33236572
-0.14770898 0.21234569 0.252246 0.11406216 -0.09996328 -0.18637645 0.17447224 -0.31794178
-0.10560274 -0.011785686 0.3979641 -0.18279706 0.23915765 -0.36335197 -0.09577054 0.2914879
-0.25175846 -0.14246526 0.17325595 -0.28975683 -0.40089855 0.052570194 -0.016535759 0.29583606
0.15352598 0.19326356 -0.29166996 -0.09796539 -0.0006276369 -0.12252033 -0.30138752 -0.006978363
0.29445127 0.38032803 0.10458365 0.022791803 0.3516052 -0.13913918 0.28685638 0.2595004
0.18237427 -0.41491255 0.04956591 -0.37715957 -0.1641835 -0.300604 -0.113321394 -0.37852535
0.32543442 -0.33857447 0.10324243 -0.24568932 -0.3925653 0.32586154 0.0204041 0.15090773
-0.30103505 0.11866078 0.085801214 0.31994364 0.279659 -0.3311441 -0.27417672 -0.017181069
-0.3150135 -0.14475706 -0.21344268 -0.28103787 0.25544074 -0.213107 0.0636403 0.051422954
-0.35224485 -0.20403898 0.043924958 -0.37604186 0.16028222 -0.4073744 -0.23455648 -0.062443852
-0.28979897 -0.18555179 -0.057350516 -0.19582911 -0.37001902 -0.006791979 0.22667858 -0.08410415
-0.14101794 -0.15027335 -0.14107418 -0.38419762 0.33737847 -0.055592597 -0.41220182 0.33896652
-0.21967036 0.12871566 0.4123766 -0.2950542 0.37583223 -0.035170555 -0.24153371 -0.07492596
-0.025212616 0.049962968 0.21819362 0.050440818 -0.18583024 -0.09368956 -0.20991813 0.06537074
0.38778505 0.24806282 -0.0043523908 0.16393533 0.35203412 -0.15574524 -0.3000242 -0.30096036
-0.20405132 -0.09303534 0.3039569 -0.3103282 -0.24072814 -0.22861893 0.27332368 -0.27038193

simplicial_nn.4.W2 f4 [5, 64, 1]
00000000: 80d5 aebb 3905 62be 5aa7 353e 62b2 203e
00000010: 0ceb c43d d073 743d c5e4 cebe 0086 bc3a
00000020: b692 4b3e 90ee c9bc 1dad c7be ca41 95be
00000030: ea66 d4be 083a 4cbe 44b8 fd3d 17c7 823e
00000040: 60d0 c6bc fc89 cf3d 6a48 7b3e 34c0 a1bd
00000050: b110 b33e ace6 d3be 263f b7be 09d4 8a3e
00000060: 0008 d7bc a459 27be 1555 813e b398 883e
00000070: 1afe 573e a767 cbbe b94f babe 7c1d 08be
00000080: a1c7 c73e a074 92be e5f5 a43e 153d c33e
00000090: 04cf 30be 67a1 b5be 2aff bebe 76e9 583e
000000a0: e31b 7cbe 70c0 c9bd c8d3 55bd 5f45 7dbe
000000b0: 46dc 593e e0d6 1cbc 9722 8b3e cc39 75be
000000c0: 9f08 a03e cfa2 cb3e 2a1c 1c3e a4ef 7ebe
000000d0: 00e2 3abe 3fe1 a6be 8205 103e 2419 dabd
000000e0: 3068 a3bc 7398 c83e c468 b33d 52f8 273e
000000f0: c6da 153e 206e 553d 2d76 63be 60fd 7f3c
00000100: ca1e 583e a496 58be e1f4 a53e 0003 56bd
00000110: 00fa ecba 1084 6fbd 80fe 6b3d e49b b6bd
00000120: 753d d53e f900 9ebe 5625 4cbe 3cd7 b7be
00000130: b195 a43e e012 02bd 5473 e53d fced 8a3d
00000140: 57c1 9e3e d1a0 b63e 08a8 39be 026f 1c3e
00000150: 1ec9 723e 0e05 2d3e f47f ccbd 8d54 abbe
00000160: 2d33 af3e a018 19be f8cf 04be fe1d 97be
00000170: 2596 b0be f07a aabe 4ce4 ef3d 4a3a 98be
00000180: 1303 b43e 60d3 b5bd 7ba9 b03e b893 2bbd
00000190: 6c64 98be 1c58 81bd 5e8b 773e 1090 e4bd
000001a0: 1808 613d f4b0 a0be a672 d2be de1c 203e
000001b0: 940d 84be 3141 8d3e 1552 aabe 2a30 583e
000001c0: 4161 9f3e 263f 423e a474 a9bd 72cb 94be
000001d0: 7426 cc3d a4fa bc3d 81d5 ce3e 309e 4ebe
000001e0: cac7 a5be f8d7 0e3d c0c8 4a3d 0469 dbbd
000001f0: e005 03bc e1a3 883e 3e9d c1be ef86 ce3e
00000200: caaf 0e3e e65f 92be fcc3 803d 60ce 983c
00000210: 2861 693d 6087 3fbd a065 443c 378d 863e
00000220: 7441 d7bd 071c 923e 6734 c53e 1cb1 953d
00000230: 8052 f7bb 2afe 6f3e f84a 7abd 30a5 e1bc
00000240: 9252 c5be 107d 23bd da67 473e 6b87 b63e
00000250: e4c2 d5bd c02f dcbb 4cfc f0bd 5472 c8be
00000260: 820f 353e 9c21 c63d 7130 883e 40aa bebe
00000270: 419b af3e 5d0d b3be 0069 983c ed0f 8fbe
00000280: c34a cb3e 2890 1c3d a051 22bc 7dfb 953e
00000290: 50e0 b5bc 025c 043e 47d4 53be 8afd 27be
000002a0: 204e 443d ef30 d0be 0054 f5bb 14b1 99bd
000002b0: 44fe a93d 6ddc aebe 0135 a0be f846 cdbd
000002c0: 28e6 8f3d d689 acbe 9c40 cfbe c4c7 ff3d
000002d0: c47b edbd e8c5 22be b863 45be 2671 9dbe
000002e0: 24ca 2fbe b1f0 acbe 1019 56bd d4f0 f03d
000002f0: 04f2 fdbd 2f5b cd3e 59ca 4cbe 204b 20be
00000300: 50d9 abbc 8c10 a73d 4416 02be 5e1e 58be
00000310: ca51 98be 3743 8dbe ff8e d3be 2f93 a13e
00000320: be2d 733e f573 36be cd7c 9a3e ebd0 a93e
00000330: 0009 f63c 970c 813e 3189 b4be 6772 39be
00000340: 064b 693e 0c42 13be 6bd1 923e a5d1 bf3e
00000350: bf44 9c3e d6b9 373e 34a8 cfbd 06a0 9abe
00000360: f506 85be fc7c fb3d 4048 c0be 8d5d 923e
00000370: 30d7 50bd eac9 35be c435 b83d b597 c13e
00000380: 455c 4abe 5800 483d fc88 9f3d dd7a 973e
00000390: 22b0 343e 3884 a63d 80d6 9abe 4491 f83d
000003a0: 0c94 ca3d 3ff7 923e 189e cdbe fcbe fcbd
000003b0: 5d07 2cbe a310 ba3e 3acf c1be e838 49bd
000003c0: 9410 c5bd 3cd4 f8bd fe96 9ebe 36da 263e
000003d0: f824 90be 009f f0bc c5a6 9b3e 9891 66be
000003e0: 480a 5bbd e427 c1be 0256 1f3e 9d47 ba3e
000003f0: 3a87 56be d681 bdbe 8895 5bbe 87ad bd3e
-0.00533551 -0.22072305 0.17739621 0.15693048 0.09615144 0.05968076 -0.40408912 0.0014383197
0.19880185 -0.024649888 -0.38999262 -0.29151756 -0.41484767 -0.19944012 0.123886615 0.25542518
-0.024269283 0.1013374 0.24539343 -0.07897988 0.34973672 -0.41386926 -0.35790366 0.27114895
-0.026248932 -0.16342789 0.25260225 0.26679 0.21093026 -0.39727518 -0.3638895 -0.13292497
0.39019492 -0.28604603 0.32218853 0.3813254 -0.1726647 -0.35474703 -0.3730405 0.21182808
-0.24620013 -0.09851158 -0.052203923 -0.24733494 0.21275434 -0.009572715 0.27174827 -0.23947829
0.31256577 0.3977265 0.15245119 -0.24896103 -0.18250275 -0.32593724 0.14064601 -0.106493264
-0.019947141 0.3917881 0.08760217 0.1640332 0.14634237 0.052106977 -0.22213049 0.015624374
0.21105495 -0.21151215 0.3241339 -0.052248955 -0.0018079877 -0.058475554 0.057615757 -0.089164525
0.4164845 -0.30860117 -0.19936118 -0.35906398 0.32145455 -0.03175628 0.11203638 0.06783673
0.31006882 0.35669568 -0.18130505 0.15276721 0.23709533 0.1689646 -0.099853426 -0.33462945
0.34218732 -0.149508 -0.12969959 -0.2951507 -0.3448955 -0.3329692 0.11713466 -0.2973197
0.35158595 -0.08878207 0.34504303 -0.041888922 -0.29764116 -0.06315634 0.24174258 -0.1116029
0.05493936 -0.31385005 -0.41103095 0.15636012 -0.2579161 0.275888 -0.3326575 0.21112123
0.31128886 0.18969402 -0.082742006 -0.29061466 0.09968272 0.092274934 0.40397266 -0.20177531
-0.3237899 0.034873933 0.049507856 -0.107133895 -0.007997006 0.2668753 -0.3781528 0.4033732
0.13934246 -0.2858879 0.06287381 0.018653095 0.05697742 -0.046759963 0.01198712 0.26279613
-0.10510531 0.28537008 0.38516542 0.073091716 -0.0075476766 0.234368 -0.061106652 -0.027544588
-0.3853956 -0.03991419 0.1947321 0.3565019 -0.10437563 -0.0067195594 -0.11766872 -0.39149725
0.17681697 0.09674379 0.26599458 -0.37239265 0.34298137 -0.34971133 0.018604755 -0.27941838
0.39705476 0.038223416 -0.009907156 0.29293433 -0.022201687 0.12925723 -0.20686446 -0.16405311
0.04792607 -0.40662333 -0.00748682 -0.07504478 0.083004504 -0.34152547 -0.3129044 -0.10023302
0.07026321 -0.3369891 -0.4047898 0.12489274 -0.11595872 -0.15895808 -0.19276321 -0.30750388
-0.17166954 -0.33777383 -0.052269995 0.11764684 -0.123996764 0.4010863 -0.19999065 -0.15653658
-0.020977646 0.08157453 -0.12703806 -0.21105334 -0.297499 -0.27590343 -0.41320035 0.31557605
0.23747918 -0.17817672 0.3017334 0.33167204 0.030033588 0.25204918 -0.3526092 -0.18110047
0.22782525 -0.14380664 0.28675398 0.37464634 0.305212 0.17941985 -0.10139504 -0.30200213
-0.2598187 0.12279698 -0.37555122 0.28587 -0.05098647 -0.17752805 0.0899463 0.37811056
-0.1976176 0.048828453 0.077897996 0.29585925 0.17645314 0.081306875 -0.30241776 0.12137082
0.09891519 0.2870426 -0.40159678 -0.12341115 -0.16799684 0.36340818 -0.37853414 -0.049126536
-0.09622303 -0.121498555 -0.30974573 0.16294178 -0.28153205 -0.029372692 0.30400673 -0.22516477
-0.0534766 -0.37725747 0.15560153 0.36382762 -0.20950022 -0.3701312 -0.2144376 0.37046453

exp_avg f4 [1, 64]
00000000: 0000 0000 0000 0000 0000 0000 0000 0000
00000010: 0000 0000 0000 0000 0000 0000 0000 0000
00000020: 0000 0000 0000 0000 0000 0000 0000 0000
00000030: 0000 0000 0000 0000 0000 0000 0000 0000
00000040: 0000 0000 0000 0000 0000 0000 0000 0000
00000050: 0000 0000 0000 0000 0000 0000 0000 0000
00000060: 0000 0000 0000 0000 0000 0000 0000 0000
00000070: 0000 0000 0000 0000 0000 0000 0000 0000
00000080: 0000 0000 0000 0000 0000 0000 0000 0000
00000090: 0000 0000 0000 0000 0000 0000 0000 0000
000000a0: 0000 0000 0000 0000 0000 0000 0000 0000
000000b0: 0000 0000 0000 0000 0000 0000 0000 0000
000000c0: 0000 0000 0000 0000 0000 0000 0000 0000
000000d0: 0000 0000 0000 0000 0000 0000 0000 0000
000000e0: 0000 0000 0000 0000 0000 0000 0000 0000
000000f0: 0000 0000 0000 0000 0000 0000 0000 0000
0.0 0.0 0.0 0.0 0.0 0.0 0.0 0.0
0.0 0.0 0.0 0.0 0.0 0.0 0.0 0.0
0.0 0.0 0.0 0.0 0.0 0.0 0.0 0.0
0.0 0.0 0.0 0.0 0.0 0.0 0.0 0.0
0.0 0.0 0.0 0.0 0.0 0.0 0.0 0.0
0.0 0.0 0.0 0.0 0.0 0.0 0.0 0.0
0.0 0.0 0.0 0.0 0.0 0.0 0.0 0.0
0.0 0.0 0.0 0.0 0.0 0.0 0.0 0.0

exp_avg_sq f4 [1, 64]
00000000: 0000 0000 0000 0000 0000 0000 0000 0000
00000010: 0000 0000 0000 0000 0000 0000 0000 0000
00000020: 0000 0000 0000 0000 0000 0000 0000 0000
00000030: 0000 0000 0000 0000 0000 0000 0000 0000
00000040: 0000 0000 0000 0000 0000 0000 0000 0000
00000050: 0000 0000 0000 0000 0000 0000 0000 0000
00000060: 0000 0000 0000 0000 0000 0000 0000 0000
00000070: 0000 0000 0000 0000 0000 0000 0000 0000
00000080: 0000 0000 0000 0000 0000 0000 0000 0000
00000090: 0000 0000 0000 0000 0000 0000 0000 0000
000000a0: 0000 0000 0000 0000 0000 0000 0000 0000
000000b0: 0000 0000 0000 0000 0000 0000 0000 0000
000000c0: 0000 0000 0000 0000 0000 0000 0000 0000
000000d0: 0000 0000 0000 0000 0000 0000 0000 0000
000000e0: 0000 0000 0000 0000 0000 0000 0000 0000
000000f0: 0000 0000 0000 0000 0000 0000 0000 0000
0.0 0.0 0.0 0.0 0.0 0.0 0.0 0.0
0.0 0.0 0.0 0.0 0.0 0.0 0.0 0.0
0.0 0.0 0.0 0.0 0.0 0.0 0.0 0.0
0.0 0.0 0.0 0.0 0.0 0.0 0.0 0.0
0.0 0.0 0.0 0.0 0.0 0.0 0.0 0.0
0.0 0.0 0.0 0.0 0.0 0.0 0.0 0.0
0.0 0.0 0.0 0.0 0.0 0.0 0.0 0.0
0.0 0.0 0.0 0.0 0.0 0.0 0.0 0.0
