results/Test_citation/version_69/checkpoints/epoch=999-step=999.ckpt (torch, 19153 bytes, 27 tensors)

simplicial_nn.0.W0 f4 [1, 16]
0	0xbf12f0b3	-0.5739853
1	0xbf17baf2	-0.5926963
2	0xbed3c3e5	-0.41360393
3	0xbe64ed59	-0.22356166
4	0x3d2f665b	0.042822223
5	0xbf01c583	-0.50692004
6	0x3ef67f27	0.48143885
7	0x3e2479db	0.16062109
8	0xbe8f0580	-0.27933884
9	0x3e03ec77	0.12883173
10	0x3e269c5d	0.16270585
11	0x3f054b89	0.5206838
12	0x3e226b39	0.15861215
13	0x3f44cae6	0.768721
14	0xbf0b1074	-0.5432198
15	0x3ebf9850	0.37420893

simplicial_nn.0.W1 f4 [1, 16]
0	0x3d0bd320	0.03413689
1	0xbcc79ec0	-0.02436769
2	0xbea686ad	-0.32524624
3	0xbf6502f1	-0.89457613
4	0xbeebc2c0	-0.4604702
5	0x3b5fad00	0.0034130216
6	0x3e8293ff	0.25503537
7	0xbe70d029	-0.23516907
8	0x3f29065d	0.66025335
9	0x3f32d592	0.6985713
10	0x3f28cf54	0.6594136
11	0xbbc113af	-0.005892239
12	0xbe7c200e	-0.24621603
13	0xbe9768a9	-0.29572037
14	0xbeb2acb1	-0.34897378
15	0xbc9e0bcd	-0.019292736

simplicial_nn.0.W2 f4 [1, 16]
0	0x3f31b05d	0.69409734
1	0x3e2d0d64	0.1689964
2	0x3ee65794	0.44988692
3	0x3dbb19e6	0.09135799
4	0x3f1c628b	0.61087865
5	0xbeeb8ac5	-0.4600431
6	0x3ec37486	0.38174838
7	0xbeec4eb3	-0.46153793
8	0x3f01a96c	0.5064914
9	0xbefcd026	-0.49377555
10	0x3f27b80a	0.65515196
11	0xbe7b8eae	-0.24566147
12	0x3f24e79d	0.64415914
13	0x3f250bc4	0.6447108
14	0xbe9b69fc	-0.30354297
15	0xbe777887	-0.24167071

simplicial_nn.2.W0 f4 [16, 16]
0	0xbecb96f2	-0.397636
1	0xbefdff2a	-0.49608737
2	0x3ec5aaca	0.38606864
3	0x3e84c9ec	0.25935304
4	0x3f015a17	0.5052809
5	0xbbe92d00	-0.00711596
6	0xbd708e60	-0.05872953
7	0x3e82199e	0.2541017
8	0xbf05875c	-0.52159667
9	0x3eadaa64	0.3391906
10	0xbd9eb188	-0.07748705
11	0xbf0029e9	-0.5006395
12	0x3ef6697e	0.4812736
13	0x3e3c8efc	0.18413919
14	0x3eadf0b2	0.33972698
15	0xbf14f51e	-0.5818652
16	0xbe455d8c	-0.19273967
17	0x3f12d397	0.5735411
18	0xbeef46c2	-0.4673367
19	0xbd3ee2f0	-0.046603143
20	0x3e9bd636	0.30436867
21	0xbee7ebb1	-0.45297006
22	0xbf17a0a9	-0.5922952
23	0x3ee9295e	0.45539373
24	0xbec4169a	-0.38298494
25	0xbdd9cc48	-0.10634667
26	0x3ec38cc2	0.38193327
27	0xbedbbc9e	-0.4291734
28	0x3e99548c	0.29947317
29	0xbeae9228	-0.34095883
30	0x3ebd1604	0.3693086
31	0x3d3df620	0.0463773
32	0x3e9ceeae	0.30650848
33	0xbdff94e4	-0.124795705
34	0xbf0d62ed	-0.55229074
35	0xbdc9ca76	-0.098530695
36	0xbf0bfb36	-0.5468019
37	0xbeec2fdd	-0.46130267
38	0xbe17a6c5	-0.14809711
39	0xbf93629c	-1.1514468
40	0xbec20b4a	-0.37899238
41	0xbeaca113	-0.3371664
42	0xbf12ed9f	-0.5739383
43	0xbe05c1aa	-0.13062158
44	0x3e9a272d	0.30108014
45	0x3e6c9ead	0.23107405
46	0x3eb95b6b	0.3620256
47	0xbdf1e328	-0.11810905
48	0xbe9f2082	-0.3107949
49	0x3e5093e0	0.2036891
50	0x3dd81ea9	0.10552723
51	0xbf09fe57	-0.53903717
52	0x3f09235f	0.53569597
53	0x3edfab77	0.43685505
54	0x3d576769	0.052588854
55	0xbedd8195	-0.43262926
56	0x3f05aa75	0.5221322
57	0x3ecea046	0.40356654
58	0x3e2fa427	0.17152463
59	0xbef67afe	-0.4814071
60	0x3ec786de	0.38970083
61	0xbedd773d	-0.43255034
62	0xbefadd5f	-0.48997018
63	0xbe83f9c0	-0.25776482
64	0x3eb9d5bb	0.36295876
65	0xbede1eee	-0.43382972
66	0x3e36f5c2	0.17867187
67	0xbd6085d5	-0.054815132
68	0x3d43b3a9	0.04777876
69	0x3ea7541f	0.32681367
70	0xbe80d329	-0.25161102
71	0xbed0a099	-0.40747526
72	0x3e56f370	0.20991302
73	0xbe8a4047	-0.27002165
74	0xbe619a5c	-0.2203154
75	0x3ef53dea	0.478988
76	0xbf1c10f7	-0.60963386
77	0xbd8363da	-0.064155295
78	0xbe7139ca	-0.23557201
79	0xbebf47a7	-0.37359354
80	0x3d878890	0.06617844
81	0x3f082f5d	0.5319727
82	0xbdd70590	-0.10499108
83	0xbd1ff5a0	-0.039052606
84	0x3e8f3648	0.279711
85	0xbd806f18	-0.062711895
86	0xbc97e5c0	-0.01854217
87	0xbf0e946d	-0.5569523
88	0x3e2e6760	0.17031622
89	0xbeeb8c6a	-0.46005565
90	0xbe3a6850	-0.18203855
91	0xbf148420	-0.58014107
92	0x3e2b3c04	0.16722113
93	0x3e7de7fc	0.24795526
94	0x3d571f80	0.052520275
95	0x3e1a9ca8	0.15098822
96	0x3d140e2a	0.03614632
97	0xbeaef0e6	-0.34168166
98	0x3e944dc7	0.2896559
99	0x3f104133	0.56349486
100	0x3ee3161b	0.44352803
101	0xbf090b56	-0.5353292
102	0xbe02f7b9	-0.12789811
103	0x3e4fcfe2	0.20294145
104	0xbef60b8b	-0.48055682
105	0xbe921892	-0.2853437
106	0x3ed16b40	0.40902138
107	0xbef8bbfb	-0.48580918
108	0x3e925297	0.28578636
109	0xbd1eceb2	-0.03877134
110	0x3eeb8bfd	0.4600524
111	0xbe7355e2	-0.2376323
112	0xbed26a69	-0.4109681
113	0x3ea1e5ad	0.3162054
114	0xbe9532e6	-0.29140395
115	0xbe3f8dc2	-0.1870642
116	0x3f113ef7	0.567367
117	0xbf1a5feb	-0.6030261
118	0x3de173b5	0.110083975
119	0xbe877b8b	-0.26461443
120	0xbcfed6f7	-0.031108363
121	0xbc89102e	-0.016731348
122	0xbe06d907	-0.13168727
123	0x3f067ddb	0.5253579
124	0x3e7ee658	0.24892557
125	0x3f246b2e	0.64226043
126	0xbe4f7723	-0.20260291
127	0xbe34e5f3	-0.17665844
128	0xbedb2bfe	-0.42807
129	0x3ddc718d	0.107638456
130	0xbc86907a	-0.016426314
131	0xbea0c9c3	-0.31403932
132	0x3d3489f0	0.04407686
133	0xbeef5d5b	-0.46750912
134	0xbe557f59	-0.2084936
135	0x3efbb60e	0.49162334
136	0xbf1cb4d8	-0.61213446
137	0x3e008336	0.12550053
138	0x3f1ec137	0.6201357
139	0x3f0536bd	0.5203665
140	0x3f0fb32f	0.5613279
141	0xbea69762	-0.3253737
142	0x3e244c35	0.16044696
143	0xbea8a5e7	-0.32939073
144	0xbe6c383f	-0.23068331
145	0x3f21e9e3	0.6324751
146	0x3ca1ca75	0.01974986
147	0xbe854ec3	-0.26036653
148	0xbd5f89c0	-0.054574728
149	0xbe3ca4ba	-0.18422213
150	0xbe126b0b	-0.14298646
151	0xbf0454b8	-0.5169177
152	0x3f088257	0.5332388
153	0x3f020bb1	0.5079909
154	0xbee57ed3	-0.44823322
155	0xbee674ae	-0.45010895
156	0x3eef6d69	0.4676316
157	0x3efea20f	0.49733016
158	0xbdb55801	-0.08854676
159	0x3e27b2c9	0.16376795
160	0xbf20c1d7	-0.62795776
161	0xbe6acba0	-0.2292924
162	0x3ec2b0ce	0.38025516
163	0x3dc900f5	0.09814636
164	0x3f1bf890	0.6092615
165	0xbd8378a9	-0.064194985
166	0xbe1cac96	-0.15300211
167	0xbeadd700	-0.33953094
168	0xbf229bfa	-0.6351925
169	0xbee5d8ed	-0.44892064
170	0x3e878ad1	0.26473096
171	0xbe901dbf	-0.28147694
172	0x3ed61ed5	0.41820398
173	0xbea2a3a4	-0.31765473
174	0x3efd9b95	0.49532762
175	0x3ea2ee24	0.31822312
176	0xbeebd440	-0.4606037
177	0x3f1c12c7	0.6096615
178	0xbec260aa	-0.37964374
179	0x3ea521d4	0.3225237
180	0x3e8b04d2	0.27152115
181	0x3ebe983c	0.3722552
182	0x3d480731	0.048834983
183	0x3e9e9f1d	0.3098077
184	0x3ebb1f6c	0.3654741
185	0xbda7ee6b	-0.081997715
186	0x3ef76b96	0.4832427
187	0xbdcb0a30	-0.099140525
188	0xbe5bfad8	-0.21482408
189	0x3f0c9a39	0.54922825
190	0x3ec9159e	0.39274305
191	0xbe9a3b6b	-0.30123457
192	0x3e62db26	0.22153911
193	0xbed961a3	-0.42457303
194	0x3dda1c32	0.10649909
195	0x3d7d5d2e	0.06185644
196	0x3e17accc	0.1481201
197	0x3e66a920	0.22525454
198	0x3e239e03	0.15978245
199	0x3c7e9333	0.015538025
200	0xbee81936	-0.45331734
201	0x3c95d4fb	0.018290034
202	0x3e89a6b9	0.26885012
203	0x3e763034	0.24041826
204	0xbe6c76a1	-0.23092128
205	0xbe706e9f	-0.23479699
206	0x3f190451	0.5977221
207	0x3ee33cb5	0.44382253
208	0x3e6b1cc0	0.22960186
209	0xbdc7fec7	-0.09765392
210	0x3f0d3bdf	0.5516948
211	0x3d418ff0	0.04725641
212	0xbd3a19ed	-0.04543488
213	0xbc5431ed	-0.012951356
214	0x3f04f92e	0.5194272
215	0x3eb84efa	0.35997754
216	0xbef02bff	-0.46908566
217	0xbec2f8f9	-0.38080576
218	0xbf0a9e12	-0.54147446
219	0xbe808b3b	-0.25106224
220	0xbf10a684	-0.5650408
221	0xbea2ad7d	-0.31772986
222	0x3ebc72c8	0.3680632
223	0x3ee687ec	0.45025575
224	0x3e6e384c	0.23263663
225	0x3ce4f160	0.027947128
226	0xbe89e968	-0.26935887
227	0xbe49ef20	-0.19720125
228	0x3ed4be5a	0.41551477
229	0xbdf470ec	-0.11935601
230	0xbdc3ce80	-0.09560871
231	0xbeb71cdf	-0.35764214
232	0xbee4d0d0	-0.4469056
233	0xbedcf278	-0.4315374
234	0xbf0ae26a	-0.5425173
235	0xbe8901ac	-0.26759088
236	0xbe8463e8	-0.25857472
237	0x3ed50276	0.4160344
238	0x3f0a2119	0.53956753
239	0xbf16b18c	-0.58864665
240	0x3f0c32cf	0.5476503
241	0xbe99aa83	-0.30012903
242	0x3f04a3d2	0.5181247
243	0xbefbde5f	-0.49193093
244	0x3eb4de14	0.35325682
245	0x3e50766a	0.20357671
246	0xbde6f30b	-0.112768255
247	0x3f01093a	0.50404704
248	0xbe190269	-0.14942326
249	0x3e8cb43d	0.2748126
250	0x3e6171ab	0.22016017
251	0xbec4dd05	-0.38449875
252	0x3e82302a	0.2542737
253	0x3e5ade4c	0.21373862
254	0xbebe8ade	-0.37215322
255	0xbe21b80c	-0.15792865

simplicial_nn.2.W1 f4 [16, 16]
0	0x3ee57a8a	0.44820052
1	0xbe26fa90	-0.1630652
2	0xbd746e00	-0.059675217
3	0x3dffd7e8	0.12492353
4	0x3ea7143a	0.3263262
5	0x3e2bc084	0.16772658
6	0xbda99420	-0.08280206
7	0x3d8eda90	0.06975281
8	0x3f027e47	0.50973934
9	0x3e8f5b24	0.27999222
10	0xbe536dd2	-0.20647362
11	0xbd6d5200	-0.05793953
12	0x3eb7d600	0.35905457
13	0xbf0090b2	-0.5022079
14	0xbdbc3440	-0.091896534
15	0x3d22b630	0.03972453
16	0x3dadec00	0.08492279
17	0x3f1124d5	0.56696826
18	0xbdd15bc8	-0.10222584
19	0xbd81b6e8	-0.06333715
20	0x3e63c27c	0.22242159
21	0x3f0196cd	0.5062073
22	0xbdfa7840	-0.12229967
23	0xbc9200c0	-0.017822623
24	0xbeed1344	-0.4630376
25	0xbe42647c	-0.18983644
26	0x3ea001da	0.31251413
27	0xbea59774	-0.32342112
28	0xbeea308c	-0.45740163
29	0x3ed12f06	0.4085619
30	0x3e8c038e	0.27346462
31	0xbedcf1f4	-0.43153346
32	0xbee74eff	-0.45177457
33	0xbeef2dcd	-0.4671463
34	0xbf1cc359	-0.61235577
35	0xbedb5a43	-0.42842302
36	0xbf0a6f83	-0.54076403
37	0xbe9cd308	-0.30629754
38	0xbf64ba60	-0.89346886
39	0x3ea5e570	0.3240161
40	0x3f0999d7	0.53750366
41	0xbedb6cd2	-0.4285646
42	0x3f5e7d91	0.8691035
43	0x3e21c4c4	0.15797716
44	0x3f7dd0e8	0.9914689
45	0x3f080fb4	0.5314896
46	0x3e5e870c	0.21731204
47	0x3e26516d	0.16241999
48	0x3b575b13	0.003286068
49	0xbf66675c	-0.90001464
50	0xbe34972d	-0.17635794
51	0xbcd5b8e2	-0.026089136
52	0x3ca054e1	0.019571723
53	0xbee923ad	-0.4553503
54	0xbea40d3c	-0.32041347
55	0xbea62ab9	-0.3245447
56	0x3ea57ea9	0.32323197
57	0xbf0e6165	-0.5561736
58	0x3f266d2b	0.6501033
59	0x3f115377	0.5676798
60	0x3f6acd5a	0.9171959
61	0xbebad101	-0.36487582
62	0xbb8204bf	-0.003967851
63	0x3e3ddfd1	0.1854241
64	0x3ddb2ae0	0.10701537
65	0xbf518f29	-0.8185907
66	0x3f09c851	0.53821284
67	0xbe5797a4	-0.2105394
68	0xbf06f1f5	-0.5271295
69	0xbeaa9c52	-0.33322388
70	0xbedb36ab	-0.42815146
71	0x3f0b088a	0.54309905
72	0xbf0c88e3	-0.5489637
73	0xbca1906e	-0.01972219
74	0xbe7c21e5	-0.24622305
75	0xbd18dc80	-0.03731966
76	0x3ebffda0	0.37498188
77	0xbeb6ce81	-0.35704425
78	0xbd25e6df	-0.04050338
79	0x3ed00498	0.40628505
80	0x3f1b3521	0.60627943
81	0xbe9f4429	-0.3110669
82	0xbd1b8e40	-0.037977457
83	0xbef91c9f	-0.4865465
84	0xbf00f3a2	-0.50371754
85	0xbddc7eb8	-0.10766357
86	0xbf092db7	-0.5358538
87	0x3c7db340	0.015484631
88	0xbe9dd1f9	-0.3082426
89	0x3f18cfa9	0.59691864
90	0x3f0e2f47	0.5554089
91	0xbec3a502	-0.38211828
92	0x3e039aa4	0.1285196
93	0xbf15f2a2	-0.58573353
94	0x3de518e8	0.11186391
95	0x3d9b3460	0.07578349
96	0x3e568746	0.2095004
97	0x3f05ce06	0.5226749
98	0x3ea19a44	0.31563008
99	0x3e52bbce	0.20579454
100	0xbef56d94	-0.47935164
101	0xbe26e5f8	-0.16298664
102	0xbe47790a	-0.19479766
103	0x3f1421eb	0.57864255
104	0xbe6b95c3	-0.23006348
105	0x3f0801d6	0.531278
106	0xbe70cf2b	-0.23516528
107	0x3ec84d1a	0.39121324
108	0x3efc92fc	0.4933089
109	0x3e3a140b	0.18171708
110	0x3dc01fea	0.09381087
111	0x3e546e7d	0.20745273
112	0xbb5f6be8	-0.0034091417
113	0x3e17c5c0	0.1482153
114	0x3ee34101	0.44385532
115	0x3eacd70a	0.33757812
116	0x3ed1377c	0.40862644
117	0xbe45f776	-0.1933268
118	0x3ee3fdc4	0.44529545
119	0xbf019087	-0.50611156
120	0x3e5e2aed	0.21696062
121	0xbf02f97e	-0.51161945
122	0x3ebdbe28	0.3705914
123	0x3ed07d4a	0.40720588
124	0xbe6815a7	-0.2266451
125	0x3e9dc93c	0.30817592
126	0x3f137142	0.5759469
127	0x3e63290c	0.22183627
128	0x3e9ae1a1	0.30250266
129	0x39c71001	0.00037968162
130	0xbf003203	-0.5007631
131	0x3d351545	0.044209737
132	0x3b1e3072	0.0024137762
133	0x3e0cff98	0.13769376
134	0x3f019607	0.5061955
135	0x3e248fa5	0.16070421
136	0xb85f9a6d	-5.3311163e-05
137	0xbf0b652f	-0.5445127
138	0xbeed8d2e	-0.46396774
139	0xbdfcfe9c	-0.123532504
140	0xbdaaf4bd	-0.083474614
141	0xbd84792b	-0.064684235
142	0xbe68de77	-0.22741114
143	0x3e7855cf	0.24251483
144	0x3ddd162c	0.107952446
145	0xbe0f8626	-0.14016017
146	0xbe7fd469	-0.24983372
147	0xbebb1658	-0.36540484
148	0x3ee59666	0.44841307
149	0x3f3742a7	0.7158608
150	0xbef99b0b	-0.487511
151	0xbee36fa9	-0.44421127
152	0x3e2c116f	0.16803525
153	0x3ed210ef	0.41028544
154	0xbe92635a	-0.28591424
155	0xbeadfdd2	-0.33982712
156	0x3e67ce08	0.22637188
157	0x3e9b5b3f	0.30343053
158	0xbb9b7389	-0.0047439975
159	0x3d673b2b	0.05645291
160	0xbe8a112b	-0.26966223
161	0xbdff21b9	-0.12457604
162	0xbeb4ada4	-0.35288727
163	0x3d03faf8	0.032221764
164	0xbe23b345	-0.15986355
165	0xbea9b493	-0.3314558
166	0x3ed4a864	0.41534722
167	0xbeec5bd9	-0.46163824
168	0xbca5e116	-0.02024893
169	0x3d25bbe5	0.040462393
170	0xbf0353b1	-0.5129958
171	0x3ebe8db2	0.3721748
172	0xbe1fd73b	-0.15609448
173	0x3de4a7df	0.11164831
174	0xbe77c93c	-0.24197859
175	0x3e805355	0.25063577
176	0x3f04b541	0.5183907
177	0xbe8890ed	-0.2667307
178	0xbf10d614	-0.5657666
179	0xbe5dbd1f	-0.21654175
180	0x3ee38060	0.4443388
181	0x3e8b2535	0.27176824
182	0xbda07a3d	-0.07835815
183	0xbd99c267	-0.075077824
184	0xbe00e11a	-0.1258587
185	0x3ddad58c	0.10685262
186	0x3ee43fdc	0.4457997
187	0x3e138324	0.14405495
188	0xbe845de1	-0.25852874
189	0x3ef2644b	0.47342142
190	0x3ecdf649	0.40226963
191	0xbe91d6cf	-0.28484198
192	0xbf1682d3	-0.5879337
193	0xbdec87da	-0.11549349
194	0x3ea51fca	0.32250816
195	0x3ec4cffc	0.3843993
196	0xbec84081	-0.39111713
197	0xbf059d17	-0.52192825
198	0xbe64603a	-0.22302333
199	0x3e583eb8	0.21117675
200	0x3eb51b40	0.35372353
201	0xbeaaa128	-0.33326077
202	0xbe01a4e0	-0.12660551
203	0xbf0be6c6	-0.5464901
204	0xbe3f00ef	-0.186527
205	0xbea1a240	-0.315691
206	0xbe944489	-0.28958538
207	0x3e60f5f0	0.21968818
208	0x3ebe5bfa	0.37179548
209	0x3edd7a94	0.43257582
210	0x3e90cf84	0.28283322
211	0xbeb1ab50	-0.34701014
212	0xbee63458	-0.4496181
213	0xbea279d9	-0.31733587
214	0x3e4a9809	0.1978456
215	0x3ed9cff7	0.42541477
216	0x3eb2373c	0.34807765
217	0x3f001480	0.5003128
218	0x3dfc3ead	0.12316642
219	0xbebe0f8a	-0.3712123
220	0xbee27ea3	-0.4423724
221	0xbf0e6568	-0.55623484
222	0x3ebcf8af	0.3690848
223	0xbf0a7021	-0.54077345
224	0x3e4f8984	0.20267302
225	0xbe807653	-0.25090274
226	0xbf12e07d	-0.5737379
227	0xbea3723c	-0.3192309
228	0x3e8b4b62	0.2720595
229	0x3e57983c	0.21054167
230	0xbe914b3c	-0.28377712
231	0x3ede4d5a	0.4341839
232	0xbdf63e58	-0.1202361
233	0xbe556688	-0.20839894
234	0xbcf2e140	-0.029648423
235	0x3ea3b924	0.3197719
236	0x3dd379d0	0.10325968
237	0xbf124aae	-0.571452
238	0x3eafea68	0.34358525
239	0x3ed5918e	0.41712612
240	0xbe252a5f	-0.16129445
241	0xbebb7a02	-0.36616522
242	0xbeef866f	-0.46782252
243	0xbba7eea4	-0.0051248837
244	0xbeefdf1c	-0.46849906
245	0xbcda932c	-0.026681505
246	0xbf13af6b	-0.5768954
247	0xbee6fcc1	-0.4511471
248	0x3e5de473	0.21669178
249	0xbedfea9b	-0.43733677
250	0x3d059d33	0.03262062
251	0xbc1beec0	-0.009517372
252	0xbf1cb07b	-0.6120679
253	0xbed7bd8c	-0.421368
254	0xbd37ad1e	-0.04484283
255	0x3f11817a	0.5683819

simplicial_nn.2.W2 f4 [16, 16]
0	0x3e4c86c8	0.1997329
1	0x3e1b1450	0.15144467
2	0x3eeb4e0a	0.45957977
3	0x3e7fb340	0.24970722
4	0xbe25028a	-0.1611425
5	0xbec07347	-0.3758795
6	0xbda27ca8	-0.079339325
7	0xbddafff8	-0.106933534
8	0xbe9a9f00	-0.30199432
9	0x3ee458e6	0.44599074
10	0xbe9b7f8f	-0.30370757
11	0x3e0d684c	0.13809317
12	0xbdf57768	-0.119856656
13	0x3e3e65dc	0.18593544
14	0xbdf34c38	-0.11879772
15	0x3e5c32f4	0.21503812
16	0xbcb83b60	-0.02248925
17	0xbe9b74eb	-0.3036264
18	0xbdd26498	-0.10273093
19	0x3eb63e9c	0.35594642
20	0xbeb75d7f	-0.3581352
21	0xbe12e3e6	-0.14344749
22	0xbe8b839a	-0.27248842
23	0xbe19c83e	-0.15017793
24	0x3e00b80c	0.12570208
25	0x3e997fb2	0.29980236
26	0xbec5c418	-0.3862617
27	0xbe9cc3b7	-0.3061807
28	0xbe7c273c	-0.24624342
29	0x3eca56a6	0.39519233
30	0x3f111883	0.56678027
31	0x3ea2c65c	0.3179196
32	0xbdd8244b	-0.10553797
33	0x3f0454ec	0.5169208
34	0x3ec6773a	0.38762838
35	0xbd2f5657	-0.04280695
36	0xbeb67f2d	-0.35643902
37	0xbdad0412	-0.08448042
38	0x3e37d19c	0.17951053
39	0xbeb1022e	-0.34571975
40	0x3e658816	0.22415194
41	0x3f883f7c	1.0644374
42	0x3e772df1	0.24138619
43	0x3eb45d56	0.3522746
44	0xbf9e91b7	-1.2388219
45	0x3f45eac6	0.7731136
46	0x3f5c35dc	0.8601968
47	0x3ea5549a	0.32291108
48	0x3e2aa0fa	0.1666297
49	0xbe150e97	-0.14556347
50	0xbdacd5a2	-0.08439185
51	0x3f234be0	0.6378765
52	0xbea04577	-0.31302997
53	0xbed00de0	-0.40635586
54	0x3e8e69e2	0.27815157
55	0x3e9bcee1	0.30431274
56	0x3e266aa4	0.16251618
57	0x3dffbfcc	0.12487754
58	0x3df1d557	0.118082695
59	0xbe535a3e	-0.20639893
60	0xbf2b47a6	-0.669062
61	0x3e93de98	0.28880763
62	0x3f0cf403	0.5505983
63	0x3edcb327	0.43105432
64	0x3efaf4aa	0.4901479
65	0xbf1a933b	-0.60380906
66	0xbe228f58	-0.15874994
67	0xbdd39eea	-0.10333045
68	0xbf182695	-0.5943387
69	0x3e7b6190	0.24548936
70	0x3f06de41	0.5268288
71	0x3effca49	0.4995902
72	0xbeebce07	-0.46055624
73	0xbe018b0c	-0.12650698
74	0xbf16f61b	-0.5896928
75	0xbeccadbe	-0.39976305
76	0xbd8e2bbf	-0.06941938
77	0x3f1fe995	0.6246579
78	0x3d6727df	0.05643451
79	0x3eb2bdc5	0.34910408
80	0xbebf1b9d	-0.37325755
81	0x3e75c124	0.23999459
82	0x3d7f5170	0.062333524
83	0x3ea05f20	0.31322575
84	0x3effb272	0.4994083
85	0x3e0decf0	0.13859916
86	0xbe07bf86	-0.13256654
87	0x3e68eaa0	0.22745752
88	0xbe6c10e6	-0.23053321
89	0x3f0cd7b1	0.5501662
90	0xbea09dcc	-0.3137039
91	0x3e138e58	0.14409769
92	0xbece0aa5	-0.40242496
93	0x3e6c0f44	0.23052698
94	0xbf085147	-0.5324902
95	0x3cd16a40	0.02556336
96	0x3edafa49	0.42769077
97	0xbc89f57b	-0.016840687
98	0xbe99ce98	-0.3004043
99	0xbe9b8eb0	-0.303823
100	0x3f0a4e72	0.5402595
101	0xbe118400	-0.1421051
102	0x3f1e7100	0.61891174
103	0x3eba6602	0.3640595
104	0xbe3b188e	-0.18271086
105	0xbe2c7fc0	-0.16845608
106	0x3eb57de6	0.35447615
107	0x3f1094cb	0.5647704
108	0xbdcff03f	-0.10153245
109	0x3e794bc9	0.24345316
110	0x3dc3670e	0.095411405
111	0x3e4e2711	0.2013209
112	0xbe5cc0d0	-0.21557927
113	0xbe337073	-0.17523365
114	0xbda46e00	-0.08028793
115	0x3de2c974	0.110735804
116	0x3e251f3c	0.16125196
117	0x3e0012e2	0.12507203
118	0xbf0a8ba8	-0.5411935
119	0xbe93a41c	-0.28836143
120	0xbecbf2e2	-0.39833742
121	0x3e7c0743	0.24612145
122	0xbe81988b	-0.25311694
123	0x3ed47bd6	0.4150073
124	0x3f01dafb	0.5072476
125	0x3f047c73	0.51752394
126	0xbce08a11	-0.027409585
127	0x3ef050fb	0.46936783
128	0xbef4c1d3	-0.47804126
129	0xbd089346	-0.033343576
130	0x3e8f9e03	0.2805024
131	0xbe081806	-0.13290414
132	0x3e1ffc05	0.15623482
133	0xbec0d11d	-0.3765954
134	0xbdf371e1	-0.11886955
135	0x3f05a575	0.5220559
136	0x3c38dcd0	0.011283115
137	0x3f4f12ad	0.8088787
138	0x3f014f6c	0.50511813
139	0xbec2b965	-0.3803207
140	0xbb837227	-0.0040114108
141	0xbe9efe4c	-0.31053388
142	0x3ca1aae0	0.0197348
143	0xbe6ec49a	-0.23317185
144	0x3d2ad132	0.04170341
145	0x3e9943b2	0.2993446
146	0xbb491e49	-0.0030688217
147	0x3efeed64	0.4979049
148	0xbecb458b	-0.39701495
149	0x3eeaca5e	0.4585752
150	0x3e130700	0.14358139
151	0x3e016a38	0.12638175
152	0x3f0b5bee	0.5443715
153	0xbedd2f62	-0.43200213
154	0xbed039cf	-0.40669104
155	0xbf151d6a	-0.5824801
156	0x3f197b0a	0.5995337
157	0xbd748f1a	-0.059706785
158	0x3de65729	0.11247093
159	0x3eb274c2	0.34854704
160	0xbea7a77b	-0.32744965
161	0x3e94a075	0.2902867
162	0xbe9f25d9	-0.31083563
163	0x3eda9509	0.4269183
164	0x3df69186	0.12039475
165	0x3eae8b38	0.3409059
166	0xbe79c5aa	-0.24391809
167	0x3da52ab8	0.080647886
168	0x3f20d4ef	0.6282491
169	0xbe47b1a3	-0.19501357
170	0x3e5726b0	0.21010852
171	0xbf1091e1	-0.56472594
172	0x3e531307	0.20612727
173	0x3e102bd5	0.1407922
174	0xbeda6d73	-0.42661628
175	0x3d9780d7	0.07397621
176	0x3ec519b3	0.3849617
177	0xbebbff97	-0.36718437
178	0x3c8ef8c0	0.017452598
179	0xbe9b0968	-0.30280614
180	0x3db0c7af	0.086318366
181	0xbdd2989d	-0.10283015
182	0xbdf08124	-0.117433816
183	0x3f05235b	0.52007073
184	0x3f0098e9	0.5023332
185	0x3e6b423c	0.22974485
186	0xbe52a26f	-0.20569776
187	0xbf09acb3	-0.53779143
188	0xbeb5c3fe	-0.35501093
189	0xbe992b93	-0.29916057
190	0xbec710f5	-0.38880125
191	0x3e57d3b9	0.2107686
192	0x3df6b60b	0.12046441
193	0xbf189067	-0.5959534
194	0x3e51b9b7	0.20481001
195	0xbea883ff	-0.32913205
196	0xbefdf65a	-0.49602014
197	0x3e93c40f	0.28860518
198	0xbf128f18	-0.57249594
199	0xbf095e72	-0.5365974
200	0xbecb373d	-0.3969058
201	0xbeabee78	-0.33580375
202	0x3e1b6cc8	0.15178216
203	0x3e528e04	0.20561987
204	0xbec7e040	-0.39038277
205	0xbf05f52d	-0.52327234
206	0xbf21dc16	-0.6322645
207	0x3e090ac5	0.13383015
208	0x3e91567c	0.28386295
209	0xbd09a3da	-0.033603527
210	0xbcb2a8b9	-0.021808969
211	0x3ee714af	0.45132968
212	0x3f01e39a	0.5073792
213	0xbe913b85	-0.28365722
214	0x3dc837d4	0.09776273
215	0xbf141b78	-0.57854414
216	0x3e24fa1b	0.16111033
217	0x3e1a500e	0.15069601
218	0x3ed17911	0.4091268
219	0x3deb0240	0.114750385
220	0x3e2de4aa	0.1698176
221	0x3f0f5039	0.55981785
222	0xbefb5c4e	-0.4909386
223	0xbe3855bb	-0.18001454
224	0xbeaf6fdd	-0.34265032
225	0xbc5be880	-0.013422132
226	0xbeda3d52	-0.4262491
227	0xbef3165f	-0.47478005
228	0x3f1c8f97	0.611566
229	0x3ac7e600	0.001525104
230	0xbecb9c90	-0.39767885
231	0xbd6607e0	-0.056159854
232	0x3ef24ab2	0.47322613
233	0x3e291f48	0.16515839
234	0xbc11e300	-0.008904219
235	0x3eee7d96	0.4658019
236	0xbe7cee94	-0.24700385
237	0x3f0e051f	0.55476564
238	0xbe233200	-0.15937042
239	0xbf095a1a	-0.5365311
240	0xbf11c7b5	-0.56945354
241	0xbf2e515a	-0.6809288
242	0x3e7c7750	0.24654889
243	0x3db9f980	0.090807915
244	0xbee4a420	-0.44656467
245	0x3e96930d	0.29409066
246	0x3f20ba87	0.6278462
247	0x3d51bb2c	0.05120389
248	0x3f1fd3b7	0.62432426
249	0xbf09dccf	-0.5385255
250	0xbe37199c	-0.17880863
251	0xbeba455c	-0.36381042
252	0x3f275d18	0.65376425
253	0xbdb482ba	-0.088139966
254	0xbf0ebd57	-0.5575766
255	0xbf27f419	-0.6560684

simplicial_nn.4.W0 f4 [16, 1]
0	0xbf1ac50d	-0.60456926
1	0x3e658ee1	0.22417785
2	0x3f2914e5	0.6604751
3	0xbea2dba5	-0.318082
4	0x3df21aaf	0.11821496
5	0xbde5a4cd	-0.11213074
6	0xbe82ed30	-0.25571585
7	0x3f31cc88	0.69452715
8	0xbf24a787	-0.64318126
9	0x3efa7718	0.48918986
10	0xbf3d679e	-0.7398623
11	0x3edf511e	0.43616575
12	0xbec13a0b	-0.37739596
13	0x3d802ba5	0.062583245
14	0x3f2533bb	0.6453206
15	0xbf06d7bf	-0.5267295

simplicial_nn.4.W1 f4 [16, 1]
0	0x3e52224a	0.20520893
1	0xbda5687a	-0.08076568
2	0xbf293389	-0.6609426
3	0xbf34d84d	-0.7064255
4	0xbe36646a	-0.17811742
5	0xbdcb6083	-0.099305175
6	0x3f108af8	0.5646205
7	0xbf308cab	-0.6896464
8	0x3e9912cb	0.2989715
9	0xbf1560e0	-0.58350945
10	0x3f299f30	0.66258526
11	0x3ea154ea	0.31510097
12	0x3ea48653	0.3213373
13	0xbedd3eb7	-0.4321191
14	0x3f297940	0.6620064
15	0xbede3120	-0.43396854

simplicial_nn.4.W2 f4 [16, 1]
0	0x3f336e47	0.70090145
1	0xbe5bc45c	-0.21461624
2	0x3f126ae2	0.5719434
3	0x3ea2df2f	0.318109
4	0x3edd38ac	0.432073
5	0xbf182388	-0.59429216
6	0xbf4f7e12	-0.81051743
7	0xbeb6c24d	-0.35695115
8	0x3f29f903	0.66395587
9	0x3dc35131	0.095369704
10	0x3e34f887	0.1767293
11	0xbf4bcbe9	-0.7960802
12	0x3eb6e0f3	0.35718498
13	0xbd2a6b9d	-0.041606534
14	0x3ee4a1f7	0.4465482
15	0x3f49ded5	0.7885564

exp_avg f4 [1, 16]
0	0x00000000	0.0
1	0x00000000	0.0
2	0x39d0016f	0.0003967392
3	0x39a3069e	0.00031094713
4	0x3b8c905c	0.00428967
5	0x00000000	0.0
6	0x3cb0cae0	0.021581113
7	0xbb8af59d	-0.004240705
8	0x3ae6143c	0.0017553638
9	0x3b97d970	0.004634075
10	0x3bead960	0.0071670264
11	0x3c4c5410	0.012471214
12	0xbb711a00	-0.003678918
13	0x3cea8260	0.02862662
14	0x00000000	0.0
15	0x3c949d80	0.018141508

exp_avg_sq f4 [1, 16]
0	0x00000000	0.0
1	0x00000000	0.0
2	0x366a0899	3.4873722e-06
3	0x37150196	8.881461e-06
4	0x3d1e8fbd	0.0387113
5	0x00000000	0.0
6	0x409f198f	4.97187
7	0x3db77162	0.08957173
8	0x3b018945	0.0019765657
9	0x3eeca654	0.46220648
10	0x403268e7	2.7876527
11	0x3fe56e7d	1.7924343
12	0x3f1cca24	0.6124594
13	0x41c0aa12	24.083042
14	0x00000000	0.0
15	0x40512f12	3.268498

exp_avg f4 [1, 16]
0	0x00000000	0.0
1	0x00000000	0.0
2	0xb988d54c	-0.0002609886
3	0xb985ca1c	-0.0002551832
4	0xba6032da	-0.00085524993
5	0x00000000	0.0
6	0x3ae64150	0.0017567072
7	0xbaf512fa	-0.0018697672
8	0x3847c000	4.762411e-05
9	0xb9f416c5	-0.0004655627
10	0x39577718	0.00020548364
11	0x38fb3200	0.00011977926
12	0x3aff3d88	0.0019473294
13	0x3a7a9700	0.0009559244
14	0x00000000	0.0
15	0x3a6b0250	0.0008964883

exp_avg_sq f4 [1, 16]
0	0x00000000	0.0
1	0x00000000	0.0
2	0x365336ef	3.1473426e-06
3	0x36a08a1e	4.7844505e-06
4	0x3845bec8	4.714614e-05
5	0x00000000	0.0
6	0x3d00ec95	0.031475622
7	0x3ad6a9d4	0.0016377517
8	0x3a5f202b	0.00085115683
9	0x3b05d3b8	0.0020420384
10	0x3a318baa	0.0006772826
11	0x3cf4458a	0.029818315
12	0x3b045068	0.0020189527
13	0x3e6299d4	0.22128993
14	0x00000000	0.0
15	0x3b8b4531	0.0042501916

exp_avg f4 [1, 16]
0	0x00000000	0.0
1	0x00000000	0.0
2	0xba6d586c	-0.00090540084
3	0x3a090cf2	0.0005228064
4	0xb9240a38	-0.00015644066
5	0x00000000	0.0
6	0x3b013fe4	0.001972192
7	0xbaadd283	-0.001326159
8	0x3a152290	0.0005689049
9	0xb89f09e0	-7.58355e-05
10	0x3b00db30	0.0019661896
11	0x39a7da40	0.0003201533
12	0x395641b0	0.00020433101
13	0x3b7a3cfc	0.0038183322
14	0x00000000	0.0
15	0x3ade3e24	0.0016955775

exp_avg_sq f4 [1, 16]
0	0x00000000	0.0
1	0x00000000	0.0
2	0x357df67a	9.4608515e-07
3	0x35e027bc	1.6700865e-06
4	0x39161e27	0.00014316347
5	0x00000000	0.0
6	0x3b4dd133	0.003140521
7	0x399c1996	0.00029773702
8	0x3653e8cc	3.1576956e-06
9	0x39e2161d	0.00043122555
10	0x3be8748e	0.0070939725
11	0x3ab9a597	0.001416373
12	0x3a3a46d0	0.0007105889
13	0x3c1d1a52	0.009588795
14	0x00000000	0.0
15	0x3b0e3f78	0.002170531

exp_avg f4 [16, 16]
0	0x00000000	0.0
1	0x00000000	0.0
2	0x00000000	0.0
3	0x00000000	0.0
4	0x00000000	0.0
5	0x00000000	0.0
6	0x00000000	0.0
7	0x00000000	0.0
8	0x00000000	0.0
9	0x00000000	0.0
10	0x00000000	0.0
11	0x00000000	0.0
12	0x00000000	0.0
13	0x00000000	0.0
14	0x00000000	0.0
15	0x00000000	0.0
16	0x00000000	0.0
17	0x00000000	0.0
18	0x00000000	0.0
19	0x00000000	0.0
20	0x00000000	0.0
21	0x00000000	0.0
22	0x00000000	0.0
23	0x00000000	0.0
24	0x00000000	0.0
25	0x00000000	0.0
26	0x00000000	0.0
27	0x00000000	0.0
28	0x00000000	0.0
29	0x00000000	0.0
30	0x00000000	0.0
31	0x00000000	0.0
32	0xb949ce40	-0.00019245688
33	0x00000000	0.0
34	0x395fe6b2	0.00021352878
35	0xb8e3366d	-0.00010834341
36	0x38255acc	3.9423627e-05
37	0xb829ca52	-4.0481165e-05
38	0xb8ae739e	-8.318502e-05
39	0x3992568b	0.0002791177
40	0x00000000	0.0
41	0x00000000	0.0
42	0x180e6759	1.8405247e-24
43	0x00000000	0.0
44	0x2d96cd3d	1.714417e-11
45	0x24cfcde8	9.012076e-17
46	0x1878ab84	3.2139842e-24
47	0xb9343946	-0.00017187474
48	0x3899cd55	7.3338546e-05
49	0x00000000	0.0
50	0x3aaf5584	0.0013376926
51	0x37ffd39e	3.049691e-05
52	0x39905282	0.00027527293
53	0xb9949b27	-0.00028344357
54	0xba1823a7	-0.00058036525
55	0x3914c029	0.00014185965
56	0x00000000	0.0
57	0x00000000	0.0
58	0xb94a895d	-0.00019315393
59	0x00000000	0.0
60	0x3131db15	2.5881424e-09
61	0x3824eabc	3.931926e-05
62	0x3911c9c8	0.00013903447
63	0xba861a2e	-0.0010231191
64	0xba37a25f	-0.0007005091
65	0x399a3625	0.0002941351
66	0x3b1d4bed	0.0024001554
67	0xbac12208	-0.0014734874
68	0x39e7bef9	0.0004420204
69	0xb9be4682	-0.00036292156
70	0xba410c49	-0.00073641964
71	0x3ae543ed	0.0017491557
72	0x00000000	0.0
73	0x00000000	0.0
74	0xbae05f0a	-0.0017118168
75	0x00000000	0.0
76	0x30f907ed	1.8119387e-09
77	0xb93a621b	-0.0001777489
78	0x3b201535	0.0024426703
79	0xbb28b928	-0.0025745127
80	0x00000000	0.0
81	0x00000000	0.0
82	0x00000000	0.0
83	0x00000000	0.0
84	0x00000000	0.0
85	0x00000000	0.0
86	0x00000000	0.0
87	0x00000000	0.0
88	0x00000000	0.0
89	0x00000000	0.0
90	0x00000000	0.0
91	0x00000000	0.0
92	0x00000000	0.0
93	0x00000000	0.0
94	0x00000000	0.0
95	0x00000000	0.0
96	0xbb805bf3	-0.003917211
97	0x3ad20678	0.0016023656
98	0x3c8112d6	0.015756052
99	0xbbda6f9f	-0.0066661383
100	0x3b728bf4	0.0037009688
101	0x3a06c957	0.00051416963
102	0xbbc9b061	-0.006155059
103	0x3c6bcd7f	0.014392256
104	0x14ef9a26	2.4193634e-26
105	0xba36dd9d	-0.0006975772
106	0xbc69708c	-0.014248025
107	0x00000000	0.0
108	0x3a1d7f2f	0.00060080265
109	0x3a9363fb	0.0011245006
110	0x3c807856	0.01568238
111	0xbc7589d8	-0.014986478
112	0xba5639d9	-0.0008172072
113	0x393a0dd6	0.00017743497
114	0x3b46396c	0.0030246628
115	0xba974a7f	-0.0011542587
116	0x3a423087	0.0007407744
117	0x39b687ef	0.00034815024
118	0xba9479f7	-0.0011327852
119	0x3b03232c	0.0020009978
120	0x14323fdd	8.999298e-27
121	0xb9bcc206	-0.00036002713
122	0xbb387ff3	-0.0028152436
123	0x00000000	0.0
124	0x3981c4c5	0.00024751402
125	0x394a614b	0.00019300466
126	0x3b2b0706	0.0026096716
127	0xbb8beb7f	-0.0042700167
128	0x00000000	0.0
129	0xb99377d7	-0.00028127313
130	0xb94c512e	-0.00019485198
131	0xb8475672	-4.7525806e-05
132	0xb89b182d	-7.395479e-05
133	0x00000000	0.0
134	0xb9a235e9	-0.00030939214
135	0xb8ad130b	-8.25283e-05
136	0x11fe19ac	4.0089955e-28
137	0xba27f2e7	-0.00064067397
138	0xb8f3b58a	-0.00011620957
139	0x00000000	0.0
140	0x3825266d	3.9374852e-05
141	0xb86f3afe	-5.703698e-05
142	0x360372e9	1.9587408e-06
143	0x389cf152	7.483609e-05
144	0xbacfcbac	-0.0015853546
145	0x39b59570	0.0003463435
146	0x3ba847a3	0.005135493
147	0xbb54dc94	-0.0032480108
148	0x3a951314	0.0011373484
149	0x3712608d	8.724758e-06
150	0xbadadabe	-0.001669727
151	0x3ba0ed43	0.0049110963
152	0x155c5e96	4.450326e-26
153	0xba40b1db	-0.0007350721
154	0xbbbd8e57	-0.0057847905
155	0x00000000	0.0
156	0x3a3717f9	0.0006984468
157	0x39905cb8	0.000275349
158	0x3bbce567	0.0057646516
159	0xbc0f9d85	-0.008765583
160	0xbaf0b1f0	-0.0018363576
161	0x3a478d2b	0.0007612283
162	0x3c0bab79	0.008524769
163	0xbb773492	-0.0037720543
164	0x3afcb276	0.001927926
165	0xb91dbb29	-0.0001504241
166	0xbb6bca5a	-0.0035978765
167	0x3c0339d2	0.008009391
168	0x14c0def4	1.9474985e-26
169	0xba386e91	-0.00070355186
170	0xbbfe9325	-0.007769006
171	0x00000000	0.0
172	0x39c78b0a	0.0003805983
173	0x3a157e65	0.0005702733
174	0x3c10cfcc	0.008838605
175	0xbbf8ffaa	-0.007598837
176	0xbb75713f	-0.0037451533
177	0x3ac70825	0.0015184922
178	0x3c73f0a5	0.014888917
179	0xbbcc074c	-0.006226456
180	0x3b67acfd	0.0035350912
181	0x3a4b70de	0.0007760654
182	0xbbb47174	-0.0055066887
183	0x3c52be1f	0.012862711
184	0x151009ab	2.9088195e-26
185	0xba0c90cf	-0.00053621543
186	0xbc5edc52	-0.013602333
187	0x00000000	0.0
188	0x3a3224e0	0.0006795656
189	0x3a899b03	0.0010498468
190	0x3c6d55e6	0.014485812
191	0xbc8173fc	-0.015802376
192	0xbacaf66f	-0.001548482
193	0x39d9ba81	0.00041528422
194	0x3bb533a0	0.005529836
195	0xbb009423	-0.0019619546
196	0x3aa83c79	0.0012835405
197	0xb92f35f4	-0.000167094
198	0xbb285e22	-0.0025690873
199	0x3b990abd	0.0046704696
200	0x00000004	6e-45
201	0xb9a17259	-0.0003079351
202	0xbb9f9b83	-0.0048708334
203	0x00000000	0.0
204	0x36805870	3.8249927e-06
205	0x39b6fa56	0.0003490026
206	0x3b9b6ba7	0.004743058
207	0xbb69f125	-0.0035696712
208	0xbbce7649	-0.006300722
209	0x3b22486a	0.00247624
210	0x3ccb7ea1	0.024840655
211	0xbc184f64	-0.009296272
212	0x3bbfd829	0.0058546257
213	0x3a1c3542	0.0005958864
214	0xbc20db59	-0.009817922
215	0x3cafaf31	0.021445842
216	0x1446c56d	1.0035381e-26
217	0xba08c89b	-0.0005217881
218	0xbcac62ae	-0.021043148
219	0x00000000	0.0
220	0x3a0ef514	0.00054533896
221	0x3ae8a53d	0.001774944
222	0x3cbd8ca4	0.023138352
223	0xbcae3cb0	-0.021269172
224	0x00000000	0.0
225	0x00000000	0.0
226	0x00000000	0.0
227	0x00000000	0.0
228	0x00000000	0.0
229	0x00000000	0.0
230	0x00000000	0.0
231	0x00000000	0.0
232	0x00000000	0.0
233	0x00000000	0.0
234	0x00000000	0.0
235	0x00000000	0.0
236	0x00000000	0.0
237	0x00000000	0.0
238	0x00000000	0.0
239	0x00000000	0.0
240	0xbb302dd5	-0.0026882787
241	0x3a8d82d3	0.0010796435
242	0x3c2d30e7	0.010570741
243	0xbb91962e	-0.0044429516
244	0x3b247fe9	0.0025100654
245	0x3a18d2b6	0.0005829738
246	0xbb7df0d2	-0.0038748276
247	0x3c14d150	0.009083107
248	0x14d7d949	2.1795156e-26
249	0xb9c4bd26	-0.0003752496
250	0xbc1f2331	-0.00971298
251	0x00000000	0.0
252	0x3a02f490	0.0004995549
253	0x3a4322a9	0.00074438244
254	0x3c2868e1	0.010278911
255	0xbc3b25da	-0.011422599

exp_avg_sq f4 [16, 16]
0	0x00000000	0.0
1	0x00000000	0.0
2	0x00000000	0.0
3	0x00000000	0.0
4	0x00000000	0.0
5	0x00000000	0.0
6	0x00000000	0.0
7	0x00000000	0.0
8	0x00000000	0.0
9	0x00000000	0.0
10	0x00000000	0.0
11	0x00000000	0.0
12	0x00000000	0.0
13	0x00000000	0.0
14	0x00000000	0.0
15	0x00000000	0.0
16	0x00000000	0.0
17	0x00000000	0.0
18	0x00000000	0.0
19	0x00000000	0.0
20	0x00000000	0.0
21	0x00000000	0.0
22	0x00000000	0.0
23	0x00000000	0.0
24	0x00000000	0.0
25	0x00000000	0.0
26	0x00000000	0.0
27	0x00000000	0.0
28	0x00000000	0.0
29	0x00000000	0.0
30	0x00000000	0.0
31	0x00000000	0.0
32	0x33cfba97	9.673129e-08
33	0x00000000	0.0
34	0x3441c498	1.8046046e-07
35	0x330b4f6c	3.2435693e-08
36	0x31fac54e	7.2983886e-09
37	0x31ec2d3b	6.873646e-09
38	0x330e52c3	3.3137223e-08
39	0x3306856b	3.132065e-08
40	0x00000000	0.0
41	0x00000000	0.0
42	0x2d307216	1.0029774e-11
43	0x00000000	0.0
44	0x29515fcc	4.6490413e-14
45	0x2f5b7221	1.9958481e-10
46	0x2d3bb2f9	1.0669459e-11
47	0x33da500c	1.01659765e-07
48	0x369f5ed9	4.749611e-06
49	0x00000000	0.0
50	0x37356e41	1.0814111e-05
51	0x360f38f0	2.1341802e-06
52	0x34dcd9dd	4.113671e-07
53	0x349ce6af	2.922511e-07
54	0x3606da6b	2.0094692e-06
55	0x368c4615	4.1804838e-06
56	0x00000000	0.0
57	0x00000000	0.0
58	0x3517a81c	5.6496515e-07
59	0x00000000	0.0
60	0x30919e4e	1.0595131e-09
61	0x32925039	1.7033118e-08
62	0x34887225	2.5415025e-07
63	0x36d8d0c8	6.461607e-06
64	0x3cb83d2f	0.022490112
65	0x36515123	3.1190655e-06
66	0x3d073e42	0.033018358
67	0x3bf4e731	0.007473849
68	0x3aa8e583	0.0012885783
69	0x37ed9494	2.8321789e-05
70	0x3bbf13b9	0.0058312085
71	0x3d02d37b	0.031939965
72	0x00000000	0.0
73	0x00000000	0.0
74	0x3d19d099	0.03755245
75	0x00000000	0.0
76	0x362f8df8	2.6159669e-06
77	0x394218bd	0.00018510497
78	0x3d071f07	0.032988574
79	0x3c984010	0.018585235
80	0x00000000	0.0
81	0x00000000	0.0
82	0x00000000	0.0
83	0x00000000	0.0
84	0x00000000	0.0
85	0x00000000	0.0
86	0x00000000	0.0
87	0x00000000	0.0
88	0x00000000	0.0
89	0x00000000	0.0
90	0x00000000	0.0
91	0x00000000	0.0
92	0x00000000	0.0
93	0x00000000	0.0
94	0x00000000	0.0
95	0x00000000	0.0
96	0x3fd4ec11	1.6634542
97	0x3d4e9c77	0.050442185
98	0x40877dc6	4.234103
99	0x3faf2526	1.3683212
100	0x3e128bf5	0.14311202
101	0x39f4e042	0.00046706392
102	0x3f1d8ad3	0.61539954
103	0x408b33c4	4.350069
104	0x37a03948	1.910016e-05
105	0x38b612d3	8.6819426e-05
106	0x40a11cae	5.034751
107	0x00000000	0.0
108	0x3bb74e5b	0.0055940575
109	0x3c1b7e11	0.009490506
110	0x40ae6768	5.450123
111	0x404ca815	3.197759
112	0x3df11919	0.11772365
113	0x3b685df6	0.0035456396
114	0x3e9d9e6f	0.30784938
115	0x3dc26c75	0.09493343
116	0x3c2aa755	0.010415872
117	0x385d8bba	5.2820636e-05
118	0x3d3b5f55	0.045745213
119	0x3ea2ed75	0.3182179
120	0x367a7cde	3.7325585e-06
121	0x360eba57	2.1268113e-06
122	0x3ebfb0d2	0.3743959
123	0x00000000	0.0
124	0x3a46318c	0.00075604836
125	0x3a86984e	0.0010268779
126	0x3ebbc555	0.3667399
127	0x3e5f9b0b	0.21836488
128	0x00000000	0.0
129	0x37c30392	2.3247474e-05
130	0x380d9240	3.3753226e-05
131	0x386c3700	5.6318007e-05
132	0x34e7ef25	4.3201103e-07
133	0x00000000	0.0
134	0x359c004c	1.1622992e-06
135	0x3814f2b5	3.551199e-05
136	0x358bb38b	1.0408561e-06
137	0x3705f288	7.9838865e-06
138	0x375f294f	1.3301454e-05
139	0x00000000	0.0
140	0x37d7ef8c	2.5741545e-05
141	0x3872e293	5.790831e-05
142	0x3a92844d	0.0011178345
143	0x3a282cf4	0.000641539
144	0x3de709c0	0.112811565
145	0x3c40e317	0.011772892
146	0x3ed5c1dc	0.41749465
147	0x3e29af42	0.16570762
148	0x3c49f090	0.012325421
149	0x38409db1	4.592323e-05
150	0x3d5d44c2	0.05402065
151	0x3ee21b34	0.4416138
152	0x380ecbd6	3.4045275e-05
153	0x38b672e8	8.699839e-05
154	0x3effb634	0.49943697
155	0x00000000	0.0
156	0x3b28fdd9	0.002578607
157	0x3a194e88	0.0005848189
158	0x3f2be15d	0.6714075
159	0x3ecd91d6	0.40150326
160	0x3e9464c8	0.2898314
161	0x3c460863	0.0120869605
162	0x3f49d82a	0.78845465
163	0x3e8e5206	0.27796954
164	0x3cd28c28	0.025701597
165	0x3894f076	7.101979e-05
166	0x3de0f507	0.10984235
167	0x3f4fbb9c	0.81145644
168	0x3775bb99	1.4646816e-05
169	0x38aa11b0	8.109526e-05
170	0x3f6cd141	0.92506796
171	0x00000000	0.0
172	0x3af6a370	0.0018817019
173	0x3a9acbd3	0.0011810012
174	0x3f916b6c	1.1360908
175	0x3f2a1ac5	0.664471
176	0x3fda5d5d	1.7059742
177	0x3d58879b	0.0528637
178	0x408ce4b4	4.402918
179	0x3fb4948e	1.4107835
180	0x3e180c71	0.14848496
181	0x3a21634d	0.00061564596
182	0x3f24a0d6	0.64307916
183	0x409110a5	4.533282
184	0x37d9ec99	2.597859e-05
185	0x38734a8f	5.8005153e-05
186	0x40a8a31d	5.2699113
187	0x00000000	0.0
188	0x3befb13f	0.0073148306
189	0x3c308fcd	0.010776472
190	0x40b2368e	5.5691595
191	0x40521190	3.282322
192	0x3e5835d1	0.2111428
193	0x3b1e4e61	0.0024155604
194	0x3ee2faf4	0.44332087
195	0x3e01fde6	0.12694511
196	0x3c82762f	0.015925495
197	0x38ee8a86	0.000113745264
198	0x3d8dd408	0.069252074
199	0x3ee46760	0.4461012
200	0x3323d50c	3.814516e-08
201	0x35b47c03	1.3447137e-06
202	0x3f064fdb	0.524656
203	0x00000000	0.0
204	0x39e7cf4a	0.00044214196
205	0x3ad6db2e	0.0016392225
206	0x3f0239a3	0.50869197
207	0x3e971b24	0.29512894
208	0x4080cb71	4.024834
209	0x3dc54b78	0.09633535
210	0x411bf7a6	9.747961
211	0x404162e7	3.0216615
212	0x3eac3c3b	0.33639702
213	0x3aa4da43	0.0012577254
214	0x3fb957b7	1.4479893
215	0x411f76f6	9.966543
216	0x376eaeb3	1.4226581e-05
217	0x38894d1b	6.547031e-05
218	0x4139b9b8	11.6078415
219	0x00000000	0.0
220	0x3c229938	0.0099242255
221	0x3ce03346	0.0273682
222	0x413f4a66	11.955664
223	0x40e045c1	7.008515
224	0x00000000	0.0
225	0x00000000	0.0
226	0x00000000	0.0
227	0x00000000	0.0
228	0x00000000	0.0
229	0x00000000	0.0
230	0x00000000	0.0
231	0x00000000	0.0
232	0x00000000	0.0
233	0x00000000	0.0
234	0x00000000	0.0
235	0x00000000	0.0
236	0x00000000	0.0
237	0x00000000	0.0
238	0x00000000	0.0
239	0x00000000	0.0
240	0x3f5ae4fc	0.8550565
241	0x3cddfaea	0.027097184
242	0x400d679c	2.2094488
243	0x3f34f0d9	0.70680004
244	0x3d98e615	0.0746576
245	0x39585d43	0.00020634108
246	0x3ea49f7c	0.32152927
247	0x4011be7a	2.2772508
248	0x3727750c	9.981228e-06
249	0x37ef87c2	2.8554237e-05
250	0x4029119c	2.6416998
251	0x00000000	0.0
252	0x3b2aea4d	0.0026079596
253	0x3bb21f1a	0.0054358365
254	0x4032c008	2.7929707
255	0x3fd2847f	1.6446685

exp_avg f4 [16, 16]
0	0x00000000	0.0
1	0x00000000	0.0
2	0x00000000	0.0
3	0x00000000	0.0
4	0x00000000	0.0
5	0x00000000	0.0
6	0x00000000	0.0
7	0x00000000	0.0
8	0x00000000	0.0
9	0x00000000	0.0
10	0x00000000	0.0
11	0x00000000	0.0
12	0x00000000	0.0
13	0x00000000	0.0
14	0x00000000	0.0
15	0x00000000	0.0
16	0x00000000	0.0
17	0x00000000	0.0
18	0x00000000	0.0
19	0x00000000	0.0
20	0x00000000	0.0
21	0x00000000	0.0
22	0x00000000	0.0
23	0x00000000	0.0
24	0x00000000	0.0
25	0x00000000	0.0
26	0x00000000	0.0
27	0x00000000	0.0
28	0x00000000	0.0
29	0x00000000	0.0
30	0x00000000	0.0
31	0x00000000	0.0
32	0x365153d5	3.1192224e-06
33	0x34640916	2.123746e-07
34	0x36d1521e	6.238245e-06
35	0x36021341	1.9382717e-06
36	0x359e294e	1.1783939e-06
37	0xb5a2e97b	-1.2137892e-06
38	0xb4d60358	-3.986304e-07
39	0xb4393ab9	-1.7250831e-07
40	0x915c0de3	-1.7359219e-28
41	0x36437be6	2.9129383e-06
42	0x3614eaf9	2.219049e-06
43	0x00000000	0.0
44	0xb5f3805b	-1.8142267e-06
45	0x34bc9b17	3.5130572e-07
46	0xb682d209	-3.898753e-06
47	0xb747de1a	-1.1913036e-05
48	0x37783601	1.4794526e-05
49	0xb747d9f4	-1.19120705e-05
50	0x371257e8	8.722745e-06
51	0x380c5054	3.3453412e-05
52	0x35e70692	1.7212753e-06
53	0xb7005db9	-7.651216e-06
54	0x36177847	2.2570764e-06
55	0xb8562420	-5.105522e-05
56	0x92a459d4	-1.0371999e-27
57	0x371eb004	9.458516e-06
58	0x385879e9	5.161195e-05
59	0x00000000	0.0
60	0xb6e5136a	-6.826992e-06
61	0xb5fde5ea	-1.8916883e-06
62	0xb85e11dc	-5.2945557e-05
63	0xb843eb0c	-4.6710527e-05
64	0xb889aa63	-6.564406e-05
65	0x391d7410	0.00015015923
66	0x39ae41c0	0.00033236854
67	0xba081ff1	-0.0005192748
68	0x38257d5f	3.9455826e-05
69	0xb7a44b94	-1.9585517e-05
70	0xb819302f	-3.6522917e-05
71	0x39ae166b	0.0003320457
72	0x10e551b9	9.045049e-29
73	0xb7eb17a5	-2.8025193e-05
74	0xb9cea7a8	-0.00039416295
75	0x00000000	0.0
76	0x38037934	3.1345713e-05
77	0xb8c3f913	-9.344718e-05
78	0x3a413786	0.00073706394
79	0xba43e0af	-0.000747214
80	0x00000000	0.0
81	0x00000000	0.0
82	0x00000000	0.0
83	0x00000000	0.0
84	0x00000000	0.0
85	0x00000000	0.0
86	0x00000000	0.0
87	0x00000000	0.0
88	0x00000000	0.0
89	0x00000000	0.0
90	0x00000000	0.0
91	0x00000000	0.0
92	0x00000000	0.0
93	0x00000000	0.0
94	0x00000000	0.0
95	0x00000000	0.0
96	0xb8dc677d	-0.00010509694
97	0xb90052a6	-0.0001223782
98	0x39d16516	0.000399389
99	0xba6bec6b	-0.00089997676
100	0x38b29839	8.516055e-05
101	0x39396793	0.00017681559
102	0xb90bea45	-0.00013343345
103	0x3aae2eaf	0.0013289059
104	0x14cc51a2	2.0630934e-26
105	0xb9fa8280	-0.00047780946
106	0xbabd2816	-0.0014431502
107	0x00000000	0.0
108	0x39b3896a	0.00034243922
109	0x38e2abed	0.000108085434
110	0x3aaac058	0.0013027294
111	0xbae1beea	-0.0017223035
112	0x394526f1	0.00018801891
113	0x393925cc	0.00017657055
114	0xb8d551f7	-0.000101718986
115	0xb99fde39	-0.00030492412
116	0xb7fb9df4	-2.9995084e-05
117	0x379bd1f4	1.8575207e-05
118	0x38c8932d	9.564157e-05
119	0x38c57fb0	9.417476e-05
120	0x13c465ed	4.9577863e-27
121	0xb8a330ef	-7.78156e-05
122	0xb8c31c31	-9.303576e-05
123	0x00000000	0.0
124	0x3815b6bd	3.5694557e-05
125	0xb8a961eb	-8.0767866e-05
126	0x39d7c019	0.0004115112
127	0xba1a02ff	-0.000587508
128	0xb8322a56	-4.2477935e-05
129	0xb925f62a	-0.0001582733
130	0x38ffb8ee	0.000121937934
131	0xb8edb7af	-0.000113352544
132	0x37db3048	2.6129317e-05
133	0x378d968f	1.687862e-05
134	0xb8b9e019	-8.863229e-05
135	0x39231f41	0.00015556534
136	0x11c1fc85	3.0605658e-28
137	0xb8ef0e44	-0.00011399065
138	0xb983694d	-0.00025064722
139	0x00000000	0.0
140	0x3898db2d	7.2887495e-05
141	0x3810041d	3.4336106e-05
142	0x38a47701	7.8422956e-05
143	0xb768ff93	-1.3887783e-05
144	0xba02c910	-0.0004989067
145	0xb9fa0f51	-0.00047695127
146	0x3a366acf	0.0006958665
147	0xb9937ba5	-0.00028130147
148	0x392846eb	0.00016048148
149	0x38ed9fc1	0.00011330797
150	0xb9bcee94	-0.0003603591
151	0x3a9260c0	0.001116775
152	0x14286287	8.5012635e-27
153	0xb9993db8	-0.00029228418
154	0xbaa405bb	-0.0012513915
155	0x00000000	0.0
156	0x397ec513	0.00024296744
157	0x398bf2ad	0.00026692954
158	0x39f0db59	0.00045939794
159	0xba188a44	-0.0005818943
160	0xb9e86973	-0.00044329054
161	0xb9ece25e	-0.00045182084
162	0x3a1795bc	0.0005782505
163	0xb9a06012	-0.00030589156
164	0x39109749	0.00013789268
165	0x3909a9c8	0.00013128587
166	0xb9a6fa01	-0.00031848255
167	0x3a8dbe1d	0.0010814104
168	0x144edd16	1.0443944e-26
169	0xb9ace7da	-0.0003297914
170	0xba9e664e	-0.0012084933
171	0x00000000	0.0
172	0x398c7ab2	0.00026794296
173	0x39829895	0.00024909215
174	0x39fd270c	0.00048285013
175	0xba15c205	-0.000571281
176	0x38b49168	8.610153e-05
177	0x388660ff	6.407685e-05
178	0x3959497a	0.00020722105
179	0xba7c5951	-0.00096263463
180	0x381c40a5	3.7253503e-05
181	0x3921cdad	0.00015430777
182	0xb713a9f3	-8.801452e-06
183	0x3a913476	0.0011078257
184	0x14caf10a	2.049186e-26
185	0xb9e46cc6	-0.0004356859
186	0xba9bc8e3	-0.001188543
187	0x00000000	0.0
188	0x399b7c4f	0.0002965652
189	0x3739eb43	1.1081635e-05
190	0x3ab3cdf7	0.0013717999
191	0xbaf4abcd	-0.0018666923
192	0x3906a01d	0.00012838883
193	0x392c0445	0.00016404789
194	0xb86d4b54	-5.6575358e-05
195	0xb9c27b76	-0.0003709455
196	0xb7be369a	-2.267519e-05
197	0x37a4085b	1.9554214e-05
198	0x389e2d56	7.5424716e-05
199	0x39205e78	0.00015293981
200	0x13d006a3	5.2513126e-27
201	0xb8cf49bd	-9.884264e-05
202	0xb938555f	-0.0001757941
203	0x00000000	0.0
204	0x386e7275	5.685022e-05
205	0xb8a90b57	-8.06066e-05
206	0x39fdc653	0.00048403683
207	0xba2bba7b	-0.000655092
208	0x39ae5429	0.0003325057
209	0x399911ca	0.00029195688
210	0x3892e735	7.004888e-05
211	0xbab7e456	-0.0014029841
212	0xb5e042d1	-1.6708747e-06
213	0x3947727e	0.0001902077
214	0x390491de	0.00012642841
215	0x3aa9720a	0.0012927663
216	0x150bb0ec	2.8210393e-26
217	0xba132480	-0.0005613044
218	0xbab37abd	-0.0013693195
219	0x00000000	0.0
220	0x39bec1da	0.00036384055
221	0xb8bb55c4	-8.93283e-05
222	0x3b01280f	0.0019707715
223	0xbb340a88	-0.0027472097
224	0x00000000	0.0
225	0x00000000	0.0
226	0x00000000	0.0
227	0x00000000	0.0
228	0x00000000	0.0
229	0x00000000	0.0
230	0x00000000	0.0
231	0x00000000	0.0
232	0x00000000	0.0
233	0x00000000	0.0
234	0x00000000	0.0
235	0x00000000	0.0
236	0x00000000	0.0
237	0x00000000	0.0
238	0x00000000	0.0
239	0x00000000	0.0
240	0x3895e66b	7.147792e-05
241	0x386f2891	5.701982e-05
242	0x39133f41	0.00014042576
243	0xba358599	-0.00069245097
244	0x37ce6850	2.4605688e-05
245	0x38e490ee	0.000108988825
246	0xb54c3d9c	-7.6085576e-07
247	0x3a4d1070	0.0007822579
248	0x1490d2e6	1.4623469e-26
249	0xb9a21688	-0.00030915835
250	0xba5c09ea	-0.00083938113
251	0x00000000	0.0
252	0x395bf692	0.00020977322
253	0x3668bd9d	3.4681063e-06
254	0x3a810683	0.000984386
255	0xbaafedbf	-0.0013422294

exp_avg_sq f4 [16, 16]
0	0x00000000	0.0
1	0x00000000	0.0
2	0x00000000	0.0
3	0x00000000	0.0
4	0x00000000	0.0
5	0x00000000	0.0
6	0x00000000	0.0
7	0x00000000	0.0
8	0x00000000	0.0
9	0x00000000	0.0
10	0x00000000	0.0
11	0x00000000	0.0
12	0x00000000	0.0
13	0x00000000	0.0
14	0x00000000	0.0
15	0x00000000	0.0
16	0x00000000	0.0
17	0x00000000	0.0
18	0x00000000	0.0
19	0x00000000	0.0
20	0x00000000	0.0
21	0x00000000	0.0
22	0x00000000	0.0
23	0x00000000	0.0
24	0x00000000	0.0
25	0x00000000	0.0
26	0x00000000	0.0
27	0x00000000	0.0
28	0x00000000	0.0
29	0x00000000	0.0
30	0x00000000	0.0
31	0x00000000	0.0
32	0x31020dd8	1.892536e-09
33	0x2e9be3ce	7.08905e-11
34	0x30607189	8.165207e-10
35	0x2f94d2f1	2.7070926e-10
36	0x2dac9baa	1.9623265e-11
37	0x2d8c9e25	1.5986388e-11
38	0x2ec08a59	8.7557246e-11
39	0x308ecfc6	1.0390913e-09
40	0x2c032759	1.8638062e-12
41	0x2f5093b8	1.896997e-10
42	0x30a67e0e	1.2113917e-09
43	0x00000000	0.0
44	0x2f0ec7e8	1.2985846e-10
45	0x2cf8864b	7.0634935e-12
46	0x31049beb	1.9297157e-09
47	0x3062a65f	8.245475e-10
48	0x33c0743c	8.9618396e-08
49	0x320a66a9	8.055999e-09
50	0x33fa75bb	1.1662947e-07
51	0x33d7fa4a	1.0057245e-07
52	0x310e3804	2.069556e-09
53	0x307d5618	9.216321e-10
54	0x325a07d1	1.2691047e-08
55	0x3423e5fe	1.5264229e-07
56	0x30ec871e	1.7209663e-09
57	0x327f195c	1.484872e-08
58	0x33c396d8	9.1078334e-08
59	0x00000000	0.0
60	0x32a0ba3e	1.8711145e-08
61	0x32b2b667	2.0804874e-08
62	0x354d5525	7.649235e-07
63	0x34cf8a63	3.8657444e-07
64	0x37d5eecc	2.5502777e-05
65	0x3570de88	8.973079e-07
66	0x37e85665	2.7696786e-05
67	0x381699bc	3.5905963e-05
68	0x35a3a545	1.2192546e-06
69	0x330175d5	3.014232e-08
70	0x372d80df	1.0341609e-05
71	0x37fcb734	3.0126052e-05
72	0x31b137c4	5.157718e-09
73	0x31fea446	7.4110487e-09
74	0x380d52a6	3.3693992e-05
75	0x00000000	0.0
76	0x352abaad	6.3601584e-07
77	0x3698df7e	4.555971e-06
78	0x3889765d	6.554716e-05
79	0x38146c45	3.5386784e-05
80	0x00000000	0.0
81	0x00000000	0.0
82	0x00000000	0.0
83	0x00000000	0.0
84	0x00000000	0.0
85	0x00000000	0.0
86	0x00000000	0.0
87	0x00000000	0.0
88	0x00000000	0.0
89	0x00000000	0.0
90	0x00000000	0.0
91	0x00000000	0.0
92	0x00000000	0.0
93	0x00000000	0.0
94	0x00000000	0.0
95	0x00000000	0.0
96	0x3acb6036	0.0015516344
97	0x3ac09697	0.0014693317
98	0x3c721e04	0.014777664
99	0x3c2ff48b	0.010739456
100	0x399cfe7f	0.00029944253
101	0x35b7ca19	1.3693381e-06
102	0x3aa348cd	0.0012457609
103	0x3c87680d	0.016529107
104	0x36d34ff5	6.2975982e-06
105	0x38308093	4.2081414e-05
106	0x3c8677ed	0.016414607
107	0x00000000	0.0
108	0x39b140a2	0.00033808226
109	0x39d4dca7	0.0004060019
110	0x3d4774ec	0.04869549
111	0x3ceb2372	0.028703425
112	0x3925674a	0.00015774104
113	0x3824b08a	3.926506e-05
114	0x3a6de213	0.000907452
115	0x39bb9ebc	0.00035785686
116	0x37d49dfa	2.5345933e-05
117	0x33bf5fc9	8.911554e-08
118	0x38eff9d9	0.00011442946
119	0x3a844eda	0.00100943
120	0x34bd660b	3.527824e-07
121	0x347d3b55	2.3584046e-07
122	0x3a9d5615	0.0012003804
123	0x00000000	0.0
124	0x37664c6a	1.372686e-05
125	0x361f0b5b	2.3699456e-06
126	0x3aaf96f4	0.0013396428
127	0x3a57e930	0.0008236347
128	0x332ef108	4.073175e-08
129	0x37439d70	1.1659562e-05
130	0x378a49ef	1.648531e-05
131	0x38507d25	4.9707614e-05
132	0x33dcb7bb	1.0277969e-07
133	0x2fd2a32e	3.8314724e-10
134	0x357cdae9	9.419587e-07
135	0x37a3b926	1.951733e-05
136	0x34aad04a	3.1816518e-07
137	0x364d15fd	3.056018e-06
138	0x36bb1a93	5.576128e-06
139	0x00000000	0.0
140	0x3744fe3c	1.1741704e-05
141	0x37eefa23	2.848829e-05
142	0x3a162105	0.0005726966
143	0x39a91c54	0.00032255298
144	0x3940ffac	0.00018405792
145	0x3a194ad8	0.00058476394
146	0x3b4d1826	0.0031294911
147	0x3b82e530	0.0039946064
148	0x3828df86	4.0262494e-05
149	0x34d6bac7	3.9996505e-07
150	0x3924efff	0.00015729664
151	0x3b639857	0.0034728253
152	0x369f85c3	4.754141e-06
153	0x3819b0b9	3.664263e-05
154	0x3b3d83e9	0.0028917736
155	0x00000000	0.0
156	0x397f1be0	0.0002432908
157	0x39eb1e1c	0.00044845126
158	0x3ca8d0b7	0.020607335
159	0x3c433402	0.011914255
160	0x3985b552	0.0002550283
161	0x3a29b083	0.00064731407
162	0x3b7a83a2	0.0038225432
163	0x3b92efaa	0.0044841366
164	0x3862e88d	5.409918e-05
165	0x3502d36f	4.873645e-07
166	0x395eaaab	0.00021235149
167	0x3b8bcd74	0.0042664353
168	0x3693ed8c	4.4085955e-06
169	0x381e28b9	3.770806e-05
170	0x3b6e0595	0.0036319245
171	0x00000000	0.0
172	0x3979ec3b	0.00023834493
173	0x39eaaf06	0.0004476236
174	0x3cb9ee37	0.022696598
175	0x3c5726c9	0.013131806
176	0x3ae5a12a	0.0017519344
177	0x3aa40f03	0.0012516681
178	0x3c740aaa	0.014895121
179	0x3c1b30ab	0.009472053
180	0x39ab1222	0.00032629172
181	0x35bb948e	1.3975821e-06
182	0x3ab59398	0.001385319
183	0x3c88363c	0.016627423
184	0x36d2a688	6.2778745e-06
185	0x37e3db12	2.7162521e-05
186	0x3c8da2c2	0.017289523
187	0x00000000	0.0
188	0x399c3682	0.0002979525
189	0x3974c586	0.00023343237
190	0x3d29ea0f	0.04148298
191	0x3cc9e5eb	0.024645766
192	0x3926a61e	0.00015892877
193	0x382d6a31	4.1345313e-05
194	0x3a6ea633	0.0009103745
195	0x39c076b7	0.00036709543
196	0x37d1429e	2.4945763e-05
197	0x33b3dbd6	8.375325e-08
198	0x38ed4e16	0.00011315585
199	0x3a84f041	0.0010142402
200	0x34af3b56	3.2639463e-07
201	0x34a03163	2.9838256e-07
202	0x3a9acbff	0.0011810063
203	0x00000000	0.0
204	0x374e091e	1.228068e-05
205	0x35ee1d9a	1.7740997e-06
206	0x3abb40bf	0.0014286264
207	0x3a64b204	0.0008724036
208	0x3b726c39	0.0036990775
209	0x3b0a0372	0.0021059182
210	0x3ce90093	0.028442657
211	0x3c851d1b	0.01624923
212	0x3a2e8748	0.0006657732
213	0x362564da	2.464562e-06
214	0x3b3ab5a2	0.002848961
215	0x3d024dca	0.031812467
216	0x3704bd50	7.911891e-06
217	0x380b30ff	3.3185814e-05
218	0x3d0ae231	0.03390712
219	0x00000000	0.0
220	0x39c834d9	0.00038186347
221	0x396edc60	0.00022779545
222	0x3d8c30fd	0.06845281
223	0x3d27734e	0.040881447
224	0x00000000	0.0
225	0x00000000	0.0
226	0x00000000	0.0
227	0x00000000	0.0
228	0x00000000	0.0
229	0x00000000	0.0
230	0x00000000	0.0
231	0x00000000	0.0
232	0x00000000	0.0
233	0x00000000	0.0
234	0x00000000	0.0
235	0x00000000	0.0
236	0x00000000	0.0
237	0x00000000	0.0
238	0x00000000	0.0
239	0x00000000	0.0
240	0x3a6b4889	0.0008975347
241	0x3a25662e	0.00063094764
242	0x3bf5a7f4	0.007496828
243	0x3b9b360d	0.004736668
244	0x392dfff2	0.00016593913
245	0x352d2fb9	6.451697e-07
246	0x3a37af8b	0.0007007054
247	0x3c09821f	0.00839284
248	0x361aa540	2.3043976e-06
249	0x375bddfa	1.31051e-05
250	0x3c0e0e82	0.008670451
251	0x00000000	0.0
252	0x38f64dfb	0.00011744719
253	0x38df9320	0.00010660873
254	0x3ca88019	0.020568894
255	0x3c480f19	0.012210631
