results/Test_citation/version_34/checkpoints/epoch=191-step=192.ckpt (torch, 28113 bytes, 27 tensors)

simplicial_nn.0.W0 f4 [1, 16]
-0.7324633 0.3426188 -0.7261057 -0.5431366 -0.059307814 -0.7294425 -0.3876669 -0.37201855
0.058404457 -0.33098006 0.2961005 -0.7629186 -0.3939475 -0.04940174 -0.65745616 0.561381
00000000: b782 3bbf bb6b af3e 10e2 39bf 000b 0bbf
00000010: c0ec 72bd bebc 3abf 477c c6be 3779 bebe
00000020: 8339 6f3d 3876 a9be 7c9a 973e a24e 43bf
00000030: 7db3 c9be 7b59 4abd 0c4f 28bf aab6 0f3f

simplicial_nn.0.W1 f4 [2, 1, 16]
-0.4920948 0.4445773 0.3522374 0.31098354 0.42884317 -0.0070412755 -0.1149612 0.21921313
-0.3960672 0.3447723 0.15271422 -0.45589602 -0.47022828 0.48988134 0.22530967 -0.09759106
-0.32483935 0.20683359 0.058486104 -0.3915391 -0.5190187 -0.33294976 -0.48114768 0.039818227
0.5705618 0.03444063 0.28426892 0.123369694 0.06062986 -0.25115705 0.3267874 -0.107042745
00000000: daf3 fbbe a39f e33e 7658 b43e 3c39 9f3e
00000010: 5591 db3e 80ba e6bb c770 ebbd 6879 603e
00000020: 52c9 cabe ff85 b03e 1e61 1c3e 346b e9be
00000030: c3c1 f0be bad1 fa3e 94b7 663e d2dd c7bd
00000040: 5851 a6be 2fcc 533e 208f 6f3d d077 c8be
00000050: 69de 04bf 6478 aabe fd58 f6be 7018 233d
00000060: 5710 123f 9e11 0d3d b28b 913e 40a9 fc3d
00000070: 0457 783d a897 80be ae50 a73e 3a39 dbbd

simplicial_nn.0.W2 f4 [2, 1, 16]
-0.06894368 -0.22679193 0.13017929 0.4573561 -0.46755403 -0.331425 -0.32856366 0.049487114
-0.12937959 0.40418306 -0.0624957 -0.20599854 0.4576332 -0.3067416 -0.37998867 -0.118207365
0.40611738 0.48141417 -0.4271468 0.45092 -0.50712985 -0.37438655 -0.15077141 0.44711488
0.16512343 -0.027235772 -0.41886556 -0.1562593 -0.43252972 0.12165302 -0.44558537 0.37051043
00000000: 5832 8dbd 253c 68be b84d 053e 942a ea3e
00000010: 3e63 efbe 8ab0 a9be 7f39 a8be 00b3 4a3d
00000020: 157c 04be 15f1 ce3e 7efb 7fbd 48f1 52be
00000030: e64e ea3e 3c0d 9dbe e08d c2be b416 f2bd
00000040: 9eee cf3e eb7b f63e fcb2 dabe fcde e63e
00000050: 43d3 01bf 98af bfbe d263 1abe 3eec e43e
00000060: 1e16 293e 8e1d dfbc 8c75 d6be 7002 20be
00000070: 8974 ddbe 3825 f93d c423 e4be 8bb3 bd3e

simplicial_nn.2.W0 f4 [16, 16]
0.106259406 -0.32290596 0.016013682 0.33070505 -0.3919432 -0.33289286 0.54524523 -0.20984778
0.3089875 -0.322336 0.3525406 0.026415944 0.06976998 0.55055016 -0.3885716 0.49036247
-0.05626291 -0.15314668 -0.31948262 -0.09717542 0.19935438 0.42027992 -0.13362736 -0.5458735
0.30015135 -0.2892294 -0.21607341 0.23308143 -0.58495593 -0.050348513 -0.024926968 0.40515068
-0.22961587 0.58679444 -0.0060382485 0.039479733 0.06750989 -0.10636526 0.60488623 -0.1738843
-0.55713505 0.23337972 0.06537551 -0.15899935 0.5745656 0.18499517 -0.27727586 0.096497715
-0.2992652 -0.30861714 -0.4998387 -0.21612546 0.062898815 -0.54396164 0.20952076 0.28880334
0.24476933 0.56178826 0.26749974 -0.3694686 0.10731208 0.32900727 0.45149451 0.2903927
-0.24626875 0.057028357 0.0671289 -0.07163459 0.2948131 0.4371697 0.046005454 -0.47099838
-0.083871596 -0.53711635 -0.094417304 -0.1434622 0.32033437 0.07356819 -0.0058595724 0.35080957
-0.398925 0.36796182 0.43925434 -0.08456302 -0.42597425 -0.5690001 -0.52681816 -0.27253228
0.06967372 0.06621605 -0.17246482 0.29533052 0.3556196 -0.1885804 -0.4879973 0.3555147
0.24007511 -0.08795428 -0.42317578 0.49463016 -0.30855566 0.52333283 -0.5394047 -0.09722659
0.10168625 -0.11182847 0.05466803 0.18974887 -0.45715743 0.54043746 0.012603169 0.17676347
0.44816476 0.3358162 -0.3338143 0.22951323 -0.38601336 0.35990423 0.39209038 -0.14669055
-0.0058047175 -0.22492743 -0.48212397 0.2516756 0.60379535 0.23226076 0.610974 0.5200717
-0.04956156 -0.17513496 -0.20670322 0.6092424 0.26033923 -0.18631983 0.40239796 0.55588084
0.5784039 0.41798592 0.40532592 0.20355685 0.26598018 0.39779276 0.27927655 0.10875761
-0.3778702 0.044779196 -0.5718975 -0.3853798 -0.5485924 -0.28918126 -0.5311577 -0.42831576
0.123258054 -9.1568414e-05 0.41777694 0.17686956 -0.42371985 -0.12472195 0.03280202 -0.63137144
-0.5487783 0.08556758 -0.5802314 -0.32563093 0.37530255 -0.13853131 -0.56996053 0.4303826
-0.31224746 0.23992799 0.5248439 0.49811748 -0.60622704 -0.20057108 0.53495795 0.6698444
0.2078535 0.48869473 -0.014082313 -0.4418101 0.19629073 0.33333892 0.5551025 0.31755066
0.4344595 0.5569641 -0.4809285 -0.49561834 -0.44658184 -0.5117396 0.14214617 -0.3885575
-0.28462985 0.0008767843 -0.23941895 0.20409185 0.07143507 0.0880977 0.31999585 0.34120783
0.6077908 -0.13719265 0.08742127 -0.27758643 -0.20650238 0.2779749 0.30886635 -0.4815098
-0.2770512 0.55969477 0.22863024 0.041478813 -0.031685483 -0.41262168 -0.10780619 0.27266812
0.39955184 0.45773694 0.27072906 -0.5945113 -0.2625472 0.14530337 0.17556407 -0.45316643
-0.46835425 -0.2775933 -0.6102975 0.4380992 0.22025687 0.45782858 -0.5658891 0.0002270937
0.41568846 0.5553071 -0.4482782 0.18214923 0.27657586 -0.06767005 -0.27432632 0.37400168
-0.46316662 -0.46397257 -0.499588 -0.5619743 0.090002716 0.31476352 0.3115576 0.25195208
0.33841178 0.18178397 0.44983506 0.13807063 -0.3181818 0.14945059 0.43355054 -0.42552364
00000000: 889e d93d ee53 a5be 202f 833c 2c52 a93e
00000010: c7ac c8be ef70 aabe 3195 0b3f 56e2 56be
00000020: 9c33 9e3e 3909 a5be 3480 b43e 4066 d83c
00000030: 90e3 8e3d dbf0 0c3f dbf2 c6be ca10 fb3e
00000040: f073 66bd 7cd2 1cbe 3a93 a3be e803 c7bd
00000050: 8e23 4c3e ee2e d73e 9cd5 08be 5ebe 0bbf
00000060: 70ad 993e e015 94be 5942 5dbe e6ac 6e3e
00000070: acbf 15bf 3e3a 4ebd a433 ccbc e96f cf3e
00000080: 6c20 6bbe 2938 163f 80dc c5bb 80b5 213d
00000090: a042 8a3d 08d6 d9bd d3d9 1a3f ba0e 32be
000000a0: 67a0 0ebf 18fb 6e3e 98e3 853d bad0 22be
000000b0: bb16 133f 606f 3d3e 1af7 8dbe 98a0 c53d
000000c0: 4a39 99be 1103 9ebe dcea ffbe fe4f 5dbe
000000d0: 18d1 803d 1241 0bbf 9c8c 563e 08de 933e
000000e0: d0a4 7a3e 5bd1 0f3f baf5 883e fd2a bdbe
000000f0: 70c6 db3d a473 a83e 4a2a e73e 5aae 943e
00000100: e02d 7cbe 9196 693d e07a 893d 28b5 92bd
00000110: bef1 963e b5d4 df3e 3770 3c3d b326 f1be
00000120: dfc4 abbd 7580 09bf dc5d c1bd c1e7 12be
00000130: de02 a43e ebaa 963d a801 c0bb 509d b33e
00000140: e63f ccbe 7e65 bc3e f2e5 e03e 602f adbd
00000150: 4c19 dabe fea9 11bf 8edd 06bf 5a89 8bbe
00000160: 18b1 8e3d 489c 873d 9e9a 30be 9035 973e
00000170: c613 b63e 381b 41be c8da f9be 0606 b63e
00000180: 40d6 753e 6021 b4bd 7faa d8be 2a40 fd3e
00000190: 02fb 9dbe 24f9 053f 6d16 0abf bc1e c7bd
000001a0: e140 d03d 5306 e5bd 96eb 5f3d 874d 423e
000001b0: 8a10 eabe 1c5a 0a3f 867d 4e3c 7c01 353e
000001c0: da75 e53e 1af0 ab3e b5e9 aabe 8405 6b3e
000001d0: 8ba3 c5be 5e45 b83e 12c0 c83e 0c36 16be
000001e0: 8035 bebb 6053 66be f4d8 f6be a0db 803e
000001f0: 5592 1a3f c4d5 6d3e cb68 1c3f 6b23 053f
00000200: 1001 4bbd 9456 33be 02aa 53be 4ff7 1b3f
00000210: 2f4b 853e a0ca 3ebe 1b07 ce3e 354e 0e3f
00000220: 4712 143f 4002 d63e e186 cf3e 3571 503e
00000230: 8e2e 883e 7eab cb3e 56fd 8e3e 4fbc de3d
00000240: 3478 c1be 646a 373d e067 12bf 8050 c5be
00000250: 8d70 0cbf 910f 94be f3f9 07bf 344c dbbe
00000260: b86e fc3d 6b08 c0b8 dce6 d53e 4b1d 353e
00000270: cff1 d8be 396e ffbd 695b 063d 8fa1 21bf
00000280: bc7c 0cbf 0e3e af3d 0c8a 14bf 19b9 a6be
00000290: a827 c03e 27db 0dbe efe8 11bf 1c5b dc3e
000002a0: e6de 9fbe afaf 753e 2b5c 063f 4109 ff3e
000002b0: b231 1bbf 8162 4dbe 01f3 083f ec7a 2b3f
000002c0: 8cd7 543e 3236 fa3e 80b9 66bc ef34 e2be
000002d0: 7000 493e 66ab aa3e 331b 0e3f 0096 a23e
000002e0: 7a71 de3e 3395 0e3f 433c f6be b0c1 fdbe
000002f0: 60a6 e4be 5e01 03bf c48e 113e 02f1 c6be
00000300: 01bb 91be 00d8 653a 3e2a 75be 74fd 503e
00000310: 8d4c 923d 916c b43d 7fd6 a33e cbb2 ae3e
00000320: 2e98 1b3f 3b7c 0cbe ec09 b33d cf1f 8ebe
00000330: 5c75 53be ba52 8e3e bb23 9e3e 7488 f6be
00000340: a8d9 8dbe 2848 0f3f 0c1e 6a3e b0e5 293d
00000350: a3c8 01bd 2643 d3be 7ec9 dcbd 289b 8b3e
00000360: 0f92 cc3e 7f5c ea3e 009d 8a3e e431 18bf
00000370: 966c 86be 68ca 143e 11c7 333e 6e05 e8be
00000380: 21cc efbe b620 8ebe 753c 1cbf 8a4e e03e
00000390: 048b 613e 8268 ea3e 1cde 10bf 0020 6e39
000003a0: 1ed5 d43e 9b28 0e3f b884 e5be 5485 3a3e
000003b0: 5a9b 8d3e 9896 8abd 8074 8cbe 267d bf3e
000003c0: 2d24 edbe d08d edbe 00ca ffbe 8cdd 0fbf
000003d0: 5853 b83d af28 a13e 7a84 9f3e ddff 803e
000003e0: 4f44 ad3e 9425 3a3e c850 e63e 6362 0d3e
000003f0: bae8 a2be 9309 193e 56fa dd3e 3cde d9be

simplicial_nn.2.W1 f4 [2, 16, 16]
-0.12654093 -0.09016283 -0.001559332 -0.012268439 -0.077350214 0.013722703 -0.060747057 -0.17615625
-0.18454698 0.025490046 -0.008931264 0.053022325 -0.18690647 -0.036299825 0.09839347 -0.07703687
0.0046388656 0.17619185 -0.040240273 0.045989096 0.16790983 -0.21777286 -0.15805165 0.039428674
-0.015232889 -0.11514744 0.13716942 0.056232292 -0.008521438 -0.10440856 0.11453297 0.0717176
0.02359952 -0.078821614 0.14810571 0.041192293 0.20325503 0.12759155 -0.022122145 -0.015823781
0.13565895 0.12344432 -0.00682728 0.025987536 0.19702557 -0.07451956 -0.14341106 -0.015799731
0.038844973 0.16353434 0.049212158 -0.1641975 0.062089026 -0.047553316 -0.16659765 -0.10790358
-0.085153975 0.1803509 0.024160922 0.06543931 0.118267596 -0.18734351 -0.070975885 0.13270348
0.20118508 0.05965013 -0.14579761 -0.14539063 0.043603502 -0.050632462 -0.0016716616 0.022270601
-0.18105009 0.00677038 0.09285312 0.06386516 -0.0064103603 0.13235413 -0.24886389 -0.13645427
-0.17446618 0.122042745 -0.043434635 0.16219401 -0.13180041 0.039444715 -0.048719168 0.1437358
-0.01823248 -0.04223551 -0.17746262 -0.18805 0.19832501 0.1446569 -0.20252796 0.15289018
0.1859025 -0.020137742 -0.11061199 -0.011538625 0.15087593 0.121047966 0.21608438 -0.083990194
-0.057395414 0.039821953 0.16312806 0.16961442 -0.057294726 -0.1497721 0.16823648 0.023608979
-0.066862464 -0.17529827 -0.056507796 -0.15944792 0.07413021 0.0912033 -0.06656067 -0.044674173
-0.12494245 0.12748578 0.05935809 0.14471811 0.18208548 0.006948009 0.09632349 -0.18451841
0.011653185 -0.2180009 -0.057182133 0.09802383 -0.11409064 0.17161402 -0.051129058 0.34246278
0.33659726 -0.21312676 -0.02483649 -0.0025859976 0.09444785 -0.12099832 0.27464086 -0.03728259
0.08499241 -0.035174306 -0.06559709 -0.06168723 -0.08990154 0.19025362 0.079440415 -0.10457866
0.13139056 -0.07115599 -0.10483016 0.14005952 0.16618425 0.05273525 -0.0723692 -0.015430503
0.010292366 -0.18404637 -0.0020192415 0.031142592 0.07559215 0.113440864 -0.1421551 -0.18755579
-0.17829706 -0.08425606 -0.050506894 -0.19473478 -0.054120496 -0.09961116 0.10428695 0.0042010224
-0.065960616 0.0025938004 0.093694866 -0.20228605 0.070934385 0.12661979 -0.18463992 -0.12353519
0.12217516 -0.020196289 0.125339 -0.12626186 -0.14488445 0.006510332 -0.123796634 0.0054545403
0.091358215 0.028772576 -0.13077173 -0.1986953 0.089891024 0.06930102 0.21712291 0.24967845
0.00834319 -0.0037023763 0.16601531 0.14187896 0.047508895 0.07740377 -0.07287481 -0.09116767
0.071846396 0.14947057 -0.14542869 -0.0040028393 0.03069118 -0.11316632 -0.20642406 -0.05136565
-0.03123276 0.13124423 -0.029284917 -0.07553823 0.07677087 -0.060677964 -0.14701697 0.1497703
-0.035509452 0.11091724 0.18131527 -0.1848489 0.12768438 0.15332928 -0.024414256 0.12225631
0.043409422 0.17763555 -0.122175656 -0.00968273 0.068276495 0.009365737 0.046437204 0.100804985
0.066428065 -0.08623664 0.019212633 0.13422525 0.021684792 0.17938645 -0.051045008 -0.17259581
0.035131373 0.08126091 -0.060444046 0.08576639 0.12914374 -0.2012905 0.008281933 0.21920815
00000000: f293 01be 4aa7 b8bd 8062 ccba 9001 49bc
00000010: ca69 9ebd 30d5 603c e8d1 78bd 4e62 34be
00000020: e2f9 3cbe 80d0 d03c 7054 12bc f02d 593d
00000030: 6964 3fbe 20af 14bd 8482 c93d 82c5 9dbd
00000040: a001 983b a36b 343e fcd2 24bd 105f 3c3d
00000050: 8ef0 2b3e d9ff 5ebe 4bd8 21be f67f 213d
00000060: 5e93 79bc 6cd2 ebbd 2476 0c3e d553 663d
00000070: 809d 0bbc 28d4 d5bd 4390 ea3d ade0 923d
00000080: c853 c13c 3a6d a1bd 06a9 173e 40b9 283d
00000090: 1622 503e 5ca7 023e 8039 b5bc e0a0 81bc
000000a0: 2eea 0a3e 60d0 fc3d 60b7 dfbb d0e3 d43c
000000b0: 12c1 493e b69d 98bd 59da 12be 706e 81bc
000000c0: e81b 1f3d 8c75 273e b092 493d 6423 28be
000000d0: 1051 7e3d 44c7 42bd 9398 2abe 8dfc dcbd
000000e0: 3565 aebd e8ad 383e 20ed c53c 0c05 863d
000000f0: 4836 f23d fad6 3fbe ce5b 91bd 6ce3 073e
00000100: 7603 4e3e b253 743d f84b 15be 48e1 14be
00000110: 9699 323d fc63 4fbd a81b dbba d670 b63c
00000120: 3265 39be 10da dd3b c729 be3d bdcb 823d
00000130: 000e d2bb d787 073e 2dd6 7ebe abba 0bbe
00000140: 43a7 32be 8cf1 f93d 84e8 31bd 3016 263e
00000150: b0f6 06be c890 213d c08d 47bd 7a2f 133e
00000160: 485c 95bc 24ff 2cbd c3b8 35be 2e90 40be
00000170: b615 4b3e f020 143e 7d63 4fbe 3e8f 1c3e
00000180: 3a5d 3e3e e8f7 a4bc 8a88 e2bd 800c 3dbc
00000190: 387f 1a3e ffe7 f73d 3945 5d3e 0d03 acbd
000001a0: 7417 6bbd 581c 233d 0b0b 273e 67af 2d3e
000001b0: e0ad 6abd db5d 19be 2f46 2c3e 9e67 c13c
000001c0: 30ef 88bd 6481 33be b874 67bd 5146 23be
000001d0: 94d1 973d ccc8 ba3d f650 88bd 44fc 36bd
000001e0: d4e1 ffbd a28b 023e 7821 733d fc30 143e
000001f0: 9e74 3a3e 20ac e33b 4045 c53d 65f2 3cbe
00000200: 00ed 3e3c a13b 5fbe d037 6abd b8c0 c83d
00000210: 5aa8 e9bd 96bb 2f3e b46c 51bd 4857 af3e
00000220: 7a56 ac3e e73d 5abe e575 cbbc d779 29bb
00000230: e06d c13d f8cd f7bd ba9d 8c3e a1b5 18bd
00000240: 8010 ae3d ef12 10bd c457 86bd c0ab 7cbd
00000250: 4c1e b8bd d8d1 423e a8b1 a23d 562d d6bd
00000260: 3f8b 063e 3bba 91bd 32b1 d6bd c36b 0f3e
00000270: 342c 2a3e eb00 583d 4e36 94bd 38d0 7cbc
00000280: 50a1 283c a776 3cbe 4055 04bb c01e ff3c
00000290: 0fd0 9a3d af53 e83d 1b91 11be a00e 40be
000002a0: 8193 36be 718e acbd 51e0 4ebd 8e68 47be
000002b0: 74ad 5dbd f000 ccbd 6594 d53d bba8 893b
000002c0: 5c16 87bd c0fc 293b 18e3 bf3d 1324 4fbe
000002d0: 0c46 913d 9ea8 013e 3f12 3dbe 0500 fdbd
000002e0: f836 fa3d b072 a5bc de58 003e ca4a 01be
000002f0: 975c 14be a054 d53b 1789 fdbd 00bc b23b
00000300: 041a bb3d 77b4 eb3c 06e9 05be c876 4bbe
00000310: c918 b83d b1ed 8d3d 7855 5e3e b5ab 7f3e
00000320: e0b1 083c 91a3 72bb ebff 293e b848 113e
00000330: b098 423d de85 9e3d 633f 95bd 1eb6 babd
00000340: 3424 933d d00e 193e 42eb 14be 402a 83bb
00000350: 126c fb3c bec3 e7bd d460 53be ca64 52bd
00000360: d8db ffbc e364 063e ece6 efbc cab3 9abd
00000370: 0c3a 9d3d 7589 78bd 9e8b 16be 635d 193e
00000380: 5c72 11bd 9428 e33d b6aa 393e 0849 3dbe
00000390: b2bf 023e 5a02 1d3e 6800 c8bc 8461 fa3d
000003a0: 14ce 313d 18e6 353e 3b37 fabd 50a4 1ebc
000003b0: 8cd4 8b3d c072 193c f034 3e3d d872 ce3d
000003c0: 700b 883d d69c b0bd d063 9d3c 5872 093e
000003d0: 4ea4 b13c 15b1 373e 9214 51bd f5bc 30be
000003e0: eae5 0f3d 1f6c a63d 2d94 77bd 4aa6 af3d
000003f0: 423e 043e 191f 4ebe f2b0 073c 1a78 603e

simplicial_nn.2.W2 f4 [2, 16, 16]
0.13335568 0.023176298 -0.13181768 0.09694117 0.18867478 0.09737334 0.19968605 0.19216484
-0.18643604 -0.11699995 0.084337205 0.08649078 0.105534285 0.07445711 -0.116555445 0.1416192
-0.17389844 -0.12933117 -0.055865854 0.087064385 -0.08025496 0.07826331 -0.23097788 0.22367252
0.23099169 -0.060517196 0.23597385 0.14106204 -0.12599117 -0.230188 0.02449947 0.16405198
-0.13266529 0.06479332 -0.101461746 0.08450234 -0.11044148 -0.042877242 0.089565426 0.18715727
0.17483133 0.04557456 -0.148334 0.123755574 -0.14013426 0.11855054 0.12258458 0.0020863563
-0.051478535 -0.023326382 -0.10968613 0.018635169 -0.14475797 0.16848674 -0.06373344 -0.1724051
0.09486216 -0.006185353 -0.015664667 0.18354017 0.20366052 -0.043261424 -0.06408639 -0.12888786
-0.1062908 -0.04756372 0.082328826 -0.14459997 -0.0014576819 0.07450724 -0.04274175 0.21366766
-0.08103364 -0.0048378967 0.028642388 0.07483479 -0.18879132 -0.17691267 0.10447978 -0.018995866
0.013803169 0.14819267 -0.0058126897 0.07345107 0.16566858 -0.015123785 0.037924528 -0.1320789
-0.15148397 0.1690816 0.062867254 -0.15178025 0.081267595 -0.06884518 -0.19779176 0.018099442
-0.01733452 0.04465559 -0.1865097 -0.08852372 0.15760395 -0.34526956 -0.102198556 -0.16739738
-0.20764142 0.17358562 -0.07923138 -0.33961803 -0.082320556 0.18755735 -0.32642725 -0.02891008
-0.05319789 -0.026559547 -0.06765242 0.12983471 -0.08528635 0.043753237 0.113827944 -0.0005328357
0.19046965 -0.093281046 0.07861981 0.059334636 -0.028220996 -0.09040234 -0.02023676 0.18708047
0.113625556 0.10242535 -0.08041115 0.084430814 -0.21633914 0.074555665 -0.22696543 0.12273496
0.1302394 0.013824504 0.100601934 -0.03310602 0.19045514 -0.188925 -0.04334769 -0.20022191
0.20264196 -0.19783072 -0.044402614 0.099855185 0.15334187 0.115887836 0.0743466 0.08193857
-0.013963695 -0.14808811 -0.2257577 -0.049226314 -0.045616984 -0.024385817 -0.1560578 -0.20522621
-0.08417148 0.047606517 0.021163136 -0.18740582 0.13137716 0.105328225 -0.12932543 -0.17165665
0.25472638 0.09109749 0.18127634 -0.1301701 -0.20105684 -0.031576265 0.0060388073 -0.14690942
-0.19310397 -0.07699643 -0.0035258234 -0.18118753 0.16653067 0.055233926 -0.020712301 -0.04043904
-0.06183733 0.023061976 -0.0042542666 -0.016162336 0.14749718 -0.012503132 -0.2017494 0.017785862
-0.13822123 -0.033484638 0.08464804 -0.015405312 0.23103166 -0.14757273 -0.05136111 -0.17588131
0.020907657 0.23797756 -0.27462667 0.05785488 -0.17849699 0.027225249 0.017161524 -0.17628928
0.18137562 -0.10147236 -0.011699125 -0.2013149 -0.030930784 0.007529223 0.07018648 0.2526734
0.10877716 -0.14938912 0.13384706 -0.016252665 0.109570265 -0.19503303 0.125459 -0.07516151
0.01599519 -0.19867104 -0.12072395 0.017148688 -0.16690361 -0.1548678 0.15975505 -0.027400494
0.11974564 0.05556336 -0.09478731 -0.19033703 0.18521488 -0.17157605 -0.17102984 -0.014001146
-0.16222343 0.15952244 -0.124018796 -0.012452081 -0.12017121 -0.04320783 -0.25443843 0.118395954
0.11475208 -0.07162724 -0.11745203 0.03003307 -0.09057418 -0.123843 0.011198987 0.15166287
00000000: 648e 083e 38dc bd3c 37fb 06be 1889 c63d
00000010: f633 413e ac6b c73d 807a 4c3e dcc6 443e
00000020: 17e9 3ebe ab9d efbd fcb8 ac3d 1422 b13d
00000030: 5c22 d83d f87c 983d 9fb4 eebd a004 113e
00000040: 6f12 32be 646f 04be 98d3 64bd d04e b23d
00000050: b65c a4bd 8448 a03d 7785 6cbe 690a 653e
00000060: 1689 6c3e e1e0 77bd 21a3 713e 9172 103e
00000070: d403 01be 67b6 6bbe 1db3 c83c 3efd 273e
00000080: 69d9 07be 5cb2 843d 2dcb cfbd 900f ad3d
00000090: 252f e2bd 0ca0 2fbd 146e b73d 28a6 3f3e
000000a0: fc06 333e 64ac 3a3d dee4 17be 9073 fd3d
000000b0: 5b7f 0fbe a0ca f23d a00d fb3d 40bb 083b
000000c0: 28db 52bd f816 bfbc 1fa3 e0bd c8a8 983c
000000d0: 6f3b 14be ca87 2c3e ae86 82bd f68a 30be
000000e0: 1847 c23d 80ae cabb 3053 80bc f4f1 3b3e
000000f0: 628c 503e e432 31bd ba3f 83bd 2efb 03be
00000100: feae d9bd 2dd2 42bd 049c a83d 0412 14be
00000110: b00f bfba 4097 983d f911 2fbd b2cb 5a3e
00000120: f7f4 a5bd 3887 9ebb 71a3 ea3c fb42 993d
00000130: 8352 41be 9828 35be 7ff9 d53d 389d 9bbc
00000140: b026 623c d2bf 173e 6078 bebb 846d 963d
00000150: 06a5 293e c0c9 77bc c056 1b3d b13f 07be
00000160: 9d1e 1bbe ba23 2d3e 8cc0 803d 486c 1bbe
00000170: a06f a63d b4fe 8cbd ec89 4abe 4845 943c
00000180: 2001 8ebc c8e8 363d 66fc 3ebe ed4b b5bd
00000190: ee62 213e 2cc7 b0be 7a4d d1bd 386a 2bbe
000001a0: f49f 54be 6ec0 313e 1044 a2bd 6ae2 adbe
000001b0: ae97 a8bd 090f 403e 7921 a7be d5d4 ecbc
000001c0: 08e6 59bd 6893 d9bc 5a8d 8abd 64f3 043e
000001d0: 9caa aebd 9836 333d a01e e93d 00ae 0bba
000001e0: 7a0a 433e 220a bfbd 6c03 a13d e008 733d
000001f0: b82f e7bc dd24 b9bd 90c7 a5bc 0692 3f3e
00000200: 84b4 e83d 62c4 d13d 9aae a4bd 10ea ac3d
00000210: 0288 5dbe a4b0 983d a069 68be 775c fb3d
00000220: 7a5d 053e 2c80 623c 6308 ce3d 2e9a 07bd
00000230: ac06 433e 8e75 41be 598d 31bd f906 4dbe
00000240: 6081 4f3e 2394 4abe 84df 35bd e080 cc3d
00000250: a705 1d3e 9a56 ed3d 0843 983d 69cf a73d
00000260: fbc7 64bc 69a4 17be 072d 67be 88a1 49bd
00000270: e0d8 3abd c4c4 c7bc 9ecd 1fbe d226 52be
00000280: 1962 acbd 0dff 423d 505e ad3c 50e7 3fbe
00000290: bc87 063e 53b6 d73d e36d 04be c3c6 2fbe
000002a0: 7f6b 823e 5291 ba3d 81a0 393e 504b 05be
000002b0: d8e1 4dbe 1d56 01bd 30e1 c53b 6c6f 16be
000002c0: 0cbd 45be 4eb0 9dbd 8011 67bb 3989 39be
000002d0: 0487 2a3e f83c 623d d8ac a9bc 68a3 25bd
000002e0: 2449 7dbd 78ec bc3c 6067 8bbb e066 84bc
000002f0: 8009 173e f0d9 4cbc 6597 4ebe a8b3 913c
00000300: de89 0dbe 3027 09bd f45b ad3d 9066 7cbc
00000310: 9093 6c3e 4e1d 17be 0760 52bd 3b1a 34be
00000320: 8946 ab3c 64b0 733e de9b 8cbe 3df9 6c3d
00000330: eac7 36be 7c07 df3c 5396 8c3c 2d85 34be
00000340: 88ba 393e bed0 cfbd b0ad 3fbc 7e25 4ebe
00000350: 8e62 fdbc b3b7 f63b eebd 8f3d 685e 813e
00000360: 8fc6 de3d 76f9 18be 340f 093e 4f24 85bc
00000370: 6066 e03d bdb6 47be 5378 003e 47ee 99bd
00000380: 5808 833c 6c70 4bbe 1e3e f7bd 687b 8c3c
00000390: c8e8 2abe aa95 1ebe d496 233e 0077 e0bc
000003a0: 343d f53d 6896 633d d91f c2bd b6e7 42be
000003b0: f8a8 3d3e a2b1 2fbe 7222 2fbe 1065 65bc
000003c0: e61d 26be da59 233e 91fd fdbd d003 4cbc
000003d0: 531c f6bd b2fa 30bd c145 82be 9479 f23d
000003e0: 2303 eb3d 4db1 92bd b18a f0bd ea07 f63c
000003f0: f57e b9bd 66a1 fdbd f57b 373c 834d 1b3e

simplicial_nn.4.W0 f4 [16, 1]
0.48297614 -0.5300832 -0.2442382 0.36198503 -0.2556916 0.6744654 -0.049105518 0.07632098
0.2057603 -0.6970044 0.7395291 0.6982129 0.3385939 -0.32066485 0.71390855 0.6938389
00000000: a648 f73e 88b3 07bf 9419 7abe 1a56 b93e
00000010: 02ea 82be c4a9 2c3f de22 49bd 2d4e 9c3d
00000020: d4b2 523e e16e 32bf c751 3d3f 15be 323f
00000030: 2e5c ad3e 2f2e a4be b6c2 363f 6d9f 313f

simplicial_nn.4.W1 f4 [2, 16, 1]
-0.5286362 -0.114813715 0.26668143 -0.48953757 -0.20774388 0.52321583 0.80368555 0.8205493
0.68720365 -0.32728383 0.3497661 -0.27590534 -0.63852435 0.8011071 -0.30489996 -0.83850276
0.32195866 0.06922238 0.07495612 -0.20753407 0.120600894 -0.5302854 -0.31142655 -0.44211605
0.1247069 -0.36007097 0.7681769 0.7448284 -0.34326735 0.59327865 0.08275846 -0.48421586
00000000: b454 07bf 7423 ebbd 788a 883e aba4 fabe
00000010: d0ba 54be 79f1 053f 56be 4d3f 850f 523f
00000020: 94ec 2f3f bf91 a7be 8b14 b33e 7743 8dbe
00000030: 5576 23bf 5b15 4d3f d91b 9cbe 1ea8 56bf
00000040: c4d7 a43e 77c4 8d3d 9882 993d d083 54be
00000050: 9afd f63d c9c0 07bf 4d73 9fbe 095d e2be
00000060: 5566 ff3d 395b b8be 3ea7 443f 13ad 3e3f
00000070: bdc0 afbe 1ce1 173f 447d a93d 24eb f7be

simplicial_nn.4.W2 f4 [2, 16, 1]
0.24140239 -0.80831575 -0.35307747 -0.49624464 0.036445018 0.288683 -0.18681394 0.6200546
-0.11247326 0.26722953 0.7891127 0.83914435 -0.7517185 0.14879587 -0.18618892 -0.61963993
-0.19644517 0.48060519 -0.41220027 -0.5444397 -0.08469067 -0.4181526 -0.29302713 0.346213
0.1727198 -0.09093727 -0.17771931 0.5771408 -0.36359704 0.0624394 0.34979984 0.5364897
00000000: 3032 773e c8ed 4ebf 92c6 b4be c713 febe
00000010: 5f47 153d 42ce 933e 274c 3fbe e6bb 1e3f
00000020: 6158 e6bd 4fd2 883e 4a03 4a3f 2ad2 563f
00000030: a070 40bf f25d 183e 4fa8 3ebe b9a0 1ebf
00000040: ec28 49be e211 f63e ea0b d3be 6660 0bbf
00000050: 4d72 adbd 1918 d6be a707 96be d542 b13e
00000060: 76dd 303e 523d babd 0dfc 35be 80bf 133f
00000070: 6429 babe 75c0 7f3d f718 b33e 6457 093f

exp_avg f4 [1, 16]
0.0 -0.12216514 0.0 0.0 -0.11463446 0.0 0.0027885549 0.0
0.021055082 -0.00018432681 -0.29039115 0.0 0.0017183123 -0.07379051 0.0 0.12008947
00000000: 0000 0000 b831 fabd 0000 0000 0000 0000
00000010: 79c5 eabd 0000 0000 30c0 363b 0000 0000
00000020: b57b ac3c da47 41b9 26ae 94be 0000 0000
00000030: fe38 e13a 7b1f 97bd 0000 0000 78f1 f53d

exp_avg_sq f4 [1, 16]
0.0 1.0417448 0.0 0.0 0.01364657 0.0 3.2976998e-06 0.0
0.13391046 0.0008763802 3.1563416 0.0 7.166872e-06 0.02068604 0.0 0.7922437
00000000: 0000 0000 e557 853f 0000 0000 0000 0000
00000010: dd95 5f3c 0000 0000 0d4e 5d36 0000 0000
00000020: d31f 093e e1bc 653a 8001 4a40 0000 0000
00000030: f67a f036 c575 a93c 0000 0000 7cd0 4a3f

exp_avg f4 [2, 1, 16]
0.0 0.08611733 0.0 0.0 -0.028620265 0.0 -0.0024666758 0.0
-0.03751936 -0.00020232737 0.13658677 0.0 -0.0014433366 -0.015810765 0.0 0.089906424
0.0 0.016470756 0.0 0.0 -0.019018129 0.0 -0.0019040364 0.0
-0.050355464 -0.00011867268 0.040814664 0.0 -0.00119203 0.004009999 0.0 0.00019633466
00000000: 0000 0000 485e b03d 0000 0000 0000 0000
00000010: 0c75 eabc 0000 0000 f4a7 21bb 0000 0000
00000020: e7ad 19bd d727 54b9 67dd 0b3e 0000 0000
00000030: 572e bdba 9485 81bc 0000 0000 dc20 b83d
00000040: 0000 0000 aeed 863c 0000 0000 0000 0000
00000050: e8cb 9bbc 0000 0000 dc90 f9ba 0000 0000
00000060: 8841 4ebd e9df f8b8 472d 273d 0000 0000
00000070: e43d 9cba 4f66 833b 0000 0000 2fdf 4d39

exp_avg_sq f4 [2, 1, 16]
0.0 0.0038750675 0.0 0.0 0.0019284342 0.0 2.5803392e-06 0.0
0.0005244537 0.000598711 0.009245986 0.0 5.2737014e-06 0.004461828 0.0 0.014193245
0.0 0.0013283024 0.0 0.0 0.0012115984 0.0 1.5374575e-06 0.0
0.00050262315 0.00030403468 0.0006205784 0.0 1.0038063e-06 0.0017977121 0.0 0.0074986196
00000000: 0000 0000 d8f4 7d3b 0000 0000 0000 0000
00000010: 84c3 fc3a 0000 0000 e429 2d36 0000 0000
00000020: 7e7b 093a d1f2 1c3a 7a7c 173c 0000 0000
00000030: c0f4 b036 8734 923b 0000 0000 c98a 683c
00000040: 0000 0000 6f1a ae3a 0000 0000 0000 0000
00000050: 7fce 9e3a 0000 0000 a35a ce35 0000 0000
00000060: 78c2 033a d866 9f39 50ae 223a 0000 0000
00000070: 86ba 8635 35a1 eb3a 0000 0000 fbb6 f53b

exp_avg f4 [2, 1, 16]
0.0 0.030131785 0.0 0.0 0.014234773 0.0 0.00011121887 0.0
0.025213225 2.40842e-05 0.05431835 0.0 0.0009535022 -0.031468127 0.0 0.031242184
0.0 0.0035107613 0.0 0.0 0.0009902612 0.0 5.703247e-06 0.0
0.0025949455 1.4427875e-06 0.0063729445 0.0 9.4052055e-05 -0.0021024812 0.0 0.003524626
00000000: 0000 0000 efd6 f63c 0000 0000 0000 0000
00000010: f738 693c 0000 0000 2d3e e938 0000 0000
00000020: f78b ce3c 6d08 ca37 eb7c 5e3d 0000 0000
00000030: 73f4 793a b9e4 00bd 0000 0000 9cef ff3c
00000040: 0000 0000 cd14 663b 0000 0000 0000 0000
00000050: a7cb 813a 0000 0000 855e bf36 0000 0000
00000060: f60f 2a3b cda5 c135 22d4 d03b 0000 0000
00000070: d03d c538 c8c9 09bb 0000 0000 69fd 663b

exp_avg_sq f4 [2, 1, 16]
0.0 0.0010109709 0.0 0.0 0.00010566074 0.0 5.24577e-09 0.0
0.00016213424 3.2413675e-07 0.0031885041 0.0 9.97538e-07 0.0001711598 0.0 0.0010295726
0.0 7.3238157e-06 0.0 0.0 7.0083155e-07 0.0 1.3794209e-11 0.0
1.2005664e-06 1.2935572e-09 2.327369e-05 0.0 7.638368e-09 9.944478e-07 0.0 7.3203055e-06
00000000: 0000 0000 8e82 843a 0000 0000 0000 0000
00000010: 2e96 dd38 0000 0000 483e b431 0000 0000
00000020: 9402 2a39 0405 ae34 39f6 503b 0000 0000
00000030: 25e3 8535 5c79 3339 0000 0000 b9f2 863a
00000040: 0000 0000 19bf f536 0000 0000 0000 0000
00000050: c720 3c35 0000 0000 98ab 722d 0000 0000
00000060: 2623 a135 ffc8 b130 de3b c337 0000 0000
00000070: e639 0332 f778 8535 0000 0000 f2a0 f536

exp_avg f4 [16, 16]
0.0 0.0 0.0 0.0 0.0 0.0 0.0 0.0
0.0 0.0 0.0 0.0 0.0 0.0 0.0 0.0
0.0 7.802026e-08 0.0 0.0 -0.00949435 0.029583491 -0.0014091405 0.03404422
0.029540028 -0.0039028283 0.026063241 0.00024791638 0.0 0.10620921 -0.014221235 -0.03744542
0.0 0.0 0.0 0.0 0.0 0.0 0.0 0.0
0.0 0.0 0.0 0.0 0.0 0.0 0.0 0.0
0.0 0.0 0.0 0.0 0.0 0.0 0.0 0.0
0.0 0.0 0.0 0.0 0.0 0.0 0.0 0.0
0.0 1.0620401e-08 0.0 0.0 -0.0011602159 0.0021521505 3.127137e-09 -0.0005640312
0.0038563525 0.0002977674 0.0015785072 -0.0017737196 0.0 0.0007487616 -0.0005437202 -0.0029481081
0.0 0.0 0.0 0.0 0.0 0.0 0.0 0.0
0.0 0.0 0.0 0.0 0.0 0.0 0.0 0.0
0.0 0.0 0.0 0.0 5.0089998e-11 0.000129731 3.35713e-06 2.8366856e-05
5.544748e-05 -0.00014123452 0.00016071735 0.00013884084 0.0 -3.1044226e-05 0.00012575876 0.0
0.0 0.0 0.0 0.0 0.0 0.0 0.0 0.0
0.0 0.0 0.0 0.0 0.0 0.0 0.0 0.0
0.0 0.0 0.0 0.0 0.012074264 -0.030737657 -0.00075119187 -0.0026354447
-0.012021156 0.033517975 -0.03425293 -0.02990864 0.0 0.018496377 -0.03131267 -0.025879808
0.0 7.3212525e-10 0.0 0.0 -2.1665424e-05 5.842281e-05 0.0 1.3262719e-11
1.7217275e-05 -5.4881024e-05 5.6844867e-05 5.2493728e-05 0.0 -4.09994e-12 5.6442852e-05 5.664527e-05
0.0 5.8014347e-08 0.0 0.0 -0.0007160358 0.005710451 -0.0015318394 0.024663713
0.01724833 0.013540671 0.003257101 -0.015080662 0.0 0.0923576 -0.028627826 -0.04485414
0.0 0.0 0.0 0.0 0.0 0.0 0.0 0.0
0.0 0.0 0.0 0.0 0.0 0.0 0.0 0.0
0.0 0.0 0.0 0.0 -0.00047830964 0.0013387966 -0.00022538497 0.00014423468
0.00030370738 -0.0013132817 0.0015219569 0.0015396138 0.0 -0.00075218914 0.0014528806 0.0
0.0 2.5616021e-08 0.0 0.0 -5.518353e-05 9.419271e-05 2.3304034e-12 0.0003117081
0.00035642128 0.0059396066 -0.0062830886 -0.007469325 0.0 0.001146853 -0.0027568243 -0.00067097135
0.0 0.0 0.0 0.0 0.0 0.0 0.0 0.0
0.0 0.0 0.0 0.0 0.0 0.0 0.0 0.0
0.0 3.2284152e-08 0.0 0.0 0.013826783 -0.029713258 -0.0041952366 0.03348143
0.024853569 0.052312404 -0.020315938 -0.054106873 0.0 0.17288274 -0.09015933 -0.12791015
00000000: 0000 0000 0000 0000 0000 0000 0000 0000
00000010: 0000 0000 0000 0000 0000 0000 0000 0000
00000020: 0000 0000 0000 0000 0000 0000 0000 0000
00000030: 0000 0000 0000 0000 0000 0000 0000 0000
00000040: 0000 0000 178c a733 0000 0000 0000 0000
00000050: 318e 1bbc 1459 f23c e9b2 b8ba f471 0b3d
00000060: eefd f13c 98c6 7fbb 9482 d53c c6fa 8139
00000070: 0000 0000 3784 d93d 2f00 69bc 5e60 19bd
00000080: 0000 0000 0000 0000 0000 0000 0000 0000
00000090: 0000 0000 0000 0000 0000 0000 0000 0000
000000a0: 0000 0000 0000 0000 0000 0000 0000 0000
000000b0: 0000 0000 0000 0000 0000 0000 0000 0000
000000c0: 0000 0000 0000 0000 0000 0000 0000 0000
000000d0: 0000 0000 0000 0000 0000 0000 0000 0000
000000e0: 0000 0000 0000 0000 0000 0000 0000 0000
000000f0: 0000 0000 0000 0000 0000 0000 0000 0000
00000100: 0000 0000 0475 3632 0000 0000 0000 0000
00000110: 6312 98ba 180b 0d3b 2de5 5631 7edb 13ba
00000120: dcba 7c3b aa1d 9c39 eae5 ce3a 277c e8ba
00000130: 0000 0000 8a48 443a 7288 0eba 0c35 41bb
00000140: 0000 0000 0000 0000 0000 0000 0000 0000
00000150: 0000 0000 0000 0000 0000 0000 0000 0000
00000160: 0000 0000 0000 0000 0000 0000 0000 0000
00000170: 0000 0000 0000 0000 0000 0000 0000 0000
00000180: 0000 0000 0000 0000 0000 0000 0000 0000
00000190: 534c 5c2e 6608 0839 0e4b 6136 5cf5 ed37
000001a0: 4790 6838 5a18 14b9 3c86 2839 ce95 1139
000001b0: 0000 0000 7c35 02b8 1cde 0339 0000 0000
000001c0: 0000 0000 0000 0000 0000 0000 0000 0000
000001d0: 0000 0000 0000 0000 0000 0000 0000 0000
000001e0: 0000 0000 0000 0000 0000 0000 0000 0000
000001f0: 0000 0000 0000 0000 0000 0000 0000 0000
00000200: 0000 0000 0000 0000 0000 0000 0000 0000
00000210: 22d3 453c 8acd fbbc a2eb 44ba 6db7 2cbb
00000220: 62f4 44bc 254a 093d cd4c 0cbd f702 f5bc
00000230: 0000 0000 b785 973c b741 00bd e401 d4bc
00000240: 0000 0000 bc3e 4930 0000 0000 0000 0000
00000250: 25be b5b7 040b 7538 0000 0000 fa51 692d
00000260: d16d 9037 0d30 66b8 b66c 6e38 b62c 5c38
00000270: 0000 0000 fa40 90ac 0dbd 6c38 6596 6d38
00000280: 0000 0000 732b 7933 0000 0000 0000 0000
00000290: 59b4 3bba bc1e bb3b 00c8 c8ba 8e0b ca3c
000002a0: 5f4c 8d3c b1d9 5d3c 1675 553b e214 77bc
000002b0: 0000 0000 fb25 bd3d e784 eabc fab8 37bd
000002c0: 0000 0000 0000 0000 0000 0000 0000 0000
000002d0: 0000 0000 0000 0000 0000 0000 0000 0000
000002e0: 0000 0000 0000 0000 0000 0000 0000 0000
000002f0: 0000 0000 0000 0000 0000 0000 0000 0000
00000300: 0000 0000 0000 0000 0000 0000 0000 0000
00000310: a2c5 fab9 8f7a af3a 5155 6cb9 b43d 1739
00000320: ea3a 9f39 6c22 acba 667c c73a decc c93a
00000330: 0000 0000 8f2e 45ba 956e be3a 0000 0000
00000340: 0000 0000 3a0a dc32 0000 0000 0000 0000
00000350: dd74 67b8 5389 c538 d1fc 232c c16c a339
00000360: 0ede ba39 08a1 c23b 5ee2 cdbb 3dc1 f4bb
00000370: 0000 0000 0052 963a d6ab 34bb 20e4 2fba
00000380: 0000 0000 0000 0000 0000 0000 0000 0000
00000390: 0000 0000 0000 0000 0000 0000 0000 0000
000003a0: 0000 0000 0000 0000 0000 0000 0000 0000
000003b0: 0000 0000 0000 0000 0000 0000 0000 0000
000003c0: 0000 0000 cda8 0a33 0000 0000 0000 0000
000003d0: bb89 623c 3869 f3bc 3278 89bb d323 093d
000003e0: b699 cb3c 8845 563d 9c6d a6bc 2b9f 5dbd
000003f0: 0000 0000 2c08 313e 74a5 b8bd e1fa 02be

exp_avg_sq f4 [16, 16]
0.0 0.0 0.0 0.0 0.0 0.0 0.0 0.0
0.0 0.0 0.0 0.0 0.0 0.0 0.0 0.0
0.0 4.9459913e-07 0.0 0.0 0.034607925 0.16772036 0.00050900434 0.0019260835
0.013649529 0.2078088 0.19170356 0.16429208 0.0 0.0421514 0.16695687 0.0993614
0.0 0.0 0.0 0.0 0.0 0.0 0.0 0.0
0.0 0.0 0.0 0.0 0.0 0.0 0.0 0.0
0.0 0.0 0.0 0.0 0.0 0.0 0.0 0.0
0.0 0.0 0.0 0.0 0.0 0.0 0.0 0.0
0.0 1.9202957e-08 0.0 0.0 7.563543e-06 4.0370876e-05 1.1572728e-09 1.0743028e-06
1.4183687e-05 4.6299585e-05 5.8307574e-05 3.378732e-05 0.0 5.5484397e-06 2.9480543e-05 2.80211e-05
0.0 0.0 0.0 0.0 0.0 0.0 0.0 0.0
0.0 0.0 0.0 0.0 0.0 0.0 0.0 0.0
0.0 0.0 0.0 0.0 3.906099e-10 2.5128633e-08 4.9673994e-09 5.3061053e-09
1.4847598e-08 1.9448928e-08 4.7988465e-08 2.8538174e-08 0.0 2.3419648e-08 2.298428e-08 0.0
0.0 0.0 0.0 0.0 0.0 0.0 0.0 0.0
0.0 0.0 0.0 0.0 0.0 0.0 0.0 0.0
0.0 0.0 0.0 0.0 0.0008534582 0.0039054486 2.632376e-05 3.5113433e-05
0.00030039114 0.005161365 0.004858458 0.004081261 0.0 0.001002215 0.0038287456 0.0009006176
0.0 2.5042737e-10 0.0 0.0 1.8527933e-08 9.606405e-08 0.0 3.262684e-11
7.8694235e-08 1.8541887e-07 2.7634852e-07 1.2887728e-07 0.0 1.9854804e-10 5.38544e-08 1.6410347e-08
0.0 2.3898622e-07 0.0 0.0 0.022116229 0.10865054 0.00034007672 0.0012634845
0.008523515 0.1330916 0.12407536 0.107404485 0.0 0.027565898 0.10885551 0.066263735
0.0 0.0 0.0 0.0 0.0 0.0 0.0 0.0
0.0 0.0 0.0 0.0 0.0 0.0 0.0 0.0
0.0 0.0 0.0 0.0 6.770605e-08 5.3180935e-07 7.83873e-09 1.5573494e-08
5.136797e-08 5.1374127e-07 7.310886e-07 6.628303e-07 0.0 1.1482294e-07 5.573611e-07 0.0
0.0 5.556546e-08 0.0 0.0 2.517901e-05 0.00013482585 1.1796428e-10 1.3602122e-06
0.000100435434 0.00023977595 0.00034736097 0.00016414093 0.0 3.7978807e-06 7.3710835e-05 1.086298e-05
0.0 0.0 0.0 0.0 0.0 0.0 0.0 0.0
0.0 0.0 0.0 0.0 0.0 0.0 0.0 0.0
0.0 1.0065052e-07 0.0 0.0 0.10736003 0.52757704 0.0018196895 0.006044102
0.04072361 0.6586425 0.62619275 0.5305 0.0 0.12541504 0.51696575 0.25508624
00000000: 0000 0000 0000 0000 0000 0000 0000 0000
00000010: 0000 0000 0000 0000 0000 0000 0000 0000
00000020: 0000 0000 0000 0000 0000 0000 0000 0000
00000030: 0000 0000 0000 0000 0000 0000 0000 0000
00000040: 0000 0000 98c4 0435 0000 0000 0000 0000
00000050: 0ac1 0d3d e3be 2b3e b46e 053a a374 fc3a
00000060: 46a2 5f3c d4cb 543e f04d 443e 2f3c 283e
00000070: 0000 0000 f2a6 2c3d bef6 2a3e fd7d cb3d
00000080: 0000 0000 0000 0000 0000 0000 0000 0000
00000090: 0000 0000 0000 0000 0000 0000 0000 0000
000000a0: 0000 0000 0000 0000 0000 0000 0000 0000
000000b0: 0000 0000 0000 0000 0000 0000 0000 0000
000000c0: 0000 0000 0000 0000 0000 0000 0000 0000
000000d0: 0000 0000 0000 0000 0000 0000 0000 0000
000000e0: 0000 0000 0000 0000 0000 0000 0000 0000
000000f0: 0000 0000 0000 0000 0000 0000 0000 0000
00000100: 0000 0000 c0f3 a432 0000 0000 0000 0000
00000110: 57ca fd36 e653 2938 eb0d 9f30 c330 9035
00000120: 79f6 6d37 cd31 4238 488f 7438 dcb6 0d38
00000130: 0000 0000 bc2c ba36 fc4c f737 db0e eb37
00000140: 0000 0000 0000 0000 0000 0000 0000 0000
00000150: 0000 0000 0000 0000 0000 0000 0000 0000
00000160: 0000 0000 0000 0000 0000 0000 0000 0000
00000170: 0000 0000 0000 0000 0000 0000 0000 0000
00000180: 0000 0000 0000 0000 0000 0000 0000 0000
00000190: 75bd d62f 73da d732 b5ad aa31 ff50 b631
000001a0: 6d14 7f32 a510 a732 e01b 4e33 1c24 f532
000001b0: 0000 0000 5a2c c932 f76e c532 0000 0000
000001c0: 0000 0000 0000 0000 0000 0000 0000 0000
000001d0: 0000 0000 0000 0000 0000 0000 0000 0000
000001e0: 0000 0000 0000 0000 0000 0000 0000 0000
000001f0: 0000 0000 0000 0000 0000 0000 0000 0000
00000200: 0000 0000 0000 0000 0000 0000 0000 0000
00000210: 9cba 5f3a 8ef2 7f3b d8d1 dc37 c346 1338
00000220: d17d 9d39 ab20 a93b b333 9f3b 19bc 853b
00000230: 0000 0000 c15c 833a b1eb 7a3b 6d17 6c3a
00000240: 0000 0000 85ac 892f 0000 0000 0000 0000
00000250: 5b27 9f32 c54b ce33 0000 0000 8e7e 0f2e
00000260: 9dfe a833 8d17 4734 0d5d 9434 8461 0a34
00000270: 0000 0000 4e4e 5a2f 8a4d 6733 bcf6 8c32
00000280: 0000 0000 044e 8034 0000 0000 0000 0000
00000290: 182d b53c 2d84 de3d 534c b239 819b a53a
000002a0: 37a6 0b3c 2a49 083e 391b fe3d e2f6 db3d
000002b0: 0000 0000 e1d1 e13c a3ef de3d 48b5 873d
000002c0: 0000 0000 0000 0000 0000 0000 0000 0000
000002d0: 0000 0000 0000 0000 0000 0000 0000 0000
000002e0: 0000 0000 0000 0000 0000 0000 0000 0000
000002f0: 0000 0000 0000 0000 0000 0000 0000 0000
00000300: 0000 0000 0000 0000 0000 0000 0000 0000
00000310: cb65 9133 a9c1 0e35 19ab 0632 7ac6 8532
00000320: ae9f 5c33 08e8 0935 0740 4435 5aed 3135
00000330: 0000 0000 9494 f633 909d 1535 0000 0000
00000340: 0000 0000 dfa6 6e33 0000 0000 0000 0000
00000350: 8337 d337 0a60 0d39 feb3 012f 8990 b635
00000360: dda0 d238 5e6c 7b39 001e b639 3f1d 2c39
00000370: 0000 0000 18df 7e36 3495 9a38 2540 3637
00000380: 0000 0000 0000 0000 0000 0000 0000 0000
00000390: 0000 0000 0000 0000 0000 0000 0000 0000
000003a0: 0000 0000 0000 0000 0000 0000 0000 0000
000003b0: 0000 0000 0000 0000 0000 0000 0000 0000
000003c0: 0000 0000 3525 d833 0000 0000 0000 0000
000003d0: 93df db3d 4a0f 073f a682 ee3a 9a0d c63b
000003e0: cdcd 263d cb9c 283f 2b4e 203f d9ce 073f
000003f0: 0000 0000 cd6c 003e de57 043f aa9a 823e

exp_avg f4 [2, 16, 16]
0.0 0.0 0.0 0.0 0.0 0.0 0.0 0.0
0.0 0.0 0.0 0.0 0.0 0.0 0.0 0.0
0.0 5.795098e-08 0.0 0.0 -0.013072167 0.03496843 0.0009933154 0.012021323
0.00580363 -0.022733778 0.022621697 0.02267313 0.0 0.0023925067 0.031443592 0.038371462
0.0 0.0 0.0 0.0 0.0 0.0 0.0 0.0
0.0 0.0 0.0 0.0 0.0 0.0 0.0 0.0
0.0 0.0 0.0 0.0 0.0 0.0 0.0 0.0
0.0 0.0 0.0 0.0 0.0 0.0 0.0 0.0
0.0 1.2063168e-09 0.0 0.0 -0.0014501668 0.00376684 5.7861347e-05 0.0006348734
0.0016734039 -0.0035617575 0.004025783 0.0032306975 0.0 -0.00022412991 0.003224184 0.0024882057
0.0 0.0 0.0 0.0 0.0 0.0 0.0 0.0
0.0 0.0 0.0 0.0 0.0 0.0 0.0 0.0
0.0 -1.1736817e-10 0.0 0.0 -6.898829e-06 1.7770857e-05 5.7384288e-08 4.8858664e-07
1.7291035e-05 -2.547404e-05 3.1612217e-05 2.0395215e-05 0.0 -5.0459073e-07 1.2526639e-05 -4.822472e-06
0.0 0.0 0.0 0.0 0.0 0.0 0.0 0.0
0.0 0.0 0.0 0.0 0.0 0.0 0.0 0.0
0.0 4.097756e-10 0.0 0.0 0.001063106 -0.0027129608 -5.0752074e-06 0.00030761212
-0.0020449748 0.0035675815 -0.0040464844 -0.0028105772 0.0 0.0010451662 -0.0020971992 -0.00037391047
0.0 1.7268895e-11 0.0 0.0 -2.2151089e-07 1.2340045e-06 -1.493667e-08 1.0815018e-06
-3.8551384e-06 2.6924854e-06 -4.251435e-06 -9.387906e-07 0.0 2.846651e-07 2.581746e-06 8.588375e-06
0.0 4.6033303e-08 0.0 0.0 -0.009960968 0.026579175 0.00073814765 0.009062203
0.0049835076 -0.017581042 0.017855657 0.017418556 0.0 0.0018703537 0.023654032 0.028136153
0.0 0.0 0.0 0.0 0.0 0.0 0.0 0.0
0.0 0.0 0.0 0.0 0.0 0.0 0.0 0.0
0.0 -7.5104714e-11 0.0 0.0 4.0387946e-05 -0.00010459246 -1.00302905e-05 -2.0377309e-05
-5.0357376e-05 7.361838e-05 -0.00011385499 -8.810203e-05 0.0 2.058715e-05 -8.601605e-05 -6.51623e-05
0.0 9.225282e-09 0.0 0.0 -0.0003694129 0.0014057921 0.00010869383 0.0010656742
-0.0025988491 0.0015800926 -0.0029613546 -0.00071183406 0.0 -4.950922e-05 0.0020292364 0.006267009
0.0 0.0 0.0 0.0 0.0 0.0 0.0 0.0
0.0 0.0 0.0 0.0 0.0 0.0 0.0 0.0
0.0 3.803171e-08 0.0 0.0 -0.019835537 0.051833186 0.0010205761 0.0127412835
0.020545844 -0.043785788 0.049212474 0.03972951 0.0 0.0005550682 0.0429246 0.036543187
00000000: 0000 0000 0000 0000 0000 0000 0000 0000
00000010: 0000 0000 0000 0000 0000 0000 0000 0000
00000020: 0000 0000 0000 0000 0000 0000 0000 0000
00000030: 0000 0000 0000 0000 0000 0000 0000 0000
00000040: 0000 0000 c7e5 7833 0000 0000 0000 0000
00000050: a42c 56bc 0e3b 0f3d 2232 823a 15f5 443c
00000060: 612c be3b 303c babc 2351 b93c 00bd b93c
00000070: 0000 0000 9acb 1c3b ffca 003d 652b 1d3d
00000080: 0000 0000 0000 0000 0000 0000 0000 0000
00000090: 0000 0000 0000 0000 0000 0000 0000 0000
000000a0: 0000 0000 0000 0000 0000 0000 0000 0000
000000b0: 0000 0000 0000 0000 0000 0000 0000 0000
000000c0: 0000 0000 0000 0000 0000 0000 0000 0000
000000d0: 0000 0000 0000 0000 0000 0000 0000 0000
000000e0: 0000 0000 0000 0000 0000 0000 0000 0000
000000f0: 0000 0000 0000 0000 0000 0000 0000 0000
00000100: 0000 0000 80cb a530 0000 0000 0000 0000
00000110: 8613 beba 17dd 763b 26b0 7238 a26d 263a
00000120: 1e56 db3a 606c 69bb b7ea 833b 1cba 533b
00000130: 0000 0000 6a04 6bb9 d54c 533b 2a11 233b
00000140: 0000 0000 0000 0000 0000 0000 0000 0000
00000150: 0000 0000 0000 0000 0000 0000 0000 0000
00000160: 0000 0000 0000 0000 0000 0000 0000 0000
00000170: 0000 0000 0000 0000 0000 0000 0000 0000
00000180: 0000 0000 340c 01af 0000 0000 0000 0000
00000190: 7d7c e7b6 a012 9537 b176 7633 6b27 0335
000001a0: 370c 9137 16b1 d5b7 5c97 0438 6416 ab37
000001b0: 0000 0000 3673 07b5 8129 5237 b8d0 a1b6
000001c0: 0000 0000 0000 0000 0000 0000 0000 0000
000001d0: 0000 0000 0000 0000 0000 0000 0000 0000
000001e0: 0000 0000 0000 0000 0000 0000 0000 0000
000001f0: 0000 0000 0000 0000 0000 0000 0000 0000
00000200: 0000 0000 ca46 e12f 0000 0000 0000 0000
00000210: eb57 8b3a eecb 31bb b34b aab6 0047 a139
00000220: fc04 06bb 16ce 693b 5f98 84bb a931 38bb
00000230: 0000 0000 f5fd 883a 2a71 09bb 6a09 c4b9
00000240: 0000 0000 18e6 972d 0000 0000 0000 0000
00000250: 73d8 6db4 12a0 a535 164e 80b2 1e28 9135
00000260: 635b 81b6 8cb0 3436 8ca7 8eb6 3301 7cb5
00000270: 0000 0000 13d4 9834 0f42 2d36 ca16 1037
00000280: 0000 0000 27b6 4533 0000 0000 0000 0000
00000290: 5433 23bc 92bc d93c 4080 413a a279 143c
000002a0: b14c a33b 1e06 90bc 0746 923c 5cb1 8e3c
000002b0: 0000 0000 a826 f53a 1ac6 c13c ca7d e63c
000002c0: 0000 0000 0000 0000 0000 0000 0000 0000
000002d0: 0000 0000 0000 0000 0000 0000 0000 0000
000002e0: 0000 0000 0000 0000 0000 0000 0000 0000
000002f0: 0000 0000 0000 0000 0000 0000 0000 0000
00000300: 0000 0000 3228 a5ae 0000 0000 0000 0000
00000310: 3a66 2938 a658 dbb8 c547 28b7 f0ef aab7
00000320: d236 53b8 9163 9a38 6fc5 eeb8 6bc3 b8b8
00000330: 0000 0000 91b2 ac37 8463 b4b8 bea7 88b8
00000340: 0000 0000 387d 1e32 0000 0000 0000 0000
00000350: c3ad c1b9 8e42 b83a 8ef2 e338 18ae 8b3a
00000360: 7451 2abb 1c1b cf3a 4913 42bb 609a 3aba
00000370: 0000 0000 1fa8 4fb8 f0fc 043b 7b5b cd3b
00000380: 0000 0000 0000 0000 0000 0000 0000 0000
00000390: 0000 0000 0000 0000 0000 0000 0000 0000
000003a0: 0000 0000 0000 0000 0000 0000 0000 0000
000003b0: 0000 0000 0000 0000 0000 0000 0000 0000
000003c0: 0000 0000 4f58 2333 0000 0000 0000 0000
000003d0: 237e a2bc 094f 543d dac4 853a d1c0 503c
000003e0: c24f a83c ba58 33bd 0593 493d 69bb 223d
000003f0: 0000 0000 ff81 113a b5d1 2f3d 4fae 153d

exp_avg_sq f4 [2, 16, 16]
0.0 0.0 0.0 0.0 0.0 0.0 0.0 0.0
0.0 0.0 0.0 0.0 0.0 0.0 0.0 0.0
0.0 2.3305677e-07 0.0 0.0 0.0005724422 0.0031373934 3.104581e-07 9.26001e-05
0.003020449 0.00596619 0.008790029 0.003674986 0.0 0.00010769697 0.0015510318 0.0009478783
0.0 0.0 0.0 0.0 0.0 0.0 0.0 0.0
0.0 0.0 0.0 0.0 0.0 0.0 0.0 0.0
0.0 0.0 0.0 0.0 0.0 0.0 0.0 0.0
0.0 0.0 0.0 0.0 0.0 0.0 0.0 0.0
0.0 2.2947738e-10 0.0 0.0 1.1006002e-06 6.8422482e-06 1.969421e-09 4.6036786e-07
5.5661444e-06 1.099433e-05 1.6688948e-05 7.3336055e-06 0.0 1.8843062e-07 3.631266e-06 1.7031713e-06
0.0 0.0 0.0 0.0 0.0 0.0 0.0 0.0
0.0 0.0 0.0 0.0 0.0 0.0 0.0 0.0
0.0 5.357086e-13 0.0 0.0 1.6213473e-09 9.820709e-09 1.38383e-12 2.635906e-10
9.730999e-09 1.8687397e-08 2.8912412e-08 1.2254644e-08 0.0 6.48332e-12 4.5373e-09 2.5231758e-10
0.0 0.0 0.0 0.0 0.0 0.0 0.0 0.0
0.0 0.0 0.0 0.0 0.0 0.0 0.0 0.0
0.0 1.0959017e-10 0.0 0.0 1.5833748e-06 7.121701e-06 2.097443e-08 1.2582755e-07
1.1748857e-06 1.0239902e-05 9.53488e-06 6.7742153e-06 0.0 1.727034e-06 6.436663e-06 1.5079854e-06
0.0 3.8698062e-13 0.0 0.0 7.9751885e-09 4.2834614e-08 3.2234506e-12 6.3478875e-11
4.2562693e-08 9.3974045e-08 1.3283673e-07 5.5325533e-08 0.0 6.370462e-11 1.9206032e-08 4.267065e-10
0.0 1.365945e-07 0.0 0.0 0.00033492464 0.0018528849 2.115847e-07 5.416016e-05
0.0018172398 0.0035266594 0.0052438644 0.0021821533 0.0 6.547885e-05 0.00090880186 0.00057637214
0.0 0.0 0.0 0.0 0.0 0.0 0.0 0.0
0.0 0.0 0.0 0.0 0.0 0.0 0.0 0.0
0.0 5.5680005e-13 0.0 0.0 7.739144e-10 4.760527e-09 1.784266e-11 1.2377802e-10
2.8903e-09 6.1889063e-09 9.949543e-09 4.817664e-09 0.0 8.9616606e-11 2.802374e-09 1.2819876e-09
0.0 4.7205178e-09 0.0 0.0 8.926827e-06 5.0105915e-05 3.2737464e-09 1.2006687e-06
4.8695e-05 9.820954e-05 0.00014678351 6.192509e-05 0.0 8.389226e-08 2.3531635e-05 4.500492e-06
0.0 0.0 0.0 0.0 0.0 0.0 0.0 0.0
0.0 0.0 0.0 0.0 0.0 0.0 0.0 0.0
0.0 1.2654573e-07 0.0 0.0 0.0004267769 0.0020942513 7.8411693e-07 6.155113e-05
0.0010294602 0.0031192938 0.003697733 0.0019406966 0.0 0.0002619643 0.0015157904 0.0012601286
00000000: 0000 0000 0000 0000 0000 0000 0000 0000
00000010: 0000 0000 0000 0000 0000 0000 0000 0000
00000020: 0000 0000 0000 0000 0000 0000 0000 0000
00000030: 0000 0000 0000 0000 0000 0000 0000 0000
00000040: 0000 0000 283e 7a34 0000 0000 0000 0000
00000050: f20f 163a ba9c 4d3b 09ad a634 4d32 c238
00000060: baf2 453b 0780 c33b 0e04 103c 09d8 703b
00000070: 0000 0000 5fdb e138 fe4b cb3a 097b 783a
00000080: 0000 0000 0000 0000 0000 0000 0000 0000
00000090: 0000 0000 0000 0000 0000 0000 0000 0000
000000a0: 0000 0000 0000 0000 0000 0000 0000 0000
000000b0: 0000 0000 0000 0000 0000 0000 0000 0000
000000c0: 0000 0000 0000 0000 0000 0000 0000 0000
000000d0: 0000 0000 0000 0000 0000 0000 0000 0000
000000e0: 0000 0000 0000 0000 0000 0000 0000 0000
000000f0: 0000 0000 0000 0000 0000 0000 0000 0000
00000100: 0000 0000 2450 7c2f 0000 0000 0000 0000
00000110: 56b8 9335 7796 e536 6c56 0731 7a28 f734
00000120: d1c4 ba36 4a74 3837 3eff 8b37 3113 f636
00000130: 0000 0000 6a53 4a34 adb0 7336 8598 e435
00000140: 0000 0000 0000 0000 0000 0000 0000 0000
00000150: 0000 0000 0000 0000 0000 0000 0000 0000
00000160: 0000 0000 0000 0000 0000 0000 0000 0000
00000170: 0000 0000 0000 0000 0000 0000 0000 0000
00000180: 0000 0000 dfc9 162b 0000 0000 0000 0000
00000190: 16d6 de30 efb7 2832 bbc1 c22b 14e9 902f
000001a0: 632d 2732 0586 a032 115b f832 7f88 5232
000001b0: 0000 0000 8e1c e42c 83e6 9b31 8bb6 8a2f
000001c0: 0000 0000 0000 0000 0000 0000 0000 0000
000001d0: 0000 0000 0000 0000 0000 0000 0000 0000
000001e0: 0000 0000 0000 0000 0000 0000 0000 0000
000001f0: 0000 0000 0000 0000 0000 0000 0000 0000
00000200: 0000 0000 c8fd f02e 0000 0000 0000 0000
00000210: 5884 d435 f2f6 ee36 422b b432 371b 0734
00000220: c4b0 9d35 0bcc 2b37 fff7 1f37 114e e336
00000230: 0000 0000 70cc e735 84fa d736 fc65 ca35
00000240: 0000 0000 c9d9 d92a 0000 0000 0000 0000
00000250: 4003 0932 28f9 3733 86d4 622c 6e97 8b2e
00000260: 2dce 3633 c7ce c933 e2a1 0e34 119f 6d33
00000270: 0000 0000 8316 8c2e 83fa a432 9a95 ea2f
00000280: 0000 0000 cfaa 1234 0000 0000 0000 0000
00000290: d398 af39 80dc f23a f62f 6334 072a 6338
000002a0: 7330 ee3a 871f 673b b9d4 ab3b 7502 0f3b
000002b0: 0000 0000 b151 8938 a93c 6e3a ae17 173a
000002c0: 0000 0000 0000 0000 0000 0000 0000 0000
000002d0: 0000 0000 0000 0000 0000 0000 0000 0000
000002e0: 0000 0000 0000 0000 0000 0000 0000 0000
000002f0: 0000 0000 0000 0000 0000 0000 0000 0000
00000300: 0000 0000 acb9 1c2b 0000 0000 0000 0000
00000310: 62bb 5430 0a92 a331 19f2 9c2d 6a18 082f
00000320: b29e 4631 32a6 d431 8eee 2a32 9f88 a531
00000330: 0000 0000 aa11 c52e e393 4031 ee31 b030
00000340: 0000 0000 1d32 a231 0000 0000 0000 0000
00000350: 6ec4 1537 d128 5238 5bf8 6031 aa26 a135
00000360: dc3d 4c38 d8f5 cd38 e6e9 1939 c8dd 8138
00000370: 0000 0000 4228 b433 cd65 c537 ef02 9736
00000380: 0000 0000 0000 0000 0000 0000 0000 0000
00000390: 0000 0000 0000 0000 0000 0000 0000 0000
000003a0: 0000 0000 0000 0000 0000 0000 0000 0000
000003b0: 0000 0000 0000 0000 0000 0000 0000 0000
000003c0: 0000 0000 a0e0 0734 0000 0000 0000 0000
000003d0: 07c1 df39 b53f 093b 1b7c 5235 0315 8138
000003e0: f4ee 863a 116d 4c3b aa55 723b f95e fe3a
000003f0: 0000 0000 4158 8939 7cad c63a e62a a53a
