results/Test_citation/version_50/checkpoints/epoch=9-step=10.ckpt (torch, 21137 bytes, 27 tensors)

simplicial_nn.0.W0 f4 [1, 16]
0	0x3ebc9325	0.36831012
1	0x3f2f42b2	0.68461144
2	0x3f16b775	0.58873683
3	0xbe2803f4	-0.16407758
4	0xbe9ed43a	-0.3102129
5	0x3f4fdf72	0.81200325
6	0xbe363905	-0.17795189
7	0x3e03fcc6	0.12889394
8	0xbe95ed76	-0.2928273
9	0x3f16521c	0.5871904
10	0x3ec5f129	0.38660553
11	0x3f04da5e	0.518957
12	0xbf4db3c4	-0.80352426
13	0x3efbb824	0.49163926
14	0xbf04e15e	-0.51906383
15	0xbe36bd34	-0.17845613

simplicial_nn.0.W1 f4 [1, 16]
0	0x3f06d7e3	0.52673167
1	0xbf29437e	-0.6611861
2	0x3ec7549a	0.38931733
3	0x3f1b8f9b	0.60766
4	0x3e6a6a34	0.22892076
5	0x3ec96bc2	0.39340025
6	0x3f12a793	0.5728695
7	0x3ed6b6a2	0.41936213
8	0x3f14cccd	0.58125
9	0x3e99137e	0.29897684
10	0x3f4e3d3b	0.8056218
11	0xbedfa57a	-0.43680936
12	0x3e8abbc6	0.27096385
13	0xbdf9f898	-0.122056186
14	0xbf333f1b	-0.70018166
15	0x3ef4ff72	0.4785114

simplicial_nn.0.W2 f4 [1, 16]
0	0xbce8b7ef	-0.028408019
1	0x3f4fe150	0.81203175
2	0x3e8a42c4	0.27004063
3	0x3ee6d122	0.4508143
4	0xbeba29c4	-0.3635999
5	0xbdfc0b67	-0.12306862
6	0xbf2268d9	-0.63441235
7	0xbf4aa005	-0.7915042
8	0x3ed9c69e	0.42534345
9	0x3f504773	0.8135902
10	0x3f040dc7	0.5158352
11	0x3f03be71	0.51462466
12	0x3f20149b	0.6253144
13	0xbf340212	-0.7031566
14	0xbf35e819	-0.7105728
15	0xbec03ab2	-0.3754478

simplicial_nn.2.W0 f4 [16, 16]
0	0xbed715d4	-0.4200884
1	0xbee1b2a5	-0.44081607
2	0xbe31b705	-0.17354973
3	0xbddf4a33	-0.10902824
4	0x3e2dc9b9	0.16971482
5	0x3e0bae01	0.13640596
6	0xbdd5ede4	-0.10445765
7	0xbdd9e909	-0.10640151
8	0x3f0579e3	0.5213911
9	0xbea97f9e	-0.33105177
10	0xbeca43dc	-0.39504898
11	0x3dda1262	0.106480375
12	0xbdb62e32	-0.0889553
13	0x3ddaa6cc	0.10676345
14	0x3f0cb39f	0.5496158
15	0x3ec39e50	0.3820672
16	0x3eab0666	0.3340332
17	0xbe13dabe	-0.14438912
18	0x3ee00977	0.4375722
19	0xbea87353	-0.32900485
20	0x3cf1963a	0.029490579
21	0x3dbc5840	0.0919652
22	0xbf0eca14	-0.55777097
23	0xbe43ac90	-0.19108796
24	0xbd1b3cf3	-0.037899923
25	0x3e4d1c5a	0.20030347
26	0x3f1392eb	0.57646054
27	0x3f15f984	0.58583856
28	0xbe5a9211	-0.21344782
29	0xbf147069	-0.57984024
30	0xbee20236	-0.44142312
31	0xbebb7906	-0.3661577
32	0xbe11b5d4	-0.14229518
33	0x3f10e5ef	0.5660085
34	0xbd9614f8	-0.07328218
35	0x3ec54aa2	0.38533503
36	0xbed6e9ba	-0.41975194
37	0xbe8bc1c2	-0.27296263
38	0x3ec4a43c	0.3840655
39	0x3d1dd457	0.03853258
40	0xbe75ebb0	-0.24015689
41	0x3ebc9eb6	0.36839837
42	0xbed1e5b6	-0.40995568
43	0xbe8410b9	-0.25794008
44	0xbe43e225	-0.19129236
45	0x3d73e5fa	0.059545495
46	0x3e2a13d4	0.16609126
47	0xbe1a6c65	-0.15080412
48	0xbf1432b6	-0.5788988
49	0xbebe8388	-0.37209725
50	0xbecdfe74	-0.40233195
51	0x3f0e7429	0.55645996
52	0xbd7c7d80	-0.061643124
53	0x3de20540	0.110361576
54	0xbe553cee	-0.20824024
55	0x3f06d079	0.52661854
56	0xbe280222	-0.16407064
57	0x3dede848	0.1161657
58	0x3d716020	0.058929563
59	0xbe88c66a	-0.26713878
60	0x3ecd4eaa	0.40099078
61	0x3cae7d00	0.021299839
62	0x3eb13502	0.34610754
63	0x3e8aa04e	0.27075428
64	0x3ea68a9d	0.3252763
65	0xbd8e306f	-0.06942832
66	0xbf135ce0	-0.5756359
67	0xbc2ab241	-0.010418476
68	0x3db58ea6	0.08865099
69	0xbc1bd831	-0.009511993
70	0xbe65233c	-0.22376722
71	0x3e1c6f35	0.15276797
72	0x3c7afe00	0.015319347
73	0x3f18182b	0.5941188
74	0xbef37358	-0.47548938
75	0xbe3dff6c	-0.18554467
76	0xbf10b2e6	-0.5652298
77	0x3f13a2e4	0.57670426
78	0x3ec725b2	0.38895947
79	0xbe7eedd6	-0.24895415
80	0x3ea5b4c2	0.3236447
81	0xbdda8e1a	-0.10671635
82	0x3e455629	0.19271149
83	0x3f11cc59	0.56952435
84	0x3dbb4023	0.091430925
85	0x3f1cf553	0.61311835
86	0xbd549164	-0.051896468
87	0x3e1bf238	0.15229118
88	0xbc86ae38	-0.016440496
89	0xbec762a1	-0.38942435
90	0xbeed3dd9	-0.4633625
91	0xbe178593	-0.14797048
92	0xbd9a27c8	-0.07527119
93	0xbdb951e1	-0.0904882
94	0xbeb66b66	-0.35628814
95	0x3e4d27a8	0.20034659
96	0x3eaed5d2	0.34147507
97	0x3ee49a89	0.4464915
98	0xbe5ce5de	-0.21572062
99	0xbeb6d8ee	-0.3571238
100	0x3f02afe5	0.51049644
101	0xbf0844dc	-0.5323007
102	0x3e9003b9	0.2812784
103	0x3e55cbcf	0.20878528
104	0x3e545148	0.20734131
105	0x3f144795	0.57921726
106	0xbdee0750	-0.116224885
107	0x3da34272	0.07971658
108	0xbeec89d9	-0.4619892
109	0x3f0d6609	0.5523382
110	0xbea5a2b7	-0.32350704
111	0x3e746890	0.23868012
112	0x3f051c19	0.51996
113	0x3f0e711f	0.5564136
114	0x3e58ec34	0.21183854
115	0xbefbefff	-0.4920654
116	0x3e67e201	0.22644807
117	0x3e5bf625	0.21480615
118	0xbec6127d	-0.3868598
119	0x3e8abb68	0.27096105
120	0xbdd0d6b3	-0.101972006
121	0xbea9beb4	-0.33153307
122	0x3ddf6430	0.10907781
123	0x3ebee606	0.3728487
124	0x3f0bb324	0.5457022
125	0x3d5cc7a6	0.053901337
126	0xbeec69b0	-0.46174383
127	0xbeebd75a	-0.46062738
128	0x3ee3b0ca	0.44470817
129	0xbee6836a	-0.45022136
130	0xbe00a80e	-0.12564108
131	0xbde22760	-0.110426664
132	0xbdbafa78	-0.091298044
133	0x3ecd71fe	0.40126032
134	0x3e329a94	0.1744178
135	0xbe325f72	-0.17419222
136	0xbf13a5d8	-0.5767493
137	0x3eade322	0.3396235
138	0xbea9e5fc	-0.33183277
139	0xbe87d9a8	-0.26533246
140	0xbcb0b340	-0.021569848
141	0x3e9b87a8	0.30376935
142	0xbe19a826	-0.1500555
143	0xbdd36f28	-0.10323936
144	0xbed9e40d	-0.425568
145	0x3ef28b65	0.47371975
146	0xbebb1e21	-0.36546424
147	0xbe69d0eb	-0.22833602
148	0x3f1bec24	0.60907197
149	0xbef70cbb	-0.482519
150	0xbedaf2e0	-0.42763424
151	0x3e975df3	0.29563865
152	0x3f12d5a2	0.5735723
153	0x3ef42d70	0.47690916
154	0x3f1a17a5	0.6019233
155	0xbe357eb1	-0.1772411
156	0xbed86993	-0.42268047
157	0x3e1e02b8	0.15430725
158	0xbd89a538	-0.06720966
159	0x3f03e481	0.51520544
160	0x3e53d9dc	0.20688576
161	0xbe030113	-0.12793379
162	0xbf12a2ee	-0.5727986
163	0x3ecac764	0.39605248
164	0xbf087a59	-0.5331169
165	0xbe59eb79	-0.21281232
166	0x3e4aa27c	0.19788545
167	0x3ee3510f	0.4439778
168	0x3e12e494	0.14345008
169	0xbe52ab5e	-0.20573184
170	0xbe89b8f6	-0.26898926
171	0x3ed9616e	0.42457145
172	0xbf0f6a1b	-0.5602128
173	0xbf08bffa	-0.53417933
174	0xbe4521ba	-0.19251147
175	0xbd87d90b	-0.066331945
176	0xbeb45690	-0.35222292
177	0x3eafac3a	0.34311086
178	0xbeac6c4a	-0.33676368
179	0x3ebbb8cd	0.3666443
180	0x3e9df91d	0.3085412
181	0xbd9bd983	-0.076098464
182	0xbeb0d968	-0.34540868
183	0x3d1ed9ff	0.038782116
184	0x3df15f9c	0.11785814
185	0x3f098b42	0.53728116
186	0xbd3c0b60	-0.045909286
187	0x3d665c78	0.05624053
188	0x3e43c131	0.19116665
189	0x3e4d9f88	0.20080388
190	0x3ea9baca	0.3315032
191	0xbc8dde74	-0.017317988
192	0xbe64ecb6	-0.22355923
193	0x3ec52a1a	0.38508683
194	0xbf1b0186	-0.605492
195	0x3dd61978	0.104540765
196	0xbde679ac	-0.11253676
197	0xbefd53e1	-0.49478057
198	0x3db42e10	0.08797848
199	0x3c454700	0.0120408535
200	0x3ee9bdc2	0.45652586
201	0x3d7b0480	0.06128359
202	0x3e52f0d4	0.20599681
203	0x3ebd76b8	0.37004638
204	0xbf1be6c1	-0.6089898
205	0x3ee84e4a	0.4537223
206	0x3d92cba8	0.071677506
207	0xbe5a17aa	-0.2129809
208	0xbf0e0436	-0.55475175
209	0xbebbc162	-0.36670977
210	0x3e87286f	0.26398036
211	0x3f1768b5	0.59144145
212	0xbe9cba3e	-0.30610842
213	0xbc473088	-0.012157567
214	0xbbc50979	-0.006013092
215	0x3ede6bd1	0.43441632
216	0xbf173a40	-0.5907326
217	0xbe481230	-0.19538188
218	0xbe88a2a6	-0.2668659
219	0xbe16cd8e	-0.1472685
220	0x3edeb58b	0.4349788
221	0xbe41b055	-0.18914922
222	0x3c8e8680	0.017398119
223	0xbe92a96c	-0.28644884
224	0xbec4bbf0	-0.38424635
225	0xbedfbda3	-0.4369937
226	0xbc9d91c8	-0.019234553
227	0x3dba296c	0.09089932
228	0xbea30cad	-0.31845608
229	0xbf083c3f	-0.5321693
230	0x3ddcd657	0.107830696
231	0xbd162741	-0.03665853
232	0x3e95387c	0.29144657
233	0xbf0b5b42	-0.54436123
234	0x3f0954c5	0.53644973
235	0xbdb0fb44	-0.08641675
236	0xbec938d2	-0.39301163
237	0xbe87cc13	-0.26522884
238	0xbec049c8	-0.3755629
239	0xbf098606	-0.5372013
240	0xbd4c20ea	-0.049836077
241	0xbf16710c	-0.58766246
242	0xbec69b17	-0.387902
243	0xbe5a559c	-0.2132172
244	0xbf1bb530	-0.60823345
245	0x3e8fb278	0.28065848
246	0x3e82358e	0.25431484
247	0x3ea4ec8e	0.32211727
248	0xbeb1fb33	-0.34761962
249	0xbd40bf50	-0.04705745
250	0x3eaa69de	0.33283895
251	0x3d2d3613	0.042287897
252	0xbf0b9b15	-0.5453351
253	0xbf12f791	-0.57409006
254	0xbe90e8f1	-0.2830272
255	0x3f0e8b27	0.5568108

simplicial_nn.2.W1 f4 [16, 16]
0	0x3eec6d36	0.4617707
1	0xbf03d25c	-0.5149286
2	0x3eb6b034	0.35681307
3	0x3ef03016	0.46911687
4	0xbe7ea90e	-0.24869177
5	0xbee9bca8	-0.45651746
6	0xbf1a881a	-0.60363925
7	0xbefaa628	-0.48954892
8	0xbe9e67f0	-0.30938673
9	0xbf00da7e	-0.5033339
10	0x3e17e910	0.14835
11	0x3f18eeb1	0.59739214
12	0xbe6899b8	-0.22714889
13	0xbeaad43a	-0.3336504
14	0xbeb09120	-0.34485722
15	0x3e995f44	0.29955494
16	0x3ebf27b8	0.3733499
17	0xbe1bb004	-0.15203863
18	0xbe7c6236	-0.2464684
19	0xbe4c4bf4	-0.19950849
20	0x3ea10cf6	0.314552
21	0x3e8a4864	0.27008355
22	0xbe83af31	-0.25719598
23	0x3f1cc31b	0.6123521
24	0xbdf6a348	-0.12042862
25	0xbe4155fe	-0.1888046
26	0xbde2e078	-0.1107797
27	0x3d27a070	0.04092449
28	0xbe712184	-0.23547941
29	0x3d374ce0	0.044751048
30	0xbf0eba6a	-0.55753195
31	0x3eacbc0e	0.33737224
32	0xbd02f760	-0.031974196
33	0x3e1329c8	0.14371407
34	0x3e747294	0.23871833
35	0xbf16faee	-0.5897664
36	0xbf064d6b	-0.5246188
37	0x3e7f559c	0.24935001
38	0xbe8eee76	-0.27916306
39	0xbe4f7be2	-0.20262101
40	0xbeee0a72	-0.46492344
41	0xbf0b652b	-0.54451245
42	0x3f079891	0.5296717
43	0xbe702b9c	-0.23454136
44	0x3ef8164a	0.48454505
45	0x3d47add0	0.048749745
46	0x3efb7176	0.4911
47	0xbdbbf580	-0.09177685
48	0xbd922150	-0.0713526
49	0xbed6e9f4	-0.41975367
50	0x3c09ca00	0.008409977
51	0x3e435d08	0.19078457
52	0xbed0d338	-0.40786147
53	0xbe873aeb	-0.26412138
54	0xbeb97e1b	-0.36229023
55	0x3e5a7428	0.21333373
56	0xbd9c2b30	-0.07625425
57	0x3ed71862	0.4201079
58	0xbf0dce52	-0.55392945
59	0xbe96c6bf	-0.29448506
60	0xbe984d5a	-0.29746515
61	0x3e88dac6	0.2672941
62	0xbeb1f9d7	-0.34760925
63	0xbea8381c	-0.32855308
64	0xbeef0796	-0.46685475
65	0x3db046b0	0.086072326
66	0xbee5beca	-0.44872123
67	0xbe8e8bb9	-0.27840975
68	0xbee4ffd0	-0.4472642
69	0x3e9e3a46	0.30903834
70	0x3e21d7e4	0.15805012
71	0x3d524020	0.051330686
72	0x3ed8e23a	0.42360097
73	0xbe73159e	-0.23738715
74	0x3ef29b8a	0.47384292
75	0xbf038433	-0.51373595
76	0xbf10a638	-0.5650363
77	0xbe96ca24	-0.29451096
78	0xbd765d70	-0.060147703
79	0xbefbb5c6	-0.4916212
80	0xbeec7e5b	-0.46190152
81	0xbebfe296	-0.3747756
82	0xbe1404ba	-0.14454928
83	0xbe30d402	-0.17268375
84	0xbe5d4052	-0.21606568
85	0x3d8c3048	0.068451464
86	0xbe7340e2	-0.2375522
87	0xbf126c6b	-0.5719668
88	0x3e5bb57c	0.2145595
89	0xbe8e00da	-0.27735025
90	0xbe7e1b1e	-0.24815032
91	0x3da486c0	0.08033514
92	0x3ed883f6	0.42288178
93	0xbe73b712	-0.23800305
94	0xbeff961a	-0.49919206
95	0x3f0a0fb7	0.5393023
96	0x3e246ec8	0.16057885
97	0xbc12b040	-0.008953154
98	0xbe7c11c4	-0.24616152
99	0x3f00dc23	0.503359
100	0xbd2658d0	-0.040612042
101	0xbe8a2865	-0.26983944
102	0x3eeaca6e	0.45857567
103	0x3d71cca0	0.059033036
104	0xba88ca00	-0.0010436177
105	0x3d98d180	0.07461834
106	0xbf08d2f6	-0.534469
107	0xbe825cf3	-0.2546154
108	0x3ef2e26a	0.47438365
109	0x3f0918eb	0.53553647
110	0x3c1c2c00	0.009531975
111	0xbed59b06	-0.41719836
112	0x3e2b0ac0	0.1670332
113	0xbe23be3c	-0.15990537
114	0xbe5f9868	-0.21835482
115	0x3d8693d8	0.06571168
116	0xbeb8b1a4	-0.3607303
117	0xbd45efb0	-0.048324287
118	0xbe5f25ea	-0.21791807
119	0x3d12ba50	0.035822213
120	0x3e3354c4	0.17512804
121	0xbf19de3f	-0.60104746
122	0x3eae400a	0.34033233
123	0x3e1a8414	0.15089446
124	0xbf070d47	-0.52754635
125	0xbe8a925f	-0.27064797
126	0xbf0be6c0	-0.5464897
127	0xbea9a541	-0.3313389
128	0x3e80e9b8	0.25178313
129	0xbf065b84	-0.5248339
130	0x3d8ce5b0	0.06879747
131	0xbe52d750	-0.20589948
132	0x3e8de04a	0.2771018
133	0x3f125ac7	0.57169765
134	0x3e19d0a8	0.15021002
135	0x3eb95d2e	0.36203903
136	0xbde81078	-0.11331266
137	0xbe7f507c	-0.24933046
138	0xbeceaa10	-0.40364122
139	0xbeace88a	-0.33771163
140	0xbf1715f7	-0.5901789
141	0x3d1ad820	0.03780377
142	0xbe755aee	-0.23960468
143	0x3f0a8be5	0.5411971
144	0xbedaba62	-0.42720324
145	0x3f1ca54f	0.6118974
146	0x3d8437b0	0.06455934
147	0x3f044de5	0.5168136
148	0xbea79992	-0.32734352
149	0x3e499634	0.19686204
150	0xbf0a023c	-0.5390966
151	0x3e2f786c	0.17135781
152	0xbe2169dc	-0.15763038
153	0xbe177724	-0.14791542
154	0x3f09d503	0.53840655
155	0x3e0b0130	0.13574672
156	0x3ee9f936	0.45697945
157	0xbe065ac8	-0.13120568
158	0xbe3391ce	-0.17536089
159	0x3e6cc058	0.23120248
160	0x3d3c38a0	0.04595244
161	0xbef95a80	-0.4870186
162	0x3ed905d6	0.42387265
163	0x3e4bb9e0	0.19895124
164	0xbeafc66c	-0.3433107
165	0xbeba6320	-0.3640375
166	0xbe4fb1de	-0.20282695
167	0xbf0a85b2	-0.5411025
168	0xbe8aed6a	-0.27134258
169	0xbe80d66b	-0.25163588
170	0xbe821a87	-0.25410864
171	0x3c36bc40	0.011153281
172	0xbe021670	-0.12703872
173	0xbe70ce6c	-0.23516244
174	0xbec002f4	-0.37502253
175	0xbeee7334	-0.46572268
176	0x3d64b170	0.05583328
177	0x3eb6424e	0.3559746
178	0x3e9420c0	0.28931236
179	0x3dc90a50	0.0981642
180	0xbb747b00	-0.003730476
181	0x3d5d90c0	0.054093122
182	0xbedfd79a	-0.43719178
183	0xbe806fa5	-0.25085178
184	0xbd7a1020	-0.061050534
185	0xbf138cab	-0.5763652
186	0xbed2516c	-0.41077745
187	0xbeb35c52	-0.35031372
188	0x3ed05f9e	0.4069795
189	0x3e1a4904	0.15066916
190	0x3eb95d24	0.36203873
191	0xbe6e80d8	-0.23291337
192	0x3cdb3920	0.026760638
193	0xbd82c458	-0.06385106
194	0xbd64cdc0	-0.05586028
195	0x3e69a47c	0.22816652
196	0xbf1680f9	-0.58790547
197	0x3f0e6829	0.55627686
198	0xbd8168c8	-0.063188136
199	0xbedde0e0	-0.43335629
200	0x3ef4deb2	0.47826153
201	0xbeb67867	-0.35638735
202	0xbca5d000	-0.020240784
203	0x3c994380	0.018708944
204	0x3e2d2344	0.16907984
205	0x3ed888f2	0.4229198
206	0x3f0876c9	0.5330625
207	0x3e23d7b0	0.16000247
208	0x3dabcd48	0.08388764
209	0x3e09f5a0	0.13472605
210	0xbd985400	-0.07437897
211	0x3f016c91	0.50556284
212	0xbed2e1fb	-0.41188034
213	0x3eea429e	0.4575395
214	0xbed1f146	-0.4100439
215	0xbe58db60	-0.21177435
216	0xbeba2cf3	-0.3636242
217	0xbe1555dc	-0.14583534
218	0xbe40dd6e	-0.18834469
219	0xbeb6f176	-0.35731095
220	0x3ee8c7d2	0.4546495
221	0x3d425770	0.04744667
222	0xbf1c9be9	-0.611754
223	0xbe9e1ee4	-0.30882943
224	0x3ed5ed1e	0.4178247
225	0xbe84b879	-0.2592199
226	0xbf0c90b6	-0.5490831
227	0xbe91d6e5	-0.28484264
228	0x3e1fafdc	0.15594429
229	0xbec846fb	-0.39116654
230	0xbeed04a8	-0.46292615
231	0xbddc40c8	-0.107545435
232	0xbe07c9f4	-0.13260633
233	0xbf01f4cb	-0.5076415
234	0xbe089cc4	-0.13341051
235	0x3f056e37	0.521213
236	0xbe325b0c	-0.17417544
237	0x3e3af5d8	0.18257844
238	0xbe6557a2	-0.2239671
239	0x3c147480	0.009060979
240	0xbebe960c	-0.37223852
241	0x3ef22436	0.47293252
242	0x3e4cddb8	0.20006454
243	0xbec087e4	-0.37603676
244	0x3db3ac70	0.08773124
245	0x3c10bf80	0.00883472
246	0xbf15bad1	-0.58488184
247	0x3f119915	0.5687421
248	0x3e2e30ec	0.1701085
249	0x3f0d4ea7	0.5519814
250	0x3f11b86d	0.56922036
251	0x3ee2f642	0.44328505
252	0x3e23ca5c	0.15995163
253	0x3d3b0590	0.0456596
254	0x3e5b3f88	0.21410954
255	0x3f1c972b	0.61168164

simplicial_nn.2.W2 f4 [16, 16]
0	0xbe64fc0f	-0.22361778
1	0x3ec86baf	0.39144656
2	0x3dfa27a6	0.122145936
3	0x3edb532f	0.42836902
4	0xbe7dec65	-0.24797209
5	0xbdc5b01d	-0.096527316
6	0xbee9fd06	-0.45700854
7	0x3da9ce47	0.082912974
8	0x3f00d537	0.5032534
9	0xbe10fdf4	-0.14159375
10	0x3f0d211f	0.55128664
11	0xbed15a8f	-0.40889403
12	0xbe8acd85	-0.27109924
13	0xbed5abb4	-0.41732562
14	0xbed23d10	-0.41062212
15	0xbf17b8bf	-0.59266275
16	0x3e78722c	0.24262303
17	0xbe98a7c7	-0.29815504
18	0xbf193bbe	-0.59856784
19	0xbf07e55a	-0.5308434
20	0x3eb895f3	0.36051902
21	0xbef6ddd9	-0.4821613
22	0x3e9d6eae	0.30748504
23	0x3e982610	0.2971654
24	0x3ecfd1b3	0.40589675
25	0xbd345050	-0.044021904
26	0x3eb14456	0.3462245
27	0x3c09fabe	0.008421598
28	0xbe2578aa	-0.16159311
29	0xbf1d9fde	-0.6157206
30	0x3d424320	0.047427297
31	0xbd93b9dc	-0.07213184
32	0xbf159b48	-0.58440065
33	0xbaafc546	-0.0013410232
34	0xbef45d81	-0.47727588
35	0x3e0c9473	0.13728504
36	0xbbd97b92	-0.006637045
37	0x3e3df327	0.18549787
38	0xbed272cf	-0.41103217
39	0xbef5cd55	-0.48008218
40	0x3ea14e6c	0.31505144
41	0xbe7348f2	-0.23758295
42	0xbeb6debf	-0.35716817
43	0x3d5911d6	0.052995525
44	0xbe47c48f	-0.19508575
45	0xbe06ef3f	-0.13177203
46	0x3b681200	0.003541112
47	0x3ea6e0cc	0.3259338
48	0x3ddb3750	0.107039094
49	0x3df92f18	0.121671855
50	0xbef8445e	-0.4848966
51	0x3e99c502	0.30033118
52	0xbeffe81d	-0.49981776
53	0xbed9c01a	-0.42529374
54	0xbe640a3c	-0.22269529
55	0x3e1acf64	0.15118176
56	0x3e27ddc4	0.1639319
57	0xbdf98364	-0.12183264
58	0xbe527358	-0.20551813
59	0xbf09fa64	-0.5389769
60	0x3f0787b5	0.5294145
61	0x3eafd02a	0.34338504
62	0xbeebd552	-0.46061188
63	0x3f056811	0.5211192
64	0x3ed35a0a	0.41279632
65	0xbcb2d87b	-0.021831742
66	0x3eca0557	0.394572
67	0x3eeecaa0	0.46638966
68	0xbe189297	-0.1489967
69	0xbf1971b3	-0.59939116
70	0x3f0eabc3	0.5573084
71	0x3e5354f2	0.20637873
72	0x3de7dc7a	0.113213494
73	0x3d10a13f	0.035310026
74	0xbe016afe	-0.1263847
75	0xbe92508c	-0.28577077
76	0x3efb7317	0.49111244
77	0x3f0eef93	0.5583431
78	0xbd2899b0	-0.041162193
79	0xbf091619	-0.53549343
80	0xbda580ff	-0.08081245
81	0x3deb7728	0.114973366
82	0xbf08acb2	-0.5338851
83	0xbedaaedd	-0.42711535
84	0x3de1d63a	0.110271886
85	0x3e6f18ed	0.23349352
86	0xbf166a7e	-0.58756244
87	0x3e84d82d	0.2594618
88	0xbdc83ed3	-0.09777608
89	0x3e095697	0.13411938
90	0xbf040a7a	-0.51578486
91	0xbe1cf913	-0.1532939
92	0xbe8099f6	-0.25117463
93	0x3e87ce25	0.26524463
94	0xbeb39ea3	-0.35081968
95	0x3dc8a5d3	0.097972535
96	0x3e3d4451	0.18483092
97	0x3e3ed0c6	0.18634328
98	0xbd5eabd1	-0.054363076
99	0xbf018edb	-0.50608605
100	0xbe9581e5	-0.29200664
101	0x3f156883	0.583626
102	0x3d5702f3	0.052493047
103	0x3f179f23	0.592272
104	0xbd5297ac	-0.051414177
105	0xbe48d0ff	-0.19610976
106	0x3d1cd260	0.038286567
107	0x3e890d5f	0.26768014
108	0x3f17cecc	0.5929992
109	0x3f131e58	0.57468176
110	0xbedfdf28	-0.43724942
111	0x3efaf9b8	0.49018645
112	0x3d913c1d	0.07091544
113	0x3f00bc74	0.50287557
114	0x3d4fc33a	0.050723292
115	0xbf0fca32	-0.561679
116	0xbeb9df9f	-0.36303422
117	0x3ee99f9f	0.45629594
118	0xbf0f2157	-0.5591025
119	0x3efffd1a	0.4999779
120	0x3f0d8849	0.5528608
121	0x3e65fd08	0.22459805
122	0x3f001163	0.5002653
123	0x3e596452	0.21229675
124	0x3ebb4c47	0.36581632
125	0xbf17af84	-0.5925219
126	0x3d9eee88	0.0776034
127	0x3ecf3ded	0.40476933
128	0xbe8a7c71	-0.27048066
129	0xbd7e6490	-0.062107623
130	0x3e0aa508	0.13539517
131	0x3ef4864e	0.47758716
132	0x3e1b56fc	0.151699
133	0x3d013400	0.03154373
134	0x3e52ba48	0.20578873
135	0x3ecf70c6	0.40515727
136	0xbf0c2609	-0.5474554
137	0xbed5ad39	-0.4173372
138	0xbf10131d	-0.56279165
139	0xbf0b9f21	-0.54539686
140	0xbe3eb746	-0.18624601
141	0x3ef4092e	0.47663254
142	0xbd0da080	-0.034576893
143	0x3e58cf90	0.21172929
144	0xbee08cf0	-0.43857527
145	0xbdf8e360	-0.12152743
146	0x3e683402	0.2267609
147	0x3eb55bb3	0.35421523
148	0xbef4a769	-0.47783974
149	0x3f14fc55	0.5819753
150	0x3f06006d	0.523444
151	0x3e9c6e3b	0.3055285
152	0x3d1e6e2b	0.038679283
153	0x3e2a7d6b	0.16649406
154	0xbcd24ce0	-0.025671422
155	0xbe23b01b	-0.15985148
156	0x3ebdf999	0.3710449
157	0x3f168199	0.587915
158	0xbed865f3	-0.4226528
159	0x3ee3c8ff	0.44489285
160	0x3ecc4b15	0.39901033
161	0xbeabbb50	-0.33541346
162	0x3e75b557	0.23994957
163	0xbd83d9e0	-0.06438041
164	0xbed8489d	-0.422429
165	0xbe73fc12	-0.23826626
166	0xbefcac9c	-0.4935044
167	0x3f1893bf	0.5960044
168	0xbd1ffe2a	-0.03906075
169	0x3f02d255	0.5110219
170	0xbe981ecd	-0.29711
171	0x3d63b766	0.055594824
172	0xbe975d4b	-0.29563364
173	0xbe1b040e	-0.15138265
174	0x3ea7dec0	0.32787132
175	0x3dcba2cd	0.09943161
176	0xbec6157e	-0.38688272
177	0x3eb017bd	0.3439311
178	0xbe3ef5da	-0.18648472
179	0xbd2f7092	-0.042831965
180	0xbe8c84d4	-0.2744509
181	0x3e8b59a1	0.2721682
182	0xbe770c7b	-0.24125855
183	0x3ea7610b	0.32691225
184	0x3ef34477	0.47513172
185	0x3e0eb58a	0.13936439
186	0x3ee3427e	0.44386667
187	0x3eb7ce32	0.35899502
188	0xbf036816	-0.513307
189	0xbf19c8bb	-0.60071915
190	0x3eba34c6	0.36368388
191	0xbec6b67f	-0.38811108
192	0xbf15baba	-0.5848805
193	0x3ec5ff4e	0.38671345
194	0x3e9b87da	0.30377084
195	0xbead3e3e	-0.3383655
196	0x3f15f1b5	0.5857194
197	0x3e9bd24e	0.30433887
198	0x3f1c605d	0.6108454
199	0x3cd991c0	0.026558757
200	0xbefebaac	-0.49751794
201	0x3e981e4a	0.2971061
202	0x3ec82ede	0.39098257
203	0x3e66ab00	0.22526169
204	0xbea5e278	-0.32399344
205	0xbe04a920	-0.12955141
206	0x3e85e968	0.26154637
207	0xbe156dea	-0.1459271
208	0xbadc7bd8	-0.0016821576
209	0xbdfdffb3	-0.124022864
210	0xbf1353be	-0.57549655
211	0x3d3958b7	0.04525062
212	0xbed40c84	-0.414158
213	0x3ee4e4fe	0.44705957
214	0x3e156621	0.1458974
215	0xbee0bdbf	-0.43894765
216	0xbe8b5cf5	-0.27219358
217	0xbf189d54	-0.59615064
218	0xbe9c8594	-0.30570662
219	0x3e748c5c	0.23881668
220	0xbee8722c	-0.45399606
221	0x3ec027e2	0.37530428
222	0x3b658e00	0.0035027266
223	0xbc29afdb	-0.010356869
224	0xbe93cfde	-0.28869528
225	0xbeacfcfe	-0.33786768
226	0xbf0eb08f	-0.5573816
227	0xbe07a6f6	-0.13247284
228	0xbdf52b9e	-0.1197121
229	0xbe6f3e71	-0.23363663
230	0x3edd9d47	0.43284056
231	0xbf109ff3	-0.56494063
232	0x3ef12115	0.47095552
233	0x3e376f89	0.17913641
234	0xbe78f788	-0.24313176
235	0xbe9805be	-0.2969188
236	0xbef52306	-0.47878283
237	0xbecc75ec	-0.39933717
238	0x3eb407de	0.35162252
239	0x3ed9546c	0.4244722
240	0xbeabb182	-0.33533865
241	0xbed6e021	-0.41967872
242	0xbe951511	-0.29117635
243	0x3e24c94d	0.16092415
244	0xbeafa690	-0.34306765
245	0x3ed7de8c	0.42161977
246	0x3ef21427	0.47281
247	0xbe2e6d03	-0.17033772
248	0xbedbadb4	-0.42905962
249	0x3d9b4016	0.07580583
250	0xbe439bc4	-0.19102389
251	0xbea4ddb5	-0.322004
252	0x3eb27e36	0.34861916
253	0x3e6022ec	0.21888322
254	0x3f1c6629	0.61093384
255	0x3e7a45df	0.24440716

simplicial_nn.4.W0 f4 [16, 1]
0	0xbefc6262	-0.4929381
1	0xbf113bc2	-0.5673181
2	0xbf05b7db	-0.52233666
3	0x3f12d4f8	0.57356215
4	0x3f2d93d8	0.67803717
5	0x3e380e8f	0.17974304
6	0x3ef11732	0.4708801
7	0x3ec450ad	0.383428
8	0x3d2ec91c	0.04267226
9	0x3ed3432e	0.41262192
10	0x3f130f91	0.5744563
11	0x3f447da4	0.7675421
12	0xbefe694c	-0.4968971
13	0x3f4978e9	0.7870012
14	0x3e288bbc	0.16459554
15	0x3f451efa	0.7700039

simplicial_nn.4.W1 f4 [16, 1]
0	0xbf17a862	-0.59241307
1	0xbf49ddd0	-0.78854084
2	0x3f362e33	0.71164244
3	0x3f32e15b	0.69875115
4	0x3f0030d1	0.5007449
5	0xbea5b4fe	-0.3236465
6	0x3efbabfe	0.49154657
7	0xbf465204	-0.77468896
8	0x3eab0d4a	0.33408576
9	0xbdc851e8	-0.097812474
10	0xbeb57099	-0.35437468
11	0x3de4f380	0.111792564
12	0x3f3a8d69	0.72872025
13	0xbf05df58	-0.5229392
14	0xbf27b72c	-0.65513873
15	0xbdc2e198	-0.09515685

simplicial_nn.4.W2 f4 [16, 1]
0	0x3f39ddee	0.7260426
1	0xbf42156f	-0.75813955
2	0x3f41c332	0.7568847
3	0x3f3ab374	0.72930074
4	0x3f51e5bd	0.8199118
5	0x3f13836e	0.5762242
6	0xbe048692	-0.1294196
7	0xbe94bbc3	-0.290495
8	0x3f433f1f	0.7626819
9	0x3ebd5376	0.36977738
10	0x3f54b2cd	0.8308533
11	0xbea1028f	-0.31447265
12	0xbece1a39	-0.4025438
13	0xbec79474	-0.38980448
14	0x3f4805a5	0.7813361
15	0x3ee89d9e	0.45432752

exp_avg f4 [1, 16]
0	0xc024f279	-2.5772994
1	0xbf557de0	-0.83395195
2	0x40590ca8	3.3913975
3	0x00000000	0.0
4	0xbacd70a9	-0.0015673834
5	0xc013487b	-2.3012989
6	0xbcb92406	-0.022600185
7	0x401e8531	2.4768794
8	0x00000000	0.0
9	0xc01580fd	-2.3359978
10	0xc00c8cb2	-2.1960874
11	0xc039ee8f	-2.9051855
12	0x00000000	0.0
13	0xbf1644bd	-0.58698636
14	0xbb07a810	-0.0020699538
15	0xba8634d3	-0.0010239132

exp_avg_sq f4 [1, 16]
0	0x3e349d08	0.17638028
1	0x3ca743a1	0.02041799
2	0x3ea5d215	0.32386842
3	0x00000000	0.0
4	0x3367987c	5.3922562e-08
5	0x3e1423e0	0.1446681
6	0x37559c2b	1.273215e-05
7	0x3e326e02	0.17424777
8	0x00000000	0.0
9	0x3e15bc59	0.1462263
10	0x3e045e35	0.12926562
11	0x3e6d1058	0.23150766
12	0x00000000	0.0
13	0x3c1e56f2	0.009664284
14	0x33ef70fe	1.1149858e-07
15	0x32da3b58	2.5405527e-08

exp_avg f4 [1, 16]
0	0x00000000	0.0
1	0x00000000	0.0
2	0x00000000	0.0
3	0x00000000	0.0
4	0x00000000	0.0
5	0x00000000	0.0
6	0x00000000	0.0
7	0x00000000	0.0
8	0x00000000	0.0
9	0x00000000	0.0
10	0x00000000	0.0
11	0x00000000	0.0
12	0x00000000	0.0
13	0x00000000	0.0
14	0x00000000	0.0
15	0x00000000	0.0

exp_avg_sq f4 [1, 16]
0	0x00000000	0.0
1	0x00000000	0.0
2	0x00000000	0.0
3	0x00000000	0.0
4	0x00000000	0.0
5	0x00000000	0.0
6	0x00000000	0.0
7	0x00000000	0.0
8	0x00000000	0.0
9	0x00000000	0.0
10	0x00000000	0.0
11	0x00000000	0.0
12	0x00000000	0.0
13	0x00000000	0.0
14	0x00000000	0.0
15	0x00000000	0.0

exp_avg f4 [1, 16]
0	0x3c6343b0	0.013871118
1	0x3cbc7210	0.023003608
2	0x3b3d1185	0.0028849554
3	0x00000000	0.0
4	0x3aca80ea	0.0015449796
5	0xbbeeae4a	-0.0072839605
6	0x3c489e09	0.01224471
7	0x3be3ecdf	0.0069557275
8	0x00000000	0.0
9	0xbc515bb3	-0.01277821
10	0x3db3bd25	0.08776311
11	0x3d612c9b	0.05497418
12	0x00000000	0.0
13	0x3cd0be05	0.025481233
14	0x3b05b7aa	0.0020403662
15	0x3a8449bb	0.0010092774

exp_avg_sq f4 [1, 16]
0	0x383f9bb0	4.5682944e-05
1	0x37466530	1.1825279e-05
2	0x38a4e31c	7.862432e-05
3	0x00000000	0.0
4	0x336105ad	5.2392057e-08
5	0x3882cff2	6.237616e-05
6	0x367c22cd	3.7571183e-06
7	0x3897de70	7.241673e-05
8	0x00000000	0.0
9	0x388eafb8	6.803818e-05
10	0x3937432e	0.00017477266
11	0x38b31ea8	8.541095e-05
12	0x00000000	0.0
13	0x3778d859	1.4832324e-05
14	0x33e8a52f	1.08333886e-07
15	0x32d409a4	2.4684432e-08

exp_avg f4 [16, 16]
0	0x3c20f765	0.009824608
1	0x3fa16d14	1.2611413
2	0x3e92a2a3	0.28639707
3	0xbfa06079	-1.2529441
4	0xbfbdeb56	-1.4837444
5	0xbec03e7e	-0.37547678
6	0xb99b697d	-0.000296425
7	0xbf5955b3	-0.8489639
8	0xbd6e0bb2	-0.058116622
9	0xbf5def19	-0.8669296
10	0x00000000	0.0
11	0xbfda51af	-1.7056178
12	0x3d418582	0.047246464
13	0xba705b4f	-0.00091688795
14	0x00000000	0.0
15	0xbf7e1344	-0.99248147
16	0x3c15095c	0.00909647
17	0x40159933	2.3374755
18	0x3ee9b7ba	0.45647985
19	0xc0149780	-2.3217468
20	0xc02ff5b7	-2.7493722
21	0xbf3240b3	-0.69629973
22	0x00000000	0.0
23	0xbfc908c7	-1.5705804
24	0xbde00f76	-0.10940449
25	0xbfcfb9e8	-1.6228609
26	0x00000000	0.0
27	0xc04a03ff	-3.156494
28	0x3d83fc49	0.06444604
29	0x00000000	0.0
30	0x00000000	0.0
31	0xbff81cac	-1.938375
32	0x3c4b3ce0	0.01240465
33	0x4003836c	2.0548964
34	0x3ee0933a	0.43862325
35	0xc002a1da	-2.0411286
36	0xc01ab171	-2.4170802
37	0xbf1cadd9	-0.6120277
38	0xb97f44ec	-0.0002434437
39	0xbfb0d171	-1.3813916
40	0xbdc3ea63	-0.0956619
41	0xbfb5891c	-1.4182467
42	0x00000000	0.0
43	0xc031aa62	-2.7760243
44	0x3d8c0c82	0.06838323
45	0xba456664	-0.0007530211
46	0x00000000	0.0
47	0xbfd3626f	-1.6514415
48	0x00000000	0.0
49	0x00000000	0.0
50	0x00000000	0.0
51	0x00000000	0.0
52	0x00000000	0.0
53	0x00000000	0.0
54	0x00000000	0.0
55	0x00000000	0.0
56	0x00000000	0.0
57	0x00000000	0.0
58	0x00000000	0.0
59	0x00000000	0.0
60	0x00000000	0.0
61	0x00000000	0.0
62	0x00000000	0.0
63	0x00000000	0.0
64	0x39310389	0.00016881352
65	0xb9377d46	-0.00017498908
66	0x39387992	0.00017592896
67	0x39307703	0.00016829003
68	0x3947a5b2	0.00019039845
69	0x390cba83	0.00013420921
70	0xb7f204b0	-2.885083e-05
71	0xb88dd196	-6.762442e-05
72	0x00000000	0.0
73	0x00000000	0.0
74	0x00000000	0.0
75	0xb8995119	-7.310714e-05
76	0xb8c0f7ee	-9.201454e-05
77	0xb8babdc1	-8.9045156e-05
78	0x00000000	0.0
79	0x00000000	0.0
80	0x3cb81589	0.022471206
81	0x40337719	2.8041441
82	0x3f244137	0.6416201
83	0xc0324b33	-2.7858398
84	0xc0532300	-3.2990112
85	0xbf55b73f	-0.83482736
86	0xba37c2c1	-0.00070099166
87	0xbff19bca	-1.8875668
88	0xbe046b04	-0.12931448
89	0xbff69806	-1.9265144
90	0x00000000	0.0
91	0xc072b4bf	-3.7922819
92	0x3dda13a5	0.10648278
93	0xbb0e1a08	-0.0021682996
94	0x00000000	0.0
95	0xc00cbde7	-2.1990907
96	0x3b18800b	0.002326968
97	0xbae8d86a	-0.0017764692
98	0x3b203514	0.00244457
99	0x3ade2390	0.0016947854
100	0x3af9359f	0.0019013173
101	0x3ac72b79	0.0015195451
102	0xb9aca1c0	-0.0003292691
103	0xba893cf6	-0.0010470438
104	0x00000000	0.0
105	0x00000000	0.0
106	0x00000000	0.0
107	0xbab00fc3	-0.0013432432
108	0xba5542f6	-0.0008135283
109	0xba857876	-0.0010182995
110	0x00000000	0.0
111	0x00000000	0.0
112	0x3c4a46be	0.012345968
113	0x3ef91278	0.48646903
114	0x3e35054e	0.17677805
115	0xbef79b2a	-0.48360568
116	0xbf12a00d	-0.5727547
117	0xbe13bd73	-0.14427738
118	0xba3368df	-0.0006843935
119	0xbea8f95b	-0.33002743
120	0xbcae8fbb	-0.02130877
121	0xbea40b6e	-0.3203997
122	0x00000000	0.0
123	0xbf2980c2	-0.66212094
124	0x3d1d1d7d	0.0383582
125	0xbb0abcc3	-0.002116964
126	0x00000000	0.0
127	0xbe964f45	-0.29357353
128	0x00000000	0.0
129	0x00000000	0.0
130	0x00000000	0.0
131	0x00000000	0.0
132	0x00000000	0.0
133	0x00000000	0.0
134	0x00000000	0.0
135	0x00000000	0.0
136	0x00000000	0.0
137	0x00000000	0.0
138	0x00000000	0.0
139	0x00000000	0.0
140	0x00000000	0.0
141	0x00000000	0.0
142	0x00000000	0.0
143	0x00000000	0.0
144	0x3be671cc	0.0070326086
145	0x3fffb9f6	1.9978626
146	0x3ec3395b	0.38129696
147	0xbffe006e	-1.9843881
148	0xc01664b0	-2.3498955
149	0xbf184fe5	-0.5949691
150	0x00000000	0.0
151	0xbfabd96d	-1.3425728
152	0xbdbfd6cc	-0.09367141
153	0xbfb1d901	-1.3894349
154	0x00000000	0.0
155	0xc02caf50	-2.6982002
156	0x3d54c9c8	0.051950246
157	0x00000000	0.0
158	0x00000000	0.0
159	0xbfd5be98	-1.669879
160	0x3b994d44	0.0046784002
161	0x3fa7af4e	1.3100374
162	0x3e806aa2	0.25081354
163	0xbfa68ef5	-1.3012377
164	0xbfc53c9c	-1.5409122
165	0xbec7c30f	-0.39016005
166	0x00000000	0.0
167	0xbf6161ac	-0.8803966
168	0xbd7b658b	-0.061376136
169	0xbf692f11	-0.9108744
170	0x00000000	0.0
171	0xbfe27970	-1.769331
172	0x3d0cc583	0.03436805
173	0x00000000	0.0
174	0x00000000	0.0
175	0xbf8c0d5c	-1.0941577
176	0x3bf80f08	0.0075701512
177	0x3fe293ab	1.7701315
178	0x3eb514af	0.35367343
179	0xbfe10f76	-1.7582843
180	0xc005416c	-2.082118
181	0xbf070592	-0.52742875
182	0xb63976ee	-2.7636374e-06
183	0xbf983cd2	-1.1893561
184	0xbda93706	-0.08262448
185	0xbf9d0b17	-1.2269009
186	0x00000000	0.0
187	0xc018fae6	-2.3903136
188	0x3d53691f	0.051613923
189	0xb70d6ae3	-8.429141e-06
190	0x00000000	0.0
191	0xbfba70a0	-1.456562
192	0x00000000	0.0
193	0x00000000	0.0
194	0x00000000	0.0
195	0x00000000	0.0
196	0x00000000	0.0
197	0x00000000	0.0
198	0x00000000	0.0
199	0x00000000	0.0
200	0x00000000	0.0
201	0x00000000	0.0
202	0x00000000	0.0
203	0x00000000	0.0
204	0x00000000	0.0
205	0x00000000	0.0
206	0x00000000	0.0
207	0x00000000	0.0
208	0x3ca84bd0	0.020543963
209	0x3fdaa0ad	1.7080284
210	0x3ee3500e	0.44397014
211	0xbfd93f7f	-1.6972502
212	0xc000a309	-2.0099509
213	0xbf0210d4	-0.5080693
214	0xba67ac74	-0.0008837648
215	0xbf9378d9	-1.1521255
216	0xbd9f1447	-0.077675395
217	0xbf94c6ce	-1.162317
218	0x00000000	0.0
219	0xc01415d7	-2.313833
220	0x3da5ffe8	0.08105451
221	0xbb3323e5	-0.0027334627
222	0x00000000	0.0
223	0xbfa27e46	-1.2694786
224	0x3a46d9f4	0.0007585578
225	0xba4e066e	-0.00078592345
226	0x3a4f3ab0	0.00079051685
227	0x3a461a8d	0.0007557057
228	0x3a60431e	0.0008554923
229	0x3a1e1b69	0.0006031306
230	0xb9078997	-0.0001292586
231	0xb99f684d	-0.00030404553
232	0x00000000	0.0
233	0x00000000	0.0
234	0x00000000	0.0
235	0xb9ac5048	-0.0003286621
236	0xb9d883e2	-0.0004129699
237	0xb9d1853e	-0.0003996286
238	0x00000000	0.0
239	0x00000000	0.0
240	0x3a528b36	0.00080316083
241	0xba5a2350	-0.0008321302
242	0x3a5b6a09	0.00083699875
243	0x3a51c017	0.0008001341
244	0x3a6d72d1	0.00090579415
245	0x3a27676a	0.00063859543
246	0xb90f805e	-0.00013685363
247	0xb9a8c828	-0.00032192585
248	0x00000000	0.0
249	0x00000000	0.0
250	0x00000000	0.0
251	0xb9b6725f	-0.00034798958
252	0xb9e53e19	-0.0004372455
253	0xb9ddd62c	-0.00042311975
254	0x00000000	0.0
255	0x00000000	0.0

exp_avg_sq f4 [16, 16]
0	0x362a190d	2.5346556e-06
1	0x3d36dca2	0.044644006
2	0x3b127c44	0.00223519
3	0x3d33200d	0.043731738
4	0x3d7b1cbb	0.061306696
5	0x3b82488b	0.003975933
6	0x311536ec	2.1713573e-09
7	0x3ca0003a	0.019531358
8	0x391874b8	0.00014539331
9	0x3cabde77	0.020980103
10	0x00000000	0.0
11	0x3da292ba	0.07938142
12	0x3867f385	5.5301487e-05
13	0x32b472bf	2.1006938e-08
14	0x00000000	0.0
15	0x3cd8fbe1	0.026487293
16	0x36166752	2.2411882e-06
17	0x3e207bb8	0.15672195
18	0x3bbe24a6	0.0058027087
19	0x3e1d20da	0.15344563
20	0x3e5c3d26	0.21507701
21	0x3c65c235	0.014023353
22	0x00000000	0.0
23	0x3d8b5435	0.068031706
24	0x3a10704c	0.00055098976
25	0x3d9975d1	0.07493175
26	0x00000000	0.0
27	0x3e8dc384	0.2768823
28	0x38da9d01	0.00010424294
29	0x00000000	0.0
30	0x00000000	0.0
31	0x3dd2ed9f	0.10299229
32	0x3689d2c9	4.107457e-06
33	0x3df6da78	0.12053388
34	0x3baf1025	0.0053425007
35	0x3df1ac3f	0.118004315
36	0x3e296338	0.16541755
37	0x3c301b4e	0.010748697
38	0x30c971df	1.4657039e-09
39	0x3d570826	0.052498005
40	0x39d41ef6	0.0004045886
41	0x3d69981c	0.05702983
42	0x00000000	0.0
43	0x3e5aac54	0.213548
44	0x38f623a9	0.00011736836
45	0x3273a024	1.4180873e-08
46	0x00000000	0.0
47	0x3d97f8c2	0.07420494
48	0x00000000	0.0
49	0x00000000	0.0
50	0x00000000	0.0
51	0x00000000	0.0
52	0x00000000	0.0
53	0x00000000	0.0
54	0x00000000	0.0
55	0x00000000	0.0
56	0x00000000	0.0
57	0x00000000	0.0
58	0x00000000	0.0
59	0x00000000	0.0
60	0x00000000	0.0
61	0x00000000	0.0
62	0x00000000	0.0
63	0x00000000	0.0
64	0x30346520	6.5627326e-10
65	0x30417770	7.038272e-10
66	0x3043e8a2	7.127118e-10
67	0x3032cfad	6.505115e-10
68	0x306569a0	8.3459817e-10
69	0x2fe42335	4.1497975e-10
70	0x2da6bb43	1.8955176e-11
71	0x2ee81994	1.0554682e-10
72	0x00000000	0.0
73	0x00000000	0.0
74	0x00000000	0.0
75	0x2f079295	1.2330255e-10
76	0x2f556089	1.9406533e-10
77	0x2f47cc96	1.8171628e-10
78	0x00000000	0.0
79	0x00000000	0.0
80	0x375eba44	1.32755995e-05
81	0x3e6274a1	0.22114803
82	0x3c38529a	0.0112501625
83	0x3e5dcd4f	0.2166035
84	0x3e9b78f3	0.30365714
85	0x3ca13bae	0.019681778
86	0x3250baeb	1.2149694e-08
87	0x3dc62a36	0.0967602
88	0x3a3bd82d	0.00071656966
89	0x3dd49d16	0.10381524
90	0x00000000	0.0
91	0x3ec95a15	0.3932654
92	0x39939bb3	0.0002815403
93	0x33fc6eb5	1.1754802e-07
94	0x00000000	0.0
95	0x3e053447	0.13008223
96	0x34095d7f	1.2793133e-07
97	0x33b98d70	8.640461e-08
98	0x3416d436	1.404704e-07
99	0x33a9ae46	7.901376e-08
100	0x33d837fa	1.0068466e-07
101	0x337eb36a	5.930216e-08
102	0x3136a0c0	2.6575862e-09
103	0x32d7c96f	2.5120896e-08
104	0x00000000	0.0
105	0x00000000	0.0
106	0x00000000	0.0
107	0x332d7910	4.0389807e-08
108	0x32acfe5f	2.013911e-08
109	0x32dcb232	2.5692405e-08
110	0x00000000	0.0
111	0x00000000	0.0
112	0x36840e4b	3.9355705e-06
113	0x3bcdd130	0.0062810406
114	0x3a593f2e	0.00082873076
115	0x3bc9cbfa	0.006158349
116	0x3c0d8e56	0.008639893
117	0x3a0f1e2c	0.0005459513
118	0x3246fd0c	1.1582653e-08
119	0x3b39d8e6	0.0028358041
120	0x3771e7e8	1.4418714e-05
121	0x3b32c5d2	0.0027278555
122	0x00000000	0.0
123	0x3c3bd522	0.011464389
124	0x3817932c	3.613827e-05
125	0x33f0a736	1.12062864e-07
126	0x00000000	0.0
127	0x3b0b82ad	0.0021287606
128	0x00000000	0.0
129	0x00000000	0.0
130	0x00000000	0.0
131	0x00000000	0.0
132	0x00000000	0.0
133	0x00000000	0.0
134	0x00000000	0.0
135	0x00000000	0.0
136	0x00000000	0.0
137	0x00000000	0.0
138	0x00000000	0.0
139	0x00000000	0.0
140	0x00000000	0.0
141	0x00000000	0.0
142	0x00000000	0.0
143	0x00000000	0.0
144	0x35b550ea	1.35091e-06
145	0x3deb0e3c	0.11477324
146	0x3b851fcb	0.004062628
147	0x3de62366	0.112372205
148	0x3e2148f1	0.15750481
149	0x3c284cca	0.010272214
150	0x00000000	0.0
151	0x3d4bfc7a	0.049801327
152	0x39d612de	0.00040831318
153	0x3d616b90	0.05503422
154	0x00000000	0.0
155	0x3e4f90ac	0.20270032
156	0x388e9ff7	6.8008834e-05
157	0x00000000	0.0
158	0x00000000	0.0
159	0x3d9ce6e3	0.07661226
160	0x351ee2b1	5.9189466e-07
161	0x3d49a5ab	0.04923026
162	0x3ae548c2	0.0017492997
163	0x3d45721d	0.04820453
164	0x3d8a5f86	0.06756501
165	0x3b906813	0.004406938
166	0x00000000	0.0
167	0x3caf0951	0.021366747
168	0x39377619	0.00017496235
169	0x3cc156d8	0.02360098
170	0x00000000	0.0
171	0x3db218e8	0.08696157
172	0x37f81456	2.9573373e-05
173	0x00000000	0.0
174	0x00000000	0.0
175	0x3d069170	0.032853544
176	0x35ce8f98	1.5389987e-06
177	0x3db7559c	0.089518756
178	0x3b632549	0.0034659675
179	0x3db38478	0.08765501
180	0x3dfb9f68	0.12286264
181	0x3c033b4f	0.008009746
182	0x2a84107a	2.3459343e-13
183	0x3d1f4441	0.03888345
184	0x39a3211e	0.00031114457
185	0x3d2ecf1b	0.04267798
186	0x00000000	0.0
187	0x3e2207f0	0.1582334
188	0x388ba621	6.6589804e-05
189	0x2c195311	2.1788719e-12
190	0x00000000	0.0
191	0x3d6d77fb	0.05797575
192	0x00000000	0.0
193	0x00000000	0.0
194	0x00000000	0.0
195	0x00000000	0.0
196	0x00000000	0.0
197	0x00000000	0.0
198	0x00000000	0.0
199	0x00000000	0.0
200	0x00000000	0.0
201	0x00000000	0.0
202	0x00000000	0.0
203	0x00000000	0.0
204	0x00000000	0.0
205	0x00000000	0.0
206	0x00000000	0.0
207	0x00000000	0.0
208	0x3737b4c1	1.0949735e-05
209	0x3da4c4bf	0.08045339
210	0x3bada52e	0.005299232
211	0x3da174f0	0.07883632
212	0x3de262d6	0.11054008
213	0x3be967e5	0.007122981
214	0x32a55ac9	1.9249812e-08
215	0x3d115949	0.03548554
216	0x397d1ccc	0.00024138688
217	0x3d181a4e	0.03713446
218	0x00000000	0.0
219	0x3e137a86	0.14402208
220	0x39297d45	0.00016163762
221	0x3447eb56	1.8618934e-07
222	0x00000000	0.0
223	0x3d2e1e3a	0.042509295
224	0x327378b8	1.417191e-08
225	0x32824796	1.5166545e-08
226	0x328431f6	1.5389542e-08
227	0x3270aed3	1.4009589e-08
228	0x329ac5e8	1.8017957e-08
229	0x321a0635	8.965391e-09
230	0x2fde43d9	4.0429773e-10
231	0x311d06b8	2.2850326e-09
232	0x00000000	0.0
233	0x00000000	0.0
234	0x00000000	0.0
235	0x31375cc6	2.668274e-09
236	0x318f45cf	4.169784e-09
237	0x318622de	3.903877e-09
238	0x00000000	0.0
239	0x00000000	0.0
240	0x32889e2c	1.5904412e-08
241	0x329233b7	1.7020154e-08
242	0x32945b13	1.7270883e-08
243	0x32870c5f	1.5721694e-08
244	0x32adb180	2.0220568e-08
245	0x322cdac9	1.0061464e-08
246	0x2ff96546	4.5364795e-10
247	0x31303a83	2.564463e-09
248	0x00000000	0.0
249	0x00000000	0.0
250	0x00000000	0.0
251	0x314dc8ba	2.9945526e-09
252	0x31a0c6e5	4.6792246e-09
253	0x31968620	4.380823e-09
254	0x00000000	0.0
255	0x00000000	0.0

exp_avg f4 [16, 16]
0	0x00000000	0.0
1	0x00000000	0.0
2	0x00000000	0.0
3	0x00000000	0.0
4	0x00000000	0.0
5	0x00000000	0.0
6	0x00000000	0.0
7	0x00000000	0.0
8	0x00000000	0.0
9	0x00000000	0.0
10	0x00000000	0.0
11	0x00000000	0.0
12	0x00000000	0.0
13	0x00000000	0.0
14	0x00000000	0.0
15	0x00000000	0.0
16	0x00000000	0.0
17	0x00000000	0.0
18	0x00000000	0.0
19	0x00000000	0.0
20	0x00000000	0.0
21	0x00000000	0.0
22	0x00000000	0.0
23	0x00000000	0.0
24	0x00000000	0.0
25	0x00000000	0.0
26	0x00000000	0.0
27	0x00000000	0.0
28	0x00000000	0.0
29	0x00000000	0.0
30	0x00000000	0.0
31	0x00000000	0.0
32	0x00000000	0.0
33	0x00000000	0.0
34	0x00000000	0.0
35	0x00000000	0.0
36	0x00000000	0.0
37	0x00000000	0.0
38	0x00000000	0.0
39	0x00000000	0.0
40	0x00000000	0.0
41	0x00000000	0.0
42	0x00000000	0.0
43	0x00000000	0.0
44	0x00000000	0.0
45	0x00000000	0.0
46	0x00000000	0.0
47	0x00000000	0.0
48	0x00000000	0.0
49	0x00000000	0.0
50	0x00000000	0.0
51	0x00000000	0.0
52	0x00000000	0.0
53	0x00000000	0.0
54	0x00000000	0.0
55	0x00000000	0.0
56	0x00000000	0.0
57	0x00000000	0.0
58	0x00000000	0.0
59	0x00000000	0.0
60	0x00000000	0.0
61	0x00000000	0.0
62	0x00000000	0.0
63	0x00000000	0.0
64	0x00000000	0.0
65	0x00000000	0.0
66	0x00000000	0.0
67	0x00000000	0.0
68	0x00000000	0.0
69	0x00000000	0.0
70	0x00000000	0.0
71	0x00000000	0.0
72	0x00000000	0.0
73	0x00000000	0.0
74	0x00000000	0.0
75	0x00000000	0.0
76	0x00000000	0.0
77	0x00000000	0.0
78	0x00000000	0.0
79	0x00000000	0.0
80	0x00000000	0.0
81	0x00000000	0.0
82	0x00000000	0.0
83	0x00000000	0.0
84	0x00000000	0.0
85	0x00000000	0.0
86	0x00000000	0.0
87	0x00000000	0.0
88	0x00000000	0.0
89	0x00000000	0.0
90	0x00000000	0.0
91	0x00000000	0.0
92	0x00000000	0.0
93	0x00000000	0.0
94	0x00000000	0.0
95	0x00000000	0.0
96	0x00000000	0.0
97	0x00000000	0.0
98	0x00000000	0.0
99	0x00000000	0.0
100	0x00000000	0.0
101	0x00000000	0.0
102	0x00000000	0.0
103	0x00000000	0.0
104	0x00000000	0.0
105	0x00000000	0.0
106	0x00000000	0.0
107	0x00000000	0.0
108	0x00000000	0.0
109	0x00000000	0.0
110	0x00000000	0.0
111	0x00000000	0.0
112	0x00000000	0.0
113	0x00000000	0.0
114	0x00000000	0.0
115	0x00000000	0.0
116	0x00000000	0.0
117	0x00000000	0.0
118	0x00000000	0.0
119	0x00000000	0.0
120	0x00000000	0.0
121	0x00000000	0.0
122	0x00000000	0.0
123	0x00000000	0.0
124	0x00000000	0.0
125	0x00000000	0.0
126	0x00000000	0.0
127	0x00000000	0.0
128	0x00000000	0.0
129	0x00000000	0.0
130	0x00000000	0.0
131	0x00000000	0.0
132	0x00000000	0.0
133	0x00000000	0.0
134	0x00000000	0.0
135	0x00000000	0.0
136	0x00000000	0.0
137	0x00000000	0.0
138	0x00000000	0.0
139	0x00000000	0.0
140	0x00000000	0.0
141	0x00000000	0.0
142	0x00000000	0.0
143	0x00000000	0.0
144	0x00000000	0.0
145	0x00000000	0.0
146	0x00000000	0.0
147	0x00000000	0.0
148	0x00000000	0.0
149	0x00000000	0.0
150	0x00000000	0.0
151	0x00000000	0.0
152	0x00000000	0.0
153	0x00000000	0.0
154	0x00000000	0.0
155	0x00000000	0.0
156	0x00000000	0.0
157	0x00000000	0.0
158	0x00000000	0.0
159	0x00000000	0.0
160	0x00000000	0.0
161	0x00000000	0.0
162	0x00000000	0.0
163	0x00000000	0.0
164	0x00000000	0.0
165	0x00000000	0.0
166	0x00000000	0.0
167	0x00000000	0.0
168	0x00000000	0.0
169	0x00000000	0.0
170	0x00000000	0.0
171	0x00000000	0.0
172	0x00000000	0.0
173	0x00000000	0.0
174	0x00000000	0.0
175	0x00000000	0.0
176	0x00000000	0.0
177	0x00000000	0.0
178	0x00000000	0.0
179	0x00000000	0.0
180	0x00000000	0.0
181	0x00000000	0.0
182	0x00000000	0.0
183	0x00000000	0.0
184	0x00000000	0.0
185	0x00000000	0.0
186	0x00000000	0.0
187	0x00000000	0.0
188	0x00000000	0.0
189	0x00000000	0.0
190	0x00000000	0.0
191	0x00000000	0.0
192	0x00000000	0.0
193	0x00000000	0.0
194	0x00000000	0.0
195	0x00000000	0.0
196	0x00000000	0.0
197	0x00000000	0.0
198	0x00000000	0.0
199	0x00000000	0.0
200	0x00000000	0.0
201	0x00000000	0.0
202	0x00000000	0.0
203	0x00000000	0.0
204	0x00000000	0.0
205	0x00000000	0.0
206	0x00000000	0.0
207	0x00000000	0.0
208	0x00000000	0.0
209	0x00000000	0.0
210	0x00000000	0.0
211	0x00000000	0.0
212	0x00000000	0.0
213	0x00000000	0.0
214	0x00000000	0.0
215	0x00000000	0.0
216	0x00000000	0.0
217	0x00000000	0.0
218	0x00000000	0.0
219	0x00000000	0.0
220	0x00000000	0.0
221	0x00000000	0.0
222	0x00000000	0.0
223	0x00000000	0.0
224	0x00000000	0.0
225	0x00000000	0.0
226	0x00000000	0.0
227	0x00000000	0.0
228	0x00000000	0.0
229	0x00000000	0.0
230	0x00000000	0.0
231	0x00000000	0.0
232	0x00000000	0.0
233	0x00000000	0.0
234	0x00000000	0.0
235	0x00000000	0.0
236	0x00000000	0.0
237	0x00000000	0.0
238	0x00000000	0.0
239	0x00000000	0.0
240	0x00000000	0.0
241	0x00000000	0.0
242	0x00000000	0.0
243	0x00000000	0.0
244	0x00000000	0.0
245	0x00000000	0.0
246	0x00000000	0.0
247	0x00000000	0.0
248	0x00000000	0.0
249	0x00000000	0.0
250	0x00000000	0.0
251	0x00000000	0.0
252	0x00000000	0.0
253	0x00000000	0.0
254	0x00000000	0.0
255	0x00000000	0.0

exp_avg_sq f4 [16, 16]
0	0x00000000	0.0
1	0x00000000	0.0
2	0x00000000	0.0
3	0x00000000	0.0
4	0x00000000	0.0
5	0x00000000	0.0
6	0x00000000	0.0
7	0x00000000	0.0
8	0x00000000	0.0
9	0x00000000	0.0
10	0x00000000	0.0
11	0x00000000	0.0
12	0x00000000	0.0
13	0x00000000	0.0
14	0x00000000	0.0
15	0x00000000	0.0
16	0x00000000	0.0
17	0x00000000	0.0
18	0x00000000	0.0
19	0x00000000	0.0
20	0x00000000	0.0
21	0x00000000	0.0
22	0x00000000	0.0
23	0x00000000	0.0
24	0x00000000	0.0
25	0x00000000	0.0
26	0x00000000	0.0
27	0x00000000	0.0
28	0x00000000	0.0
29	0x00000000	0.0
30	0x00000000	0.0
31	0x00000000	0.0
32	0x00000000	0.0
33	0x00000000	0.0
34	0x00000000	0.0
35	0x00000000	0.0
36	0x00000000	0.0
37	0x00000000	0.0
38	0x00000000	0.0
39	0x00000000	0.0
40	0x00000000	0.0
41	0x00000000	0.0
42	0x00000000	0.0
43	0x00000000	0.0
44	0x00000000	0.0
45	0x00000000	0.0
46	0x00000000	0.0
47	0x00000000	0.0
48	0x00000000	0.0
49	0x00000000	0.0
50	0x00000000	0.0
51	0x00000000	0.0
52	0x00000000	0.0
53	0x00000000	0.0
54	0x00000000	0.0
55	0x00000000	0.0
56	0x00000000	0.0
57	0x00000000	0.0
58	0x00000000	0.0
59	0x00000000	0.0
60	0x00000000	0.0
61	0x00000000	0.0
62	0x00000000	0.0
63	0x00000000	0.0
64	0x00000000	0.0
65	0x00000000	0.0
66	0x00000000	0.0
67	0x00000000	0.0
68	0x00000000	0.0
69	0x00000000	0.0
70	0x00000000	0.0
71	0x00000000	0.0
72	0x00000000	0.0
73	0x00000000	0.0
74	0x00000000	0.0
75	0x00000000	0.0
76	0x00000000	0.0
77	0x00000000	0.0
78	0x00000000	0.0
79	0x00000000	0.0
80	0x00000000	0.0
81	0x00000000	0.0
82	0x00000000	0.0
83	0x00000000	0.0
84	0x00000000	0.0
85	0x00000000	0.0
86	0x00000000	0.0
87	0x00000000	0.0
88	0x00000000	0.0
89	0x00000000	0.0
90	0x00000000	0.0
91	0x00000000	0.0
92	0x00000000	0.0
93	0x00000000	0.0
94	0x00000000	0.0
95	0x00000000	0.0
96	0x00000000	0.0
97	0x00000000	0.0
98	0x00000000	0.0
99	0x00000000	0.0
100	0x00000000	0.0
101	0x00000000	0.0
102	0x00000000	0.0
103	0x00000000	0.0
104	0x00000000	0.0
105	0x00000000	0.0
106	0x00000000	0.0
107	0x00000000	0.0
108	0x00000000	0.0
109	0x00000000	0.0
110	0x00000000	0.0
111	0x00000000	0.0
112	0x00000000	0.0
113	0x00000000	0.0
114	0x00000000	0.0
115	0x00000000	0.0
116	0x00000000	0.0
117	0x00000000	0.0
118	0x00000000	0.0
119	0x00000000	0.0
120	0x00000000	0.0
121	0x00000000	0.0
122	0x00000000	0.0
123	0x00000000	0.0
124	0x00000000	0.0
125	0x00000000	0.0
126	0x00000000	0.0
127	0x00000000	0.0
128	0x00000000	0.0
129	0x00000000	0.0
130	0x00000000	0.0
131	0x00000000	0.0
132	0x00000000	0.0
133	0x00000000	0.0
134	0x00000000	0.0
135	0x00000000	0.0
136	0x00000000	0.0
137	0x00000000	0.0
138	0x00000000	0.0
139	0x00000000	0.0
140	0x00000000	0.0
141	0x00000000	0.0
142	0x00000000	0.0
143	0x00000000	0.0
144	0x00000000	0.0
145	0x00000000	0.0
146	0x00000000	0.0
147	0x00000000	0.0
148	0x00000000	0.0
149	0x00000000	0.0
150	0x00000000	0.0
151	0x00000000	0.0
152	0x00000000	0.0
153	0x00000000	0.0
154	0x00000000	0.0
155	0x00000000	0.0
156	0x00000000	0.0
157	0x00000000	0.0
158	0x00000000	0.0
159	0x00000000	0.0
160	0x00000000	0.0
161	0x00000000	0.0
162	0x00000000	0.0
163	0x00000000	0.0
164	0x00000000	0.0
165	0x00000000	0.0
166	0x00000000	0.0
167	0x00000000	0.0
168	0x00000000	0.0
169	0x00000000	0.0
170	0x00000000	0.0
171	0x00000000	0.0
172	0x00000000	0.0
173	0x00000000	0.0
174	0x00000000	0.0
175	0x00000000	0.0
176	0x00000000	0.0
177	0x00000000	0.0
178	0x00000000	0.0
179	0x00000000	0.0
180	0x00000000	0.0
181	0x00000000	0.0
182	0x00000000	0.0
183	0x00000000	0.0
184	0x00000000	0.0
185	0x00000000	0.0
186	0x00000000	0.0
187	0x00000000	0.0
188	0x00000000	0.0
189	0x00000000	0.0
190	0x00000000	0.0
191	0x00000000	0.0
192	0x00000000	0.0
193	0x00000000	0.0
194	0x00000000	0.0
195	0x00000000	0.0
196	0x00000000	0.0
197	0x00000000	0.0
198	0x00000000	0.0
199	0x00000000	0.0
200	0x00000000	0.0
201	0x00000000	0.0
202	0x00000000	0.0
203	0x00000000	0.0
204	0x00000000	0.0
205	0x00000000	0.0
206	0x00000000	0.0
207	0x00000000	0.0
208	0x00000000	0.0
209	0x00000000	0.0
210	0x00000000	0.0
211	0x00000000	0.0
212	0x00000000	0.0
213	0x00000000	0.0
214	0x00000000	0.0
215	0x00000000	0.0
216	0x00000000	0.0
217	0x00000000	0.0
218	0x00000000	0.0
219	0x00000000	0.0
220	0x00000000	0.0
221	0x00000000	0.0
222	0x00000000	0.0
223	0x00000000	0.0
224	0x00000000	0.0
225	0x00000000	0.0
226	0x00000000	0.0
227	0x00000000	0.0
228	0x00000000	0.0
229	0x00000000	0.0
230	0x00000000	0.0
231	0x00000000	0.0
232	0x00000000	0.0
233	0x00000000	0.0
234	0x00000000	0.0
235	0x00000000	0.0
236	0x00000000	0.0
237	0x00000000	0.0
238	0x00000000	0.0
239	0x00000000	0.0
240	0x00000000	0.0
241	0x00000000	0.0
242	0x00000000	0.0
243	0x00000000	0.0
244	0x00000000	0.0
245	0x00000000	0.0
246	0x00000000	0.0
247	0x00000000	0.0
248	0x00000000	0.0
249	0x00000000	0.0
250	0x00000000	0.0
251	0x00000000	0.0
252	0x00000000	0.0
253	0x00000000	0.0
254	0x00000000	0.0
255	0x00000000	0.0
