results/Test_citation/version_98/checkpoints/epoch=0-step=0.ckpt (torch, 566353 bytes, 27 tensors)

simplicial_nn.0.W0 f4 [1, 64]
00000000: 4ed0 0d3c e66b 10be 6902 60be 3cc2 cdbe
00000010: b50b 133e a9e9 373e b2fb 8f3d 2837 1cbe
00000020: daf0 34be e6e6 92be a447 15be 76b4 8abd
00000030: cca4 e3bd 5e00 32be 8bd3 473d 575b d43e
00000040: 264e e33d e250 ab3d 1ec4 8bbe 1d41 a53e
00000050: 38ff 83be c45b 83bd b59d 79be 6e47 d63d
00000060: 0720 8b3c c15c c83e 718c ae3e f094 acbe
00000070: 305a 6fbe cb49 10be 3a0b 9e3d d258 d0be
00000080: 16bd 13be 99a4 c53c fc77 a1be a7a5 5f3e
00000090: 6413 24be cafc 19bb d330 10bd 3965 773e
000000a0: aee6 ab3d 93fc 0f3d e30b bfbe 3026 d9bd
000000b0: dce8 253a 6abd 2bbe b567 d73e ffb7 a93e
000000c0: 9aeb 90be e38e 573d 304d abbd aa0e febc
000000d0: 9699 853d 77d4 973e cc08 b6be 82f3 a53d
000000e0: 7710 2a3e a0b3 a3be 6029 a2be ad87 783d
000000f0: 1765 14be 19e1 aa3e 0041 b0be 9d2d a13e
0.008655621 -0.1410366 -0.2187592 -0.40187252 0.14359935 0.17960228 0.07030429 -0.15255415
-0.17670003 -0.28691787 -0.1457811 -0.067727014 -0.11115417 -0.17382953 0.048785727 0.41475937
0.1109889 0.083650365 -0.27298063 0.3227624 -0.25780654 -0.06413987 -0.24376567 0.10462843
0.016983045 0.39133266 0.34091523 -0.3370738 -0.23374248 -0.1409065 0.07716985 -0.40692765
-0.144276 0.024126338 -0.31536853 0.21840535 -0.16023022 -0.0023496621 -0.035202812 0.24159707
0.08393608 0.035152983 -0.37313756 -0.10602987 0.0006328949 -0.16771474 0.4207131 0.3314819
-0.2830475 0.0526265 -0.08364332 -0.031012852 0.06523435 0.29654285 -0.35553586 0.08103086
0.16607843 -0.3197298 -0.31672192 0.060676266 -0.14491688 0.3337486 -0.3442459 0.31480113

simplicial_nn.0.W1 f4 [5, 1, 64]
00000000: 94e3 0fbe 9e40 5abd 6f8e e6bd 6ee3 ab3d
00000010: 9878 a63d bbd0 d5bd 267d 07be f1e7 d7bd
00000020: 6895 c6bc 8041 b83a dc38 0a3d a5d5 12be
00000030: 56cf f2bd c199 c1bd 1713 6f3d 62f9 6e3c
00000040: f185 98bc 2ca5 213e 2cdb 003d 309d 1e3e
00000050: 64ff 46bd 7f01 2bbd 3665 b53d 1a14 debd
00000060: aafc c6bc 6ec9 063e e51f cc3b 7a46 ae3d
00000070: 3873 313d 82b0 173e c740 a2bc a0d3 a7bc
00000080: 86eb d13d f567 7b3d 4687 983d 671b d6bd
00000090: 20e1 80bc 3414 0c3e e520 0c3d 0083 043e
000000a0: c828 8bbd b070 0d3e b495 2ebd c001 393d
000000b0: bb6a 5abd a4da 21bd 4e5d 0d3e 992b 1c3d
000000c0: 2360 0f3e 93f9 303d b02a 71bd d6ae 10be
000000d0: d4ba dfbd 7c4e d6bd 1ff8 8abd f463 fb3d
000000e0: 6f5f 963c 703b 9b3c 313c 0fbe 07d6 e1bc
000000f0: 3083 a43d 0077 ccbd 62e0 09be 9f89 adbc
00000100: 88a1 febd 39a6 1c3e 804f 2a3b a863 813d
00000110: 8405 9b3d c90c d63c 4c13 e63d 1e24 bd3d
00000120: c142 333e e9cd 203e 866d 11be 01cb 893d
00000130: cd68 003e a025 36bd 764e 313e 665b e7bd
00000140: 924c 21be 330b 363d cbe4 0e3e 911d d7bc
00000150: 454f 053e a6a3 a3bd 3e00 ea3d 58be 0f3e
00000160: 183d fc3d a6e7 a7bd cdbe 22be 7e11 1bbe
00000170: 00cc aa3b ce2d 48bc afc1 87bc 9077 853c
00000180: 2143 87bd 13d7 973a f0aa 3ebc 4d78 5ebd
00000190: e062 97bd eb65 7a3d 5d01 5cbd 84f4 8c3d
000001a0: 08f4 a63d 180c dd3d 10f8 da3c 45c8 1ebe
000001b0: 4c2e ba3d b494 193d 59a5 b2bc 0831 293e
000001c0: 8de4 093e 4cdc d83d 55b0 283e bd59 083e
000001d0: 9058 05be de92 d5bd f2ca bb3d 9def 27be
000001e0: 2979 06be f0f8 663d 3848 b3bc a283 10be
000001f0: 08de 283e 1305 423d 40cb 0e3b 8b1a 113e
00000200: cb5e af3c e864 89bd 2233 f93d 3002 993c
00000210: 032d 74bd e188 de3d 179e cc3c 4352 12be
00000220: 4488 533d 3fb0 34be 78a6 80bd 74d2 02bc
00000230: 0848 b2bc 5731 343e d45a 143e 5545 28be
00000240: 5cef b83d 1555 18be 90a3 5f3d db75 4d3d
00000250: 3062 853d 23dd 34bc 1538 f0bd e145 ddbd
00000260: d68e eabc ab9c b9bd 5d0c 0c3c e02f 743c
00000270: b461 503d ed31 f3bd d290 803c baa3 9c3d
00000280: 341f c1bd 81dc f93c 83fb 18be d5e9 2cbd
00000290: 36ba 823d a3df 31be e090 0a3c 8f9c 43bd
000002a0: 4dc6 a4bd e64c bfbd c254 04be 447c 17be
000002b0: b8f9 0e3e 8de2 2e3e 7c94 b43d 0cf6 123e
000002c0: 8cd8 46bd 1d7d 32bd 473e 90bd c519 bcbd
000002d0: a8da 17be 8183 07be 2171 84bd 882b 1a3e
000002e0: 0409 dd3d d473 52bd 28d0 533d dec6 1e3e
000002f0: f6e0 9e3b b429 153e b37b 0dbe 19d6 08bd
00000300: f53c f13d 5094 8d3d 7018 04bd e8f2 e23c
00000310: fd35 f93d d4aa b2bc 980a 1ebe 63c8 003e
00000320: 4069 15bb 46c1 8a3d b517 223e 5831 ec3d
00000330: 467f c73d b8f4 35bd 8f8e bdbd 0cb7 bfbd
00000340: 7cd9 21be 9b3a 233d 2088 c03b 7b03 2f3d
00000350: 3b80 0a3e 265e 35bc 5584 1ebe 521e aabd
00000360: 3327 dfbd b8a6 df3d eb5b 3b3d ee24 aa3d
00000370: 0ad3 dc3d cb0c 7ebd 0a7d ff3c 77f8 24be
00000380: 5024 01bd 9468 e53d 5a65 db3d 2c40 2d3e
00000390: 7df9 d0bd a658 f3bd 2eac c3bd b8ce c03d
000003a0: 8168 92bd 3617 e93c 1b99 27be 6d90 0a3e
000003b0: 4bf3 36bb ea41 1dbe b72c cd3d 858c 573c
000003c0: c469 20be e494 15bc 098f 263e 2729 a53d
000003d0: 5ec3 1b3e c53e 1f3e fec0 ed3d ccd2 ec3d
000003e0: 50c0 88bd 10ff 5f3c 5e40 b7bd 36b6 f2bc
000003f0: 997b 00be 5321 0dbc 8480 353d d018 193e
-0.14051658 -0.05328428 -0.11257636 0.08392988 0.0812847 -0.10440203 -0.13231334 -0.10542286
-0.024241164 0.0014057606 0.03374563 -0.14339311 -0.118559524 -0.09453154 0.058367815 0.014585825
-0.018618556 0.15785664 0.03145902 0.1548965 -0.048583403 -0.041749474 0.08857195 -0.10843678
-0.024290401 0.13162777 0.006229388 0.08509536 0.04332277 0.14813426 -0.019806279 -0.020486653
0.10250001 0.061378438 0.07447676 -0.10454445 -0.015732348 0.13679582 0.03421106 0.12940598
-0.06794888 0.13812518 -0.042623237 0.045167685 -0.053324442 -0.039515153 0.13805124 0.038127515
0.14001517 0.043206763 -0.0588786 -0.14129195 -0.109243065 -0.104641885 -0.067856066 0.12274924
0.018356053 0.01894924 -0.13987805 -0.027567877 0.080328345 -0.09983635 -0.13464502 -0.021183787
-0.124331534 0.15297784 0.0025987327 0.06317836 0.075694114 0.026129143 0.11234149 0.092354044
0.17505933 0.15703548 -0.14201936 0.06728173 0.12539978 -0.044469476 0.17315087 -0.1129673
-0.15751866 0.044444274 0.13954465 -0.026259216 0.1301852 -0.07990198 0.114258274 0.14037454
0.1231634 -0.0819848 -0.15893097 -0.15143391 0.005212307 -0.012217952 -0.016571848 0.016292363
-0.06604601 0.0011584483 -0.011637434 -0.054313947 -0.07391906 0.061132353 -0.053712238 0.06882575
0.08152014 0.10793322 0.026729614 -0.15506084 0.09090862 0.03749533 -0.02180736 0.1652261
0.13466091 0.10588893 0.16473515 0.13315482 -0.13022065 -0.10428403 0.09169568 -0.16399999
-0.13132156 0.05638975 -0.021885023 -0.14112714 0.16490948 0.04736812 0.0021788627 0.14170282
0.021407505 -0.067086995 0.12167956 0.0186778 -0.05961324 0.10865951 0.024977727 -0.14289193
0.051643625 -0.17645358 -0.062817514 -0.007984746 -0.021762863 0.17596947 0.14487773 -0.16432698
0.09030029 -0.14876206 0.054599345 0.050161224 0.065128684 -0.011039051 -0.11729447 -0.10804344
-0.028632563 -0.09063085 0.0085478695 0.014903992 0.050874427 -0.11874757 0.015694056 0.07648416
-0.0942978 0.030500652 -0.14939694 -0.042215187 0.06383173 -0.17370467 0.008457392 -0.047756728
-0.08045635 -0.09340839 -0.12922958 -0.14793497 0.13962448 0.1707861 0.08817384 0.14351672
-0.04854636 -0.04357635 -0.070431285 -0.09184603 -0.14829504 -0.13233759 -0.0646689 0.15055668
0.10792735 -0.051379994 0.051712185 0.1550555 0.004848595 0.1456669 -0.13816719 -0.033407304
0.11779205 0.06913054 -0.032249868 0.027703717 0.121685006 -0.021809973 -0.15433729 0.12576441
-0.002279833 0.06775145 0.15829356 0.11532849 0.09741072 -0.044422835 -0.092557065 -0.09361085
-0.1580562 0.039850812 0.0058756024 0.04272793 0.13525479 -0.01106981 -0.15480168 -0.083065644
-0.108961485 0.10920471 0.045741957 0.08307825 0.1078244 -0.06202392 0.031187553 -0.16110407
-0.03152877 0.11201587 0.10712691 0.16919011 -0.10203836 -0.11882143 -0.09554325 0.094144285
-0.07148839 0.02845345 -0.16366999 0.13531657 -0.002791601 -0.15357175 0.10018294 0.013156061
-0.15665346 -0.009129737 0.16265501 0.0806449 0.15211245 0.15551288 0.11609076 0.11563644
-0.06677306 0.0136716515 -0.08947824 -0.0296279 -0.12547149 -0.008613902 0.044312015 0.14950871

simplicial_nn.0.W2 f4 [5, 1, 64]
00000000: a72f ed3c bf38 043e 454f 0f3e da35 18be
00000010: 45a2 1cbe 3738 1fbd f77b 08bd 8073 17be
00000020: 707e 653c 80e0 4b3d 7bda 263e b70f 38bd
00000030: 1a92 26be 677f 1c3e 9975 68bd a155 8bbd
00000040: 93e7 29be d332 273c 4c94 4e3d 8c59 a73d
00000050: 67ba cebd 89ec c63d 38af f0bd b67a 1f3e
00000060: bb0e 2cbe 6313 65bc f8f4 1a3e 171d 023e
00000070: a0d8 263c 44f9 a2bd d911 ab3c b141 13be
00000080: f15e 2c3e 4558 59bd 9cbc 1b3d acdc 113e
00000090: 835b 25be 5e56 a13c 6657 88bd 1a1a 273e
000000a0: 1860 acbd c5a0 46bd 10e3 b73c f4da 54bd
000000b0: 9d81 a5bd 9089 f9bd 60f2 013e 436c d53d
000000c0: 3501 1ebe c473 9bbd 0258 b63d 5a75 02be
000000d0: bd9f 26be 4be8 eeba 9741 303e 2485 ae3d
000000e0: e79b b7bd e0e8 3c3c 9506 323e 04c2 30be
000000f0: 9a37 093e 9ca5 9d3d 9a65 813d c48d 25be
00000100: 5eab 0f3e d85a b33c 2c38 ddbd 1d05 eabd
00000110: 918f adbd 25ac c6bc 2d52 02be 7cd2 093d
00000120: 40d9 19be 7c0a 40bd e51a 2cbe 7554 1dbd
00000130: 16b8 ca3d a021 aebd df3b cd3d 9193 ce3d
00000140: eab6 f6bb 725c e9bc 1083 25bc a737 23bd
00000150: 42e6 d03d 9ee7 22be 9a7e d03d 2e93 783d
00000160: f9aa 153e cfad 0e3e 75ae aebc 0226 983d
00000170: ca61 96bd 2636 8abd bbdb 773c e35b 083e
00000180: 685d 903c 1c8d 15be 2b81 0d3e 9722 3c3d
00000190: fea5 67bd 48ec 34bd 071a 7ebd b786 24be
000001a0: eee1 afbd 2c2e 5d3c 971a 223e a9c0 cfbd
000001b0: 522f 1e3e be9c bf3d 893c abbd 4585 763d
000001c0: d2c6 19be 5331 cebd 941f 343d a0ca 2ebe
000001d0: 274f ae3d d86a 9a3b 32e2 aa3d bb0d 1abe
000001e0: 557a a6bd c8d4 553d 3164 2c3e ca4b 243e
000001f0: d0cc e83d d4fd bc3d 118e 2b3e d1e8 27be
00000200: e429 d03d f45a bdbd 6692 963d 07b2 2cbe
00000210: 5b7a b2bd a19a f53d 6f74 bd3d 8706 223e
00000220: 5c46 753d dc95 28bd f4da 4fbd 41c6 ba3d
00000230: 0ba0 22be d405 90bd eb9d a3bc 0d64 afbd
00000240: 9092 eb3b 3c4d 233e b36d 8dbd 3b00 1fbe
00000250: 6751 17be e49e 953d 5832 96bd a9f2 3d3d
00000260: 6bce a63d a436 63bd 7125 a43d dffd 20be
00000270: 3878 cabd 9769 053e a135 d13d 149d 7f3d
00000280: ca75 a73d 348b 80bd e8bf 443d 9ddd f6bd
00000290: 14bb 4c3d b5ec e9bd dc42 e6bb 4f38 e93c
000002a0: 04bf eabd 2a2b fc3c 6556 2f3e bbb6 2b3e
000002b0: dbf7 b33d 42e1 5fbd f559 613d 0bfd 243c
000002c0: a992 ccbd 24f2 c03d c3d9 11be bac5 213e
000002d0: 3122 8dbd fade 12bd 0572 afbd e99a 49bd
000002e0: d7cd c63d 0309 1f3e d2e2 e4bd fe10 193e
000002f0: 60e5 1c3e 9a10 77bd e9f4 1ebe b672 f63d
00000300: b267 15be ed2a 203e a24b 12be 924b 873d
00000310: ffeb 2f3e fc12 a4bd 6e2d 1f3e d84f 09bd
00000320: 5408 eebd 5054 fbbc 26c8 b03d 45ad 153e
00000330: add1 0d3e aa8d 6bbd 18b8 d93d 6d16 aabd
00000340: fe08 e13d d9b0 fdbc c09d 2fbc ac02 913d
00000350: 1cdb 7e3d 81aa 203e 2c88 1ebd eb78 c13c
00000360: ec27 7bbd 6887 133c 1952 07bd 6e49 0abe
00000370: 7872 b5bc 8fcc 1c3e 8905 24bc 0195 99bd
00000380: 149a 2a3d fb57 c1bd 3dad 163e 65e0 fbbb
00000390: 801d f1bc dd7c dd3c 90ff 10be 768e febd
000003a0: b5c6 bf3d 2f94 efbd d7c8 9abd a36b 06be
000003b0: 91f5 43bc 6948 ffbd 731f 2b3e 8fb6 bc3d
000003c0: 2ab5 f0bd c009 673c 685e bb3c 9907 313e
000003d0: 7187 5c3d f605 06bd 7d44 22be ecf9 e0bd
000003e0: 6e53 993d 7f4a 96bd 1069 183c 397d f9bd
000003f0: 5a65 0dbe a7c6 30bd 3093 0e3c f42e b3bd
0.028953386 0.12912272 0.13995083 -0.14864293 -0.15296276 -0.03887197 -0.033321347 -0.14790154
0.014007196 0.049774647 0.16294281 -0.04493686 -0.16266671 0.15282975 -0.056752775 -0.06803442
-0.16592245 0.0102049885 0.050434396 0.081713766 -0.10094147 0.09713084 -0.1175217 0.15574154
-0.16802494 -0.013981673 0.1513251 0.1270641 0.010183483 -0.079577 0.020882534 -0.14380528
0.16833092 -0.053062696 0.03802167 0.14244336 -0.1614819 0.019694503 -0.06657295 0.1631855
-0.08416766 -0.048493166 0.022447139 -0.051966622 -0.080813624 -0.12184441 0.12690115 0.1042104
-0.15430148 -0.0759044 0.08903505 -0.12740079 -0.16271873 -0.0018227188 0.1721252 0.08521488
-0.08965283 0.011530131 0.17385323 -0.17261511 0.13400117 0.07697603 0.06318207 -0.1616736
0.14030215 0.021893904 -0.108017296 -0.114267565 -0.08474649 -0.024252007 -0.1272666 0.033648
-0.1502428 -0.046885 -0.16807134 -0.038410623 0.09898393 -0.08502507 0.10021185 0.1008674
-0.0075291293 -0.028486464 -0.0101020485 -0.039847996 0.10200168 -0.15908667 0.10180397 0.060687236
0.14616002 0.1393349 -0.021323422 0.074291244 -0.073428705 -0.06748609 0.015128071 0.13316302
0.017622665 -0.1460461 0.13818805 0.045931425 -0.056554787 -0.044170648 -0.06203654 -0.16067015
-0.085880145 0.013499778 0.15830456 -0.10144169 0.15447739 0.09356068 -0.083611555 0.06018569
-0.1501725 -0.100680016 0.043975428 -0.17069483 0.08511191 0.004712444 0.083439246 -0.150443
-0.08128802 0.052204877 0.16835095 0.16044536 0.1136719 0.092281014 0.16753413 -0.16397406
0.1016424 -0.092458636 0.07352142 -0.16864787 -0.08714744 0.11992384 0.092507236 0.15822802
0.059881553 -0.041158542 -0.05074592 0.09119845 -0.15881364 -0.070323616 -0.019972762 -0.08564005
0.0071891025 0.15947431 -0.06905689 -0.15527432 -0.14777146 0.073056966 -0.07333821 0.046373997
0.0814484 -0.05547203 0.08014954 -0.15721844 -0.09886211 0.1302856 0.10215307 0.06240566
0.08176763 -0.06276551 0.04803458 -0.12053988 0.0499831 -0.114221014 -0.007027013 0.028469233
-0.114622146 0.030782301 0.171228 0.16768925 0.08787509 -0.054658182 0.05501743 0.010070096
-0.09988911 0.09421185 -0.14243226 0.15798083 -0.06891287 -0.03585718 -0.085666694 -0.04922
0.097072296 0.15530781 -0.11176075 0.14947888 0.15321875 -0.060318567 -0.15523113 0.12033598
-0.14590338 0.15641375 -0.14286664 0.06606211 0.17179869 -0.080114335 0.15544674 -0.03352341
-0.11622682 -0.030679852 0.08631925 0.14616878 0.13849516 -0.05750815 0.10630816 -0.08305059
0.10988043 -0.030968117 -0.010718763 0.07080588 0.062220678 0.15690042 -0.038704082 0.023617228
-0.06131737 0.009004451 -0.03303728 -0.13504574 -0.02214931 0.15312408 -0.010011085 -0.07499123
0.041650847 -0.09440609 0.14714523 -0.007686662 -0.029433012 0.027037079 -0.1415999 -0.12429516
0.09364072 -0.11698186 -0.075578384 -0.13126998 -0.011960403 -0.12464983 0.16711216 0.09214508
-0.11753304 0.014101446 0.022872165 0.17288055 0.053840104 -0.03272053 -0.15846439 -0.10985169
0.07486616 -0.07338428 0.009302393 -0.121820875 -0.13808194 -0.0431582 0.008702084 -0.0874919

simplicial_nn.2.W0 f4 [64, 64]
00000000: e309 00be 48f6 97bd af7d 1fbe d0ee fabc
00000010: 14de aa3d 3f18 43be 55a7 623e a134 00be
00000020: 9a4c a1bd 804f 543b 5a16 89be 66ef 4c3e
00000030: d8b0 813d a41d 3fbe 57c7 9bbe b756 6fbe
00000040: b013 8a3e 2833 6eb9 d0e3 e93d a2e6 6d3e
00000050: 63c8 943e d12b 353e 64cd 833d 898b 073e
00000060: 7ff7 0e3e 2af5 d5bc c6d8 1abe adf1 823e
00000070: eb30 2b3e 5b41 293e 0034 6c3a 0b07 8bbc
00000080: e385 23be c7a3 0f3c 8646 f83c 3f90 933e
00000090: 443c 88be 890f 0bbe 40ff 3abe 7472 8c3d
000000a0: 2397 233e 9a25 b03a a7a6 1f3e bdf9 10bd
000000b0: 2d2a 213d b814 063e 1e9d 563e 1800 80be
000000c0: 3edb 953d e519 f6bd e61e 7fbe dfcd 8f3e
000000d0: 1e16 5f3e a952 473e 3a09 463e cac9 6c3e
000000e0: 898d 2abe 9379 24be 772f 463e b067 ce3c
000000f0: 63fa 7abe c665 663e f66f c7bd 1890 8abd
00000100: 7818 873d ea95 8ebd 4e07 e8bd d7f7 32be
00000110: e646 4a3e 4427 abbd 5c91 863d 5034 b2bc
00000120: e40c 393e 8091 62bb 0e0e 593e ff1d 973e
00000130: 9771 8a3e 808e 4a3b a76e 823e 7036 203e
00000140: 3fed 27be 7045 b8bc 0801 5bbe 7a5b 6f3e
00000150: b00c e7bc 2b48 90be ce8d 90bd 9147 20be
00000160: 31f8 893e 7014 fd3d bce0 cf3d 38b6 49be
00000170: 00a4 9f39 28a5 583d 7c5c 1f3e d249 563e
00000180: e8a6 e8bd 8081 6f3d 40d8 563c 1d7b 89be
00000190: 7aee 8ebd de99 263e ce68 393e 435b 91be
000001a0: 540c c13d f52e 84be 7981 8ebe 7878 51be
000001b0: 9a8e 36be bc4e d83d 2e01 723e dbc6 933e
000001c0: 37c7 89be c668 f8bd d41e 0cbe b066 4d3d
000001d0: 565f 20be f12c 933e 5604 40be 79dd 02be
000001e0: 284c bfbd 84da 223e aa2b 1fbe 6142 983e
000001f0: daac 12be 29d4 833e 80b3 e03d efa6 973e
00000200: 86fc 613e a001 23bc a4fb 2d3e 024b 67be
00000210: 48af 093e 006e f6bc 8050 123c 52c4 6abe
00000220: 0c08 f3bd c86b f53d 30aa b43c 3005 2f3e
00000230: 9a58 5cbe 7a42 cbbd dc7b 3b3e 50d5 b8bd
00000240: 638b 803e 8027 e23b 00d0 d7ba b51e 62be
00000250: 283f 6fbe c08c 04bd e9fe 813e a8a0 94bd
00000260: 5440 453e 9487 32be cc7e 79bd 1276 88be
00000270: ca2a d7bd 7a1c 1e3e 3c6b 9bbd 58c1 003d
00000280: 05d3 89be 0751 7abe 8aa1 88be 12d3 8cbe
00000290: 6003 60bd ee43 9fbd d853 013d f141 55be
000002a0: ded7 26be 7068 56bd b5f2 853e 9040 0abe
000002b0: 0e17 093e 65d1 9b3e 7661 5cbe 8018 43bc
000002c0: 70de e4bd beec 5b3e 961a 643e d03e 59bd
000002d0: 42f0 5abe 9486 3ebe b85e f5bd c00e 87bb
000002e0: 7f8d 11be 06e8 71be edfd 13be 22a8 adbd
000002f0: 5e9d 3b3e 63ac 20be c11b 1ebe 82e3 513e
00000300: 14c5 7bbd 70aa 88bc 7246 133e b60d 7a3e
00000310: a082 d6bc 03cd 2dbe 474e 24be 7a1c febd
00000320: 48a2 07bd c60f d6bd 4627 e9bd 17f0 863e
00000330: b659 c2bd dc23 3bbe 72fd e1bd 4839 273e
00000340: 491c 87be 90d9 dabc 888d 0d3d 7a40 553e
00000350: 5f79 0ebe fe37 5b3e f86b 27be 8081 bfbb
00000360: c80a 283e 4d75 9cbe 3ac5 7fbe d0f0 843c
00000370: 602d 8cbe 0c72 b63d 0d9a 8b3e 9055 e4bc
00000380: 40db 00bd 849b 59be 22fd 7d3e b022 10bd
00000390: 4bfd 15be 4b03 94be 520b 86be e037 7fbc
000003a0: 9f0c 803e 06e0 143e a51c 25be 8052 19bc
000003b0: d864 bc3d 57fa 903e 856e 8d3e f441 3b3e
000003c0: 4263 f0bd a0af 773c 28a4 2c3d 6847 7b3d
000003d0: 707b 1ebe 40ad 3fbc 8af5 633e 4038 6abc
000003e0: dc09 1d3e 5cab 133e 93fe 0dbe 3aa9 2dbe
000003f0: 90f8 653d b8d3 d13d c871 983d 0052 8cbb
-0.12503771 -0.07420021 -0.15575288 -0.030631453 0.08343139 -0.19052218 0.22134145 -0.12520076
-0.07875939 0.0032396019 -0.26774865 0.20013198 0.063325584 -0.18663651 -0.30425522 -0.23372923
0.26968145 -0.00022716506 0.11420405 0.2323251 0.29059133 0.17692496 0.064356595 0.13236822
0.139616 -0.02611788 -0.15121755 0.2557501 0.1671788 0.16528837 0.0009010434 -0.016971132
-0.15969042 0.008767075 0.030307066 0.2882099 -0.2660848 -0.13580145 -0.18261433 0.06857768
0.15975623 0.001343894 0.15590917 -0.03539442 0.039346863 0.13093841 0.20958373 -0.25000072
0.07317208 -0.12016658 -0.2491413 0.28086755 0.21785781 0.19465126 0.19339457 0.23123851
-0.16655554 -0.16062002 0.19354044 0.025195926 -0.24509577 0.22499761 -0.09738152 -0.06765765
0.06596464 -0.069621876 -0.11329518 -0.17477356 0.19753608 -0.08357099 0.06570694 -0.02175346
0.18071324 -0.0034571588 0.21196768 0.29515073 0.27039787 0.003090769 0.25475046 0.15645766
-0.16399096 -0.022494048 -0.21387112 0.2337474 -0.028204292 -0.2818006 -0.07058297 -0.156523
0.26947168 0.12357414 0.101502866 -0.19698417 0.00030449033 0.05289188 0.15562624 0.20926598
-0.1135996 0.05847311 0.013113081 -0.2685174 -0.069790795 0.16269633 0.18106386 -0.2838994
0.094261795 -0.25817075 -0.27833155 -0.20456111 -0.17827836 0.105618924 0.23633263 0.28862652
-0.269098 -0.12129359 -0.13683635 0.05014676 -0.15661368 0.28745225 -0.18751654 -0.12779798
-0.093406975 0.1590367 -0.15544 0.29738143 -0.1432375 0.25747803 0.10971737 0.29619548
0.22068986 -0.009949118 0.16990525 -0.22587207 0.1344577 -0.030081749 0.0089303255 -0.22926453
-0.11866769 0.11983448 0.022053808 0.17091823 -0.21518174 -0.09924789 0.18308967 -0.09025061
0.25106344 0.0069016814 -0.0016465187 -0.22082026 -0.23363936 -0.032360792 0.25389794 -0.07257205
0.1926282 -0.17434531 -0.06091194 -0.2665258 -0.10506208 0.1544055 -0.07588813 0.031434387
-0.26918808 -0.24444972 -0.26685745 -0.27504784 -0.05469072 -0.077766284 0.0315741 -0.20825936
-0.16293284 -0.052345693 0.26161733 -0.13501191 0.13387701 0.30433193 -0.21521553 -0.011907697
-0.11175239 0.21477029 0.22275767 -0.05303842 -0.21380714 -0.18606025 -0.11980957 -0.0041216314
-0.14214133 -0.23623666 -0.14452334 -0.084793344 0.1832175 -0.1569076 -0.15440275 0.20496944
-0.061467245 -0.016682833 0.14382342 0.24419293 -0.026185334 -0.16972737 -0.16045485 -0.12407775
-0.033113748 -0.10452227 -0.11384444 0.2635505 -0.09489767 -0.18275398 -0.11034669 0.16330445
-0.26388767 -0.02671507 0.034558803 0.20825377 -0.13913487 0.21408078 -0.1634978 -0.005844295
0.16410363 -0.30558243 -0.2497758 0.01622811 -0.27378368 0.089084715 0.2726597 -0.02787283
-0.031459093 -0.21250731 0.24803594 -0.03518933 -0.14647405 -0.28908762 -0.26180512 -0.0155772865
0.2500963 0.14538583 -0.16124208 -0.009358048 0.09198922 0.28315994 0.27623382 0.18286878
-0.11737682 0.015117556 0.04214874 0.061347395 -0.15476775 -0.011699021 0.22261634 -0.014295638
0.15335792 0.14420837 -0.13866644 -0.16959086 0.05614525 0.1024546 0.07443577 -0.004282236

simplicial_nn.2.W1 f4 [5, 64, 64]
00000000: 3d5e 06bd e6e1 15bd 7e0d 913c b22a a63c
00000010: 170c 4ebd e64e 8f3c 8ad8 193d 982f cc3b
00000020: 9e6d a43c 50b0 96bc 9517 c8bc 7cea b2bc
00000030: 4ecc f33c ecb0 b3bc c3a0 d33b b085 79bc
00000040: 0702 593b a360 9ebc 9353 0e3d e38d 4ebd
00000050: f708 31bd 4276 4fbd e56e cebc c8e6 ea3c
00000060: 2e01 193b dcb5 f83c 7ff8 b4bb 0981 4a3d
00000070: 52fa cb3c 24d8 c03a 0b1e 3fbd 6444 4d3d
00000080: 86dd 1d3d a50f 44bd 91e3 4e3c a466 5e3c
00000090: fe6a b93c 531e bc3c ce43 2abd 809e 41ba
000000a0: 75ac d63c 87da 2abd 4a69 dcbb b8aa bfbc
000000b0: 3b87 263d 6c96 88bc 7897 bb3b 5050 993b
000000c0: 277c 60bc 0311 11bd 4cb3 92bc 74c5 97bc
000000d0: f28f e73c 4416 85bb a078 233d a21f 993c
000000e0: 7ee8 d13c 3f90 af3c c1ed 2fbd a08e 3fbc
000000f0: 7862 fbbb 1d40 3bbd af10 2dbd e894 473d
00000100: f0e0 5a3b 6e0a 933c 5212 d33c 80bc 14bc
00000110: ef9d fcbc f62e 47bd 82ce fcbc a6aa 94bc
00000120: 6753 123d c7d9 353d 40ac ecbb 8ef7 963c
00000130: 3c45 373c 837d 3c3d 3fc2 48bd b2f3 b33c
00000140: d465 42bc 7904 013d 2cb9 57bc 7c2c 62bc
00000150: c88f d43b 6d7e fdbc f1f5 26bd 20a5 01bb
00000160: bcdd 48bc 8b99 54bd 781e 09bd c8dc 193c
00000170: 2a7a 1ebd 7af5 993c 3ca6 503c ebee 3cbd
00000180: 04dc 523c eeb5 31bd fc67 3dbd 062d ad3c
00000190: cfdd 543d 2942 333d db63 46bd 283b 6fbc
000001a0: 8625 0cbd 92c9 1cbd aca4 babc 65d9 4cbd
000001b0: 3d01 053d ce8d fe3c f85b 3fbd 3ce3 57bc
000001c0: 44c0 23bd 5a61 903c 0cee 503c e93f 0f3d
000001d0: 6eb3 f53c f431 77bc fb5e 313d 0252 c73c
000001e0: 8fb8 0b3d c886 e73b 24be 63bc fe40 9d3c
000001f0: 2871 15bc fc0f 6dbc 43d0 133d 5a0c 913c
00000200: bc7f 09bc 4407 febc e18d 2b3d a125 cebc
00000210: 7e97 f13c 603b 353b af62 2f3d 3da5 153d
00000220: d85c 28bc 762f d83c baa4 d63c cbf0 31bd
00000230: d84b b2bc 8497 4abd cc65 1e3c e0da 6ebc
00000240: a631 f13c e0a2 213b f4de 09bd 1f22 c6bc
00000250: e301 413d 943e 273c 975d 49bd 5d4f 2bbd
00000260: 19c7 183d 6f5f 3cbd 233b 4ebd 97a1 533d
00000270: e0f1 eb3a 7c1f 1abc e924 bbbc 01b8 0b3d
00000280: e7f0 0a3d 253b 073d 6e60 b43c dbe4 523d
00000290: 10e1 1ebc fde0 c2bc 9e42 803c d6b7 19bd
000002a0: 42a4 ae3c 37b8 063d e6a0 b13c cced 02bd
000002b0: 3371 18bd 14f5 43bd 045e 1cbc f44b 17bd
000002c0: 2f87 233d b48a 303c 59db 4abd 4468 673c
000002d0: 925c e0bc 378b 3ebd a58c 4dbd 3c5f 023c
000002e0: 04ad 2c3c f07c 9b3b d8a1 d3bc 569c f23c
000002f0: 98b4 62bc f567 393d 8471 5b3c 4f17 49bd
00000300: 3991 343d e6aa 8f3c 1279 8c3c f346 15bd
00000310: 5afb 873c 403e 2bbd 4ecf f63c b1db 263d
00000320: b7b4 52bd fcf8 7d3c d608 dbbc d586 103d
00000330: ce86 18bd 6c44 69bc 089b edbb 590c 1c3d
00000340: 4df9 213d cd9e 4a3d 7c1b 92bc 09d8 c9bc
00000350: 716f 24bd 945a 2a3c 42ca c33c 265e af3c
00000360: 3495 9cbc 10fc 0c3b 302c 10bb 2e29 eabc
00000370: 4cf8 6b3c c04c 033b 1827 c8bc a0d9 99bc
00000380: cc71 63bc 7af5 903c 2465 5c3c d010 c73b
00000390: 3f6f bfbc 7cd9 353c c043 f33a 6b5e 523d
000003a0: ead4 8e3c 2e29 16bd e028 32bc b016 af3b
000003b0: 6d71 073d 75d9 003d a208 8d3c 24fb 1ebc
000003c0: 1ca1 5c3c dd94 debc cda1 47bd 28a3 fa3b
000003d0: e9a1 293d cd6b 533d 6efb 31bd 50c7 973b
000003e0: c5a6 4abd e445 75bc 84eb 86bc 482b 75bc
000003f0: 4fce 433d 6d5c 3a3d 9e62 b23c cbc7 0b3d
-0.032804716 -0.036592387 0.017706629 0.02028403 -0.0503045 0.017493676 0.037560023 0.0062312596
0.0200718 -0.01839462 -0.024425307 -0.021840326 0.029760506 -0.021934949 0.0064583733 -0.0152296275
0.003311278 -0.01933319 0.03474767 -0.050428282 -0.04322144 -0.05064989 -0.025199363 0.028674498
0.002334665 0.030360155 -0.005522787 0.049439464 0.024899635 0.0014712852 -0.04665951 0.05011405
0.03854134 -0.047866482 0.012627498 0.013574276 0.022634026 0.022963678 -0.04156857 -0.0007385984
0.02620528 -0.04171231 -0.0067264186 -0.023396835 0.04065631 -0.01667329 0.0057248436 0.0046787634
-0.013701475 -0.035416614 -0.017907761 -0.01852677 0.02826688 -0.004061492 0.03990996 0.018691842
0.025623556 0.021431087 -0.04295135 -0.011691719 -0.0076716505 -0.04571544 -0.04225224 0.048725992
0.0033398233 0.01794931 0.025765572 -0.009078145 -0.030837027 -0.04862877 -0.03086019 -0.018147778
0.03572407 0.04439714 -0.0072226822 0.01842859 0.01118594 0.046018135 -0.049013373 0.021966789
-0.011865098 0.031498406 -0.013166707 -0.013804551 0.0064868666 -0.030944074 -0.04076189 -0.001978226
-0.012259897 -0.051904242 -0.033476323 0.009391017 -0.038690723 0.01879381 0.012734946 -0.046126287
0.012869839 -0.043386392 -0.046241745 0.021139633 0.051969346 0.043764267 -0.048435073 -0.014601506
-0.034215473 -0.03827817 -0.0227836 -0.05001201 0.032471884 0.031073477 -0.046718568 -0.0131767355
-0.03997828 0.017624546 0.012752067 0.03497306 0.029992785 -0.015087593 0.04330347 0.024331097
0.034111556 0.0070656277 -0.0139003135 0.01919603 -0.009121217 -0.014469143 0.036087286 0.017706085
-0.008392271 -0.031009324 0.041883353 -0.025164427 0.029491182 0.0027653798 0.04281872 0.036534537
-0.010276042 0.026389819 0.026201595 -0.04344253 -0.02176468 -0.049460903 0.009667825 -0.014578551
0.02944262 0.0024663731 -0.03365989 -0.024186192 0.04712094 0.010207791 -0.04916152 -0.041823734
0.03729925 -0.04598945 -0.050349366 0.051667776 0.0018001162 -0.0094069205 -0.022844749 0.034111027
0.03392115 0.03301539 0.022018638 0.051487785 -0.009697214 -0.023788923 0.015656766 -0.037528835
0.021318559 0.032890525 0.021683168 -0.031965062 -0.03721733 -0.047841147 -0.009543899 -0.03693767
0.039923843 0.010775257 -0.049525592 0.01412398 -0.027387891 -0.046519484 -0.050182957 0.007957276
0.010539297 0.0047451183 -0.025834009 0.029615562 -0.013837002 0.045265157 0.013393763 -0.049094494
0.044083808 0.017537545 0.017147575 -0.036444616 0.016599346 -0.041807413 0.030128147 0.040736858
-0.051441874 0.015501257 -0.026737612 0.035284836 -0.037237935 -0.014237504 -0.007251147 0.038097713
0.039544392 0.04946785 -0.017835371 -0.024639146 -0.04014534 0.010397572 0.023900155 0.021407198
-0.019114114 0.0021512546 -0.0021998994 -0.02858409 0.01440246 0.002003476 -0.024432704 -0.01878053
-0.013882112 0.017695177 0.013451848 0.0060750023 -0.023368476 0.011099216 0.001855962 0.051359575
0.01743551 -0.036660366 -0.010874003 0.0053432807 0.033067156 0.031457383 0.01721603 -0.009703431
0.013466146 -0.027170593 -0.04873829 0.0076488443 0.041414175 0.05161648 -0.043452673 0.004631914
-0.04947545 -0.0149702765 -0.016469724 -0.014963932 0.047804173 0.0454983 0.02177554 0.034126084

simplicial_nn.2.W2 f4 [5, 64, 64]
00000000: 6218 ff3c 9d54 b9bc dc89 2bbd 74b8 2e3c
00000010: 400f 383b 9628 e13c 51e8 993c 23eb 19bd
00000020: 80ab 103a 00e0 6b3a 78da 9dbc 46ae 0bbd
00000030: 2410 1fbd 8061 13bd d405 be3c e7df 1c3d
00000040: 38f2 9ebc 7015 e43c 6bb9 48bd a95c a73b
00000050: cea5 04bd 8f0b b83b f728 193d 2015 90bc
00000060: 1fda aebc f056 013d c6f0 7fbb 2868 de3c
00000070: f7fb 533c 0aaa 153d 0c15 59bc ee61 333d
00000080: 2a6d 043d 4021 093d 9c6f 913b dda6 80bc
00000090: 0c2b 2f3c cf69 babc 4052 753b 6851 b9bc
000000a0: 3618 35bd b1c2 f93c a648 273d 8ff0 83bc
000000b0: 4f27 3c3d d06d 0fbd 423e b73c c765 433d
000000c0: 8e83 9c3b bf3e 3f3d 6acd a03c 95b5 47bd
000000d0: 66cc 09bd d48f e03c d38e bebc 0678 e43c
000000e0: 6e17 a13c 424c 2fbb 0381 af3c 079f 363d
000000f0: 53e8 f63c b43b 2cbd c506 58bc 90cb 373d
00000100: b199 4cbd 06c7 b53c f4e1 9ebc 426c 16bd
00000110: 49b5 44bd 067b babc 0360 403d 0685 8e3c
00000120: d069 c83b bf4d 123d 28a6 46bc 4f3d f3bc
00000130: 459d 0cbd d20d 45bd 4636 e33c e0c3 b93b
00000140: e124 22bd 8087 af3a a58a ccbc c573 443d
00000150: dcd0 3b3c cab9 f03c 087b 5dbc ee97 80bc
00000160: 3ecd ba3c 9b3d 513d 6ae4 983c 1b24 aebc
00000170: 8313 0a3d 5b73 16bd 8433 59bc 8851 02bd
00000180: ec44 18bd 302a 15bd 5080 63bc 0229 b23c
00000190: 417c 363d 6044 fe3b 889c 96bc 1d6c 063d
000001a0: a263 c53c 0020 10bb 2c30 3e3c f051 09bd
000001b0: 6cda 223c 65c7 2a3d 48ad bcbc 3d9d 153d
000001c0: 7f9b 48bd b6f4 95bc 800f 33bb 3961 103d
000001d0: 5861 c0bb 7b76 3b3d a708 42bd 9299 ca3c
000001e0: c19d 1dbd 505b 08bc 8e7a fc3c b4ce 1cbd
000001f0: 41ff 433d 80bf 39bc 022e bc3c f274 e53c
00000200: 6c0f 49bc 9392 543d f67d 08bd 96c1 813c
00000210: 920a 983c e2af d8bc 4fa6 1c3d 2c91 19bc
00000220: 3c33 763c dc38 25bc 322c efbc 504d 9f3b
00000230: 0059 5c3b 242a 0abd 7c04 5bbc 65e1 15bd
00000240: ba11 ebbc 4ea0 833c 38ba 18bd 0ac2 c23c
00000250: 114e bcbc e84f 1dbc 7f63 293d 89f4 eebc
00000260: 9dab 293d a2bc 803c ea3c 36bd 70be 00bc
00000270: 80c3 073c 6a68 92bc 383b 99bc 1682 fa3c
00000280: 861b bd3c 527d 9a3c e4eb 2f3c 5c7d e7bc
00000290: 74fb 1cbc a894 1ebc 0ff2 39bd e08b 17bc
000002a0: 5a8a a2bc b970 173d f968 463d 5cc0 50bd
000002b0: 8014 483b 6201 80bc 9757 293d 7e98 8d3c
000002c0: 1ad1 ba3c d66d 42bd 66c0 86bc 7294 833c
000002d0: 0fcd 183d 70c8 96bc 4045 e9ba 420c 28bd
000002e0: 7d6e f5bc 9813 113c 00fb 51bd f265 fb3c
000002f0: e02b 9fbb 6686 953c e884 8cbb 496b 073d
00000300: 8033 1bbd 840e 70bc 793c 3fbd aece 993c
00000310: 6835 96bc 8435 7f3c 27b4 2ebd 7e2a 863c
00000320: 5c35 3ebc 2e3c d93c 6caf 703c eed6 15bd
00000330: f982 433d d681 c33c e3d6 453d 1102 503d
00000340: 329c 9abc 160e 80bc d08f 82bb 1827 a1bc
00000350: df12 293d 16f5 a43c ee7b 823c 8625 8c3c
00000360: 9c31 5dbc c57e 50bd 848b 71bc 48a7 f2bc
00000370: dc7b 62bc c886 4abd 1c4f 583c ceb7 de3c
00000380: 74e5 7c3c 0517 ddbc c4bd 02bd 2622 adbc
00000390: 44cf 65bc f857 7abc 8510 39bd 04d8 10bc
000003a0: 2337 babc 2d25 3fbd a6c5 4abd e089 d9ba
000003b0: 386d 1e3c b47b 9dbc 9db9 443d 7774 fbbc
000003c0: c600 dd3c 20d9 87ba 6c4a 65bc 0062 13bc
000003d0: a32c b7bc b414 37bd 2700 55bd ffbf 1a3d
000003e0: ac36 29bd 8612 a53c ac19 8fbc 1631 f03c
000003f0: 7a96 91bc 80b6 76bc 720c 52bd b0f5 133b
0.031139556 -0.022623355 -0.04187952 0.010664094 0.0028085262 0.027485173 0.018787535 -0.03757776
0.00055187196 0.0008997917 -0.019269213 -0.034101747 -0.038833752 -0.035981655 0.023196138 0.038299467
-0.019402608 0.027842253 -0.049004953 0.0051074815 -0.032384686 0.0056166123 0.037392583 -0.017588198
-0.021344243 0.03157705 -0.0039053424 0.027149275 0.012938491 0.036539115 -0.013249647 0.043794565
0.03233067 0.033478975 0.0044383537 -0.015704567 0.0106914155 -0.022755532 0.0037433058 -0.022621825
-0.044212542 0.030488344 0.040840767 -0.016105918 0.045935925 -0.035016835 0.022368554 0.047704484
0.0047764247 0.0466907 0.019629199 -0.048757154 -0.033642195 0.027412333 -0.023261463 0.027889263
0.019664492 -0.0026748334 0.021423822 0.044585254 0.030140078 -0.042049125 -0.013185208 0.044871867
-0.04995126 0.022189628 -0.019394852 -0.036724336 -0.04802445 -0.02276374 0.046966564 0.017397415
0.0061161295 0.035718676 -0.012124576 -0.02969232 -0.03432967 -0.048108883 0.02773584 0.005669102
-0.03958595 0.0013391823 -0.024968455 0.04796197 0.01146337 0.029385466 -0.0135181025 -0.015697446
0.022802945 0.051084142 0.018663604 -0.02125745 0.033710014 -0.036731105 -0.013256911 -0.031816036
-0.037175104 -0.036417186 -0.013885573 0.02174807 0.04455209 0.007759616 -0.018385187 0.03281795
0.02409536 -0.002199173 0.011608165 -0.033525407 0.009939771 0.041694064 -0.023031846 0.036526907
-0.048976418 -0.018305164 -0.002732247 0.03524897 -0.0058709793 0.04576729 -0.047371533 0.024731431
-0.038480524 -0.008322552 0.030820157 -0.038283065 0.04785085 -0.011337161 0.022971157 0.028009865
-0.012271743 0.051897597 -0.03332325 0.01583938 0.018559728 -0.026451055 0.03824454 -0.009372991
0.015026864 -0.010084357 -0.029195879 0.0048615113 0.0033622384 -0.033731595 -0.013367768 -0.036591906
-0.028694976 0.01606765 -0.037286967 0.023774166 -0.022986444 -0.009601571 0.041354652 -0.029169338
0.04142343 0.015714947 -0.044491686 -0.007857904 0.008286357 -0.017872054 -0.018704996 0.030579608
0.023084413 0.018858586 0.010737393 -0.028258018 -0.0095814355 -0.009678997 -0.04539686 -0.009249657
-0.019841362 0.036972735 0.048439953 -0.0509647 0.0030529797 -0.01562566 0.041343298 0.017284628
0.022804786 -0.04746803 -0.016449165 0.016061995 0.037304934 -0.018406123 -0.0017797127 -0.041027315
-0.029959911 0.008854769 -0.051264763 0.03068826 -0.004857525 0.018252563 -0.0042883046 0.0330613
-0.03789091 -0.014651898 -0.04668853 0.01877531 -0.018336013 0.015576724 -0.042652275 0.016377684
-0.011609402 0.026517954 0.014690261 -0.036581926 0.047732327 0.023865622 0.048300635 0.05078322
-0.018873308 -0.015631717 -0.003984429 -0.019671962 0.041277763 0.020136397 0.015928235 0.017107736
-0.013500597 -0.050902147 -0.014742736 -0.029620782 -0.013823476 -0.049444944 0.013202455 0.027187254
0.015435565 -0.026988516 -0.031919256 -0.021134447 -0.014026467 -0.015279762 -0.04518177 -0.008840565
-0.02273137 -0.046666313 -0.0495049 -0.0016596876 0.0096695945 -0.019224025 0.048028577 -0.030695183
0.026977908 -0.0010364391 -0.013994794 -0.008995533 -0.022360152 -0.04469748 -0.0520021 0.037780758
-0.041311905 0.020150434 -0.017468296 0.029320281 -0.017771948 -0.01505816 -0.0512814 0.002257686

simplicial_nn.4.W0 f4 [64, 1]
00000000: 5204 3e3e fee3 89be 8686 403e 84ed a2bd
00000010: 9624 5f3e bcf4 5dbe 6e62 b93a 9a7d cabe
00000020: 9012 80bd bb89 c63e a4e8 e9bb 26b6 a9be
00000030: 36a3 283e 3c06 e93d 0f21 393e 2359 9a3e
00000040: a2c8 0ebe e664 afbe f6ce cbbe 8908 b6bc
00000050: b0eb 0dbd 2b17 103e 50dd 803c 1f48 993e
00000060: 1767 653e 070a 693e 5518 5bbd a4b9 87bd
00000070: fe4d e3bd 11f9 ab3e 9b9c a03e b400 13be
00000080: 5a6c a5be f28b 873d e786 3f3e 89a6 fcbc
00000090: 652d a33e 09a7 fbbc 0e6c 13be 61d4 943e
000000a0: f912 c53e 2e36 a5be 61d3 b13e 9f97 ac3e
000000b0: 278f 98be 9360 d1be 6741 8d3e e296 0d3e
000000c0: 8d3a 52be b62c 883d 7aad 05be b785 cf3e
000000d0: b70d adbe 304a f4bc dd29 12bd 43cb d73e
000000e0: 440c 943d 76ea aabd 6bc0 cb3e 8a63 0a3e
000000f0: 4b8a 1b3e 1852 5a3d 3bc7 a1be 8731 463e
0.18556336 -0.26931757 0.18801317 -0.07955459 0.217913 -0.2167539 0.0014143714 -0.3954895
-0.062535405 0.38776955 -0.0071383286 -0.3314678 0.1646851 0.11378142 0.18079017 0.3014613
-0.13943723 -0.34256667 -0.39806336 -0.022220867 -0.034648597 0.14071338 0.01573053 0.29937837
0.22402607 0.22757731 -0.05349 -0.06627205 -0.1109886 0.3358846 0.3136948 -0.14355737
-0.32309228 0.06618489 0.18703805 -0.030841129 0.3187057 -0.030719297 -0.14396688 0.29068282
0.38491037 -0.32267898 0.34731582 0.33709428 -0.29796717 -0.40893993 0.2758896 0.13827088
-0.20530148 0.06649153 -0.13054457 0.40531704 -0.33799526 -0.029820532 -0.035684455 0.42147264
0.07228902 -0.08345501 0.3979524 0.13514534 0.15189473 0.053300947 -0.31597313 0.1935483

simplicial_nn.4.W1 f4 [5, 64, 1]
00000000: db38 86be 8b89 7d3d 809f 603c 787f 893d
00000010: a0a9 4e3d f493 f83d c3b1 b13e fed9 363e
00000020: 9b3f cc3e 87fc aa3e 374e 123b fee9 3c3e
00000030: f925 9cbe 10d4 343d 3d5c 8b3e 898c 813e
00000040: 52fb 99be 4f7b 04be 12d6 033e a50c 2abe
00000050: 2109 4bbe f03b c4be 938c bf3e a373 4a3e
00000060: ef58 a1be b7ad ee3c d606 b2bd 587e 7ebd
00000070: 31da bebe 733d a93e 6fdd b63e 9fc6 42be
00000080: dbd9 19be a7d5 cc3c 8dc8 d53e bb3a 16be
00000090: 72da 3c3e 8132 923e b512 80be 00ce 903c
000000a0: 67c5 b83e ded9 d73d 7ff8 303e 452b c03e
000000b0: 7b64 403e a8c7 cdbd 19b9 b13e 3714 a7be
000000c0: cb13 093e 01d1 973e b6a2 c9be cc60 b23d
000000d0: 4b77 5abe 2a32 a73e 1ef3 aebe ac6c babd
000000e0: 957f af3e 958e 923e ff2d c83e d6af 253e
000000f0: 3524 993e 1424 11be 4968 fcbc 7aa7 aa3d
00000100: 38d6 06be 4383 923e 46c9 093e bc11 e7bd
00000110: 3ecf 393e 18ea 89be f34e 113e 80c3 98bd
00000120: 8002 16bc 37c4 bd3e cbaa 083e 7ae8 83be
00000130: 42ff 293e 579a 58be 8b40 023e 790b c9be
00000140: 9c9e 33be 029b 933d 2b37 72be 4212 eebd
00000150: 645b 18be ae4f 9dbd ca72 97be 870b 12be
00000160: 1ed1 e23d 8e67 c4be 37e8 113e c2b5 fa3d
00000170: b7d0 1e3e 95d6 71bd 80bf 083c f147 8abe
00000180: da85 c4bd 1321 6f3e 62bf 883d ba15 e3bd
00000190: ec1c 4ebe 33de 993e 5b2e c2be 101f 10bd
000001a0: ccbc 0b3d fff4 9b3e 3810 2b3c b9ea ba3e
000001b0: 5c78 b0be 105f c8bc 7b5a 843e 9ec0 3d3e
000001c0: 9b04 153d 3e96 c4be 4806 33bd 6982 c13e
000001d0: 008d c63a 6e58 2d3e 47be 783e 5c81 adbe
000001e0: e860 833d 835e 4a3d b365 b8be 202c a1be
000001f0: df43 943e 66eb 5b3e a2e8 853d 9e72 a8be
00000200: 40b1 853b 488f b6be 0f3e a23e ba99 093e
00000210: 3ad9 2c3e d821 523d 968a d5bd a215 153e
00000220: 2858 4e3d a066 54bd 7fcf 933e fe22 19be
00000230: 1a06 103e 9206 42be 2556 2dbe 218e 9abe
00000240: dfc3 84be ed00 aebe e8eb c1be a638 983c
00000250: 807b 1b3b 244e a0bb 9351 61be 55bf 993e
00000260: ea59 83be 8c11 8dbe 063d e53d d9bf c9be
00000270: e39e 593e b447 82be ecbc 56be e848 cf3e
00000280: f90a 613d 756a b03e 8cd6 8ebe b57d ae3e
00000290: 32e0 14be c7aa 09be 00f6 5bbd 5e87 51be
000002a0: 1d44 65be 9beb 0a3d 0c50 f13d 3604 da3b
000002b0: f630 0bbe 7384 cd3e 304e 27be 8afe 5b3e
000002c0: 5d51 7bbe 3cac 2abe 3f29 9e3e 7015 e1bd
000002d0: 9c48 1fbe 0eec c0be cbbb b5be 8067 1ebc
000002e0: 50d3 19bd aaa0 f2bd d138 243e dd3a a03e
000002f0: 1387 213d b942 54be 618c b63e 5fcc c23e
00000300: 7831 c1be a3c8 cc3e 329a 4a3e 3024 babd
00000310: 9a6e 603e 82c9 273e eee2 b1be b6a9 7a3e
00000320: 54dc e13d 50e3 473d 8165 13be 3c88 a2be
00000330: d97c 883e 2db0 9d3e c618 b6be 0760 8c3e
00000340: 05f3 fdbd e793 5d3e 4f78 953e 692a 8c3d
00000350: 2e8a c3be e5c9 c7bb 1895 a83d 83ea 553d
00000360: 30d7 84be 0dd4 973d 8676 9f3c 5407 edbd
00000370: ac5c 91be e917 cdbe e0d9 1a3d 95cd cdbe
00000380: 84cf bc3e 9229 ebbd 244c cdbe 90cb 8ebe
00000390: 90c0 c33c 9e56 f13d 69c9 b6be f001 023d
000003a0: c5c2 1fbe bace c5be fed1 35be 6c61 9bbe
000003b0: 12ed 6a3e 7ee4 223e 5015 68bd 0fc6 ce3e
000003c0: 61bb 863e 9674 12be e5aa 97be b697 d2be
000003d0: 9244 123e 9bb7 093d ef32 223e 84df b63d
000003e0: fdee ba3e 2aa5 d3bd c196 ca3e fbcd 98be
000003f0: f58c 04be 8edb 003e d275 bfbe 8e3b 83be
-0.26215252 0.06189875 0.013709903 0.06713766 0.050454736 0.12137595 0.34705934 0.17856595
0.39892277 0.33395788 0.0022324452 0.18448636 -0.3049772 0.04414755 0.2721881 0.25302532
-0.30074555 -0.12937663 0.1287463 -0.16606386 -0.19827701 -0.3832698 0.37411937 0.19770674
-0.31513163 0.029135568 -0.0869271 -0.06213221 -0.37275842 0.33054695 0.35715815 -0.1902108
-0.15024512 0.025004221 0.4175457 -0.14670841 0.18442705 0.28554156 -0.25014272 0.017676353
0.36088106 0.10539602 0.17282294 0.37533012 0.1878833 -0.10047847 0.3471153 -0.3263261
0.13386457 0.29651645 -0.3938195 0.08709869 -0.21334569 0.3265546 -0.3416986 -0.09102759
0.34277025 0.28624406 0.39097592 0.16180357 0.29910436 -0.14173919 -0.030811446 0.08332725
-0.13167655 0.2861577 0.13455686 -0.112826794 0.18145463 -0.26936412 0.14190273 -0.07459164
-0.0091558695 0.37063763 0.13346402 -0.25763303 0.1660128 -0.21152626 0.12719934 -0.39266565
-0.17540973 0.072073 -0.23653857 -0.11624576 -0.14878613 -0.07681213 -0.29579765 -0.1426221
0.11075042 -0.38360256 0.14248739 0.12241699 0.15509306 -0.059042532 0.008346438 -0.27008012
-0.09595843 0.2335246 0.066771284 -0.110881284 -0.2012822 0.30052337 -0.3792599 -0.035185874
0.034115598 0.30460355 0.010440879 0.36507204 -0.34466827 -0.024459392 0.2585028 0.18530509
0.036381345 -0.38395876 -0.043707162 0.37794808 0.0015148222 0.16928264 0.24291335 -0.33887756
0.06414968 0.04940654 -0.3601509 -0.31478977 0.28958032 0.21476516 0.06538512 -0.32899946
0.0040799677 -0.3565619 0.31687972 0.13437548 0.1687974 0.051301807 -0.10426824 0.14559034
0.05037704 -0.051855683 0.28869244 -0.14954755 0.14064828 -0.18947819 -0.16927393 -0.3018656
-0.25930688 -0.3398508 -0.37875295 0.0185817 0.0023724735 -0.0048921276 -0.22003774 0.30028787
-0.25654536 -0.2755245 0.1119328 -0.3940418 0.21252017 -0.2544533 -0.20970505 0.4048531
0.054942105 0.3445622 -0.2789806 0.34080282 -0.14538649 -0.13444053 -0.0537014 -0.20461795
-0.22389264 0.033916097 0.11782846 0.006653334 -0.13592896 0.40140113 -0.1633842 0.21483818
-0.24542756 -0.16667265 0.30890843 -0.10990417 -0.15555042 -0.37680095 -0.35494837 -0.009668231
-0.03755504 -0.118470505 0.16037299 0.3129491 0.039435457 -0.20728578 0.35653976 0.38046548
-0.37733054 0.39996824 0.19785383 -0.090889335 0.21917191 0.16385463 -0.34743446 0.24478802
0.110283524 0.048800766 -0.1439419 -0.31744564 0.2665775 0.30798474 -0.35565776 0.27417013
-0.12399868 0.21638452 0.2919335 0.068440266 -0.3819136 -0.0060970658 0.082315624 0.0522256
-0.25945425 0.07413492 0.019465696 -0.11573663 -0.28391016 -0.40057305 0.037805438 -0.4019591
0.36877072 -0.11482538 -0.40097153 -0.2788968 0.023895532 0.11784099 -0.3570054 0.03174013
-0.15601642 -0.38634282 -0.17755887 -0.30347764 0.22941998 0.15907475 -0.05666095 0.40385482
0.26314834 -0.14302287 -0.2962257 -0.4113137 0.1428397 0.033622365 0.15839742 0.08929351
0.3651046 -0.10334237 0.3956814 -0.2984465 -0.12944396 0.12583753 -0.37394577 -0.25631374

simplicial_nn.4.W2 f4 [5, 64, 1]
00000000: cc00 f93d 49ef 59be 4710 ad3e 22e0 cdbe
00000010: b77e 803e dfe3 5dbe 4ac1 983d e4b3 0abe
00000020: 5cb7 d5bd 0c5b 8c3d 6c13 5abe 5d76 ac3e
00000030: 7119 933e 2a65 2f3e 26f8 52be 3e1f 593e
00000040: d184 a63e 2986 b83e 00db 0abe 66bc b3be
00000050: 4043 26be a68e d7bd 2bed 2bbe 1fed 9f3e
00000060: ed18 d03e 53af 633e 1b15 043e fffc 8d3e
00000070: 0879 3cbe c5ca cabe 3c6a de3d 29d4 a2be
00000080: bd41 63bd 9e1e b53d 9675 babd 471f 583e
00000090: e226 8fbe c70d 353e 805c a43b ec6d 95bd
000000a0: 1af1 c3be d3b7 cc3e 0216 453e 9cf9 a4be
000000b0: a2c0 dcbd ec94 d1bd ace5 e33d 7cb6 fe3d
000000c0: ad68 98be 3d54 d0be 449d b2be 2c3d e2bd
000000d0: f7a5 cc3e 0a3a 213e b5ba 1abe 3f99 5cbe
000000e0: e825 fdbd 8ee6 c53d 036f 6b3e 7805 e7bd
000000f0: 72a6 663e d7dc c53e aab2 c3be fc5d c2be
00000100: c833 e0bd 2c33 573c f445 92be 87ca 7bbe
00000110: 87e1 d33e de79 203e ac7c a8be 039b 853e
00000120: 8078 55bd 3cab cb3d 112d 43be 6296 193e
00000130: 4aee 87be 4534 9f3e 8b06 b73e 488c afbe
00000140: 5774 413e b161 a73e f6e4 97be de32 96be
00000150: 60d8 733c f989 c93e 20a9 9f3c d52e 15be
00000160: 4183 983d f018 33bb d9b5 af3e 9587 b73e
00000170: bc18 8fbe 873e f2bd 00be d5bb cda1 40be
00000180: 9cfa 85be 63b5 b53e 143f 01bb 4b6d ce3e
00000190: 4550 823e e794 6abe 7f95 c63e fe0d 81be
000001a0: 17c4 bb3d bcb6 95be eae0 6b3e 1ae4 523e
000001b0: de15 a0be 6792 75be 0510 993e 0033 9dbe
000001c0: 2326 4c3e b89f ccbd b1ba bf3e 5e44 0cbe
000001d0: 1832 573d f2e6 c4be 5f7f 0bbe fc06 843d
000001e0: 7a02 2a3e d7dd 1a3e 8bf3 c33e d89f 25bd
000001f0: 907a 30be 60d1 8b3d 5d0a 1cbd d73e e1bd
00000200: ffff a53e 5cb3 d13e ef99 943e 28c6 063d
00000210: 38b3 313d 6481 a5be bc07 87be 836c 933e
00000220: e62a 383e 9e97 513e da6d 083e 9c29 ad3d
00000230: 6816 1e3d ee2a 7f3e 9e5f 4ebd 0a1a 203e
00000240: 9f0c 903e fcb3 65be 74ff c1be 19f6 583e
00000250: 325b 683e 3a42 633e 320f 2e3e 45bc 1abe
00000260: 42cc 4ebe 2e06 663e 9dbd 2c3e 4775 9c3e
00000270: d75d 82be 6121 8f3e d0dd 4ebe 8686 3d3e
00000280: 4908 9dbe b675 80bd 8e59 8fbd ccb0 ccba
00000290: 3d90 a73e d78e 1c3e 59a9 b53e 0a4c 1cbe
000002a0: 4987 83be 450d a43e c8d5 97be b346 bfbe
000002b0: 55ec 2f3e 125c 463e c8a6 54bd 2536 65be
000002c0: 87e1 343e 2fc5 923d 80b1 efbc 9420 94be
000002d0: 7863 92be d8c4 203d e237 4f3e 86b3 103e
000002e0: 2489 c3bd 523c b5be 7ca9 90bd 2b22 49be
000002f0: e463 bd3e 376f ad3e e3b0 6d3e 6f18 083e
00000300: 5cdb fc3d c8f3 973e 7b70 823e 0812 063d
00000310: 56ce 793e f49d e93d 9782 813e bcf9 5bbe
00000320: a915 c7be 7250 27be c0b9 05bd beb7 443e
00000330: e487 c9bd 601f 48bc a489 6c3e 583a e8bd
00000340: 9a80 523e 9db6 10be 3abe a4be 4527 9b3d
00000350: cd05 a83e fe11 d33c 1a2f 97be a79d 74be
00000360: fa25 bfbe 9cf3 9abe 1f59 3dbd b419 67be
00000370: 437d 103e d80c 9ebe 484c 73bd 2c5a 1ebe
00000380: 98c2 693e b254 9dbe 44e7 cbbe 4b4d 823e
00000390: a3d2 b73e 6825 a7be 5446 e5bd 6004 593d
000003a0: 812f 0bbe 9684 b4be 9637 1e3e 36e4 e73d
000003b0: 08e7 863e 110b c2be c469 98be 4456 cdbe
000003c0: ecbc 9ebd e167 ce3e 7a0f 1fbe 1e00 043e
000003d0: 30df 42be 8045 21be 731f 2b3d 3215 1bbe
000003e0: e212 a2be 0064 b0be f421 d03e d87b 95be
000003f0: 46d9 833e 1225 043e 418a 7c3e 03e9 7f3e
0.12158355 -0.21282686 0.3380148 -0.40210062 0.25096676 -0.21668957 0.07458742 -0.13545185
-0.10435364 0.06853303 -0.21296471 0.33684054 0.28730348 0.17128435 -0.20602474 0.21203324
0.32523206 0.36039856 -0.13560104 -0.35104674 -0.16236591 -0.10525255 -0.16789691 0.31235597
0.40644017 0.2223485 0.12898676 0.27732083 -0.18405545 -0.39607826 0.10860106 -0.3180249
-0.055482615 0.088437304 -0.09104459 0.21105681 -0.27959353 0.17681037 0.0050159097 -0.072963566
-0.38269883 0.39983997 0.19246677 -0.32221687 -0.10778929 -0.10233483 0.11127791 0.1243715
-0.2976736 -0.4068927 -0.3488561 -0.11046824 0.3997037 0.15744796 -0.15110286 -0.21542834
-0.12360746 0.096631154 0.22991566 -0.1128034 0.22524431 0.3864505 -0.38222247 -0.3796233
-0.109473765 0.013134759 -0.28568995 -0.24588977 0.41383 0.15671489 -0.32907617 0.26094827
-0.05211687 0.0994477 -0.1906016 0.14998773 -0.26548988 0.31094566 0.3574718 -0.34286714
0.18892036 0.3269172 -0.2966687 -0.29335684 0.014883131 0.39363077 0.019489825 -0.14568646
0.0744691 -0.0027328096 0.34318426 0.35845628 -0.27948558 -0.118283324 -0.006522894 -0.18811722
-0.26167762 0.3548995 -0.0019721435 0.4031776 0.25451866 -0.22908364 0.3878593 -0.25205988
0.091682605 -0.29240978 0.23035017 0.20594826 -0.31266683 -0.2398163 0.29895034 -0.30702972
0.19936423 -0.099914014 0.37447122 -0.13697955 0.052538007 -0.38457447 -0.13622807 0.06446645
0.16602507 0.15123688 0.38271746 -0.040435642 -0.17234254 0.068270445 -0.03809582 -0.10998314
0.32421872 0.40957153 0.29023692 0.03290382 0.043383807 -0.3232528 -0.26373088 0.28793725
0.17985114 0.20467994 0.13323155 0.08455202 0.038595587 0.2491872 -0.050384156 0.15634933
0.2813463 -0.2243194 -0.37890208 0.21187629 0.22691038 0.22193232 0.16997984 -0.15110882
-0.20195106 0.22463295 0.16869207 0.30558226 -0.2546222 0.27955154 -0.20201802 0.18508348
-0.30670384 -0.062724516 -0.06999503 -0.0015616654 0.32727233 0.15288864 0.35480765 -0.15263382
-0.25689152 0.32041374 -0.2965529 -0.37358627 0.17179997 0.1937106 -0.051916867 -0.22383936
0.17664157 0.07166516 -0.029259443 -0.28931105 -0.28591514 0.039250225 0.20236161 0.14130983
-0.09547642 -0.35397583 -0.070635766 -0.1964194 0.36990273 0.33873913 0.23212008 0.1329057
0.12346527 0.29678178 0.2547644 0.03273204 0.24395117 0.1140708 0.25294945 -0.21481985
-0.38883713 -0.16339281 -0.032647848 0.19210717 -0.09840372 -0.012214512 0.2309938 -0.11339253
0.2055687 -0.14132161 -0.3217638 0.075758494 0.32816926 0.025765415 -0.29528123 -0.23888265
-0.3733366 -0.30263984 -0.04622757 -0.22568399 0.14110284 -0.30869174 -0.05939892 -0.15464085
0.22828138 -0.3072868 -0.3982488 0.25449595 0.3590289 -0.32645726 -0.11195055 0.052982688
-0.1359234 -0.35257405 0.15450892 0.11322825 0.26348138 -0.37899068 -0.29768193 -0.40104878
-0.07750878 0.40313628 -0.15533248 0.1289067 -0.19030452 -0.15749168 0.04177804 -0.15144804
-0.3165503 -0.34451294 0.40650904 -0.29196048 0.25751704 0.12904766 0.24662115 0.2499123

exp_avg f4 [1, 64]
00000000: d7ed 97bd 0000 0000 0000 0000 0000 0000
00000010: 9763 983d 8ff2 193e 879c 6dbd 0000 0000
00000020: 0000 0000 0000 0000 0000 0000 88fd 0f38
00000030: 0000 0000 0000 0000 52d6 37be c818 c93d
00000040: f55d 70be 620b 443d 0000 0000 233b db3c
00000050: 0000 0000 3bba a7b8 0000 0000 38cd 0ebe
00000060: f4af 4cbd ebc6 bfbd cb1e 343e 0000 0000
00000070: 0000 0000 5f16 8f37 1b71 a83d 0000 0000
00000080: 0000 0000 5c70 163e 0000 0000 fec7 43be
00000090: 0000 0000 54e4 8abd ab3f 2d3a c0d0 7e3e
000000a0: 62ca 33bc 4085 d3be 0000 0000 0000 0000
000000b0: 00f6 cfbc 0000 0000 4941 8dbd 153b 6ebc
000000c0: 0000 0000 189c 81be 0000 0000 f3fe 03b8
000000d0: 5e6b abbd 98e1 103c 0000 0000 6ada 823e
000000e0: bbf3 f9bd 0000 0000 0000 0000 289d 343e
000000f0: 05e4 b9ba bb52 1bbf 0000 0000 d234 013e
-0.07418411 0.0 0.0 0.0 0.0744087 0.15033935 -0.058010604 0.0
0.0 0.0 0.0 3.4329976e-05 0.0 0.0 -0.1795285 0.0981918
-0.23473342 0.047862418 0.0 0.026761597 0.0 -7.997869e-05 0.0 -0.13945472
-0.04997249 -0.093641125 0.17589872 0.0 0.0 1.7057346e-05 0.08224698 0.0
0.0 0.14691299 0.0 -0.1911926 0.0 -0.067818314 0.00066089135 0.2488432
-0.010973545 -0.413126 0.0 0.0 -0.025385857 0.0 -0.06897218 -0.014540453
0.0 -0.25314403 0.0 -3.1470274e-05 -0.08370088 0.008842848 0.0 0.25557262
-0.12204691 0.0 0.0 0.17638075 -0.0014182335 -0.6067311 0.0 0.12617806

exp_avg_sq f4 [1, 64]
00000000: e643 103a 0000 0000 0000 0000 0000 0000
00000010: de23 113a bc1f 143b 5b6f b039 0000 0000
00000020: 0000 0000 0000 0000 0000 0000 2895 012f
00000030: 0000 0000 0000 0000 c739 533b e2bf 7c3a
00000040: 0c8d b43b 7e35 7039 0000 0000 ca31 9638
00000050: 0000 0000 01d4 2f30 0000 0000 63e7 fe3a
00000060: 85ed 8239 7ddd 653a 4ec5 4a3b 0000 0000
00000070: 0000 0000 cfec ff2d 3d54 313a 0000 0000
00000080: 0000 0000 fc72 0d3b 0000 0000 7590 6f3b
00000090: 0000 0000 1423 f139 2d98 3b33 b9e8 ca3b
000000a0: 6e07 4a37 bed0 8b3c 0000 0000 0000 0000
000000b0: 3426 8738 0000 0000 8a69 f939 215b b137
000000c0: 0000 0000 ccfb d13b 0000 0000 54c9 d92e
000000d0: 61a7 373a ea30 0337 0000 0000 2c08 d63b
000000e0: d53c c33a 0000 0000 0000 0000 35e2 4b3b
000000f0: 91f8 5734 74c8 163d 0000 0000 adad d03a
0.0005503282 0.0 0.0 0.0 0.00055366557 0.0022601923 0.00033652302 0.0
0.0 0.0 0.0 1.1785473e-10 0.0 0.0 0.0032230483 0.000964163
0.005509978 0.00022908111 0.0 7.161831e-05 0.0 6.3965905e-10 0.0 0.0019447621
0.00024972498 0.0008768661 0.0030940357 0.0 0.0 2.9095308e-11 0.00067645666 0.0
0.0 0.0021583429 0.0 0.003655461 0.0 0.00045993237 4.3677733e-08 0.0061922935
1.2041868e-05 0.01706731 0.0 0.0 6.4444175e-05 0.0 0.00047571614 2.114248e-05
0.0 0.0064081904 0.0 9.9037806e-11 0.00070058374 7.819597e-06 0.0 0.006531736
0.0014895449 0.0 0.0 0.0031110172 2.0113863e-07 0.03681226 0.0 0.00159209
