results/Test_citation/version_88/checkpoints/epoch=1-step=1.ckpt (torch, 566417 bytes, 27 tensors)

simplicial_nn.0.W0 f4 [1, 64]
0	0x3d5b3f24	0.053527012
1	0x3afc90d4	0.0019269236
2	0x3ed28925	0.41120258
3	0x3ed7af77	0.42126057
4	0xbd0f4b63	-0.034984004
5	0xbe817e22	-0.25291544
6	0xbd878380	-0.066168785
7	0x3ec888fb	0.39167008
8	0x3ea56450	0.32303095
9	0x3deb778c	0.11497411
10	0x3b7681ac	0.0037613912
11	0x3ec86ce9	0.39145592
12	0xbc9fdf0f	-0.019515542
13	0xbe2bd4fe	-0.16780469
14	0xbe5c4329	-0.21509995
15	0xbe765792	-0.24056843
16	0x3ead9ad0	0.33907175
17	0x3e873095	0.26404253
18	0x3ec3d1c8	0.38245988
19	0xbe5782f4	-0.21046048
20	0xbed84cce	-0.42246097
21	0xbed490e4	-0.41516793
22	0xbdafa0b8	-0.085755765
23	0xbe83e1a0	-0.25758076
24	0xbe730e96	-0.23736033
25	0xbe1b541a	-0.15168801
26	0xbeb8a694	-0.3606459
27	0xbe9e09ca	-0.30866843
28	0x3e3f1be8	0.18662989
29	0x3e9ac6e4	0.30229867
30	0x3ec3519c	0.381482
31	0x3e7b4b1f	0.24540375
32	0xbed2d7fc	-0.41180408
33	0xbddd4af0	-0.10805309
34	0x3e172792	0.14761189
35	0x3e0dc3ca	0.13844219
36	0x3eabe2d7	0.33571503
37	0x3edb8597	0.42875358
38	0xbc3b1d82	-0.011420609
39	0xbe0967c5	-0.13418491
40	0x3de2d487	0.110756926
41	0xbcd9912d	-0.026558483
42	0x3ecb6546	0.39725703
43	0x3e793924	0.24338204
44	0x3c7632a2	0.01502672
45	0xbe2c1f98	-0.16808927
46	0x3da87f1f	0.082273714
47	0xbeaaa101	-0.3332596
48	0x3da42608	0.080150664
49	0xbd1a9581	-0.037740234
50	0x3dd149c2	0.10219146
51	0x3d3e8588	0.046514064
52	0xbed8f1dc	-0.42372024
53	0x3e876ac2	0.26448637
54	0x3e9f850a	0.31156188
55	0x3e70b68a	0.23507133
56	0xbe6a2430	-0.22865367
57	0xbd975729	-0.07389671
58	0xbd9e53fc	-0.077308625
59	0x3e96a3e8	0.29421926
60	0xbe6ed4b9	-0.23323335
61	0xbe042108	-0.12903225
62	0x3e93e28a	0.28883773
63	0xbe80b284	-0.25136197

simplicial_nn.0.W1 f4 [5, 1, 64]
0	0xbdd129fd	-0.10213087
1	0x3c8b5bfd	0.017011637
2	0x3d99df5d	0.07513306
3	0x3dd9fb0d	0.10643587
4	0x3dc286c0	0.09498358
5	0xbdb5106b	-0.08841022
6	0xbd5e79e4	-0.054315463
7	0xbc80aa40	-0.015706182
8	0x3e0da55d	0.13832612
9	0xbe059c10	-0.13047814
10	0xbda6d98d	-0.08146963
11	0x3d91375b	0.07090636
12	0x3b161956	0.0022903285
13	0xbe04757d	-0.12935443
14	0xbe0efb4b	-0.13963048
15	0xbce32118	-0.027725741
16	0x3d4dfbff	0.05028915
17	0xbdfe0178	-0.12402624
18	0x3daa70b5	0.083222784
19	0x3dccfed6	0.100095436
20	0x3e3328df	0.1749606
21	0xbdeb90c8	-0.11502224
22	0xbe21df54	-0.15807849
23	0xbd1db324	-0.03850092
24	0xbe22d2d7	-0.15900742
25	0xbdb99a0a	-0.09062584
26	0x3c909078	0.017647013
27	0x3df5bab6	0.11998503
28	0x3e31ae58	0.17351663
29	0xbd95a415	-0.07306687
30	0x3ccfbb6f	0.02535793
31	0xbd4f9735	-0.05068131
32	0x3b1ce040	0.0023937374
33	0x3d140498	0.036137193
34	0x3e1a99b9	0.15097703
35	0xbde5d3ef	-0.11222064
36	0x3df4be88	0.119504035
37	0x3bb94711	0.0056542237
38	0x3e272129	0.16321243
39	0xbded1570	-0.115763545
40	0xbd9ac4c3	-0.075570606
41	0x3d593a40	0.053034067
42	0x3e1661e3	0.14685778
43	0x3e2cd3b9	0.16877641
44	0x3d88f819	0.06687946
45	0xbd1a998c	-0.03774409
46	0xbcd4c348	-0.025972024
47	0x3d65cb44	0.056102052
48	0xbde75642	-0.11295749
49	0x3b3d2446	0.0028860732
50	0xbe00fbda	-0.12596074
51	0x3e01b67e	0.12667271
52	0x3c9093d0	0.017648607
53	0xbe32754d	-0.17427559
54	0x3e22eb79	0.15910138
55	0xbd3d4cac	-0.046215698
56	0xbda253e4	-0.07926157
57	0xbc967ed2	-0.01837102
58	0x3d3326cc	0.04373817
59	0xbe014579	-0.12624158
60	0x3d7c0d1c	0.06153594
61	0x3cb8c9d8	0.022557184
62	0x3dec6c91	0.11544145
63	0x3e10b057	0.14129768
64	0xbe23b986	-0.1598874
65	0x3e2366ee	0.15957233
66	0x3d9a7cef	0.075433604
67	0xbe16bea5	-0.14721163
68	0x3d122791	0.035682265
69	0x3e093577	0.13399301
70	0x3dd5246e	0.10407339
71	0x3c1702c2	0.009216966
72	0xbda82865	-0.0821083
73	0x3d756cae	0.0599181
74	0xbe1b278c	-0.15151805
75	0x3dcc1f52	0.099669114
76	0xbdb844b4	-0.08997479
77	0x3b24acc0	0.002512738
78	0x3d5fa1a4	0.054597512
79	0xbce39870	-0.027782649
80	0xbde36270	-0.1110276
81	0xbc9c4d37	-0.019079788
82	0xbc141d24	-0.009040151
83	0x3de26f32	0.11056365
84	0x3d576d94	0.052594736
85	0xbd79c4d6	-0.060978733
86	0x3e1c6b1f	0.15275238
87	0x3d31f1a8	0.043443352
88	0xbe0d42f3	-0.1379507
89	0xbda77295	-0.08176152
90	0xbde59103	-0.112092994
91	0xbdfa2b6a	-0.12215312
92	0x3db87bda	0.09007998
93	0xbd3ee4b0	-0.046604812
94	0xbd4532a6	-0.048144005
95	0xbde413ac	-0.111365646
96	0x3e0e9453	0.13923769
97	0xbd9af820	-0.07566857
98	0xbdffc439	-0.124885984
99	0xbce8b821	-0.028408112
100	0xbdbc7d94	-0.092036396
101	0x3e2668dc	0.16250938
102	0x3e282b28	0.16422713
103	0xbe32cfcc	-0.1746208
104	0xbdc989be	-0.09840725
105	0xbd8690f1	-0.06570614
106	0xbe22e4de	-0.15907618
107	0x3da52dea	0.08065398
108	0x3dc33e13	0.09533324
109	0x3d485164	0.048905745
110	0x3c8b8cea	0.017034966
111	0x3c74fb10	0.014952436
112	0xbd0d05c8	-0.03442934
113	0xbd0825ea	-0.033239283
114	0xbd0d6590	-0.034520686
115	0x3e1694ac	0.14705151
116	0xbd78fb66	-0.060786627
117	0xbe2025ba	-0.15639392
118	0x3e1d7c4c	0.15379447
119	0xbdbffff5	-0.09374992
120	0xbd59e9fa	-0.053201653
121	0xbdc1d06e	-0.09463583
122	0xbdc815f1	-0.0976981
123	0x3dbf3e64	0.09338072
124	0x3e1d8233	0.15381698
125	0x3ca5a010	0.020217925
126	0x3d62c39f	0.05536234
127	0x3de7d9d2	0.11320843
128	0x3de23b2a	0.11046441
129	0xbe1468f8	-0.14493167
130	0x3ca89d2e	0.020582762
131	0x3db9b5af	0.090678565
132	0xbda0dbfe	-0.0785446
133	0x3d7863d4	0.06064208
134	0xbc013850	-0.007886961
135	0x3e0654ff	0.13118361
136	0xbe22e865	-0.15908964
137	0x3e2e6a75	0.17032798
138	0xbe097a40	-0.13425541
139	0xbe24364b	-0.16036336
140	0xbd2683ff	-0.040653225
141	0x3e09a25d	0.13440843
142	0x3dfb7c6e	0.122795925
143	0xbc97ca60	-0.018529117
144	0x3d82b922	0.063829675
145	0x3e07bfad	0.13256712
146	0xbe2bdeb1	-0.16784169
147	0xbe2d77c8	-0.16940224
148	0x3d419134	0.047257617
149	0x3b23a740	0.0024971515
150	0x3e275e81	0.16344644
151	0x3de7b7de	0.11314367
152	0x3e221675	0.15828879
153	0x3db7fcbe	0.089837536
154	0x3e2061ed	0.15662356
155	0x3d6fb4b0	0.058521926
156	0x3d54015a	0.0517591
157	0x3cfe7f06	0.031066429
158	0x3cb99d0a	0.02265789
159	0xbd5fa20a	-0.054597892
160	0xbe0b7e1a	-0.13622323
161	0x3daf8aee	0.085714206
162	0x3da1d849	0.07902581
163	0xbe2c3491	-0.16816927
164	0xbdd7eace	-0.10542832
165	0x3e09be6d	0.13451548
166	0xbd48858c	-0.048955485
167	0xbddb5e5e	-0.107113585
168	0xbd612a95	-0.05497225
169	0xbe1a56ea	-0.15072218
170	0xbe18abc9	-0.14909281
171	0xbafd352c	-0.0019318215
172	0x3da2aa89	0.07942683
173	0x3da0b8ea	0.078477696
174	0xbce68a55	-0.028142134
175	0x3ca293a8	0.019845799
176	0xbe18e51b	-0.14931147
177	0xbe2306be	-0.1592054
178	0x3e21658d	0.15761395
179	0xbc9166ea	-0.017749269
180	0x3e0753a7	0.13215505
181	0xbd0bad5b	-0.03410087
182	0xbe062253	-0.13099031
183	0x3b5f8222	0.0034104665
184	0x3e097eaf	0.13427232
185	0xbda71680	-0.081585884
186	0x3cc75248	0.024331227
187	0xbd70fa84	-0.05883266
188	0xbca83dc8	-0.020537272
189	0x3d15af94	0.036544397
190	0xba5037ea	-0.0007942902
191	0xbdbd7d61	-0.0925243
192	0xbc3163b2	-0.010826992
193	0xbc248058	-0.010040365
194	0x3d06d88f	0.03292137
195	0x3ca4e26c	0.020127498
196	0x3d8172c1	0.06320716
197	0xbc977ff0	-0.018493623
198	0x3e25dc3b	0.16197293
199	0x3d3e7857	0.046501484
200	0x3d07f63e	0.03319382
201	0x3e02b80f	0.12765525
202	0xbe310304	-0.17286307
203	0xbc9af5a6	-0.018915962
204	0xbd938c3d	-0.07204483
205	0x3e3195c7	0.17342292
206	0x3e28fbe1	0.16502334
207	0xbd632db2	-0.0554635
208	0x3de58302	0.112066284
209	0x3ddaab17	0.10677164
210	0x3e1a16ca	0.15047756
211	0x3c2970b0	0.010341808
212	0xbdee86cd	-0.11646805
213	0xbde49b16	-0.11162393
214	0x3dc4818a	0.0959502
215	0xbe1dcf57	-0.15411125
216	0x3e1131e9	0.14179195
217	0xbe0dcbd7	-0.1384729
218	0x3d3900a0	0.04516661
219	0xbd0a84d4	-0.03381808
220	0x3d88cf28	0.06680137
221	0xbd5dd595	-0.054158766
222	0xbb73162a	-0.0037092068
223	0xbe0d2ae8	-0.13785899
224	0x3e0db7cd	0.13839646
225	0xbb0c0c80	-0.0021369755
226	0x3dfc700d	0.123260595
227	0x3cccb4bc	0.024988525
228	0xbdb42dfc	-0.08797833
229	0x3deffc3b	0.11718031
230	0x3def68fc	0.11689946
231	0x3dddc027	0.10827666
232	0xbb82d0a0	-0.003992155
233	0x3dd7ac84	0.105309516
234	0x3c9aa7b9	0.018878805
235	0x3d40b600	0.04704857
236	0x3ce451c1	0.027871015
237	0xbd13ab48	-0.03605202
238	0x3d221db1	0.039579097
239	0xbde6359b	-0.11240693
240	0xbe19ff0d	-0.150387
241	0x3e1a6172	0.15076235
242	0xbd1ebc7b	-0.038753968
243	0xbe140ab2	-0.14457205
244	0xbbbc3720	-0.005743876
245	0xbded4796	-0.115859196
246	0x3dab5ac6	0.08366923
247	0x3b7737db	0.0037722501
248	0xbd07a57c	-0.033116803
249	0x3da3c998	0.07997435
250	0xbd20c004	-0.03924562
251	0xbc5555ff	-0.013020991
252	0xbc86de88	-0.016463533
253	0x3e16f3e5	0.14741476
254	0x3d6abca5	0.05730881
255	0xbdbdf8dc	-0.09275982

simplicial_nn.0.W2 f4 [5, 1, 64]
0	0xbcc3432d	-0.023835743
1	0xbd40e3e3	-0.04709233
2	0x3d20cb24	0.03925623
3	0xbc3f8c28	-0.011691131
4	0x3d38e33d	0.045138586
5	0xbe0408eb	-0.12894027
6	0xbda77e59	-0.08178396
7	0xbe0ce667	-0.13759767
8	0xbd12df48	-0.03585747
9	0xbdd0a091	-0.101868756
10	0x3cf60781	0.030032875
11	0xbd794f7a	-0.06086681
12	0xbd39e883	-0.045387756
13	0x3dc68bca	0.096946314
14	0xbe2bc3a2	-0.16773847
15	0x3ce41290	0.027840883
16	0x3bf6266a	0.0075119035
17	0xbc02458c	-0.007951152
18	0xbd043ac2	-0.0322826
19	0xbd843ebf	-0.0645728
20	0xbe0c68d4	-0.13711864
21	0xbbf918a0	-0.0076018125
22	0xbcc04780	-0.023471594
23	0xbdd810a4	-0.10550049
24	0x3ae21c00	0.0017250776
25	0x3cb7d028	0.022438124
26	0x3de602a6	0.11230974
27	0xbd08a34c	-0.033358857
28	0x3dfb9a9e	0.1228535
29	0x3dca2985	0.098712005
30	0x3dd472dc	0.1037347
31	0x3e2821f3	0.164192
32	0xbbac8400	-0.005264759
33	0xbda4fd33	-0.080561064
34	0x3ddb2f93	0.107024334
35	0xbd2f4eba	-0.04279969
36	0x3e0c936e	0.13728115
37	0xbdce4aaf	-0.100728385
38	0x3d0015c7	0.03127077
39	0xbe1c57c0	-0.15267849
40	0x3da0fad6	0.07860343
41	0x3cbf5a64	0.023358531
42	0x3d5420c3	0.051789057
43	0xbe0c6a75	-0.13712485
44	0x3ddcc419	0.1077959
45	0x3c8e35f0	0.017359704
46	0x3c27a67a	0.010232562
47	0x3e2797b5	0.16366465
48	0x3e139968	0.14413989
49	0xbc504f56	-0.012714228
50	0xbe061730	-0.13094783
51	0xbd38f34b	-0.045153897
52	0xbe325060	-0.17413473
53	0xbd66ede4	-0.056379214
54	0x3cf7b95a	0.03023975
55	0xbdebc3ad	-0.115119316
56	0x3e1aae93	0.15105657
57	0x3e164793	0.14675741
58	0x3e12f9ab	0.14353053
59	0x3e15ecb8	0.14641082
60	0x3cbd4498	0.023103997
61	0xbc62a740	-0.013833821
62	0x3dde598d	0.10856924
63	0xbd917523	-0.0710242
64	0xbd8cfc6f	-0.068840854
65	0x3d5c112c	0.053727314
66	0x3da10c7a	0.07863708
67	0x3e114fea	0.14190641
68	0x3d25b3d5	0.040454704
69	0x3e2d0607	0.1689683
70	0xbda9d7fc	-0.08293149
71	0xbde71d6a	-0.11284907
72	0xbd4f9be0	-0.050685763
73	0x3e33aa62	0.17545465
74	0xbc46cdfb	-0.0121340705
75	0x3e18e1bd	0.14929862
76	0xbe2b7987	-0.16745578
77	0xbe0acaa7	-0.13553868
78	0x3a7d9700	0.0009673685
79	0x3d7bf284	0.061510578
80	0x3e253bda	0.16136113
81	0x3daa2a37	0.08308833
82	0x3e0a12b7	0.13483702
83	0x3c93ced8	0.018042967
84	0x3cb492d8	0.022042677
85	0xbda26b86	-0.07930665
86	0xbdf62a84	-0.12019828
87	0xbd865a9a	-0.065602496
88	0x3dc55ebe	0.09637211
89	0xbe16a430	-0.1471107
90	0x3cef4588	0.02920796
91	0x3e26db41	0.16294576
92	0x3e32230d	0.17396183
93	0xbd042ad1	-0.032267395
94	0x3e2e7356	0.17036185
95	0x3e2a2190	0.16614366
96	0xbb095000	-0.0020952225
97	0x3d33b190	0.04387051
98	0xbe2526ae	-0.16128036
99	0xbdd5ace6	-0.104333684
100	0xbd8b40fe	-0.06799506
101	0xbdb67b32	-0.089102164
102	0xbe11139f	-0.14167641
103	0x3e186c1f	0.14884995
104	0xbd9c57c7	-0.0763393
105	0xbdc878b9	-0.09788651
106	0x3d8086ba	0.06275697
107	0x3dbf901e	0.0935366
108	0x3dcc60c0	0.09979391
109	0xbe0f49dc	-0.13993019
110	0xbdd432db	-0.103612624
111	0x3d9f9ef2	0.07793988
112	0x3de357fd	0.11100767
113	0x3e020cc3	0.1270018
114	0x3d014d13	0.031567644
115	0x3d66a123	0.056306016
116	0xbcd21420	-0.025644362
117	0x3dc1246b	0.09430774
118	0xbde49a45	-0.11162237
119	0xbdbb343e	-0.09140824
120	0xbdef9124	-0.11697605
121	0x3da6c4c8	0.08143002
122	0xbde29bae	-0.1106485
123	0xbd611a70	-0.054956853
124	0x3d68ee84	0.05686809
125	0xbb8244a0	-0.003975466
126	0xbbbfd223	-0.0058539077
127	0xbdc4baa4	-0.096059114
128	0xbcc84e80	-0.024451494
129	0x3e0ee902	0.13956073
130	0xbdbe54f2	-0.09293546
131	0x3dec5037	0.11538737
132	0xbd9801f6	-0.07422249
133	0x3d957b2e	0.07298885
134	0x3deb0326	0.1147521
135	0xbe1e3791	-0.15450884
136	0x3d119c8e	0.035549693
137	0x3dca3708	0.09873778
138	0xbe2aa5f6	-0.16664872
139	0x3df2def5	0.11858932
140	0xbe01b44c	-0.12666434
141	0xbe1a3379	-0.15058698
142	0x3dacfec2	0.08447029
143	0x3de49f2e	0.111631736
144	0xbd10d37e	-0.035357945
145	0xbc8ead37	-0.01741658
146	0xbcc338ef	-0.023830859
147	0xbe1cbcf0	-0.15306449
148	0x3e0ef75f	0.13961552
149	0xbe2a25b6	-0.16615948
150	0xbe2e42fe	-0.17017743
151	0x3d9d181a	0.07670613
152	0x3dafb76e	0.08579908
153	0x3b9ef820	0.004851356
154	0xbbcb6180	-0.0062066913
155	0x3d9042f6	0.07044022
156	0xbe1ac543	-0.15114312
157	0xbd9f2c12	-0.077720776
158	0x3d8a4bda	0.06752749
159	0x3d91d774	0.071211725
160	0x3cf150e8	0.029457524
161	0x3ce4f4a0	0.027948678
162	0x3cdeb12b	0.02718409
163	0xbddcb1a9	-0.107760735
164	0xbd3e0c5a	-0.046398498
165	0xbd55c3db	-0.052188735
166	0x3e0f6dee	0.14006779
167	0x3ca05167	0.019570066
168	0xbe0f64bb	-0.1400327
169	0xbe03f4bb	-0.12886326
170	0xbda1baba	-0.078969434
171	0xbcf1191f	-0.029430924
172	0xbd9ad942	-0.0756097
173	0x3d8b83cc	0.06812248
174	0xbe1166ac	-0.14199322
175	0x3de6271a	0.11237927
176	0x3d05e06c	0.03268473
177	0xbe09f3ce	-0.1347191
178	0xbde17b4b	-0.110098444
179	0x3d031f74	0.032012418
180	0xbde092d4	-0.10965505
181	0xbe1d3c75	-0.15355094
182	0xbcc03ef3	-0.023467517
183	0x3ab2165e	0.0013586988
184	0x3db50c8a	0.08840282
185	0x3cb7b5ce	0.022425558
186	0x3de93c9a	0.11388512
187	0x3e2b268a	0.1671392
188	0x3dddced2	0.108304635
189	0xbc975af8	-0.018475994
190	0xbe2b9dd9	-0.16759433
191	0xbe2f1a7f	-0.17099951
192	0x3e240982	0.16019252
193	0xbe351fef	-0.17687963
194	0xbdef7685	-0.11692528
195	0x3e31184f	0.17294429
196	0x3cd7c4a2	0.026338879
197	0x3e0fd107	0.14044581
198	0x3dd0752a	0.10178597
199	0x3cec3819	0.028835343
200	0xbe095c5c	-0.13414139
201	0x3be07333	0.0068496703
202	0x3e08f14d	0.13373299
203	0xbd57afa3	-0.052657735
204	0xbe169703	-0.14706044
205	0xbd15c79c	-0.036567315
206	0xbe174351	-0.14771773
207	0xbd85791a	-0.06517239
208	0x3dd74523	0.10511234
209	0x3e158884	0.14602858
210	0xbe24e2bb	-0.16102116
211	0xbd8fa053	-0.07013001
212	0xbd9a07fc	-0.07521054
213	0x3e1a884f	0.1509106
214	0x3d41e9c0	0.047342062
215	0x3e14a9b9	0.14517869
216	0xbda3b5a5	-0.0799363
217	0x3d768060	0.06018102
218	0xbd4bc4d0	-0.049748242
219	0xbd8d45a3	-0.06898048
220	0x3e14b978	0.14523876
221	0xbdcabd70	-0.098994136
222	0x3e00d575	0.12581427
223	0xbdd532c6	-0.10410075
224	0x3e19fd89	0.15038122
225	0xbca26be0	-0.01982683
226	0xbd9e61fe	-0.07733534
227	0xbbfb86ae	-0.007675967
228	0xbd2fedbf	-0.04295134
229	0x3df64f4b	0.12026843
230	0xbc2fc67d	-0.010728476
231	0xbe16263f	-0.14663027
232	0x3dce104e	0.100617036
233	0x3c5853f8	0.013203613
234	0x3ddb028d	0.10693846
235	0x3d9c1032	0.076202765
236	0xbd7020df	-0.0586251
237	0x3de5779a	0.11204453
238	0x3d2e4681	0.042547707
239	0xbdc35618	-0.095379055
240	0x3e337855	0.17526372
241	0x3db0c948	0.08632141
242	0xbdbb14b4	-0.09134808
243	0x3e05cc34	0.13066179
244	0x3ddcb9d6	0.10777633
245	0xbd8b549c	-0.06803247
246	0x3d9a438b	0.07532414
247	0x3e1f1d00	0.15538406
248	0xbe1e8bfd	-0.15483089
249	0xbdd54ae3	-0.10414674
250	0x3d03c718	0.032172292
251	0x3ce1780f	0.027523069
252	0xbdf1df30	-0.11810148
253	0x3cb757f0	0.022380799
254	0x3d3fe7c9	0.046851907
255	0xbdb2734c	-0.087133974

simplicial_nn.2.W0 f4 [64, 64]
0	0x3e038284	0.12842757
1	0xbdb6694e	-0.08906804
2	0x3cb9d9b6	0.02268682
3	0xbcb8bbf0	-0.022550553
4	0x3e12e408	0.143448
5	0xbc64598a	-0.013937363
6	0x3e683e22	0.22679952
7	0x3dc9ee78	0.098599374
8	0x3e2d62ab	0.1693217
9	0x3e84128a	0.25795394
10	0xbca87210	-0.020562202
11	0xbe983c50	-0.29733515
12	0xbe3c6798	-0.18398893
13	0xbe9915c0	-0.29899406
14	0xbe60c4e8	-0.21950114
15	0xbda92f47	-0.082609706
16	0x3e70cbea	0.23515287
17	0xbe83d253	-0.25746402
18	0xbe96bb35	-0.29439703
19	0x3e36f928	0.17868483
20	0x3e52d9b3	0.20590858
21	0xbdb2e24f	-0.08734571
22	0xbdf7363e	-0.12070893
23	0xbe845fe3	-0.25854406
24	0x3e556016	0.20837435
25	0x3d704bf8	0.0586662
26	0x3e8d060b	0.27543673
27	0xbe9345f1	-0.287643
28	0x3e15a664	0.14614254
29	0xbe12d759	-0.14339961
30	0xbe4b0b21	-0.19828464
31	0xbe2bfb78	-0.16795146
32	0x3e03d544	0.12874323
33	0x3e942ff5	0.28942838
34	0xbe90cd58	-0.28281665
35	0x3b5b267c	0.0033439687
36	0xbd59d9fa	-0.053186394
37	0x3e46558a	0.19368568
38	0x3dde5dd6	0.108577415
39	0x3cdc4eb0	0.02689299
40	0x3e81c075	0.25342146
41	0xbd8cadc2	-0.06869079
42	0xbe969c09	-0.2941592
43	0x3d99d6ac	0.075116485
44	0xbe958f61	-0.29210952
45	0x3e81f44d	0.253817
46	0x3e8bb55f	0.27286813
47	0xbdafdfcb	-0.08587607
48	0x3b094000	0.0020942688
49	0x3dd8bb93	0.10582652
50	0x3dd659cd	0.10466347
51	0x3e6793d7	0.2261499
52	0xbe3f9089	-0.1870748
53	0xbcfb9119	-0.030708836
54	0xbcede840	-0.02904141
55	0xbe79b570	-0.24385619
56	0xbd32854c	-0.043584153
57	0xbdcc12aa	-0.099644974
58	0x3e977a53	0.29585513
59	0xbda892d8	-0.08231133
60	0xbb3c3ce2	-0.0028722812
61	0x3e8e13b9	0.27749422
62	0x3d107da8	0.035276085
63	0x3df96628	0.12177688
64	0x3e82f7e1	0.25579742
65	0x3e499e6e	0.19689342
66	0xbe69e8ba	-0.22842684
67	0x3e60a2ba	0.21937075
68	0x3dde50b0	0.10855234
69	0x3e9359d4	0.2877947
70	0x3e58b79e	0.21163794
71	0x3e8fc65f	0.28081033
72	0x3e766b6e	0.24064419
73	0xbe7d0da2	-0.24712232
74	0xbe514146	-0.20435056
75	0xbe6d571e	-0.23177764
76	0x3e2681c4	0.16260439
77	0xbd8e22c6	-0.06940226
78	0x3dedc058	0.11608952
79	0x3d35ae7d	0.044355858
80	0xbdd7885e	-0.10524057
81	0xbdd39926	-0.10331945
82	0x3cfcac5b	0.030843904
83	0xbe6b03d8	-0.22950685
84	0x3e9b79f5	0.30366483
85	0x3e8c8900	0.27448273
86	0x3c9ce371	0.019151421
87	0xbe2dc9c5	-0.169715
88	0x3e6091a6	0.2193056
89	0xbd415757	-0.047202434
90	0x3e3b12ea	0.18268934
91	0xbde062b2	-0.10956325
92	0xbe875c78	-0.26437736
93	0xbc6354b6	-0.013875177
94	0x3e6d38c2	0.23166183
95	0x3e667bbc	0.22508138
96	0x3d04162f	0.03224772
97	0xbdc2b15d	-0.095064856
98	0xbd897a0f	-0.06712734
99	0x3e30b979	0.17258252
100	0x3dc627c7	0.09675556
101	0x3e0bec1a	0.13664284
102	0xbe3b29d1	-0.1827767
103	0xbe65cf28	-0.22442305
104	0x3e10cac2	0.14139846
105	0xbc9c1b77	-0.019056065
106	0x3e615376	0.22004494
107	0x3e41dc50	0.18931699
108	0xbe476fdf	-0.19476269
109	0xbca7f1b8	-0.020501003
110	0x3e8588e6	0.26081008
111	0xbe5d249d	-0.21595998
112	0xbd447668	-0.047964483
113	0xbd1493b5	-0.036273677
114	0x3d6db339	0.05803225
115	0x3da690e8	0.081331074
116	0xbcb6d8a7	-0.022320105
117	0x3ccb315b	0.024803808
118	0x3e13f57a	0.1444911
119	0x3e8169d5	0.25276056
120	0x3db99641	0.09061862
121	0xbe86375e	-0.26214117
122	0xbe5bf1f0	-0.2147901
123	0x3d94ec00	0.07271576
124	0x3e31bfff	0.17358397
125	0xbe892b2e	-0.26790756
126	0x3d9cb07f	0.076508515
127	0xbd428d48	-0.047498018
128	0x3e3509a4	0.17679459
129	0xbe983192	-0.2972532
130	0x3d83104a	0.06399591
131	0xbc7a5380	-0.015278697
132	0x3e205cd2	0.15660408
133	0xbda11d67	-0.07866936
134	0x3e0bc7bc	0.13650411
135	0x3e74f302	0.23920825
136	0xbe640991	-0.22269274
137	0x3e5f9a0f	0.21836112
138	0xbe689343	-0.22712426
139	0xbdaeecde	-0.085412726
140	0xbe7a7978	-0.24460399
141	0x3a94a9b8	0.0011342084
142	0xbe58ed88	-0.21184361
143	0x3cca51e8	0.024697259
144	0xbe752a41	-0.239419
145	0xbc5e2b1d	-0.013560084
146	0x3d96f8d9	0.07371683
147	0x3e909527	0.28238794
148	0x3dc4c148	0.09607178
149	0x3e30189c	0.17196888
150	0x3d8a2ce5	0.06746844
151	0xbcd13cf0	-0.025541753
152	0xbe55f8ee	-0.2089574
153	0x3d4901fe	0.049074166
154	0x3e947641	0.2899647
155	0xbe391362	-0.180738
156	0x3d634490	0.05548531
157	0xbda366ad	-0.07978568
158	0x3c7420f3	0.014900434
159	0x3e87ac54	0.26498663
160	0x3e66b439	0.22529687
161	0x3e5fa1a3	0.21839003
162	0xbe0bdd34	-0.13658601
163	0x3e238b81	0.15971185
164	0x3e8e53a5	0.2779819
165	0x3e9c44eb	0.3052133
166	0xbddad6d7	-0.10685509
167	0x3e26339e	0.16230628
168	0xbd7ace59	-0.061231945
169	0xbdc96d9c	-0.098353595
170	0xbdd5cc0f	-0.10439312
171	0x3d87999c	0.066210955
172	0xbe8dbc5c	-0.2768277
173	0x3e0f672d	0.14004202
174	0xbe0a649e	-0.13514945
175	0xbc84837e	-0.016175982
176	0xbe6806ec	-0.2265889
177	0x3e7de280	0.24793434
178	0x3dc652fc	0.09683797
179	0xbe718e8a	-0.2358953
180	0xbe266b51	-0.16251875
181	0x3e833ad0	0.25630808
182	0xbd40ca20	-0.04706776
183	0x3e7e37ca	0.2482597
184	0xbe839514	-0.25699675
185	0xbc3aace6	-0.011393761
186	0x3e3cef8a	0.18450752
187	0xbd3d1101	-0.046158794
188	0x3ba9059f	0.005158141
189	0xbdfb8a0d	-0.122821905
190	0x3df70384	0.120612174
191	0x3c9fff12	0.019530807
192	0x3d38e4d8	0.045140117
193	0xbdf911d8	-0.121616066
194	0x3e61420b	0.2199785
195	0xbd535ed8	-0.051604122
196	0xbe92f9d2	-0.28706223
197	0x3e195dc9	0.14977182
198	0xbdad49d4	-0.08461347
199	0xbe6bda42	-0.23032477
200	0x3e8292ef	0.25502726
201	0x3e370269	0.17872013
202	0xbe15ec79	-0.14640988
203	0xbe590a13	-0.2119525
204	0xbdccfe70	-0.100094676
205	0x3e8fb7b3	0.2806984
206	0xbe6e507f	-0.23272894
207	0x3e3c7fb5	0.18408091
208	0xbe6ff6b2	-0.2343395
209	0x3dd27229	0.102756806
210	0x3e768bd4	0.24076778
211	0xbe65f115	-0.22455247
212	0x3e0c27d1	0.13687064
213	0xbdfa19d4	-0.122119576
214	0xbca0f6cb	-0.01964893
215	0xbe0778f3	-0.13229732
216	0x3e77fa32	0.24216536
217	0xbe270be5	-0.16313131
218	0xbe6d29ae	-0.23160431
219	0x3d9a8114	0.07544151
220	0xbe29e53d	-0.16591354
221	0xbd09f145	-0.03367736
222	0x3e890c1e	0.26767057
223	0xbe14baf4	-0.14524442
224	0x3e904e61	0.28184798
225	0x3e505f1b	0.2034878
226	0x3d3faef6	0.046797715
227	0x3c105bd8	0.00881096
228	0xbdd66940	-0.104692936
229	0x3e1212be	0.14264962
230	0x3e929685	0.28630462
231	0xbdf64b52	-0.12026085
232	0xbe21486b	-0.15750282
233	0xbdd81511	-0.10550893
234	0x3d550e33	0.052015495
235	0xbe644eaa	-0.22295633
236	0xbdebaa37	-0.11507075
237	0x3e22d2a9	0.15900673
238	0x3e9551ec	0.29164064
239	0x3e35d062	0.17755273
240	0xbe31e103	-0.17370991
241	0x3df71335	0.1206421
242	0xbe1b7e85	-0.15184982
243	0x3e8a8689	0.27055767
244	0xbe75702e	-0.23968574
245	0x3e4e020a	0.20117965
246	0x3d9dea1c	0.077106684
247	0xbe8170dc	-0.25281417
248	0x3e112282	0.1417332
249	0x3e3c3322	0.1837888
250	0xbe8941b1	-0.2680793
251	0x3d36a789	0.044593368
252	0xbdc36f26	-0.09542684
253	0x3e6eabcd	0.23307724
254	0x3e179206	0.14801797
255	0xbd909ca8	-0.0706113

simplicial_nn.2.W1 f4 [5, 64, 64]
0	0x3d2cfcd7	0.042233314
1	0x3c97273e	0.01845133
2	0x3cfb16aa	0.030650456
3	0x3d1d9323	0.0384704
4	0xbd196a6d	-0.03745501
5	0xbcea9b79	-0.028638588
6	0xbd3086a3	-0.04309715
7	0x3cb5143a	0.022104371
8	0x3c60e40b	0.013726245
9	0xbc93e94a	-0.018055577
10	0x3c39196c	0.011297565
11	0x3c2da67c	0.010598775
12	0x3cc2452c	0.023714624
13	0x3c8b901b	0.017036488
14	0x3d546079	0.051849816
15	0x3beca056	0.007221262
16	0x3c6e388c	0.014539849
17	0x3c7dd653	0.015492993
18	0x3b54e689	0.0032486042
19	0x3c746e56	0.014918884
20	0xbcd1f394	-0.025628842
21	0x3d0278eb	0.031853598
22	0x3c8957d2	0.016765509
23	0xbd01ed90	-0.031720698
24	0xbd05fbcb	-0.03271083
25	0xbd399f55	-0.045317966
26	0xbc4a00ac	-0.012329262
27	0xbcb397e0	-0.021923006
28	0xbd120c60	-0.035656333
29	0xbb235ca0	-0.0024927035
30	0xbcf0a44f	-0.029375223
31	0xbcfb9698	-0.030711457
32	0x3bfaf60d	0.007658726
33	0x3a45ac22	0.00075406034
34	0x3d0a93d0	0.03383237
35	0x3c1c473b	0.009538467
36	0xbd17f6d2	-0.03710062
37	0xbca569f4	-0.020192124
38	0xbd32d713	-0.043662142
39	0x3cb1ae2e	0.0216895
40	0x3d178199	0.03698883
41	0x3cbc33b7	0.022973878
42	0xbd2fca98	-0.042917818
43	0xbceb0fee	-0.02869412
44	0xbc9b3363	-0.018945402
45	0x3d132b73	0.03593011
46	0x3d2d3a7c	0.042292103
47	0xbd290dbe	-0.04127287
48	0xbc0109d0	-0.007875875
49	0xbca6d507	-0.020365251
50	0xbcac53eb	-0.021036109
51	0x396fb100	0.00022858754
52	0xbcc2ec36	-0.023794275
53	0x3ca4416c	0.020050727
54	0x3d2089e1	0.03919399
55	0x3b9d8868	0.0048075207
56	0xbbb57c0a	-0.0055384682
57	0x3ccdc6f4	0.025119282
58	0xbc066b34	-0.00820427
59	0x3cf2104c	0.029548787
60	0x3c00f650	0.0078712255
61	0x3d436571	0.047704164
62	0x3c036d28	0.00802163
63	0xbc04227b	-0.008064861
64	0x3d33bcc1	0.04388118
65	0xbc9deb56	-0.019277256
66	0xbd29f3f6	-0.041492425
67	0x3c5e41dc	0.013565507
68	0xbcc5daaa	-0.024152119
69	0x3d2cb6e9	0.042166624
70	0x38820600	6.200001e-05
71	0xbd52e645	-0.051489133
72	0x3d07532d	0.033038307
73	0x3d588fda	0.052871563
74	0x3d0c036b	0.034182947
75	0xbcc7b747	-0.024379386
76	0xbd2e8422	-0.04260648
77	0x3c2a9f49	0.010413953
78	0xbc2939d8	-0.010328732
79	0x3c6e7fe3	0.014556858
80	0x3d50a64b	0.05093984
81	0xbc754e41	-0.0149722705
82	0xbc0a9556	-0.008458456
83	0x3bae9ac8	0.00532851
84	0x3cd4ddc3	0.02598465
85	0xbd524709	-0.051337276
86	0xbd0d37e6	-0.034477137
87	0xbc3d48bc	-0.011552986
88	0xbcb53765	-0.02212114
89	0x3cc49fe3	0.024002021
90	0xbc573cf8	-0.013137095
91	0xbcc5c7b7	-0.024143083
92	0xbceb43f7	-0.028718932
93	0x3d54bb44	0.051936403
94	0x3cf34d6e	0.029700007
95	0xbc2380ac	-0.009979408
96	0xbc412866	-0.011789417
97	0xbd23e1f1	-0.040010396
98	0xbd036cfb	-0.032086354
99	0x3d4f3aa3	0.05059303
100	0x3c6adf7b	0.014335508
101	0x3ce01f4a	0.02735867
102	0x3d55c9c2	0.052194364
103	0x3cf3fd76	0.029783946
104	0x3c058b00	0.008150816
105	0xbd2334fb	-0.039845448
106	0x3d454da1	0.048169736
107	0x3d4d67c9	0.050147805
108	0x3c9c3f87	0.019073261
109	0xbd2a456a	-0.041570105
110	0x3be79ada	0.0070680203
111	0xbce26878	-0.027637705
112	0x3ba4b4e8	0.0050264485
113	0x3d33296b	0.04374067
114	0x3d15a323	0.036532532
115	0xbd491023	-0.049087655
116	0x3d38be7b	0.04510353
117	0xbc5e87aa	-0.0135821495
118	0x3d2cdad7	0.04220089
119	0x3ca883f2	0.020570729
120	0x3c25ae3c	0.0101123415
121	0xbd00f204	-0.031480804
122	0x3cd68a2a	0.026188929
123	0xbd080744	-0.033210054
124	0x3d1c36c8	0.03813818
125	0x3c97c673	0.018527245
126	0xbd2f3345	-0.042773504
127	0xbd23a280	-0.039949894
128	0x3c121770	0.008916721
129	0xbd335de7	-0.043790724
130	0xbced5379	-0.028970467
131	0xbcacb641	-0.021083
132	0x3cded476	0.027200919
133	0x3cc232b6	0.023705821
134	0x3d210dbb	0.039319735
135	0x3ce5ee6e	0.028067794
136	0xbca738b7	-0.020412786
137	0x3c400ba0	0.011721522
138	0x3d1928e5	0.037392516
139	0x3d48f019	0.0490571
140	0xbd308fc1	-0.043105844
141	0xbd4fb32a	-0.050707974
142	0x3d19145b	0.037372928
143	0x3b761fa0	0.003755547
144	0x3ca12ee2	0.019675676
145	0x3cc14cc5	0.023596177
146	0xbd230518	-0.03979978
147	0x3d45b066	0.04826393
148	0x3d553d51	0.05206043
149	0x3d380daa	0.044934906
150	0xbd0f84f3	-0.0350389
151	0xbc646b94	-0.013941664
152	0xbd0ffd9c	-0.03515397
153	0x3ce92241	0.028458716
154	0x3d007c01	0.03136826
155	0xbb6b7c50	-0.003593225
156	0x3b0d3ee0	0.002155237
157	0x3d53f996	0.051751696
158	0xbd48b9dc	-0.049005374
159	0xba21593c	-0.00061549596
160	0x3cc4dbe1	0.024030628
161	0xbc808092	-0.015686307
162	0xbce32403	-0.027727133
163	0x3cd7d7ca	0.026348013
164	0xbc7ce352	-0.015435057
165	0xbd1552f6	-0.03645607
166	0x3cedc3a4	0.029023953
167	0xbce23fe5	-0.027618358
168	0x3c0db602	0.008649351
169	0x3d162b16	0.036662184
170	0xbc9fefb2	-0.019523475
171	0xbc964a32	-0.018345926
172	0x3bb403a6	0.005493599
173	0xbbffd6d1	-0.0078075905
174	0xbd3ba204	-0.045808807
175	0xbccea8b5	-0.02522693
176	0x3c97b81a	0.018520404
177	0x3c25b6bd	0.010114369
178	0x39c0cb98	0.00036772783
179	0xbcbbe18a	-0.022934694
180	0xbcbb4088	-0.02285792
181	0x3ced6713	0.028979814
182	0xbd0b3ab8	-0.033991545
183	0xbd490e0c	-0.04908566
184	0x3d127216	0.035753332
185	0xbc5bf37c	-0.01342475
186	0xbcc83a11	-0.02444175
187	0x3cff7854	0.031185307
188	0x3c0882e2	0.008331986
189	0xbc82636d	-0.01591655
190	0xbd347c19	-0.04406366
191	0xbd2d9894	-0.042381838
192	0xba8fb720	-0.001096461
193	0x3b535b60	0.0032250509
194	0xbc9848d0	-0.018589407
195	0xbcc67c79	-0.024229275
196	0xbd20bbfe	-0.039241783
197	0x3d22fb72	0.03979058
198	0x3cdf8d86	0.027289163
199	0x3d0d6123	0.034516465
200	0xbcfb702c	-0.030693136
201	0x3c8e6f54	0.01738707
202	0x3d0b6281	0.034029488
203	0x3d21ca35	0.03949948
204	0x3ce7bf34	0.028289415
205	0x3d2bb233	0.04191799
206	0x3d1225f7	0.035680737
207	0xbd27004c	-0.040771767
208	0x3d364c8d	0.0445066
209	0x3c4207b3	0.011842656
210	0x3c845642	0.016154412
211	0x3cdb09b5	0.026738027
212	0x3d03661a	0.032079794
213	0x3d4a0954	0.049325302
214	0xbcce575e	-0.025188144
215	0x3c257668	0.010099031
216	0x3cd6ee26	0.026236605
217	0xbbcc5680	-0.0062358975
218	0xbd2e43c1	-0.042545084
219	0xbd1b010a	-0.037842788
220	0x3c078b40	0.008272946
221	0x3d4f947c	0.050678715
222	0x3cc3ca39	0.023900138
223	0x3cee7e39	0.029112922
224	0xbd22e664	-0.0397705
225	0x3d3a5847	0.045494344
226	0x3d1cc3c7	0.038272645
227	0x3d177a57	0.036981907
228	0x3d2b926e	0.041887693
229	0x3c35f384	0.011105422
230	0xbd1b6527	-0.037938263
231	0x3d1fc121	0.03900254
232	0xbad9f965	-0.0016630111
233	0xbb286c90	-0.0025699474
234	0x3cf917e0	0.030406892
235	0x3d073ab5	0.03301497
236	0x3c2b8571	0.010468827
237	0x3ba2bb35	0.0049661645
238	0x3d05375b	0.032523494
239	0xbd3532a2	-0.04423774
240	0x3c8471ea	0.0161676
241	0x3c6aba83	0.014326694
242	0x3c171298	0.009220742
243	0xbc308626	-0.010774171
244	0x3c6c0be5	0.014407133
245	0x3d5ac05c	0.053406104
246	0x3d3dd797	0.04634818
247	0x3c15adc0	0.0091356635
248	0x3bf16a7e	0.007367431
249	0x3bb35d5a	0.005473775
250	0x3c134424	0.008988414
251	0x3cc4c992	0.024021897
252	0x3d5751b6	0.05256816
253	0x3d54f6d2	0.0519932
254	0x3c40ebf7	0.011775008
255	0x3b312f4c	0.0027036248

simplicial_nn.2.W2 f4 [5, 64, 64]
0	0xbc8dc72a	-0.017306883
1	0xbc5f07f8	-0.01361274
2	0xbd3e01bb	-0.04638837
3	0x3d35c7f7	0.044380154
4	0x3d0e4975	0.034738023
5	0x3d53c73d	0.05170368
6	0xbd0783dc	-0.033084735
7	0xbd4ce5cd	-0.050023843
8	0x3d2d1b53	0.042262387
9	0x3d2a5794	0.041587427
10	0x3b31c7a0	0.0027127042
11	0xb9b28480	-0.00034049526
12	0xbbc5eda5	-0.0060402923
13	0xbc72eb32	-0.014826583
14	0x3c2b6e84	0.010463361
15	0xbd492402	-0.049106605
16	0xbd3cbb0b	-0.046076816
17	0x3b2183fe	0.0024645324
18	0xbce9f0cc	-0.028557204
19	0xbca34b2c	-0.019933306
20	0xbc7f7cee	-0.01559375
21	0x3d162843	0.03665949
22	0xbbf21f44	-0.007388981
23	0x3c0087bc	0.007844862
24	0xbc769ff8	-0.015052788
25	0x3d457dcc	0.048215672
26	0x3b467310	0.0030280985
27	0x3c866642	0.016406182
28	0xbd50b3e8	-0.050952822
29	0xbd3dde79	-0.046354745
30	0xbc929720	-0.017894328
31	0xbbe01408	-0.0068383254
32	0x3bc242fd	0.005928396
33	0xbd399036	-0.045303546
34	0x3c67abc8	0.014140077
35	0x3d443f04	0.04791166
36	0x3c392a7c	0.011301633
37	0xbd1d625e	-0.03842389
38	0x3cc56606	0.0240965
39	0xbd49adc2	-0.049237974
40	0xbc4f9694	-0.012670178
41	0xbd4d890d	-0.05017953
42	0x3cdda158	0.027054474
43	0xbd311505	-0.043232936
44	0xba382c34	-0.000702563
45	0xbbbfca04	-0.0058529396
46	0x3d4991aa	0.04921118
47	0xbd2d7d17	-0.042355623
48	0x3cca59fa	0.024701107
49	0x3c038570	0.008027419
50	0xbd23b1c5	-0.039964456
51	0xbd1dd518	-0.0385333
52	0xbbce2aff	-0.0062917466
53	0xbc84f0e6	-0.01622815
54	0x3cd2f042	0.02574933
55	0x3c124368	0.008927204
56	0xbbec4402	-0.0072102556
57	0xbc89e442	-0.016832475
58	0x3d07df23	0.033171784
59	0x3cded48d	0.027200961
60	0x3d056eeb	0.032576483
61	0x3d4de911	0.050271098
62	0x3bf79d3c	0.0075565856
63	0xbc4a4a53	-0.012346822
64	0xbc9d794a	-0.019222874
65	0xbd01ac5e	-0.031658523
66	0x3cce9237	0.025216205
67	0x3cb11ad6	0.021619242
68	0x3ce2ddae	0.027693596
69	0xbcbbc72f	-0.022922127
70	0x3c3f0f24	0.011661325
71	0xbc93200c	-0.017959617
72	0x3d17c513	0.03705318
73	0x3d276288	0.04086545
74	0xbc8d8f6a	-0.0172803
75	0x3c1b09a8	0.009462751
76	0x3d0a1313	0.033709597
77	0x3b959933	0.004565382
78	0xbb9c25a0	-0.0047652274
79	0x3c9c7dab	0.019102892
80	0xbc953d4c	-0.018217705
81	0x3d0c5021	0.034256104
82	0x3c5eea0b	0.013605605
83	0xbd151487	-0.03639653
84	0x3b2c0935	0.0026250605
85	0x3ba0f3d1	0.0049118777
86	0x3d39ef32	0.04539413
87	0xbcb43ce7	-0.022001697
88	0xbce5cb3b	-0.02805101
89	0x3c3c8b8b	0.011507879
90	0xbd17cb38	-0.03705904
91	0x3d00b2a5	0.03142037
92	0x3d328f2d	0.043593574
93	0x3d502824	0.05081953
94	0x3c2ddd0f	0.0106117865
95	0x3c02150e	0.00793959
96	0xbc4fbff5	-0.0126800435
97	0xbca3abb3	-0.019979334
98	0xbceb02eb	-0.028687915
99	0x3d30b293	0.04313905
100	0xbd2e557c	-0.042561993
101	0x3c52fadc	0.012877192
102	0xbc9e8366	-0.019349765
103	0x3cb04ec2	0.02152193
104	0x3caa5ff9	0.020797716
105	0xbd0cbd15	-0.03436001
106	0x3c0788d9	0.008272373
107	0x3bdf15d8	0.006808024
108	0xbd023bc8	-0.031795293
109	0x3d2cd245	0.042192716
110	0xbd3efd48	-0.046628267
111	0xbc6ecbbc	-0.014574941
112	0x3b8654b8	0.0040994547
113	0xbd359bd7	-0.044338074
114	0x3d5ac690	0.05341202
115	0x3c4d064e	0.01251371
116	0xbd06acd2	-0.032879658
117	0xbd3aa351	-0.045565907
118	0xbd473e57	-0.048643436
119	0xbb639b80	-0.0034730136
120	0xbcfb5d9a	-0.030684281
121	0xbc98e812	-0.018665347
122	0xbc21af98	-0.009868525
123	0x3c8c5328	0.017129496
124	0xbcee4664	-0.0290863
125	0xbd31292d	-0.04325216
126	0x3c8f71aa	0.017510254
127	0x3b9cc85e	0.004784628
128	0x3ccda39a	0.025102425
129	0xbc23d8a0	-0.010000378
130	0xbd1c8b67	-0.038218882
131	0xbd20c1ee	-0.039247446
132	0x3c49e63c	0.012322959
133	0xbcd7a9e9	-0.026326137
134	0xbd4eefde	-0.050521724
135	0x3b26c890	0.0025449134
136	0x3ccaee0c	0.024771713
137	0xbd372348	-0.04471138
138	0x3d4a92e9	0.04945651
139	0xb9a26f00	-0.0003098175
140	0xbbe2665f	-0.0069091762
141	0xbbba9e88	-0.005695168
142	0xbcf86b41	-0.03032458
143	0x3cc7bd10	0.024382144
144	0xbbff6628	-0.0077941604
145	0x3c7893d8	0.015171967
146	0xbc519ca9	-0.012793698
147	0xbd1141d2	-0.03546316
148	0xbc0acd42	-0.008471789
149	0x3bdb9ab6	0.0067017926
150	0x3c08f3da	0.00835892
151	0x3cee05c2	0.02905548
152	0x3cd54016	0.026031535
153	0xbd372506	-0.044713043
154	0x3cf6b092	0.030113492
155	0xbd408d31	-0.04700965
156	0xbc6c4418	-0.014420532
157	0x3cbc0956	0.02295367
158	0xbd1960ae	-0.037445717
159	0x3d0b5521	0.034016732
160	0x3cc54136	0.024078947
161	0xbc760902	-0.015016796
162	0xbcc9256f	-0.024553983
163	0x3d4e3e51	0.0503524
164	0x3d0bc6be	0.034125082
165	0x3c035018	0.008014701
166	0x3d58dc7f	0.052944656
167	0x3d3a2675	0.04544683
168	0x3d2b51b1	0.041825954
169	0xbae33803	-0.0017335418
170	0x3b42b244	0.0029708305
171	0xbd394996	-0.045236193
172	0x3d3e8e1f	0.046522256
173	0xbc575acb	-0.013144205
174	0x39e530ec	0.00043714733
175	0x3cd0ec16	0.0255032
176	0xbd520293	-0.051271986
177	0xbd46191d	-0.048363794
178	0xbd0e1662	-0.034689315
179	0x3d267502	0.04063893
180	0x3d07069d	0.03296529
181	0x3c14055e	0.009034483
182	0x3cf29aba	0.029614795
183	0xbd22468a	-0.039618053
184	0x3d2e42bf	0.042544123
185	0xbc9bec4a	-0.01903357
186	0x3c937196	0.017998498
187	0xbc042182	-0.0080646295
188	0x3d38353d	0.044972647
189	0x3caa9abf	0.020825742
190	0x3cdcc1b2	0.02694783
191	0xbd06bfcd	-0.03289776
192	0xbd0f39fb	-0.034967404
193	0x3cf48fc6	0.029853713
194	0xbabc5720	-0.0014369227
195	0x3d1dea4d	0.038553525
196	0x3c780b9c	0.015139487
197	0x3c4525d4	0.012032945
198	0x3d4a1343	0.049334776
199	0xbcc27586	-0.02373768
200	0xbaf8b998	-0.001897621
201	0x3d2fc848	0.042915612
202	0xbb8ef8b0	-0.004363142
203	0x3c9a38c2	0.018825892
204	0x3d345711	0.044028345
205	0xbc3cf82a	-0.011533776
206	0x3cf55b7e	0.029950853
207	0x3d2b366f	0.04179996
208	0xbd0f9adb	-0.03505979
209	0x3be5d20d	0.0070135654
210	0x3cc4f6cd	0.024043465
211	0xbd17616c	-0.036958143
212	0xbb1ecbf2	-0.0024230448
213	0xbb2ef96c	-0.002669896
214	0x3d16aac8	0.036783963
215	0xbbcf7a80	-0.006331742
216	0x3d0fd3d7	0.035114136
217	0x3d4aaa1d	0.04947864
218	0x3d1e9fa9	0.038726483
219	0x3c5c8a34	0.013460685
220	0x3d011647	0.031515386
221	0x3d4ba8f8	0.049721688
222	0xbce3ac70	-0.027792186
223	0x3cc9ff67	0.024657918
224	0xbd33b102	-0.04386998
225	0x3c76887d	0.01504719
226	0xbc8259b4	-0.015911914
227	0xbd083aee	-0.033259325
228	0x3d22c3f0	0.03973764
229	0x3d1df8b5	0.038567264
230	0xbccaed83	-0.024771458
231	0xbb5dc880	-0.003384143
232	0x3c3f3da6	0.011672413
233	0x3d253a47	0.04033878
234	0x3bd09756	0.006365697
235	0x3d239b3b	0.03994296
236	0x3d00a01c	0.031402692
237	0x3c7051ee	0.014667971
238	0xbd1d50b7	-0.038407054
239	0x3cadd3c9	0.021219151
240	0x3d47bc09	0.04876331
241	0xbca62ec1	-0.020285966
242	0xbd13edf3	-0.036115598
243	0x3cde0d44	0.027105935
244	0xbd089049	-0.033340726
245	0x3d0def35	0.034651954
246	0xbd02c1f4	-0.03192325
247	0x3c69070c	0.0142228715
248	0xbcaa18d3	-0.02076379
249	0x3c86a7a5	0.016437361
250	0xbcb61d0f	-0.022230653
251	0x3d57333f	0.052539106
252	0x3d339576	0.04384371
253	0x3c8c9759	0.017162012
254	0x3cf882b3	0.03033576
255	0x3d25cb9e	0.040477388

simplicial_nn.4.W0 f4 [64, 1]
0	0xbe570e91	-0.2100165
1	0x3e8c0c0b	0.27352938
2	0x3ebcf9fb	0.3690947
3	0x3ed2c875	0.41168562
4	0x3e79d3ea	0.24397245
5	0x3cdf6a29	0.0272723
6	0xbe8a22f6	-0.26979798
7	0x3e831537	0.25602123
8	0x3df63a6c	0.12022862
9	0x3d63e1e2	0.05563534
10	0xbc072be0	-0.008250207
11	0xbec93de7	-0.3930504
12	0xbe766de3	-0.24065356
13	0xbdcab3e0	-0.0989759
14	0xbce42660	-0.02785033
15	0xbea1099a	-0.31452638
16	0x3e8509ed	0.25984135
17	0xbe644ec4	-0.22295672
18	0xbe52a339	-0.20570077
19	0xbe93f5ce	-0.28898472
20	0xbedac329	-0.4272702
21	0xbe988575	-0.2978932
22	0xbe48163e	-0.19539735
23	0x3e509cba	0.20372286
24	0xbe505d2b	-0.20348041
25	0x3b17f237	0.0023185143
26	0x3eb724a3	0.3577014
27	0x3d410d88	0.047132045
28	0x3eaaed35	0.333841
29	0x3ea18c32	0.31552273
30	0xbd1ab09a	-0.037766077
31	0xbed80b0f	-0.42195937
32	0xbe9c5637	-0.30534527
33	0x3e8ec358	0.2788341
34	0xbeb6bae9	-0.35689476
35	0x3e329558	0.17439783
36	0x3d52bacd	0.05144768
37	0x3d4fe8e0	0.050759196
38	0x3e9e2437	0.30887005
39	0xbe9e59ee	-0.30927986
40	0xbe557100	-0.20843887
41	0xbd486714	-0.048926428
42	0x3e02d68e	0.12777159
43	0xbe520f6b	-0.20513694
44	0x3ea3d328	0.31997037
45	0xbe5d0a60	-0.21585989
46	0xbcb224d6	-0.02174608
47	0xbe27fbfe	-0.16404721
48	0x3dc394e4	0.09549883
49	0xbc8de5a9	-0.017321425
50	0x3ea75207	0.3267977
51	0xbe9800b3	-0.29688033
52	0xbd425894	-0.047447756
53	0x3ea74323	0.3266841
54	0xbeae7ef2	-0.34081227
55	0x3db4adb4	0.08822194
56	0x3e60c229	0.21949066
57	0xbeb09464	-0.34488213
58	0xbe9a5d81	-0.30149463
59	0xbb1b1380	-0.0023662746
60	0x3eb0adfa	0.34507734
61	0x3e0547bb	0.13015644
62	0xbcfeeba0	-0.031118214
63	0x3e8172ef	0.25283

simplicial_nn.4.W1 f4 [5, 64, 1]
0	0xbcc8ec70	-0.024526805
1	0xbe960ee5	-0.2930824
2	0xbeb49c00	-0.3527527
3	0xb9dbac00	-0.00041899085
4	0x3e8d0c91	0.2754865
5	0xbea269d3	-0.31721362
6	0x3ed38fb1	0.41320565
7	0xbd3edf28	-0.046599537
8	0xbd8ece49	-0.069729395
9	0x3e302875	0.17202933
10	0x3ea2402f	0.31689593
11	0x3e84984f	0.25897452
12	0x3db82a3a	0.08992429
13	0xbe004370	-0.12525725
14	0xbec95dae	-0.39329284
15	0x3ec43916	0.38324803
16	0xbdf9aa14	-0.12190643
17	0xbe74f32d	-0.23920889
18	0xbe909258	-0.2823665
19	0xbe89e857	-0.26935074
20	0xbe85901d	-0.26086512
21	0xbe8d6237	-0.27613994
22	0x3dae9a16	0.08525483
23	0xbe52955b	-0.20564787
24	0xbed09a28	-0.40742612
25	0x3e04e1bb	0.12976734
26	0x3eafa789	0.34307507
27	0xbea31ebd	-0.3185939
28	0x3eb5611d	0.35425654
29	0xbe1afa38	-0.15134513
30	0x3d2c2c47	0.042034414
31	0x3e1d60fe	0.15369031
32	0x3e8afafd	0.27144614
33	0xbe102496	-0.14076456
34	0xbeaed2c4	-0.34145176
35	0xbd83e23d	-0.06439636
36	0x3d8d2f09	0.06893737
37	0x3d98b840	0.07457018
38	0x3e4488bc	0.19192785
39	0x3e4f1de2	0.20226243
40	0xbe1127f8	-0.14175403
41	0xbdf2b98d	-0.11851797
42	0xbd871770	-0.06596267
43	0x3ebea861	0.37237838
44	0x3e2be723	0.1678739
45	0xbd7fe934	-0.06247826
46	0x3e7bc97b	0.24588577
47	0xbd578797	-0.052619543
48	0x3caf93e0	0.021432817
49	0xbe618cd8	-0.22026384
50	0xbd0c922e	-0.034319095
51	0x3df0d3b6	0.11759131
52	0x3ea97298	0.3309524
53	0x3e40f4ca	0.1884338
54	0x3d3bd698	0.04585895
55	0x3ea88cad	0.32919827
56	0x3e353ccd	0.17698975
57	0x3e192df4	0.14958936
58	0xbeaa428c	-0.33253896
59	0xbd697420	-0.05699551
60	0x3d214bbd	0.03937887
61	0xbe2e48e0	-0.17019987
62	0x3d1000bf	0.03515696
63	0xbe854f3b	-0.2603701
64	0xbe1d673a	-0.15371409
65	0xbd929cb4	-0.07158795
66	0x3d424a0f	0.04743391
67	0x3e7cb3de	0.24677989
68	0xbda364fc	-0.079782456
69	0x3e56d150	0.20978284
70	0xbea206d5	-0.31645837
71	0xbe768d4c	-0.24077338
72	0x3e753d69	0.23949207
73	0xbe78a392	-0.24281147
74	0x3ed271b7	0.41102383
75	0xbec5465f	-0.3853025
76	0x3dc31cd0	0.0952698
77	0xbeb2fb6e	-0.3495745
78	0x3e1f19f2	0.15537241
79	0x3ea237d5	0.3168322
80	0xbebe2d2d	-0.3714384
81	0xbc56c47a	-0.013108367
82	0xbe9b3ca8	-0.30319715
83	0x3e635628	0.22200835
84	0x3dca1a69	0.098683186
85	0xbc95ec44	-0.018301137
86	0x3c739b1c	0.014868524
87	0xbebfbb05	-0.37447372
88	0x3ecf965b	0.405444
89	0x3e40c06f	0.18823408
90	0x3e50719a	0.20355836
91	0x3dbb2e34	0.09139672
92	0x3e90798d	0.28217736
93	0xbe8c02a2	-0.2734576
94	0xbea05b71	-0.31319764
95	0x3e8c503c	0.27404964
96	0x3dbb26bf	0.091382496
97	0x3e8acd7a	0.2710989
98	0x3ec8f79d	0.39251414
99	0xbe553d79	-0.20824231
100	0xbeafb6b8	-0.3431909
101	0xbd375720	-0.044760823
102	0xbe4a5d9e	-0.19762275
103	0x3e3b17de	0.18270823
104	0x3e222cc9	0.15837397
105	0x3e2a5067	0.16632234
106	0x3cd94223	0.026520794
107	0xbe2bff4f	-0.16796611
108	0xbebeeeb8	-0.37291503
109	0x3e7945f3	0.2434309
110	0xbce64932	-0.028111074
111	0xbd3d214f	-0.046174344
112	0x3cb27b60	0.021787345
113	0x3e8aa6f9	0.27080515
114	0xbe44890f	-0.19192909
115	0x3e131e0f	0.14366935
116	0xbdc2c7d8	-0.095107734
117	0x3e6f09b6	0.23343548
118	0x3c43cda0	0.01195088
119	0xbe6c8020	-0.23095751
120	0xbc8a0a03	-0.016850477
121	0xbe4d0218	-0.2002033
122	0xbeb77b47	-0.3583624
123	0x3da3477d	0.0797262
124	0xbe205b83	-0.15659909
125	0x3e221a49	0.1583034
126	0xbc957272	-0.018243048
127	0x3eae1c9f	0.3400621
128	0x3d75ce10	0.06001097
129	0x3e056aaa	0.1302897
130	0x3d0529c7	0.032510545
131	0x3e367b22	0.17820409
132	0x3ec9c261	0.39406112
133	0x3e038f5d	0.12847658
134	0xbc283c00	-0.010268211
135	0x3d3d0ae8	0.04615298
136	0x3d805df0	0.06267917
137	0xbe7b529c	-0.24543232
138	0xbeabce29	-0.33555725
139	0xbe48dfa1	-0.19616558
140	0x3e203f52	0.15649155
141	0x3ea5f498	0.32413173
142	0xbb92bbc0	-0.004477948
143	0x3e92a08d	0.28638116
144	0xbd01ba30	-0.031671703
145	0x3e8c3e69	0.27391365
146	0xbd21030b	-0.039309543
147	0xbe6d4682	-0.23171428
148	0xbe1c919c	-0.1528992
149	0xbed1e6d5	-0.40996423
150	0x3e66658f	0.22499679
151	0xbeb88b1a	-0.36043626
152	0xbebee447	-0.37283537
153	0xbebae3bb	-0.3650187
154	0xbe9fcca2	-0.3121081
155	0x3eb15db9	0.34641817
156	0x3e1b1e72	0.15148333
157	0x3db2784f	0.08714353
158	0x3e5ed7a4	0.21761948
159	0xbe92387f	-0.28558728
160	0x3cb10d8a	0.021612901
161	0xbc9c5dfb	-0.019087782
162	0x3e774f37	0.24151312
163	0x3ed58fc6	0.41711253
164	0xbebd2304	-0.36940777
165	0xbe0295da	-0.12752476
166	0x3ed27afe	0.4110946
167	0xbc42d180	-0.011890769
168	0xbea8a94e	-0.3294167
169	0x3ec8d930	0.392282
170	0xbe449e4c	-0.1920101
171	0xbd67c068	-0.056579977
172	0xbeb2a078	-0.34888053
173	0xbdbb55f0	-0.09147251
174	0xbecddd59	-0.40207937
175	0x3daa04a9	0.0830167
176	0x3da6f258	0.08151692
177	0x3e91ac12	0.28451592
178	0xbe5c4930	-0.21512294
179	0x3e0f14e0	0.13972807
180	0x3d7e82d1	0.062136475
181	0xbed0224f	-0.40651175
182	0x3ed0b78f	0.40765044
183	0x3e8dbbf9	0.27682474
184	0xbea0b29e	-0.31386274
185	0x3d73aa24	0.05948843
186	0xbd4f6d10	-0.05064112
187	0xbebfaf7e	-0.37438577
188	0x3e4a128b	0.19733636
189	0xbe63e234	-0.22254258
190	0x3ca6bf60	0.020354927
191	0x3e01753f	0.12642382
192	0xbe4bab1b	-0.1988949
193	0x3e680a4e	0.22660181
194	0x3d1e6bec	0.03867714
195	0x3d4e6f50	0.050399125
196	0x3e3501da	0.17676488
197	0x3df7ebff	0.121055596
198	0xbd12bcc0	-0.035824537
199	0xbe6c6631	-0.23085858
200	0xbebc1dcd	-0.36741486
201	0x3e2b8248	0.16748917
202	0x3e1c9f96	0.15295252
203	0x3dbf1794	0.09330669
204	0x3eaef955	0.341746
205	0x3c2e7519	0.010648035
206	0x3d1732c0	0.036913633
207	0xbd43207d	-0.047638405
208	0x3ec7b82f	0.39007708
209	0x3ed06c6d	0.40707722
210	0xbe7c8b3e	-0.24662492
211	0xbe18b230	-0.14911723
212	0x3e01a8dd	0.12662072
213	0x3ecb55d7	0.39713928
214	0xbe26e479	-0.16298093
215	0x3ec44cc7	0.38339826
216	0x3dd3b64c	0.10337505
217	0xbdb2a732	-0.08723296
218	0x3e0fb9ba	0.14035693
219	0xbc9443c0	-0.018098712
220	0x3eaa4aa1	0.33260062
221	0x3eb2a3b5	0.34890524
222	0xbe323581	-0.17403223
223	0x3e90d648	0.28288484
224	0x3df6292b	0.12019571
225	0xbea8954f	-0.32926413
226	0xbe9e7915	-0.30951753
227	0xbe55fe21	-0.20897724
228	0xbdd9b4ee	-0.10630213
229	0xbe6f2ca0	-0.23356867
230	0xbeacc8db	-0.3374699
231	0x3ebab5e9	0.3646691
232	0x3ed15c2d	0.40890637
233	0x3e3d03c2	0.18458465
234	0x3ec059fa	0.37568647
235	0xbeb7d9df	-0.3590841
236	0x3e22e343	0.15907006
237	0x3ed638ef	0.41840312
238	0xbed0a9b4	-0.40754473
239	0x3e8343a2	0.25637537
240	0x3ec01e27	0.37523004
241	0xbe842e2a	-0.2581647
242	0xbe8ef249	-0.27919224
243	0xbd0f42a7	-0.034975674
244	0xbe9c1510	-0.3048482
245	0x3deaf971	0.114733584
246	0x3e174c52	0.14775208
247	0x3e36b35a	0.17841855
248	0xbe92a246	-0.2863943
249	0x3e9128c5	0.28351417
250	0x3e9946d3	0.29936847
251	0x3ec3dc2c	0.38253915
252	0xbe2e8b85	-0.1704541
253	0x3ed441cc	0.4145645
254	0x3ec27245	0.37977806
255	0x3e826796	0.25469655
