results/Test_citation/version_39/checkpoints/epoch=999-step=1000.ckpt (torch, 21137 bytes, 27 tensors)

simplicial_nn.0.W0 f4 [1, 16]
-0.64448357 0.58953327 0.42113948 -0.68454313 0.3201533 0.24895231 0.45843133 -0.13002402
0.25708595 -0.14374417 0.499826 0.07578453 -0.011237398 0.34406215 0.37850764 -0.62205386
00000000: e0fc 24bf a7eb 163f 989f d73e 383e 2fbf
00000010: 22eb a33e 5bed 7e3e 83b7 ea3e 0425 05be
00000020: c5a0 833e ac31 13be 32e9 ff3e eb34 9b3d
00000030: 101d 38bc ea28 b03e c1cb c13e ec3e 1fbf

simplicial_nn.0.W1 f4 [1, 16]
-0.42623246 0.7778357 0.7456574 -0.5075164 -0.6879629 -0.29516867 0.3417319 -0.82829505
-0.34048375 0.25204185 0.6615984 0.72585475 -0.90255857 0.36500996 -0.26121554 -0.7650777
00000000: 243b dabe 3e20 473f 67e3 3e3f 98ec 01bf
00000010: 561e 30bf 5920 97be 7cf7 ae3e 250b 54bf
00000020: e353 aebe a10b 813e 835e 293f 9ed1 393f
00000030: 140e 67bf 96e2 ba3e 0bbe 85be 22dc 43bf

simplicial_nn.0.W2 f4 [1, 16]
0.53570676 -0.059508342 0.016864233 -0.60658574 0.3693403 -0.29456967 0.65139407 0.12542322
-0.32451653 -0.2440951 -0.41856977 -0.042987 -0.23374875 -0.0047299215 0.6909582 0.4770505
00000000: 1424 093f 05bf 73bd dc26 8a3c 3449 1bbf
00000010: 2c1a bd3e d6d1 96be c3c1 263f f26e 003e
00000020: 0827 a6be 11f4 79be c74e d6be 2313 30bd
00000030: d55b 6fbe 75fd 9abb a3e2 303f f73f f43e

simplicial_nn.2.W0 f4 [16, 16]
0.47412425 0.27080753 0.5248939 -0.26089624 -0.48819113 0.10948944 -0.20248458 -0.5682441
-0.12772876 0.32202184 0.028292505 -0.11881819 -0.304882 -0.42618245 -0.4666773 -0.1427423
0.15132669 0.47948635 0.07293657 -0.23441261 0.45671743 0.59500796 0.09605293 -0.3802704
-0.29057643 -0.30065432 0.34658185 -0.08200751 0.028216565 -0.025232425 -0.15830427 0.3989806
-0.06330017 -0.29635343 0.6026558 0.52115464 0.44276613 -0.5967154 0.35349658 0.6193727
-0.091817975 0.13716264 -0.5171564 -0.43793783 0.55986255 -0.41221264 0.10794277 0.35761288
-0.48789817 -0.29234615 -0.27096465 -0.26099512 -0.10166544 0.5030045 0.23109972 -0.58793867
-0.17653665 -0.12174633 0.0400455 -0.10249084 0.3553772 -0.5994347 0.56383234 -0.4891775
-0.44841045 0.55525315 0.5392389 0.1265959 -0.09395694 -0.08216989 -0.2800952 -0.21845601
0.46943295 0.21868479 -0.36820397 0.1993416 0.55106586 -0.42832232 -0.10305532 -0.28426975
0.039939832 -0.39691606 0.38177946 -0.2560006 0.052912883 -0.1898394 -0.44919044 -0.49103743
0.021182405 -0.32722396 -0.4897742 0.43325755 -0.044397965 -0.12340078 0.29872283 -0.31304038
-0.42058462 -0.34606996 0.2884972 0.1222259 -0.07863338 -0.12869701 -0.048326015 -0.017714879
-0.19524957 0.1325566 -0.18238692 0.3035047 0.5432691 0.18736948 0.11362326 0.13698752
-0.62124515 -0.03626469 0.38393265 -0.25353113 -0.18222877 -0.28870654 -0.26212656 -0.07589004
-0.07706427 -0.0320542 0.4124032 0.17573513 -0.13634299 0.40354338 0.5411415 -0.04468241
0.5954432 0.2528439 -0.36612672 0.5830337 0.053001042 -0.16157399 -0.10904926 -0.2867297
-0.6232627 -0.3637774 -0.089810185 -0.34616098 0.07892784 0.45033625 0.6181737 0.31428912
0.44668192 0.28208554 0.14348334 -0.044813547 -0.39037153 -0.61666846 -0.6297315 0.07933541
-0.29737997 0.19973034 0.07998043 -0.21806604 0.06358822 0.18409628 -0.38106015 -0.17484385
0.26943412 0.18002386 -0.24315402 0.4251463 -0.20588832 0.10197997 0.32475373 0.106437385
-0.4829595 0.5588258 0.2925182 0.004608211 -0.17581725 -0.43107057 0.31344065 -0.20926322
-0.10730575 -0.3814459 0.36902994 -0.578496 0.63666606 0.1409211 0.40070745 0.47850534
0.3823071 -0.15876222 -0.5706912 0.14439952 -0.01976314 -0.27576494 -0.269296 0.13254745
0.10863918 -0.46262905 -0.37440765 0.4315051 0.5111059 0.76610404 0.3329639 0.5212492
0.42121884 -0.26016688 0.31709656 -0.13771057 -0.72457665 0.46033782 0.031981748 -0.10714814
0.50133836 -0.6107142 0.18820517 0.39762998 0.25970122 0.26109573 0.0539809 0.3975685
-0.3561899 -0.19882564 0.10976388 0.37139902 -0.59541196 0.42992488 -0.14619994 0.05911025
0.09618533 0.5250455 0.34088156 -0.36935657 -0.43167904 0.17009722 0.00051454565 0.095801905
0.49327397 0.430097 -0.21284287 0.14789616 0.5250685 0.04734879 0.38197437 -0.52434516
0.17864048 0.55528104 -0.6013491 -0.55232066 0.51193 -1.126933 0.095228024 -0.35235798
-0.307601 0.3901201 0.34574175 0.43012235 0.7582792 -0.351495 0.1292641 0.020050306
00000000: 6ac0 f23e 49a7 8a3e 725f 063f 3194 85be
00000010: 30f4 f9be 003c e03d 1e58 4fbe 7278 11bf
00000020: 54cb 02be 0ce0 a43e afc5 e73c f456 f3bd
00000030: 7e19 9cbe 9634 dabe 54f0 eebe 0a2b 12be
00000040: 62f5 1a3e 3c7f f53e c55f 953d dc09 70be
00000050: ded6 e93e 7152 183f 66b7 c43d cdb2 c2be
00000060: 6fc6 94be 5def 99be 2d73 b13e 8ef3 a7bd
00000070: 6d26 e73c 3bb4 cebc 841a 22be 2f47 cc3e
00000080: 85a3 81bd a3bb 97be a747 1a3f 646a 053f
00000090: 3eb2 e23e 57c2 18bf 81fd b43e 368f 1e3f
000000a0: 100b bcbd 5d74 0c3e 5d64 04bf 6339 e0be
000000b0: 2753 0f3f 890d d3be 1911 dd3d 0919 b73e
000000c0: cacd f9be 65ae 95be e1bb 8abe 27a1 85be
000000d0: f835 d0bd e7c4 003f 68a5 6c3e 2683 16bf
000000e0: 06c6 34be 2456 f9bd c006 243d b8e6 d1bd
000000f0: 00f4 b53e 8d74 19bf 5157 103f 7975 fabe
00000100: 0e96 e5be 1225 0e3f 900b 0a3f 5ba2 013e
00000110: 7f6c c0bd b048 a8bd a368 8fbe efb2 5fbe
00000120: 8459 f03e e8ee 5f3e 3b85 bcbe 3420 4c3e
00000130: a712 0d3f 104d dbbe ab0e d3bd ce8b 91be
00000140: f397 233d 9538 cbbe 9978 c33e 8312 83be
00000150: 2ebb 583d 4265 42be 4afc e5be 4269 fbbe
00000160: b986 ad3c e689 a7be afc3 fabe efd3 dd3e
00000170: a4da 35bd 8cb9 fcbd 33f2 983e d446 a0be
00000180: de56 d7be 1530 b1be e8b5 933e 9351 fa3d
00000190: 8a0a a1bd 26c9 03be 80f1 45bd cb1e 91bc
000001a0: 81ef 47be ebbc 073e a3c3 3abe f864 9b3e
000001b0: af13 0b3f c9dd 3f3e 50b3 e83d 7546 0c3e
000001c0: ec09 1fbf 498a 14bd d292 c43e d5ce 81be
000001d0: 2e9a 3abe 58d1 93be 7435 86be 3d6c 9bbd
000001e0: dfd3 9dbd 444b 03bd 8326 d33e e9f3 333e
000001f0: 7f9d 0bbe 3d9d ce3e 4088 0a3f e704 37bd
00000200: f76e 183f c174 813e f674 bbbe b241 153f
00000210: 9f17 593d a773 25be 3855 dfbd 3cce 92be
00000220: 258e 1fbf 0841 babe 67ee b7bd 033c b1be
00000230: eba4 a13d 7992 e63e a240 1e3f 81ea a03e
00000240: 7eb3 e43e 846d 903e 4ced 123e 698e 37bd
00000250: c7de c7be fcdd 1dbf 1536 21bf 9a7a a23d
00000260: 3042 98be 1c86 4c3e c8cc a33d b44c 5fbe
00000270: 8a3a 823d bc83 3c3e 511a c3be 440a 33be
00000280: 45f3 893e 2d58 383e 5efd 78be c7ac d93e
00000290: 63d4 52be e0da d03d 1f46 a63e d8fb d93d
000002a0: 7846 f7be 350f 0f3f f2c4 953e 7a00 973b
000002b0: 7009 34be 48b5 dcbe 4b7b a03e 1949 56be
000002c0: 1ec3 dbbd e14c c3be 7ef1 bc3e 5018 14bf
000002d0: 8cfc 223f 9f4d 103e 8729 cd3e a7fe f43e
000002e0: c2bd c33e 9092 22be d218 12bf 78dd 133e
000002f0: 4fe6 a1bc 1031 8dbe 2ae1 89be 85ba 073e
00000300: 387e de3d b7dd ecbe 5cb2 bfbe 3dee dc3e
00000310: d6d7 023f 651f 443f 3f7a aa3e 9670 053f
00000320: ffa9 d73e 9834 85be 7b5a a23e 0004 0dbe
00000330: db7d 39bf 66b1 eb3e 4bff 023d 7c70 dbbd
00000340: b657 003f c457 1cbf dbb8 403e 2896 cb3e
00000350: 8ff7 843e 57ae 853e 141b 5d3d 198e cb3e
00000360: 865e b6be f398 4bbe e3cb e03d 0328 be3e
00000370: eb6c 18bf 1d1f dc3e 70b5 15be 971d 723d
00000380: d0fc c43d 6269 063f 0788 ae3e 4e1c bdbe
00000390: 0905 ddbe f72d 2e3e 93e2 063a ca33 c43d
000003a0: 688e fc3e ad35 dc3e 7bf3 59be 1772 173e
000003b0: e46a 063f cef0 413d 2592 c33e 7c3b 06bf
000003c0: 88ed 363e e626 0e3f 04f2 19bf e364 0dbf
000003d0: d80d 033f 573f 90bf e906 c33d 4468 b4be
000003e0: e17d 9dbe d2bd c73e 1005 b13e ff38 dc3e
000003f0: 961e 423f 27f7 b3be cf5d 043e 8a40 a43c

simplicial_nn.2.W1 f4 [16, 16]
-0.016476162 -0.017502977 0.00085827656 -0.055469733 0.5490179 -0.091735385 0.18969177 0.5922691
0.38726738 0.4363076 -0.13196976 -0.46981347 -0.29608634 -0.14180616 -0.04649393 0.42764837
0.09981335 -0.20612411 0.30632406 -0.43128538 -0.063239016 0.452604 -0.052836377 -0.17849039
-0.44731656 0.14581075 0.043683983 -0.49313068 0.36205423 -0.4354941 0.54825044 -0.27685213
-0.04663602 0.1965657 0.32669201 -0.46057406 0.5263783 0.13650914 -0.50400704 0.32891238
-0.42605472 -0.17704055 0.34805408 -0.5120521 0.12732083 0.18757726 -0.36638227 -0.26905158
-0.45798725 -0.44896042 -0.16028294 -0.24041155 0.27856845 -0.53437865 -0.3178542 -0.09117001
0.54443735 0.3341993 0.24906117 -0.19913518 -0.49929798 0.47988492 0.31602216 0.39986628
-0.48107338 0.46085966 0.562411 -0.48144808 0.26905304 -0.047847163 -0.07169613 -0.11074787
-0.10188667 0.07045553 -0.50263673 -0.15243031 -0.09273745 -0.16622528 -0.4176187 0.15701766
-0.21799494 -0.021869177 0.026206676 -0.20987831 -0.2559547 -0.6347195 -0.62203586 -0.32281178
-0.42549133 0.366841 -0.14618646 -0.37726972 -0.37331864 -0.18585752 0.5325881 -0.52164245
-0.40661052 0.63773614 0.50888056 0.09443491 -0.024241744 -0.2995546 0.08758388 -0.31681767
0.04525927 -0.33375803 -0.13261719 -0.2783257 -0.4584733 0.2840471 -0.5862748 0.061325267
0.45087323 0.49079072 0.32166028 -0.03321328 -0.484602 0.42902112 -0.6416371 0.11542987
0.18125871 -0.19666415 -0.28427953 -0.32606906 -0.13474493 -0.37503594 -0.38415483 -0.09508743
0.57242715 0.41619536 0.35218167 0.3819263 -0.57236755 -0.14130534 -0.62183535 0.17944135
0.32213917 -0.09294543 0.66329384 -0.36502552 -0.2881985 -0.3340168 -0.6003127 0.4826995
0.19495936 0.15333594 0.48300037 0.2500552 -0.30137786 0.22587228 -0.6154475 -0.352344
-0.31378582 -0.13503651 -0.5608703 -0.4660858 -0.15497576 -0.13504034 -0.2803277 0.224321
0.06640512 -0.26380375 -0.38061222 0.08782066 -0.30618298 -0.090801924 0.497547 0.34457058
0.48749244 -0.42600125 -0.3346652 0.44251648 -0.23270483 -0.22454435 -0.3163205 -0.4006074
-0.06920955 -0.48533374 -0.38311273 -0.26481402 -0.25942245 0.16407615 -0.33943748 -0.57803375
-0.30368912 -0.15427646 -0.4538779 -0.4718055 -0.21592243 0.19764227 0.29916114 -0.03552555
-0.5799327 -0.1344993 -0.6151201 0.2643362 0.3993364 -0.40650305 -0.20764072 -0.23687439
-0.1958786 -0.57721657 0.024208957 0.21167548 0.49740848 0.48802784 -0.26559526 -0.19789214
-0.045703642 0.3997261 0.093172155 0.467963 -0.36667344 -0.41185972 -0.5188457 -0.4515726
-0.5986901 -0.25519738 0.0075327754 0.5079599 -0.15387888 0.30902562 0.3810188 0.36091417
0.46853465 0.47869563 -0.40682963 0.42490894 0.49464327 0.1573528 -0.34546015 0.040951677
0.42392594 0.2326748 -0.33574954 -0.35973993 0.43890008 -0.5461101 0.30540302 -0.09816187
0.045499094 0.34968182 -0.07330658 0.46536428 0.07786349 0.40065384 0.50115204 0.5671942
0.5042311 -0.35938227 0.4406172 0.5667919 0.31204996 -0.40547127 -0.6392708 -0.50506425
00000000: 04f9 86bc 6762 8fbc f7fd 603a 3b34 63bd
00000010: 708c 0c3f c3df bbbd 8f3e 423e f39e 173f
00000020: e947 c63e b663 df3e 1523 07be 648b f0be
00000030: a198 97be a235 11be 6b70 3ebd baf4 da3e
00000040: f16a cc3d 3312 53be 82d6 9c3e 70d1 dcbe
00000050: 7583 81bd b6bb e73e f56a 58bd 2fc6 36be
00000060: ad06 e5be 6a4f 153e faed 323d a07b fcbe
00000070: 2c5f b93e 15f9 debe 245a 0c3f 90bf 8dbe
00000080: 6905 3fbd 8548 493e 2d44 a73e 5dd0 ebbe
00000090: bac0 063f 0dc9 0b3e 9b06 01bf 3467 a83e
000000a0: d823 dabe 1e4a 35be 2534 b23e d915 03bf
000000b0: 6460 023e 4114 403e 7596 bbbe 21c1 89be
000000c0: 4e7d eabe 24de e5be 3621 24be 722e 76be
000000d0: 86a0 8e3e 0acd 08bf c9bd a2be 58b7 babd
000000e0: 3f60 0b3f 2c1c ab3e e409 7f3e 18ea 4bbe
000000f0: fca3 ffbe 7ab3 f53e a8cd a13e 46bb cc3e
00000100: 404f f6be ccf5 eb3e 2bfa 0f3f 5d80 f6be
00000110: 52c1 893e 63fb 43bd 6cd5 92bd c7cf e2bd
00000120: f5a9 d0bd fd4a 903d cdac 00bf b116 1cbe
00000130: 22ed bdbd f636 2abe 1ed2 d5be 3dc9 203e
00000140: 113a 5fbe fd26 b3bc 62af d63c 57ea 56be
00000150: 7f0c 83be fa7c 22bf be3d 1fbf 9647 a5be
00000160: 00da d9be 95d2 bb3e e7b1 15be 7f29 c1be
00000170: 9f23 bfbe 6f51 3ebe b257 083f 5c8a 05bf
00000180: 412f d0be ad42 233f ff45 023f 1767 c13d
00000190: 9f96 c6bc 385f 99be 2d5f b33d ed35 a2be
000001a0: c961 393d 55e2 aabe cdcc 07be b580 8ebe
000001b0: 03bd eabe 9f6e 913e 1b16 16bf 3430 7b3d
000001c0: dbd8 e63e ec48 fb3e a8b0 a43e a60a 08bd
000001d0: c11d f8be a8a8 db3e 5442 24bf 7f66 ec3d
000001e0: e29b 393e 5462 49be 168d 91be 86f2 a6be
000001f0: 93fa 09be b604 c0be f1af c4be 33bd c2bd
00000200: 968a 123f 8f17 d53e 2851 b43e d88b c33e
00000210: ae86 12bf 59b2 10be 9a30 1fbf 79bf 373e
00000220: 6def a43e 2c5a bebd a0cd 293f a0e4 babe
00000230: c18e 93be 4004 abbe 18ae 19bf 6424 f73e
00000240: 6da3 473e 1904 1d3e d34b f73e 3c07 803e
00000250: 334e 9abe 104b 673e f88d 1dbf 6f66 b4be
00000260: 89a8 a0be 0347 0abe 3295 0fbf cca2 eebe
00000270: f7b1 1ebe 0448 0abe 1d87 8fbe 67b4 653e
00000280: 68ff 873d 4911 87be 9bdf c2be 51db b33d
00000290: 04c4 9cbe 5cf6 b9bd 7bbe fe3e 8e6b b03e
000002a0: 9c98 f93e d61c dabe 3d59 abbe 8591 e23e
000002b0: 2d4a 6ebe f4ee 65be c3f4 a1be 6a1c cdbe
000002c0: bdbd 8dbd aa7d f8be 5a27 c4be b495 87be
000002d0: 05d3 84be 9403 283e c0ca adbe 05fa 13bf
000002e0: 247d 9bbe a6fa 1dbe af62 e8be 7e90 f1be
000002f0: c51a 5dbe bc62 4a3e a62b 993e 3d83 11bd
00000300: 7876 14bf 2fba 09be 8378 1dbf 1357 873e
00000310: d275 cc3e 2b21 d0be c59f 54be 338f 72be
00000320: 6694 48be 77c4 13bf dd51 c63c 75c1 583e
00000330: 53ac fe3e c9de f93e 1afc 87be 3da4 4abe
00000340: be33 3bbd e6a8 cc3e 0bd1 be3d d998 ef3e
00000350: 9fbc bbbe 47df d2be 12d3 04bf 8634 e7be
00000360: c143 19bf 3ba9 82be 80d5 f63b a909 023f
00000370: 6d92 1dbe 9b38 9e3e e514 c33e bec9 b83e
00000380: c6e3 ef3e 9817 f53e f94b d0be aa8d d93e
00000390: e241 fd3e 1821 213e 27e0 b0be f2bc 273d
000003a0: d20c d93e 4e42 6e3e 5de7 abbe d52f b8be
000003b0: 83b7 e03e dfcd 0bbf c95d 9c3e 1709 c9bd
000003c0: 425d 3a3d 7f09 b33e c321 96bd 3a44 ee3e
000003d0: e576 9f3d 8022 cd3e 804b 003f a433 113f
000003e0: 4a15 013f f400 b8be 9498 e13e 4619 113f
000003f0: 03c5 9f3e ee99 cfbe 40a7 23bf e44b 01bf

simplicial_nn.2.W2 f4 [16, 16]
-0.4219892 -0.1177783 -0.6089063 0.42980587 -0.13460924 0.5474439 0.03320924 0.09359235
0.6749471 0.47675505 0.17816918 0.45855653 0.49802545 0.27946323 -0.5119946 -0.3842903
-0.14442788 0.6050066 -0.49468893 -0.22533801 0.43368915 0.189426 -0.47960833 -0.19681875
0.37340418 -0.09326547 -0.11180308 -0.0125582 0.31333506 0.39503714 -0.21769431 0.13661246
-0.2701099 -0.45089978 -0.3804985 -0.5861021 -0.0052903094 -0.61649734 -0.29322046 -0.48742032
0.7499103 0.43105543 -0.64349204 0.3850304 -0.5509738 -0.04434499 0.29838657 -0.6336713
-0.50761384 -0.26611117 0.48676866 -0.07742274 -0.5756774 -0.108489454 -0.28254992 -0.19520125
-0.5683104 0.21273202 0.54265887 -0.085886836 0.5066431 0.49129707 -0.5969921 -0.6100153
0.5925041 0.53635174 0.08860729 0.3484093 -0.48058754 -0.044459946 -0.345774 -0.20067264
0.42530054 0.418792 -0.588047 -0.5841359 -0.5201808 -0.29501444 0.066741265 -0.12695035
-0.55328596 -0.52989703 -0.41879612 0.0039139013 -0.0356083 0.30422375 -0.24072292 -0.34288114
-0.1682634 0.5120582 -0.2657554 -0.013740303 -0.09958286 0.39861917 -0.5937957 -0.5002288
-0.5469985 0.28938362 -0.24910556 -0.35168344 -0.37033686 0.016641106 -0.3224477 -0.062344305
0.61846983 0.22374451 -0.017906006 -0.44819778 -0.5071806 0.10397232 0.14864703 -0.24566145
-0.22241613 -0.29743147 -0.25188202 0.20404926 -0.6113709 0.49466592 -0.41746798 -0.24181572
0.562607 -0.27945086 -0.10035834 0.37471578 -0.6517796 0.5375411 -0.3040798 -0.65302676
0.5420124 0.44258982 -0.12800093 0.55696684 0.32211092 -0.44017956 0.14768378 0.3896134
-0.09150001 -0.01189987 -0.61894584 -0.19302016 -0.18135403 0.09775873 0.40290666 -0.27479684
-0.34953454 0.8733084 -0.040407546 -0.88497096 0.45134044 0.058437202 -0.04440888 -0.06766405
-0.10575687 0.11193611 -0.55448437 -0.053865865 -0.039678324 -0.36741412 -0.4118399 0.28949782
0.27412182 -0.59758234 -0.52465665 0.37587416 0.26564074 0.36179614 -0.3050803 -0.06676279
0.1148735 0.35789877 0.37299192 0.51324075 -0.055850446 -0.3957238 0.38278505 0.4355049
0.1552529 -0.31860784 0.30566636 0.46147868 0.37737545 -0.018718673 0.084873244 0.39901286
-0.22708602 -0.53860897 0.41051796 0.35591105 -0.43238857 -0.1411438 0.10780958 0.42696637
-0.27598205 0.16977917 0.22350913 0.3719721 -0.088295534 0.08178127 -0.18056343 0.4062487
0.2112043 0.4751673 -0.48016796 0.083290674 0.47622576 0.14898619 -0.5934314 -0.164519
-0.22858194 0.36653078 0.51419175 -0.23773673 0.3476558 -0.30859652 -0.112250514 0.30940878
-0.3139645 -0.4692503 0.2520648 -0.55652595 0.4239644 -0.3142977 -0.3919683 -0.3965247
-0.2907439 0.37279177 0.2343369 0.17553511 0.2725086 -0.42115703 0.069887534 0.6161424
-0.03995449 0.36518535 -0.56647503 0.034295402 0.46353713 -0.5650471 -0.07225364 0.44459367
0.20815046 -0.3934892 -0.38204154 0.34504336 0.3709619 -0.61786854 -0.4377161 -0.4812035
0.306972 -0.05975141 0.46385995 -0.4684167 0.36436534 -0.7161635 -0.5298847 -0.016684832
00000000: f80e d8be c035 f1bd 49e1 1bbf 840f dc3e
00000010: 01d7 09be 4925 0c3f 6906 083d 59ad bf3d
00000020: 55c9 2c3f 3d19 f43e fb71 363e ecc7 ea3e
00000030: 31fd fe3e ce15 8f3e 1412 03bf b3c1 c4be
00000040: e7e4 13be b6e1 1a3f de47 fdbe 02bf 66be
00000050: 810c de3e e4f8 413e 398f f5be db8a 49be
00000060: d52e bf3e f701 bfbd 03f9 e4bd e9c0 4dbc
00000070: 746d a03e 4f42 ca3e 42eb 5ebe 23e4 0b3e
00000080: d84b 8abe 56dc e6be b3d0 c2be ca0a 16bf
00000090: 555a adbb c5d2 1dbf fe20 96be 288f f9be
000000a0: 1ffa 3f3f 4cb3 dc3e e5bb 24bf b422 c53e
000000b0: 9e0c 0dbf 18a3 35bd 20c6 983e 4838 22bf
000000c0: fbf2 01bf b93f 88be be39 f93e d08f 9ebd
000000d0: 985f 13bf b82f debd 62aa 90be d6e2 47be
000000e0: ca7c 11bf 6cd6 593e b1eb 0a3f 70e5 afbd
000000f0: 5db3 013f 4a8b fb3e 79d4 18bf f629 1cbf
00000100: 59ae 173f 594e 093f bd77 b53d b462 b23e
00000110: 920f f6be a21b 36bd 4a09 b1be 217d 4dbe
00000120: fec0 d93e e86b d63e 408a 16bf ee89 15bf
00000130: 922a 05bf 220c 97be a5af 883d 46ff 01be
00000140: 26a4 0dbf 55a7 07bf 726c d6be 2f40 803b
00000150: 02da 11bd 37c3 9b3e 1280 76be 1e8e afbe
00000160: 3e4d 2cbe 3f16 033f 1711 88be 021f 61bc
00000170: 19f2 cbbd d017 cc3e ff02 18bf ff0e 00bf
00000180: 1808 0cbf 172a 943e 8715 7fbe da0f b4be
00000190: cb9c bdbe ee52 883c dd17 a5be be5c 7fbd
000001a0: 0a54 1e3f 481d 653e 9eaf 92bc 2e7a e5be
000001b0: 96d6 01bf 71ef d43d ed36 183e ad8e 7bbe
000001c0: 0ec1 63be f048 98be aef6 80be 4af2 503e
000001d0: ce82 1cbf da44 fd3e 5dbe d5be 8a9e 77be
000001e0: 0307 103f 2f14 8fbe ac88 cdbd bfda bf3e
000001f0: 07db 26bf 4b9c 093f 59b0 9bbe c32c 27bf
00000200: 53c1 0a3f 229b e23e ad12 03be 6195 0e3f
00000210: b9eb a43e 375f e1be 6b3a 173e 687b c73e
00000220: 5b64 bbbd acf7 42bc 3c73 1ebf 14a7 45be
00000230: dfb4 39be bb35 c83d c849 ce3e 2cb2 8cbe
00000240: 31f6 b2be 2491 5f3f 6282 25bd 758d 62bf
00000250: 1816 e73e d95b 6f3d 16e6 35bd 7393 8abd
00000260: 0f97 d8bd c23e e53d b0f2 0dbf 74a2 5cbd
00000270: bd85 22bd b41d bcbe aedc d2be 0f39 943e
00000280: b259 8c3e 28fb 18bf e64f 06bf 9472 c03e
00000290: 1002 883e 583d b93e 7c33 9cbe eeba 88bd
000002a0: cc42 eb3d 823e b73e ccf8 be3e bf63 033f
000002b0: 70c3 64bd 4f9c cabe 67fc c33e 80fa de3e
000002c0: 9efa 1e3e 9120 a3be 4d80 9c3e ef46 ec3e
000002d0: 5b37 c13e e757 99bc 06d2 ad3d 6a4b cc3e
000002e0: 3d89 68be 47e2 09bf 692f d23e f939 b63e
000002f0: 0962 ddbe 0088 10be 45cb dc3d 569b da3e
00000300: 854d 8dbe 97da 2d3e 94df 643e 2173 be3e
00000310: 4ad4 b4bd f07c a73d 9fe5 38be d4ff cf3e
00000320: f145 583e 2149 f33e 93d8 f5be 4d94 aa3d
00000330: ddd3 f33e d68f 183e 1feb 17bf ab77 28be
00000340: 6211 6abe eca9 bb3e 12a2 033f 4271 73be
00000350: f1ff b13e 5d00 9ebe 99e3 e5bd d46a 9e3e
00000360: f4bf a0be 9341 f0be a30e 813e 7c78 0ebf
00000370: dd11 d93e a1eb a0be 12b0 c8be 4905 cbbe
00000380: 62dc 94be 90de be3e 03f6 6f3e 7abf 333e
00000390: 3f86 8b3e e5a1 d7be 3221 8f3d 82bb 1d3f
000003a0: 52a7 23bd 93f9 ba3e 8204 11bf 5679 0c3d
000003b0: bd54 ed3e eda6 10bf b7f9 93bd c8a1 e33e
000003c0: 6525 553e 6b77 c9be f39a c3be 86a9 b03e
000003d0: b8ee bd3e a22c 1ebf 531c e0be 4e60 f6be
000003e0: 6f2b 9d3e e5bd 74bd 0d7f ed3e 50d4 efbe
000003f0: 188e ba3e 7e56 37bf 86a6 07bf a1ae 88bc

simplicial_nn.4.W0 f4 [16, 1]
0.1975833 -0.5208144 0.7621896 0.47161895 -0.10277443 0.47904882 0.29615268 -0.7420648
-0.23692238 0.252292 0.46834013 -0.06796717 -0.11398137 0.23389718 0.66044754 -0.119392134
00000000: 4753 4a3e 1854 05bf dc1e 433f 0a78 f13e
00000010: 667b d2bd e345 f53e 53a1 973e f5f7 3dbf
00000020: c89b 72be 6b2c 813e 47ca ef3e 5f32 8bbd
00000030: 116f e9bd be82 6f3e 1713 293f dd83 f4bd

simplicial_nn.4.W1 f4 [16, 1]
0.52048707 -0.08240968 0.09994451 -0.4739841 -0.7903227 -0.3360399 0.58181286 0.19687705
0.17669716 -0.21918339 -0.078956276 0.6355289 0.5072566 0.47551313 0.0869486 -0.2164401
00000000: a43e 053f 68c6 a8bd b5af cc3d 0bae f2be
00000010: 9752 4abf 6c0d acbe b0f1 143f 239a 493e
00000020: 1af0 343e 9c71 60be d4b3 a1bd 06b2 223f
00000030: 92db 013f 7576 f33e 1c12 b23d 79a2 5dbe

simplicial_nn.4.W2 f4 [16, 1]
0.09034677 0.28196868 0.7053717 0.6894943 0.5777564 -0.332725 -0.12463704 0.29452416
-0.4765138 0.37365425 0.01899898 -0.044123843 0.18531142 0.068235 -0.3945237 0.7469531
00000000: ba07 b93d 335e 903e 3d93 343f b382 303f
00000010: d8e7 133f ee5a aabe b441 ffbd dfcb 963e
00000020: 9ef9 f3be 9c4f bf3e c0a3 9b3c 34bb 34bd
00000030: 47c2 3d3e cbbe 8b3d 03ff c9be 5238 3f3f

exp_avg f4 [1, 16]
1.3640964e-30 0.001043251 0.035023328 0.0 0.031497605 0.07581973 0.048433967 0.0020123848
0.05334808 -0.00544507 0.061336253 -0.032422107 0.01401266 0.045873955 0.018156266 0.0012800161
00000000: 5956 dd0d b2bd 883a 9f74 0f3d 0000 0000
00000010: a203 013d 6047 9b3d b262 463d 37e2 033b
00000020: 8483 5a3d 8f6c b2bb b93b 7b3d 0bcd 04bd
00000030: 5b95 653c 54e6 3b3d 73bc 943c 37c6 a73a

exp_avg_sq f4 [1, 16]
3.2311155e-07 0.1035077 0.7407734 0.0 0.19257854 8.654338 2.0727875 0.00023015129
2.4018245 0.00012430508 4.31391 1.232673 0.007593305 4.094993 1.4280659 8.1678976e-05
00000000: 1d78 ad34 d8fb d33d 53a3 3d3f 0000 0000
00000010: 4f33 453e 2b78 0a41 8da8 0440 c454 7139
00000020: 7eb7 1940 e457 0239 8d0b 8a40 3bc8 9d3f
00000030: 42d1 f83b 2f0a 8340 ddca b63f 114b ab38

exp_avg f4 [1, 16]
-1.1755615e-30 -0.00043424268 0.0012064583 0.0 0.002465792 -0.008854171 0.0017380129 -0.0012376264
0.006633012 -0.004651348 0.0031632683 -0.0012889857 -2.7363885e-06 0.0019325421 -0.0061476207 0.00025200314
00000000: eabe be8d 11ab e3b9 0622 9e3a 0000 0000
00000010: 2099 213b 1611 11bc 09ce e33a da37 a2ba
00000020: bd59 d93b 566a 98bb d64e 4f3b 2ff3 a8ba
00000030: cca2 37b6 5a4d fd3a fb71 c9bb 4a1f 8439

exp_avg_sq f4 [1, 16]
2.3922948e-07 0.008102243 0.0010023683 0.0 0.00010805918 0.04146148 0.005867931 6.696505e-05
0.0076644397 8.0289276e-05 0.019689683 0.006779032 6.0846407e-05 0.013451004 0.020784754 5.8151385e-05
00000000: 736f 8034 45bf 043c e661 833a 0000 0000
00000010: d59d e238 83d3 293d c647 c03b 966f 8c38
00000020: fb25 fb3b fa60 a838 424c a13c a422 de3b
00000030: 5535 7f38 9a61 5c3c ca44 aa3c 93e7 7338

exp_avg f4 [1, 16]
6.975692e-31 0.002066151 0.0006012242 0.0 0.0018185375 0.0044855275 0.002035973 8.250471e-05
0.00312114 -0.0039026374 0.0034348948 -0.0030316403 0.00078837515 0.0013107749 0.0053570494 0.00096289685
00000000: c85f 620d 4368 073b 799b 1d3a 0000 0000
00000010: fe5b ee3a 55fb 923b f56d 053b 6106 ad38
00000020: 0a8c 4c3b 64c3 7fbb f91b 613b 7cae 46bb
00000030: f6aa 4e3a 4fce ab3a 308a af3b ea6a 7c3a

exp_avg_sq f4 [1, 16]
7.3830954e-08 4.5949775e-05 0.0020050446 0.0 0.0004367478 0.006517938 0.0020422416 1.7464554e-05
0.0024867163 2.8078732e-06 0.004347036 0.00093738263 2.4631343e-05 0.0037237045 0.00046811017 1.0251556e-05
00000000: ff8c 9e33 32ba 4038 1167 033b 0000 0000
00000010: 4cfb e439 6d94 d53b 21d7 053b d880 9237
00000020: 2df8 223b e56e 3c36 9571 8e3b afba 753a
00000030: 689f ce37 6509 743b af6c f539 19fe 2b37

exp_avg f4 [16, 16]
0.0 1.7569182e-32 -2.59835e-32 -1.4264589e-32 6.0644694e-33 0.0 0.0 0.0
7.625022e-33 -7.837491e-33 6e-45 3.2140846e-34 1.9930784e-33 -8.20462e-33 -2.2253707e-32 0.0
0.01648195 -0.045909647 0.06548623 0.037038464 -0.00770018 0.035990693 0.022599595 -0.061270796
-0.00036472036 0.029561177 5.06409e-35 -0.008449618 -0.0067034396 0.00054114615 0.04498681 -0.008358962
0.012200333 -0.03334737 0.047584627 0.026443053 -0.0057822643 0.026118813 0.016696827 -0.0446129
-0.00017271377 0.021840673 3.926127e-35 -0.006429647 -0.0047864094 0.00026687304 0.031823426 -0.0060252626
0.0 0.0 0.0 0.0 0.0 0.0 0.0 0.0
0.0 0.0 0.0 0.0 0.0 0.0 0.0 0.0
0.007888684 -0.02162462 0.03605523 0.022814862 -0.0029752841 0.018441658 0.01085833 -0.033260215
-0.00033494426 0.012265894 0.00029249073 -0.0023205844 -0.0039528776 0.0008589967 0.027608115 -0.004587022
0.005541317 -0.017144758 0.024106685 0.015213083 -0.0021866334 0.012663764 0.007818405 -0.022923606
-0.00024386634 0.009862135 0.00015456471 -0.0022891972 -0.002776042 0.00035741253 0.019137975 -0.0033128003
0.013193701 -0.035416946 0.054603565 0.03126534 -0.0060152933 0.030293884 0.018063905 -0.0513393
-0.0001513741 0.02253749 5.6484085e-05 -0.0059999856 -0.0058703898 0.0006371557 0.039458953 -0.0071197147
3.1682244e-05 -0.00039964815 0.0004940225 0.00031728006 -7.493666e-05 -0.00045730232 0.00017215966 -3.727412e-05
-0.00013163777 0.00016726585 0.00018866814 -8.4544336e-05 -0.00012930593 0.00027390654 0.00051066576 6e-45
0.005679749 -0.017581148 0.024799744 0.015667245 -0.0022172597 0.012963248 0.008022603 -0.023565438
-0.0002618325 0.0100363325 0.00016910567 -0.0022933194 -0.0028583377 0.0003792127 0.019606614 -0.0033847801
-9.481369e-05 0.0001334257 -0.0003896161 -0.00021655069 0.00015053879 -0.00042334237 -0.000205238 0.0005944378
0.0 0.0 0.0 0.0 0.00014405684 0.0 -0.0013296269 0.00022580178
0.013529141 -0.038335174 0.05267508 0.029885175 -0.0062643047 0.0288556 0.018602025 -0.049658854
-0.00023217661 0.024619225 4.979582e-35 -0.007142234 -0.0053052204 0.00024103299 0.035748422 -0.0067610457
0.0031759513 -0.007937762 0.010176721 0.004293367 -0.0018995134 0.0054707625 0.004326461 -0.009126861
0.0 0.0061781 2.2289693e-35 -0.0024125485 -0.00072602544 0.0 0.004031374 -0.0010333798
-0.00014411489 -0.00039034558 0.00068808446 0.00049422105 3.806944e-05 -0.0007874244 5.6230536e-05 -0.00040011381
-0.00022729165 0.00026220185 0.0002412103 -0.00011021889 -0.00011405408 0.00033880002 0.00049238774 -1.7110277e-05
0.009497528 -0.026433995 0.037982516 0.021676755 -0.00435952 0.02089653 0.013034494 -0.035721164
-0.00016269962 0.016887488 6.5106037e-06 -0.0047355546 -0.003938565 0.000298046 0.026521483 -0.0049063773
0.01016323 -0.027842754 0.04500157 0.027036982 -0.004339887 0.024552954 0.014063359 -0.0423438
-0.00024496953 0.016760157 0.00019761237 -0.003854617 -0.0051948554 0.0008376448 0.035378452 -0.006052042
0.0 -0.0002459989 0.0003589496 0.00021182238 -6.3490916e-05 9.019232e-05 1.4606456e-05 -3.577683e-05
-0.0001075163 0.000113963935 2.2768847e-05 -1.9883266e-05 -4.397987e-05 0.00011897381 0.0003116518 6e-45
00000000: 0000 0000 e672 b60a ffe9 068b c821 948a
00000010: 80e8 fb09 0000 0000 0000 0000 0000 0000
00000020: 925d 1e0a 40c7 228a 0400 0000 d19c d507
00000030: 1794 2509 3e67 2a8a 8018 e78a 0000 0000
00000040: 2805 873c c10b 3cbd a51d 863d a5b5 173d
00000050: cb51 fcbb fa6a 133d c922 b93c 16f7 7abd
00000060: f037 bfb9 482a f23c 69a0 8606 4470 0abc
00000070: 87a8 dbbb b4db 0d3a 1744 383d 07f4 08bc
00000080: e8e3 473c 4097 08bd 19e8 423d 1a9f d83c
00000090: 2679 bdbb 1ff7 d53c c9c7 883c 04bc 36bd
000000a0: 801a 35b9 36eb b23c acbf 5006 caaf d2bb
000000b0: 50d7 9cbb 18eb 8b39 4859 023d 916f c5bb
000000c0: 0000 0000 0000 0000 0000 0000 0000 0000
000000d0: 0000 0000 0000 0000 0000 0000 0000 0000
000000e0: 0000 0000 0000 0000 0000 0000 0000 0000
000000f0: 0000 0000 0000 0000 0000 0000 0000 0000
00000100: 8a3f 013c 1d26 b1bc a6ae 133d 3ce6 ba3c
00000110: fcfc 42bb f612 973c 23e7 313c dd3b 08bd
00000120: 759b afb9 e3f6 483c 7159 9939 f214 18bb
00000130: 2487 81bb 4b2e 613a 6a2a e23c bb4e 96bb
00000140: f093 b53b 2a73 8cbc 627b c53c 4b40 793c
00000150: 9f4d 0fbb ad7b 4f3c c418 003c 49ca bbbc
00000160: 5fb6 7fb9 cb94 213c a612 2239 5b06 16bb
00000170: 42ee 35bb 1963 bb39 3ec7 9c3c 911b 59bb
00000180: 652a 583c 5c11 11bd fda7 5f3d 1610 003d
00000190: f01b c5bb e12a f83c c1fa 933c 2849 52bd
000001a0: 2dba 1eb9 8ba0 b83c 53e9 6c38 879b c4bb
000001b0: 665c c0bb cc06 273a b69f 213d 7f4c e9bb
000001c0: 8de2 0438 de87 d1b9 4a81 013a 9c58 a639
000001d0: 5027 9db8 14c2 efb9 c285 3439 c856 1cb8
000001e0: 3f08 0ab9 1664 2f39 38d5 4539 654d b1b8
000001f0: 4c96 07b9 1d9b 8f39 33de 053a 0400 0000
00000200: 301d ba3b 5706 90bc d528 cb3c 9858 803c
00000210: 724f 11bb ce63 543c 3c71 033c 4e0c c1bc
00000220: 9046 89b9 6e6f 243c f551 3139 844b 16bb
00000230: f352 3bbb 11d1 c639 0d9e a03c 30d3 5dbb
00000240: b6d6 c6b8 30e8 0b39 6345 ccb9 e211 63b9
00000250: f3d9 1d39 0df4 ddb9 2835 57b9 0cd4 1b3a
00000260: 0000 0000 0000 0000 0000 0000 0000 0000
00000270: f70d 1739 0000 0000 e046 aeba 34c5 6c39
00000280: 55a9 5d3c 5805 1dbd d3c1 573d c1d1 f43c
00000290: cc44 cdbb 9462 ec3c 4663 983c 1567 4bbd
000002a0: 6f74 73b9 42ae c93c 4761 8406 6709 eabb
000002b0: 6ad7 adbb cdbd 7c39 f06c 123d c38b ddbb
000002c0: 9f23 503b 630d 02bc 43bc 263c 5faf 8c3b
000002d0: 18f9 f8ba 1544 b33b fcc4 8d3b d488 15bc
000002e0: 0000 0000 a971 ca3b 5106 ed05 d91b 1ebb
000002f0: be52 3eba 0000 0000 9e19 843b 7972 87ba
00000300: 8c1d 17b9 4ca7 ccb9 9160 343a 9d8e 013a
00000310: c0ac 1f38 286b 4eba 14d9 6b38 5ec6 d1b9
00000320: 2355 6eb9 2378 8939 66ed 7c39 5125 e7b8
00000330: 5130 efb8 f8a0 b139 9513 013a 0a88 8fb7
00000340: 859b 1b3c 1b8c d8bc 8e93 1b3d 7393 b13c
00000350: 4eda 8ebb 332f ab3c a18e 553c 5b50 12bd
00000360: 599a 2ab9 a157 8a3c a975 da36 b62c 9bbb
00000370: 140f 81bb 0f43 9c39 9543 d93c adc5 a0bb
00000380: ad83 263c 7d16 e4bc 9153 383d a97c dd3c
00000390: 9c35 8ebb 4723 c93c 016a 663c b170 2dbd
000003a0: 416f 80b9 994c 893c 2b36 4f39 be9d 7cbb
000003b0: 9b39 aabb 6495 5b3a ffe8 103d 3550 c6bb
000003c0: 0000 0000 6af9 80b9 6631 bc39 a31c 5e39
000003d0: 6d26 85b8 a225 bd38 400e 7537 140f 16b8
000003e0: 607a e1b8 ecff ee38 baff be37 fdca a6b7
000003f0: 0777 38b8 9481 f938 3265 a339 0400 0000

exp_avg_sq f4 [16, 16]
0.0 2.9274428e-08 7.3903315e-08 1.4147882e-08 1.6408086e-10 0.0 0.0 0.0
3.7011536e-09 8.906369e-09 2.7490357e-08 7.762682e-10 1.0158018e-09 3.7434598e-09 4.719824e-08 0.0
0.49501565 2.0814285 5.255965 1.7156025 0.19846497 1.6506578 0.9762455 4.290292
6.4279693e-06 0.49590257 2.1924738e-08 0.015187225 0.039765928 2.044998e-06 3.6355512 0.120070376
0.27567944 1.1253935 2.8690984 0.9257405 0.11422243 0.8953377 0.541857 2.3422651
2.3794921e-06 0.26701784 1.2912819e-08 0.007972256 0.020448815 6.3681404e-07 1.9876443 0.06708894
0.0 0.0 0.0 0.0 0.0 0.0 0.0 0.0
0.0 0.0 0.0 0.0 0.0 0.0 0.0 0.0
0.08740428 0.47193485 1.1235825 0.40711835 0.023834597 0.3666801 0.17626517 0.9043701
2.9528577e-05 0.11999904 8.564826e-06 0.0048874062 0.013543987 1.6737707e-05 0.75683475 0.019460414
0.051315453 0.2625692 0.6240115 0.21962145 0.016037649 0.20399746 0.10344205 0.5115624
6.231902e-06 0.0644298 1.885706e-06 0.002310883 0.006833432 3.5749888e-06 0.42718035 0.012164083
0.29388893 1.3081467 3.266371 1.0949248 0.107778706 1.0315359 0.5816068 2.6528692
1.2989331e-05 0.31794143 5.2876203e-07 0.0104774395 0.027622603 5.2135433e-06 2.2377648 0.06890621
4.3391232e-08 1.6897284e-05 4.0147333e-05 1.5551026e-05 1.136557e-06 1.915651e-06 9.354164e-07 3.4706895e-06
4.1801095e-06 4.571365e-06 3.2092082e-06 6.3854253e-07 7.503277e-07 3.2150926e-06 2.6206022e-05 4.246674e-09
0.053218372 0.27334908 0.6484307 0.22849762 0.0165605 0.21224323 0.10732734 0.5322019
6.733706e-06 0.06702375 2.0746256e-06 0.0023978646 0.007149116 3.9146807e-06 0.444015 0.012613343
1.3097823e-06 1.6586429e-09 2.6294551e-06 1.038481e-07 2.0237944e-06 3.2715994e-07 2.1270162e-06 1.6337805e-06
0.0 0.0 0.0 0.0 2.5828402e-07 0.0 2.1596334e-06 4.2324703e-07
0.34629753 1.4436665 3.6464024 1.1841335 0.14139308 1.1456962 0.6831085 2.9852202
3.201671e-06 0.3421737 2.096521e-08 0.010302529 0.027121263 1.0938489e-06 2.5300343 0.0850247
0.023952797 0.069939815 0.1986937 0.05530925 0.0138716465 0.057846054 0.045569483 0.16046743
0.0 0.015490381 4.1179025e-09 0.0003276825 0.0006803318 0.0 0.1412381 0.006206045
2.7874998e-07 2.8862205e-05 6.8141264e-05 2.991289e-05 2.3282696e-06 9.4129155e-06 2.0535551e-06 6.034875e-06
6.6795797e-06 8.572562e-06 3.3335125e-06 2.2019824e-06 2.3156786e-06 4.939277e-06 4.4598066e-05 7.783289e-09
0.16204612 0.6930639 1.7420313 0.5728031 0.063528806 0.5487468 0.32010302 1.4231385
2.7470744e-06 0.16580711 9.513476e-09 0.0051544 0.013631559 9.4518697e-07 1.2029715 0.03909678
0.15705879 0.78398794 1.8987348 0.66660863 0.048605323 0.6110258 0.3141236 1.5387564
2.4205914e-05 0.19504927 3.878301e-06 0.0071013505 0.019792983 1.22658375e-05 1.2871962 0.035512682
0.0 2.5703398e-06 6.4454366e-06 2.1757196e-06 9.16178e-08 1.3167357e-07 4.500058e-08 5.4759884e-08
6.135698e-07 7.32462e-07 4.1157335e-07 5.426644e-08 8.389949e-08 3.646148e-07 4.1592702e-06 1.3172712e-10
00000000: 0000 0000 2677 fb32 c7b4 9e33 0b0f 7332
00000010: a868 342f 0000 0000 0000 0000 0000 0000
00000020: 6257 7e31 a002 1932 ef23 ec32 0561 5530
00000030: 599c 8b30 d29f 8031 04b7 4a33 0000 0000
00000040: b172 fd3e 2036 0540 de30 a840 dd98 db3f
00000050: 673a 4b3e c148 d33f 3aeb 793f 124a 8940
00000060: d6af d736 f1e6 fd3e 0255 bc32 d7d3 783c
00000070: 99e1 223d cc3c 0936 dfac 6840 75e7 f53d
00000080: db25 8d3e e50c 903f 4f9f 3740 54fd 6c3f
00000090: 73ed e93d da34 653f 24b7 0a3f ace7 1540
000000a0: 5daf 1f36 90b6 883e 2ed7 5d32 119e 023c
000000b0: 4684 a73c 87f1 2a35 216b fe3f ed65 893d
000000c0: 0000 0000 0000 0000 0000 0000 0000 0000
000000d0: 0000 0000 0000 0000 0000 0000 0000 0000
000000e0: 0000 0000 0000 0000 0000 0000 0000 0000
000000f0: 0000 0000 0000 0000 0000 0000 0000 0000
00000100: 0401 b33d 72a1 f13e 8dd1 8f3f d171 d03e
00000110: c640 c33c 7ebd bb3e db7e 343e cd84 673f
00000120: 23b4 f737 0fc2 f53d a6b1 0f37 8926 a03b
00000130: 99e7 5d3c f467 8c37 ecbf 413f 726b 9f3c
00000140: 2730 523d 786f 863e 38bf 1f3f 72e4 603e
00000150: 6361 833c b6e4 503e 6dd9 d33d c1f5 023f
00000160: a11b d136 c5f3 833d 5d18 fd35 2f72 173b
00000170: fbea df3b d7e9 6f36 62b7 da3e dd4b 473c
00000180: 9c78 963e 5a71 a73f 390c 5140 7f26 8c3f
00000190: 15bb dc3d 5e09 843f 2fe4 143f 9cc8 2940
000001a0: c0ec 5937 38c9 a23e 40f0 0d35 91a9 2b3c
000001b0: cc48 e23c ffef ae36 8a37 0f40 b31e 8d3d
000001c0: 2a5d 3a33 a4be 8d37 df63 2838 9373 8237
000001d0: cd8b 9835 a28e 0036 5319 7b35 fee9 6836
000001e0: de42 8c36 ba63 9936 c75d 5736 4f68 2b35
000001f0: 206a 4935 dfc2 5736 01d5 db37 24ea 9131
00000200: 82fb 593d 69f4 8b3e 8eff 253f 48fb 693e
00000210: e3a9 873c 4a56 593e 70ce db3d 623e 083f
00000220: 18f2 e136 bf43 893d cc39 0b36 7e25 1d3b
00000230: 2243 ea3b da5a 8336 ef55 e33e 32a8 4e3c
00000240: c7cb af35 4ff6 e330 b275 3036 1903 df33
00000250: 86d0 0736 85a4 af34 dcbd 0e36 4548 db35
00000260: 0000 0000 0000 0000 0000 0000 0000 0000
00000270: 49aa 8a34 0000 0000 38ee 1036 a13a e334
00000280: e94d b13e 10ca b83f a85e 6940 b091 973f
00000290: 59c9 103e 2ca6 923f 33e0 2e3f d90d 3f40
000002a0: 4adc 5636 6431 af3e fc16 b432 f0cb 283c
000002b0: 692d de3c 5dd0 9235 15ec 2140 6e21 ae3d
000002c0: a838 c43c 9b3c 8f3d 5c76 4b3e f48b 623d
000002d0: e745 633c fcef 6c3d 11a7 3a3d 9351 243e
000002e0: 0000 0000 5ecb 7d3c 747d 8d31 cdcc ab39
000002f0: 4b58 323a 0000 0000 b8a0 103e 145c cb3b
00000300: 1ba7 9534 1d1d f237 10e7 8e38 71ed fa37
00000310: 5e3f 1c36 2aec 1d37 cfcf 0936 2e7f ca36
00000320: 2721 e036 e0d2 0f37 4fb5 5f36 c5c5 1336
00000330: 0e67 1b36 11bc a536 cf0e 3b38 44b7 0532
00000340: 6bef 253e a36c 313f e2fa de3f 39a3 123f
00000350: 641b 823d ac7a 0c3f 8be4 a33e 6729 b63f
00000360: 615a 3836 57c9 293e b670 2332 3ee6 a83b
00000370: e756 5f3c c1b8 7d35 f8fa 993f f223 203d
00000380: 05d4 203e 6fb3 483f be09 f33f dda6 2a3f
00000390: 6016 473d 306c 1c3f cfd4 a03e f8f5 c43f
000003a0: ce0d cb37 ffba 473e 5a22 8236 72b2 e83b
000003b0: e524 a23c 5fc9 4d37 d8c2 a43f bf75 113d
000003c0: 0000 0000 1a7e 2c36 e145 d836 9402 1236
000003d0: 6bbf c433 2862 0d34 a946 4133 2131 6b33
000003e0: 32b4 2435 689e 4435 36f6 dc34 9512 6933
000003f0: 3b2c b433 47c0 c334 dc8f 8b36 e3d5 102f

exp_avg f4 [16, 16]
-5.6154894e-34 1.3575608e-33 -2.7036471e-33 -1.4333208e-33 6.592301e-34 -1.2928555e-33 -8.019659e-34 1.4714266e-33
3.1436785e-34 -4.6979293e-34 1.8042084e-36 -6.0105437e-35 1.7077922e-34 -1.2354852e-34 -2.339267e-33 3.1018867e-34
0.0029214118 -0.00086642394 0.002671923 -0.0027612855 -0.0032545582 0.0012281255 0.003273929 -0.0010799599
1.0683156e-05 0.0020399385 -0.00032590717 -0.00070646557 0.0015495534 -0.00027259166 -0.0044922475 -0.0003340024
0.0025227403 -0.000391635 0.0021540069 -0.0025234798 -0.002903039 0.00081696495 0.0028021527 -0.00065573066
-3.2015734e-05 0.0014117409 -0.000272201 -0.00038690076 0.0014369013 -0.00018776472 -0.003901909 -0.00031269793
0.0 0.0 0.0 0.0 0.0 0.0 0.0 0.0
0.0 0.0 0.0 0.0 0.0 0.0 0.0 0.0
-0.00046731735 -0.001424312 0.00041323848 0.0011646446 0.0009923498 0.0010034133 -0.00035462578 -0.0014542467
0.00025502767 0.0011904506 7.4846753e-06 -0.001051158 -0.0007656969 -0.00020846205 0.00072686333 0.00012967046
-0.00023963653 -0.0010217851 0.00024619338 0.0006267675 0.0005686015 0.00065832963 -0.0001938577 -0.00069767126
0.000107302476 0.0009556965 -5.9118265e-06 -0.00068703317 -0.0004407114 -0.00012055889 0.00026488292 0.0001255573
0.001652957 -0.00095645624 0.001703457 -0.0013957719 -0.0017142422 0.0010152787 0.0018840374 -0.0009516634
5.6407258e-05 0.0016319209 -0.0001981287 -0.0007136077 0.00074559386 -0.00021775435 -0.0025765754 -0.00014852092
-4.4104043e-05 0.00011967601 -5.0217728e-05 -2.7085462e-06 3.9157025e-05 -6.351051e-05 -6.0038186e-05 0.00018272155
-5.0166014e-05 -9.0679314e-05 3.224936e-06 5.6662084e-06 -1.42657855e-05 3.6196412e-05 -0.00012949602 2.7077995e-05
-0.00030461294 -0.0010778188 0.00022893152 0.00072156073 0.00066414766 0.0006906971 -0.00025942948 -0.0007467607
0.00011808363 0.0009867378 -1.0984618e-06 -0.00073080586 -0.0005008093 -0.00012614173 0.00035581522 0.00013903347
0.00010787983 8.3284416e-05 5.5744873e-05 -0.0001483488 -0.00014084917 -1.1841313e-05 0.00012532306 -6.477841e-05
2.1590908e-05 -3.2919594e-05 -1.1574862e-05 7.139803e-06 8.134145e-05 -1.5236614e-05 -0.00018951675 -3.0261308e-05
0.002479275 -0.00072004576 0.0022695886 -0.002343117 -0.0027614702 0.0010378523 0.0027779858 -0.0008937824
3.8933047e-07 0.0017142848 -0.000276682 -0.00059802824 0.0013141918 -0.0002257843 -0.0038359582 -0.000281838
0.0018171486 0.00065638276 0.0011880518 -0.0021622505 -0.0023388248 -3.6470152e-05 0.0019514107 0.0002471783
-0.00013992205 8.851208e-05 -0.00017149259 0.0003052374 0.0012881523 -8.528777e-07 -0.0028619636 -0.00028728752
-8.308247e-05 0.00017215467 -6.94684e-05 3.4505874e-06 8.150007e-05 -6.679093e-05 -0.000100307356 0.00015708762
-4.346532e-05 -0.000107518936 4.123047e-06 -1.670322e-05 -3.8115857e-05 3.900166e-05 -0.0001594521 3.819314e-05
0.001497227 -0.00060255 0.0014321787 -0.0013601121 -0.0016253059 0.00073727587 0.0016885633 -0.0006720941
2.4434352e-05 0.0012082554 -0.00017167431 -0.00046776547 0.00075051823 -0.00016241353 -0.0023105803 -0.00015793662
8.30177e-05 -0.0013667279 0.0006456187 0.00041717532 0.00027744146 0.0009645013 0.00018685748 -0.0010097512
0.00013695848 0.0014286118 -4.8527578e-05 -0.00092655397 -0.0003403344 -0.00018413932 -0.00022829373 0.00010577139
-3.1585714e-06 1.1960935e-05 1.3456789e-05 1.5079057e-05 5.5839787e-06 6.1720203e-07 -3.1560871e-06 2.6520518e-05
-1.4883777e-05 -2.0116537e-05 3.8919168e-07 4.856698e-07 -6.985669e-06 1.0312408e-05 -1.6174767e-05 2.220169e-06
00000000: 4d9b 3a88 4090 e108 379c 6089 b926 ee88
00000010: 1811 5b08 fecf d688 db3f 8588 917b f408
00000020: ebee d007 901d 1c88 2e7c 1904 a4c9 9f86
00000030: 2801 6307 6239 2487 b556 4289 de27 ce07
00000040: 2875 3f3b ba20 63ba 6e1b 2f3b aff6 34bb
00000050: 6d4a 55bb 0ef9 a03a 6a8f 563b 718d 8dba
00000060: ce3b 3337 7db0 053b 85de aab9 1a32 39ba
00000070: 621a cb3a a2ea 8eb9 b433 93bb 0b1d afb9
00000080: 8f54 253b 5c54 cdb9 3d2a 0d3b f760 25bb
00000090: ea40 3ebb 9729 563a 52a4 373b 57e5 2bba
000000a0: a248 06b8 2a0a b93a 33b6 8eb9 f1d8 cab9
000000b0: 6856 bc3a b5e2 44b9 2cb7 7fbb 9bf1 a3b9
000000c0: 0000 0000 0000 0000 0000 0000 0000 0000
000000d0: 0000 0000 0000 0000 0000 0000 0000 0000
000000e0: 0000 0000 0000 0000 0000 0000 0000 0000
000000f0: 0000 0000 0000 0000 0000 0000 0000 0000
00000100: 4602 f5b9 fbaf baba eea7 d839 fda6 983a
00000110: bc11 823a f784 833a 11ed b9b9 6c9c beba
00000120: 3cb5 8539 e508 9c3a df24 fb36 02c7 89ba
00000130: 0db9 48ba 9b96 5ab9 f98a 3e3a 26f8 0739
00000140: f146 7bb9 6bed 85ba 8413 8139 a84d 243a
00000150: 330e 153a c193 2c3a 4846 4bb9 ede3 36ba
00000160: 9407 e138 b587 7a3a 345e c6b6 041a 34ba
00000170: 480f e7b9 90d4 fcb8 fcdf 8a39 08a8 0339
00000180: 09a8 d83a b1ba 7aba 8846 df3a 55f2 b6ba
00000190: 6cb0 e0ba 1a13 853a cef1 f63a 0d79 79ba
000001a0: d596 6c38 2ee6 d53a c5c0 4fb9 6711 3bba
000001b0: f573 433a fd54 64b9 c3db 28bb 48bc 1bb9
000001c0: 5bfc 38b8 92fa fa38 e0a0 52b8 78c4 35b6
000001d0: 893c 2438 f230 85b8 83d1 7bb8 f198 3f39
000001e0: 5969 52b8 162b beb8 fb6b 5836 5c20 be36
000001f0: 1557 6fb7 9ad1 1738 53c9 07b9 8d25 e337
00000200: 75b4 9fb9 9945 8dba 560d 7039 1f27 3d3a
00000210: 321a 2e3a e60f 353a 0904 88b9 43c2 43ba
00000220: aba3 f738 6d55 813a dc6e 93b5 8d93 3fba
00000230: be48 03ba ea44 04b9 b68c ba39 83c9 1139
00000240: 8b3d e238 fba8 ae38 9acf 6938 148e 1bb9
00000250: e9b0 13b9 0daa 46b7 2769 0339 a5d9 87b8
00000260: 1f1e b537 2513 0ab8 a731 42b7 7192 ef36
00000270: dc95 aa38 c2a0 7fb7 04b9 46b9 aad9 fdb7
00000280: 557b 223b 74c1 3cba 61bd 143b fb8e 19bb
00000290: c8f9 34bb 8b08 883a de0e 363b b94c 6aba
000002a0: 2c05 d134 dab1 e03a a10f 91b9 ffc4 1cba
000002b0: f640 ac3a 83c0 6cb9 b364 7bbb a8c3 93b9
000002c0: 642d ee3a 1a11 2c3a 67b8 9b3a 8bb4 0dbb
000002d0: f846 19bb 87f7 18b8 7ac6 ff3a b697 8139
000002e0: 0ab8 12b9 909f b938 b1d2 33b9 4508 a039
000002f0: 38d7 a83a 4ff1 64b5 c88f 3bbb 149f 96b9
00000300: 903c aeb8 6b84 3439 90af 91b8 a490 6736
00000310: 04eb aa38 1c12 8cb8 1a5c d2b8 e3b7 2439
00000320: 884e 36b8 ca7b e1b8 b458 8a36 e41d 8cb7
00000330: 97de 1fb8 b795 2338 9932 27b9 9231 2038
00000340: 9a3e c43a 72f4 1dba f1b7 bb3a ca45 b2ba
00000350: 3708 d5ba bf45 413a c852 dd3a 792f 30ba
00000360: 5ff8 cc37 535e 9e3a 7903 34b9 6b3e f5b9
00000370: 6dbe 443a 8d4d 2ab9 1b6d 17bb ca9b 25b9
00000380: ca19 ae38 c723 b3ba bd3e 293a 53b8 da39
00000390: 9075 9139 96d6 7c3a 2cef 4339 a159 84ba
000003a0: 839c 0f39 4240 bb3a 178a 4bb8 fce3 72ba
000003b0: e96e b2b9 8615 41b9 2262 6fb9 95d1 dd38
000003c0: d8f7 53b6 d3ab 4837 78c4 6137 0ffc 7c37
000003d0: 035e bb36 cdad 2535 2acd 53b6 6178 de37
000003e0: 56b5 79b7 efbf a8b7 19f2 d034 f95e 0235
000003f0: 7166 eab6 7503 2d37 0caf 87b7 37fe 1436

exp_avg_sq f4 [16, 16]
6.582015e-12 4.754585e-11 1.0957607e-10 1.6198888e-11 4.2674627e-12 2.2881133e-11 1.3817887e-11 4.6586797e-11
3.4105208e-12 1.1093328e-11 3.449186e-11 3.2969344e-13 6.561938e-13 4.8875205e-12 8.5413475e-11 2.3034931e-12
0.008944624 0.007878843 0.038850468 0.0056759017 0.00910315 0.008100601 0.015616074 0.028792664
7.4911527e-06 0.0013352282 6.5684767e-06 2.0546187e-05 0.00041387463 5.4837146e-06 0.02895332 0.0023589095
0.0057755667 0.0045176335 0.023933789 0.0032670829 0.00603498 0.0047857338 0.010008686 0.017406492
4.591077e-06 0.0007501704 4.5439156e-06 1.6187927e-05 0.0003119537 3.3867236e-06 0.017831892 0.0015066288
0.0 0.0 0.0 0.0 0.0 0.0 0.0 0.0
0.0 0.0 0.0 0.0 0.0 0.0 0.0 0.0
0.00016562102 0.0007996393 0.0018207236 0.0006107383 7.2503804e-05 0.0006601696 0.000348436 0.0017334439
3.8831567e-07 0.00017691441 1.048309e-07 9.902978e-06 2.3054532e-05 2.7070132e-07 0.0013606208 5.7470115e-05
0.00018992303 0.00065199606 0.0016176141 0.0004579521 0.00011225554 0.0005205155 0.00037654798 0.0014609713
3.1112546e-07 0.0001304838 5.632334e-08 2.5512622e-06 7.183948e-06 2.117989e-07 0.0012098831 6.050581e-05
0.0039513237 0.0041416176 0.018434187 0.0029689698 0.0038561102 0.0040851636 0.0069786147 0.014026832
3.5321862e-06 0.0007236935 2.6407447e-06 7.9582105e-06 0.00014520918 2.5426266e-06 0.0137396185 0.0010608003
1.5368668e-07 1.2222883e-07 6.2235387e-07 8.268564e-08 1.7299699e-07 1.1828127e-07 2.6582495e-07 5.422655e-07
1.4890958e-08 2.5618785e-08 5.138671e-09 6.8316724e-10 1.4752739e-08 1.150704e-08 4.5614377e-07 3.882455e-08
0.00018751668 0.00067379273 0.001640903 0.00047381214 0.00010754739 0.0005351359 0.00037390235 0.0014922955
3.150651e-07 0.00013543107 5.0766296e-08 2.8802694e-06 8.3862205e-06 2.1404892e-07 0.001227638 6.020418e-05
5.992363e-07 1.5658712e-08 1.4670113e-06 5.717796e-08 7.9994817e-07 1.4867973e-07 9.731834e-07 8.346517e-07
9.968385e-10 3.2447387e-09 1.3659582e-09 4.71623e-11 1.00965295e-07 9.433844e-10 1.0848886e-06 1.3739177e-07
0.0064746 0.0056927293 0.028097892 0.004100679 0.00659319 0.005854216 0.011302088 0.020807488
5.338598e-06 0.00096498814 4.7588665e-06 1.52273715e-05 0.00030138035 3.9009537e-06 0.02093887 0.0017074192
0.0014759606 0.00053977367 0.0047433865 0.00040629893 0.0017506372 0.0007225788 0.0024638083 0.0030621397
8.6542025e-07 7.5376374e-05 1.5995029e-06 9.520532e-06 0.00015324332 6.9303195e-07 0.0035279617 0.00036332745
7.4329375e-07 4.8291173e-07 2.0252974e-06 1.5063277e-07 9.185774e-07 2.8062428e-07 1.2180109e-06 1.6682901e-06
2.3151927e-08 4.360165e-08 3.067884e-09 6.70252e-08 1.0189981e-07 1.7492216e-08 1.5080118e-06 1.779443e-07
0.002677696 0.002516314 0.011938708 0.001809651 0.0026840614 0.0025471507 0.0046945787 0.008935621
2.307109e-06 0.00043159325 1.9008528e-06 5.9169283e-06 0.000114238974 1.6751907e-06 0.008897699 0.0007108411
0.0008394578 0.0018272746 0.005555861 0.0012892882 0.0006352906 0.0015625978 0.0015797166 0.0047164047
1.0562062e-06 0.0003498531 3.1153212e-07 3.5635e-06 9.386702e-06 7.232896e-07 0.004150328 0.0002479854
5.280221e-09 1.1757763e-08 3.504326e-08 6.9019226e-09 5.152192e-09 8.218609e-09 9.695867e-09 3.104741e-08
1.5542464e-09 2.6884117e-09 5.647123e-10 3.317249e-11 4.3224713e-10 1.0287837e-09 2.6719354e-08 1.3673641e-09
00000000: 8595 e72c de1b 512e d8f5 f02e a77c 8e2d
00000010: e325 962c bb43 c92d 3b16 732d 12e4 4c2e
00000020: 7bfe 6f2c e827 432d 62b2 172e d599 b92a
00000030: bfb3 382b dff6 ab2c 83d3 bb2e 0b18 222c
00000040: 798c 123c 4316 013c ab21 1f3d eafc b93b
00000050: 6125 153c 62b8 043c 90da 7f3c 98de eb3c
00000060: 835c fb36 d302 af3a c966 dc36 9a5a ac37
00000070: 50fd d839 c000 b836 832f ed3c ef97 1a3b
00000080: f740 bd3b a808 943b cb10 c43c 8e1c 563b
00000090: 15c1 c53b a5d1 9c3b 79fb 233c 0f98 8e3c
000000a0: 0d0d 9a36 15a7 443a f077 9836 4fcb 8737
000000b0: b88d a339 7847 6336 3014 923c 137a c53a
000000c0: 0000 0000 0000 0000 0000 0000 0000 0000
000000d0: 0000 0000 0000 0000 0000 0000 0000 0000
000000e0: 0000 0000 0000 0000 0000 0000 0000 0000
000000f0: 0000 0000 0000 0000 0000 0000 0000 0000
00000100: 8eaa 2d39 e39e 513a 59a5 ee3a f419 203a
00000110: 2f0d 9838 3b0f 2d3a 4aae b639 ba34 e33a
00000120: b379 d034 1a82 3939 661f e133 f724 2637
00000130: 3b65 c137 e854 9134 dc56 b23a 110c 7138
00000140: 1326 4739 b7ea 2a3a 1f06 d43a 4a19 f039
00000150: bc6a eb38 3473 083a 6a6b c539 107e bf3a
00000160: c208 a734 7ad2 0839 2be8 7133 5a36 2b36
00000170: a50d f136 d76a 6334 f194 9e3a 9ec7 7d38
00000180: 1b7a 813b 68b6 873b 4b03 973c 0c93 423b
00000190: cbb6 7c3b d6dc 853b ddac e43b ccd0 653c
000001a0: 7f0a 6d36 40b6 3d3a a637 3136 4184 0537
000001b0: 4b43 1839 fea1 2a36 231c 613c 8d0a 8b3a
000001c0: 1305 2534 013e 0334 d50f 2735 e990 b133
000001d0: 0dc1 3934 d101 fe33 b4b6 8e34 3490 1135
000001e0: 20d3 7f32 4e10 dc32 3a90 b031 9fc9 3b30
000001f0: 3b73 7d32 7fb0 4532 ece3 f434 0bc0 2633
00000200: 20a0 4439 77a1 303a 9113 d73a fd69 f839
00000210: 118b e138 5d48 0c3a 5308 c439 2199 c33a
00000220: 3826 a934 8002 0e39 220a 5a33 a74a 4136
00000230: 8bb2 0c37 52d5 6534 b2e8 a03a bf83 7c38
00000240: 34db 2035 df81 8632 20e6 c435 d593 7533
00000250: 05bc 5635 c6a4 1f34 549e 8235 d40c 6035
00000260: 2301 8930 0cfa 5e31 62bc bb30 076c 4f2e
00000270: 42d2 d833 63a8 8130 7d9c 9135 f685 1334
00000280: e228 d43b 138a ba3b 8d2d e63c fd5e 863b
00000290: b00b d83b b9d4 bf3b 652c 393c 7774 aa3c
000002a0: 3522 b336 42f7 7c3a 5aae 9f36 1079 7f37
000002b0: 9602 9e39 f0e4 8236 fe87 ab3c 7bcb df3a
000002c0: 0575 c13a 997f 0d3a 696e 9b3b 8504 d539
000002d0: a375 e53a 716b 3d3a d877 213b 2eae 483b
000002e0: 3a4f 6835 6213 9e38 80ae d635 60ba 1f37
000002f0: f1af 2039 cb08 3a35 6035 673b fc7c be39
00000300: c286 4735 71a1 0135 58ea 0736 9fbd 2134
00000310: 2994 7635 b5a8 9634 897a a335 03ea df35
00000320: a0df c632 8544 3b33 c9d2 5231 7eef 8f33
00000330: 03d4 da33 ca41 9632 e466 ca35 f510 3f34
00000340: 497c 2f3b bee8 243b 929a 433c d031 ed3a
00000350: 14e7 2f3b 19ee 263b fbd4 993b b666 123c
00000360: d5d3 1a36 7747 e239 ce20 ff35 078a c636
00000370: 9593 ef38 1dd7 e035 a8c7 113c bd57 3a3a
00000380: 0f0f 5c3a 2981 ef3a f10d b63b 55fd a83a
00000390: a189 263a 15d0 cc3a 7e0e cf3a 128c 9a3b
000003a0: f8c2 8d35 7d6c b739 a640 a734 7724 6f36
000003b0: 947b 1d37 1528 4235 7aff 873b 0904 8239
000003c0: 516d b531 30ff 4932 7982 1633 f425 ed31
000003d0: 2907 b131 d331 0d32 e092 2632 fd58 0533
000003e0: 2f9d d530 0abf 3831 183a 1b30 e7e4 112e
000003f0: 60a1 ed2f 1c65 8d30 7b84 e532 d9ed bb30
