results/Test_citation/version_90/checkpoints/epoch=2-step=2.ckpt (torch, 566417 bytes, 27 tensors)

simplicial_nn.0.W0 f4 [1, 64]
00000000: bb24 233e 1808 253e 73de cd3d 518a 433d
00000010: 17c3 ec3d afb0 9c3e ffed 933d 5312 acbd
00000020: 0f39 bebe f959 8a3d 0c51 96be dc8d f5bd
00000030: 86c1 e5bd cfcb d53e 8388 873e 18e3 c4be
00000040: bf33 bd3d 8c90 b6be 580b a3be dce4 f3bd
00000050: 5ab2 813e edc9 8b3e a1d6 6ebe 1f27 a13e
00000060: e8de 8c3e 88e9 f5bd 3734 d43e dad7 afbe
00000070: a1dc e83c 14a5 2ebe fdf2 e03d 0011 acbe
00000080: e989 5e3e 0c38 a63e 3c87 963e ec32 5bbd
00000090: 844a 67be 73ce 4c3e 19bc 0bbb 57b2 713e
000000a0: e588 cf3e fe87 cd3d 668c 2d3e 6a9d 353e
000000b0: f7bb 7d3e 2627 d2be 4a4d 5a3e 5543 cbbc
000000c0: 2a27 8cbe 9a0c 85be ef61 51be d2e2 9abe
000000d0: 680d 0ebe 2cc0 ffbd 8003 cfbe 00fb 79bd
000000e0: d622 0dbe 99ae 6fbd 22d1 a8be 4ba4 1b3e
000000f0: ece0 dfbd a0bf 2cbe 4a8a 503e 945f d6bd
0.1593198 0.16116369 0.100521944 0.04773933 0.11560648 0.3060355 0.072231285 -0.084019326
-0.37152907 0.06755442 -0.2935871 -0.11989948 -0.11218552 0.41757056 0.26471338 -0.3845451
0.092383854 -0.35657156 -0.31844592 -0.11908886 0.25331384 0.27302495 -0.23324062 0.3147516
0.27513814 -0.12007433 0.41446087 -0.3434437 0.028425517 -0.1705516 0.10983846 -0.3360672
0.21732296 0.32464635 0.2940005 -0.05351536 -0.22587019 0.20000629 -0.0021321832 0.23603188
0.4053413 0.10035704 0.16948089 0.1773583 0.24778734 -0.41045493 0.21318546 -0.02481238
-0.2737363 -0.25986177 -0.20447515 -0.30251175 -0.13872302 -0.12487826 -0.40432358 -0.061030388
-0.1378282 -0.05851612 -0.32972056 0.15199392 -0.10931572 -0.16869974 0.20365253 -0.10467449

simplicial_nn.0.W1 f4 [5, 1, 64]
00000000: 5f20 0bbe 28ce f4bd d87c 133d 3775 073e
00000010: ec1c a5bd d3e8 0a3e 89b7 fc3d e166 1a3e
00000020: 6014 1fbd 709d 363e c05d 1dbd 42e6 d3bd
00000030: b805 e1bd 81a9 ebbc dd3b 5b3d be49 d53d
00000040: 9921 7cbd efb3 0d3e f0bf 293c c83a b53c
00000050: edfe 643d 7e07 ecbd a8b8 623d 184c 143e
00000060: adee 0cbe 785a b03c d13e 0ebe 5489 043d
00000070: db8f 293e 4820 24bd d156 193e 80cd c13b
00000080: 58fc c43a 43b3 31be d133 25bd 5a9a 33be
00000090: 2b4a 023e ba60 6dbd 53e6 15be f805 22bd
000000a0: 24f5 e8bd 5ec8 8fbd f1cb e4bd 2397 d5bd
000000b0: e877 dbbd 42a5 e63d 3cb1 e33b ea2f 33be
000000c0: c843 d7bd 0098 d8bc 7637 2ebe 8365 02be
000000d0: 0664 d63d f0f9 263d 7d4a 113e efc9 b5bd
000000e0: 5fc0 203e aa41 79bd 7cca 19bd 920b 2cbe
000000f0: a856 93bc 2552 18be 9385 c7bc f817 9fbc
00000100: 16bd 85bd 04a7 433d 0e84 4d3d 968c 73bd
00000110: 6f69 203e 4e53 c13d fee0 82bd 2814 f9bd
00000120: 2316 113e 7acd 16bd 40b1 c9bb a25a b63d
00000130: 4a5b 89bd bdbe bb3d 0419 113e 4c5a 0cbe
00000140: 59c4 1d3d 83d3 21be a3e0 003e 8661 923d
00000150: 3cd4 f3bd 4c1f e2bc 78d9 27bd 1d38 283e
00000160: 267a 6d3d 6859 423d 5883 11be 78b8 edbd
00000170: ec57 00be 0f6c 1e3e 1098 ae3d 2d7c 28be
00000180: ca23 4b3d 2930 183e dfb6 1cbc 2560 1bbe
00000190: 3a6d fcbd 3cb9 04be db69 0ebe 7cf0 293e
000001a0: 8fac eebd 3629 c6bd ae3c 28be 780a 8ebd
000001b0: e021 8d3d 2708 d5bd c715 03be 7554 243e
000001c0: dbac 22be 8885 bc3c 5dfc 01be 26c1 d23d
000001d0: 5684 ed3d 5525 333e d8af 723d 1fd0 0e3e
000001e0: 3098 28bc 36ff 66bd 6e59 bc3d 8261 6f3d
000001f0: 4504 263e bd13 013e 9255 02bd 6452 8fbd
00000200: 4ede 2bbd 99c1 8dbd 8bfb 1ebd b21a a8bd
00000210: 60d8 f83d 7435 863d 86ff bd3d 45fc 9bbc
00000220: bc25 0abe fcfe db3d 001f 713b 2f81 2e3e
00000230: 2447 fcbd 793e 21be aa0e 2c3e 8294 cc3d
00000240: 839b 5d3d c0dd 9dbb 2523 dfbd 04ae 4f3d
00000250: d90f dc3d 60cc d7bd cc81 1bbd d309 2a3e
00000260: 30ac d5bd f786 213e 404d 233d 7410 6d3d
00000270: 0505 333e b784 dbbd eeeb 6c3b eead fa3d
00000280: 54b1 9ebc f02b 90bd c501 943d 6da9 57bd
00000290: b682 e13d d655 f03d 16f7 05be 942b dfbc
000002a0: d340 4dbd e2ef b33d 8422 53bd 490e b73d
000002b0: 3cad ae3d 51ae 0f3e 4e14 273e c418 15bd
000002c0: 88ac 503d ba87 6ebd a50e 68bd ba6d bb3d
000002d0: 36f1 b1bd 65a9 1dbe 70cf 843d b670 cc3d
000002e0: 2275 f9bd 0eee e8bd ead2 32be 5023 153e
000002f0: 1e03 b7bd 6c10 07bd d92d 353e 6e7d a83d
00000300: d2c5 f83d 7152 b93d b5f3 923d 5ae2 c0bc
00000310: d2ae 2bbe 559a 0b3e afbd 0fbe d9a7 263e
00000320: c035 003d a708 80bc e858 e1bd 56fe d13d
00000330: e814 873d d434 8f3c e7b7 ef3d e0a4 ccbb
00000340: 265b 013e 984f 02be 566c 9dbd 000d 91bb
00000350: 8dd1 393d ef61 b03d 0cf5 643d d243 71bd
00000360: a13b 05be 30f3 8f3d dfed 8c3d d09e 123c
00000370: dc79 acbd 6a27 fb3d 8f33 c53d 6fcf 05be
00000380: 92d7 22be 6b7e 8b3d 944a 963d 4411 e8bd
00000390: 7a20 f1bd df57 cebd 2624 073d cb5b f7ba
000003a0: 5978 e7bd e5a7 613c 8684 2f3e 276d 18be
000003b0: 4209 c3bd 3e2e 7ebd 9f84 0abe 7c5c 533d
000003c0: 22c9 e93d 506d 033d 106b 223e 5c57 953d
000003d0: 98e5 f6bc 5436 32be 5cce 7e3d 70dd 57bc
000003e0: 206a 87bc a23c be3b 757a 323e 908b 73bd
000003f0: 4090 eabd a6d0 db3d a75a d0bc 8c76 583d
-0.13586567 -0.11953384 0.036007732 0.13228308 -0.08062157 0.13565378 0.12339694 0.15078308
-0.03883779 0.17833495 -0.038419485 -0.103466526 -0.10987419 -0.02876735 0.053523887 0.10414456
-0.06155548 0.1383817 0.010360703 0.022122756 0.05590718 -0.115248665 0.055351883 0.14482152
-0.13762923 0.021527514 -0.1389115 0.03235753 0.16558783 -0.04006985 0.14974524 0.00591439
0.0015028818 -0.17353539 -0.04033262 -0.17539349 0.12723605 -0.057953574 -0.14638643 -0.039556473
-0.11374882 -0.07020639 -0.11171711 -0.10429218 -0.1071623 0.11261989 0.006948618 -0.17498747
-0.10510975 -0.026439667 -0.17013344 -0.12734036 0.10468297 0.040765703 0.14188571 -0.088764064
0.15698384 -0.060853638 -0.03754662 -0.16801289 -0.017985657 -0.14875086 -0.024355685 -0.019420609
-0.06530206 0.0477667 0.050174765 -0.059460245 0.1566522 0.09439717 -0.0639057 -0.121620476
0.141686 -0.03681705 -0.006155163 0.089040056 -0.06706865 0.0916724 0.14169699 -0.1370632
0.03851733 -0.15803342 0.12585692 0.07147507 -0.11905715 -0.027602814 -0.04097888 0.16427656
0.057977818 0.047448546 -0.1421026 -0.1160745 -0.1253354 0.15470909 0.08525097 -0.1645362
0.049594678 0.14862122 -0.009565084 -0.15173395 -0.12325521 -0.12961286 -0.13907568 0.16595644
-0.11654007 -0.09675829 -0.16429397 -0.069355905 0.06891227 -0.104019456 -0.12801276 0.16047843
-0.15886252 0.023012891 -0.12693925 0.102907464 0.11597507 0.1749471 0.05924973 0.1394658
-0.010290191 -0.056395732 0.09196745 0.0584426 0.16212566 0.12605186 -0.031819887 -0.06998137
-0.041960053 -0.069216914 -0.03881411 -0.08208217 0.12150645 0.06553164 0.09277253 -0.01904119
-0.13490957 0.10741994 0.003679216 0.17041467 -0.123182565 -0.15746488 0.16802469 0.09989263
0.054103386 -0.0048176944 -0.10895375 0.050703064 0.1074521 -0.10537028 -0.03796558 0.1660531
-0.10433233 0.15774141 0.039868593 0.05787702 0.17482384 -0.10718673 0.0036151367 0.12240206
-0.019371666 -0.070396304 0.072269 -0.05265181 0.11011259 0.11735122 -0.13082537 -0.02724246
-0.05011065 0.087859884 -0.05154659 0.089382716 0.085291356 0.1403134 0.1631634 -0.03640057
0.05094579 -0.058234908 -0.05665459 0.09151788 -0.086885855 -0.1539665 0.06484878 0.099824354
-0.121805444 -0.1137353 -0.1746327 0.14564252 -0.089361414 -0.032974645 0.1769327 0.08227049
0.12147106 0.090489276 0.0717539 -0.023545433 -0.16765907 0.13633092 -0.14037202 0.16274966
0.03130126 -0.015629126 -0.11003286 0.10253589 0.065957844 0.017481245 0.117049985 -0.0062452406
0.12632427 -0.12725675 -0.07686679 -0.0044265985 0.04536586 0.08612429 0.055897757 -0.05890257
-0.13011028 0.07028806 0.06881308 0.008948997 -0.0842168 0.12263377 0.09628975 -0.13067411
-0.15902546 0.06811222 0.073384434 -0.11331418 -0.117737725 -0.10075354 0.03299346 -0.0018871961
-0.11302251 0.013772939 0.17140397 -0.14885388 -0.0952325 -0.06205582 -0.13527153 0.05160187
0.11415316 0.03208667 0.15861154 0.07292053 -0.030138776 -0.17403537 0.06220852 -0.013175353
-0.016530097 0.005805568 0.17429526 -0.05945927 -0.11453295 0.10733156 -0.025433851 0.05284743

simplicial_nn.0.W2 f4 [5, 1, 64]
00000000: b2fa 1bbe 347e ca3d db11 14be 49f3 a4bd
00000010: 0610 87bd cc00 153e f8e1 05be dc37 113d
00000020: 1692 d13d b41f c7bd 6ecc a53d 00a2 cf3a
00000030: c378 5ebd d861 99bc e130 6c3d 0b2d 2c3e
00000040: 8afe 823d 9ece b63d ffcf 143e 36c4 cabd
00000050: c9b6 05be 3129 dcbd d33f 243e aef5 1f3e
00000060: e2ee 163d a5e9 0a3e a09a 0c3e 8445 2abe
00000070: dd75 d4bd 07cd d0bd 517a 27be 01cd 19be
00000080: 8674 303e 87aa 1bbe ed7c 1d3e d27b 17be
00000090: a115 26be dab1 5bbd be41 89bd f62d 35be
000000a0: c250 1fbe b8a2 26bd 9738 d2bb 04e1 05be
000000b0: 26ec 30be 7601 e63d 7eef 53bd a8e1 08be
000000c0: ce68 e53d 4024 f2bc 000a 28bd a84b c9bc
000000d0: 8764 093e 2fe4 143e 4c65 2b3d e40f 35bd
000000e0: b2e3 bc3d 5511 af3c 61b3 a1bd 1227 d3bd
000000f0: 54e8 a6bd cc6a 06bd 3ef1 cdbc 7ceb 6c3d
00000100: c0ef a4bd ad14 2fbe 225c 153e b50f 1a3e
00000110: 8408 253e b224 ff3d d6ca 28be 38b1 ac3d
00000120: 8e6b 9d3d 6ef2 49bc 820f debd 134e 0fbe
00000130: f8eb b63d ba35 973d 41a4 27be 680d 4b3d
00000140: fa91 88bd be70 9f3d 44d1 29be 6075 8a3c
00000150: 0b00 27be 4079 323e 982d a0bc a9f4 843d
00000160: c4df 123e 139d 263e 30c0 b2bd 4474 14bd
00000170: ea75 ce3c 6aac a63d d2d4 f4bd 24f8 0c3d
00000180: 6612 f6bc 8c91 df3d 93d2 de3d b577 d4bd
00000190: a462 68bd 2164 d43d 8996 0bbe f094 11be
000001a0: c605 02be 5e6b b9bb 7404 c5bd 4d1a 9e3d
000001b0: e0a5 b4bd 6475 10bd 4355 963d 9452 08be
000001c0: 66c6 d53d 0a97 e43d 27f9 863d 1579 0dbe
000001d0: 8c6e 4a3d 8000 c63c 0145 13be 5410 213d
000001e0: 0085 ec3b bb2c 1a3e c9bf 163e 3115 9a3d
000001f0: b851 66bd ec7b 3dbd e954 60bd a0c3 cbbc
00000200: 9924 dabd 9fff 15be 49fa c53c da10 dc3d
00000210: 50d7 c8bb d3f5 203e 7f07 95bd 5a78 27bb
00000220: d0ef 2bbe e3a0 963c e200 1cbe cc60 a8bd
00000230: 1e34 043e c770 8b3d 0bcc 163d a80c c7bd
00000240: 7c83 a33d 4c53 76bd ec03 01bd 5cf5 71bd
00000250: 50eb 45bd 1341 383d 703f 3a3d 1d0c 453d
00000260: 9f55 1c3e 400c 223d b6a9 a33d ca1e 0bbe
00000270: 2f49 363e 20b4 77bc 6f6d ec3c ffab 99bd
00000280: 4fa0 37bd 824b a93d 06a2 30be d397 763c
00000290: a61a 993d ba38 3dbd e6e6 ed3d b5a9 a93c
000002a0: b9a9 d23d 73a5 e0bd 9c98 45bc fde8 3ebd
000002b0: 5c65 b43d 53f7 0f3e 0348 8f3d 4a5f cabb
000002c0: 3e6d c43d 3039 05bc 30c5 733d 98f4 82bd
000002d0: 236c 083e da3f bfbd b231 a43d 8046 73bb
000002e0: 5ff5 013e c504 32bb 46b0 0bbe 9e69 1fbe
000002f0: 86c5 ed3d ec2d b4bd e15a d9bc 7047 0c3d
00000300: b0dd aa3c b3a1 1fbd 56e9 3dbc 3b82 f63d
00000310: d6c1 80bd c97b cfbc 80c0 5737 6986 91bd
00000320: b209 d13d 2c60 c83d 00eb 4a3c 4a31 ff3d
00000330: b966 133e d0fd 0bbd 2f8c 173d 1025 953c
00000340: 7497 a6bd c374 b7bd 6e28 bb3d 1844 543d
00000350: de23 5dbd 6737 a9bc d8ea a03c 3d22 6b3d
00000360: e202 c93d eb75 32be 0e7f 7d3d f000 35be
00000370: ff38 8dbd ea64 d53d 6e2a 8bbd 9337 ccbd
00000380: 6cbb 323e 2d7b 143e 8911 213e ff26 1f3e
00000390: 4015 41bb 2e86 ef3d 136c d4bc c6c2 07be
000003a0: f8b1 103e 8fbb 173d 9480 fa3c c27c fd3d
000003b0: 1736 43bd 0e4e d3bd c09d 093e 9b17 a93d
000003c0: 1ec3 13be de5e cdbd b0b9 07be 38c9 403d
000003d0: e66d ce3d deb8 cd3d a2fc 30be 86a0 2fbe
000003e0: cd3e 01be 31e9 243e 883c 0dbe c023 2a3c
000003f0: 06c9 e43d 2c01 4bbd 6f26 17bd 560d e7bd
-0.15232351 0.098873526 -0.14459936 -0.080542155 -0.06594853 0.14551085 -0.13074481 0.035453662
0.10232942 -0.09722844 0.080956325 0.0015841126 -0.054314386 -0.018723413 0.057663802 0.16814058
0.06396206 0.08926128 0.14532469 -0.099007055 -0.13058008 -0.10750044 0.16039972 0.15621063
0.03684891 0.13565691 0.1373086 -0.1662808 -0.10374043 -0.10195356 -0.16355254 -0.15019609
0.1723195 -0.1520177 0.15379687 -0.14793327 -0.16219188 -0.05363641 -0.067019925 -0.17693314
-0.1555815 -0.040682524 -0.0064154374 -0.13074118 -0.17277583 0.112307474 -0.05174207 -0.13367331
0.112016305 -0.029558301 -0.04102516 -0.024572209 0.13417254 0.1454017 0.04184465 -0.044204608
0.09223117 0.02137057 -0.07895542 -0.103101864 -0.08149782 -0.032816693 -0.025139447 0.057841763
-0.08053541 -0.17097731 0.14585927 0.15045054 0.1611653 0.12458171 -0.16483626 0.08432239
0.0768653 -0.012325866 -0.10842802 -0.13994627 0.08931726 0.073832944 -0.16371252 0.049573332
-0.06668468 0.07785176 -0.16583735 0.016901672 -0.1630861 0.17429066 -0.01955299 0.06491978
0.14343172 0.16270857 -0.08728063 -0.036243692 0.02520271 0.08138354 -0.11954655 0.034416333
-0.03003807 0.10916433 0.108800076 -0.10374395 -0.056734696 0.103706606 -0.13631643 -0.14216971
-0.12697515 -0.005658551 -0.0961999 0.0771986 -0.08820701 -0.035268202 0.07340481 -0.13312751
0.10438232 0.11161621 0.06590491 -0.1381572 0.049421832 0.02417016 -0.14381792 0.039322212
0.0072180033 0.15056126 0.14721598 0.07523573 -0.056230277 -0.04626076 -0.054768477 -0.024873555
-0.10651512 -0.14648293 0.024167197 0.10745402 -0.006129183 0.15718774 -0.072768204 -0.0025553913
-0.167907 0.018387264 -0.15234712 -0.082215875 0.12910506 0.0680862 0.036815684 -0.09719211
0.07984063 -0.06013803 -0.03149788 -0.059071884 -0.048320115 0.044983935 0.045470655 0.048107255
0.15267037 0.039562464 0.07991354 -0.13585964 0.17801355 -0.015118629 0.028860776 -0.07503509
-0.044830617 0.08266355 -0.17249307 0.015050846 0.07475786 -0.046196677 0.11616306 0.020710805
0.10286278 -0.10969057 -0.012060311 -0.046608914 0.08808395 0.1405919 0.06996157 -0.00617591
0.09591149 -0.00813131 0.059514225 -0.06394309 0.13322501 -0.093383506 0.08017291 -0.0037120879
0.12691258 -0.0027163487 -0.13641462 -0.15567634 0.1160994 -0.087978214 -0.026532592 0.034247816
0.020857662 -0.038972568 -0.011591276 0.12036558 -0.06286971 -0.02532758 1.28598185e-05 -0.07105715
0.10206927 0.09783968 0.01238513 0.12460573 0.14394654 -0.0341776 0.036998924 0.01820615
-0.08134356 -0.089578174 0.09138571 0.05182275 -0.053989284 -0.0206563 0.019643232 0.0574057
0.09815003 -0.17427795 0.061888747 -0.17676139 -0.06895637 0.104196385 -0.06795202 -0.099715374
0.17454308 0.14500113 0.15729345 0.1554222 -0.002946213 0.116955146 -0.02593044 -0.13257894
0.1413039 0.037044104 0.030578889 0.12377311 -0.047659006 -0.10317622 0.13439083 0.082564555
-0.144299 -0.1002786 -0.13254428 0.047066897 0.10079555 0.10045026 -0.17283872 -0.17151079
-0.12621613 0.1610458 -0.13792622 0.0103845 0.11171155 -0.049561664 -0.036901888 -0.112818405

simplicial_nn.2.W0 f4 [64, 64]
00000000: 603b 1e3c bad9 493e fc4d 183e fff3 403e
00000010: c8e4 fe3d 3961 313e e7c9 fb3d 863d 2a3e
00000020: 8b35 833e d11d 15be 40c5 75be 1955 6c3d
00000030: ab80 863e 0046 203e e539 843e 6048 f9bc
00000040: c0e5 ef3d ff78 873e bb30 57be 48cc 263d
00000050: 54ec 22bc 08e9 36be e8de 82bd 92aa 563e
00000060: 0332 16be d041 633d c6f8 923e f445 e83d
00000070: 3885 a0bd c644 3d3e dc78 d43d c26e 9fbd
00000080: 04a0 843e 7a44 c23d 7675 7f3e 7ddf 243e
00000090: e0fd 78be 2070 253d f2b8 e8bd c16e bcbd
000000a0: 6d64 00be 9e1b 55be 6387 643e 0075 ab3d
000000b0: 568f fabd 011e 27be b682 49be c102 f43d
000000c0: 8035 233c 5f5d 6abd b53f 0e3c ee3d 453c
000000d0: 86c5 b8bc abfb 25bc 7e7c 3c3e 9b7a 053e
000000e0: f868 55be 4437 0e3e 3bbd 62bd d8fa e43d
000000f0: 2c04 193e c4ee 513d dc3a 893e 6ffb a83d
00000100: b01a 96bc a0e7 88bd 8c63 6abe a232 f7bd
00000110: 36e4 81be faf6 f83c a2ca 393d bf28 043e
00000120: e225 99bc bb9c 6cbe 60ae c3bc 1383 61be
00000130: b0d3 a33c d9fd 8e3e 8275 3e3e bb7d 303e
00000140: e1d4 27bd 2c12 5cbe 5df4 c43d b686 5fbe
00000150: 94f3 3abe dd00 6cbd 096a d0bd 2fc6 80be
00000160: f8cc 5aba 7bbd 4ebd 9ce3 923e 4c6e 6dbd
00000170: 4db3 93be f4d0 9a3d 63e2 6fbe 643c 71be
00000180: 09ad 6c3e 7e71 1dbe 37e8 96be 6f82 b2bc
00000190: fa58 6a3e 67c0 8f3e d86c 033e caaa 543e
000001a0: 0250 88be 5eb3 76be 2ee1 203e a12d 8c3e
000001b0: d412 503e d809 8dbe 49b6 5abe cb59 063e
000001c0: ea3b e8bd 6475 713e d5d0 713e 9864 9a3e
000001d0: 03aa 33be a656 08be bed1 9b3e d85a 993e
000001e0: 5bd6 953c 92c3 a23d f7ad 3e3e 60b4 8bbc
000001f0: a2ac 80be 5e2a 3cbd 9a19 8d3e 994d 903e
00000200: c434 4dbe a8cd 783d 78f0 1b3e 4b46 973e
00000210: 60ac ab3c ebd6 003e dede 263c a8b1 fdbd
00000220: e437 33be ba12 0d3d bc31 f8bd 5d51 edbd
00000230: 7a32 863e 5789 37be 0603 773e cac6 93be
00000240: e5c5 363e d0d8 2dbe 4169 393e cc9d 633e
00000250: 1de6 903e eb7c 80ba ee10 9abe 3866 83be
00000260: 8e85 903e 17f8 363d 1f23 6f3d 6045 ad3d
00000270: cc73 96bd 20dc 7ebe c214 11bd 8ced 3fbe
00000280: 6f8f 80be 58ca 8ab9 eb98 0c3e 3740 8a3c
00000290: 65ae 7fbe 9ea4 563e c7ce 263e 585a 86be
000002a0: 43d6 e3bd ca9c 5d3e 6c55 b5bd 8074 243d
000002b0: d873 0bbe 2c16 99be 45ce 773e bc3e 643c
000002c0: 1889 873d f31f 543d bbb8 de3d 6e5e dd3c
000002d0: 36f2 eebd 7d4c 793e a686 5f3e 6b6b 9b3e
000002e0: e489 8a3e 3fb3 973d f562 54be c6b9 093e
000002f0: ecd9 81be 0e16 333e 6902 cdbd 66bb 42bc
00000300: 20bd eebd b018 f0bd 0efc 64be 01ad 343d
00000310: 60bc f83c 14f4 efbd 35b7 e0bd e2fb 9dbd
00000320: eb5d 64be 370e 093d 6e1a 033e 6a08 92be
00000330: 42a8 cf3d d8ef 4bbe 5c5b b53d b102 50be
00000340: 5223 4e3e 64ba 0bbe 49e6 743c f340 9e3d
00000350: 5a36 2f3e 4332 99be 1bef 56be 09c8 74bd
00000360: 6719 7abe d1a8 a33d 2d7d 1bbd fefd 343e
00000370: 0925 94be 7177 993e c19a 713e 794f 7e3e
00000380: e699 733e 30a8 2a3c a90f 1d3d 1ae9 4c3e
00000390: 9214 abbc 00b1 eb3d 6d37 213e 1230 4c3e
000003a0: eaa5 ccbd 1c46 3dbe 85a0 953e d2a2 7ebe
000003b0: 0b7b 3fbe 2242 223e c72e a1bd 4f4a 0bbe
000003c0: f463 c03d b856 8cbe 1ac7 1f3d d611 cebd
000003d0: 5533 3fbe b1e9 983e 23c9 04be d9a8 033d
000003e0: 1e99 74be c5db b23d cad4 92bd 7854 f4bd
000003f0: 50aa 81be 67c0 bd3c ca12 3f3d 2246 393e
0.009657711 0.19711962 0.14873499 0.18843077 0.1244598 0.17322244 0.12294369 0.16625032
0.25626788 -0.14562155 -0.24001026 0.057698343 0.2627004 0.15651703 0.2582542 -0.030430019
0.11713743 0.264595 -0.21014683 0.04072216 -0.00994404 -0.17862332 -0.06390172 0.20963505
-0.14667515 0.055482686 0.28705424 0.113414675 -0.078379095 0.18483266 0.103746146 -0.07784797
0.25903332 0.09485717 0.24947152 0.16100879 -0.24315596 0.040390134 -0.113634005 -0.09200812
-0.1253831 -0.20811316 0.22317271 0.08371925 -0.122343704 -0.1632004 -0.19678769 0.11914588
0.009961486 -0.057217952 0.008682181 0.012038691 -0.022555124 -0.010130803 0.18406865 0.13035052
-0.20840824 0.1388827 -0.055356245 0.11180657 0.14942998 0.051253095 0.2680272 0.08251082
-0.018323272 -0.06684804 -0.22889537 -0.12070204 -0.25369424 0.030391205 0.04535926 0.12906168
-0.018694822 -0.23106663 -0.02388686 -0.22022657 0.019998401 0.27928045 0.18599513 0.17235462
-0.0409745 -0.21491307 0.09616921 -0.21828732 -0.1825698 -0.05761801 -0.101764746 -0.25151202
-0.0008346583 -0.05047367 0.28689277 -0.057966515 -0.28847733 0.07559386 -0.23426203 -0.23558193
0.23112883 -0.15375325 -0.2947404 -0.021790711 0.22885504 0.2807648 0.1283449 0.20768276
-0.2662354 -0.2409186 0.15710899 0.27378562 0.20319682 -0.27546573 -0.21358599 0.13120191
-0.11339553 0.23579937 0.2361482 0.30154872 -0.17545323 -0.13314304 0.30433458 0.2995212
0.01829069 0.07947458 0.1862105 -0.017053783 -0.25131708 -0.045938842 0.27558595 0.28184202
-0.2003966 0.060743004 0.1522845 0.29545817 0.020956218 0.12581985 0.010184972 -0.12387401
-0.1750179 0.034441687 -0.12118861 -0.115877844 0.26210386 -0.17923485 0.24122247 -0.28862602
0.17848928 -0.16977239 0.18106557 0.22228163 0.28300563 -0.0009802853 -0.3009104 -0.25663924
0.28226894 0.04467019 0.058383103 0.08460498 -0.07346305 -0.24888659 -0.035420187 -0.1874296
-0.2510943 -0.0002647217 0.13730209 0.016876323 -0.2496887 0.20961234 0.16289817 -0.26240802
-0.111248516 0.21641842 -0.088541836 0.040150166 -0.1361841 -0.29899728 0.2419978 0.013930973
0.066179454 0.05178828 0.10875078 0.027022567 -0.11667292 0.24345584 0.21828708 0.3035539
0.27058327 0.07407235 -0.20740874 0.13449773 -0.25361574 0.17488882 -0.10010225 -0.0118855
-0.116571665 -0.11723459 -0.22361776 0.044110302 0.030363262 -0.11716476 -0.10972444 -0.077140585
-0.22301452 0.033460822 0.12803051 -0.28522044 0.101395145 -0.19915712 0.08855316 -0.20313527
0.20130661 -0.13645321 0.014947482 0.07727232 0.17110577 -0.2992116 -0.20989649 -0.05976108
-0.24423753 0.079911835 -0.037961174 0.17675015 -0.28934506 0.2997394 0.2359419 0.24835004
0.23789176 0.010416076 0.038345013 0.20010796 -0.020883832 0.115083694 0.157438 0.19940212
-0.09992583 -0.18483776 0.2922403 -0.24866799 -0.18699281 0.1584554 -0.0787025 -0.13602565
0.093940645 -0.2740991 0.039008237 -0.10061996 -0.18671925 0.29865792 -0.12967353 0.032143448
-0.23886535 0.08733324 -0.071694925 -0.11930174 -0.2532525 0.023163034 0.046648778 0.1809316

simplicial_nn.2.W1 f4 [5, 64, 64]
00000000: bd7e 54bd 1899 3abc e4a8 1cbd 60a3 47bd
00000010: 56b7 c2bc a7b8 05bd eec7 a0bb 4551 edba
00000020: 6f26 f53c 46f7 2dbd e6e5 963c 8d9a 7dbb
00000030: c7e7 0dbd 34f1 81bc db7e 213d 50df 41bd
00000040: 095a e5bc 0a14 93bc 9f80 09bd 7fa7 9fbc
00000050: 0d32 3abd 9039 17ba da16 5b3d cd5e fcbc
00000060: 7d02 d2bc 59cb d13a 5c97 b43a 80b9 0d3b
00000070: 5e12 a93c b94d 083d 4bb3 72bc 70ae 323d
00000080: aa13 43bd 1f46 e63c ad0e f43c ac92 95bc
00000090: 1a18 04bd 9430 31bd 7691 d7bc a584 e4bc
000000a0: b21f 003a 4245 3f3c 460d c4bb 0462 413c
000000b0: c26c 5dbd c8b9 8dbb e39c e93b 373b e53c
000000c0: d482 233c 94eb db3c f184 07bd b4cc 0fbd
000000d0: 1403 c7bb 255a 8c3b 0058 1bb9 ad7a 1e3c
000000e0: 82dc 8dba 5cf1 1ebb ea53 ae3c 7050 a63b
000000f0: e7f1 183d 4732 3fbd 91c1 c83c e9c0 7abc
00000100: 4033 86ba b90e 503d 3073 f4bb b07d 753c
00000110: bcd5 94bc 8eb9 993c 525f 43bc a34f ff3a
00000120: 9c5d 333d 5309 3cbd e5de 50bd f1a0 21bc
00000130: 7636 b23c e109 18bd c00c 31bc ff6f fe3c
00000140: 498d ca3c 1d15 31bb aa3f 33bd a1e9 c63c
00000150: ac8a 993c 7b41 60bd 670a 2e3d d218 3c3c
00000160: d559 38bd 6161 5a3d eeb8 1abc 3fcb 38bd
00000170: 11b0 3c3d c065 cdbb 2c9e c6bc ece3 273d
00000180: 4d7c ed3c b4ad b8bc be3e a3bc 9b89 243d
00000190: 1ae9 523d 86eb a53c 4c60 e9bc 9958 dabc
000001a0: 6fe7 d93c 0803 a33b 6b57 22bd ccd8 123c
000001b0: 8c94 cbbc eab3 d83c 5277 483d 9ec4 0abc
000001c0: dc17 0f3c 66ef 943c 4451 e43c dd69 603c
000001d0: 30dc 4e3c 44bc 17bc d6d5 a13b 3e2d 403a
000001e0: 5f7b 68bc 41af 6e3c e487 b6bc 5017 47bd
000001f0: 6075 bbba b0e5 7dbb 6893 b53c f3c3 4b3d
00000200: e2ce fcbc 88e3 d63b 3e7f 823c c8b4 6b3c
00000210: 5c2a 6bbc e1b8 2e3c 9406 32bd c275 90ba
00000220: 50f1 d03c 85f3 74bc f84b 94bc a868 303c
00000230: b699 86bc 5778 1f3d 9973 153d 1e37 9a3c
00000240: c139 563d 3cd1 2d3d 4116 f33c 02d4 0fbd
00000250: 972d dfbc 47c5 383d 5baf 553c 2364 0fbd
00000260: 8623 26bd f294 a33c 36b6 2abd 8f5e fcbc
00000270: 21e3 43bd aaa5 8c3c cb1f ed3c 5032 4ebb
00000280: f9f1 0a3d 6b1d 003d 5bea 963c c879 233d
00000290: c620 3d3d 4d52 2f3d 2028 febc 85b3 443d
000002a0: 1c58 043d fc85 8bbc 3858 c1bc 1a18 8cbc
000002b0: 521c 8a3c f9bf 093d 77fb 58bc f901 9e3c
000002c0: c915 1a3d b638 913c 42ba 8a3a 0e7e 41bd
000002d0: 2def 47bd a83a 1ebd acd4 d03c 427b 25bd
000002e0: 600b f93c e3fc 2dbd 30b3 6a3c 10ac 0fbc
000002f0: 083d 8cbc e27f 5cbd 31bc 283d e5a8 11bd
00000300: 0058 5aba dcd7 0abc 46fd c23c 6cf8 60bd
00000310: 9cf8 98bc 33dc b43c 0e97 c83c fe70 fa3b
00000320: 5283 353d b41a b93c c0e7 b63a bb9e e43c
00000330: 10c9 39bd d40b 7ebc 3317 123d 298d df3c
00000340: c60a 32bd 4ef7 4a3d f4b1 ba3c bcdf 30bd
00000350: 4b58 0b3d 2285 26bc ecd5 c73b 839d 11bd
00000360: a8bf f23c 6b17 38bd ab2e 833c 8afe d13c
00000370: a887 8abb 1332 0f3d 5742 11bd e21e 1e3d
00000380: 6cf3 003c 35f7 c5bb 058a a1bb 242e 0dbd
00000390: f236 e83c e008 053b 4d3b 37bd c8ec 48bd
000003a0: b951 2dbc 30a4 0cbd d75d 47bd 0bd0 48bd
000003b0: 9383 a0bc 661a 89bc fc0b 233c fda4 d3bb
000003c0: 01ae e6bc fc0a b3bb 81b5 fb3b 7c32 513d
000003d0: 4c9e 1ebd 803b 463d a6cc 31bd 7a2d af3c
000003e0: 6e0d eabc 7826 04bc 1397 fabc f4f3 16bc
000003f0: 4676 a0bc 3a26 54bc bd19 b4bb 5324 feba
-0.05187868 -0.011389039 -0.038247004 -0.04873979 -0.023769062 -0.0326468 -0.004906646 -0.0018105885
0.029925553 -0.042472146 0.018420171 -0.0038696856 -0.03464487 -0.015862085 0.03942762 -0.047332108
-0.027997034 -0.017953891 -0.03356993 -0.019489048 -0.04545789 -0.00057687704 0.05348859 -0.030806923
-0.025635952 0.0016006037 0.0013778019 0.002162546 0.020638641 0.033277247 -0.014813255 0.043623388
-0.047626175 0.028109608 0.029792154 -0.018258415 -0.032249548 -0.04325922 -0.026314478 -0.027895281
0.00048875355 0.011674227 -0.0059830276 0.011803154 -0.054058798 -0.0043251254 0.007129298 0.027982337
0.009979922 0.02684573 -0.033085767 -0.03510733 -0.006073365 0.004283207 -0.00014814734 0.009672803
-0.0010823163 -0.0024252748 0.021280248 0.005075507 0.03734007 -0.046678808 0.024506362 -0.015304782
-0.0010238662 0.05079529 -0.0074600205 0.0149835795 -0.018168323 0.018765237 -0.011924582 0.001947869
0.043790445 -0.04590733 -0.05099382 -0.009865032 0.021754485 -0.037118796 -0.0108062625 0.031059263
0.024725573 -0.002702064 -0.043761887 0.024281325 0.018742882 -0.054749947 0.04249039 0.011480527
-0.045007546 0.053315524 -0.009443505 -0.045115706 0.046066348 -0.006268233 -0.024245344 0.040988848
0.028989935 -0.022543766 -0.019927379 0.040170293 0.051491834 0.020253908 -0.0284883 -0.026653575
0.026599614 0.0049747266 -0.03963415 0.008962821 -0.024851106 0.026452977 0.048941918 -0.008469729
0.008733716 0.01818056 0.027870782 0.013697115 0.012625739 -0.009261195 0.0049388213 0.00073309604
-0.01418957 0.014568151 -0.022281595 -0.048606217 -0.0014301948 -0.003874164 0.022165015 0.04974742
-0.030860368 0.0065578856 0.015929814 0.014386363 -0.014353361 0.010664196 -0.043463305 -0.0011021423
0.025505692 -0.014950638 -0.018102631 0.0107671395 -0.016430717 0.038933124 0.036487196 0.01882511
0.052301172 0.04243587 0.029673697 -0.035114296 -0.027243419 0.045110013 0.013042296 -0.035007607
-0.04056122 0.019968484 -0.041677676 -0.030806808 -0.04782403 0.017168839 0.028945824 -0.0031463094
0.03392217 0.031278055 0.018422296 0.03991106 0.046173833 0.042803098 -0.031024992 0.048022766
0.03231059 -0.017031662 -0.023601636 -0.017101336 0.016859207 0.033630345 -0.013243548 0.01928805
0.037618432 0.017727237 0.0010584074 -0.047239356 -0.04881208 -0.038630158 0.025492035 -0.04040075
0.030400932 -0.0424775 0.014324948 -0.00876905 -0.017118946 -0.053832896 0.0411951 -0.03556146
-0.0008329153 -0.008474316 0.02380241 -0.054924414 -0.018673234 0.022077655 0.024486091 0.0076428642
0.04431469 0.02259574 0.0013954565 0.02790772 -0.045357764 -0.01550575 0.035666656 0.02728899
-0.043467306 0.049552254 0.022789933 -0.04318212 0.03401975 -0.010163577 0.0060984995 -0.035550606
0.029632404 -0.044944208 0.016013464 0.025634069 -0.0042275973 0.034959864 -0.035463657 0.03860367
0.007870536 -0.0060414323 -0.0049297833 -0.03446783 0.028346512 0.002029948 -0.044734288 -0.049053937
-0.010578566 -0.03433627 -0.048673477 -0.04902653 -0.01959399 -0.01673622 0.009951588 -0.006458877
-0.028159143 -0.005463956 0.007681549 0.051073536 -0.038725182 0.048396587 -0.04340806 0.02138399
-0.028570857 -0.008065812 -0.030589616 -0.009213436 -0.019587647 -0.012948567 -0.0054962323 -0.0019389488

simplicial_nn.2.W2 f4 [5, 64, 64]
00000000: e3fe 043d a057 933b e045 b53a 9a66 2d3d
00000010: 00f1 be39 072a a23c 4a8d 35bd 0487 f83c
00000020: af8c b9bb 0fa6 b23c b179 0d3d eb47 9fbc
00000030: 3d7a 1c3d 8039 663a 186c f43b 7cac f4bc
00000040: f0dd 17bd 980f b73c ef45 72bc febc 0fbd
00000050: f464 aa3b 78f1 cf3c 5458 033a 91e6 4f3d
00000060: bba8 3cbd 4178 47bd 411c f63b df61 393d
00000070: a977 513d 0005 e7ba 7682 bb3b c97e e9bc
00000080: 3ef0 173b cda4 f23c ce6e 613d 65bb 043c
00000090: 3150 a03c 86f9 fcbc 1562 0d3d c8e8 023c
000000a0: 70bf 08bb 022c 433d ba78 15bc 5daf 043d
000000b0: 3701 abbc 1e1a 99bc f3c3 4a3d 9c84 403d
000000c0: 4f10 333d 7209 f53b 0fc6 fdbc 8ed7 dabc
000000d0: 3cda 443d d137 3cbd 6ad8 b63a d908 1c3d
000000e0: a290 d6bb 7de6 e03c 24fc ffbc e008 ed3a
000000f0: 14a9 0cbc 0d06 5ebd 0651 c0bc f03a feb9
00000100: 239d 543d 0883 9cbb 2078 b5ba fc3c 2c3d
00000110: 4ad9 c93c 4624 f43b 21d5 133c 4ad1 b2bc
00000120: 881b d93c b9ac eebc 120b 14bd ebad 0e3d
00000130: 901f a8bc a3bd febc cb59 183d 7438 903c
00000140: a5bd a5bb 3b18 24bd 6a6d 48bc aa6c 0abc
00000150: a339 2c3d 429a 00ba d3e5 f13b 1fd6 a13b
00000160: c9ce d2bc 344d 23bd 16bf 903c 3302 51bd
00000170: 2b84 2bbd 80c7 5ebb 4965 a3bc 9fc1 133d
00000180: f162 9fbb c540 efbc 3e2b e23c 3d0c da3c
00000190: 1fa0 053d a958 523d 6e79 303d b48a 8f3b
000001a0: 4480 4ebc 0b9e 8c3c 5679 413d 53c6 333d
000001b0: ae77 ab3c 7e54 e4bc de8b a9bc 7d83 083d
000001c0: a2e9 fe3c 3a54 f13c 4166 483d d112 7ebc
000001d0: 79ab 4aba ad6a 39bd ccb1 b03c 307c 1b3d
000001e0: 0295 3f3d 6997 9c3c 4a5e d03c 490e 183d
000001f0: 0508 043d 93c9 4fbc 330d 99ba ef59 2bbd
00000200: 19e8 153d d231 a43c 76a2 b03c f1e2 803c
00000210: 18c6 9ebc d202 1cba 1c93 753b e553 223d
00000220: ca24 163d e5ec 6ebb 8149 063d d065 e8bc
00000230: 7ec4 43bd 6708 323d 9471 463c c4e7 40bd
00000240: 1242 6a3c 8172 4e3d dc0d 833b fc37 8ebb
00000250: 71cf f73c 7e4b 853b 83d5 2fbc f851 05bc
00000260: fccd 963c 42b2 a7bc bb89 2a3d f64c 50bd
00000270: 0c44 1abd 44cd 20bd 4e67 163c 2255 8ebc
00000280: ad00 a33c bc54 6f3c a2f1 6c3b 3561 aabc
00000290: 9907 e93a 608d 02bd f998 4f3d a972 6fbc
000002a0: 96c5 a43c 0465 913c 71a5 d0bc 125e 9b3c
000002b0: 2da9 0cbc 10df 39bc 4111 d03c 8581 dfbb
000002c0: a092 c7ba 1916 efbc fe7f a13c 4489 2d3c
000002d0: 7780 e1bc 48ad 0bbd 2641 403c 19bf 433d
000002e0: 4079 9037 534f 8abc 344c 95bc 1476 50bc
000002f0: 8807 6abc 6279 04bc 413a 33bc fb6e a5bc
00000300: 8fd1 2f3d 58f2 f6bb 013a 483d 0080 fbbc
00000310: 06dc a1bc ac29 293c 7414 a5bc ef13 a5bc
00000320: 5a09 b4bb c676 023d 6082 44bd 5c69 18bb
00000330: 3e9c aebc daa7 e83c 0307 2d3d ff77 233d
00000340: e533 0e3d da5d 20ba d8ec 413d 2cee 5c3d
00000350: de09 39bc 56fe 463a 4df6 34bd 8f98 1e3d
00000360: 8eb5 4bbd afaf 383d f05d 953b 1d35 323d
00000370: b872 01bd 22ed f5bc c423 c7b9 bc8c 413d
00000380: e720 1c3d 101d 07bd d6dc 3bbd a859 eb3c
00000390: 362d 5c3d 7d46 033d 8dfc 0a3d fef0 eb3b
000003a0: 6bcd f03c b76d dabc 22db a13b 3a5a bcbc
000003b0: 2544 f53c dad9 3abd 4137 b3bc 847e c43c
000003c0: d170 393d 73ef 3abd d6f3 283d c44e d6bc
000003d0: 9af8 f43c b123 0bbd 342c 2e3d 01b4 04bd
000003e0: 0e64 c13c 06ea 3bbd 8bb1 463d 153f 09bd
000003f0: 4004 06ba 56b9 2cbd 6107 143c b519 8e3c
0.03246964 0.0044965297 0.0013830028 0.042334177 0.00036419183 0.01979543 -0.044324197 0.030337818
-0.0056625227 0.021807699 0.034539882 -0.019443473 0.038202513 0.0008782372 0.007459175 -0.029867403
-0.03707689 0.022346303 -0.014787181 -0.035092346 0.005200023 0.025383696 0.00050104153 0.050756995
-0.04605935 -0.048698667 0.0075106923 0.045259353 0.051139507 -0.0017625391 0.0057223393 -0.028502839
0.0023183967 0.029619599 0.055037312 0.008101319 0.019569488 -0.0308807 0.034517366 0.00799007
-0.0020866059 0.04764939 -0.009123022 0.032393802 -0.020874603 -0.018689211 0.049503278 0.047001466
0.043716725 0.0074779326 -0.03097823 -0.026714113 0.048059687 -0.04595167 0.0013949994 0.038094375
-0.0065480033 0.027453655 -0.03124816 0.001808431 -0.008585233 -0.05420499 -0.023476135 -0.00048490567
0.05190767 -0.0047763623 -0.0013845004 0.042050347 0.024639744 0.007450613 0.009022982 -0.021828312
0.026502386 -0.029135095 -0.03614337 0.03483383 -0.020522863 -0.031096285 0.03719501 0.017605044
-0.005058008 -0.04006217 -0.012233118 -0.008448759 0.042047154 -0.00049057987 0.0073821335 0.0049388553
-0.025733368 -0.03986855 0.017669242 -0.051027488 -0.041874092 -0.0033993423 -0.019945757 0.036073323
-0.0048640897 -0.02920569 0.02760851 0.026617164 0.032623406 0.051354084 0.043084554 0.0043805484
-0.012603823 0.017165205 0.047234856 0.04389031 0.020931091 -0.02787232 -0.020696577 0.033328522
0.031117264 0.029459108 0.048925642 -0.015507416 -0.000773124 -0.04526775 0.021569155 0.03796023
0.046772964 0.019115167 0.025435586 0.037123 0.03223421 -0.012682336 -0.0011676907 -0.041833814
0.0365983 0.020043287 0.021561842 0.015733214 -0.019381568 -0.0005951348 0.0037471717 0.03963079
0.03665618 -0.0036457118 0.032784943 -0.02836886 -0.04779481 0.043465044 0.01211204 -0.04709603
0.014297979 0.05040217 0.003999455 -0.00434017 0.030250283 0.0040678373 -0.0107320575 -0.008137219
0.018408768 -0.020470742 0.041635256 -0.050854646 -0.03766255 -0.039258257 0.009179903 -0.017374579
0.019897783 0.014607605 0.0036154767 -0.020798305 0.0017778754 -0.031873107 0.050682995 -0.014614739
0.020113748 0.017748363 -0.025469514 0.018965755 -0.0085852565 -0.011344686 0.025398852 -0.00682086
-0.0015226193 -0.029185342 0.019714352 0.010591809 -0.027527077 -0.0341008 0.011734283 0.047789667
1.72226e-05 -0.016883528 -0.018224813 -0.0127234645 -0.014284022 -0.008085581 -0.010939182 -0.020194521
0.04292446 -0.007536214 0.04888344 -0.030700684 -0.019758236 0.010324877 -0.020151354 -0.020151107
-0.005494279 0.031851552 -0.047975898 -0.0023256158 -0.021314736 0.02840035 0.042243015 0.03990936
0.03471746 -0.00061175006 0.047345012 0.053938076 -0.011293856 0.00075909996 -0.044180203 0.03871971
-0.04973369 0.04508942 0.0045583174 0.043507684 -0.031603545 -0.0300203 -0.00037982885 0.047253355
0.038117316 -0.0329867 -0.045864902 0.028729275 0.053754054 0.032049645 0.033932257 0.0072003594
0.029394826 -0.026663644 0.0049394527 -0.022992242 0.02993972 -0.045617916 -0.021876933 0.023986109
0.045273606 -0.045638513 0.041248165 -0.026160605 0.029903699 -0.033969585 0.042522624 -0.032398228
0.02360728 -0.04587748 0.048509162 -0.033507425 -0.00051123276 -0.042168938 0.009034962 0.017346242

simplicial_nn.4.W0 f4 [64, 1]
00000000: 659e d2be 5e06 53be 47e8 51be b9f5 9abe
00000010: f417 b5be f09f c03c 8e74 28be 13cd 4d3e
00000020: 8d9f a1be dd6c 6d3e fac9 5b3e 0524 943e
00000030: 06e4 833e c460 93be 32eb 7a3e 8b7d 553d
00000040: df29 343d 5e52 a4be 31ad f43d 1615 b8be
00000050: be0f 26be ba41 b7be bdd8 8abe c461 a23e
00000060: d365 d9be 4d44 433e 8cdc cb3e ad48 853e
00000070: 214b a23e a703 933e ae08 69be 5265 27be
00000080: a53e 6f3e 1c9d 453e 7d0c a9be ccf8 663e
00000090: d147 913e 4070 c4be c538 c13d e147 4dbe
000000a0: 0a3a cb3e 4a75 ed3d 4941 6cbe 6a38 33be
000000b0: bb59 d33b 81ec c83e 64fe 953c e97a 9e3d
000000c0: 6adb 5ebe 0f46 9c3e a9b2 c7bd 38bf 90be
000000d0: 64ad ebbd b7f3 1fbd 69c6 943e 953c 223e
000000e0: f10b fdbb 1bbf 03be e109 35bd 62a9 523e
000000f0: c233 84be 9c65 a8be b8f1 903e f2ac 933e
-0.4113647 -0.20607898 -0.20498763 -0.30265597 -0.35369837 0.023513764 -0.16450712 0.20097761
-0.3156704 0.2318606 0.21463767 0.2893373 0.25759906 -0.28784764 0.24503782 0.05212168
0.043985244 -0.3209409 0.11947096 -0.35953587 -0.16216943 -0.35792333 -0.27118483 0.31715214
-0.42460498 0.19069023 0.398167 0.2603201 0.31697944 0.28713724 -0.22757217 -0.16347244
0.2336374 0.19298214 -0.3301734 0.22555846 0.28375104 -0.3836689 0.09434656 -0.20046951
0.39692718 0.11594637 -0.2307178 -0.17501989 0.0064499057 0.39242938 0.01830978 0.07738287
-0.21763387 0.305222 -0.097508736 -0.28270888 -0.11507681 -0.039050784 0.29057625 0.15843423
-0.007722371 -0.1286587 -0.044198874 0.20572427 -0.25820738 -0.32890022 0.28309417 0.28842884

simplicial_nn.4.W1 f4 [5, 64, 1]
00000000: 3027 f53c acde c7bd ec39 da3d 9ee1 493e
00000010: 7774 70be f7bb 843e 3561 d23e 828b 83be
00000020: 25e1 193d 9e11 bc3e db94 933e d1e7 c5be
00000030: 4fff 8fbe 6962 bfbe 7167 bb3e 54af 5c3d
00000040: fc77 a03d 54a3 3ebe 8286 3abd a7b5 013e
00000050: add9 a73e 5e8a 143e 6616 29be 5a82 7f3d
00000060: 9bfd 6a3e dc4d a33e 41d2 69be 01df b53e
00000070: 20b1 8e3c 2c26 c83d 68f5 d0be cdc2 a6be
00000080: 28c5 9dbe 5c08 cbbe 084e a83e 1814 dcbc
00000090: ce38 febc e83f 5e3d 7ce1 473e d5de 953e
000000a0: 8204 d7bd 6e5f 67bd 8e61 e2bd 74c7 c6bd
000000b0: 8f50 b4be 52f0 a8be ec40 33be 0981 78bc
000000c0: baf1 023e 7fa9 b3be a22c 1fbe 1ec7 92be
000000d0: 857a f8bd c759 903e df8a 223e b54a 703e
000000e0: 9bc3 93ba 708d d83b 846c cdbe 5003 52bd
000000f0: 642c cfbd b2cf 15bc 76e4 613e b7c8 e4bd
00000100: 04ab d4be d37f a03e 4569 af3e c257 9abe
00000110: ee30 5d3e 5de0 a2bc d171 863e b1ba b83d
00000120: 3445 c1bd 312a 7bbe af7e 9a3e 74e7 b23d
00000130: 9221 aa3e 57db 98be e492 9fbe fa12 5d3e
00000140: 7e00 ee3d 7fd3 983d 6e0f f8bc 1fb7 cc3e
00000150: 1f18 c43d d001 3dbe a635 363e 2bb8 843c
00000160: ec55 94bd 9a54 ac3e 135b 6fbe af67 42be
00000170: 5eb2 5a3e efb3 903e c977 85be 3011 ab3d
00000180: 6ff2 0c3d 28f2 133e f3e2 5b3c 0a9e 43be
00000190: 8455 b73e 5c3e 03be 2705 a1be ab3b 383d
000001a0: 2d02 91be e76e 0cbe 2ab6 1a3d 4ee8 1fbe
000001b0: a748 c53d 6b61 c1be 7529 9a3d 5924 8b3e
000001c0: 00d5 263b 5e3f 73be 4c1a 5cbd 943d 62be
000001d0: b4e1 853e 5a43 1cbe bb8f 583e 74e9 b93e
000001e0: de2a 8c3d 0fb6 53be 4e51 60be bb79 adbe
000001f0: 74e3 97bd 091f 9e3e c52d 18be 3158 683d
00000200: ac2a df3d b252 783e 125d 8bbe 6a7d 75be
00000210: 5163 ce3e 66f6 2d3e a54b 14bc 5278 5bbe
00000220: 43fa 183e 449e 0a3e 6b40 bbbe 770d 1b3e
00000230: 9b24 bf3d a19a 37be 4d31 833e a86f 443b
00000240: cb1a 903e eca2 7ebd 6b35 d23e 4799 883e
00000250: 4ae0 6a3d b65e aa3b 2de5 02bd b602 733e
00000260: d42a da3d ffbf 043e f667 5abe 91f3 903e
00000270: a572 ae3e e594 8c3e ed11 94be 92ce b1be
00000280: d9fa 91bd c5ce c2bd ca7b 12be b70c a23e
00000290: 7e36 f8bd 3808 f9bd f254 6e3e bff7 8abe
000002a0: 5c00 cc3e 03b1 ba3e 0445 0ebe 20fc 40be
000002b0: fc34 30be 628b 3cbe 48c0 523d 9aa4 4bbe
000002c0: 70ff f2bc 7f18 c3be 57bc cb3e 6703 71be
000002d0: 2c0b 30be 9d23 78be 93fb 583c a62c 2a3b
000002e0: 4e18 bcbe 064b 86ba 8f2b 5fbe dd90 69be
000002f0: ef08 ad3e 560c 683e 9310 70be 4d31 47be
00000300: 00c0 16be 9cd4 25be e80c 2c3d 5183 09be
00000310: 1cba f6bd 6f6b 7e3d 9c49 a83e 7e89 473e
00000320: 7dd4 5bbe 55b3 81bb d30d 8a3e 77ee 55be
00000330: 20f9 90be b284 c8be 5950 52be 6e37 8cbe
00000340: e474 12be 6857 c53e 86be 8a3e 860f a43e
00000350: 42c7 c2bd 3ad4 ab3d 74bb 9e3e f8a8 79be
00000360: 4299 88be 634a c63e 71ea 37bd ad86 b2be
00000370: d0a3 a63d 8fd5 51be a03e bb3e fb46 c4bd
00000380: 555d c5bd 8c0d a1be bcce 7cbe 98e1 5abe
00000390: d6be 82be 06d7 96be e6d2 ccbe 0aa3 ba3d
000003a0: 76e9 233e bc0b 2c3e 42a9 9abd 6d7b a43e
000003b0: 3210 aabd b54f 95be f5d8 b53d 5202 99be
000003c0: 8e98 54be be33 5cbc 0302 0dbe e9ee 573e
000003d0: 69a5 b73e 6404 9d3d eb31 2d3d f1ec 37be
000003e0: 4d18 593d 2350 65bd ac60 b8be 10cd 00be
000003f0: 6c54 f13d f326 debd 9de6 923d f506 703e
0.029925913 -0.09759268 0.10655579 0.19714972 -0.23481928 0.25924656 0.41089788 -0.25692374
0.03756823 0.3673219 0.28824505 -0.38653424 -0.28124472 -0.37379768 0.36602357 0.053878143
0.07835385 -0.18616992 -0.045538433 0.12666951 0.3278326 0.14505908 -0.1651245 0.062380172
0.22948305 0.3189534 -0.22834112 0.355217 0.017418444 0.09772906 -0.4081223 -0.32570496
-0.3081448 -0.39654815 0.32872033 -0.02686505 -0.031032946 0.054260164 0.19519609 0.2927157
-0.10498907 -0.056487493 -0.11053763 -0.097060114 -0.3521771 -0.3299585 -0.17505234 -0.015167483
0.12787524 -0.35090253 -0.1554437 -0.2866754 -0.12132744 0.28193495 0.15873288 0.23465998
-0.0011273505 0.0066086575 -0.40121853 -0.05127269 -0.10115889 -0.009143757 0.22059807 -0.11171096
-0.41536725 0.31347522 0.34260002 -0.3014508 0.21600696 -0.019882375 0.2625871 0.090199836
-0.094370276 -0.24527813 0.30174777 0.087355524 0.33228737 -0.29854843 -0.31166756 0.2158927
0.116211876 0.07462215 -0.030280795 0.3998346 0.09574913 -0.18457723 0.17793903 0.0162011
-0.07242951 0.33658296 -0.23374586 -0.18984865 0.21357104 0.28262278 -0.2606795 0.08352888
0.03441089 0.14447844 0.013420808 -0.19103256 0.3580743 -0.12816757 -0.31449243 0.04497878
-0.28321972 -0.13714181 0.03777138 -0.15615961 0.09632998 -0.37769637 0.075274386 0.2717617
0.0025456548 -0.23754641 -0.053736016 -0.22093803 0.2614876 -0.15260068 0.21148579 0.36310923
0.06844114 -0.20674919 -0.21906015 -0.33881935 -0.0741643 0.30883053 -0.1486121 0.05672473
0.10896811 0.24250296 -0.27219445 -0.23973623 0.40310147 0.16988525 -0.009051238 -0.21432617
0.14939217 0.13536936 -0.36572585 0.15141855 0.09333154 -0.1793008 0.2562355 0.002997378
0.2814544 -0.062167093 0.4105638 0.2667944 0.057342805 0.0051992787 -0.03195684 0.23731503
0.106527 0.12963866 -0.2132872 0.28310826 0.34071842 0.27457348 -0.28919926 -0.34727913
-0.071279235 -0.095120944 -0.14305034 0.31650326 -0.121197686 -0.12159771 0.23274592 -0.2714214
0.39844024 0.36463174 -0.13893515 -0.18846178 -0.17207712 -0.18412545 0.051452905 -0.1988701
-0.029662818 -0.38104627 0.3979213 -0.23536454 -0.17191762 -0.24232335 0.013243574 0.0025966554
-0.36737293 -0.0010245747 -0.2179396 -0.22809167 0.33795878 0.22660956 -0.23443823 -0.194524
-0.1472168 -0.16194385 0.042004496 -0.13429 -0.12047216 0.062114175 0.3286866 0.19486043
-0.21467777 -0.0039581456 0.26963672 -0.20891748 -0.28315067 -0.39163738 -0.20538463 -0.2738604
-0.14302403 0.38543248 0.27098483 0.32043093 -0.09510662 0.083900884 0.3100239 -0.24380863
-0.26679426 0.38728628 -0.044901315 -0.34868374 0.081367135 -0.20491622 0.36571217 -0.09583851
-0.09636942 -0.31455648 -0.24688238 -0.2137512 -0.2553622 -0.29460925 -0.40004653 0.091131285
0.16007027 0.16801351 -0.075518146 0.32125416 -0.0830387 -0.29162374 0.08879272 -0.29884583
-0.2076132 -0.013440071 -0.13770299 0.2108723 0.35868385 0.07666853 0.042283934 -0.1796148
0.05300169 -0.055984627 -0.36011255 -0.12578225 0.1178368 -0.10847273 0.07172892 0.23440154

simplicial_nn.4.W2 f4 [5, 64, 1]
00000000: 3fe0 67be d857 10be e5cf 913e d76a 1e3d
00000010: 1f9c 993e d62e 473e 9144 933e 72a0 4d3e
00000020: 5e88 0c3e 2ba1 a2be ac26 35be 111a 923e
00000030: 4810 45be 0c84 923d 7e4e a5be 465c 863e
00000040: fd23 8b3d f74c 9f3e bf07 c0bd 3cf3 4f3d
00000050: 5223 c9be b3b1 2abd f4e6 5e3d 6066 6e3e
00000060: dc2b 06be 12fd b0bd 228d 1a3e db69 853e
00000070: ad9f 9f3e d7e3 bb3e 141d 49be 95cb c1be
00000080: da10 e3bc 6b52 963e a2a1 25be f02f 88be
00000090: 18e6 843e 5e2b 7f3e 47c9 2fbd c558 40bd
000000a0: ba32 64be def5 91be f51f 943d 8c0e 8cbe
000000b0: a696 91bd c753 acbe d884 f3bb 4ba1 a9be
000000c0: 1939 cf3e f948 ab3e 5e40 edbd 3f84 813e
000000d0: c09b 043d 875f 94be 8a45 b13e 573d c93e
000000e0: f1db 9d3d 257f c0be 347d 39be d55b ca3e
000000f0: dead 723e fafa bdbe aeb5 acbe cfb6 8abd
00000100: bb43 843e 2bbf 8e3e f0c7 e9bc 909b 973e
00000110: f098 9e3d 4e02 99be 7cac 8e3d 0ea0 e03d
00000120: f833 babe 2a06 85be 3cc7 a3be 4d2e c5be
00000130: 72e4 283d 3a2c 0f3e a358 ca3e 8f56 f0bd
00000140: 3f78 683e 4e24 7dbe e4c2 ec3d 8e21 b1bc
00000150: ec7f abbe b719 943d e729 9bbe af78 4bbd
00000160: a089 fe3c 78b9 44bc 1a0f 50be a62e 2e3e
00000170: fa6b cbbe 8269 503e 86c6 85be 1632 1abd
00000180: 9920 5ebe 921d 17ba 393e 1f3e 9c20 a53a
00000190: 9a2c 3e3e c106 b83e 3a58 08be c213 0bbc
000001a0: 2100 b93e ab19 c43e f61a bfbd 008d d3bb
000001b0: 5bf9 bebe a5d0 79be a3eb 95be 9bef a1be
000001c0: 199a cf3e 38ff 2c3e f490 f6bd 06bb 94be
000001d0: ce40 32be 2190 4fbe 2001 93be fb07 63be
000001e0: 73d8 e7bd 99dc d03e fa89 1a3e 2f13 bcbe
000001f0: f003 f9bc 32ad 903e 118c 66be dff2 9e3e
00000200: 9d9b c6be 90a7 9cbc d2e0 093e c440 893b
00000210: f0b7 c03c ac31 fb3d 540f eabd f6ad 3fbd
00000220: 3b1f 393e c590 c63e 0fbd 33be c0d5 b03e
00000230: a41d c13e 8614 4d3e dd43 843e 047b e1bd
00000240: 7653 c7be a0b3 a3be 7a98 b03e 27c3 4e3e
00000250: d1c5 a8be 000e 16be f128 cbbe b7d3 41be
00000260: a338 b3be 61a9 a13e 5386 a43e a052 06bd
00000270: caef 6d3e d802 84bd 2c68 d33d 9b2a c9be
00000280: fe8f 66be e1df d2be 3827 983e 4f08 91bd
00000290: 401a 10bc c281 453e e0e2 55be b05b cf3e
000002a0: 5c72 8dbe d47b a73e 9f63 4c3d 409f ee3b
000002b0: 57cb 923e 60ee 70bc 1dfe 44be c78e 063e
000002c0: a610 303e 2f0a b5be b106 533e 6f6f d03e
000002d0: e61f 28be 6ecd 54be 6c6a d13e 338f d2be
000002e0: a7c2 a1be f55b febd 2d65 cc3e 030e 88be
000002f0: a593 83be f790 d93c dfa1 9e3d 8121 793e
00000300: 4019 7c3d b712 d4be 1d24 903e 5efc 543e
00000310: 276b 58be 62cc 373e 5087 bb3c 32f5 3cbe
00000320: 2889 92be 42b2 973e c4e3 9c3d 1454 87be
00000330: e16c a23e e856 933d c04b b5bc 229a 9cbe
00000340: e30b 473e 3b58 3b3e 042d cebe 1b18 17be
00000350: 0c73 a43d c87a 093d 10cb 933d 9e1d 9bbd
00000360: c05d 44be c185 443e 6216 ce3d 375b 67be
00000370: fa53 7fbe dec5 093e 20ca 7ebe bf86 c4be
00000380: 4afe af3e b83c 893d 48ac 5abe 875f 973e
00000390: dc3a 813d 7475 68be eb27 f03b 71f9 cd3e
000003a0: b04d 24be fa48 b5bb 0ee0 9ebe ec27 d5be
000003b0: 78d4 27be af40 4ebe 79d4 913e 0805 af3e
000003c0: 0b06 b9be faa1 4a3e 3537 bd3d 0b16 afbe
000003d0: 36a0 b2be edcc 24be b2f1 f93d d52a 153e
000003e0: de08 4b3e ace1 46be 60fe 4a3e 4777 b83e
000003f0: ce3f 8ebe de37 8abe 9ffc 373d 667d 89be
-0.22644137 -0.1409601 0.28478923 0.03867611 0.30001923 0.1945146 0.2876325 0.20080736
0.13723895 -0.31763586 -0.17690533 0.28535512 -0.19244492 0.07154092 -0.32286447 0.26242274
0.067939736 0.31113407 -0.093764775 0.050769076 -0.3928476 -0.041673373 0.054419473 0.2328124
-0.13102669 -0.08642019 0.150929 0.26057324 0.3117651 0.36697266 -0.19639999 -0.37850633
-0.027717996 0.29359755 -0.1617494 -0.26599073 0.25956798 0.24918887 -0.042916562 -0.046959657
-0.22284976 -0.28507894 0.07232658 -0.27354848 -0.07108812 -0.33657667 -0.0074316077 -0.3313087
0.4047325 0.3345411 -0.11584543 0.25296208 0.032375097 -0.28979132 0.34623367 0.3930461
0.07707966 -0.37597004 -0.18114167 0.39523187 0.23699138 -0.37105542 -0.3373236 -0.06773149
0.25832924 0.27880225 -0.02853772 0.29610872 0.07744014 -0.2988457 0.069664925 0.10968028
-0.36367774 -0.25981265 -0.3198794 -0.38511887 0.041233487 0.13981715 0.3952075 -0.1173526
0.2270212 -0.2472088 0.1156061 -0.021622445 -0.33496034 0.07231467 -0.30305406 -0.04967564
0.031071484 -0.01200711 -0.20318261 0.17009982 -0.39730817 0.20352748 -0.26128024 -0.037645422
-0.21692123 -0.0005764599 0.1555108 0.0012598219 0.18571702 0.35942653 -0.13314906 -0.008488597
0.3613291 0.38300833 -0.09331314 -0.0064560175 -0.37299618 -0.24395998 -0.2928134 -0.31628117
0.40547255 0.16894233 -0.12039366 -0.29048938 -0.17407534 -0.20269825 -0.28711796 -0.22171013
-0.11320581 0.40793303 0.15091696 -0.36733386 -0.030397385 0.28257138 -0.22514369 0.3104467
-0.387906 -0.019122869 0.13464668 0.004188629 0.023525208 0.122653335 -0.11428705 -0.04679676
0.1807832 0.38782325 -0.17552589 0.34538078 0.37717927 0.2002736 0.25833026 -0.110097915
-0.38930863 -0.3197298 0.3449133 0.20191632 -0.32963422 -0.14653778 -0.39679673 -0.18928419
-0.35004148 0.31574538 0.3213373 -0.03279364 0.23236004 -0.06445855 0.103226036 -0.39290318
-0.22515866 -0.4118643 0.29717422 -0.07081663 -0.008795321 0.1928778 -0.20887327 0.4049964
-0.27626312 0.3271166 0.049899694 0.0072821677 0.2867076 -0.0147052705 -0.19237562 0.13140403
0.17193851 -0.35359332 0.20608021 0.40710017 -0.16418418 -0.2078149 0.40901506 -0.41124877
-0.3159382 -0.12419883 0.3992094 -0.2657319 -0.2569858 0.026558382 0.07745718 0.24329187
0.061547518 -0.41420528 0.28152552 0.20799395 -0.21134625 0.1794906 0.02289167 -0.1845291
-0.28620267 0.29628187 0.0766063 -0.26431334 0.31723693 0.071943104 -0.022130847 -0.30586344
0.19438128 0.18295376 -0.4026872 -0.1475529 0.08029756 0.03356436 0.072164655 -0.075740084
-0.19176388 0.19191648 0.10062863 -0.2259339 -0.24934378 0.13454387 -0.24881792 -0.38384053
0.34373695 0.06701034 -0.21354783 0.2956507 0.06310055 -0.22701055 0.0073289773 0.4022937
-0.1604526 -0.005532381 -0.31030315 -0.4163202 -0.16389644 -0.20141862 0.28482416 0.34183526
-0.36137423 0.19788352 0.092390455 -0.34196505 -0.34887856 -0.16093798 0.12204303 0.1456712
0.19827601 -0.19422024 0.19823599 0.360285 -0.27783054 -0.26995748 0.044918653 -0.26853484

exp_avg f4 [1, 64]
00000000: 9b20 cdbe d638 1dbf 239b db3e 5354 f43d
00000010: 56aa f23d eef7 cabd 5ed2 d0bf e75e f739
00000020: 0000 0000 6c06 00bf 0000 0000 0000 0000
00000030: cb4c bbb8 c170 953e d6da 1e3e 0000 0000
00000040: 6a2f 0ebf 0000 0000 0000 0000 0000 0000
00000050: 98ab c93e 63df 89bf 0000 0000 7339 8fbf
00000060: f624 3f3f 0000 0000 dcc1 14bf 0000 0000
00000070: 3612 cdbe 0000 0000 72a7 123f 0000 0000
00000080: 8e2a b8be e07e e53e b481 463f 0477 cab9
00000090: 0000 0000 2f4f ac3e ecd8 f9bc d2c2 e63e
000000a0: 3c8d 203d 7838 703e 2596 39be d8ff f23e
000000b0: a45e 8ebe 0000 0000 bfdb a03e 40f7 a8bb
000000c0: 0000 0000 0000 0000 9af8 a2b9 0000 0000
000000d0: 0000 0000 0000 0000 0000 0000 0000 0000
000000e0: 0000 0000 0821 1839 0000 0000 fff4 90bf
000000f0: 0000 0000 0000 0000 f8ed 783e 0000 0000
-0.40063938 -0.6141485 0.42891797 0.11930146 0.11848895 -0.0991057 -1.6314199 0.0004718222
0.0 -0.500098 0.0 0.0 -8.931159e-05 0.29187587 0.15513167 0.0
-0.555411 0.0 0.0 0.0 0.39388728 -1.0771297 0.0 -1.1189407
0.7466577 0.0 -0.58108306 0.0 -0.40052956 0.0 0.5728675 0.0
-0.35969967 0.4482336 0.7754166 -0.00038617116 0.0 0.33654162 -0.030498944 0.4507051
0.03919719 0.23459041 -0.18123682 0.47460818 -0.2780658 0.0 0.31417653 -0.0051564276
0.0 0.0 -0.0003108427 0.0 0.0 0.0 0.0 0.0
0.0 0.00014508155 0.0 -1.1324767 0.0 0.0 0.24309528 0.0

exp_avg_sq f4 [1, 64]
00000000: c02c d53b 3d4b 7b3c 78dd f73b a62a 193a
00000010: 9746 183a 0348 d139 ea1e de3d b483 9532
00000020: 0000 0000 f3a8 263c 0000 0000 0000 0000
00000030: a9ce ce2f 3eb2 623b 7783 823a 0000 0000
00000040: 43d6 4c3c 0000 0000 0000 0000 0000 0000
00000050: cc9a d33b 3c06 413d 0000 0000 9bf9 503d
00000060: 2e2b bc3c 0000 0000 4a2e 603c 0000 0000
00000070: c621 d53b 0000 0000 ac56 603c 0000 0000
00000080: f0ef ab3b 606f 073c ab7c c83c 92cb cf31
00000090: 0000 0000 2c47 9d3b b4ad 1e38 36bd 073c
000000a0: 0746 ee38 f93d 183b bd98 b03a 1759 173c
000000b0: a8a0 4d3b 0000 0000 de9e 843b 741b 9235
000000c0: 0000 0000 0000 0000 2a99 8631 0000 0000
000000d0: 0000 0000 0000 0000 0000 0000 0000 0000
000000e0: 0000 0000 5f15 9a30 0000 0000 2445 553d
000000f0: 0000 0000 0000 0000 1032 1e3b 0000 0000
0.0065055788 0.015337762 0.007564243 0.0005842842 0.00058088586 0.0003991724 0.1084574 1.7405775e-08
0.0 0.010172117 0.0 0.0 3.7618023e-10 0.0034591104 0.0009957392 0.0
0.012502256 0.0 0.0 0.0 0.006457662 0.047125086 0.0 0.051019292
0.022969808 0.0 0.013682911 0.0 0.0065042702 0.0 0.013692539 0.0
0.0052471086 0.0082663 0.024473509 6.047636e-09 0.0 0.004799744 3.783191e-05 0.0082848575
0.00011361768 0.0023230298 0.0013473254 0.009237549 0.0031376276 0.0 0.0040472588 1.0885838e-06
0.0 0.0 3.917326e-09 0.0 0.0 0.0 0.0 0.0
0.0 1.1211049e-09 0.0 0.05206789 0.0 0.0 0.0024138726 0.0
