results/Test_citation/version_70/checkpoints/epoch=499-step=499.ckpt (torch, 19153 bytes, 27 tensors)

simplicial_nn.0.W0 f4 [1, 16]
0	0xbc3e372d	-0.011609835
1	0x3ecadad6	0.39620084
2	0x3e102a2e	0.1407859
3	0x3c139fe8	0.009010293
4	0xbe747e1b	-0.2387623
5	0x3e87bfd2	0.26513535
6	0xbf0e6666	-0.55625
7	0xbed74117	-0.42041847
8	0xbf030c8a	-0.5119101
9	0xbf560072	-0.8359443
10	0xbee36b75	-0.4441792
11	0xbeea40be	-0.4575252
12	0x3dde8b3e	0.10866402
13	0x3e8c0ac5	0.27351967
14	0xbecded4a	-0.402201
15	0xbf52bba7	-0.82317585

simplicial_nn.0.W1 f4 [1, 16]
0	0xbf2a44a1	-0.6651097
1	0xbe2b671d	-0.16738553
2	0x3ee1700f	0.44030806
3	0x3f2c7a03	0.67373675
4	0xbe0f776a	-0.14010397
5	0x3efe894b	0.4971412
6	0xbc940260	-0.018067539
7	0x3f197cb1	0.5995589
8	0x3f22da07	0.63613933
9	0xbe002640	-0.12514591
10	0x3f601497	0.8753142
11	0x3ce563c0	0.028001666
12	0x3ed9b68f	0.42522094
13	0x3f00c01a	0.50293124
14	0xbe06f154	-0.13177997
15	0xbf4a4db8	-0.7902484

simplicial_nn.0.W2 f4 [1, 16]
0	0x3ed8cd4d	0.42344132
1	0xbe55df9a	-0.20886078
2	0x3ed9201b	0.42407307
3	0xbec39a59	-0.38203695
4	0x3e6b19d0	0.22959065
5	0xbe7f163e	-0.24910828
6	0xbda57ee8	-0.08080846
7	0x3eabeb21	0.33577827
8	0x3eb962d3	0.3620821
9	0xbe492958	-0.19644678
10	0x3e8b8ade	0.27254385
11	0x3e8a5652	0.27018982
12	0xbeac369a	-0.33635408
13	0x3e88f3e0	0.26748562
14	0x3e5dea84	0.21671492
15	0xbe238540	-0.159688

simplicial_nn.2.W0 f4 [16, 16]
0	0x3d1ad9f9	0.03780553
1	0x3f06a332	0.52592766
2	0x3ea66ce3	0.3250495
3	0x3e9e14ca	0.30875236
4	0xbf26b74b	-0.6512343
5	0x3e40eeb3	0.18841057
6	0x3eccb04a	0.39978248
7	0xbe8c035d	-0.27346316
8	0xbe275578	-0.16341197
9	0x3e2850bf	0.16437052
10	0xbe2d2b37	-0.16911016
11	0xbdd4c821	-0.10389734
12	0xbdd6cb68	-0.104880154
13	0xbf172aa2	-0.5904943
14	0x3f6916f6	0.9105066
15	0xbdb86760	-0.09004092
16	0x3d69d174	0.057084516
17	0x3ebcbd7f	0.36863324
18	0x3e4f2b71	0.20231415
19	0xbef1f8fd	-0.47260275
20	0xbdfc284d	-0.12312374
21	0xbe9e1b80	-0.30880356
22	0x3eb1b6de	0.3470983
23	0x3f419fb0	0.7563429
24	0xbebeef92	-0.37292153
25	0x3f395bf1	0.72405916
26	0x3e7e8c5a	0.24858227
27	0xbf1d1689	-0.6136251
28	0xbf1599cc	-0.584378
29	0x3d85b70e	0.065290555
30	0xbecea520	-0.40360355
31	0xbed8b0f9	-0.4232252
32	0x3ea1c27b	0.3159369
33	0xbed78cc0	-0.4209957
34	0xbe675327	-0.22590314
35	0xbe8f2706	-0.2795946
36	0xbea31eb8	-0.31859374
37	0xbea9ebe6	-0.3318779
38	0x3e93f7aa	0.2889989
39	0x3da6a25f	0.081364386
40	0x3eea7f59	0.45800284
41	0xbe80915d	-0.25110903
42	0xbecdaf83	-0.40172967
43	0xbe7a5110	-0.24444985
44	0xbb94c157	-0.0045396495
45	0xbe2f45dd	-0.17116494
46	0xbedee423	-0.4353343
47	0xbd5c50e8	-0.053788096
48	0x3ee7e6c6	0.45293254
49	0x3daeb2d6	0.08530204
50	0xbf1b7ad5	-0.607343
51	0x3e636931	0.22208096
52	0xbecee4d6	-0.40408963
53	0xbeb101e3	-0.34571752
54	0xbc8e5945	-0.017376551
55	0xbe351633	-0.1768425
56	0xbf3364c7	-0.7007565
57	0x3e82b559	0.25528982
58	0xbecb6f39	-0.39733294
59	0x3f0c8585	0.54891235
60	0x3ebc5016	0.3677985
61	0x3ed864aa	0.422643
62	0xbed50a11	-0.41609243
63	0x3e832c4b	0.2561973
64	0xbe7db442	-0.24775794
65	0xbf0ff5e3	-0.5623457
66	0x3ece890d	0.40338936
67	0xbe97504a	-0.29553443
68	0xbde02d20	-0.10946107
69	0xbea09ff5	-0.31372038
70	0x3ae7f86a	0.0017697935
71	0xbdef7e17	-0.116939716
72	0x3edcddd6	0.43137997
73	0x3e82552b	0.25455603
74	0xbeed5e3a	-0.46360952
75	0x3e0ab7ec	0.13546723
76	0x3e74dfa8	0.23913443
77	0x3f05b359	0.5222679
78	0xbded95f0	-0.11600864
79	0x3ecb9b3e	0.39766878
80	0x3ed9b529	0.42521027
81	0x3dc3f4d8	0.095681846
82	0x3f4c591d	0.79823476
83	0x3e8cf3a3	0.2752963
84	0x3cd3ac5c	0.025839023
85	0xbf1a5d71	-0.6029883
86	0xbdd4bf24	-0.1038802
87	0x3d006429	0.03134552
88	0x3eec4a57	0.46150467
89	0xbd464df4	-0.048414186
90	0x3e28655f	0.1644492
91	0xbebff696	-0.37492818
92	0x3eb9938c	0.36245382
93	0x3ee28e87	0.44249365
94	0x3e81af02	0.25328833
95	0x3ef9fd32	0.48825985
96	0xbf1333bf	-0.57500833
97	0x3e9c9ee2	0.30589968
98	0x3c847e40	0.016173482
99	0x3ed626de	0.41826528
100	0x3e012bc0	0.12614346
101	0x3ef14356	0.47121686
102	0xbec36078	-0.38159537
103	0xbd07b6f0	-0.033133447
104	0x3d5b6cc0	0.05357051
105	0x3ee97bde	0.45602316
106	0x3da32f10	0.07967961
107	0xbf1aee16	-0.6051954
108	0x3c23cc00	0.009997368
109	0x3deb8108	0.1149922
110	0x3d768150	0.060181916
111	0x3edf3122	0.43592173
112	0xbe9fe41c	-0.3122872
113	0x3ef4b29b	0.47792515
114	0xbec16e4c	-0.37779462
115	0xbd1e4e25	-0.038648743
116	0x3dfde2b9	0.123967595
117	0xbe34976c	-0.17635888
118	0x3e886201	0.2663727
119	0x3e2269e0	0.158607
120	0x3d58aed7	0.052901115
121	0xbe386949	-0.18008913
122	0xbf18ff11	-0.597642
123	0x3e87f2be	0.26552385
124	0x3ee2eadb	0.44319806
125	0x3d6bc387	0.057559516
126	0xbe94d682	-0.29069906
127	0xbed97408	-0.42471337
128	0xbe25cda5	-0.16191728
129	0x3e7fe8f8	0.24991214
130	0x3ea82be8	0.32845998
131	0x3e53bc96	0.20677409
132	0xbdc1d53f	-0.094645016
133	0x3ead7a82	0.3388253
134	0xbe67d741	-0.22640707
135	0xbe9319f5	-0.2873074
136	0xbd6bcd0b	-0.05756859
137	0xbd8b1ee8	-0.06793004
138	0x3ea915ea	0.33024532
139	0x3f007779	0.501823
140	0xbf0c8fe6	-0.5490707
141	0x3e8a211e	0.2697839
142	0x3c92388c	0.01784923
143	0x3c493dce	0.012282802
144	0xbeb42e6e	-0.35191673
145	0xbe1b30ae	-0.15155289
146	0x3d858540	0.06519556
147	0xbef178e0	-0.47162533
148	0xbefd3119	-0.4945152
149	0xbe781a6e	-0.24228832
150	0xbeac87d3	-0.33697376
151	0x3e075e00	0.13219452
152	0x3f14608b	0.5795981
153	0x3f17c367	0.59282535
154	0xbf016b26	-0.5055412
155	0xbe4873ee	-0.19575474
156	0xbdc2e938	-0.09517139
157	0xbe07928e	-0.132395
158	0x3e5b3b84	0.21409422
159	0x3f0a94c9	0.5413328
160	0x3eb469ca	0.3523696
161	0xbf0e2f66	-0.55541074
162	0xbe71ba0a	-0.23606125
163	0x3eb79125	0.35852924
164	0xbf18afbd	-0.59643155
165	0xbf151394	-0.58233
166	0x3de15217	0.110019855
167	0xbf230971	-0.6368628
168	0xbf0ff129	-0.56227356
169	0xbd9c52b9	-0.076329656
170	0xbcaabafd	-0.020841116
171	0x3ea8547c	0.32876956
172	0xbe1f175e	-0.15536258
173	0xbe244d49	-0.16045107
174	0xbcab8da4	-0.020941563
175	0xbee47025	-0.4461681
176	0xbd3bb340	-0.045825243
177	0x3eb7ef98	0.35924983
178	0x3efddbaa	0.49581653
179	0x3ea7f142	0.32801253
180	0xbee1059c	-0.43949592
181	0x3edf324a	0.43593055
182	0x3f0294ff	0.510086
183	0xbf0866fb	-0.53282136
184	0x3ea9630c	0.3308338
185	0xbea24e64	-0.31700432
186	0xbea8330c	-0.32851446
187	0x3e10d260	0.14142752
188	0x3e495bb4	0.19663888
189	0x3d4c60c0	0.049896955
190	0x3f01cb15	0.50700504
191	0xbed59c8c	-0.41720998
192	0xbe395d28	-0.18101943
193	0xbf06f259	-0.52713543
194	0x3e8dac3c	0.27670467
195	0x3e09a825	0.13443048
196	0x3daeabf0	0.08528888
197	0xbf0c9430	-0.54913616
198	0x3f19c7a3	0.60070246
199	0x3e985a26	0.29756278
200	0x3d40875c	0.04700409
201	0xbee55ba3	-0.44796476
202	0x3ed54221	0.41652015
203	0xbdd38170	-0.103274226
204	0xbe85f93a	-0.26166707
205	0x3d2ed8a2	0.042687066
206	0xbe9d305c	-0.30700958
207	0xbec1c6fc	-0.37847126
208	0x3f353fd9	0.7080055
209	0x3eedc72c	0.4644102
210	0x3f3d3dad	0.73922235
211	0xbea1b202	-0.31581122
212	0x3e868fbf	0.26281545
213	0xbe5835ed	-0.21114321
214	0x3e02d197	0.12775265
215	0xbcd1110f	-0.02552083
216	0xbe2c5c93	-0.1683219
217	0xbe842998	-0.25812984
218	0x3cf8d887	0.030376686
219	0xbeaea31f	-0.34108827
220	0xbf073c1f	-0.5282611
221	0xbeed4fc5	-0.46349922
222	0x3e4f163c	0.20223325
223	0xbf06b05c	-0.52612853
224	0x3c8c62a0	0.017136872
225	0xbd88a980	-0.066729546
226	0xbea2bdd7	-0.3178546
227	0x3ec00e9c	0.37511146
228	0xbf0d3179	-0.55153614
229	0xbf0974f4	-0.5369408
230	0x3f16676f	0.5875158
231	0x3c831840	0.016002774
232	0xbe4abb06	-0.19797906
233	0xbf1aab3a	-0.6041752
234	0x3ef4366a	0.47697765
235	0x3e9f09a8	0.31062055
236	0x3ef17f4a	0.47167426
237	0xbeff43a0	-0.4985628
238	0x3eca1b5e	0.39474005
239	0xbe9f5aa8	-0.31123853
240	0xbe35bdf4	-0.17748243
241	0x3f00ea1d	0.5035723
242	0x3e578fec	0.21050996
243	0xbe265440	-0.16243076
244	0x3ca5dea0	0.020247757
245	0xbee1b14b	-0.44080576
246	0xbe907030	-0.28210592
247	0xbed76ddf	-0.42076012
248	0xbe8eff3c	-0.27929103
249	0xbe79fd8e	-0.2441313
250	0xbed26956	-0.4109599
251	0x3dc4f540	0.0961709
252	0x3c948b60	0.018132865
253	0xbe969c34	-0.2941605
254	0x3e4a9d1c	0.19786495
255	0xbefa2469	-0.48855904

simplicial_nn.2.W1 f4 [16, 16]
0	0xbf03c304	-0.51469445
1	0xbdaaa56c	-0.08332333
2	0x3e5fd2e6	0.21857795
3	0xbda340b0	-0.079713225
4	0xbf2320d3	-0.6372196
5	0xbe835efb	-0.25658402
6	0xbf0c5e66	-0.5483154
7	0xbeae7d2f	-0.34079883
8	0x3e7c6121	0.24646427
9	0xbeb952e2	-0.36196047
10	0xbd23fe62	-0.04003752
11	0xbc4adb53	-0.0123813925
12	0xbdba0e3f	-0.090847485
13	0xbe08c2dd	-0.13355584
14	0x3f1f603e	0.6225623
15	0x3eeaf54c	0.45890272
16	0xbe9b739b	-0.30361637
17	0xbf053e18	-0.5204787
18	0x3eb0d2a4	0.34535706
19	0x3f184b9b	0.59490365
20	0xbc28e32e	-0.01030807
21	0xbeef86e0	-0.4678259
22	0xbeb93ed5	-0.3618075
23	0x3df2bc07	0.118522696
24	0x3d9e3e06	0.07726674
25	0xbee5e92b	-0.44904456
26	0xbeeb3ae8	-0.4594338
27	0xbec47363	-0.38369283
28	0x3e856070	0.26050138
29	0x3dd1aad1	0.10237659
30	0x3c8066d4	0.015674032
31	0xbe6a6f1e	-0.2289395
32	0xbf05a64c	-0.52206874
33	0x3eecc475	0.46243635
34	0x3ebdeb69	0.37093666
35	0xbedfd52a	-0.4371732
36	0xbe09fb74	-0.13474828
37	0xbe1f3157	-0.15546165
38	0x3e3d6282	0.18494609
39	0x3e6488b1	0.22317769
40	0xbe028030	-0.12744212
41	0x3f069e67	0.5258545
42	0xbe32fb89	-0.17478766
43	0x3b988c6c	0.0046554115
44	0xbed5b65a	-0.41740686
45	0x3d8e61dd	0.0695226
46	0x3e9293df	0.28628442
47	0x3edb701f	0.4285898
48	0xbe7f252d	-0.24916525
49	0xbe46b35b	-0.19404356
50	0xbe063a63	-0.1310821
51	0x3ec9a4a9	0.39383438
52	0xbb8fb461	-0.0043855165
53	0xbef276d0	-0.47356272
54	0x3e987e6e	0.29783958
55	0xbe0a227a	-0.13489714
56	0x3e03bbd4	0.1286462
57	0xbe2a7901	-0.16647722
58	0xbf0927bc	-0.53576255
59	0x3c9a8741	0.018863322
60	0x3f063e4d	0.52438813
61	0xbd9d39a8	-0.07677013
62	0xbe0c3f63	-0.13696055
63	0x3ed4422b	0.41456732
64	0x3f07f84f	0.53113264
65	0x3d27fdf6	0.04101368
66	0x3e419e7d	0.18908115
67	0xbded4a09	-0.11586387
68	0x3ed18414	0.4092108
69	0x3ebc08bc	0.36725414
70	0xbe6fa1da	-0.23401585
71	0x3d8c1b78	0.06841177
72	0xbef1f64e	-0.47258228
73	0x3f10df51	0.56590754
74	0xbdae84d5	-0.085214294
75	0xbebef55e	-0.37296575
76	0x3f1c9504	0.6116488
77	0x3f099491	0.5374232
78	0x3f0d8cb7	0.5529284
79	0x3f00dae1	0.5033398
80	0x3eae1950	0.34003687
81	0x3dac9dcc	0.08428535
82	0x3c784a75	0.015154471
83	0x3deb1252	0.11478104
84	0xbc1c62df	-0.009545057
85	0xbe12f78a	-0.14352241
86	0xbf1b5c31	-0.6068755
87	0x3e67fa54	0.22654086
88	0x3ef31d61	0.47483352
89	0x3eb51cf6	0.35373658
90	0xbe4da699	-0.20083083
91	0xbefcee3e	-0.49400514
92	0xbf026e8f	-0.5094995
93	0x3e87c5bf	0.26518056
94	0x3ea8f80a	0.3300174
95	0x3cea8ac9	0.028630631
96	0x3e0590b4	0.13043481
97	0xbc216f40	-0.009853184
98	0xbf1a91ed	-0.60378915
99	0x3df9ec08	0.122032225
100	0x3b493a00	0.0030704737
101	0x3d258540	0.04041028
102	0x3e619e04	0.22032934
103	0x3eb6f464	0.3573333
104	0x3ec8edde	0.39243978
105	0xbef3b5e0	-0.47599697
106	0xbe23f802	-0.16012576
107	0xbee63600	-0.44963074
108	0xbf19224e	-0.5981797
109	0xbf08d2bc	-0.53446555
110	0xbe8f27b8	-0.2795999
111	0x3d046000	0.032318115
112	0xbeae004b	-0.339846
113	0x3ed63741	0.4183903
114	0xbc0a579d	-0.00844374
115	0x3e87ecac	0.26547754
116	0xbcdf1767	-0.027232839
117	0x3aab76a0	0.0013081618
118	0x3e5add8d	0.21373577
119	0xbda00279	-0.078129716
120	0x3ed4081e	0.41412443
121	0xbeb3b2fb	-0.3509749
122	0x3eb186ac	0.3467306
123	0x3dbaecda	0.09127207
124	0xbe1b5a72	-0.15171221
125	0xbddf4aed	-0.10902963
126	0x3ed56cf3	0.41684684
127	0xbd8121f5	-0.06305305
128	0xbf046cb0	-0.51728344
129	0x3ed630bd	0.4183406
130	0xbea8734a	-0.3290046
131	0xbe8bb8ec	-0.27289522
132	0x3e246031	0.16052319
133	0x3cc2bcd8	0.023771688
134	0xbe8c237b	-0.2737082
135	0xbe3a5f63	-0.1820045
136	0x3e012ca2	0.12614682
137	0x3e6cabc8	0.23112404
138	0xbf4f50bf	-0.80982584
139	0xbf0c353e	-0.5476874
140	0x3e8aed05	0.27133957
141	0x3e5f0cf6	0.21782288
142	0x3dd9bfe8	0.10632306
143	0xbf1d11a3	-0.61355036
144	0xbef8b3b2	-0.48574597
145	0x3e7f22ec	0.24915665
146	0x3ea7c10c	0.3276447
147	0x3cbc4420	0.022981703
148	0xbf0ce556	-0.5503744
149	0xbef9a217	-0.48756477
150	0xbe818119	-0.25293806
151	0x3dacb360	0.084326506
152	0xbe7061ec	-0.23474854
153	0xbe9d34f9	-0.30704477
154	0x3df825e8	0.12116605
155	0xbe8e6c63	-0.27817068
156	0x3e04d0f4	0.12970334
157	0xbe854aa1	-0.260335
158	0x3e124ce0	0.14287138
159	0x3d45d150	0.04829532
160	0xbeb1ecff	-0.34751126
161	0xbe29dac7	-0.16587363
162	0x3f040590	0.5157099
163	0x3ebe064a	0.37114173
164	0x3bfe95e4	0.007769333
165	0xbc9ac4a8	-0.018892601
166	0x3e060943	0.1308947
167	0x3e69028f	0.22754882
168	0x3e882681	0.26591876
169	0xbec9615a	-0.39332086
170	0xbe2d9f5e	-0.16955325
171	0xbeda8535	-0.42679754
172	0x3f033b50	0.5126238
173	0x3e74e575	0.23915656
174	0xbf804bbe	-1.0023115
175	0xbef0a50e	-0.47000927
176	0xbf0158b5	-0.5052598
177	0xbea7210c	-0.326424
178	0xbe9cc4a9	-0.3061879
179	0xbefaa307	-0.48952505
180	0xbe5ce5ce	-0.21572039
181	0xbdba5e40	-0.09100008
182	0x3eca9c22	0.39572245
183	0x3dac3d48	0.08410126
184	0xbea7edb2	-0.32798535
185	0xbf1aae3e	-0.6042212
186	0xbf04da3a	-0.5189549
187	0xbf071955	-0.5277303
188	0x3eb14362	0.34621722
189	0xbe74e6ec	-0.23916215
190	0x3f03ed57	0.51534027
191	0xbe1e643e	-0.15467927
192	0xbedc8114	-0.4306723
193	0xbf010074	-0.50391316
194	0xbeb9477e	-0.36187357
195	0xbdf27652	-0.11838974
196	0xbf235997	-0.6380858
197	0x3f10b4fa	0.5652615
198	0xbe9d5a1b	-0.30732808
199	0x3f37af45	0.71751815
200	0xbe6237a2	-0.22091535
201	0xbd6d84ab	-0.05798785
202	0x3dec00ea	0.11523612
203	0x3e2b1572	0.167074
204	0x3ed2ee1a	0.41197282
205	0x3e7b471b	0.24538843
206	0xbf7a61ae	-0.978053
207	0x3eeaee34	0.4588486
208	0x3eb205e0	0.34770107
209	0xbe1d2596	-0.15346369
210	0x3df58f5f	0.119902365
211	0x3ec00b68	0.37508702
212	0x3cf8b0b4	0.030357696
213	0x3f02f6db	0.5115792
214	0xbea4a02b	-0.32153448
215	0xbdb8f86a	-0.09031756
216	0xbed2ff33	-0.41210327
217	0xbd1f05fc	-0.038824067
218	0x3dfbfe61	0.12304378
219	0xbbca8406	-0.006180289
220	0xbd82c754	-0.06385675
221	0xbe5e8a27	-0.21732388
222	0xbd7b9354	-0.0614198
223	0x3ed60bf3	0.41805992
224	0xbda0cba0	-0.078513384
225	0xbdf1e3c0	-0.11811018
226	0x3e3b1af8	0.18272007
227	0x3e67d91c	0.22641414
228	0xbe5d47dc	-0.21609443
229	0xbea418aa	-0.32050067
230	0x3f076f57	0.52904266
231	0xbe94220e	-0.28932232
232	0xbca9b480	-0.020715952
233	0x3e8475dc	0.2587117
234	0xbe176db8	-0.14787948
235	0x3f118ad5	0.56852466
236	0xbe13c54e	-0.14430735
237	0x3eb40288	0.3515818
238	0xbecec3ed	-0.40383855
239	0xbed1d5f2	-0.4098354
240	0x3c449680	0.011998773
241	0x3d562420	0.052280545
242	0xbe9e64af	-0.3093619
243	0xbd4d3720	-0.0501014
244	0xbc307980	-0.010771155
245	0x3f0344c3	0.512768
246	0x3e5dfef4	0.21679288
247	0x3eafaf98	0.34313655
248	0x3eb3f232	0.35145718
249	0xbecedf8f	-0.40404937
250	0xbee2b3fc	-0.44277942
251	0x3eb1741a	0.3465889
252	0xbbe61280	-0.0070212483
253	0x3f0d2155	0.55128986
254	0x3d3757d0	0.04476148
255	0x3ee38efe	0.44445032

simplicial_nn.2.W2 f4 [16, 16]
0	0x3e5f6536	0.21815953
1	0x3ef28563	0.4736739
2	0x3db1a109	0.08673293
3	0x3e92b307	0.28652212
4	0xbf1c56fe	-0.6107024
5	0xbd6f0cd1	-0.058361832
6	0x3ea9e7e4	0.3318473
7	0xbea9ada6	-0.33140296
8	0xbd142c00	-0.036174774
9	0xbf0b2f9c	-0.5436952
10	0xbf36b253	-0.7136585
11	0x3d8eb4fc	0.06968114
12	0x3ea24e79	0.31700495
13	0xbe3a1ba4	-0.18174607
14	0x3de33ae5	0.110952176
15	0x3e0e9361	0.13923408
16	0xbeac5f69	-0.33666542
17	0xbc73e712	-0.014886634
18	0x3eb3d7e5	0.35125652
19	0x3eac7faf	0.33691165
20	0x3e10807c	0.14111513
21	0x3ebe9601	0.3722382
22	0x3e3d1b71	0.184675
23	0x3f00cabd	0.50309354
24	0xbf1d06dd	-0.613386
25	0x3ea50b9c	0.3223542
26	0xbf119807	-0.568726
27	0xbe5938df	-0.21213101
28	0xbd6091b7	-0.054826465
29	0x3e81ae5f	0.25328347
30	0x3e30297d	0.17203327
31	0x3eaaa41a	0.33328325
32	0x3ed0b33f	0.40761754
33	0x3e7805b0	0.2422092
34	0x3bab5449	0.0052285534
35	0x3ecac2f6	0.39601868
36	0x3e4c2dc6	0.19939336
37	0xbeef268b	-0.46709093
38	0xbee42f1d	-0.44567195
39	0xbec7c8ab	-0.39020285
40	0x3dc213de	0.094764456
41	0xbe096613	-0.13417844
42	0xbe8e6e09	-0.27818325
43	0xbea9a6eb	-0.3313516
44	0x3f1797a2	0.5921575
45	0x3db7ff5b	0.08984252
46	0x3dbb5e53	0.0914885
47	0x3dce35b7	0.10068839
48	0x3d732134	0.059357837
49	0xbed18a59	-0.40925863
50	0xbef2e10e	-0.47437328
51	0x3e4f304c	0.20233268
52	0x3f41e5eb	0.7574145
53	0x3ee08a20	0.4385538
54	0xbf18e4c8	-0.5972409
55	0xbef84bb4	-0.48495257
56	0xbe7650da	-0.2405428
57	0xbe6a38c7	-0.22873221
58	0x3dc5023a	0.09619565
59	0xbe1244bb	-0.14284031
60	0x3ebe0dea	0.3711999
61	0xbea974a3	-0.330968
62	0x3f0f1ccf	0.55903333
63	0x3c87977d	0.016551727
64	0xbecb9a0e	-0.39765972
65	0x3e974242	0.29542738
66	0x3ee6b5c3	0.45060548
67	0xbe815ce2	-0.25266176
68	0xbf1c6698	-0.61094046
69	0x3e7c17a6	0.24618396
70	0xbd00053f	-0.031255003
71	0xbe4e2c7e	-0.2013416
72	0x3cb120e9	0.021622138
73	0x3ee548ce	0.44782108
74	0xbe0594aa	-0.13044992
75	0xbee815ab	-0.4532903
76	0x3df92404	0.121650726
77	0x3ee5a31a	0.44851
78	0xbe0f8576	-0.14015755
79	0xbe9ed66c	-0.31022966
80	0xbddc44dc	-0.107553214
81	0xbf26a637	-0.65097374
82	0x3ead146b	0.3380464
83	0xbf043ab6	-0.51652086
84	0xbc2ba36f	-0.010475977
85	0x3ed24560	0.41068554
86	0xbf00026d	-0.500037
87	0xbe3e8032	-0.1860359
88	0x3dfe64a9	0.12421543
89	0xbe5eef27	-0.21770917
90	0xbefc165f	-0.49235818
91	0xbeddd517	-0.43326637
92	0x3eb7a339	0.35866717
93	0x3e44fec9	0.19237818
94	0x3e44fb89	0.19236578
95	0xbe956f77	-0.29186603
96	0x3e3f0104	0.18652731
97	0xbe2053f0	-0.1565702
98	0x3e833468	0.2562592
99	0x3e5fafac	0.21844357
100	0x3e9a7ff0	0.30175734
101	0xbe34f486	-0.17671403
102	0xbee10ed6	-0.4395663
103	0xbe1e71d4	-0.1547311
104	0x3efa7c2a	0.48922855
105	0x3e1294d4	0.14314586
106	0x3dc7d150	0.0975672
107	0x3ea4266a	0.32060558
108	0x3ec1fec6	0.3788969
109	0xbd1cbf10	-0.03826815
110	0xbecea171	-0.40357545
111	0xbe7befc6	-0.24603185
112	0xbe9ef087	-0.31042883
113	0xbe35cc63	-0.17753749
114	0x3ed01141	0.40638164
115	0xbe2c27dd	-0.16812082
116	0x3f06dd0c	0.5268104
117	0xbe83653d	-0.25663176
118	0x3ed6930d	0.41909066
119	0xbee1ee29	-0.44127014
120	0xbd69e0c5	-0.057099123
121	0xbdfd525f	-0.12369227
122	0x3f003967	0.5008759
123	0xbeaba588	-0.33524728
124	0xbe495d9e	-0.19664618
125	0x3db39979	0.08769507
126	0x3eebbda1	0.46043113
127	0xbf074be8	-0.528502
128	0x3d17899b	0.036996465
129	0x3eda2eb3	0.42613754
130	0xbe5676e4	-0.2094379
131	0xbd8d8727	-0.06910544
132	0x3e30d772	0.17269686
133	0x3eff19e0	0.4982443
134	0x3f1ea060	0.6196346
135	0xbe5a78cc	-0.21335143
136	0xbefa1392	-0.48843056
137	0xbdae4989	-0.085101195
138	0x3f21117e	0.62917316
139	0xbe14e2ad	-0.14539595
140	0xbe93eb9f	-0.28890702
141	0x3e575bf4	0.21031171
142	0xbdd55f1b	-0.104185306
143	0x3e61b640	0.22042179
144	0xbefb5c28	-0.49093747
145	0xbe82f899	-0.2558029
146	0xbeb39f42	-0.35082442
147	0x3ee35f2e	0.44408554
148	0x3ed48046	0.41504115
149	0xbf05403f	-0.52051157
150	0x3dd89058	0.105744064
151	0x3e1f2f34	0.1554535
152	0xbf0ce0c2	-0.55030453
153	0x3ec2709a	0.37976533
154	0xbea5f563	-0.32413778
155	0x3ed170c2	0.4090634
156	0x3eedd6e6	0.46453017
157	0xbd1d9110	-0.03846842
158	0x3e71a78c	0.2359907
159	0xbed17bd9	-0.409148
160	0x3f0642de	0.5244578
161	0xbd3a876f	-0.045539316
162	0xbded8580	-0.11597729
163	0x3f1f7689	0.62290245
164	0xbc0cbe9d	-0.008590368
165	0xbef00727	-0.46880457
166	0x3f0687de	0.52551067
167	0xbec29d6f	-0.38010737
168	0xbdd84100	-0.10559273
169	0xbd84df57	-0.06487911
170	0x3ec4e83c	0.3845843
171	0xbe90a238	-0.28248763
172	0x3e8a51a6	0.27015418
173	0x3ca653af	0.020303575
174	0x3e76c9a5	0.24100359
175	0x3e2cf245	0.16889293
176	0xbea6c727	-0.32573816
177	0xbf148d28	-0.5802789
178	0x3e8d4360	0.27590466
179	0xbecbfd2e	-0.39841598
180	0x3e20c5f8	0.15700519
181	0xbefa7fbb	-0.48925576
182	0xbe023b3e	-0.12717912
183	0x3f029ba5	0.51018745
184	0x3d93aef8	0.07211107
185	0x3d6685d0	0.056279957
186	0x3dd355d8	0.10319108
187	0x3efa1a1e	0.4884805
188	0xbf12a057	-0.5727591
189	0x3ea5f290	0.32411623
190	0xbe11264e	-0.14174768
191	0x3eaa4d06	0.3326189
192	0xbe2c425c	-0.16822189
193	0xbee13ee9	-0.4399331
194	0xbd623431	-0.055225555
195	0xbd58174e	-0.0527566
196	0xbca5b48e	-0.020227697
197	0xbf173b8a	-0.59075224
198	0x3e7032b6	0.23456845
199	0x3e957818	0.29193187
200	0x3f0f0c12	0.5587779
201	0xbe76ea58	-0.24112833
202	0x3ec7fd6d	0.39060536
203	0xbe90d97d	-0.2829093
204	0xbcfe6806	-0.031055462
205	0x3eabc6cc	0.33550107
206	0x3ee3792a	0.44428378
207	0xbd7e35cf	-0.062063035
208	0xbebfe359	-0.3747814
209	0xbe632a08	-0.22184002
210	0xbed6b4e4	-0.41934884
211	0x3e3edaf2	0.18638209
212	0x3d8c2dbb	0.0684466
213	0xbf1472cc	-0.57987666
214	0x3dad5f46	0.084654376
215	0x3e915600	0.28385925
216	0x3e116133	0.14197235
217	0x3d3fd9a5	0.04683842
218	0x3c655235	0.01399665
219	0xbed52074	-0.41626322
220	0xbefca666	-0.49345702
221	0xbf006705	-0.50157195
222	0xbe433a62	-0.1906524
223	0xbe635433	-0.22200088
224	0x3d9e2518	0.07721919
225	0xbf1847b1	-0.5948439
226	0xbee8bfde	-0.45458883
227	0xbd177b00	-0.036982536
228	0xbea36be6	-0.31918257
229	0x3eadadd0	0.3392167
230	0x3c524f40	0.0128362775
231	0xbea46bf5	-0.32113615
232	0x3ef9460a	0.48686248
233	0x3eb8ae0e	0.36070293
234	0x3e9b8e3e	0.3038196
235	0xbc8def40	-0.017325997
236	0xbe4d7fd8	-0.200683
237	0x3e575ac0	0.21030712
238	0x3f086645	0.5328105
239	0x3ec41a7c	0.38301456
240	0x3e9a82e6	0.30177993
241	0xbdd35678	-0.10319227
242	0xbdcb0cb0	-0.09914529
243	0xbea613ff	-0.3243713
244	0xbf12c233	-0.57327574
245	0xbe9bd031	-0.30432275
246	0x3e7399f0	0.23789191
247	0xbea20cf6	-0.31650513
248	0xbf0543c3	-0.5205652
249	0x3e398468	0.18116915
250	0x3e6f6e84	0.23382002
251	0x3ec48124	0.38379776
252	0xbf02332e	-0.50859344
253	0x3e3bffec	0.18359345
254	0x3bb49780	0.0055112243
255	0x3e289508	0.16463101

simplicial_nn.4.W0 f4 [16, 1]
0	0x3e41e038	0.18933189
1	0x3dbacaeb	0.09120735
2	0x3f2efc4b	0.6835372
3	0x3edd25f7	0.43193027
4	0xbf12c442	-0.57330716
5	0x3e7b4cb0	0.24540973
6	0x3f6e68b2	0.931285
7	0x3f68b02e	0.9089383
8	0xbeca156b	-0.39469466
9	0x3e427e3d	0.18993469
10	0x3dc55b00	0.096364975
11	0x3deaa76f	0.11457717
12	0xbf381e60	-0.7192135
13	0x3d9d7265	0.07687835
14	0xbf19b038	-0.60034513
15	0xbe96c630	-0.2944808

simplicial_nn.4.W1 f4 [16, 1]
0	0x3e063c03	0.1310883
1	0xbf2d2c01	-0.6764527
2	0xbf36f856	-0.7147268
3	0xbe15ec54	-0.14640933
4	0xbf2bd72d	-0.6712521
5	0xbf01414a	-0.5049025
6	0x3eae6ad3	0.34065875
7	0xbed0bdaf	-0.40769717
8	0x3db5d792	0.088790074
9	0x3f105b08	0.563889
10	0x3dc9e04a	0.09857233
11	0xbe57ea8a	-0.21085563
12	0xbe2aad18	-0.16667593
13	0x3f268188	0.650414
14	0xbf3b84a4	-0.7324927
15	0xbe42a198	-0.19006956

simplicial_nn.4.W2 f4 [16, 1]
0	0x3f214d96	0.6300901
1	0x3ea90e51	0.33018735
2	0xbdbdf33e	-0.092749104
3	0xbf3b2210	-0.7309885
4	0x3ee098e1	0.43866637
5	0xbe6a5a47	-0.22886
6	0x3e3b79ed	0.1830823
7	0xbe303f2d	-0.172116
8	0x3f2ca7a9	0.6744333
9	0x3eae7f07	0.3408129
10	0x3ddddd20	0.10833192
11	0x3d6ffe43	0.058592092
12	0x3eb53b39	0.35396746
13	0x3e8779b8	0.26460052
14	0x3ea6a656	0.3254878
15	0x3e93a086	0.28833407

exp_avg f4 [1, 16]
0	0x3ba01a24	0.0048859287
1	0xbef65d4e	-0.4811806
2	0xbd2666e6	-0.040625475
3	0x3dc8a8b2	0.09797801
4	0x170dfab3	4.5875984e-25
5	0xbe2698c3	-0.16269211
6	0x00000000	0.0
7	0x3c0190cf	0.00790806
8	0xbbd2a882	-0.006428779
9	0x00000000	0.0
10	0x3c81f2af	0.01586279
11	0x00000000	0.0
12	0xbe856ba2	-0.2605868
13	0xbe65034c	-0.22364539
14	0x00000000	0.0
15	0x00000000	0.0

exp_avg_sq f4 [1, 16]
0	0x3f158f39	0.58421665
1	0x4126fc22	10.436556
2	0x3eb0bb3d	0.3451785
3	0x3e6fa6b2	0.23403433
4	0x3351e63f	4.8871012e-08
5	0x3f6a032b	0.91411084
6	0x00000000	0.0
7	0x3b59eb3d	0.0033251785
8	0x3a07ab4e	0.00051753677
9	0x00000000	0.0
10	0x3c2b5736	0.010457804
11	0x00000000	0.0
12	0x4054c213	3.3243454
13	0x3fa958b6	1.3230197
14	0x00000000	0.0
15	0x00000000	0.0

exp_avg f4 [1, 16]
0	0x3a772fc5	0.00094294205
1	0x3b782520	0.0037863925
2	0x3c138775	0.009004463
3	0x3c854903	0.016270166
4	0x96e1b269	-3.6463303e-25
5	0x3aa68a08	0.0012705931
6	0x00000000	0.0
7	0x3be67f8c	0.0070342477
8	0xbbc04669	-0.0058677685
9	0x00000000	0.0
10	0x3c4db61a	0.012555623
11	0x00000000	0.0
12	0x3cad139c	0.021127515
13	0xbb5b7b50	-0.0033490248
14	0x00000000	0.0
15	0x00000000	0.0

exp_avg_sq f4 [1, 16]
0	0x39ca85ed	0.00038628225
1	0x3d938cdb	0.072046004
2	0x3b664964	0.003513896
3	0x3b13c87e	0.0022549923
4	0x32fc8acf	2.9399784e-08
5	0x3ba15efc	0.004924653
6	0x00000000	0.0
7	0x3b070627	0.0020603032
8	0x39d5b228	0.00040759263
9	0x00000000	0.0
10	0x3bb10792	0.005402514
11	0x00000000	0.0
12	0x3d35275b	0.044226985
13	0x3ba18d87	0.0049302015
14	0x00000000	0.0
15	0x00000000	0.0

exp_avg f4 [1, 16]
0	0x3bb2e6b0	0.005459629
1	0xbc2d5662	-0.010579677
2	0x3b8e3790	0.0043401197
3	0x3bc07495	0.0058732727
4	0x1689003f	2.21337e-25
5	0xbb4e0e6e	-0.0031441706
6	0x00000000	0.0
7	0xba0a9760	-0.0005286839
8	0x39dd2a42	0.0004218389
9	0x00000000	0.0
10	0xba6c850c	-0.0009022511
11	0x00000000	0.0
12	0xbc0e8c14	-0.008700389
13	0xbbdc7537	-0.0067278403
14	0x00000000	0.0
15	0x00000000	0.0

exp_avg_sq f4 [1, 16]
0	0x3b106c46	0.0022037192
1	0x3c1b285c	0.009470072
2	0x396809e9	0.00022128936
3	0x38945f67	7.07496e-05
4	0x323cc9f9	1.09889635e-08
5	0x3a7816c4	0.00094638416
6	0x00000000	0.0
7	0x36270e3e	2.489323e-06
8	0x35d33f11	1.573908e-06
9	0x00000000	0.0
10	0x35b960eb	1.3811781e-06
11	0x00000000	0.0
12	0x3b0fbf26	0.0021934002
13	0x3b012e72	0.0019711521
14	0x00000000	0.0
15	0x00000000	0.0

exp_avg f4 [16, 16]
0	0xba441538	-0.00074799685
1	0x3a48c986	0.0007659424
2	0x39c71194	0.00037969335
3	0x00000000	0.0
4	0x39d1ce47	0.00040017275
5	0x1eab4a1a	1.8135977e-20
6	0xba4e43f7	-0.0007868404
7	0xbc32ad1d	-0.010905531
8	0xb9f2b53a	-0.0004629286
9	0xba1c7518	-0.0005968376
10	0xbab76cf4	-0.0013994263
11	0x1d6ba51f	3.1187357e-21
12	0x00000000	0.0
13	0x00000000	0.0
14	0xbb4f2940	-0.003161028
15	0x00000000	0.0
16	0xbcc60dad	-0.024176443
17	0xbbf35980	-0.0074264407
18	0xbda89add	-0.08232663
19	0x3ba945d3	0.0051657944
20	0x3c20efed	0.009822828
21	0x1e375c13	9.70698e-21
22	0xbde9dfac	-0.11419615
23	0xbdf20ad5	-0.11818472
24	0x3c829875	0.015941838
25	0xbcf87529	-0.030329304
26	0xbc8310da	-0.015999246
27	0x1d37b164	2.4311557e-21
28	0x173c205a	6.078691e-25
29	0xbc12334a	-0.008923361
30	0x3c20afd3	0.009807545
31	0xbb416e02	-0.0029515033
32	0xbbf0e5d6	-0.0073516173
33	0xbb83e6e9	-0.0040253294
34	0xbd083e5f	-0.033262607
35	0x3bb0b1cd	0.0053922893
36	0x3b3e1aa2	0.0029007574
37	0x1bb33dd3	2.965302e-22
38	0xbd123d50	-0.035703003
39	0xbd2433e1	-0.040088538
40	0x3c1a1fa3	0.009406957
41	0xbc4b9953	-0.012426692
42	0xbbef6dc8	-0.007306788
43	0x00000000	0.0
44	0x17f1ffae	1.5638803e-24
45	0x3a8f518b	0.0010934336
46	0x3b3890f4	0.002816257
47	0xbbaa55dd	-0.005198224
48	0x3ade6e0e	0.0016970055
49	0xb989850a	-0.00026229798
50	0xbbfca648	-0.007710252
51	0x3bd6e6f2	0.0065582925
52	0x37cb2864	2.4218294e-05
53	0x00000000	0.0
54	0x3b33f01e	0.0027456353
55	0xbba1971d	-0.004931344
56	0xb9a0bd39	-0.0003065856
57	0xbb5901d6	-0.0033112667
58	0xbb0437ac	-0.0020174785
59	0x00000000	0.0
60	0x18816f89	3.345834e-24
61	0x3bd078c4	0.0063620526
62	0x1c779859	8.192235e-22
63	0xbbae3565	-0.0053164237
64	0x136cffc8	2.9913498e-27
65	0x93a68762	-4.203779e-27
66	0x153a4bfd	3.7622345e-26
67	0x00000000	0.0
68	0x00000000	0.0
69	0x14efc58c	2.4210751e-26
70	0x158df41b	5.733458e-26
71	0x1583856a	5.312097e-26
72	0x00000000	0.0
73	0x13a8723f	4.2521818e-27
74	0x00000000	0.0
75	0x00000000	0.0
76	0x00000000	0.0
77	0x00000000	0.0
78	0x00000000	0.0
79	0x00000000	0.0
80	0xbc51cb47	-0.012804813
81	0xbbab7427	-0.0052323523
82	0xbd68ff28	-0.05688396
83	0x3c118e23	0.008883986
84	0x3bc330a7	0.0059567275
85	0x00000000	0.0
86	0xbd872a2a	-0.06599839
87	0xbd913723	-0.070905946
88	0x3c3e0bda	0.011599505
89	0xbcad12e2	-0.021127168
90	0xbc372795	-0.011178871
91	0x00000000	0.0
92	0x18aa8a1a	4.4083417e-24
93	0xb9834560	-0.00025037955
94	0x3bc49b10	0.00599993
95	0xbbdd4d8d	-0.0067536295
96	0x00000000	0.0
97	0x00000000	0.0
98	0x00000000	0.0
99	0x00000000	0.0
100	0x00000000	0.0
101	0x00000000	0.0
102	0x00000000	0.0
103	0x00000000	0.0
104	0x00000000	0.0
105	0x00000000	0.0
106	0x00000000	0.0
107	0x00000000	0.0
108	0x00000000	0.0
109	0x00000000	0.0
110	0x00000000	0.0
111	0x00000000	0.0
112	0x3931509c	0.00016910065
113	0x1d1489eb	1.9658939e-21
114	0xb8a42bb0	-7.828267e-05
115	0x39c9abdb	0.0003846575
116	0x1d73ba1a	3.2256994e-21
117	0x00000000	0.0
118	0x3a918d40	0.0011104718
119	0x39e365da	0.000433727
120	0xad947a95	-1.688009e-11
121	0x207295c9	2.0547757e-19
122	0x99bb357d	-1.935695e-23
123	0x00000000	0.0
124	0x17c99d6c	1.3029059e-24
125	0x3a2abee1	0.00065134285
126	0x1a8770e8	5.60171e-23
127	0xba1aa89b	-0.0005899758
128	0x385a3d80	5.2032527e-05
129	0x190246d8	6.735149e-24
130	0xb7c204b2	-2.3128789e-05
131	0x39115f83	0.00013863858
132	0x18a891c6	4.3574176e-24
133	0x00000000	0.0
134	0x39c5f111	0.00037754377
135	0x391f196b	0.0001517289
136	0x16da0b8a	3.5227082e-25
137	0x00000000	0.0
138	0x00000000	0.0
139	0x00000000	0.0
140	0x13a45887	4.1486715e-27
141	0x3964d4da	0.00021823068
142	0x180223b5	1.6820134e-24
143	0xb94005e7	-0.00018312746
144	0x00000000	0.0
145	0x00000000	0.0
146	0x00000000	0.0
147	0x00000000	0.0
148	0x00000000	0.0
149	0x00000000	0.0
150	0x00000000	0.0
151	0x00000000	0.0
152	0x00000000	0.0
153	0x00000000	0.0
154	0x00000000	0.0
155	0x00000000	0.0
156	0x00000000	0.0
157	0x00000000	0.0
158	0x00000000	0.0
159	0x00000000	0.0
160	0x3a62f7fd	0.0008658169
161	0x1d3a3bfe	2.464791e-21
162	0xba1e9a58	-0.00060502207
163	0x3a9ca414	0.0011950755
164	0x1da242b4	4.2950012e-21
165	0x00000000	0.0
166	0x3b8f6ebc	0.0043772142
167	0x3abb27cb	0.0014278827
168	0xae22fb87	-3.7057937e-11
169	0x219a7b66	1.0468109e-18
170	0xb0e1643f	-1.6399396e-09
171	0x00000000	0.0
172	0x17e2aed2	1.4649039e-24
173	0x3b375b7e	0.0027978118
174	0x1aa99907	7.014399e-23
175	0xbb151193	-0.002274607
176	0x00000000	0.0
177	0x00000000	0.0
178	0x00000000	0.0
179	0x00000000	0.0
180	0x00000000	0.0
181	0x00000000	0.0
182	0x00000000	0.0
183	0x00000000	0.0
184	0x00000000	0.0
185	0x00000000	0.0
186	0x00000000	0.0
187	0x00000000	0.0
188	0x00000000	0.0
189	0x00000000	0.0
190	0x00000000	0.0
191	0x00000000	0.0
192	0xbb3284f5	-0.0027239893
193	0xbaa36b79	-0.0012467942
194	0xbca79035	-0.020454505
195	0x3bc223af	0.005924664
196	0x3b130140	0.0022431165
197	0x00000000	0.0
198	0xbc97dd3f	-0.018538116
199	0xbcc0ba61	-0.023526372
200	0x3b867b41	0.0041040485
201	0xbc02078d	-0.007936371
202	0xbb8e07be	-0.004334419
203	0x00000000	0.0
204	0x18372b29	2.3673986e-24
205	0x3b0d2a95	0.0021540273
206	0x39e276ae	0.00043194502
207	0xbb91d966	-0.0044509647
208	0xbc7598ea	-0.014990071
209	0xbbdbaefc	-0.0067042094
210	0xbd7ecdd3	-0.062208008
211	0x3c076f39	0.008266264
212	0x3bc76d82	0.0060860524
213	0x1b500dae	1.7209777e-22
214	0xbd961133	-0.07327499
215	0xbd9f4b32	-0.07778014
216	0x3c6ee51a	0.014580989
217	0xbcbc5492	-0.022989545
218	0xbc501827	-0.012701071
219	0x00000000	0.0
220	0x18914532	3.755149e-24
221	0xba48c4dd	-0.00076587294
222	0x3be6ba2d	0.007041237
223	0xbbe79811	-0.0070676883
224	0x00000000	0.0
225	0x00000000	0.0
226	0x00000000	0.0
227	0x00000000	0.0
228	0x00000000	0.0
229	0x00000000	0.0
230	0x00000000	0.0
231	0x00000000	0.0
232	0x00000000	0.0
233	0x00000000	0.0
234	0x00000000	0.0
235	0x00000000	0.0
236	0x00000000	0.0
237	0x00000000	0.0
238	0x00000000	0.0
239	0x00000000	0.0
240	0x00000000	0.0
241	0x00000000	0.0
242	0x00000000	0.0
243	0x00000000	0.0
244	0x00000000	0.0
245	0x00000000	0.0
246	0x00000000	0.0
247	0x00000000	0.0
248	0x00000000	0.0
249	0x00000000	0.0
250	0x00000000	0.0
251	0x00000000	0.0
252	0x00000000	0.0
253	0x00000000	0.0
254	0x00000000	0.0
255	0x00000000	0.0

exp_avg_sq f4 [16, 16]
0	0x38c987e9	9.609742e-05
1	0x3805744b	3.1817977e-05
2	0x3a424936	0.0007411422
3	0x00000000	0.0
4	0x37dc22da	2.6242273e-05
5	0x35519387	7.807325e-07
6	0x3abdda37	0.0014484589
7	0x3a8ea253	0.0010882117
8	0x3410bb6a	1.3479226e-07
9	0x389bad74	7.423284e-05
10	0x365878b4	3.2256767e-06
11	0x3236a2bf	1.06307985e-08
12	0x00000000	0.0
13	0x00000000	0.0
14	0x37a34081	1.9461151e-05
15	0x00000000	0.0
16	0x3cf24a94	0.029576577
17	0x3ad9e721	0.0016624668
18	0x3ea46ddc	0.32115066
19	0x39f77e31	0.0004720553
20	0x3e6a8a1a	0.22904244
21	0x34cd7ff7	3.8277332e-07
22	0x3f2fd531	0.6868468
23	0x3f213c2b	0.62982434
24	0x3ca444f0	0.020052403
25	0x3cf17a53	0.029477274
26	0x3b89695c	0.004193468
27	0x321b0ab9	9.0246255e-09
28	0x2e5a95f9	4.9700664e-11
29	0x3b6f7af1	0.0036541785
30	0x3ba2349d	0.0049501196
31	0x3a0668bc	0.0005127301
32	0x3bce9763	0.006304668
33	0x39953d5a	0.00028465205
34	0x3d49b4db	0.049244743
35	0x3a4a39df	0.0007714312
36	0x3cc23551	0.023707064
37	0x30ba2f35	1.3546698e-09
38	0x3e05076b	0.12991111
39	0x3dd40461	0.10352398
40	0x3b3c9470	0.0028775
41	0x3bb03a53	0.0053780465
42	0x3a568664	0.0008183478
43	0x00000000	0.0
44	0x2fdf7235	4.0644613e-10
45	0x3b537a04	0.0032268772
46	0x3a3aabab	0.00071209174
47	0x3aad2f5f	0.001321297
48	0x3a914627	0.0011083529
49	0x3837e181	4.3840617e-05
50	0x3b48c019	0.0030632077
51	0x3a651f27	0.0008740299
52	0x3a0301ab	0.0004997502
53	0x00000000	0.0
54	0x3cab9021	0.02094275
55	0x3c258649	0.010102817
56	0x380098ad	3.065977e-05
57	0x39f30f8f	0.00046360164
58	0x385de575	5.2904204e-05
59	0x00000000	0.0
60	0x309f215f	1.1578257e-09
61	0x3b36a978	0.0027872007
62	0x366d5908	3.5367575e-06
63	0x3ac0b04e	0.001470098
64	0x2bb7f2fd	1.3070375e-12
65	0x2da8d3cf	1.919345e-11
66	0x30848421	9.641817e-10
67	0x00000000	0.0
68	0x00000000	0.0
69	0x2ff7fe5b	4.510977e-10
70	0x31237de3	2.379118e-09
71	0x3105d2f7	1.9473967e-09
72	0x00000000	0.0
73	0x2da2f50e	1.8526094e-11
74	0x00000000	0.0
75	0x00000000	0.0
76	0x00000000	0.0
77	0x00000000	0.0
78	0x00000000	0.0
79	0x00000000	0.0
80	0x3c9c8564	0.019106574
81	0x3a5f6a07	0.0008522574
82	0x3e39a75b	0.18130247
83	0x3aea24b1	0.0017863718
84	0x3e07fadd	0.1327929
85	0x00000000	0.0
86	0x3ed5e256	0.41774243
87	0x3ebfb41e	0.37442106
88	0x3c723d63	0.014785144
89	0x3c88ae09	0.016684549
90	0x3b239d5b	0.0024965617
91	0x00000000	0.0
92	0x31806967	3.737273e-09
93	0x3bf2320b	0.0073912195
94	0x3bae10e8	0.005312074
95	0x3b38ba3b	0.0028187174
96	0x00000000	0.0
97	0x00000000	0.0
98	0x00000000	0.0
99	0x00000000	0.0
100	0x00000000	0.0
101	0x00000000	0.0
102	0x00000000	0.0
103	0x00000000	0.0
104	0x00000000	0.0
105	0x00000000	0.0
106	0x00000000	0.0
107	0x00000000	0.0
108	0x00000000	0.0
109	0x00000000	0.0
110	0x00000000	0.0
111	0x00000000	0.0
112	0x36d429f6	6.3229772e-06
113	0x35e09c0c	1.6734716e-06
114	0x36547948	3.1661057e-06
115	0x374475e3	1.1709958e-05
116	0x3673d50b	3.633383e-06
117	0x00000000	0.0
118	0x38c7d129	9.5280186e-05
119	0x3805a985	3.186755e-05
120	0x3538bca5	6.8819855e-07
121	0x35fd541a	1.8874446e-06
122	0x2da19fcc	1.8374545e-11
123	0x00000000	0.0
124	0x2f6b0b37	2.137711e-10
125	0x3801eaab	3.097455e-05
126	0x33b82d84	8.576447e-08
127	0x379e95e0	1.8904859e-05
128	0x340f33b7	1.3336727e-07
129	0x303280d5	6.4939104e-10
130	0x33d62f93	9.973805e-08
131	0x34470f59	1.8538903e-07
132	0x30247527	5.9829336e-10
133	0x00000000	0.0
134	0x36188013	2.2724314e-06
135	0x353b117e	6.9688383e-07
136	0x2dc2a41f	2.2128131e-11
137	0x00000000	0.0
138	0x00000000	0.0
139	0x00000000	0.0
140	0x2cc838ef	5.690663e-12
141	0x34f3b78f	4.5395834e-07
142	0x302f6864	6.3812977e-10
143	0x34a15bb1	3.00553e-07
144	0x00000000	0.0
145	0x00000000	0.0
146	0x00000000	0.0
147	0x00000000	0.0
148	0x00000000	0.0
149	0x00000000	0.0
150	0x00000000	0.0
151	0x00000000	0.0
152	0x00000000	0.0
153	0x00000000	0.0
154	0x00000000	0.0
155	0x00000000	0.0
156	0x00000000	0.0
157	0x00000000	0.0
158	0x00000000	0.0
159	0x00000000	0.0
160	0x38b02100	8.398481e-05
161	0x3618304b	2.2677875e-06
162	0x381682b8	3.588453e-05
163	0x39038337	0.00012542015
164	0x36a8bd01	5.028793e-06
165	0x00000000	0.0
166	0x3aba3eb8	0.0014209365
167	0x39d583a9	0.0004072462
168	0x35cd3e62	1.5291846e-06
169	0x378f6951	1.709597e-05
170	0x31fa4314	7.2835835e-09
171	0x00000000	0.0
172	0x2d2c6bef	9.801034e-12
173	0x39aff21a	0.0003355898
174	0x337744df	5.7571807e-08
175	0x395f149a	0.00021274612
176	0x00000000	0.0
177	0x00000000	0.0
178	0x00000000	0.0
179	0x00000000	0.0
180	0x00000000	0.0
181	0x00000000	0.0
182	0x00000000	0.0
183	0x00000000	0.0
184	0x00000000	0.0
185	0x00000000	0.0
186	0x00000000	0.0
187	0x00000000	0.0
188	0x00000000	0.0
189	0x00000000	0.0
190	0x00000000	0.0
191	0x00000000	0.0
192	0x3b61520e	0.0034381184
193	0x39002ff1	0.00012224891
194	0x3cc01299	0.023446368
195	0x3a3e9609	0.0007270282
196	0x3bfee06a	0.007778217
197	0x00000000	0.0
198	0x3d944b47	0.072409205
199	0x3d535254	0.051592186
200	0x3a23f9c9	0.00062551774
201	0x3b3890bd	0.0028162443
202	0x39e2e100	0.00043273717
203	0x00000000	0.0
204	0x300132be	4.7002036e-10
205	0x3b31d936	0.0027137524
206	0x376260b3	1.3493164e-05
207	0x3a9b2356	0.0011836092
208	0x3cb4cef9	0.022071349
209	0x3a85df53	0.001021365
210	0x3e5403be	0.20704553
211	0x3aea72ce	0.0017886998
212	0x3e182d1b	0.14860956
213	0x2dab0dd4	1.944659e-11
214	0x3ef60db0	0.48057318
215	0x3ed975da	0.42472726
216	0x3c73982a	0.014867822
217	0x3c9e8e7f	0.019355057
218	0x3b35a08d	0.0027714104
219	0x00000000	0.0
220	0x3115c60c	2.179493e-09
221	0x3bfa6c19	0.007642281
222	0x3b98cd3e	0.0046631387
223	0x3b3e2aa6	0.002901712
224	0x00000000	0.0
225	0x00000000	0.0
226	0x00000000	0.0
227	0x00000000	0.0
228	0x00000000	0.0
229	0x00000000	0.0
230	0x00000000	0.0
231	0x00000000	0.0
232	0x00000000	0.0
233	0x00000000	0.0
234	0x00000000	0.0
235	0x00000000	0.0
236	0x00000000	0.0
237	0x00000000	0.0
238	0x00000000	0.0
239	0x00000000	0.0
240	0x00000000	0.0
241	0x00000000	0.0
242	0x00000000	0.0
243	0x00000000	0.0
244	0x00000000	0.0
245	0x00000000	0.0
246	0x00000000	0.0
247	0x00000000	0.0
248	0x00000000	0.0
249	0x00000000	0.0
250	0x00000000	0.0
251	0x00000000	0.0
252	0x00000000	0.0
253	0x00000000	0.0
254	0x00000000	0.0
255	0x00000000	0.0

exp_avg f4 [16, 16]
0	0xb9b05e6b	-0.00033639683
1	0x3994c3aa	0.0002837454
2	0xb95d8eeb	-0.00021129443
3	0x391b555d	0.00014813752
4	0x3a20e010	0.00061369035
5	0x1ca8422b	1.1134411e-21
6	0xbaa1829c	-0.001232225
7	0xbaa4795a	-0.0012548373
8	0x3978cb68	0.00023726898
9	0xba240ddf	-0.00062581705
10	0xb917259a	-0.0001441449
11	0x1a80e4e1	5.330933e-23
12	0x95707f50	-4.8568046e-26
13	0xb89c9807	-7.466977e-05
14	0x391e5f19	0.00015103481
15	0xb7f6be36	-2.941406e-05
16	0x3a1d28cd	0.00059951545
17	0xb9d55c47	-0.00040695278
18	0xbb810a64	-0.0039380062
19	0x3b23604b	0.0024929221
20	0x38df36c4	0.000106436695
21	0x9dda6812	-5.7811726e-21
22	0x396bd1e4	0.00022489537
23	0x3ae9ace0	0.001782801
24	0x3a854994	0.0010169023
25	0xbac8e086	-0.0015325702
26	0xba051725	-0.0005076996
27	0x9c8c86e6	-9.299293e-22
28	0x179ad0cf	1.0004727e-24
29	0x3b1bdbc1	0.0023782107
30	0x3aa728cb	0.0012753246
31	0xbb098dc0	-0.002098903
32	0x3b2eb84c	0.0026660142
33	0xbaa10156	-0.0012283723
34	0xba0d76f5	-0.0005396449
35	0x3b715049	0.0036821535
36	0xbac58c62	-0.0015071745
37	0x9d50f30b	-2.7654221e-21
38	0x3c2044f6	0.009782067
39	0x3bfa1dd8	0.007632952
40	0x3974d4b1	0.00023348887
41	0x3992262d	0.00027875733
42	0xb9d4ffc8	-0.00040626363
43	0x9cf1699f	-1.5975345e-21
44	0x17c0a407	1.2449116e-24
45	0x3b9a5007	0.004709247
46	0x397ec046	0.00024294955
47	0xbb7d3e26	-0.003864178
48	0x3b465f9f	0.0030269397
49	0xba9b62d2	-0.0011855012
50	0x3a6d2652	0.00090465427
51	0x3b82bffe	0.0039901724
52	0xbabf95f4	-0.0014616833
53	0x9c5505b2	-7.048315e-22
54	0x3c44f143	0.012020412
55	0x3c09e92b	0.008417408
56	0x3897346f	7.2100076e-05
57	0x39f89cd2	0.00047419086
58	0xb9e984fa	-0.00044540298
59	0x9d0d3d15	-1.8692773e-21
60	0x17d065b9	1.3467363e-24
61	0x3bac09e5	0.005250203
62	0xb891bd90	-6.9494476e-05
63	0xbb8d7a95	-0.0043175914
64	0x0de9b411	1.4403083e-30
65	0x91883b00	-2.1493378e-28
66	0x12247f66	5.1906306e-28
67	0x100d4127	2.7857538e-29
68	0x12a93df7	1.0680675e-27
69	0x12a42290	1.0358375e-27
70	0x129e25ed	9.980551e-28
71	0x12891343	8.650664e-28
72	0x114a0a8d	1.5938241e-28
73	0x11120a90	1.1520624e-28
74	0x110955f0	1.0833876e-28
75	0x0fee376a	2.3489957e-29
76	0x90568934	-4.2309756e-29
77	0x00000000	0.0
78	0x9127278f	-1.3186167e-28
79	0x90ac9cab	-6.8083423e-29
80	0x3b5bb43d	0.0033524178
81	0xbad208b2	-0.001602432
82	0xbad9a9ff	-0.0016606449
83	0x3ba705d2	0.0050971294
84	0xbaed9ab9	-0.0018127776
85	0x9dc8cc02	-5.31505e-21
86	0x3c41d083	0.011829498
87	0x3c1c5490	0.009541646
88	0x3a0ee7a4	0.0005451387
89	0xb8904b87	-6.880523e-05
90	0xba292bd6	-0.00064533704
91	0x9d3dd066	-2.5121681e-21
92	0x1849ca21	2.608069e-24
93	0x3bcd88fb	0.006272433
94	0x3a147dd3	0.0005664501
95	0xbbaab06a	-0.0052090185
96	0x00000000	0.0
97	0x00000000	0.0
98	0x00000000	0.0
99	0x00000000	0.0
100	0x00000000	0.0
101	0x00000000	0.0
102	0x00000000	0.0
103	0x00000000	0.0
104	0x00000000	0.0
105	0x00000000	0.0
106	0x00000000	0.0
107	0x00000000	0.0
108	0x00000000	0.0
109	0x00000000	0.0
110	0x00000000	0.0
111	0x00000000	0.0
112	0x39857bcd	0.00025459976
113	0xb72ae4db	-1.0186074e-05
114	0x399d9e54	0.00030063337
115	0x399162e6	0.0002773024
116	0x20340586	1.524842e-19
117	0x9af33a10	-1.0059625e-22
118	0x3a8dbefe	0.0010814366
119	0x3a5d2fc5	0.0008437599
120	0xb7d05087	-2.483303e-05
121	0x38416cfe	4.6116293e-05
122	0x37a98b18	2.021114e-05
123	0x9bea3249	-3.8744549e-22
124	0x171dc45d	5.097728e-25
125	0x39d659be	0.00040884124
126	0x38c00b98	9.157433e-05
127	0xb9a1b0ce	-0.00030840043
128	0x38ad2861	8.256804e-05
129	0xb6454dbd	-2.9400537e-06
130	0x390072d3	0.00012249807
131	0x38af130a	8.3481966e-05
132	0x9ec44a30	-2.078299e-20
133	0x966ddbee	-1.9214105e-25
134	0x39bab4cf	0.00035611397
135	0x399c4d95	0.00029812442
136	0xb700d09b	-7.677964e-06
137	0x37c46e05	2.3416253e-05
138	0x37338834	1.0700944e-05
139	0x983909f0	-2.3915707e-24
140	0x13b4287c	4.547831e-27
141	0x38f8e1e4	0.00011867637
142	0x38072ab3	3.2226275e-05
143	0xb8a92d89	-8.0670296e-05
144	0x00000000	0.0
145	0x00000000	0.0
146	0x00000000	0.0
147	0x00000000	0.0
148	0x00000000	0.0
149	0x00000000	0.0
150	0x00000000	0.0
151	0x00000000	0.0
152	0x00000000	0.0
153	0x00000000	0.0
154	0x00000000	0.0
155	0x00000000	0.0
156	0x00000000	0.0
157	0x00000000	0.0
158	0x00000000	0.0
159	0x00000000	0.0
160	0x3a93d42c	0.0011278442
161	0xb8aad90e	-8.146661e-05
162	0x3a76967e	0.00094065804
163	0x3ab5a9d3	0.0013859816
164	0x23edf8cf	2.5800966e-17
165	0x9bbbadcc	-3.1048869e-22
166	0x3b9940ca	0.004676913
167	0x3b68a623	0.0035499416
168	0xb8bee767	-9.103008e-05
169	0x382f6d89	4.1825264e-05
170	0x37b1b80c	2.1185748e-05
171	0x9c7d6f08	-8.385418e-22
172	0x1709faae	4.458349e-25
173	0x3b04ba93	0.0020252808
174	0x3a02a5ea	0.00049838296
175	0xbad4b820	-0.001622919
176	0x00000000	0.0
177	0x00000000	0.0
178	0x00000000	0.0
179	0x00000000	0.0
180	0x00000000	0.0
181	0x00000000	0.0
182	0x00000000	0.0
183	0x00000000	0.0
184	0x00000000	0.0
185	0x00000000	0.0
186	0x00000000	0.0
187	0x00000000	0.0
188	0x00000000	0.0
189	0x00000000	0.0
190	0x00000000	0.0
191	0x00000000	0.0
192	0x3b1cafe9	0.0023908562
193	0xba97a0c2	-0.0011568295
194	0xb9effa31	-0.0004577204
195	0x3b5d904b	0.003380793
196	0xbabb0e7b	-0.0014271283
197	0x9d1514d8	-1.9730762e-21
198	0x3c11670e	0.008874668
199	0x3bd8f0e1	0.006620512
200	0x395c6434	0.00021018164
201	0x397bc8cf	0.00024012032
202	0xb9e019d1	-0.00042743844
203	0x9cf29d3d	-1.6054862e-21
204	0x179d695b	1.0172483e-24
205	0x3b8b2eae	0.004247508
206	0x38643120	5.4405187e-05
207	0xbb67b5fe	-0.0035356279
208	0x3b620b8c	0.0034491746
209	0xbad40a19	-0.0016177326
210	0xbad6ae8e	-0.0016378926
211	0x3ba94c69	0.0051665795
212	0xbaf111b9	-0.0018392123
213	0x9dd9ac8b	-5.7617827e-21
214	0x3c473697	0.012159011
215	0x3c22d4d1	0.009938435
216	0x3a0cc932	0.00053705566
217	0xb7f8031e	-2.9565355e-05
218	0xba2358a6	-0.0006231166
219	0x9d3d1458	-2.502446e-21
220	0x1849e6d9	2.609519e-24
221	0x3bd20988	0.0064098276
222	0x3a25b470	0.0006321138
223	0xbbad7542	-0.0052935192
224	0x00000000	0.0
225	0x00000000	0.0
226	0x00000000	0.0
227	0x00000000	0.0
228	0x00000000	0.0
229	0x00000000	0.0
230	0x00000000	0.0
231	0x00000000	0.0
232	0x00000000	0.0
233	0x00000000	0.0
234	0x00000000	0.0
235	0x00000000	0.0
236	0x00000000	0.0
237	0x00000000	0.0
238	0x00000000	0.0
239	0x00000000	0.0
240	0x00000000	0.0
241	0x00000000	0.0
242	0x00000000	0.0
243	0x00000000	0.0
244	0x00000000	0.0
245	0x00000000	0.0
246	0x00000000	0.0
247	0x00000000	0.0
248	0x00000000	0.0
249	0x00000000	0.0
250	0x00000000	0.0
251	0x00000000	0.0
252	0x00000000	0.0
253	0x00000000	0.0
254	0x00000000	0.0
255	0x00000000	0.0

exp_avg_sq f4 [16, 16]
0	0x35be05c1	1.4157778e-06
1	0x36765613	3.6706958e-06
2	0x3488de7a	2.5493847e-07
3	0x3510a7e0	5.388847e-07
4	0x3600d1e1	1.9195652e-06
5	0x31139b55	2.1479611e-09
6	0x37c4e8bc	2.3473396e-05
7	0x36908b36	4.3077407e-06
8	0x33d76985	1.00309116e-07
9	0x36c680b8	5.9158447e-06
10	0x3440c308	1.7952345e-07
11	0x2cb96cb4	5.2700847e-12
12	0x2c170801	2.1462834e-12
13	0x3606069c	1.9971403e-06
14	0x33490e42	4.6811927e-08
15	0x34063809	1.2500108e-07
16	0x399590df	0.00028527432
17	0x37704b3c	1.4322632e-05
18	0x3ab6156d	0.0013891883
19	0x3926d70f	0.00015911109
20	0x3a86167d	0.0010230091
21	0x338c6678	6.537897e-08
22	0x3bbcca67	0.005761433
23	0x3b6ed900	0.003644526
24	0x38b804fa	8.774731e-05
25	0x391cd8ae	0.00014958039
26	0x378f536c	1.7085775e-05
27	0x30414c56	7.032147e-10
28	0x2f1d82a6	1.4325482e-10
29	0x3a030f1b	0.00049995043
30	0x381d2bb5	3.7472422e-05
31	0x39878670	0.0002584937
32	0x39c44df8	0.00037442124
33	0x3809944a	3.280145e-05
34	0x39d56612	0.00040702574
35	0x39cb4d8d	0.00038776957
36	0x397000cd	0.00022888482
37	0x334f80c6	4.8313062e-08
38	0x3bd749e8	0.0065700896
39	0x3b16ea1c	0.0023027724
40	0x37bc2b75	2.2431583e-05
41	0x390209de	0.00012401442
42	0x3672a033	3.6154058e-06
43	0x3183571c	3.822505e-09
44	0x2f51e9a4	1.9091445e-10
45	0x3a9c5527	0.0011927233
46	0x36c64cf6	5.9098193e-06
47	0x3a343733	0.00068746804
48	0x39b1d4cc	0.00033918617
49	0x3794e448	1.7749277e-05
50	0x392eefc9	0.0001668326
51	0x39dece94	0.00042497052
52	0x389c0022	7.4386844e-05
53	0x31bfdf67	5.5842295e-09
54	0x3bbd975c	0.0057858657
55	0x3ae238e2	0.0017259384
56	0x376598d4	1.3685047e-05
57	0x38d0bd77	9.9535035e-05
58	0x34f32268	4.528731e-07
59	0x315b7039	3.1932486e-09
60	0x2e37b781	4.1772367e-11
61	0x3aa3f814	0.0012509846
62	0x3538871d	6.874196e-07
63	0x3a42f5b8	0.00074371276
64	0x275e5fec	3.0860688e-15
65	0x291e5ef6	3.5165413e-14
66	0x2a57882d	1.9143081e-13
67	0x25844f5c	2.2952126e-16
68	0x2b9ebd95	1.1279195e-12
69	0x2b68795b	8.259137e-13
70	0x2b4a0165	7.176675e-13
71	0x2b1363b6	5.236327e-13
72	0x2939150c	4.1096507e-14
73	0x28871cb9	1.5000467e-14
74	0x28475095	1.10641925e-14
75	0x27de4685	6.1693835e-15
76	0x2631ba55	6.166174e-16
77	0x00000000	0.0
78	0x2866663d	1.2789734e-14
79	0x26d3ef1f	1.470588e-15
80	0x3a575941	0.0008214899
81	0x38bab539	8.9029265e-05
82	0x3aa4b1a7	0.0012565152
83	0x3a578a5e	0.00082222174
84	0x3a8f9447	0.0010954224
85	0x3449e22b	1.8801863e-07
86	0x3c6b0ee1	0.014346809
87	0x3bbd1f2b	0.005771538
88	0x38e3fdd3	0.00010871482
89	0x399b32f9	0.0002960188
90	0x373bb721	1.1188707e-05
91	0x322a6740	9.918779e-09
92	0x30374923	6.6678946e-10
93	0x3b246eb7	0.0025090405
94	0x3826e1ba	3.978771e-05
95	0x3abdafe0	0.001447197
96	0x00000000	0.0
97	0x00000000	0.0
98	0x00000000	0.0
99	0x00000000	0.0
100	0x00000000	0.0
101	0x00000000	0.0
102	0x00000000	0.0
103	0x00000000	0.0
104	0x00000000	0.0
105	0x00000000	0.0
106	0x00000000	0.0
107	0x00000000	0.0
108	0x00000000	0.0
109	0x00000000	0.0
110	0x00000000	0.0
111	0x00000000	0.0
112	0x36581b0f	3.2202258e-06
113	0x358d8f8e	1.0547099e-06
114	0x35777e35	9.2198326e-07
115	0x36c5df1a	5.89703e-06
116	0x368150ec	3.85392e-06
117	0x31712e2c	3.5096361e-09
118	0x3848470e	4.774989e-05
119	0x3785ef1d	1.5966181e-05
120	0x352d667b	6.459665e-07
121	0x35e4a9ab	1.7036704e-06
122	0x3035406f	6.593898e-10
123	0x3033302d	6.518828e-10
124	0x2e0ef54c	3.250493e-11
125	0x37846dd7	1.5786774e-05
126	0x32e9e526	2.7228975e-08
127	0x3724dc70	9.826486e-06
128	0x33882c58	6.3410596e-08
129	0x2fc0d700	3.5077363e-10
130	0x32c67655	2.3104045e-08
131	0x33b1d1a7	8.28034e-08
132	0x301084ab	5.257543e-10
133	0x2e807a28	5.8424654e-11
134	0x35927740	1.0912554e-06
135	0x34a2f567	3.0353405e-07
136	0x2f5bdf58	1.9997282e-10
137	0x2fb139f6	3.2237296e-10
138	0x2e13a68e	3.357186e-11
139	0x2d172878	8.592342e-12
140	0x2b4e4f3d	7.3295867e-13
141	0x34760bc3	2.2914814e-07
142	0x2fc0ad35	3.5047668e-10
143	0x341c88f6	1.4578458e-07
144	0x00000000	0.0
145	0x00000000	0.0
146	0x00000000	0.0
147	0x00000000	0.0
148	0x00000000	0.0
149	0x00000000	0.0
150	0x00000000	0.0
151	0x00000000	0.0
152	0x00000000	0.0
153	0x00000000	0.0
154	0x00000000	0.0
155	0x00000000	0.0
156	0x00000000	0.0
157	0x00000000	0.0
158	0x00000000	0.0
159	0x00000000	0.0
160	0x3831a524	4.2353888e-05
161	0x35e005e7	1.6691018e-06
162	0x3764d2bc	1.3638924e-05
163	0x3881f11a	6.196108e-05
164	0x36d11998	6.231665e-06
165	0x2f2c7cf3	1.56877e-10
166	0x3a3b6fd7	0.00071501493
167	0x395111a8	0.0001993837
168	0x3612d92c	2.1882106e-06
169	0x374d4a52	1.2236256e-05
170	0x30999118	1.1173453e-09
171	0x30152de9	5.4271126e-10
172	0x2b6e7421	8.4715747e-13
173	0x3933ccd3	0.00017147073
174	0x33b8ec01	8.6110965e-08
175	0x38e10e26	0.000107314714
176	0x00000000	0.0
177	0x00000000	0.0
178	0x00000000	0.0
179	0x00000000	0.0
180	0x00000000	0.0
181	0x00000000	0.0
182	0x00000000	0.0
183	0x00000000	0.0
184	0x00000000	0.0
185	0x00000000	0.0
186	0x00000000	0.0
187	0x00000000	0.0
188	0x00000000	0.0
189	0x00000000	0.0
190	0x00000000	0.0
191	0x00000000	0.0
192	0x39a60804	0.0003166796
193	0x37dcb406	2.6309874e-05
194	0x39977171	0.00028885485
195	0x39b3407b	0.00034189582
196	0x39162fef	0.00014322971
197	0x3166d424	3.3589993e-09
198	0x3bb50488	0.005524222
199	0x3af05834	0.0018336833
200	0x37568a4d	1.2787595e-05
201	0x38f42050	0.00011640845
202	0x361e45c2	2.358444e-06
203	0x310e4866	2.0704873e-09
204	0x2d2f7756	9.974096e-12
205	0x3a891996	0.0010459896
206	0x35bcff43	1.4081382e-06
207	0x3a1e892e	0.0006047663
208	0x3a608a8d	0.00085655676
209	0x38c1e422	9.24545e-05
210	0x3aaeca50	0.001333544
211	0x3a5f4d8d	0.0008518331
212	0x3a98d044	0.0011658748
213	0x34404afb	1.7908671e-07
214	0x3c75478e	0.014970673
215	0x3bc6c521	0.00606598
216	0x38e0d110	0.00010720093
217	0x399e14bf	0.00030151565
218	0x37456bf6	1.1767252e-05
219	0x32228ab1	9.461176e-09
220	0x302672a5	6.055337e-10
221	0x3b2a453d	0.002598121
222	0x3816b7b8	3.593389e-05
223	0x3ac4bc32	0.00150097
224	0x00000000	0.0
225	0x00000000	0.0
226	0x00000000	0.0
227	0x00000000	0.0
228	0x00000000	0.0
229	0x00000000	0.0
230	0x00000000	0.0
231	0x00000000	0.0
232	0x00000000	0.0
233	0x00000000	0.0
234	0x00000000	0.0
235	0x00000000	0.0
236	0x00000000	0.0
237	0x00000000	0.0
238	0x00000000	0.0
239	0x00000000	0.0
240	0x00000000	0.0
241	0x00000000	0.0
242	0x00000000	0.0
243	0x00000000	0.0
244	0x00000000	0.0
245	0x00000000	0.0
246	0x00000000	0.0
247	0x00000000	0.0
248	0x00000000	0.0
249	0x00000000	0.0
250	0x00000000	0.0
251	0x00000000	0.0
252	0x00000000	0.0
253	0x00000000	0.0
254	0x00000000	0.0
255	0x00000000	0.0
