results/Test_citation/version_14/checkpoints/epoch=5-step=6.ckpt (torch, 28113 bytes, 27 tensors)

simplicial_nn.0.W0 f4 [1, 16]
0	0x3f06709f	0.52515596
1	0xbefc67b6	-0.49297875
2	0xbea5d9ce	-0.32392734
3	0x3e840f0c	0.2579273
4	0x3f4355ef	0.76303
5	0x3e825c0f	0.2546086
6	0x3f4d1db8	0.8012347
7	0x3e5408b3	0.20706443
8	0xbebe7cfd	-0.37204733
9	0x3f51f6c7	0.8201718
10	0xbed250b3	-0.41077194
11	0x3f392681	0.7232438
12	0x3ef9c0af	0.48779818
13	0x3e94ca4e	0.29060596
14	0x3ef34933	0.47516784
15	0x3ee3de1d	0.44505396

simplicial_nn.0.W1 f4 [2, 1, 16]
0	0x3ee5eb88	0.4490626
1	0xbde88f58	-0.11355466
2	0x3ed7ac1c	0.42123497
3	0x3ecde72d	0.40215436
4	0x3e8ce30f	0.27516982
5	0x3e8a8c3d	0.27060118
6	0x3e87f493	0.26553783
7	0xbe6baa54	-0.23014194
8	0x3e68fd48	0.22752869
9	0xbb256a0d	-0.0025240213
10	0x3edac23a	0.42726308
11	0xbeeadbf0	-0.45870924
12	0xbe20a80f	-0.1568911
13	0x3e0959e5	0.13413198
14	0xbee9b403	-0.4564515
15	0xbede7e90	-0.43455935
16	0xbc8d756a	-0.017267901
17	0xbeec21d6	-0.46119565
18	0xbeadc070	-0.3393588
19	0x3df75e3b	0.1207852
20	0xbd88e1f5	-0.06683723
21	0xbef8987d	-0.4855384
22	0xbe8a2430	-0.26980734
23	0xbd801141	-0.06253291
24	0xbeb80d3b	-0.35947594
25	0xbd1a6333	-0.03769226
26	0xb93f21a8	-0.00018227717
27	0x3ee62da0	0.44956684
28	0xbec4d8a7	-0.38446543
29	0x3e30a509	0.17250456
30	0x3ef50233	0.4785324
31	0xbd7cc283	-0.06170894

simplicial_nn.0.W2 f4 [2, 1, 16]
0	0x3d85639c	0.065131396
1	0xbedb7fa6	-0.42870826
2	0xbe4f009c	-0.20215076
3	0xbd06d728	-0.032920033
4	0x3eb81769	0.3595536
5	0x3ecd198a	0.40058547
6	0xbea0cf7f	-0.31408307
7	0x3e015f04	0.12633902
8	0x3e92ccbf	0.28671834
9	0x3d890206	0.06689839
10	0x3e9646f3	0.29351005
11	0x3e200cf5	0.15629943
12	0xbe67d739	-0.22640695
13	0x3ed5eed2	0.41783768
14	0x3e4fef08	0.20306027
15	0x3ec05419	0.3756416
16	0xbe912a54	-0.28352606
17	0x3d7f0d80	0.062268734
18	0x3e011b28	0.12608016
19	0x3ef36f09	0.4754565
20	0xbda890f2	-0.08230771
21	0xbe68b649	-0.22725786
22	0x3efc9968	0.4933579
23	0x3ee7ad9d	0.45249644
24	0xbe4be317	-0.19910847
25	0x3ebbfc53	0.36715946
26	0xbe576e84	-0.21038252
27	0xbee76cb0	-0.4520011
28	0xbd6440b3	-0.055725764
29	0x3eb02a78	0.344074
30	0x3e678d20	0.22612429
31	0xbec0f8a9	-0.37689713

simplicial_nn.2.W0 f4 [16, 16]
0	0xbe3ef32c	-0.1864745
1	0x3e17be6a	0.14818731
2	0xbe3c88c4	-0.18411547
3	0xbf02bdf2	-0.51071084
4	0x3db5d795	0.0887901
5	0xbe80369e	-0.2504167
6	0xbed77be6	-0.42086715
7	0x3e983f93	0.29736003
8	0xbe9d9dce	-0.30784458
9	0xbf0e080f	-0.55481046
10	0x3da8f312	0.08249487
11	0x3eea8c34	0.45810091
12	0x3d3a37e3	0.045463454
13	0x3e62e51a	0.22157708
14	0x3e63fa17	0.2226337
15	0xbebf0a56	-0.37312573
16	0x3d865d38	0.06560749
17	0x3ec09980	0.3761711
18	0xbd8ccb18	-0.068746746
19	0x3d0c6fe0	0.03428638
20	0x3e5e8f10	0.21734262
21	0xbe7e9a84	-0.2486363
22	0x3f13273d	0.5748175
23	0x3df05738	0.11735386
24	0x3d5f3ce0	0.054501414
25	0x3eee18ba	0.4650324
26	0x3ee8ff62	0.45507342
27	0xbef5fb94	-0.480435
28	0xbdd8c4f8	-0.10584444
29	0x3e8b4544	0.27201283
30	0xbea1ef08	-0.3162768
31	0xbef23d6e	-0.47312492
32	0xbe927789	-0.28606823
33	0x3da4c210	0.08044827
34	0x3ee904a2	0.45511347
35	0x3ea333c0	0.3187542
36	0x3f13ce41	0.57736593
37	0xbd378c00	-0.04481125
38	0xbef0d226	-0.4703533
39	0x3ea99d9c	0.3312806
40	0xbebde45b	-0.37088284
41	0xbecf3523	-0.40470228
42	0x3d08c250	0.033388436
43	0xbebc54ed	-0.36783543
44	0xbf103cfc	-0.56343055
45	0x3e844aba	0.25838262
46	0xbeb65527	-0.3561184
47	0xbe3902ee	-0.18067524
48	0x3ebddc74	0.37082255
49	0xbea07c68	-0.31344914
50	0xbf103a1f	-0.56338686
51	0xbe895f26	-0.26830405
52	0xbedc90ae	-0.43079132
53	0x3f04db18	0.5189681
54	0xbe505524	-0.20344979
55	0x3e347f05	0.17626579
56	0xbea9d34c	-0.3316902
57	0x3efdd15d	0.49573794
58	0xbddf9553	-0.10917153
59	0xbe662de7	-0.22478448
60	0xbebe69fd	-0.37190238
61	0xbcfb0c66	-0.03064556
62	0x3f0ab6df	0.5418529
63	0x3e3f2248	0.18665421
64	0xbe3d0df8	-0.1846236
65	0x3eba811f	0.36426637
66	0x3ef54302	0.47902685
67	0xbe969afb	-0.29415116
68	0xbec4f14b	-0.38465342
69	0x3ee4e95b	0.44709286
70	0xbef48f29	-0.47765473
71	0x3e3e6347	0.18592559
72	0x3f09314f	0.53590864
73	0x3e838b8b	0.256924
74	0x3e4fc579	0.20290174
75	0xbef4f7f3	-0.4784542
76	0x3e093eb4	0.13402826
77	0xbf0cce23	-0.5500204
78	0xbefad1d3	-0.48988208
79	0xbe8059b2	-0.25068432
80	0x3eecf1b5	0.46278158
81	0x3ee3ce01	0.44493106
82	0x3f1128b1	0.56702715
83	0xbeb6a263	-0.35670766
84	0xbe886636	-0.2664048
85	0xbe1e9359	-0.15485896
86	0x3da4e09f	0.080506556
87	0x3e0b93af	0.13630556
88	0xbd474650	-0.04865104
89	0xbe5d74fc	-0.21626657
90	0xbe8e590b	-0.2780231
91	0xbe9ca25a	-0.30592614
92	0x3f03adb4	0.51436925
93	0xbd19250f	-0.037388857
94	0xbe8d8dc7	-0.2764723
95	0x3ee00476	0.43753403
96	0xbeb132da	-0.3460911
97	0xbeb6c2dc	-0.3569554
98	0xbea263e6	-0.3171684
99	0x3e85fe66	0.26170653
100	0x3cf5e18f	0.030014781
101	0xbdb085f2	-0.08619298
102	0x3f159d7d	0.58443433
103	0xbe9981d2	-0.29981858
104	0xbed56df5	-0.41685453
105	0xbf109afd	-0.56486493
106	0xbeb6cb2d	-0.35701886
107	0xbf1a7850	-0.6033983
108	0x3ec24af8	0.37947822
109	0xbe0c3319	-0.13691367
110	0x3ecf84b4	0.40530932
111	0x3dcf359c	0.10117647
112	0x3e6c5b34	0.23081666
113	0xbe0ccf48	-0.13750947
114	0xbd57fc30	-0.05273074
115	0xbe63561d	-0.22200818
116	0x3e93e31f	0.28884217
117	0x3d4de4e6	0.050267123
118	0x3e79c9c9	0.24393381
119	0x3e8660f5	0.26245847
120	0xbe1005cc	-0.14064711
121	0xbeda085a	-0.42584497
122	0xbe803ad0	-0.2504487
123	0xbe85ef3a	-0.26159078
124	0xbe9ed888	-0.31024575
125	0x3f02f03f	0.51147836
126	0x3ecd290b	0.40070376
127	0x3e7237bb	0.23654072
128	0xbd9ae240	-0.07562685
129	0xbdb67e95	-0.08910862
130	0xbe68dbc2	-0.22740081
131	0x3ef96944	0.48713124
132	0xbe9c822f	-0.30568072
133	0xbe24c38d	-0.16090222
134	0x3ece7a57	0.40327713
135	0xbe12d07a	-0.1433734
136	0x3db2cb18	0.08730143
137	0x3d703893	0.058647703
138	0xbf0cecad	-0.5504864
139	0xbeaeba8b	-0.34126696
140	0x3ed3e4b2	0.41385418
141	0x3d8360fe	0.06414984
142	0x3e6fa240	0.23401737
143	0xbeb106dd	-0.3457555
144	0x3f158366	0.58403623
145	0x3ed75658	0.42058063
146	0xbd89c3a0	-0.06726766
147	0xbe0cee73	-0.13762836
148	0x3dfe6d77	0.124232225
149	0x3f12ae3b	0.57297105
150	0xbd554678	-0.052069157
151	0x3efde303	0.4958726
152	0xbe828e5f	-0.25499246
153	0xbeb983da	-0.36233407
154	0x3ec054b4	0.37564623
155	0x3eb9992a	0.36249667
156	0xbef49101	-0.4776688
157	0xbead624f	-0.33864066
158	0x3e8b8c8e	0.27255672
159	0x3d90648e	0.07050429
160	0xbe8737a7	-0.26409647
161	0xbeb6bcb0	-0.35690832
162	0xbecfe140	-0.4060154
163	0x3ea89ce8	0.3293221
164	0x3ea3ad91	0.31968358
165	0xbef8d0b5	-0.4859673
166	0xbec25fe0	-0.37963772
167	0x3f186397	0.5952696
168	0xbe0dcc36	-0.13847432
169	0x3eedaa56	0.46419019
170	0x3f0fe1b4	0.5620377
171	0x3ed9b4a7	0.4252064
172	0x3eb1bb47	0.34713194
173	0x3f0af985	0.54286987
174	0xbe4477e5	-0.19186361
175	0xbe6c87eb	-0.23098724
176	0xbec64c91	-0.3873029
177	0xbe844564	-0.2583419
178	0xbe7b89e4	-0.2456432
179	0x3f085a1c	0.53262496
180	0xbec44483	-0.3833352
181	0xbe390c83	-0.18071179
182	0x3ed093f6	0.40737885
183	0xbf0e296a	-0.5553194
184	0x3ea64180	0.32471848
185	0x3d9b2128	0.075746834
186	0x3e251941	0.16122915
187	0x3d9a1ee5	0.07525424
188	0x3e27c711	0.16384532
189	0x3ce49341	0.027902247
190	0xbe855ed8	-0.26048923
191	0x3ef87c50	0.48532343
192	0x3e5e3e94	0.21703559
193	0xbc99fc08	-0.018796936
194	0xbee1f89e	-0.44134992
195	0xbecb6e00	-0.3973236
196	0x3ee8194f	0.4533181
197	0x3ebb48ea	0.36579067
198	0xbef18383	-0.47170648
199	0x3f011fdc	0.5043924
200	0x3f0a22ef	0.53959554
201	0x3ef2a3b8	0.47390532
202	0xbe8e6fe8	-0.27819753
203	0x3e471316	0.19440874
204	0xbedb23e1	-0.4280081
205	0x3edfa4b6	0.43680352
206	0x3f08a5c7	0.53377956
207	0x3dc8de1d	0.0980799
208	0xbebae73f	-0.36504552
209	0xbf12b5dd	-0.5730875
210	0xbf0bb29a	-0.545694
211	0x3f08f1c5	0.5349391
212	0xbe9c0466	-0.30472106
213	0x3f1a386b	0.60242337
214	0x3da5e0b9	0.08099503
215	0x3e261b08	0.16221249
216	0xbe6b861e	-0.2300038
217	0x3e9d2b34	0.30697024
218	0xbf10a4a0	-0.565012
219	0x3e1555e5	0.14583547
220	0x3e166ac0	0.1468916
221	0xbe834370	-0.25637388
222	0x3e356173	0.17712955
223	0x3e2e1080	0.16998482
224	0x3e07261c	0.13198131
225	0x3eddabd3	0.43295154
226	0xbef5855a	-0.47953302
227	0x3e9769f3	0.2957302
228	0x3edfc425	0.43704334
229	0x3d591e06	0.05300715
230	0xbea5b80c	-0.3236698
231	0x3e933e8b	0.28758654
232	0xbf177429	-0.5916162
233	0xbeb80e07	-0.35948202
234	0x3f0caffb	0.54956025
235	0x3f0dbe19	0.5536819
236	0x3f170fe3	0.59008616
237	0xbe79d871	-0.24398972
238	0x3ed92d7c	0.42417514
239	0x3e9191d8	0.28431582
240	0x3e8133a9	0.25234726
241	0xbec7c70f	-0.39019057
242	0xbdbc8db0	-0.09206712
243	0x3ed894e5	0.42301098
244	0x3f1319fe	0.57461536
245	0xbe9f3778	-0.31097007
246	0xbe8cb4c7	-0.27481672
247	0xbf059895	-0.52185947
248	0x3e152674	0.1456545
249	0x3f1b891b	0.6075608
250	0xbf104919	-0.5636154
251	0x3de8dd4b	0.11370333
252	0xbe8362b7	-0.2566125
253	0x3f14c32f	0.58110327
254	0xbe1d050b	-0.15333955
255	0xbf15aeb9	-0.5846973

simplicial_nn.2.W1 f4 [2, 16, 16]
0	0xbc81b426	-0.015832972
1	0x3e301391	0.17194964
2	0xbc9a6968	-0.01884909
3	0x3ae7dddd	0.0017690022
4	0x3e289683	0.16463666
5	0x3cad3b88	0.02114655
6	0xbd966cd4	-0.07344976
7	0xbdb44832	-0.08802833
8	0x3dbdf2c8	0.092748225
9	0x3d6ef8a1	0.05834258
10	0xbe34c020	-0.17651415
11	0xbdc027cd	-0.093825914
12	0xbdeb15f0	-0.114787936
13	0xbd91e3be	-0.071235165
14	0xbe36da0b	-0.17856614
15	0xbe43cd3d	-0.19121261
16	0xbe4a0007	-0.19726573
17	0x3e2cfcde	0.16893336
18	0x3e27efa0	0.16400003
19	0x3ce93728	0.028468683
20	0x3ceb5fd0	0.02873221
21	0x3d8882d0	0.066655755
22	0x3de74f50	0.112944245
23	0xbca051a0	-0.019570172
24	0xbdcca9f3	-0.09993353
25	0x3d886094	0.06659046
26	0xbbe89ec0	-0.0070990026
27	0x3dc1dc10	0.09465802
28	0x3e0e2b80	0.13883781
29	0x3dfd6a98	0.12373847
30	0x3c05dba0	0.008170038
31	0x3d8e8670	0.06959236
32	0xbe401444	-0.1875773
33	0xbd7ba230	-0.06143397
34	0xbe2cf78c	-0.16891307
35	0x3e0ec7a4	0.13943344
36	0x3dc42b6c	0.095785946
37	0x3e4442c2	0.19166091
38	0xbc7803d0	-0.015137628
39	0xbe40c205	-0.18824013
40	0x3d9107b8	0.0708155
41	0xbdf93252	-0.12167801
42	0xbe05705b	-0.13031141
43	0xbdbf6264	-0.093449384
44	0xbd20d3f0	-0.03926462
45	0xbe399e1a	-0.18126717
46	0xbdee9c5b	-0.11650916
47	0x3da14030	0.07873571
48	0xbe0b072b	-0.13576953
49	0x3dbb60ec	0.09149346
50	0x3e1c8dca	0.15288463
51	0x3abaa06a	0.0014238481
52	0xbe15d5b5	-0.14632304
53	0xbdbd347c	-0.09238526
54	0xbdbbfe0f	-0.09179317
55	0xbd831d19	-0.06402034
56	0x3e2a3ae8	0.16624033
57	0x3e2215d5	0.15828641
58	0xbe452953	-0.19254045
59	0x3d950c24	0.07277706
60	0x3e071d9d	0.1319489
61	0xbe2580ef	-0.16162466
62	0x3b8fc1da	0.0043871226
63	0x3df4294d	0.1192194
64	0xbb223d4b	-0.0024755772
65	0x3dc5f0e1	0.09665085
66	0xbccd4638	-0.025057897
67	0x3e22fd06	0.15916833
68	0x3c08dbeb	0.008353214
69	0x3d167652	0.036733933
70	0xbd5fd288	-0.054644138
71	0x3e43c939	0.19119729
72	0x3e434c9e	0.19072196
73	0xbca25534	-0.019816019
74	0x3e49f223	0.19721274
75	0x3d350acf	0.04419976
76	0x3e3614dc	0.17781395
77	0x3d734fda	0.059402324
78	0x3e03934e	0.12849161
79	0xbd85d7b8	-0.06535286
80	0x3cfa3abc	0.030545585
81	0x3d843740	0.064558506
82	0xbe0df2f4	-0.1386221
83	0x3dc0f806	0.09422307
84	0x3d524a88	0.05134061
85	0xbd8194be	-0.063271984
86	0x3e113afb	0.14182656
87	0xbd9b6301	-0.07587243
88	0xbe4a8f85	-0.19781311
89	0xbd47288a	-0.048622645
90	0x3dbca551	0.09211219
91	0xbb0f3762	-0.002185308
92	0x3e37cdfd	0.17949672
93	0x3d38f400	0.04515457
94	0xbe43c5a2	-0.1911836
95	0xbe4ab6eb	-0.1979634
96	0x3dc9edbd	0.09859798
97	0x3b60ba7b	0.0034290839
98	0x3c3fe1b0	0.011711523
99	0xbdfdf02d	-0.123993255
100	0xbe41e43c	-0.18934721
101	0x3d9478d9	0.07249612
102	0xbe38960c	-0.18025988
103	0x3db00702	0.08595087
104	0x3e1f22e4	0.15540653
105	0x3dc9ae77	0.0984773
106	0xbe02c81e	-0.12771651
107	0xbe049d98	-0.12950742
108	0x3de3d146	0.111239
109	0xbe372edf	-0.17888974
110	0x3c9af03c	0.01891338
111	0xbc0d9f6d	-0.008643967
112	0xbe0500ae	-0.1298854
113	0xbe0909e1	-0.13382675
114	0x3dfce044	0.12347463
115	0x3e1b8d96	0.1519073
116	0x3e3b495c	0.18289703
117	0x3d9083d7	0.070563965
118	0xba9fc256	-0.0012188654
119	0x3d8d0f1d	0.06887648
120	0xbd1a66d4	-0.03769572
121	0xbe4057e3	-0.18783526
122	0x3dbdcf7e	0.092680916
123	0xbdff279d	-0.124587275
124	0xbdbc0eaf	-0.09182488
125	0x3e3639f1	0.1779554
126	0xbdc73809	-0.09727485
127	0xbdafb33b	-0.085791074
128	0xbd1d4b62	-0.03840197
129	0x3e21f8a2	0.15817502
130	0x3d81c9d0	0.06337321
131	0xbe2aa182	-0.16663173
132	0xbe0898ce	-0.1333954
133	0x3d725788	0.059165508
134	0x3e13f113	0.14447431
135	0x3e0cc8fb	0.13748543
136	0x3e322dde	0.1740031
137	0x3d907995	0.0705444
138	0x3d97afa2	0.07406546
139	0x3da4b9a7	0.08043223
140	0x3e2a69df	0.16641949
141	0xbe127a63	-0.143045
142	0xbd8a64b0	-0.06757486
143	0x3c7683ad	0.015046042
144	0xbe386c79	-0.18010129
145	0xbdb6c0d2	-0.08923496
146	0x3cebdcd8	0.02879183
147	0xbdd343e7	-0.10315686
148	0xbcb8eaba	-0.022572864
149	0xbd4bc3b1	-0.049747173
150	0xbe22c0c8	-0.15893853
151	0x3e53077b	0.20608322
152	0x3c3a9f70	0.011390552
153	0xbe159e89	-0.14611258
154	0xbdb9d8d6	-0.09074561
155	0x3dd4b45c	0.10385963
156	0x3d1b10cc	0.037857816
157	0xbc11d7d1	-0.008901552
158	0xbe196012	-0.14978054
159	0xbe268315	-0.16260941
160	0x3dd61f84	0.1045523
161	0xbd2ccad4	-0.04218562
162	0xbe1268db	-0.14297812
163	0xbe42f28c	-0.19037837
164	0x3e345a34	0.17612535
165	0xbe138d55	-0.14409383
166	0xbe00ae45	-0.12566479
167	0xbce9da18	-0.028546378
168	0x3e1adbba	0.15122882
169	0xbd24216b	-0.040070932
170	0xbe23b494	-0.15986854
171	0x3e36c1d3	0.17847376
172	0xbca7dd2d	-0.020491207
173	0x3bc415d9	0.0059840498
174	0x3e3ce91d	0.184483
175	0x3cdb88aa	0.026798565
176	0x3b8a738f	0.0042252014
177	0xbd6f8c21	-0.058483247
178	0x3e1c96ba	0.15291873
179	0xbdb0bceb	-0.08629783
180	0x3df46405	0.1193314
181	0xbe2cb465	-0.1686569
182	0x3e30e793	0.17275839
183	0xbd917cd1	-0.07103885
184	0x3d880234	0.06641045
185	0x3e035673	0.12825947
186	0x3dd72436	0.105049536
187	0xbdf85dbc	-0.121272534
188	0xbdcba085	-0.09942726
189	0xbdd405ab	-0.103526436
190	0x3e040002	0.12890628
191	0xbe0214be	-0.12703225
192	0x3d99c19f	0.075076334
193	0x3e34fc50	0.17674375
194	0xbd93bc7e	-0.072136864
195	0xbdd1d48e	-0.1024562
196	0x3e48823e	0.19580933
197	0x3e01c91d	0.12674375
198	0x3de55c60	0.1119926
199	0xbdc394a5	-0.09549836
200	0xbc2166d0	-0.009851173
201	0x3e20c9f7	0.15702043
202	0xbd6bbeab	-0.057554882
203	0xbc25d6ac	-0.010121983
204	0x3dca4c65	0.09877852
205	0xbde6d5e0	-0.11271262
206	0x3e22847d	0.15870853
207	0xbe2e8f60	-0.1704688
208	0x3e44a2aa	0.19202676
209	0xbdea0429	-0.11426575
210	0x3e20c7ae	0.15701172
211	0x3e204de8	0.15654719
212	0xbde1358d	-0.10996542
213	0xbe2d0f1b	-0.16900294
214	0xbe2e33eb	-0.17011993
215	0xbc572bbf	-0.0131329885
216	0xbbe213e0	-0.006899342
217	0x3d1b59a5	0.03792729
218	0xbd130d84	-0.03590156
219	0xbbf6d728	-0.007532973
220	0xbe438291	-0.19092776
221	0x3db3eb9d	0.08785174
222	0xbe0bc27f	-0.13648413
223	0x3da66b82	0.08125974
224	0x3e3111d2	0.17291954
225	0x3e02a794	0.12759238
226	0xbc872170	-0.016495436
227	0xbdd0fb58	-0.1020419
228	0xbdbfa105	-0.09356884
229	0x3de248a0	0.11049008
230	0xbb19e59b	-0.0023482803
231	0xbd17d69f	-0.037069913
232	0xbdce8656	-0.10084216
233	0xbe47656d	-0.19472285
234	0xbe306ef0	-0.1722982
235	0x3de5e230	0.112247825
236	0xbe334c6d	-0.17509623
237	0x3db28e57	0.087185554
238	0xbdf916fe	-0.121625885
239	0xbe2c0079	-0.16797055
240	0x3df8506d	0.12124715
241	0x3e03c0ef	0.12866567
242	0xbe28b050	-0.16473508
243	0x3e3004a1	0.17189266
244	0x3dd598a9	0.10429508
245	0xbd2b5436	-0.041828357
246	0xbe25cc4d	-0.16191216
247	0x3c932021	0.017959656
248	0xbd9d8f82	-0.076933876
249	0x3debfc02	0.11522676
250	0xbce4036b	-0.027833661
251	0x3de64b87	0.112448744
252	0xbe17dc35	-0.14830096
253	0xbe09a666	-0.13442382
254	0x3dcc179e	0.09965442
255	0xbe301442	-0.17195228

simplicial_nn.2.W2 f4 [2, 16, 16]
0	0xbd81a30c	-0.06329927
1	0xbe30b2e0	-0.17255735
2	0x3c345f20	0.011009008
3	0xbe3d6996	-0.18497309
4	0xbdebd596	-0.11515348
5	0xbdff2980	-0.12459087
6	0x3df720cc	0.120668024
7	0xbcb8a927	-0.022541596
8	0x3e24e3c8	0.16102517
9	0xbd97c24e	-0.074101076
10	0xbdeb3ffd	-0.11486814
11	0x3df51fec	0.11968979
12	0xbc56f88c	-0.013120782
13	0x3e16cb57	0.14726005
14	0xbe285201	-0.16437532
15	0xbdd9ab88	-0.1062842
16	0xbcea2218	-0.02858071
17	0x3df9abdc	0.12190983
18	0xbcca8518	-0.024721667
19	0xbe4b703e	-0.19867036
20	0xbded5b2b	-0.115896545
21	0x3df68648	0.12037331
22	0x3c9b90e0	0.01898998
23	0x3e4a0934	0.19730073
24	0x3e0d50ee	0.13800403
25	0xbd8bf840	-0.06834459
26	0xbe4fe765	-0.20303114
27	0xbccd7b10	-0.025083095
28	0xbd75e4e0	-0.060032725
29	0x3e1b368c	0.15157527
30	0x3db2ec7c	0.08736512
31	0xbd5f7c0c	-0.05456166
32	0x3dca076c	0.09864697
33	0xbe004dfe	-0.12529752
34	0x3df375b8	0.118876874
35	0x3e24c0d2	0.1608918
36	0xbe025525	-0.12727793
37	0x3e4caa7a	0.19986907
38	0x3db9dc40	0.090752125
39	0xbe257927	-0.16159497
40	0x3e32458c	0.17409343
41	0xbe0a0267	-0.13477479
42	0xbe116b8d	-0.14201184
43	0x3de9f34c	0.11423358
44	0x3e342ec6	0.17595968
45	0xbe3f4f58	-0.18682611
46	0xbe1ce167	-0.15320359
47	0x3dfd7d48	0.12377411
48	0x3de3d5d9	0.111247726
49	0x3dba7b2a	0.09105523
50	0x3cbc8150	0.02301088
51	0xbe13fc01	-0.144516
52	0xbdf491ca	-0.119418696
53	0xbe19a9a8	-0.15006125
54	0x3d325273	0.04353566
55	0x3e4ae7e9	0.19815029
56	0xbcf73598	-0.030176923
57	0xbc5327c5	-0.0128879
58	0xbdf76db3	-0.1208147
59	0xbe137747	-0.1440097
60	0xbd399ba7	-0.045314457
61	0x3dcd2b9f	0.10018086
62	0x3c42b01d	0.011882809
63	0x3d0bbc42	0.034115084
64	0xbd6c17a4	-0.057639733
65	0xbe471462	-0.19441369
66	0x3e12ebb6	0.14347729
67	0x3e152fce	0.14569017
68	0xbd924546	-0.07142119
69	0xbd47660d	-0.048681308
70	0x3e111e27	0.14171658
71	0xbe027e51	-0.12743498
72	0xbe234c3e	-0.15947053
73	0x3dc927b4	0.09822026
74	0xbe08410f	-0.13306068
75	0x3e052d50	0.13005567
76	0xbe3ecd21	-0.18632938
77	0xbe35c7e9	-0.17752041
78	0xbe06a2df	-0.13148068
79	0xbda62804	-0.08113101
80	0xbe20fcbd	-0.15721412
81	0x3ddd20b6	0.10797255
82	0xbd0f5d50	-0.0350011
83	0x3e048070	0.1293962
84	0xbdfbf1c3	-0.12301972
85	0x3d12bb03	0.03582288
86	0xbe3d2fed	-0.18475313
87	0x3e15783f	0.14596651
88	0xbdef5273	-0.11685648
89	0x3e2a91c2	0.16657165
90	0x3dd21855	0.10258547
91	0x3e554f26	0.20830974
92	0xbc996205	-0.018723497
93	0xbc6b6235	-0.014366676
94	0xbe456af6	-0.19279084
95	0xbd893033	-0.066986464
96	0x3d946c1b	0.07247182
97	0x3e42fc54	0.19041568
98	0xbdc6c5e8	-0.09705716
99	0xbdaa73da	-0.08322878
100	0x3e3938cc	0.18088073
101	0x3e25a53c	0.16176313
102	0x3e346189	0.17615332
103	0xbe2529df	-0.16129254
104	0x3dbe5f34	0.09295502
105	0x3e418aa1	0.18900539
106	0x3daf67b8	0.08564705
107	0x3dbfb64b	0.093609415
108	0x3d6d85f2	0.05798907
109	0x3e14c85a	0.14529553
110	0xbe084bfc	-0.13310236
111	0xbe1dc217	-0.1540607
112	0xbe0dfa22	-0.1386495
113	0x3db98a5c	0.09059593
114	0xbcbb84e8	-0.022890523
115	0x3c46dcd0	0.012137607
116	0xbd02f0e0	-0.031967998
117	0xbe1ac6b9	-0.15114869
118	0xbe2b3ba1	-0.16721965
119	0xbdfa2553	-0.1221415
120	0xbe4cb4df	-0.19990872
121	0x3dabef53	0.08395257
122	0xbe28f656	-0.1650022
123	0x3d8e1fbc	0.069396466
124	0x3ccbe3f9	0.02488898
125	0x3d3d1f9d	0.046172727
126	0xbc574c67	-0.013140774
127	0x3e43f7e3	0.1913753
128	0x3d7992ff	0.060931202
129	0x3e107e6b	0.14110725
130	0x3e1a7bf8	0.15086353
131	0x3e218f45	0.15777309
132	0xbe32fbea	-0.1747891
133	0x3d89d167	0.067293935
134	0xbb8dd756	-0.0043286486
135	0xbbc7139d	-0.006075336
136	0xbd8634b6	-0.065530226
137	0xbe33bba9	-0.17552055
138	0x3e2f70af	0.17132829
139	0x3dd74280	0.10510731
140	0x3e118ba5	0.14213426
141	0x3dd80dfc	0.10549542
142	0xbdf924a9	-0.121651955
143	0x3e1c544d	0.15266533
144	0xbe07df9f	-0.13268898
145	0x3dd0b9c8	0.10191685
146	0x3d4720f8	0.048615426
147	0xbaaee070	-0.0013342034
148	0x3d8116b8	0.063031614
149	0x3db40643	0.08790257
150	0x3d10d1e2	0.03535641
151	0xbe3ddfcc	-0.18542403
152	0xbdfe1b6f	-0.12407576
153	0xbbe01f15	-0.0068396428
154	0xbe1f3598	-0.15547788
155	0x3d9dce28	0.07705337
156	0xbcb8851f	-0.022524415
157	0xbb840256	-0.004028599
158	0x3d35c1f7	0.044374432
159	0x3db7e3bd	0.089789845
160	0xbe3a4681	-0.18190958
161	0x3ddfda0b	0.1093026
162	0x3dfe68d0	0.12422335
163	0xbddf839c	-0.10913774
164	0xbd91bf3a	-0.07116552
165	0x3e068619	0.13137092
166	0xbcade711	-0.021228345
167	0x3e17e223	0.14832358
168	0x3d8879bc	0.06663844
169	0x3dcaca8c	0.09901914
170	0xbe3c7055	-0.18402226
171	0xbd5ceaf9	-0.053935025
172	0x3dfa453e	0.12220238
173	0x3d93fd46	0.072260424
174	0xbd9a9e02	-0.07549669
175	0xbd46c0ef	-0.04852384
176	0x3e0d650a	0.13808075
177	0xbe2c6743	-0.16836266
178	0xbc00a220	-0.007851154
179	0xbdc5082a	-0.09620698
180	0x39a92462	0.000322613
181	0xbdcbc9b6	-0.09950583
182	0x3e09b1e5	0.13446768
183	0xbd5be767	-0.05368748
184	0xbcbda760	-0.0231511
185	0x3e0e1e77	0.13878809
186	0x3d6d21ea	0.05789367
187	0x3e5615ff	0.20906828
188	0xbde08a96	-0.10963933
189	0x3beb6415	0.0071835616
190	0xbd0d7ccb	-0.03454284
191	0x3dc465c7	0.09589725
192	0xbd1bfc0a	-0.03808216
193	0x3de42f06	0.111417815
194	0xbd256038	-0.040374964
195	0x3e2e84be	0.17042825
196	0xbe3a437b	-0.18189804
197	0xbb3c411c	-0.0028725332
198	0x3da2762d	0.079326965
199	0x3dc676e6	0.09690647
200	0xbd0b4b44	-0.034007326
201	0xbe3c4565	-0.18385847
202	0xbd5f407b	-0.054504853
203	0xbe455a4e	-0.1927273
204	0xbc870d5a	-0.016485859
205	0x3e4ea63e	0.20180604
206	0xbe3672e1	-0.1781726
207	0xbd0ab045	-0.03385951
208	0x3b909d80	0.0044133067
209	0xbe1f77e1	-0.15573074
210	0xbd421580	-0.047383785
211	0xbe04f2f4	-0.12983304
212	0xbd687002	-0.056747444
213	0xbcad7e7e	-0.02117848
214	0xbce4c373	-0.027925229
215	0xbd296cb8	-0.041363448
216	0x3e27f570	0.1640222
217	0x3e14b1d8	0.14520967
218	0xbdaf1315	-0.085485615
219	0xbb9d8f90	-0.0048083737
220	0x3d41c7b4	0.047309592
221	0x3d9bf611	0.07615293
222	0x3e0544b8	0.13014495
223	0x3df6a09e	0.12042354
224	0xbd7c0ac7	-0.061533716
225	0x3e43fa20	0.19138384
226	0x3cc55a80	0.024091005
227	0xbe35c106	-0.17749414
228	0x3e3fc1ee	0.18726322
229	0xbd94a3aa	-0.07257779
230	0x3dbca6ff	0.092115395
231	0x3c051369	0.0081223035
232	0x3e0b3b72	0.13596895
233	0x3de74fe7	0.11294537
234	0xbcb9b8e8	-0.022671178
235	0xbd9541bf	-0.07287931
236	0xbc661c1d	-0.014044789
237	0xbe25a9e8	-0.16178095
238	0xbdb8b2b8	-0.09018463
239	0xbe144a03	-0.14481358
240	0x3de75ac7	0.11296611
241	0xbd065218	-0.032793134
242	0x3c79fc00	0.015257835
243	0xbd6ecadb	-0.058298927
244	0x3e46b43b	0.1940469
245	0x3dff8e20	0.1247828
246	0xbe05d268	-0.13068545
247	0xbe4002c1	-0.1875105
248	0xbd99ec4a	-0.07515772
249	0xbd97b503	-0.07407572
250	0x3dd51a59	0.10405416
251	0xbe0ebfe3	-0.13940386
252	0xbdfa38b2	-0.12217845
253	0xbe356615	-0.17714722
254	0x3c30f37b	0.010800238
255	0xbdc99e21	-0.09844614

simplicial_nn.4.W0 f4 [16, 1]
0	0x3e0b9dc4	0.13634402
1	0x3f0a0159	0.53908306
2	0x3e98c226	0.29835624
3	0xbef00883	-0.46881494
4	0x3e6669a2	0.22501233
5	0x3e45467c	0.19265169
6	0xbddda7c0	-0.108230114
7	0x3f28fe66	0.6601318
8	0x3e060d00	0.13090897
9	0xbebb67f6	-0.36602753
10	0x3f546752	0.82970154
11	0x3ef05934	0.46943057
12	0xbdb0ab02	-0.08626367
13	0xbeb61e33	-0.35569915
14	0x3f056634	0.52109075
15	0xbe5d61e1	-0.21619369

simplicial_nn.4.W1 f4 [2, 16, 1]
0	0xbf19c088	-0.60059404
1	0x3b9311cd	0.004488206
2	0x3eaf5138	0.34241652
3	0xbeca2c64	-0.39486992
4	0x3efcade8	0.4935143
5	0x3e1a36fc	0.15060037
6	0x3f442cfd	0.76631147
7	0xbe534bbf	-0.20634364
8	0xbf0678c4	-0.52528024
9	0xbf37eda2	-0.71846974
10	0xbc86cc62	-0.01645488
11	0xbc495708	-0.012288816
12	0xbe3bb56e	-0.18330929
13	0x3ea7e7b3	0.3279396
14	0xbec70f11	-0.38878682
15	0x3c9cbe2e	0.019133653
16	0x3f0f5215	0.5598462
17	0xbd4d52ef	-0.05012792
18	0xbf4fbb6d	-0.81145364
19	0x3bf8db87	0.007594529
20	0xbcd2d01c	-0.025734
21	0xbdcfc218	-0.10144442
22	0xbe83a5a0	-0.257123
23	0xbf20cfd3	-0.62817115
24	0x3efe0674	0.49614298
25	0xbe4e2523	-0.20131354
26	0x3e3655c6	0.17806157
27	0x3e6c53d8	0.23078859
28	0x3f28eab6	0.6598314
29	0x3f34c0f7	0.7060694
30	0x3f4a7700	0.7908783
31	0x3f3230f1	0.6960593

simplicial_nn.4.W2 f4 [2, 16, 1]
0	0xbebfaa90	-0.37434816
1	0x3f1f432e	0.62211883
2	0xbec88e05	-0.39170852
3	0x3ed34594	0.4126402
4	0x3f2efbdb	0.6835305
5	0xbf27cf71	-0.65550905
6	0x3ee1638a	0.44021255
7	0xbeb416fe	-0.35173792
8	0x3d5c3940	0.053765535
9	0xbec6c956	-0.38825482
10	0xbf119c71	-0.56879336
11	0xbf07cff2	-0.53051674
12	0xbee10c07	-0.4395449
13	0x3f225ea5	0.63425666
14	0x3f09c719	0.53819424
15	0xbefb20c4	-0.49048436
16	0xbd8d565d	-0.06901238
17	0xbe59d629	-0.21273102
18	0x3f2e108a	0.67993987
19	0xbef9eed9	-0.4881504
20	0x3f40883e	0.7520789
21	0xbf0147d9	-0.50500256
22	0x3f1878d1	0.5955935
23	0xbf0964db	-0.5366952
24	0x3e44aa30	0.19205546
25	0xbf436f30	-0.76341534
26	0x3f39a534	0.72517705
27	0xbf4c5d73	-0.7983009
28	0x3f4597dc	0.77184844
29	0x3dfbad92	0.12288965
30	0xbf4d2f7a	-0.8015057
31	0x3efc1712	0.4923635

exp_avg f4 [1, 16]
0	0x400e4ae3	2.2233207
1	0x00000000	0.0
2	0x00000000	0.0
3	0x3f937ce0	1.1522484
4	0x3f44a352	0.7681171
5	0x3bcc0b18	0.0062269084
6	0xbfca55f8	-1.5807486
7	0xbee78dfa	-0.45225507
8	0xb8eecc31	-0.00011386758
9	0x409e5e71	4.9490285
10	0x3c0b738c	0.008511435
11	0xbe451206	-0.19245157
12	0x3fe85fd2	1.8154242
13	0xc0848834	-4.1416264
14	0x40a6dbb2	5.2143183
15	0xc0bab96f	-5.835136

exp_avg_sq f4 [1, 16]
0	0x3e0bb69c	0.13643879
1	0x00000000	0.0
2	0x00000000	0.0
3	0x3d189bb8	0.03725788
4	0x3c8c4687	0.017123474
5	0x3828c378	4.0236366e-05
6	0x3d89772b	0.067121826
7	0x3bb227ac	0.005436858
8	0x2fe907b9	4.238794e-10
9	0x3f2c98de	0.67420757
10	0x362c7746	2.5699424e-06
11	0x3a94a708	0.0011341283
12	0x3dbc2a24	0.09187725
13	0x3eed41db	0.46339306
14	0x3f3ff4db	0.74982995
15	0x3f6c6a1c	0.9234941

exp_avg f4 [2, 1, 16]
0	0x40008c5b	2.0085666
1	0x00000000	0.0
2	0x00000000	0.0
3	0x3f965915	1.1745936
4	0x3f2d7df4	0.67770314
5	0xbc5d935b	-0.013523902
6	0xbfbc662e	-1.4718683
7	0xbebafaaa	-0.36519367
8	0x397c7156	0.00024074814
9	0x409459e5	4.6359735
10	0x3cb30267	0.021851731
11	0xbae4dfd0	-0.0017461721
12	0x3fbea8ba	1.4895241
13	0xc065d7b0	-3.5912895
14	0x40962b40	4.6927795
15	0xc0a3d51c	-5.1197643
16	0x3fedf378	1.8589926
17	0x00000000	0.0
18	0x00000000	0.0
19	0x3f8de506	1.1085517
20	0x3f1e9cce	0.61958015
21	0xbb57d7a7	-0.0032934935
22	0xbfac9630	-1.3483334
23	0xbeb04ccf	-0.344336
24	0x39657e4b	0.0002188619
25	0x408aa458	4.3325615
26	0x3ca997b5	0.020702222
27	0x3d15e306	0.03659346
28	0x3fad2cda	1.3529313
29	0xc057e5e3	-3.3734062
30	0x408cfd24	4.405901
31	0xc099b339	-4.803128

exp_avg_sq f4 [2, 1, 16]
0	0x3de40a9a	0.111348346
1	0x00000000	0.0
2	0x00000000	0.0
3	0x3d1d77f1	0.038444463
4	0x3c5a17b5	0.013311316
5	0x37a5317e	1.969258e-05
6	0x3d6e077a	0.0581126
7	0x3b67e5f6	0.003538487
8	0x310230b7	1.894518e-09
9	0x3f175688	0.5911641
10	0x378c3c17	1.6717282e-05
11	0x397d69fe	0.00024167445
12	0x3d7df9ab	0.06200568
13	0x3eb252a8	0.34828687
14	0x3f1b8e13	0.60763663
15	0x3f35e547	0.71052974
16	0x3dc37456	0.09543674
17	0x00000000	0.0
18	0x00000000	0.0
19	0x3d0c5131	0.034257118
20	0x3c36f694	0.011167187
21	0x3779ab9b	1.4881512e-05
22	0x3d47a63b	0.048742514
23	0x3b4e29e1	0.0031458067
24	0x30d730c4	1.5657169e-09
25	0x3f04323e	0.51639163
26	0x377b67d1	1.49849375e-05
27	0x39934114	0.00028086512
28	0x3d51d83a	0.0512316
29	0x3e9d57dc	0.30731094
30	0x3f091e96	0.53562295
31	0x3f20149d	0.62531453

exp_avg f4 [2, 1, 16]
0	0x3cced374	0.025247313
1	0x00000000	0.0
2	0x00000000	0.0
3	0xbdca8589	-0.09888751
4	0x3c8fc099	0.017547892
5	0x3d067330	0.032824695
6	0x3d351796	0.044211946
7	0xbd75ad36	-0.05997964
8	0xb9b47e5a	-0.00034426415
9	0xbd6f0aa7	-0.05835977
10	0xbc61268b	-0.0137420995
11	0xbe0633dd	-0.13105722
12	0x3e1c433b	0.15260021
13	0xbe8a06ef	-0.26958415
14	0x3e270026	0.1630865
15	0xbea06d54	-0.3133341
16	0x3cae283f	0.021259425
17	0x00000000	0.0
18	0x00000000	0.0
19	0xbdc4c6d5	-0.09608237
20	0x3c8d37a9	0.017238455
21	0x3d033153	0.03202946
22	0x3d31f721	0.04344857
23	0xbd6e691c	-0.05820571
24	0xb9a415c2	-0.00031296728
25	0xbd6eb5a3	-0.05827869
26	0xbc544d37	-0.012957863
27	0xbdfd4bcb	-0.12367972
28	0x3e1827ca	0.14858928
29	0xbe834092	-0.256352
30	0x3e1f03c5	0.15528782
31	0xbe9952b1	-0.299459

exp_avg_sq f4 [2, 1, 16]
0	0x37a08500	1.913542e-05
1	0x00000000	0.0
2	0x00000000	0.0
3	0x3989f8cb	0.00026316041
4	0x37474de3	1.1879459e-05
5	0x38109c23	3.447769e-05
6	0x3869298f	5.5590233e-05
7	0x38ce68b9	9.8423516e-05
8	0x31851d1e	3.8741197e-09
9	0x38c15e5b	9.220532e-05
10	0x36dc6375	6.5680892e-06
11	0x39f6762e	0.00047008827
12	0x3a28bb29	0.00064365804
13	0x3b021c0d	0.0019853145
14	0x3a3f5a82	0.00072995585
15	0x3b303fd0	0.0026893504
16	0x37669562	1.3743849e-05
17	0x00000000	0.0
18	0x00000000	0.0
19	0x39823ef3	0.00024842433
20	0x373aaa32	1.1126091e-05
21	0x3808e0f5	3.2634434e-05
22	0x38603a4f	5.3460066e-05
23	0x38c22f9b	9.259508e-05
24	0x315c05c9	3.2017502e-09
25	0x38c09a22	9.183983e-05
26	0x36c3b095	5.8320097e-06
27	0x39db2f28	0.0004180607
28	0x3a200d1b	0.00061054685
29	0x3aeb2237	0.0017939274
30	0x3a2d88f3	0.00066198333
31	0x3b210259	0.002456805

exp_avg f4 [16, 16]
0	0x3eb315c5	0.34977546
1	0x40363810	2.8471718
2	0x00000000	0.0
3	0xc08c61e0	-4.3869476
4	0x3c03a0de	0.008033959
5	0x3f99053f	1.1954726
6	0x00000000	0.0
7	0xbec83b79	-0.39107874
8	0x00000000	0.0
9	0x00000000	0.0
10	0x40a7a971	5.239434
11	0x4059c62f	3.4027212
12	0x3fe17273	1.7613052
13	0x37949fa8	1.771732e-05
14	0x4092e8f1	4.590935
15	0x400a509f	2.1611707
16	0x00000000	0.0
17	0x00000000	0.0
18	0x00000000	0.0
19	0x00000000	0.0
20	0x00000000	0.0
21	0x00000000	0.0
22	0x00000000	0.0
23	0x00000000	0.0
24	0x00000000	0.0
25	0x00000000	0.0
26	0x00000000	0.0
27	0x00000000	0.0
28	0x00000000	0.0
29	0x00000000	0.0
30	0x00000000	0.0
31	0x00000000	0.0
32	0x00000000	0.0
33	0x00000000	0.0
34	0x00000000	0.0
35	0x00000000	0.0
36	0x00000000	0.0
37	0x00000000	0.0
38	0x00000000	0.0
39	0x00000000	0.0
40	0x00000000	0.0
41	0x00000000	0.0
42	0x00000000	0.0
43	0x00000000	0.0
44	0x00000000	0.0
45	0x00000000	0.0
46	0x00000000	0.0
47	0x00000000	0.0
48	0x3e85a5c5	0.26103035
49	0x400e7463	2.2258537
50	0x00000000	0.0
51	0xc0597ba9	-3.3981726
52	0x3b720db4	0.0036934437
53	0x3f5fc92c	0.8741634
54	0xb6aa3e50	-5.073649e-06
55	0xbea7eca8	-0.32797742
56	0x00000000	0.0
57	0x358ab7cc	1.0335293e-06
58	0x40819fea	4.0507708
59	0x40251c63	2.5798576
60	0x3fb01557	1.3756512
61	0x37cc1757	2.4329564e-05
62	0x406322fc	3.5490103
63	0x3fd555ef	1.666685
64	0x3eb7bba4	0.35885346
65	0x405c2bf2	3.4401822
66	0x00000000	0.0
67	0xc0a54e92	-5.165841
68	0x3b1d0808	0.0023961086
69	0x3fa0136c	1.2505927
70	0xb78cb281	-1.6772423e-05
71	0xbeeb6c11	-0.45980886
72	0x00000000	0.0
73	0x36a27b94	4.8423626e-06
74	0x40c4e5ae	6.153037
75	0x4074c2cf	3.8243902
76	0x4003a698	2.057043
77	0x380d8fe3	3.3751025e-05
78	0x40ab322a	5.3498735
79	0x401d103d	2.454116
80	0xbb12f130	-0.002242159
81	0x3e55526e	0.20832226
82	0x00000000	0.0
83	0xbe8452e0	-0.2584448
84	0xbae79a08	-0.0017669806
85	0x3c87ceac	0.016578041
86	0xb77b51bd	-1.4979797e-05
87	0xbba99062	-0.0051746825
88	0x00000000	0.0
89	0x36acb68c	5.1472507e-06
90	0x3e9539ca	0.29145652
91	0x3e0c456b	0.13698356
92	0x3db315ca	0.0874439
93	0xb631da75	-2.6502214e-06
94	0x3e7fbae3	0.24973635
95	0x3da5f2f2	0.08102979
96	0x3e898208	0.26857018
97	0x40365c1a	2.8493714
98	0x00000000	0.0
99	0xc0872c51	-4.2241597
100	0xb9f2c65f	-0.00046305635
101	0x3f783ab2	0.9696456
102	0xb79d49f5	-1.8750297e-05
103	0xbeb59278	-0.3546331
104	0x00000000	0.0
105	0x36c145d9	5.7599796e-06
106	0x40a0ed00	5.0289307
107	0x4043e99e	3.0611339
108	0x3fd4c2d0	1.6621952
109	0x37f22076	2.8863764e-05
110	0x408b0ae6	4.3450804
111	0x3ffa7fff	1.9570311
112	0x3bbff961	0.0058585857
113	0x3ed7a4d3	0.42117938
114	0x00000000	0.0
115	0xbf0ad69d	-0.54233724
116	0xbb2633ea	-0.0025360533
117	0x3d0507b1	0.03247804
118	0xb793b1ea	-1.7606613e-05
119	0xbd5a1e09	-0.0532513
120	0x00000000	0.0
121	0x36c65535	5.9107792e-06
122	0x3f2176e9	0.6307207
123	0x3e94477e	0.28960794
124	0x3e58105f	0.21099995
125	0x358d54c9	1.0529994e-06
126	0x3f0970fb	0.5368802
127	0x3e52d169	0.20587696
128	0xb7aa4c6b	-2.0301164e-05
129	0x37e7bed6	2.762621e-05
130	0x00000000	0.0
131	0x36fefd29	7.5992616e-06
132	0x385ab746	5.2145937e-05
133	0xb890a3bd	-6.896954e-05
134	0xb4f6dc4a	-4.5981352e-07
135	0x00000000	0.0
136	0x00000000	0.0
137	0x351d9ecc	5.871814e-07
138	0x00000000	0.0
139	0xb7a3734b	-1.9484802e-05
140	0x00000000	0.0
141	0xb753dace	-1.26275245e-05
142	0xb8006619	-3.0612664e-05
143	0xb82b53b8	-4.0847546e-05
144	0x3ea3daff	0.32003018
145	0x4053e751	3.3109934
146	0x00000000	0.0
147	0xc09d613d	-4.91812
148	0xba1fc2d0	-0.0006094398
149	0x3f9033e1	1.1265832
150	0xb7bcd59e	-2.251082e-05
151	0xbee019a9	-0.43769577
152	0x00000000	0.0
153	0x36e0bf78	6.69801e-06
154	0x40bb41c4	5.851778
155	0x406443b8	3.5666332
156	0x3ff9d4f3	1.9518112
157	0x3806a480	3.2101292e-05
158	0x40a2422c	5.0705776
159	0x40132f0e	2.299747
160	0x39453dda	0.00018810426
161	0x3a818a7e	0.0009883193
162	0x00000000	0.0
163	0xb9b9ddf5	-0.0003545132
164	0x3a4f11b5	0.0007899062
165	0x3a2afc26	0.00065225584
166	0x00000000	0.0
167	0xb9019036	-0.00012356121
168	0x00000000	0.0
169	0x00000000	0.0
170	0x3b02eb68	0.001997674
171	0x3a922350	0.001114944
172	0x3a30ae4c	0.00067398394
173	0x00000000	0.0
174	0x3aecf2e8	0.0018077763
175	0x3a09dd57	0.00052591175
176	0x3edf1d4b	0.43577036
177	0x40631cad	3.5486252
178	0x00000000	0.0
179	0xc0aecccd	-5.4625
180	0x3c12b5d5	0.008954485
181	0x3fbbaf6f	1.4662913
182	0xb5df19fc	-1.6622357e-06
183	0xbf02d9e6	-0.51113737
184	0x00000000	0.0
185	0x340fbd08	1.3386682e-07
186	0x40d0853b	6.5162635
187	0x4086e943	4.2159743
188	0x400d30b6	2.206098
189	0x37fff904	3.0514326e-05
190	0x40b70787	5.719669
191	0x402cc2b5	2.699384
192	0x3c4f3313	0.012646454
193	0x3f02c460	0.51080894
194	0x00000000	0.0
195	0xbf2ed523	-0.6829397
196	0xbaa251ee	-0.0012384036
197	0x3dc7d646	0.09757666
198	0xb7559773	-1.2731051e-05
199	0xbca867f5	-0.020557383
200	0x00000000	0.0
201	0x368e31e3	4.2377374e-06
202	0x3f4f952d	0.81087
203	0x3ed7c121	0.42139533
204	0x3e759e9c	0.23986286
205	0x36360bc4	2.7126962e-06
206	0x3f2bab36	0.6705812
207	0x3e802e5b	0.25035366
208	0x3e54bd0c	0.2077524
209	0x40040782	2.0629582
210	0x00000000	0.0
211	0xc044ef68	-3.0771122
212	0xba444978	-0.00074877543
213	0x3f3341c9	0.70022255
214	0xb767a7ce	-1.3807743e-05
215	0xbe9ba774	-0.30401194
216	0x00000000	0.0
217	0x368b781a	4.1565045e-06
218	0x4069f638	3.655653
219	0x400ecd8b	2.2312953
220	0x3f9eb84f	1.2399997
221	0x37aa4296	2.0296586e-05
222	0x404bc2a8	3.1837559
223	0x3fbb32ee	1.4624918
224	0x3e9fdab6	0.3122155
225	0x40324c43	2.7859046
226	0x00000000	0.0
227	0xc0870aa8	-4.220051
228	0x3b2b0a99	0.0026098846
229	0x3f8509c9	1.0393611
230	0xb73d541c	-1.1284861e-05
231	0xbed5bfc3	-0.41747865
232	0x00000000	0.0
233	0x3653eef9	3.158055e-06
234	0x40a0b651	5.0222554
235	0x4049c4bf	3.1526334
236	0x3fdad964	1.7097592
237	0x37e37b5f	2.7117958e-05
238	0x408cab54	4.395914
239	0x400355fa	2.0521226
240	0x3d40896e	0.047006063
241	0x3f59565a	0.8489739
242	0x00000000	0.0
243	0xbf97c5ce	-1.185724
244	0xbab248ef	-0.0013602058
245	0x3e498711	0.1968043
246	0xb770f6bd	-1.4362563e-05
247	0xbdb7093f	-0.089373104
248	0x00000000	0.0
249	0x369c337b	4.6551554e-06
250	0x3fb442ef	1.4082927
251	0x3f457651	0.7713366
252	0x3ee7f434	0.453035
253	0x36a43173	4.8933375e-06
254	0x3f98b6c2	1.1930773
255	0x3efe7c70	0.49704313

exp_avg_sq f4 [16, 16]
0	0x3b62858d	0.0034564466
1	0x3e6317b7	0.22177015
2	0x00000000	0.0
3	0x3f05cd5b	0.5226647
4	0x366621a8	3.4292261e-06
5	0x3d217885	0.039421577
6	0x00000000	0.0
7	0x3b860ea8	0.0040911026
8	0x00000000	0.0
9	0x00000000	0.0
10	0x3f407380	0.7517624
11	0x3ea2791f	0.31733033
12	0x3dae4770	0.08509719
13	0x2d134ae8	8.372615e-12
14	0x3f13870c	0.5762794
15	0x3e03346a	0.12812963
16	0x00000000	0.0
17	0x00000000	0.0
18	0x00000000	0.0
19	0x00000000	0.0
20	0x00000000	0.0
21	0x00000000	0.0
22	0x00000000	0.0
23	0x00000000	0.0
24	0x00000000	0.0
25	0x00000000	0.0
26	0x00000000	0.0
27	0x00000000	0.0
28	0x00000000	0.0
29	0x00000000	0.0
30	0x00000000	0.0
31	0x00000000	0.0
32	0x00000000	0.0
33	0x00000000	0.0
34	0x00000000	0.0
35	0x00000000	0.0
36	0x00000000	0.0
37	0x00000000	0.0
38	0x00000000	0.0
39	0x00000000	0.0
40	0x00000000	0.0
41	0x00000000	0.0
42	0x00000000	0.0
43	0x00000000	0.0
44	0x00000000	0.0
45	0x00000000	0.0
46	0x00000000	0.0
47	0x00000000	0.0
48	0x3afd7ed4	0.0019340166
49	0x3e0acd8a	0.1355497
50	0x00000000	0.0
51	0x3ea0b03f	0.31384465
52	0x35a43045	1.2233e-06
53	0x3cad36ba	0.02114426
54	0x2c90361e	4.0987344e-12
55	0x3b3cc662	0.0028804769
56	0x00000000	0.0
57	0x2a1a18c4	1.368654e-13
58	0x3ee63b6b	0.44967207
59	0x3e3af7cc	0.1825859
60	0x3d54b51c	0.05193053
61	0x2d918268	1.6542503e-11
62	0x3eb069fe	0.34455866
63	0x3d9c2df5	0.07625953
64	0x3b70bbdf	0.0036733074
65	0x3ea598ea	0.32343227
66	0x00000000	0.0
67	0x3f399312	0.72490036
68	0x35f4d70d	1.8242005e-06
69	0x3d316744	0.043311372
70	0x2f0a75c6	1.2592868e-10
71	0x3bb932c4	0.0056518037
72	0x00000000	0.0
73	0x2c53a9ab	3.0079088e-12
74	0x3f84b7b3	1.036856
75	0x3ecd446c	0.40091264
76	0x3ded9696	0.116009876
77	0x2e777e56	5.6273507e-11
78	0x3f48407f	0.78223413
79	0x3e292cfd	0.16521068
80	0x35040313	4.9178306e-07
81	0x3a9c624f	0.0011931154
82	0x00000000	0.0
83	0x3aefb483	0.001828805
84	0x343586b8	1.6905949e-07
85	0x3740ee24	1.1499538e-05
86	0x2f3baacf	1.7068234e-10
87	0x355a7f74	8.13968e-07
88	0x00000000	0.0
89	0x2c6f2797	3.398592e-12
90	0x3b1b9c63	0.0023744337
91	0x3a09e601	0.00052604085
92	0x395de63e	0.00021161974
93	0x2e143398	3.369713e-11
94	0x3ae16b2b	0.0017198076
95	0x39409cfc	0.00018369028
96	0x3b06bda3	0.002055981
97	0x3e625c31	0.2210548
98	0x00000000	0.0
99	0x3ef7622a	0.4831708
100	0x35802937	9.548738e-07
101	0x3cd49e62	0.025954429
102	0x2f4e7986	1.8778765e-10
103	0x3b5ba238	0.0033513438
104	0x00000000	0.0
105	0x2c95c38f	4.256546e-12
106	0x3f30aa2b	0.69009656
107	0x3e82ff7b	0.2558554
108	0x3d9a8356	0.075445816
109	0x2e81fe8a	5.911456e-11
110	0x3f0398a3	0.5140478
111	0x3dd64d50	0.10463965
112	0x36137294	2.19714e-06
113	0x3b9ccdf9	0.004785296
114	0x00000000	0.0
115	0x3c0187b0	0.007905886
116	0x34a54004	3.0780222e-07
117	0x381a5f2a	3.680509e-05
118	0x2f75f70c	2.2370389e-10
119	0x389e2acf	7.542001e-05
120	0x00000000	0.0
121	0x2c9daa8c	4.481143e-12
122	0x3c30d174	0.010792125
123	0x3b156462	0.0022795429
124	0x3a9dc876	0.0012037891
125	0x2e3bf167	4.2733286e-11
126	0x3bfedefd	0.007778047
127	0x3a96aed2	0.0011496192
128	0x2d6f38cf	1.3598191e-11
129	0x2ddd825b	2.518268e-11
130	0x00000000	0.0
131	0x2cb39a7e	5.104638e-12
132	0x2ec4b982	8.946001e-11
133	0x2f2c9261	1.5695313e-10
134	0x2cbac3b5	5.308166e-12
135	0x00000000	0.0
136	0x00000000	0.0
137	0x2946adf1	4.4115702e-14
138	0x00000000	0.0
139	0x2e26f9a1	3.7965745e-11
140	0x00000000	0.0
141	0x2cb7c516	5.2230538e-12
142	0x2e07fe4b	3.0921304e-11
143	0x2e72207a	5.5053274e-11
144	0x3b40ae5d	0.0029400804
145	0x3e9958d4	0.29950583
146	0x00000000	0.0
147	0x3f283ea5	0.6572059
148	0x35b346e2	1.3357169e-06
149	0x3d106116	0.03524884
150	0x2f8d744c	2.5730384e-10
151	0x3ba7c87c	0.005120335
152	0x00000000	0.0
153	0x2cca6f4f	5.753543e-12
154	0x3f7021fa	0.93801844
155	0x3eb29b92	0.34884316
156	0x3dd5e53e	0.10444115
157	0x2eac838e	7.845023e-11
158	0x3f33e52c	0.70271564
159	0x3e149a99	0.145121
160	0x3090f206	1.0546166e-09
161	0x32f920e6	2.9002376e-08
162	0x00000000	0.0
163	0x3187f32c	3.9566626e-09
164	0x32df0842	2.5964372e-08
165	0x3253dab5	1.2331545e-08
166	0x00000000	0.0
167	0x2ff42336	4.440836e-10
168	0x00000000	0.0
169	0x00000000	0.0
170	0x33fa2218	1.1647734e-07
171	0x335e972b	5.182589e-08
172	0x32651ec5	1.33365505e-08
173	0x00000000	0.0
174	0x33cc3034	9.5082584e-08
175	0x32600dd2	1.3041658e-08
176	0x3baf8890	0.0053568557
177	0x3eb00edf	0.34386346
178	0x00000000	0.0
179	0x3f4f2aed	0.80924875
180	0x369d112f	4.680965e-06
181	0x3d72a860	0.059242606
182	0x29a50485	7.328256e-14
183	0x3be4e4ff	0.0069853063
184	0x00000000	0.0
185	0x272504be	2.290092e-15
186	0x3f9496ea	1.1608555
187	0x3ef903ac	0.48635614
188	0x3e08759a	0.13326111
189	0x2ddb7240	2.4948155e-11
190	0x3f649a38	0.8929782
191	0x3e4c57c7	0.1995536
192	0x36e34bb7	6.7739415e-06
193	0x3beb01b5	0.0071718344
194	0x00000000	0.0
195	0x3c5132ec	0.012768488
196	0x34219bbc	1.5050949e-07
197	0x3992be4e	0.00027989078
198	0x2ef70a23	1.123406e-10
199	0x373db36b	1.1307052e-05
200	0x00000000	0.0
201	0x2c221b69	2.30368e-12
202	0x3c953b25	0.018216679
203	0x3ba1cb6b	0.0049375794
204	0x3ad0cce0	0.0015930198
205	0x2dc6fbe8	2.2621863e-11
206	0x3c4b1a17	0.012396357
207	0x3ae4bab3	0.001745066
208	0x3aa0a30b	0.0012255622
209	0x3ded1c14	0.11577621
210	0x00000000	0.0
211	0x3e8334cb	0.25626215
212	0x3503a8cf	4.904695e-07
213	0x3c5da8e7	0.013529039
214	0x2ed9d315	9.905513e-11
215	0x3b21b09a	0.0024671913
216	0x00000000	0.0
217	0x2c1bedbf	2.21588e-12
218	0x3eba8d1e	0.3643579
219	0x3e0b1691	0.13582827
220	0x3d2bd3db	0.041950088
221	0x2e050245	3.0242715e-11
222	0x3e8d324c	0.27577436
223	0x3d6f2694	0.0583864
224	0x3b35a195	0.0027714719
225	0x3e595008	0.21221936
226	0x00000000	0.0
227	0x3ef7c974	0.48395884
228	0x35b1e64c	1.3254553e-06
229	0x3cf5012c	0.029907785
230	0x2e61a72e	5.1307562e-11
231	0x3b98ee07	0.004667047
232	0x00000000	0.0
233	0x2bb40f0c	1.2793946e-12
234	0x3f30e604	0.69100976
235	0x3e8b86d9	0.27251318
236	0x3da43207	0.080173545
237	0x2e054b62	3.0307652e-11
238	0x3f074220	0.52835274
239	0x3deca3c6	0.11554675
240	0x38899f29	6.562315e-05
241	0x3c9fed92	0.019522462
242	0x00000000	0.0
243	0x3d1b5988	0.03792718
244	0x3472dc08	2.2618053e-07
245	0x3a8d4f9d	0.0010781173
246	0x2f13a68b	1.342874e-10
247	0x395e4752	0.00021198139
248	0x00000000	0.0
249	0x2c43966e	2.7794672e-12
250	0x3d5cc4d6	0.053898655
251	0x3c848348	0.016175881
252	0x3bb6a21b	0.0055735237
253	0x2df80979	2.8198542e-11
254	0x3d1df2f2	0.03856177
255	0x3bdc1ca8	0.0067172833

exp_avg f4 [2, 16, 16]
0	0x3ec3a895	0.38214555
1	0x401fb8f7	2.4956644
2	0x00000000	0.0
3	0xc07fd9fa	-3.9976792
4	0x3c63f250	0.013912752
5	0x3f9f2c5b	1.2435411
6	0x37896f80	1.6383594e-05
7	0xbeca33a3	-0.3949252
8	0x00000000	0.0
9	0xb6c8450d	-5.968503e-06
10	0x40992ba5	4.7865777
11	0x40525143	3.2862098
12	0x3fd2c70d	1.6466995
13	0x37c84297	2.3872866e-05
14	0x40882d52	4.2555323
15	0x4005e3be	2.0920253
16	0x00000000	0.0
17	0x00000000	0.0
18	0x00000000	0.0
19	0x00000000	0.0
20	0x00000000	0.0
21	0x00000000	0.0
22	0x00000000	0.0
23	0x00000000	0.0
24	0x00000000	0.0
25	0x00000000	0.0
26	0x00000000	0.0
27	0x00000000	0.0
28	0x00000000	0.0
29	0x00000000	0.0
30	0x00000000	0.0
31	0x00000000	0.0
32	0x00000000	0.0
33	0x00000000	0.0
34	0x00000000	0.0
35	0x00000000	0.0
36	0x00000000	0.0
37	0x00000000	0.0
38	0x00000000	0.0
39	0x00000000	0.0
40	0x00000000	0.0
41	0x00000000	0.0
42	0x00000000	0.0
43	0x00000000	0.0
44	0x00000000	0.0
45	0x00000000	0.0
46	0x00000000	0.0
47	0x00000000	0.0
48	0x3e99288e	0.29913753
49	0x3ff5cd21	1.9203225
50	0x00000000	0.0
51	0xc045517d	-3.0830986
52	0x3c2de6e8	0.010614134
53	0x3f750453	0.95709723
54	0x374b0cb2	1.2102699e-05
55	0xbea3f647	-0.32023832
56	0x00000000	0.0
57	0xb69f4854	-4.7469894e-06
58	0x406c11b4	3.6885805
59	0x40224244	2.5352945
60	0x3fa3d760	1.2800102
61	0x37bcdf95	2.251546e-05
62	0x405279d2	3.2886853
63	0x3fd028e0	1.6262474
64	0x3ee00703	0.4375535
65	0x403884b8	2.8831005
66	0x00000000	0.0
67	0xc0939cf8	-4.612911
68	0x3c8434bb	0.016138425
69	0x3fb7dc38	1.436408
70	0x379ca934	1.867544e-05
71	0xbee31fb5	-0.44360128
72	0x00000000	0.0
73	0xb6f374b8	-7.255552e-06
74	0x40b0cf6b	5.5253196
75	0x4072a31b	3.7912052
76	0x3ff2386f	1.8923472
77	0x3817622b	3.609263e-05
78	0x409cf782	4.9052134
79	0x4019dc64	2.4040766
80	0x3c686007	0.014183051
81	0x3e00faf0	0.12595725
82	0x00000000	0.0
83	0xbe431d7f	-0.1905422
84	0x3acf2723	0.001580451
85	0x3d8006fa	0.06251331
86	0xb73ce0df	-1.125803e-05
87	0xbb3cc4c0	-0.0028803796
88	0x00000000	0.0
89	0x35f1d36a	1.8017429e-06
90	0x3e69a437	0.22816549
91	0x3e2195b5	0.15779765
92	0x3d8ec88b	0.06971844
93	0x3749d074	1.2029068e-05
94	0x3e4ce321	0.20008518
95	0x3db40446	0.087898776
96	0x3eb1aa95	0.34700456
97	0x401566f1	2.334408
98	0x00000000	0.0
99	0xc06e7731	-3.7260249
100	0x3c577044	0.013149325
101	0x3f94d089	1.162614
102	0x37844802	1.5769157e-05
103	0xbeac50a8	-0.33655286
104	0x00000000	0.0
105	0xb6c5b78f	-5.8924265e-06
106	0x408eea58	4.4661064
107	0x4043dc7b	3.060332
108	0x3fc1ccf7	1.5140675
109	0x380115fa	3.0776464e-05
110	0x407ced05	3.9519665
111	0x3ff63326	1.9234359
112	0x3d244167	0.040101435
113	0x3e8b63f5	0.272247
114	0x00000000	0.0
115	0xbedbf6a9	-0.42961624
116	0x3b3e4083	0.0029030151
117	0x3e0aca5f	0.13553761
118	0xb71d8087	-9.387854e-06
119	0xbd1cfc61	-0.038326625
120	0x00000000	0.0
121	0x35b1c63f	1.3245225e-06
122	0x3f03a3e0	0.5142193
123	0x3eb5c796	0.35503834
124	0x3e33f181	0.17572595
125	0x37904c30	1.7201615e-05
126	0x3eeb8c4d	0.46005479
127	0x3e63c888	0.22244465
128	0xb66ef31d	-3.5606274e-06
129	0xb7fb41e2	-2.995221e-05
130	0x00000000	0.0
131	0x38ae4e7c	8.3115854e-05
132	0xb629b46a	-2.5287977e-06
133	0xb77a186c	-1.4906847e-05
134	0xb486a6ba	-2.5080755e-07
135	0x366a7e6f	3.4942311e-06
136	0x00000000	0.0
137	0x34abf30b	3.202807e-07
138	0x3747b658	1.19037795e-05
139	0xb80c62e9	-3.347072e-05
140	0xb746ca77	-1.184886e-05
141	0xb6e71d3d	-6.8877403e-06
142	0xb84c771e	-4.8748327e-05
143	0xb817f34e	-3.62278e-05
144	0x3ed2b769	0.41155556
145	0x402e3bd7	2.7224023
146	0x00000000	0.0
147	0xc08b4f97	-4.3534656
148	0x3c7a153e	0.015263854
149	0x3fad9a64	1.3562741
150	0x37942e80	1.7664628e-05
151	0xbed3c1ba	-0.4135874
152	0x00000000	0.0
153	0xb6e68936	-6.8705076e-06
154	0x40a6e5ec	5.2155666
155	0x4064f9bf	3.5777433
156	0x3fe4301c	1.7827182
157	0x381015cf	3.4352586e-05
158	0x40941247	4.627231
159	0x4010f21e	2.2647777
160	0x3919725d	0.0001463382
161	0x3a85b8b0	0.0010202136
162	0x00000000	0.0
163	0xba83ba42	-0.0010050016
164	0x39c8f0b8	0.00038326322
165	0x3a059703	0.000509605
166	0xb5ad22bf	-1.2899617e-06
167	0xb91427ff	-0.0001412928
168	0x00000000	0.0
169	0x34605be2	2.0895052e-07
170	0x3af27ef6	0.0018500972
171	0x3a937a24	0.0011251611
172	0x3a2c53b3	0.00065737515
173	0x3529d6bd	6.326989e-07
174	0x3ae10250	0.0017166827
175	0x3a28f96d	0.0006445859
176	0x3ef66ab8	0.48128295
177	0x4046a656	3.1039023
178	0x00000000	0.0
179	0xc09f64c1	-4.981049
180	0x3c8c25a3	0.01710779
181	0x3fc5fd7f	1.5467986
182	0x37afb38e	2.0945237e-05
183	0xbf02c8ba	-0.51087534
184	0x00000000	0.0
185	0xb6ff9dda	-7.6179685e-06
186	0x40beb672	5.959771
187	0x40830ad3	4.0950713
188	0x40040f4f	2.0634344
189	0x380f92fc	3.4230747e-05
190	0x40a9e9e2	5.3098
191	0x4027c7be	2.6215663
192	0x3d2a929e	0.04164373
193	0x3eb3b6a3	0.35100278
194	0x00000000	0.0
195	0xbf0abf8f	-0.54198545
196	0x3b3fa32f	0.0029241552
197	0x3e329023	0.17437796
198	0xb65c5450	-3.283163e-06
199	0xbc81bc63	-0.0158369
200	0x00000000	0.0
201	0xb431db4a	-1.6564186e-07
202	0x3f282cf0	0.6569357
203	0x3ee40014	0.4453131
204	0x3e4d368e	0.20040342
205	0x37750050	1.4603211e-05
206	0x3f106b33	0.56413573
207	0x3e820013	0.25390682
208	0x3e87faa5	0.26558414
209	0x3fda8c57	1.7074078
210	0x00000000	0.0
211	0xc02f7cc1	-2.7419894
212	0x3c1978a7	0.009367145
213	0x3f59d0fe	0.8508452
214	0x373b4bce	1.1163718e-05
215	0xbe9198ba	-0.28436834
216	0x00000000	0.0
217	0xb68ab9fc	-4.134372e-06
218	0x4051e2e4	3.2794733
219	0x40104002	2.2539067
220	0x3f9199ce	1.1375062
221	0x37a8e5ff	2.0134261e-05
222	0x403b1d7c	2.9236746
223	0x3fb8fcfb	1.4452204
224	0x3ebe091d	0.37116328
225	0x4017abb4	2.369855
226	0x00000000	0.0
227	0xc073b168	-3.807703
228	0x3c553838	0.013013892
229	0x3f9731ad	1.1812035
230	0x377950d9	1.486038e-05
231	0xbecd9d12	-0.40158898
232	0x00000000	0.0
233	0xb6c29d33	-5.799951e-06
234	0x4091bc36	4.554225
235	0x4048688d	3.1313813
236	0x3fcad6d9	1.5846816
237	0x37e43e0c	2.720861e-05
238	0x40820d54	4.064127
239	0x4000dacd	2.0133545
240	0x3db61adb	0.08891841
241	0x3f20d743	0.62828463
242	0x00000000	0.0
243	0xbf7e9dec	-0.9945972
244	0x3b970ba8	0.004609544
245	0x3ea015c7	0.31266615
246	0x33915f0a	6.769376e-08
247	0xbd9c7d63	-0.07641103
248	0x00000000	0.0
249	0xb576168d	-9.1674957e-07
250	0x3f9924d0	1.1964359
251	0x3f513015	0.8171399
252	0x3ecadcdf	0.39621636
253	0x3758df24	1.2926557e-05
254	0x3f869160	1.0513115
255	0x3f00b64e	0.50278175
