results/Test_citation/version_48/checkpoints/epoch=9-step=10.ckpt (torch, 21137 bytes, 27 tensors)

simplicial_nn.0.W0 f4 [1, 16]
000000 14 c3 4c 3f 20 8c 5f be 48 e1 ee 3e a3 e7 40 3d
       0.79985166 -0.21830797 0.4665625 0.047095906
000010 b7 10 ce 3d 12 a6 25 bf 8c 73 17 3e 8f 91 51 3f
       0.10061782 -0.6470653 0.14790171 0.8186273
000020 f8 ee 9c be 3c 62 49 bf 30 49 00 be 49 6e ed be
       -0.3065107 -0.7866552 -0.12527919 -0.46373203
000030 f6 d9 0e bf 46 b2 2f 3f e1 d1 23 3e 6f 5a ff 3c
       -0.5580133 0.686314 0.15998031 0.031171052

simplicial_nn.0.W1 f4 [1, 16]
000000 4d 8b bd be 6a 64 fe 3e 9a 8d 1f bf bc 79 78 be
       -0.3702034 0.49685985 -0.6232544 -0.24265188
000010 e4 f3 00 3e 80 d1 c5 bc 2f 0c 2f 3f 8c 94 30 bf
       0.12593037 -0.024147749 0.68377966 -0.68976665
000020 34 6d 4a 3e 20 00 8c 3c d9 64 2b 3f a9 ef 10 bf
       0.1976822 0.017089903 0.66950756 -0.5661569
000030 52 f7 9f 3e bd 13 31 3f 46 8f 55 bf 7e ea a2 be
       0.31243378 0.69170743 -0.8342174 -0.31819528

simplicial_nn.0.W2 f4 [1, 16]
000000 a9 b4 21 bd f3 88 37 3f 3e 4f bb bd e9 9d c5 3e
       -0.03947893 0.7169334 -0.091459736 0.38597038
000010 40 a5 20 3f b2 4c e0 be 90 4c 56 be b7 6b 2a 3f
       0.6275215 -0.43808514 -0.20927644 0.6657061
000020 3a 04 b6 3e e2 3b d7 3e c3 27 cf be 50 7e 72 bd
       0.355501 0.42037874 -0.40460023 -0.059202492
000030 20 87 f1 bd fc b7 22 3f 8a 98 41 3f cc 4a 48 3f
       -0.11793351 0.6356199 0.7562338 0.7823913

simplicial_nn.2.W0 f4 [16, 16]
000000 02 47 19 be 06 19 b5 be d2 3e b4 be ae 8e b2 3e
       -0.14968494 -0.35370654 -0.35204178 0.3487448
000010 48 f1 16 bf c1 95 54 3e 90 89 f0 3e 6b 80 7d 3e
       -0.58961916 0.20760252 0.46979952 0.24756019
000020 40 a9 0a 3f 95 eb 18 3e fd e5 07 bf 4e 67 fd 3d
       0.54164505 0.14933617 -0.5308531 0.123732194
000030 f8 16 d3 be 55 04 f6 3e 8d 93 bd be 14 26 49 be
       -0.4122846 0.4805018 -0.37026635 -0.19643432
000040 d6 0c 70 be 19 bb 0d 3f a8 a4 83 bd 6c 7e 0f bf
       -0.23442397 0.55363613 -0.0642789 -0.5605228
000050 00 c0 72 b8 50 ab 86 bd 80 8b 0e bf a3 12 1c 3f
       -5.787611e-05 -0.06575644 -0.5568161 0.6096594
000060 f0 5d 20 bd b4 5c 9d 3e 9a 75 fa 3e 22 db 8f 3e
       -0.039152086 0.3073479 0.48917848 0.28096873
000070 54 db 35 3e 0a b6 a6 3e b8 60 e8 be 5f 70 05 bf
       0.17759448 0.3256076 -0.4538629 -0.5212459
000080 52 b4 00 bf 3a 39 e6 3d 85 fe 43 be 74 62 79 be
       -0.50275147 0.11241384 -0.1914006 -0.24353963
000090 64 80 f8 be 98 76 a5 bd db e3 ed 3e 0e 49 9f 3e
       -0.48535454 -0.080792606 0.46462902 0.31110424
0000a0 58 d6 b8 3e cc cb bd 3d b6 db 63 be 6f 62 fe 3e
       0.3610103 0.09267387 -0.22251782 0.49684474
0000b0 e8 d5 18 3e f9 6c 02 3f 76 33 e5 3e b9 06 68 be
       0.14925349 0.5094753 0.44765824 -0.22658814
0000c0 1b 00 0b 3f 4a d7 db be 20 5e 4b bd 60 4a 0a 3f
       0.54297036 -0.4293769 -0.04965031 0.5401974
0000d0 18 59 b5 be fa 47 cd 3e 76 92 f6 be 03 95 0e be
       -0.35419536 0.40093976 -0.48158616 -0.13924031
0000e0 44 f4 54 bd 4a 30 88 be f6 cc 04 bf e6 98 f0 3c
       -0.051990762 -0.26599342 -0.51875246 0.029369783
0000f0 fe 0e fd 3e a8 37 cd be cb dc 1a 3f 49 3a 14 3f
       0.494255 -0.40081525 0.60493153 0.57901436
000100 72 95 cd 3e 8c a6 05 3f dd 49 5b bc 3b 5f 4f be
       0.4015308 0.52207255 -0.01338431 -0.20251171
000110 88 78 ad be b2 c8 e4 be b9 c0 d5 3e 34 bb f7 be
       -0.3388102 -0.44684368 0.41748598 -0.48385012
000120 46 bd ad 3e e3 2d d1 3d e0 eb 89 be ba d1 15 3f
       0.33933467 0.1021383 -0.2693777 0.5852314
000130 5a 37 8e 3e f0 ba 1c 3f 96 99 ec 3e b3 d1 88 be
       0.27776605 0.61222744 0.46210927 -0.26722488
000140 a8 f4 15 3e 00 5a 35 be ab 81 14 3f 00 10 b7 b9
       0.1464411 -0.17710114 0.5801036 -0.000349164
000150 48 e9 ba bd fc f4 14 be 20 fe c8 3d ef 8c ad be
       -0.09126526 -0.14546579 0.098140955 -0.33896586
000160 5d c7 08 3f 75 df d6 be 0a e1 ff 3e 2e a1 00 bf
       0.53429204 -0.4196736 0.4997638 -0.5024594
000170 b8 ab 8e bd 40 9c 2d bd fe d3 dd 3e 40 78 70 3c
       -0.069663465 -0.04238534 0.433258 0.014677107
000180 e6 88 d7 3e 5b d0 69 be ad 9a a7 be 89 d3 07 3f
       0.42096633 -0.22833388 -0.32735196 0.5305715
000190 ca bc 8a 3e 62 15 da 3d 36 be 6d be 38 4e ba bd
       0.2709716 0.1064861 -0.23217091 -0.0909695
0001a0 23 5c 0c 3f c5 55 0f 3f 28 01 09 3e da b6 8a be
       0.5482809 0.5599025 0.13379347 -0.2709263
0001b0 3e be da 3e 24 6a 0e 3f f2 55 ac 3e ec 65 89 be
       0.42723268 0.5563071 0.3365932 -0.26835573
0001c0 76 de cf be 31 94 c6 3e 29 83 f9 3e 2e a9 54 3e
       -0.40599412 0.38784936 0.4873288 0.20767662
0001d0 08 b7 a9 3e a6 48 87 3e ff 7e 11 bf 77 9b c6 bd
       0.33147454 0.26422614 -0.56834406 -0.09697621
0001e0 26 dd 6c 3e 70 0b c1 3e f0 94 5e 3e 1f 67 4b 3e
       0.23131236 0.3770404 0.21736503 0.19863556
0001f0 c8 9d d1 bd d8 22 54 3e 17 35 9a be 34 4e cd 3e
       -0.102351725 0.20716417 -0.3011863 0.40098727
000200 8c f8 f8 be 50 11 b1 3d c0 4c 1f 3c 16 b6 cc 3e
       -0.48627126 0.0864588 0.0097228885 0.3998267
000210 83 f6 10 3f 2b d5 0f 3f cb 5e 96 be f8 85 3d 3e
       0.5662615 0.56184644 -0.29369196 0.18508136
000220 c0 30 2f 3e 3c 7c 54 3e 66 65 b3 3e df 5c c7 be
       0.1710844 0.20750517 0.35038298 -0.38938043
000230 86 d2 48 be 00 82 22 bb b4 c2 62 3e 98 0c 21 3e
       -0.19611558 -0.0024796724 0.22144586 0.1572746
000240 c2 3d e3 be 12 05 8b 3e 0a a8 1c bf d6 1a cf be
       -0.44383055 0.27152306 -0.6119391 -0.40450162
000250 a0 97 90 bc 0e de 13 be 80 ff 41 bd 16 5a c6 3e
       -0.017650425 -0.14440176 -0.047362804 0.38740605
000260 fb 26 8f be 96 33 b9 3e be e9 14 bf 88 28 bc be
       -0.27959427 0.3617217 -0.5816916 -0.36749673
000270 12 8f dd 3e cc d1 38 3e 80 da 26 3d 3a 88 7b be
       0.43273216 0.18048781 0.04073572 -0.24563685
000280 5e 7f 06 be 6b 56 f6 be f7 ac 00 bf 8f 39 34 bc
       -0.13134524 -0.48112807 -0.50263923 -0.011000051
000290 21 8c 12 bf 68 45 0c 3f 08 68 4c 3e 34 c6 60 3e
       -0.5724507 0.54793406 0.1996156 0.21950608
0002a0 1d b4 77 3d db 0d 34 3e c8 0a e6 3d 37 7c 80 3d
       0.060474504 0.1758341 0.11232525 0.06273692
0002b0 19 f2 a9 be 23 aa dc 3e a6 18 94 3e 53 0e 9e be
       -0.33192518 0.43098554 0.28925055 -0.30870304
0002c0 4a ae 1c bf 41 8c 06 bf 3c 8d 88 be d6 ce df 3e
       -0.61203444 -0.5255776 -0.26670253 0.4371249
0002d0 d8 8c 46 3e c0 13 41 bc 50 d3 1f bd ee 00 97 3e
       0.19389665 -0.011784494 -0.039019883 0.29492897
0002e0 c0 65 1c bd 2e 7f e1 3e d2 85 10 be 10 d7 1f 3d
       -0.038182974 0.44042343 -0.14113548 0.03902346
0002f0 f2 af bb 3e 00 77 b1 bc 90 ef 71 3d 55 0f 01 bf
       0.36657673 -0.021663189 0.059066355 -0.5041402
000300 1a a4 13 bf 6a a1 f3 3e 72 f1 d2 3e 8c 36 a3 be
       -0.57672274 0.47584087 0.41199833 -0.31877553
000310 66 c0 de be 6f 44 02 3f c0 c0 39 bc e2 0e 25 be
       -0.43506163 0.5088567 -0.011337459 -0.16118959
000320 12 e7 1f be 3e 43 87 be 90 54 83 3e 20 a1 fd 3c
       -0.1561549 -0.2641849 0.25650454 0.03096062
000330 66 f2 4b be 37 75 86 be 70 c4 2e bd 70 4c 52 be
       -0.19916686 -0.26261303 -0.042667806 -0.20536971
000340 fa 9e ea 3e db 77 84 3e 11 11 d1 3e 81 65 a9 3e
       0.45824414 0.25872692 0.40833333 0.33085254
000350 4d 3c 19 3f a8 43 b3 3e aa de 0d 3c 48 34 05 bd
       0.59857637 0.35012555 0.008659044 -0.032520562
000360 cf 8e a3 bd d7 e2 ea bd a2 a7 d4 be 36 fb f4 be
       -0.07986223 -0.114690475 -0.41534144 -0.4784791
000370 7c d4 7f be a0 4e 12 bf db 4a 84 be 41 d6 dc 3d
       -0.249834 -0.5715122 -0.2583836 0.10783053
000380 ad 9f 95 be ed 2a b2 3e 9a 79 35 3e fd ae 03 3f
       -0.29223385 0.34798375 0.17722169 0.51438886
000390 80 e2 9a bb b1 2a 4e 3e 9e 07 4a be 7a 0d b0 bd
       -0.004726708 0.20133473 -0.19729468 -0.085963205
0003a0 60 80 0d 3f a3 33 a5 3e f4 b6 5a 3e 5b 0a ad be
       0.5527401 0.32265958 0.21358854 -0.33796963
0003b0 40 8d 16 3d 20 1b 13 3f 86 c1 47 be 0c 58 62 be
       0.0367558 0.57463264 -0.19507417 -0.221039
0003c0 7e 9e 10 be f1 79 14 3e 49 e6 af 3e 03 a0 51 bd
       -0.1412296 0.14499642 0.3435538 -0.05117799
0003d0 78 9c d2 be 95 9f f0 3e 4a 83 5e 3e fe b1 d2 3b
       -0.41135 0.4699675 0.2172977 0.0064299097
0003e0 bf c0 11 3f d2 b2 de 3e 05 a1 fe be 3b 44 c0 be
       0.5693473 0.43495804 -0.49732223 -0.37552056
0003f0 e9 31 b0 be ec a5 1c 3f 65 cc 9f be ca 45 00 3f
       -0.34413078 0.61190677 -0.31210628 0.5010649

simplicial_nn.2.W1 f4 [16, 16]
000000 71 70 cf be 62 e2 a0 be a8 28 eb 3d a0 14 1c bd
       -0.40515473 -0.31422716 0.11482364 -0.038105607
000010 f1 46 09 3f d0 21 26 3d 4e 95 9a 3e da fb cf 3e
       0.53623873 0.04055959 0.30192035 0.40621835
000020 1c df 0a be e6 a6 f2 3e 54 bb ad 3e 1c 3a 80 3e
       -0.13561672 0.47392958 0.33931983 0.25044334
000030 99 57 91 be a8 c7 a3 bd 40 53 4d bc 70 96 9e be
       -0.28387144 -0.07997066 -0.012532055 -0.3097415
000040 28 72 d2 3d d3 01 eb be 64 b7 33 3e 69 77 8f be
       0.1027568 -0.4589983 0.17550427 -0.2802079
000050 05 6e 09 3f d4 5f a7 3e 6f b6 b0 be 90 db 8e 3e
       0.536835 0.326903 -0.34514186 0.27901888
000060 7a ff a7 3e a6 bd 1e be 1d 17 17 bf 9a 22 f4 3e
       0.328121 -0.15502033 -0.59019643 0.4768265
000070 e0 53 58 bd d0 44 51 3e f2 b4 e5 3e de cc d2 3e
       -0.052814364 0.20436406 0.44864613 0.41171926
000080 3b d6 8c be 92 22 5e be e0 5c 09 be c2 9a 92 3e
       -0.27507195 -0.21692875 -0.13414335 0.28633696
000090 e0 98 8d 3c 4e db d2 be d4 86 ea bd 80 8e 54 3d
       0.01728481 -0.4118294 -0.11451498 0.05189371
0000a0 16 c6 3b be 72 23 61 be b4 ca d3 be fa 9c df be
       -0.18337283 -0.21986178 -0.41365588 -0.4367445
0000b0 98 78 c8 bd 10 3e 5f 3e d0 4d 55 3e ce 2a a6 3e
       -0.097886264 0.21801019 0.20830464 0.32454532
0000c0 80 05 58 bc 8c d8 02 3e 88 5a 0e 3e 74 07 92 3e
       -0.013184905 0.12777919 0.13901722 0.2852131
0000d0 83 a0 1a bf c3 e0 b3 be ee 28 e5 be ec ba ff be
       -0.6040117 -0.35132417 -0.4475779 -0.49947298
0000e0 9a 8a f7 3e d0 37 8f be ae 45 b0 3e 40 d9 d0 bd
       0.48347932 -0.2797227 0.3442816 -0.10197687
0000f0 59 c2 13 bf 1f 06 a2 be dc 25 2e be a4 26 65 3e
       -0.57718426 -0.31645295 -0.1700663 0.22378021
000100 f2 bd ff be 80 8f 68 3c a8 36 72 be a6 f0 c9 3e
       -0.49949604 0.014194369 -0.23653662 0.39441413
000110 12 ee c9 be 68 d2 bf 3d 5d 62 12 bf 96 1b 75 be
       -0.39439446 0.09366304 -0.5718134 -0.23936304
000120 f2 cf 07 bf 78 10 56 3e 46 bd 66 be 5b c1 d7 be
       -0.53051674 0.2090472 -0.2253314 -0.42139706
000130 56 b1 9e be f6 d9 bc 3e 06 6d db be a7 37 17 3f
       -0.30994672 0.3688504 -0.42856616 0.59069294
000140 20 11 fe 3c f0 65 77 bd c2 04 f5 3e 67 90 0f 3f
       0.031014025 -0.06039995 0.47855192 0.56079715
000150 37 89 1b 3f c0 75 fc 3c 65 e7 0d 3f d5 a2 c0 be
       0.6075625 0.030817866 0.55431205 -0.3762423
000160 7e e6 04 bf 52 8d 84 3e 18 9e bd be b0 9d d4 bd
       -0.51914203 0.2588907 -0.37034678 -0.10381639
000170 43 3b 85 be 66 21 e4 be 98 6d b5 3e 5c 78 6e 3e
       -0.26021776 -0.4455673 0.35435176 0.23288101
000180 a9 44 1c 3f 00 08 17 bb 6e a4 ac 3e 9a b4 e1 3e
       0.6104227 -0.002304554 0.337192 0.440831
000190 5a d4 08 bf 8c 43 45 be 40 91 ba 3e 80 ac d1 3d
       -0.5344902 -0.19264048 0.36438942 0.1023798
0001a0 37 3b 17 bf 00 b8 65 bc 26 70 2c be 56 89 c7 be
       -0.5907473 -0.01402092 -0.16839656 -0.38971967
0001b0 a0 02 51 3d 60 59 2b 3d 18 5f 18 3e 94 ad a7 3e
       0.051027894 0.04183328 0.14880025 0.32749617
0001c0 c0 19 4c bd 38 14 c9 be f4 64 13 3e 18 35 9b 3d
       -0.049829245 -0.39273238 0.1439398 0.07578486
0001d0 68 99 82 3d 44 fa fe be 58 0f 43 3e 7e 4e 99 be
       0.06376916 -0.49800313 0.19048822 -0.29942697
0001e0 40 88 7f be 91 05 a0 be ee 64 37 be 5c 9c 98 be
       -0.24954319 -0.31254247 -0.17909595 -0.29806793
0001f0 d1 db 11 3f 00 94 1f 3d f1 bc 03 3f ae 19 a3 3e
       0.5697604 0.038959503 0.51460177 0.3185553
000200 5a 0f 3b be 13 d3 03 3f 40 76 d0 3c 30 de fe bd
       -0.18267575 0.5149395 0.025447011 -0.12444723
000210 5f 49 18 bf 80 1d 58 bd f4 d6 eb bd 20 c5 48 bd
       -0.59486955 -0.05276251 -0.115156084 -0.049016118
000220 a0 a6 0f bd c2 bc 98 be cc 8e 0d bf 42 c7 18 bf
       -0.035071015 -0.2983151 -0.55296016 -0.59679043
000230 a0 23 76 3d 76 c3 ea 3e e0 9e a1 3d 38 4e 60 3e
       0.06009257 0.4585225 0.07891631 0.21904838
000240 20 4e 71 3d 90 7a 03 3d b7 3a 9b be a4 bf 35 3e
       0.058912396 0.032099307 -0.30318233 0.17748886
000250 90 4e a5 be da 2b be 3e 82 47 c6 3e 04 b4 8e 3e
       -0.322865 0.3714283 0.3872643 0.27871716
000260 be 9c b9 be e6 13 6c be e6 72 01 be 86 67 05 bf
       -0.36252397 -0.23054466 -0.12641487 -0.5211109
000270 7c 72 d6 be 1e 93 a4 3e b6 53 8d 3e 51 7c 1b 3f
       -0.4188422 0.32143492 0.2760293 0.60736567
000280 7e db 95 3e 7a eb d1 3e 45 be 0c 3f 6f f9 bb be
       0.29269022 0.40999967 0.5497783 -0.3671374
000290 f1 6a eb be f0 92 a4 3e 76 9a fe 3e 58 8c 30 be
       -0.45980027 0.32143354 0.4972722 -0.17241037
0002a0 65 65 05 3f c0 56 ab 3d 91 e4 1a bf d4 8d 71 be
       0.5210784 0.083661556 -0.60505015 -0.2358926
0002b0 0a 8b f1 be b0 c5 15 3e 90 8e 5c bd a0 58 88 bd
       -0.4717639 0.14626193 -0.053846896 -0.06657529
0002c0 0b e5 8c be 8e 34 db 3e 86 3a dc 3e 10 15 92 3d
       -0.27518496 0.42813534 0.430134 0.071329236
0002d0 c0 77 ab 3c b1 6c b8 be 20 36 e7 be da 61 db 3e
       0.020931125 -0.36020425 -0.45158482 0.42848092
0002e0 e4 63 c3 3e 44 1f 11 bf c8 8f fc bd 00 a3 19 be
       0.38162148 -0.5668833 -0.123321116 -0.15003586
0002f0 52 a4 d9 3e a6 aa 92 3e f0 2c fe be 68 f0 67 3e
       0.4250818 0.2864582 -0.4964366 0.22650301
000300 28 6b 04 3e a6 7c cd 3e 7c 80 37 be 00 e9 92 bb
       0.12931502 0.40134162 -0.17920107 -0.004483342
000310 a6 3d 39 be c8 3a 85 bd 3c c2 b8 be ac 7f ac be
       -0.18089923 -0.06505352 -0.3608569 -0.33691156
000320 2e 9d d8 3e 38 1d c2 bd 58 12 8c 3d 50 60 83 3e
       0.4230742 -0.09478229 0.06839436 0.25659418
000330 fd c9 06 bf 3e bd cf 3e 51 98 10 3f d8 e2 da 3d
       -0.5265196 0.40574068 0.56482416 0.10687798
000340 07 cb 11 3f 05 be 19 bf 00 45 1b bd bb 1f c7 be
       0.5695042 -0.6005557 -0.0379076 -0.38891396
000350 08 21 dc 3d 7e 4c b0 3e ee 35 9c 3e b5 ad 16 3f
       0.10748488 0.3443336 0.30509895 0.58858806
000360 0d 62 01 bf dc a5 b9 3e 70 92 11 3d 40 10 d7 3d
       -0.5054024 0.36259353 0.035540044 0.10501146
000370 5d 9f b1 be 90 69 3a 3d 68 f2 87 3e 88 bd 89 3d
       -0.34691897 0.04551083 0.2655213 0.06725603
000380 0d 2d 82 be 98 6a 48 3e d0 70 e6 3d c2 b6 d0 3e
       -0.25424996 0.19571912 0.11251986 0.40764433
000390 00 06 2e bb c5 f9 90 be 88 07 98 be bc 20 33 3e
       -0.002655387 -0.2831556 -0.29693246 0.17492956
0003a0 83 78 00 bf d7 a7 82 be f0 a4 77 bd 0e 4a e2 3e
       -0.50183886 -0.25518677 -0.06046003 0.44197124
0003b0 48 9f 92 bd c8 46 85 be 43 d1 0b bf c0 06 59 3e
       -0.07159287 -0.26030564 -0.54616183 0.21193981
0003c0 39 45 bb be 5c 24 3e 3e 7e 63 df 3e 1d 91 1c bf
       -0.3657625 0.18568558 0.43630594 -0.61158925
0003d0 ed 23 04 3f 96 c7 13 be fc c2 05 bf c0 c7 fa bc
       0.5161732 -0.14431605 -0.5225065 -0.030612826
0003e0 59 db ce be c8 a8 a1 be 56 77 4a be 18 17 14 bf
       -0.40401724 -0.31574082 -0.19772086 -0.5784774
0003f0 74 73 3e be 2e d9 de 3e 76 bc ad 3e 00 9a fc 3b
       -0.1859873 0.4352507 0.33932847 0.007708788

simplicial_nn.2.W2 f4 [16, 16]
000000 51 e6 ba be 79 3e 22 be 8b 20 09 3f 4f d8 17 bf
       -0.36503842 -0.15844144 0.5356528 -0.59314436
000010 a4 ed 95 3e 05 2c 02 3e 3c 5b 57 3e 45 f8 a6 3e
       0.29282868 0.12712105 0.21030897 0.3261129
000020 70 10 85 3d 75 0c 9d bd 5a e8 ca be 1d 78 c1 3e
       0.06497276 -0.076683916 -0.39630395 0.37786952
000030 a0 44 13 bd 4f 42 ba be 59 4b 0a 3f 84 c2 0a bf
       -0.035954118 -0.36378714 0.5402122 -0.5420306
000040 e0 57 83 3d 6e d5 a0 3e f4 d8 94 be 1b 5b e9 be
       0.06413245 0.31412834 -0.29071772 -0.4557732
000050 60 c3 b5 bd a7 88 17 3f 58 58 ec 3d 7d d0 10 bf
       -0.088751554 0.5919289 0.11540288 -0.5656813
000060 12 3f dd 3e e0 cf f4 3c 73 8d ae be 50 e3 78 3d
       0.4321218 0.029884279 -0.34092292 0.060763657
000070 40 24 8e 3d 4f f1 0a bf f2 20 fd 3e d8 61 98 3d
       0.06940508 -0.5427446 0.49439198 0.07440537
000080 52 45 f2 3e 87 b8 ee be 7c 5c b3 3a 47 a7 2c 3e
       0.47318512 -0.46625158 0.0013684179 0.16860686
000090 33 26 83 be b6 72 b1 3e 56 2f 10 3f 6e 67 ff 3e
       -0.2561508 0.3465783 0.5632223 0.49883598
0000a0 0d 46 ea be 9b a1 ce be ee 2f cc be 50 27 ce 3e
       -0.4575657 -0.4035767 -0.39880317 0.40264368
0000b0 26 3c ae 3e c8 e0 5c 3e 5c 2f c3 3e da 07 64 3d
       0.34030265 0.21570122 0.3812207 0.05567155
0000c0 18 1c 81 3e 1b 9f 29 be 42 7a d9 3d e0 a0 f2 be
       0.25216746 -0.165646 0.10619022 -0.47388363
0000d0 90 a0 5e 3d b0 8b 05 3f 61 ca 6e 3e 27 7a 99 3d
       0.054352343 0.5216627 0.23319389 0.07494002
0000e0 e3 48 a3 3d 7d d9 15 3f c2 09 f7 3e 41 60 e6 3e
       0.079728864 0.58534986 0.48249632 0.4499531
0000f0 40 ad 75 3e b2 68 39 3e 90 e4 f2 bd 50 df f6 3c
       0.23991871 0.18106344 -0.11860001 0.03013578
000100 b2 98 d2 3e 19 62 f1 3e ae 74 da 3e 44 d7 b4 3e
       0.41132122 0.47145155 0.42667145 0.35320485
000110 10 3f a3 3e 08 12 66 3c 38 76 33 3e 97 da 94 be
       0.3188405 0.014042385 0.17525566 -0.2907302
000120 a9 e0 11 3e 54 b5 30 be 8e 61 ef be 3b 07 dc bd
       0.14245857 -0.17256671 -0.46754116 -0.107435666
000130 30 06 c5 3d 5e 02 ed 3d 78 fc dd bd ae 67 3a be
       0.09620321 0.11572717 -0.1083917 -0.18203613
000140 40 e7 1a 3e 45 a2 12 bf 7c 99 22 3e d1 9b b7 be
       0.15127277 -0.57278854 0.15878862 -0.35861066
000150 ec 0c a3 be 60 a6 64 3e b6 ef 88 be 70 e3 f0 bd
       -0.31845796 0.22329092 -0.26745385 -0.1176213
000160 6e c8 81 be f2 e0 13 bf 00 31 00 3e 06 05 95 be
       -0.25348228 -0.57765114 0.12518692 -0.29105395
000170 48 3d c4 3d ac 51 02 bf 72 59 f8 3e 40 81 92 3e
       0.09582001 -0.5090587 0.4850574 0.28614235
000180 c2 c4 d5 3e 7c 34 12 bf 85 55 61 be a4 6c a7 be
       0.41751677 -0.57111335 -0.2200528 -0.32700074
000190 e4 b3 5c 3e 0c e0 c3 3e ef f8 83 bd c1 e9 11 3d
       0.21552998 0.38256872 -0.06443965 0.035623316
0001a0 46 b9 10 3f b2 cb 5c be 00 40 10 bc 5d f0 07 bf
       0.56532705 -0.21562079 -0.008804321 -0.5310114
0001b0 08 cd d8 bd 60 04 2d bd 90 41 9a bd 28 02 ec 3e
       -0.105859816 -0.0422405 -0.07532036 0.46095395
0001c0 d3 df 0e 3f 47 5d 10 bf 98 b9 d5 bc 10 dd 14 3f
       0.5581028 -0.5639233 -0.026089475 0.58149815
0001d0 60 a0 06 bd e4 7f bf 3e 27 b1 13 3e f1 7f 01 3f
       -0.03286779 0.3740226 0.14423047 0.5058585
0001e0 e2 74 c3 be 08 5f df 3e f2 81 cd 3e b3 66 fe be
       -0.38175112 0.4362719 0.40138203 -0.49687728
0001f0 a7 9a 14 3f 44 43 8a be 1e 07 bf be d6 3a 1d bf
       0.5804848 -0.27004445 -0.37310117 -0.614179
000200 9b 4a 0d 3f fc 3c 59 3e 5c 02 12 3e 36 96 a4 be
       0.55191964 0.2121467 0.14258713 -0.32145852
000210 b2 41 31 be f8 8a 64 3e 53 dc 12 3f 80 26 88 bb
       -0.17310217 0.22318637 0.5736744 -0.00415498
000220 49 f1 b1 be 2e d6 ee 3e 8d e2 09 3f 54 fe 76 3e
       -0.34754398 0.4664778 0.53861314 0.24120456
000230 76 4b be 3e 48 b1 4b 3e be 53 d1 3e 49 50 07 3f
       0.37166947 0.19891846 0.40884203 0.5285688
000240 de 65 67 be cf 1e 00 bf 97 1c 05 bf 5e 87 10 bf
       -0.22597453 -0.5004701 -0.5199675 -0.56456554
000250 7c 2b 82 3e f8 7c 4e 3e f8 84 3d be e5 f0 e2 be
       0.254238 0.2016486 -0.18507755 -0.44324413
000260 b8 90 88 3d 3c 48 53 be 2c 07 49 be 11 3f 1b bf
       0.06668228 -0.20633024 -0.19631642 -0.60643107
000270 72 67 db 3e ae d9 c2 3e 00 86 5e bd 8d 4d 01 bf
       0.4285236 0.380567 -0.05432701 -0.5050896
000280 d4 9e a1 3e ed 62 17 3f 15 ab 3e bd c4 16 12 bf
       0.3156649 0.59135324 -0.046549875 -0.5706599
000290 40 6f 76 3d 8d 01 00 3f b2 e7 e0 bd 14 ba 72 be
       0.06016469 0.50002366 -0.109816924 -0.23703796
0002a0 6c b6 04 bf ff 69 5f 3d a0 7e d1 be 7e e7 0e 3d
       -0.51840854 0.054544445 -0.4091692 0.034888737
0002b0 f0 94 87 3d 0d b7 13 be d4 18 79 3e fc 0c 28 3d
       0.066202044 -0.14425297 0.24325877 0.041028008
0002c0 9d 87 0d 3f 20 58 99 3e 0c d4 2c be 26 35 f8 3e
       0.55285054 0.29950047 -0.16877764 0.4847805
0002d0 e8 4c be 3d 00 4a d6 3d 96 d4 0c be c5 40 04 3f
       0.092920125 0.10463333 -0.1375297 0.5166133
0002e0 d2 a2 fe be 9d d3 02 3f 25 b9 bf be b2 9b 02 bf
       -0.49733597 0.51104146 -0.37445942 -0.5101882
0002f0 b6 71 a4 3e 0c ce 88 3e c0 a3 4f bc 0d 4a b1 be
       0.32118005 0.267197 -0.012673318 -0.3462681
000300 92 9c c6 3e 15 d2 02 bf 25 f4 05 3f 60 8f 24 be
       0.3879133 -0.5110181 0.5232566 -0.16070318
000310 f2 bb d2 3e 5c c9 9c 3e 12 f3 1d be a1 df 15 3f
       0.41159016 0.30622375 -0.15424755 0.58544356
000320 82 0f b9 be d6 d7 01 bf 6e 7a 02 bf f9 31 14 bf
       -0.36144644 -0.50719965 -0.5096806 -0.5788875
000330 90 b2 bb be c0 85 03 3e 63 f8 05 3f 80 43 49 bc
       -0.3665967 0.1284399 0.52332133 -0.01228416
000340 08 d4 e2 bd 7f a4 eb be ae fc f1 bd af 46 00 3f
       -0.11075598 -0.46023938 -0.11815773 0.50107855
000350 ee 33 c4 3e 99 23 fc 3e 64 3e 97 3a e6 3a 06 bf
       0.3832087 0.4924591 0.001153898 -0.5243362
000360 b6 ba 87 3e 30 aa 67 be 74 1e 91 3e b5 fc fb 3e
       0.26509637 -0.22623515 0.28343546 0.49216238
000370 18 fb 94 bd 9e 3c 8c bd 18 66 06 3e 1b bc b6 3e
       -0.07274455 -0.06847499 0.13124883 0.35690388
000380 01 17 1b bf 43 06 1d 3e 5f 9f e7 3e 77 eb f4 3e
       -0.60581976 0.1533442 0.45238778 0.47835895
000390 60 44 70 3e 33 a3 0d 3f 7f 8b 0c 3f 83 f9 b2 bc
       0.23463583 0.5532715 0.54900354 -0.021847492
0003a0 3b 0b d7 3e 57 13 bf 3e 87 f3 0a 3f bb 07 54 3e
       0.42000756 0.37319443 0.54277843 0.20706074
0003b0 78 5a 49 3e dd d2 68 3e ac be 82 3e 2f fb 84 be
       0.19663417 0.22736688 0.25536096 -0.25972888
0003c0 0c 03 9b 3e 9d 37 5c 3e 84 57 e6 3e 24 79 67 3e
       0.30275762 0.2150559 0.44988644 0.22604805
0003d0 e2 36 1b bf 75 f5 56 be 25 07 7f be f1 e1 e7 bd
       -0.6063062 -0.20992072 -0.24905069 -0.11322392
0003e0 4d 60 df be 3d e7 ac bd 50 13 39 bd 8d 3e d8 3d
       -0.4362816 -0.08442543 -0.045184433 0.105588056
0003f0 90 7e b5 bd 0f 4d 06 3e d2 7a d4 3e 6c 35 9e 3e
       -0.088620305 0.13115333 0.41499954 0.30900133

simplicial_nn.4.W0 f4 [16, 1]
000000 d4 d0 44 bf ea d2 21 3f 67 f4 2d 3d c0 b1 22 3f
       -0.76881146 0.63212454 0.04246941 0.63552475
000010 c0 d5 0c bc 78 0b 38 3f 2d 99 be bb 8d 06 d4 3e
       -0.008595884 0.718925 -0.0058166 0.41411248
000020 93 16 33 bf 49 2a 1d bf 1a 80 e7 3e aa 78 30 3f
       -0.6995632 -0.6139265 0.4521492 0.6893412
000030 0c d0 79 3e f8 0f ce 3e 86 2e e9 3e c0 0a 38 bf
       0.2439577 0.40246558 0.45543307 -0.71891403

simplicial_nn.4.W1 f4 [16, 1]
000000 80 62 49 bc 41 9a 35 3f cc d9 55 3e a5 f7 2e bf
       -0.012291551 0.709385 0.20883864 -0.68346626
000010 ad 94 d9 be a9 13 c6 be 6f e9 4e bf 55 83 2a 3f
       -0.42496243 -0.38686875 -0.8082494 0.66606647
000020 8f 3c 3f bf 30 55 00 bd 90 f7 35 bf 98 c6 a2 3d
       -0.7470178 -0.03133124 -0.71080875 0.07948035
000030 92 f0 f7 be 5d 6c 45 bf ef 8e 55 3f 18 18 44 be
       -0.48425728 -0.77118474 0.83421224 -0.19149816

simplicial_nn.4.W2 f4 [16, 1]
000000 d3 6f 1e 3f f7 46 cf 3d 0c 2f 0e bf 56 65 1c be
       0.6188938 0.10120957 -0.5554054 -0.15273032
000010 d1 86 09 3f ad 02 73 bd 45 3f 01 3c 23 45 17 3e
       0.5372134 -0.059328724 0.00788862 0.14772467
000020 a1 58 67 3e 3f 52 09 3f 39 a3 27 3f ed 6c f9 3e
       0.22592403 0.5364112 0.65483433 0.48715916
000030 f7 5b 54 3f 54 52 20 3f 90 ef 3d bd 26 fd 43 bf
       0.8295283 0.6262562 -0.046371043 -0.7655815

exp_avg f4 [1, 16]
000000 4d a3 94 bf 00 00 00 00 d0 52 2a c0 47 9c 25 3f
       -1.1612335 0.0 -2.6613045 0.64691585
000010 55 2a c2 bf 00 00 00 00 40 f6 12 40 92 e3 d3 be
       -1.5169169 0.0 2.29628 -0.4138456
000020 00 00 00 00 00 00 00 00 cb 22 d0 3c 00 00 00 00
       0.0 0.0 0.025407216 0.0
000030 00 00 00 00 0a 49 1b bf 70 e2 ce bf 91 63 84 40
       0.0 -0.60658324 -1.6162853 4.137154

exp_avg_sq f4 [1, 16]
000000 f2 ef f3 3c 00 00 00 00 98 ff 24 3e ee f1 38 3c
       0.0297775 0.0 0.16113126 0.011288149
000010 04 78 53 3d 00 00 00 00 89 14 03 3e cd d1 76 3b
       0.051628128 0.0 0.12800802 0.0037661672
000020 00 00 00 00 00 00 00 00 8a dd 84 37 00 00 00 00
       0.0 0.0 1.5838788e-05 0.0
000030 00 00 00 00 54 a9 02 3c 6d f5 6e 3d ae bb d5 3e
       0.0 0.007974941 0.058339525 0.4174475

exp_avg f4 [1, 16]
000000 00 00 00 00 00 00 00 00 00 00 00 00 00 00 00 00
       0.0 0.0 0.0 0.0
000010 00 00 00 00 00 00 00 00 00 00 00 00 00 00 00 00
       0.0 0.0 0.0 0.0
000020 00 00 00 00 00 00 00 00 00 00 00 00 00 00 00 00
       0.0 0.0 0.0 0.0
000030 00 00 00 00 00 00 00 00 00 00 00 00 00 00 00 00
       0.0 0.0 0.0 0.0

exp_avg_sq f4 [1, 16]
000000 00 00 00 00 00 00 00 00 00 00 00 00 00 00 00 00
       0.0 0.0 0.0 0.0
000010 00 00 00 00 00 00 00 00 00 00 00 00 00 00 00 00
       0.0 0.0 0.0 0.0
000020 00 00 00 00 00 00 00 00 00 00 00 00 00 00 00 00
       0.0 0.0 0.0 0.0
000030 00 00 00 00 00 00 00 00 00 00 00 00 00 00 00 00
       0.0 0.0 0.0 0.0

exp_avg f4 [1, 16]
000000 3a 08 d9 bc 00 00 00 00 a8 bd 4d bd 4e 02 0a 3c
       -0.02649318 0.0 -0.0502297 0.008423401
000010 90 3d 82 bc 00 00 00 00 84 67 ea 3c dc 34 82 bc
       -0.015898496 0.0 0.028613813 -0.015894346
000020 00 00 00 00 00 00 00 00 10 09 45 bc 00 00 00 00
       0.0 0.0 -0.012026086 0.0
000030 00 00 00 00 c5 f9 0e 3c 9e bc 81 bc 39 29 d1 3d
       0.0 0.008726542 -0.01583701 0.10212941

exp_avg_sq f4 [1, 16]
000000 fb 4d 8a 37 00 00 00 00 9c 27 7e 38 04 26 f7 35
       1.6487194e-05 0.0 6.059521e-05 1.8413998e-06
000010 c3 bd c6 36 00 00 00 00 ac 94 ae 37 4e 86 c2 36
       5.922951e-06 0.0 2.0811647e-05 5.7972857e-06
000020 00 00 00 00 00 00 00 00 fb 51 6b 36 00 00 00 00
       0.0 0.0 3.5065448e-06 0.0
000030 00 00 00 00 7f 5b 10 36 82 59 d3 36 d3 83 7f 39
       0.0 2.151093e-06 6.29871e-06 0.00024367803

exp_avg f4 [16, 16]
000000 00 00 00 00 15 89 6b c0 4d 9c 3a be 7a 0b 6c c0
       0.0 -3.6802418 -0.18223687 -3.6882005
000010 00 00 00 00 01 c6 85 c0 ee 76 78 3d c2 ef 19 c0
       0.0 -4.1804204 0.060660295 -2.4052587
000020 ae b7 83 40 2a 7a 66 40 00 00 00 00 c1 42 81 c0
       4.116172 3.6012063 0.0 -4.0393987
000030 00 00 00 00 ef db 16 c0 00 00 00 00 ef ab 88 40
       0.0 -2.3571737 0.0 4.270988
000040 00 00 00 00 00 00 00 00 00 00 00 00 00 00 00 00
       0.0 0.0 0.0 0.0
000050 00 00 00 00 00 00 00 00 00 00 00 00 00 00 00 00
       0.0 0.0 0.0 0.0
000060 00 00 00 00 00 00 00 00 00 00 00 00 00 00 00 00
       0.0 0.0 0.0 0.0
000070 00 00 00 00 00 00 00 00 00 00 00 00 00 00 00 00
       0.0 0.0 0.0 0.0
000080 00 00 00 00 3d a9 08 c0 a0 d5 d8 bd 20 f8 08 c0
       0.0 -2.1353295 -0.10587621 -2.1401443
000090 00 00 00 00 da 3d 1b c0 31 10 10 3d 34 a0 b2 bf
       0.0 -2.4256501 0.03517169 -1.395514
0000a0 df de 18 40 5d c5 05 40 00 00 00 00 5b fd 15 c0
       2.388603 2.090171 0.0 -2.3435886
0000b0 00 00 00 00 15 fa ae bf 00 00 00 00 4c 8b 1e 40
       0.0 -1.3670069 0.0 2.477252
0000c0 00 00 00 00 f7 a7 81 be 89 69 43 bc 06 9c 81 be
       0.0 -0.2532346 -0.011927017 -0.2531435
0000d0 00 00 00 00 05 16 93 be d1 ca 8a 3b ad a7 29 be
       0.0 -0.28727737 0.0042356034 -0.1656787
0000e0 28 9b 90 3e 91 0c 7c 3e 00 00 00 00 1b 96 8e be
       0.28243375 0.24614169 0.0 -0.27848896
0000f0 00 00 00 00 fe b2 27 be 00 00 00 00 35 80 97 3e
       0.0 -0.16376874 0.0 0.29590002
000100 00 00 00 00 73 e1 ee be 90 41 b6 bc 56 d2 ee be
       0.0 -0.4665638 -0.02224806 -0.4664485
000110 00 00 00 00 1d 80 07 bf 0c 54 fa 3b f9 4e 9c be
       0.0 -0.5292986 0.0076394137 -0.30529
000120 26 24 05 3f 53 17 e8 3e 00 00 00 00 f4 53 03 bf
       0.52008283 0.45330295 0.0 -0.5129998
000130 00 00 00 00 c5 74 9a be 00 00 00 00 5d 70 0b 3f
       0.0 -0.30167213 0.0 0.5446833
000140 00 00 00 00 00 00 00 00 00 00 00 00 00 00 00 00
       0.0 0.0 0.0 0.0
000150 00 00 00 00 00 00 00 00 00 00 00 00 00 00 00 00
       0.0 0.0 0.0 0.0
000160 00 00 00 00 00 00 00 00 00 00 00 00 00 00 00 00
       0.0 0.0 0.0 0.0
000170 00 00 00 00 00 00 00 00 00 00 00 00 00 00 00 00
       0.0 0.0 0.0 0.0
000180 00 00 00 00 9d dc 32 bf 7f a4 0e bd e0 62 33 bf
       0.0 -0.6986788 -0.034824844 -0.70072746
000190 00 00 00 00 7a 40 4b bf 8d d8 3d 3c 66 b2 e9 be
       0.0 -0.7939526 0.011587274 -0.4564392
0001a0 a8 5c 48 3f f5 94 2f 3f 00 00 00 00 69 3b 44 bf
       0.7826638 0.68586665 0.0 -0.7665315
0001b0 00 00 00 00 6a 2a e4 be 00 00 00 00 c9 0e 4f 3f
       0.0 -0.4456361 0.0 0.80881935
0001c0 00 00 00 00 47 ba 72 c0 84 2a 3f be aa 20 73 c0
       0.0 -3.7926195 -0.18668562 -3.7988687
0001d0 00 00 00 00 8b d2 89 c0 ca 05 80 3d e6 ac 1e c0
       0.0 -4.306951 0.06251104 -2.479303
0001e0 60 9d 87 40 fa 09 6d 40 00 00 00 00 64 3f 85 c0
       4.237961 3.703734 0.0 -4.163988
0001f0 00 00 00 00 4c e4 1b c0 00 00 00 00 65 18 8d 40
       0.0 -2.4358091 0.0 4.409228
000200 00 00 00 00 00 00 00 00 00 00 00 00 00 00 00 00
       0.0 0.0 0.0 0.0
000210 00 00 00 00 00 00 00 00 00 00 00 00 00 00 00 00
       0.0 0.0 0.0 0.0
000220 00 00 00 00 00 00 00 00 00 00 00 00 00 00 00 00
       0.0 0.0 0.0 0.0
000230 00 00 00 00 00 00 00 00 00 00 00 00 00 00 00 00
       0.0 0.0 0.0 0.0
000240 00 00 00 00 00 00 00 00 00 00 00 00 00 00 00 00
       0.0 0.0 0.0 0.0
000250 00 00 00 00 00 00 00 00 00 00 00 00 00 00 00 00
       0.0 0.0 0.0 0.0
000260 00 00 00 00 00 00 00 00 00 00 00 00 00 00 00 00
       0.0 0.0 0.0 0.0
000270 00 00 00 00 00 00 00 00 00 00 00 00 00 00 00 00
       0.0 0.0 0.0 0.0
000280 00 00 00 00 da ba 61 36 00 00 00 00 d2 71 76 b7
       0.0 3.3636375e-06 0.0 -1.46892435e-05
000290 00 00 00 00 a7 97 71 b5 a6 d8 45 32 39 81 5a 37
       0.0 -9.000018e-07 1.1516169e-08 1.30239e-05
0002a0 4d 06 1c 3a 4a 08 94 3a 00 00 00 00 e0 b8 dc 36
       0.00059518666 0.0011293974 0.0 6.578033e-06
0002b0 00 00 00 00 5c 56 84 3a 00 00 00 00 ab 23 9a ba
       0.0 0.0010096538 0.0 -0.0011759897
0002c0 00 00 00 00 00 00 00 00 00 00 00 00 00 00 00 00
       0.0 0.0 0.0 0.0
0002d0 00 00 00 00 00 00 00 00 00 00 00 00 00 00 00 00
       0.0 0.0 0.0 0.0
0002e0 00 00 00 00 00 00 00 00 00 00 00 00 00 00 00 00
       0.0 0.0 0.0 0.0
0002f0 00 00 00 00 00 00 00 00 00 00 00 00 00 00 00 00
       0.0 0.0 0.0 0.0
000300 00 00 00 00 00 00 00 00 00 00 00 00 00 00 00 00
       0.0 0.0 0.0 0.0
000310 00 00 00 00 00 00 00 00 00 00 00 00 00 00 00 00
       0.0 0.0 0.0 0.0
000320 00 00 00 00 00 00 00 00 00 00 00 00 00 00 00 00
       0.0 0.0 0.0 0.0
000330 00 00 00 00 00 00 00 00 00 00 00 00 00 00 00 00
       0.0 0.0 0.0 0.0
000340 00 00 00 00 6e 73 4b c0 26 1b 20 be 75 c5 4b c0
       0.0 -3.1789203 -0.15635356 -3.1839268
000350 00 00 00 00 85 08 67 c0 90 92 56 3d 29 01 05 c0
       0.0 -3.609895 0.052385867 -2.0781958
000360 33 4f 63 40 c9 9f 46 40 00 00 00 00 ec 61 5f c0
       3.551709 3.1035025 0.0 -3.4903517
000370 00 00 00 00 c6 b7 02 c0 00 00 00 00 51 96 6c 40
       0.0 -2.0424666 0.0 3.6966746
000380 00 00 00 00 fd ee 3e bf 56 a1 12 bd 1e eb 3e bf
       0.0 -0.7458342 -0.035798393 -0.7457751
000390 00 00 00 00 36 a1 58 bf 75 9e 48 3c 2f d8 f9 be
       0.0 -0.8462099 0.01224481 -0.48797747
0003a0 a0 e4 54 3f c9 99 39 3f 00 00 00 00 e3 e3 51 bf
       0.83161354 0.7250028 0.0 -0.8198835
0003b0 00 00 00 00 3a c3 f6 be 00 00 00 00 43 d6 5e 3f
       0.0 -0.4819582 0.0 0.8704569
0003c0 00 00 00 00 f8 b8 5e be fd 2e 21 bc b5 74 5e be
       0.0 -0.21750247 -0.009837863 -0.21724208
0003d0 00 00 00 00 42 89 7c be f7 57 6e 3b 03 c6 11 be
       0.0 -0.24661735 0.003636835 -0.14235692
0003e0 c3 2a 78 3e c0 07 58 3e 00 00 00 00 94 35 75 be
       0.24235062 0.21096706 0.0 -0.2394622
0003f0 00 00 00 00 e6 71 10 be 00 00 00 00 96 5d 82 3e
       0.0 -0.14105949 0.0 0.25462025

exp_avg_sq f4 [16, 16]
000000 00 00 00 00 fc 4b a1 3e f8 e1 40 3a 42 f0 a1 3e
       0.0 0.31503284 0.0007357891 0.31628615
000010 00 00 00 00 58 1f d0 3e 64 2c df 38 01 97 09 3e
       0.0 0.40648913 0.00010641737 0.1343651
000020 0b b7 ca 3e 63 2b 9b 3e 00 00 00 00 27 5d c2 3e
       0.39592776 0.3030654 0.0 0.37961695
000030 00 00 00 00 cf 3f 04 3e 00 00 00 00 9b 64 da 3e
       0.0 0.12914966 0.0 0.4265488
000040 00 00 00 00 00 00 00 00 00 00 00 00 00 00 00 00
       0.0 0.0 0.0 0.0
000050 00 00 00 00 00 00 00 00 00 00 00 00 00 00 00 00
       0.0 0.0 0.0 0.0
000060 00 00 00 00 00 00 00 00 00 00 00 00 00 00 00 00
       0.0 0.0 0.0 0.0
000070 00 00 00 00 00 00 00 00 00 00 00 00 00 00 00 00
       0.0 0.0 0.0 0.0
000080 00 00 00 00 54 de d8 3d f1 1a 82 39 6c c4 d9 3d
       0.0 0.10589281 0.00024815605 0.106331676
000090 00 00 00 00 34 ec 0b 3e a1 9e 15 38 44 fa 38 3d
       0.0 0.13664323 3.5672103e-05 0.045160547
0000a0 57 4f 08 3e 08 c2 d0 3d 00 00 00 00 23 a5 02 3e
       0.13311516 0.101932585 0.0 0.12758307
0000b0 00 00 00 00 d4 a4 31 3d 00 00 00 00 1a b6 12 3e
       0.0 0.043370083 0.0 0.14327279
0000c0 00 00 00 00 02 1f cb 3a dd 89 57 36 7d e6 ca 3a
       0.0 0.0015496912 3.2117744e-06 0.0015480068
0000d0 00 00 00 00 f8 b8 02 3b 58 e6 14 35 0c a0 2d 3a
       0.0 0.0019946676 5.546949e-07 0.0006623275
0000e0 45 19 fe 3a 7b f9 c0 3a 00 00 00 00 ed d7 f5 3a
       0.0019386193 0.0014722788 0.0 0.0018756367
0000f0 00 00 00 00 96 d2 29 3a 00 00 00 00 66 9b 0b 3b
       0.0 0.0006478218 0.0 0.0021302341
000100 00 00 00 00 6a 50 a4 3b 03 6e 36 37 61 2f a4 3b
       0.0 0.005014469 1.0873659e-05 0.005010531
000110 00 00 00 00 09 7f d3 3b b9 e7 de 35 50 8b 0c 3b
       0.0 0.0064543528 1.6607729e-06 0.0021445341
000120 b4 0c cd 3b 2a c2 9b 3b 00 00 00 00 c2 c4 c6 3b
       0.006257618 0.004753371 0.0 0.006065936
000130 00 00 00 00 cf 58 09 3b 00 00 00 00 51 1b e1 3b
       0.0 0.0020957475 0.0 0.0068697114
000140 00 00 00 00 00 00 00 00 00 00 00 00 00 00 00 00
       0.0 0.0 0.0 0.0
000150 00 00 00 00 00 00 00 00 00 00 00 00 00 00 00 00
       0.0 0.0 0.0 0.0
000160 00 00 00 00 00 00 00 00 00 00 00 00 00 00 00 00
       0.0 0.0 0.0 0.0
000170 00 00 00 00 00 00 00 00 00 00 00 00 00 00 00 00
       0.0 0.0 0.0 0.0
000180 00 00 00 00 37 58 3c 3c 42 2c e3 37 c3 55 3d 3c
       0.0 0.011495641 2.7081118e-05 0.011556092
000190 00 00 00 00 65 28 73 3c 41 11 85 36 f1 77 a0 3b
       0.0 0.014841174 3.9657175e-06 0.0048971106
0001a0 f4 84 6d 3c f0 63 36 3c 00 00 00 00 fd b2 62 3c
       0.0144970305 0.011132225 0.0 0.013836619
0001b0 00 00 00 00 ee 29 99 3b 00 00 00 00 fe e4 7d 3c
       0.0 0.004674188 0.0 0.0154964905
0001c0 00 00 00 00 46 64 ab 3e a0 67 4a 3a 55 eb ab 3e
       0.0 0.3347494 0.000772113 0.33577982
0001d0 00 00 00 00 8f 10 dd 3e 5a 5d ed 38 67 4b 12 3e
       0.0 0.43176696 0.00011318429 0.14286576
0001e0 4e 04 d7 3e e2 3b a4 3e 00 00 00 00 a4 b0 ce 3e
       0.41995472 0.32076937 0.0 0.4036914
0001f0 00 00 00 00 ea 49 0d 3e 00 00 00 00 92 e1 e8 3e
       0.0 0.13797727 0.0 0.45484596
000200 00 00 00 00 00 00 00 00 00 00 00 00 00 00 00 00
       0.0 0.0 0.0 0.0
000210 00 00 00 00 00 00 00 00 00 00 00 00 00 00 00 00
       0.0 0.0 0.0 0.0
000220 00 00 00 00 00 00 00 00 00 00 00 00 00 00 00 00
       0.0 0.0 0.0 0.0
000230 00 00 00 00 00 00 00 00 00 00 00 00 00 00 00 00
       0.0 0.0 0.0 0.0
000240 00 00 00 00 00 00 00 00 00 00 00 00 00 00 00 00
       0.0 0.0 0.0 0.0
000250 00 00 00 00 00 00 00 00 00 00 00 00 00 00 00 00
       0.0 0.0 0.0 0.0
000260 00 00 00 00 00 00 00 00 00 00 00 00 00 00 00 00
       0.0 0.0 0.0 0.0
000270 00 00 00 00 00 00 00 00 00 00 00 00 00 00 00 00
       0.0 0.0 0.0 0.0
000280 00 00 00 00 f1 cb bc 32 00 00 00 00 38 af 33 2d
       0.0 2.1978822e-08 0.0 1.0213878e-11
000290 00 00 00 00 3a 3d 3f 29 7a ed e6 23 02 af 07 2d
       0.0 4.2463625e-14 2.5037225e-17 7.712721e-12
0002a0 3b 4c dc 32 7f 32 1a 33 00 00 00 00 80 7e 15 2c
       2.5646036e-08 3.5901845e-08 0.0 2.1244395e-12
0002b0 00 00 00 00 4d 70 51 33 00 00 00 00 51 4e cb 33
       0.0 4.876374e-08 0.0 9.46717e-08
0002c0 00 00 00 00 00 00 00 00 00 00 00 00 00 00 00 00
       0.0 0.0 0.0 0.0
0002d0 00 00 00 00 00 00 00 00 00 00 00 00 00 00 00 00
       0.0 0.0 0.0 0.0
0002e0 00 00 00 00 00 00 00 00 00 00 00 00 00 00 00 00
       0.0 0.0 0.0 0.0
0002f0 00 00 00 00 00 00 00 00 00 00 00 00 00 00 00 00
       0.0 0.0 0.0 0.0
000300 00 00 00 00 00 00 00 00 00 00 00 00 00 00 00 00
       0.0 0.0 0.0 0.0
000310 00 00 00 00 00 00 00 00 00 00 00 00 00 00 00 00
       0.0 0.0 0.0 0.0
000320 00 00 00 00 00 00 00 00 00 00 00 00 00 00 00 00
       0.0 0.0 0.0 0.0
000330 00 00 00 00 00 00 00 00 00 00 00 00 00 00 00 00
       0.0 0.0 0.0 0.0
000340 00 00 00 00 7d bf 70 3e a0 f0 0d 3a 62 75 71 3e
       0.0 0.23510547 0.0005414579 0.23579934
000350 00 00 00 00 c1 40 9b 3e 8f 9d a6 38 3c 84 cd 3d
       0.0 0.3032284 7.9448444e-05 0.10034987
000360 67 f8 96 3e 3c 8e 66 3e 00 00 00 00 a8 2e 91 3e
       0.2948639 0.22515196 0.0 0.28355908
000370 00 00 00 00 f9 9e c6 3d 00 00 00 00 da a3 a3 3e
       0.0 0.096982904 0.0 0.31960946
000380 00 00 00 00 17 fa 52 3c 88 fb ec 37 e0 e2 52 3c
       0.0 0.012877009 2.825052e-05 0.012871474
000390 00 00 00 00 99 cf 87 3c 8c 77 90 36 e6 68 b4 3b
       0.0 0.016578482 4.3054515e-06 0.005505669
0003a0 b0 bc 83 3c 92 3d 48 3c 00 00 00 00 0e 19 7f 3c
       0.016081184 0.012221711 0.0 0.015569938
0003b0 00 00 00 00 4d 1f b0 3b 00 00 00 00 ef 72 90 3c
       0.0 0.005374825 0.0 0.01763293
0003c0 00 00 00 00 c1 0f 96 3a 04 00 12 36 94 a1 95 3a
       0.0 0.0011448787 2.1755704e-06 0.0011415952
0003d0 00 00 00 00 7d f1 c0 3a f9 34 dc 34 4a 60 00 3a
       0.0 0.0014720407 4.1016736e-07 0.00048971607
0003e0 1f 5a bb 3a 1c f0 8d 3a 00 00 00 00 0a 0f b6 3a
       0.0014293826 0.0010829004 0.0 0.001388998
0003f0 00 00 00 00 b5 6f fc 39 00 00 00 00 2a 1a cf 3a
       0.0 0.00048148414 0.0 0.0015800644

exp_avg f4 [16, 16]
000000 00 00 00 00 00 00 00 00 00 00 00 00 00 00 00 00
       0.0 0.0 0.0 0.0
000010 00 00 00 00 00 00 00 00 00 00 00 00 00 00 00 00
       0.0 0.0 0.0 0.0
000020 00 00 00 00 00 00 00 00 00 00 00 00 00 00 00 00
       0.0 0.0 0.0 0.0
000030 00 00 00 00 00 00 00 00 00 00 00 00 00 00 00 00
       0.0 0.0 0.0 0.0
000040 00 00 00 00 00 00 00 00 00 00 00 00 00 00 00 00
       0.0 0.0 0.0 0.0
000050 00 00 00 00 00 00 00 00 00 00 00 00 00 00 00 00
       0.0 0.0 0.0 0.0
000060 00 00 00 00 00 00 00 00 00 00 00 00 00 00 00 00
       0.0 0.0 0.0 0.0
000070 00 00 00 00 00 00 00 00 00 00 00 00 00 00 00 00
       0.0 0.0 0.0 0.0
000080 00 00 00 00 00 00 00 00 00 00 00 00 00 00 00 00
       0.0 0.0 0.0 0.0
000090 00 00 00 00 00 00 00 00 00 00 00 00 00 00 00 00
       0.0 0.0 0.0 0.0
0000a0 00 00 00 00 00 00 00 00 00 00 00 00 00 00 00 00
       0.0 0.0 0.0 0.0
0000b0 00 00 00 00 00 00 00 00 00 00 00 00 00 00 00 00
       0.0 0.0 0.0 0.0
0000c0 00 00 00 00 00 00 00 00 00 00 00 00 00 00 00 00
       0.0 0.0 0.0 0.0
0000d0 00 00 00 00 00 00 00 00 00 00 00 00 00 00 00 00
       0.0 0.0 0.0 0.0
0000e0 00 00 00 00 00 00 00 00 00 00 00 00 00 00 00 00
       0.0 0.0 0.0 0.0
0000f0 00 00 00 00 00 00 00 00 00 00 00 00 00 00 00 00
       0.0 0.0 0.0 0.0
000100 00 00 00 00 00 00 00 00 00 00 00 00 00 00 00 00
       0.0 0.0 0.0 0.0
000110 00 00 00 00 00 00 00 00 00 00 00 00 00 00 00 00
       0.0 0.0 0.0 0.0
000120 00 00 00 00 00 00 00 00 00 00 00 00 00 00 00 00
       0.0 0.0 0.0 0.0
000130 00 00 00 00 00 00 00 00 00 00 00 00 00 00 00 00
       0.0 0.0 0.0 0.0
000140 00 00 00 00 00 00 00 00 00 00 00 00 00 00 00 00
       0.0 0.0 0.0 0.0
000150 00 00 00 00 00 00 00 00 00 00 00 00 00 00 00 00
       0.0 0.0 0.0 0.0
000160 00 00 00 00 00 00 00 00 00 00 00 00 00 00 00 00
       0.0 0.0 0.0 0.0
000170 00 00 00 00 00 00 00 00 00 00 00 00 00 00 00 00
       0.0 0.0 0.0 0.0
000180 00 00 00 00 00 00 00 00 00 00 00 00 00 00 00 00
       0.0 0.0 0.0 0.0
000190 00 00 00 00 00 00 00 00 00 00 00 00 00 00 00 00
       0.0 0.0 0.0 0.0
0001a0 00 00 00 00 00 00 00 00 00 00 00 00 00 00 00 00
       0.0 0.0 0.0 0.0
0001b0 00 00 00 00 00 00 00 00 00 00 00 00 00 00 00 00
       0.0 0.0 0.0 0.0
0001c0 00 00 00 00 00 00 00 00 00 00 00 00 00 00 00 00
       0.0 0.0 0.0 0.0
0001d0 00 00 00 00 00 00 00 00 00 00 00 00 00 00 00 00
       0.0 0.0 0.0 0.0
0001e0 00 00 00 00 00 00 00 00 00 00 00 00 00 00 00 00
       0.0 0.0 0.0 0.0
0001f0 00 00 00 00 00 00 00 00 00 00 00 00 00 00 00 00
       0.0 0.0 0.0 0.0
000200 00 00 00 00 00 00 00 00 00 00 00 00 00 00 00 00
       0.0 0.0 0.0 0.0
000210 00 00 00 00 00 00 00 00 00 00 00 00 00 00 00 00
       0.0 0.0 0.0 0.0
000220 00 00 00 00 00 00 00 00 00 00 00 00 00 00 00 00
       0.0 0.0 0.0 0.0
000230 00 00 00 00 00 00 00 00 00 00 00 00 00 00 00 00
       0.0 0.0 0.0 0.0
000240 00 00 00 00 00 00 00 00 00 00 00 00 00 00 00 00
       0.0 0.0 0.0 0.0
000250 00 00 00 00 00 00 00 00 00 00 00 00 00 00 00 00
       0.0 0.0 0.0 0.0
000260 00 00 00 00 00 00 00 00 00 00 00 00 00 00 00 00
       0.0 0.0 0.0 0.0
000270 00 00 00 00 00 00 00 00 00 00 00 00 00 00 00 00
       0.0 0.0 0.0 0.0
000280 00 00 00 00 00 00 00 00 00 00 00 00 00 00 00 00
       0.0 0.0 0.0 0.0
000290 00 00 00 00 00 00 00 00 00 00 00 00 00 00 00 00
       0.0 0.0 0.0 0.0
0002a0 00 00 00 00 00 00 00 00 00 00 00 00 00 00 00 00
       0.0 0.0 0.0 0.0
0002b0 00 00 00 00 00 00 00 00 00 00 00 00 00 00 00 00
       0.0 0.0 0.0 0.0
0002c0 00 00 00 00 00 00 00 00 00 00 00 00 00 00 00 00
       0.0 0.0 0.0 0.0
0002d0 00 00 00 00 00 00 00 00 00 00 00 00 00 00 00 00
       0.0 0.0 0.0 0.0
0002e0 00 00 00 00 00 00 00 00 00 00 00 00 00 00 00 00
       0.0 0.0 0.0 0.0
0002f0 00 00 00 00 00 00 00 00 00 00 00 00 00 00 00 00
       0.0 0.0 0.0 0.0
000300 00 00 00 00 00 00 00 00 00 00 00 00 00 00 00 00
       0.0 0.0 0.0 0.0
000310 00 00 00 00 00 00 00 00 00 00 00 00 00 00 00 00
       0.0 0.0 0.0 0.0
000320 00 00 00 00 00 00 00 00 00 00 00 00 00 00 00 00
       0.0 0.0 0.0 0.0
000330 00 00 00 00 00 00 00 00 00 00 00 00 00 00 00 00
       0.0 0.0 0.0 0.0
000340 00 00 00 00 00 00 00 00 00 00 00 00 00 00 00 00
       0.0 0.0 0.0 0.0
000350 00 00 00 00 00 00 00 00 00 00 00 00 00 00 00 00
       0.0 0.0 0.0 0.0
000360 00 00 00 00 00 00 00 00 00 00 00 00 00 00 00 00
       0.0 0.0 0.0 0.0
000370 00 00 00 00 00 00 00 00 00 00 00 00 00 00 00 00
       0.0 0.0 0.0 0.0
000380 00 00 00 00 00 00 00 00 00 00 00 00 00 00 00 00
       0.0 0.0 0.0 0.0
000390 00 00 00 00 00 00 00 00 00 00 00 00 00 00 00 00
       0.0 0.0 0.0 0.0
0003a0 00 00 00 00 00 00 00 00 00 00 00 00 00 00 00 00
       0.0 0.0 0.0 0.0
0003b0 00 00 00 00 00 00 00 00 00 00 00 00 00 00 00 00
       0.0 0.0 0.0 0.0
0003c0 00 00 00 00 00 00 00 00 00 00 00 00 00 00 00 00
       0.0 0.0 0.0 0.0
0003d0 00 00 00 00 00 00 00 00 00 00 00 00 00 00 00 00
       0.0 0.0 0.0 0.0
0003e0 00 00 00 00 00 00 00 00 00 00 00 00 00 00 00 00
       0.0 0.0 0.0 0.0
0003f0 00 00 00 00 00 00 00 00 00 00 00 00 00 00 00 00
       0.0 0.0 0.0 0.0

exp_avg_sq f4 [16, 16]
000000 00 00 00 00 00 00 00 00 00 00 00 00 00 00 00 00
       0.0 0.0 0.0 0.0
000010 00 00 00 00 00 00 00 00 00 00 00 00 00 00 00 00
       0.0 0.0 0.0 0.0
000020 00 00 00 00 00 00 00 00 00 00 00 00 00 00 00 00
       0.0 0.0 0.0 0.0
000030 00 00 00 00 00 00 00 00 00 00 00 00 00 00 00 00
       0.0 0.0 0.0 0.0
000040 00 00 00 00 00 00 00 00 00 00 00 00 00 00 00 00
       0.0 0.0 0.0 0.0
000050 00 00 00 00 00 00 00 00 00 00 00 00 00 00 00 00
       0.0 0.0 0.0 0.0
000060 00 00 00 00 00 00 00 00 00 00 00 00 00 00 00 00
       0.0 0.0 0.0 0.0
000070 00 00 00 00 00 00 00 00 00 00 00 00 00 00 00 00
       0.0 0.0 0.0 0.0
000080 00 00 00 00 00 00 00 00 00 00 00 00 00 00 00 00
       0.0 0.0 0.0 0.0
000090 00 00 00 00 00 00 00 00 00 00 00 00 00 00 00 00
       0.0 0.0 0.0 0.0
0000a0 00 00 00 00 00 00 00 00 00 00 00 00 00 00 00 00
       0.0 0.0 0.0 0.0
0000b0 00 00 00 00 00 00 00 00 00 00 00 00 00 00 00 00
       0.0 0.0 0.0 0.0
0000c0 00 00 00 00 00 00 00 00 00 00 00 00 00 00 00 00
       0.0 0.0 0.0 0.0
0000d0 00 00 00 00 00 00 00 00 00 00 00 00 00 00 00 00
       0.0 0.0 0.0 0.0
0000e0 00 00 00 00 00 00 00 00 00 00 00 00 00 00 00 00
       0.0 0.0 0.0 0.0
0000f0 00 00 00 00 00 00 00 00 00 00 00 00 00 00 00 00
       0.0 0.0 0.0 0.0
000100 00 00 00 00 00 00 00 00 00 00 00 00 00 00 00 00
       0.0 0.0 0.0 0.0
000110 00 00 00 00 00 00 00 00 00 00 00 00 00 00 00 00
       0.0 0.0 0.0 0.0
000120 00 00 00 00 00 00 00 00 00 00 00 00 00 00 00 00
       0.0 0.0 0.0 0.0
000130 00 00 00 00 00 00 00 00 00 00 00 00 00 00 00 00
       0.0 0.0 0.0 0.0
000140 00 00 00 00 00 00 00 00 00 00 00 00 00 00 00 00
       0.0 0.0 0.0 0.0
000150 00 00 00 00 00 00 00 00 00 00 00 00 00 00 00 00
       0.0 0.0 0.0 0.0
000160 00 00 00 00 00 00 00 00 00 00 00 00 00 00 00 00
       0.0 0.0 0.0 0.0
000170 00 00 00 00 00 00 00 00 00 00 00 00 00 00 00 00
       0.0 0.0 0.0 0.0
000180 00 00 00 00 00 00 00 00 00 00 00 00 00 00 00 00
       0.0 0.0 0.0 0.0
000190 00 00 00 00 00 00 00 00 00 00 00 00 00 00 00 00
       0.0 0.0 0.0 0.0
0001a0 00 00 00 00 00 00 00 00 00 00 00 00 00 00 00 00
       0.0 0.0 0.0 0.0
0001b0 00 00 00 00 00 00 00 00 00 00 00 00 00 00 00 00
       0.0 0.0 0.0 0.0
0001c0 00 00 00 00 00 00 00 00 00 00 00 00 00 00 00 00
       0.0 0.0 0.0 0.0
0001d0 00 00 00 00 00 00 00 00 00 00 00 00 00 00 00 00
       0.0 0.0 0.0 0.0
0001e0 00 00 00 00 00 00 00 00 00 00 00 00 00 00 00 00
       0.0 0.0 0.0 0.0
0001f0 00 00 00 00 00 00 00 00 00 00 00 00 00 00 00 00
       0.0 0.0 0.0 0.0
000200 00 00 00 00 00 00 00 00 00 00 00 00 00 00 00 00
       0.0 0.0 0.0 0.0
000210 00 00 00 00 00 00 00 00 00 00 00 00 00 00 00 00
       0.0 0.0 0.0 0.0
000220 00 00 00 00 00 00 00 00 00 00 00 00 00 00 00 00
       0.0 0.0 0.0 0.0
000230 00 00 00 00 00 00 00 00 00 00 00 00 00 00 00 00
       0.0 0.0 0.0 0.0
000240 00 00 00 00 00 00 00 00 00 00 00 00 00 00 00 00
       0.0 0.0 0.0 0.0
000250 00 00 00 00 00 00 00 00 00 00 00 00 00 00 00 00
       0.0 0.0 0.0 0.0
000260 00 00 00 00 00 00 00 00 00 00 00 00 00 00 00 00
       0.0 0.0 0.0 0.0
000270 00 00 00 00 00 00 00 00 00 00 00 00 00 00 00 00
       0.0 0.0 0.0 0.0
000280 00 00 00 00 00 00 00 00 00 00 00 00 00 00 00 00
       0.0 0.0 0.0 0.0
000290 00 00 00 00 00 00 00 00 00 00 00 00 00 00 00 00
       0.0 0.0 0.0 0.0
0002a0 00 00 00 00 00 00 00 00 00 00 00 00 00 00 00 00
       0.0 0.0 0.0 0.0
0002b0 00 00 00 00 00 00 00 00 00 00 00 00 00 00 00 00
       0.0 0.0 0.0 0.0
0002c0 00 00 00 00 00 00 00 00 00 00 00 00 00 00 00 00
       0.0 0.0 0.0 0.0
0002d0 00 00 00 00 00 00 00 00 00 00 00 00 00 00 00 00
       0.0 0.0 0.0 0.0
0002e0 00 00 00 00 00 00 00 00 00 00 00 00 00 00 00 00
       0.0 0.0 0.0 0.0
0002f0 00 00 00 00 00 00 00 00 00 00 00 00 00 00 00 00
       0.0 0.0 0.0 0.0
000300 00 00 00 00 00 00 00 00 00 00 00 00 00 00 00 00
       0.0 0.0 0.0 0.0
000310 00 00 00 00 00 00 00 00 00 00 00 00 00 00 00 00
       0.0 0.0 0.0 0.0
000320 00 00 00 00 00 00 00 00 00 00 00 00 00 00 00 00
       0.0 0.0 0.0 0.0
000330 00 00 00 00 00 00 00 00 00 00 00 00 00 00 00 00
       0.0 0.0 0.0 0.0
000340 00 00 00 00 00 00 00 00 00 00 00 00 00 00 00 00
       0.0 0.0 0.0 0.0
000350 00 00 00 00 00 00 00 00 00 00 00 00 00 00 00 00
       0.0 0.0 0.0 0.0
000360 00 00 00 00 00 00 00 00 00 00 00 00 00 00 00 00
       0.0 0.0 0.0 0.0
000370 00 00 00 00 00 00 00 00 00 00 00 00 00 00 00 00
       0.0 0.0 0.0 0.0
000380 00 00 00 00 00 00 00 00 00 00 00 00 00 00 00 00
       0.0 0.0 0.0 0.0
000390 00 00 00 00 00 00 00 00 00 00 00 00 00 00 00 00
       0.0 0.0 0.0 0.0
0003a0 00 00 00 00 00 00 00 00 00 00 00 00 00 00 00 00
       0.0 0.0 0.0 0.0
0003b0 00 00 00 00 00 00 00 00 00 00 00 00 00 00 00 00
       0.0 0.0 0.0 0.0
0003c0 00 00 00 00 00 00 00 00 00 00 00 00 00 00 00 00
       0.0 0.0 0.0 0.0
0003d0 00 00 00 00 00 00 00 00 00 00 00 00 00 00 00 00
       0.0 0.0 0.0 0.0
0003e0 00 00 00 00 00 00 00 00 00 00 00 00 00 00 00 00
       0.0 0.0 0.0 0.0
0003f0 00 00 00 00 00 00 00 00 00 00 00 00 00 00 00 00
       0.0 0.0 0.0 0.0
