results/Test_citation/version_89/checkpoints/epoch=1-step=1.ckpt (torch, 566417 bytes, 27 tensors)

simplicial_nn.0.W0 f4 [1, 64]
0	0xbec87dd4	-0.391585
1	0xbea0802c	-0.31347787
2	0xbdcc68e0	-0.09980941
3	0x3e4a31e6	0.19745597
4	0xbe8efec9	-0.2792876
5	0x3e83ee88	0.25767922
6	0xbd9bea5b	-0.07613059
7	0xbead547a	-0.33853513
8	0xbe3235e2	-0.17403367
9	0xbd8cdbff	-0.068778984
10	0xbea437a1	-0.3207369
11	0xbeb54f18	-0.35411906
12	0x3e8aa337	0.27077648
13	0xbeb34c3c	-0.350191
14	0xbe05dfa4	-0.13073593
15	0x3eb1a7a7	0.3469822
16	0xbe521621	-0.20516254
17	0x3d92f76d	0.07176099
18	0xbd96339f	-0.07334065
19	0xbe0b7afa	-0.1362113
20	0x3e5ad613	0.21370725
21	0x3eb6c62f	0.35698077
22	0xbed4cef2	-0.41564137
23	0x3d5c774c	0.053824708
24	0x3b6781aa	0.0035325089
25	0x3dc02ae3	0.0938318
26	0x3eaeca94	0.3413893
27	0x3dada867	0.08479386
28	0xbd635d14	-0.055508688
29	0xbdd80ac4	-0.105489284
30	0x3ec16700	0.37773895
31	0x3e3bb04e	0.18328974
32	0xbd9bde9c	-0.07610819
33	0xbe41b009	-0.18914808
34	0xbbacec34	-0.005277181
35	0x3e755016	0.23956332
36	0xbe6ca30d	-0.23109074
37	0x3e8520f6	0.2600171
38	0xbeb74979	-0.35798243
39	0xbe135d4d	-0.1439106
40	0xbd3faf21	-0.046797875
41	0x3dcca310	0.09992039
42	0x3eb98ab4	0.36238635
43	0xbe7b012a	-0.24512163
44	0xbcd3437a	-0.025789011
45	0x3d93258c	0.07184896
46	0x3d8b753e	0.068094715
47	0x3e19e8df	0.1503024
48	0xbc2ef560	-0.010678619
49	0xbe994695	-0.29936662
50	0xbe9ed755	-0.3102366
51	0x3e6916e2	0.22762635
52	0x3d55f018	0.052230924
53	0x3e85dcfb	0.26145157
54	0xbecb1de0	-0.3967123
55	0x3e926f86	0.2860071
56	0x3e807016	0.25085515
57	0xbe9d945a	-0.30777246
58	0xbe6bfd06	-0.2304574
59	0xbe6223ce	-0.22083971
60	0x3d83ee57	0.06441944
61	0xbd212120	-0.03933823
62	0x3e95808d	0.2919964
63	0x3df4e954	0.11958566

simplicial_nn.0.W1 f4 [5, 1, 64]
0	0x3e184d0f	0.14873146
1	0xbd44f874	-0.048088506
2	0xbd8ed911	-0.06974996
3	0x3d65a418	0.056064695
4	0xbdf4cbcd	-0.119529344
5	0x3d9cb5ea	0.07651885
6	0xbe26b61d	-0.16280408
7	0xbe1603a2	-0.14649823
8	0xbe2659be	-0.16245171
9	0x3dfdcb38	0.123922765
10	0xbdb2df8d	-0.08734045
11	0x3d890c78	0.06691831
12	0x3d3c4aa9	0.04596964
13	0x3d6842a0	0.056704164
14	0x3e245ba3	0.16050582
15	0xbd434242	-0.04767061
16	0x3d79bd30	0.06097144
17	0xbe333986	-0.17502412
18	0x3e24edea	0.16106382
19	0xbcd4e768	-0.02598925
20	0x3e1e848d	0.15480252
21	0xbe09975e	-0.13436648
22	0x3e0fb041	0.1403208
23	0xbe33c1f5	-0.17554457
24	0xbdc1495e	-0.09437822
25	0xbdc4e36b	-0.09613689
26	0x3c3c386d	0.011488062
27	0xbdbee0ee	-0.09320246
28	0x3daa3ecc	0.08312759
29	0x3ca2a7f0	0.01985547
30	0x3db3f3d5	0.08786742
31	0x3dc502a0	0.09619641
32	0xbd32f5f4	-0.04369159
33	0xbd23eba8	-0.04001966
34	0xbdbd7664	-0.09251097
35	0xbc3d33fc	-0.011548039
36	0x3bf0af20	0.0073450953
37	0x3dc36287	0.09540277
38	0x3d021ffc	0.031768784
39	0x3e2dd086	0.16974077
40	0x3e0186d5	0.1264909
41	0xbe2391b8	-0.15973556
42	0x3e169b82	0.14707759
43	0x3d3587f8	0.044319123
44	0xbe1f75ed	-0.15572329
45	0x3e1c6696	0.15273508
46	0x3de64c4f	0.112450235
47	0x3e2211e1	0.15827133
48	0xbd91dab9	-0.07121796
49	0x3d993bce	0.0748211
50	0xbe0ef4f2	-0.13960627
51	0xbddd9b25	-0.10820607
52	0x3e1647a0	0.1467576
53	0x3df75236	0.12076227
54	0x3e07c27b	0.13257782
55	0x3e0c53b7	0.1370381
56	0xbc2cbb3e	-0.010542689
57	0xbcebd6b8	-0.02878891
58	0x3a767300	0.00094012916
59	0x3e05a311	0.13050486
60	0x3da6affa	0.081390336
61	0xbe01e896	-0.1268638
62	0x3de11808	0.10990912
63	0xbdba52b3	-0.09097805
64	0xbe27f97e	-0.16403767
65	0x3e16afa5	0.1471544
66	0x3d240f46	0.04005363
67	0xbe296160	-0.16541052
68	0x3de35942	0.11101009
69	0x3dcf3107	0.10116773
70	0x3d00446f	0.031315263
71	0x3e3164b7	0.17323576
72	0xbdf59e88	-0.11993128
73	0x3ded50b2	0.11587657
74	0xbc1f80b0	-0.009735271
75	0xbe1cbaeb	-0.15305679
76	0x3df8870d	0.12135134
77	0x3daa48b2	0.08314647
78	0xbda10fa1	-0.07864309
79	0x3e11e9f9	0.1424941
80	0xbd6c5b5e	-0.057704322
81	0xbc8fbbc0	-0.01754558
82	0x3df5eb65	0.120077886
83	0xbda3fba0	-0.08006978
84	0x3c8768af	0.01652941
85	0x3dcedd5d	0.101008154
86	0xbda5a362	-0.080878034
87	0x3e06ee19	0.13176765
88	0xbda250da	-0.079255775
89	0x3da05f26	0.07830648
90	0x3bf1583c	0.0073652547
91	0x3cad56a9	0.021159487
92	0xbdeb023e	-0.11475037
93	0xbb9330e0	-0.0044919103
94	0xbe1f963d	-0.15584655
95	0x3d164fc6	0.03669717
96	0x3d5777c8	0.052604467
97	0xbdf975f6	-0.121807024
98	0xbda5385d	-0.08067391
99	0xbcbcbadc	-0.02303832
100	0xbe0af3ea	-0.13569608
101	0xbcf3a8ba	-0.029743541
102	0x3d022548	0.031773835
103	0xbdad5468	-0.08463365
104	0x3e1d54e1	0.1536441
105	0xbe200a5c	-0.15628952
106	0x3e24e297	0.16102062
107	0xbd8c0127	-0.06836157
108	0xbd9f2413	-0.077705525
109	0xbdf511c4	-0.11966279
110	0x3d2d3118	0.042283148
111	0xbce24db3	-0.02762494
112	0xbe11d9f2	-0.14243296
113	0x3b94a320	0.0045360476
114	0x3e01a823	0.12661795
115	0x3e160fab	0.14654414
116	0xbd859cf2	-0.065240756
117	0xbd0da906	-0.03458502
118	0xbcc9c0e0	-0.024628103
119	0xbe0b21e7	-0.13587151
120	0x3d8a39ae	0.06749283
121	0x3e2b15ef	0.16707586
122	0xbd6bc7a6	-0.057563446
123	0xbd8ebc7c	-0.06969544
124	0x3dd377f4	0.103256136
125	0x3df18f3e	0.117948994
126	0x3da182fa	0.0788631
127	0xbbb52b72	-0.0055288607
128	0x3e326b7b	0.17423813
129	0xbe08450f	-0.13307594
130	0x3e23e85d	0.16006608
131	0xbd68ed2b	-0.056866806
132	0xbe2f47c5	-0.17117222
133	0x3d698707	0.057013538
134	0x3b41a028	0.0029544923
135	0x3e2c5655	0.16829808
136	0xbd74d5fb	-0.05977438
137	0xbe24f6b9	-0.16109742
138	0x3d05c918	0.03266248
139	0xbd7936d8	-0.06084332
140	0xbe0fde68	-0.14049685
141	0xbe2fe940	-0.17178822
142	0x3d87837c	0.066168755
143	0xbd2c05d7	-0.041997757
144	0xbe2b137f	-0.16706656
145	0x3dcb44cb	0.099252306
146	0x3dd69a8a	0.10478695
147	0xbd65c68e	-0.05609756
148	0x3daeeff7	0.085418634
149	0x3dd63856	0.10459964
150	0xbdeee26e	-0.11664282
151	0xbe053409	-0.13008131
152	0xbd007928	-0.031365544
153	0x3e1d7ed3	0.15380411
154	0xbe002af1	-0.12516381
155	0xbdedaf92	-0.11605753
156	0x3caf9e50	0.021437794
157	0xbe245522	-0.160481
158	0x3c609a72	0.013708698
159	0x3e01c148	0.12671387
160	0x3da5357a	0.080668405
161	0x3adb3200	0.0016723275
162	0x3c9f10d2	0.0194172
163	0xbd54e719	-0.051978204
164	0xbdd0738c	-0.10178289
165	0xbda601c0	-0.081058025
166	0xbd0da874	-0.034584478
167	0x3d67aa0e	0.05655866
168	0xbde705b3	-0.11280384
169	0xbdf860a9	-0.121278115
170	0xbde32628	-0.11091262
171	0xbdbb486a	-0.09144671
172	0x3da65792	0.081221715
173	0x3e19f206	0.15033731
174	0xbd7bfe1d	-0.06152164
175	0xbad6aadb	-0.0016377823
176	0xbdc3a1e2	-0.09552361
177	0xbd8f9982	-0.07011701
178	0xbe182a26	-0.14859828
179	0x3c5f128a	0.01361526
180	0xbd39066a	-0.045172133
181	0xbce22792	-0.02760676
182	0xbdb72e13	-0.08944335
183	0xbe1bb007	-0.15203868
184	0x3e0a37de	0.13497874
185	0xbd80868a	-0.06275661
186	0xbe203848	-0.1564647
187	0x3dcbab1a	0.099447444
188	0xbd14d167	-0.036332514
189	0x3debce84	0.11513999
190	0x3e05405f	0.13012837
191	0x3cc5c031	0.024139496
192	0xbdb4c59e	-0.08826755
193	0xbc815890	-0.0157893
194	0x3de3b20f	0.11117946
195	0x3e217ed5	0.15771039
196	0xbe2c1e9b	-0.1680855
197	0xbd854ca7	-0.06508761
198	0x3db83df3	0.08996191
199	0xbda506ef	-0.08057963
200	0xbde071d8	-0.10959214
201	0xbdee3288	-0.11630732
202	0xbe2cf03e	-0.1688852
203	0xbc8610f0	-0.016365498
204	0x3dd28d0f	0.10280811
205	0xbcc5adb8	-0.024130687
206	0x3cda0868	0.026615337
207	0x3d2e8ca0	0.04261458
208	0xbe02abf3	-0.12760906
209	0xbd85a508	-0.06525618
210	0xbc847bfd	-0.016172403
211	0x3dc18086	0.09448342
212	0xbdf4cef7	-0.11953538
213	0x3d548b95	0.05189093
214	0x3c8a0fd8	0.016853258
215	0x3d42d8f5	0.047570188
216	0xbd48b4b0	-0.049000442
217	0xbca48137	-0.020081146
218	0xbcbf73b4	-0.023370601
219	0xbddd71b4	-0.10812703
220	0x3dec5126	0.11538915
221	0x3da4c13a	0.080446675
222	0xbdeafa37	-0.11473506
223	0xbdb402e4	-0.08789614
224	0x3dd0c23a	0.10193296
225	0xbc851cb8	-0.016249046
226	0xbdd84afe	-0.105611786
227	0xbb8ed152	-0.004358449
228	0xbe13747c	-0.14399904
229	0xbc313395	-0.010815521
230	0xbe14fd69	-0.14549793
231	0x3e1ccbb6	0.15312085
232	0x3b1d011b	0.0023956958
233	0x3bf39d2c	0.007434508
234	0xbe02aa6c	-0.12760323
235	0x3c85f540	0.016352296
236	0xbdbecf2f	-0.09316861
237	0x3e100368	0.140638
238	0x3d572ca9	0.052532826
239	0x3e2b6465	0.16737516
240	0x3e349885	0.17636307
241	0xbdb20300	-0.086919785
242	0x3e0a0627	0.1347891
243	0xbe1d699d	-0.1537232
244	0xbe227b1f	-0.1586728
245	0xbe15e657	-0.14638649
246	0x3e161f27	0.14660321
247	0xbcb91f6d	-0.022597993
248	0xbd159b53	-0.03652508
249	0x3dc3834a	0.09546526
250	0x3dd5924e	0.10428296
251	0x3d628ae4	0.055308238
252	0x3d82638d	0.06366644
253	0xbe30c5ca	-0.1726295
254	0x3d06b1d8	0.03288445
255	0xbdace9fa	-0.08443065

simplicial_nn.0.W2 f4 [5, 1, 64]
0	0xbdc31a93	-0.09526553
1	0x3d0300d8	0.031983227
2	0x3e002d64	0.12517315
3	0xbe126ecb	-0.14300077
4	0x3c37a9f0	0.01120995
5	0xbd33a0d7	-0.04385456
6	0xbe2c7a17	-0.16843449
7	0x3d1f2a40	0.038858652
8	0x3e1eca5f	0.15506886
9	0x3da11a16	0.078663036
10	0xbe2c5fee	-0.1683347
11	0xbe025ae3	-0.12729983
12	0xbd808f85	-0.06277374
13	0x3cb4d310	0.022073299
14	0x3cb7e0c0	0.022446036
15	0xbca699eb	-0.020337066
16	0x3e11ec05	0.1425019
17	0x3d2b4508	0.04181388
18	0x3b2e31b6	0.0026579923
19	0xbcca6a28	-0.024708822
20	0xbdd45795	-0.103682674
21	0x3bb8004e	0.0056152707
22	0xbdfb94fa	-0.122842744
23	0x3d946d6b	0.07247432
24	0x3e0a3689	0.13497366
25	0xbda49ffa	-0.080383256
26	0x3ccf0af2	0.025273774
27	0x3887db08	6.4780994e-05
28	0xbd39c86c	-0.045357153
29	0x39e0cc00	0.000428766
30	0x3ddf66a9	0.10908253
31	0xbd439edb	-0.04775892
32	0xbd9b13c8	-0.07572132
33	0x3c224bf0	0.0099058
34	0xbc3655e4	-0.011128876
35	0xbe22f81c	-0.15914959
36	0xbb8b6a00	-0.0042545795
37	0xbd5d4e67	-0.05402985
38	0x3d579850	0.05263549
39	0xbdc55171	-0.09634674
40	0xbe21e79c	-0.15811008
41	0x3c4d85a2	0.012544068
42	0xbdeb6277	-0.1149339
43	0xbd30d098	-0.04316768
44	0x3d6eb071	0.058273736
45	0x3e11b98c	0.14230937
46	0x3d333eff	0.04376125
47	0x3c974ef3	0.018470263
48	0xbe1b2336	-0.1515015
49	0x3c8e79e8	0.017392114
50	0xbcbf6228	-0.023362234
51	0xbbdcff9b	-0.0067443377
52	0xbdfe930a	-0.12430389
53	0x3e204264	0.15650326
54	0xbe2cfe92	-0.16893986
55	0xbdc76a83	-0.097371124
56	0xbdd11fe4	-0.10211161
57	0x3e1145cf	0.14186786
58	0xbdc7e225	-0.097599305
59	0x3d8fa49c	0.070138186
60	0xbd9fd28f	-0.07803833
61	0x3dd68bde	0.10475896
62	0xbde53278	-0.11191267
63	0xbdff234d	-0.12457905
64	0xbdc94dc9	-0.098292895
65	0xbdf3a4e2	-0.11896683
66	0xbdf97d40	-0.12182093
67	0xbe33b721	-0.17550327
68	0x3da4134e	0.080114946
69	0xbe113364	-0.1417976
70	0xbe21510f	-0.15753578
71	0xbd7a9bc6	-0.061183713
72	0x3d47b4dc	0.048756465
73	0x3e34febb	0.17675297
74	0x3c0a0c80	0.008425832
75	0x3daeed32	0.08541335
76	0x3e0096e4	0.1255756
77	0x3dc892c6	0.0979362
78	0x3b3f4d80	0.002919048
79	0xbdb74a3a	-0.089497045
80	0xbd66580a	-0.056236304
81	0xbe2e7daf	-0.17040132
82	0x3ccd04d6	0.02502672
83	0x3d2cdb94	0.042201594
84	0x3dc75582	0.09733106
85	0xbd9b9c65	-0.07598189
86	0x3e0074c1	0.12544538
87	0x3d665e7b	0.056242447
88	0x3d4f34fc	0.05058764
89	0xbc7cd12f	-0.015430733
90	0x3dd74dad	0.10512862
91	0xbdf28fae	-0.11843811
92	0x3c7c1db2	0.015387939
93	0x3e1452d3	0.1448472
94	0x3df3f264	0.11911467
95	0x3e1384f8	0.14406192
96	0x3e2aab2b	0.16666858
97	0xbcf095f8	-0.029368386
98	0x3dae94ce	0.08524476
99	0x3d514fd1	0.05110151
100	0x3e2a2e8f	0.16619323
101	0xbc1d1585	-0.00958765
102	0x3afddb80	0.0019367784
103	0x3dae5682	0.08512594
104	0xbdca3771	-0.09873856
105	0x3d6cd29a	0.057818033
106	0xbb96fa46	-0.0046074716
107	0xbcf74648	-0.03018488
108	0xbdf3cdf0	-0.11904514
109	0x3e09eb15	0.13468583
110	0xbe051031	-0.12994458
111	0x3c371938	0.011175446
112	0xbe270777	-0.16311441
113	0x3bafe740	0.0053681433
114	0x3cc7f488	0.024408594
115	0x3e29933c	0.16560072
116	0x3e29890f	0.1655619
117	0x3c2aeb6d	0.010432106
118	0x3d0ccd58	0.03437552
119	0x3e0151b4	0.12628824
120	0x3e087b2e	0.1332824
121	0x3dccf276	0.10007183
122	0x3dc8066a	0.097668484
123	0xbdae0c20	-0.084984064
124	0x3d4bf033	0.04978962
125	0x3bd2afee	0.006429664
126	0x3dbf5743	0.09342816
127	0xbd8fef5a	-0.070280746
128	0xbd840631	-0.064464934
129	0x3e0cc795	0.1374801
130	0x3d39cecd	0.045363236
131	0xbde73bac	-0.112906784
132	0x3d8e8f50	0.069609284
133	0x3dfd4862	0.123673216
134	0x3d19571a	0.037436582
135	0x3d50b214	0.05095108
136	0x3d24daf5	0.040247876
137	0x3e023918	0.12717092
138	0x3db566e6	0.08857517
139	0xbe189222	-0.14899495
140	0xbe28fb7e	-0.16502187
141	0xbc75dac0	-0.015005767
142	0x3db3db02	0.08782007
143	0xbdf15e6b	-0.11785587
144	0x3b79ee80	0.0038136542
145	0x3c9cc27d	0.019135708
146	0x3b82fe1a	0.0039975764
147	0xbc706df0	-0.014674649
148	0x3e0dda22	0.13852742
149	0x3d30c4f2	0.04315657
150	0xbe00c5da	-0.12575474
151	0xbdd299ea	-0.10283263
152	0x3c5ea979	0.01359021
153	0x3cd99de3	0.026564544
154	0xbc1978cc	-0.009367179
155	0x3ca809b8	0.020512447
156	0x3d6ed9ff	0.058313366
157	0xbcd3b420	-0.025842726
158	0x3d375541	0.04475904
159	0x3e16bae5	0.14719732
160	0xbe0b1914	-0.13583785
161	0xbe0a223e	-0.13489625
162	0xbe01a8c9	-0.12662043
163	0xbdc86bec	-0.097862095
164	0x3e092d6f	0.13396238
165	0x3c994086	0.018707525
166	0x3d8dbc80	0.06920719
167	0x3ddf1313	0.1089231
168	0xbd452573	-0.048131417
169	0xbdc6ede1	-0.097133406
170	0x3e32f954	0.17477924
171	0xbc9bbb28	-0.019010141
172	0xbdcdc0b8	-0.10046524
173	0x3e199199	0.14996947
174	0xbbc605c7	-0.006043169
175	0x3d9315ff	0.0718193
176	0xbe083a64	-0.13303524
177	0x3db7feaa	0.0898412
178	0xbde93b8e	-0.11388312
179	0xbce8b771	-0.028407784
180	0x3e36d622	0.17855123
181	0xbc0b3d94	-0.008498568
182	0xbd71d206	-0.059038185
183	0xbd62a884	-0.05533649
184	0x3e0a4afe	0.1350517
185	0xbe2280ec	-0.15869492
186	0x3d89ca00	0.067279816
187	0x3dbfe4c6	0.09369807
188	0xbd650c1b	-0.055919748
189	0x3dc07619	0.09397525
190	0x3dc01aec	0.09380135
191	0x3d80be14	0.062862545
192	0x3df170e2	0.11789109
193	0x3e00cb6d	0.12577601
194	0xbd265776	-0.040610753
195	0x3d584419	0.052799318
196	0xbcc6f0c8	-0.024284735
197	0x3e1a96f5	0.15096648
198	0x3e171881	0.14755441
199	0xbdf58179	-0.119875856
200	0xbd99007a	-0.07470794
201	0x3e2e38c4	0.17013842
202	0x3c9e56d0	0.019328505
203	0xbdd8be2c	-0.105831474
204	0x3e0a5854	0.13510257
205	0xbce637b8	-0.02810274
206	0xbdec4fec	-0.115386814
207	0xbe24ab14	-0.16080886
208	0x3e0ed87d	0.13949771
209	0x3e082d8a	0.13298622
210	0x3dd48710	0.10377324
211	0x3bf86620	0.0075805336
212	0xbe273520	-0.1632886
213	0x3dbb380b	0.09141549
214	0xbd904583	-0.07044508
215	0xbda97764	-0.08274725
216	0xbe0eb24e	-0.13935205
217	0x3d5b2672	0.05350346
218	0xbe068870	-0.13137984
219	0x3de25404	0.11051181
220	0xbcbd0cd4	-0.023077406
221	0xbda1a424	-0.078926355
222	0x3c694a48	0.014238901
223	0x3dc831bf	0.09775113
224	0xbe337346	-0.17524442
225	0x3e2b8825	0.16751154
226	0xbd8b816c	-0.06811795
227	0x3bacad50	0.005269684
228	0xbdf9b6c3	-0.12193062
229	0x3ce69fcf	0.028152375
230	0xbd16d230	-0.036821544
231	0x3d9c6c96	0.076378986
232	0xbe34ce4b	-0.1765682
233	0x3e21df85	0.15807922
234	0xbdac3a33	-0.08409538
235	0x3dfb5a6e	0.122731075
236	0x3dcd1a0b	0.10014733
237	0x3da10e73	0.07864084
238	0x3cd78729	0.026309567
239	0x3d5e10c9	0.054215226
240	0xbd2ae01d	-0.041717637
241	0x3d8e9cdc	0.06963512
242	0xbd9415c6	-0.072307155
243	0x3df42328	0.11920768
244	0xbe3451e3	-0.17609362
245	0xbdc0fe1a	-0.09423466
246	0xbdd052ef	-0.10172068
247	0x3dc73a91	0.097279675
248	0xbde7e45f	-0.11322855
249	0x3e235ced	0.15953417
250	0xbe18a643	-0.14907174
251	0xbe1ac702	-0.15114978
252	0x3e030195	0.12793572
253	0x3d3d2706	0.046179794
254	0x3ddbd684	0.10734275
255	0x3dcb5d71	0.09929932

simplicial_nn.2.W0 f4 [64, 64]
0	0xbda2f8ba	-0.07957597
1	0x3e076504	0.13222128
2	0x3d797738	0.06090471
3	0xbe9b1c9d	-0.30295268
4	0xbe48220c	-0.19544238
5	0xbdd9aae4	-0.10628298
6	0xbe417844	-0.18893534
7	0x3e8c7187	0.27430364
8	0x3e994817	0.29937813
9	0x3dded26c	0.108799785
10	0x3e97b211	0.2962804
11	0x3cdd2d40	0.026999116
12	0x3e19ff14	0.15038711
13	0xbe769eec	-0.24084061
14	0xbdc5fd70	-0.0966748
15	0x3d996d18	0.07491511
16	0x3dda3a78	0.10655683
17	0x3db86ef4	0.09005538
18	0x3e734a52	0.2375882
19	0x3e97d089	0.29651287
20	0x3e5f14c2	0.21785262
21	0x3e7b67fa	0.24551383
22	0xbe93c48f	-0.288609
23	0x3dd50c08	0.104026854
24	0x3e1191da	0.14215794
25	0x3e0656b6	0.13119015
26	0x3bfb7700	0.007674098
27	0x3e41d182	0.18927577
28	0x3ddb72b0	0.10715234
29	0x3df4e120	0.11957002
30	0xbc3b4a00	-0.011431217
31	0x3e201fa0	0.15637064
32	0xbc88c870	-0.016697139
33	0x3dceb604	0.100933105
34	0xbe74d3b6	-0.23908886
35	0xbe0814f3	-0.13289241
36	0xbe5e7ce0	-0.21727324
37	0x3dc0ca34	0.09413567
38	0xbe4ae288	-0.19812977
39	0x3df73b08	0.12071806
40	0x3d8c4340	0.068487644
41	0x3e311328	0.17292464
42	0xbe94480e	-0.28961223
43	0x3dad353c	0.08457419
44	0xbdb91db4	-0.090388685
45	0xbe6ae0a9	-0.22937264
46	0x3e36171c	0.17782253
47	0x3d92e710	0.07172978
48	0xbe17d29f	-0.1482644
49	0xbdfeeccc	-0.12447509
50	0x3e8de2d9	0.27712134
51	0xbe1b9d7f	-0.15196799
52	0xbd9ffee6	-0.0781229
53	0x3e74794e	0.23874399
54	0x3e8fec1d	0.28109828
55	0x3d3c0410	0.04590231
56	0xbe285cf5	-0.1644171
57	0xbe8aee60	-0.2713499
58	0x3d8d2868	0.068924725
59	0xbdd1bbe6	-0.10240917
60	0x3ccf4c80	0.025305033
61	0x3e037112	0.12836102
62	0xbe2b384a	-0.16720691
63	0xbe598b3a	-0.21244517
64	0xbe74e7f7	-0.23916613
65	0x3db648a0	0.08900571
66	0xbe3fe00d	-0.18737812
67	0x3e006326	0.12537822
68	0x3e7a5f16	0.24450335
69	0xbe9681a1	-0.29395774
70	0x3d98a960	0.07454181
71	0xbe92bdd2	-0.28660446
72	0xbd1fb1d8	-0.038987964
73	0x3dfdfc7c	0.12401673
74	0x3e8665b5	0.2624947
75	0xbdc6c15c	-0.09704849
76	0x3e9626a5	0.29326358
77	0xbdd714d6	-0.10502021
78	0xbe7ee319	-0.24891318
79	0xbe3b6e80	-0.18303871
80	0x3d5023e8	0.050815493
81	0xbdffb510	-0.12485707
82	0xbe893df4	-0.2680508
83	0x3e4e1b1e	0.20127532
84	0xbe277756	-0.16354117
85	0xbdc97058	-0.09835881
86	0xbc4708c0	-0.012148082
87	0xbe6fcdc2	-0.23418334
88	0x3db3cafc	0.087789506
89	0xbe1a3596	-0.15059504
90	0x3dc14ac0	0.094380856
91	0x3deb28a8	0.11482364
92	0xbe7fce40	-0.24981022
93	0xbe0949af	-0.13407014
94	0x3e3cfac6	0.18455037
95	0x3c8dd030	0.017311186
96	0x3e235936	0.15952
97	0x3d340508	0.04395011
98	0xbe7221a0	-0.2364564
99	0x3e984e41	0.29747203
100	0xbe73f628	-0.2382437
101	0xbe14da46	-0.1453639
102	0x3e908a4f	0.2823052
103	0xbdb391ba	-0.087680295
104	0x3e390248	0.18067276
105	0x3d902480	0.07038212
106	0xbe00ee99	-0.12591018
107	0x3e8ebbb9	0.27877596
108	0xbe691014	-0.2276004
109	0x3d1235a0	0.035695672
110	0xbe9af91c	-0.3026818
111	0x3e7dc77a	0.24783126
112	0x3e85f5f1	0.261642
113	0x3e81a741	0.25322917
114	0x3d37a520	0.04483521
115	0xbe5ca7a3	-0.21548323
116	0x3dedde60	0.1161468
117	0x3e5e05fa	0.21681967
118	0xbb7b4400	-0.0038340092
119	0x3e166da2	0.14690259
120	0xbe440866	-0.19143829
121	0xbe8bbde8	-0.27293324
122	0xbe40c17e	-0.18823811
123	0x3e80bfdf	0.25146386
124	0xbe064f11	-0.13116099
125	0x3e4acc66	0.19804534
126	0xbd90dd56	-0.070734665
127	0x3e287a38	0.16452873
128	0xbcf7a9d4	-0.030232348
129	0x3da064f0	0.07831752
130	0x3bbeaee0	0.0058191866
131	0x3d82379b	0.06358262
132	0x3c691040	0.014225066
133	0x3d32a1a0	0.04361117
134	0xbe8ac954	-0.27106726
135	0xbdb8abf0	-0.090171695
136	0x3df0fa9a	0.117665485
137	0x3dcacdd1	0.099025376
138	0x3e4d9c5a	0.20079175
139	0x3da3c267	0.07996064
140	0xbe477e31	-0.19481732
141	0x3d3f6439	0.04672644
142	0xbe7b98bd	-0.24569984
143	0x3e35fcdb	0.17772238
144	0x3e8bb720	0.2728815
145	0xbe56e913	-0.20987348
146	0xbe0348c0	-0.1282072
147	0x3e18ab46	0.14909086
148	0xbe60f9ce	-0.21970293
149	0xbe713a0a	-0.23557296
150	0x3d42a6a8	0.047522217
151	0x3c18c511	0.009324328
152	0x3d07ff48	0.03320244
153	0x3d93459c	0.07191011
154	0x3e8b0c5d	0.2715787
155	0x3e4157c0	0.1888113
156	0x3cc3e67c	0.023913614
157	0xbe622fd3	-0.22088556
158	0xbde3ce24	-0.111233026
159	0x3e2b7454	0.16743594
160	0xbd84487c	-0.06459138
161	0x3d7d6f9e	0.061874025
162	0x3da2536e	0.07926069
163	0xbd855612	-0.06510557
164	0x3e59aef9	0.21258153
165	0xbe6819d4	-0.22666103
166	0x3c0f78b0	0.0087568015
167	0x3ce256a0	0.027629197
168	0xbe164745	-0.14675625
169	0x3dbdec44	0.0927358
170	0x3e081717	0.13290058
171	0x3e54b572	0.20772341
172	0xbe89cde4	-0.26914895
173	0xbd895044	-0.067047626
174	0x3e644a83	0.22294049
175	0x3cc17010	0.023613006
176	0xbdbd928e	-0.09256469
177	0x3d7a016d	0.061036516
178	0xbe972c6b	-0.29526076
179	0x3d5eb5ef	0.054372724
180	0x3e9c699f	0.30549332
181	0xbdfc67e8	-0.12324506
182	0x3e15aeb6	0.14617428
183	0xbe832788	-0.25616097
184	0xbe0cc435	-0.13746722
185	0xbc3adbc0	-0.011404932
186	0xbe63d018	-0.2224735
187	0x3e179834	0.14804155
188	0xbdfb64d2	-0.12275089
189	0xbe2cb6b0	-0.16866565
190	0x3dbcde28	0.092220604
191	0x3e83062b	0.25590643
192	0xbc16c298	-0.009201668
193	0xbe4f4156	-0.20239767
194	0xbe942079	-0.28931025
195	0xbe200b77	-0.15629373
196	0xbce62fa0	-0.028098881
197	0x3e809772	0.25115544
198	0x3e6204fe	0.22072217
199	0xbe259294	-0.16169196
200	0xbdc4dac2	-0.09612037
201	0xbe3d4aa5	-0.18485506
202	0xbe2d59fb	-0.16928856
203	0x3e474852	0.19461182
204	0x3e89b65f	0.2689695
205	0x3e702558	0.23451746
206	0x3e264084	0.16235548
207	0xbc4cef41	-0.012508214
208	0xbe08e946	-0.13370237
209	0xbdcc63e9	-0.09979994
210	0x3e765ebf	0.2405958
211	0xbe7dcd7c	-0.24785417
212	0xbe2e0200	-0.1699295
213	0x3e6c5dab	0.23082606
214	0xbe203a96	-0.15647349
215	0xbd33792e	-0.043816738
216	0xbe5e275e	-0.21694705
217	0x3e452724	0.19253212
218	0xbde8ead9	-0.11372919
219	0x3d4530e0	0.048142314
220	0x3e7e82d5	0.24854596
221	0xbe90ee46	-0.28306788
222	0xbe233086	-0.15936479
223	0x3de43618	0.1114313
224	0x3d92b7a2	0.071639314
225	0x3e5068dd	0.20352502
226	0xbe1bf4cc	-0.15230101
227	0xbe8a1e05	-0.26976028
228	0x3d8bcf4c	0.06826648
229	0xba156e7f	-0.0005700364
230	0xbe8e4517	-0.27787086
231	0xbe744ba7	-0.23856984
232	0x3ce506b3	0.027957296
233	0xbe680a2b	-0.22660129
234	0xbdf0f59a	-0.11765595
235	0x3cad7570	0.021174163
236	0xbe7a8318	-0.24464071
237	0xbd987262	-0.07443692
238	0x3d1b4bd1	0.0379141
239	0xbe35eee8	-0.17766917
240	0xbc0e4266	-0.008682823
241	0xbe361f61	-0.17785408
242	0x3e40e642	0.18837836
243	0x3e6ecba2	0.23319867
244	0xbdad15f4	-0.08451453
245	0xbe4cf098	-0.20013654
246	0xbe0bc298	-0.1364845
247	0x3d9a3814	0.07530227
248	0x3e0166e8	0.12636912
249	0xbe0ba7ff	-0.13638304
250	0x3df0bfa3	0.11755302
251	0x3e71e6b6	0.23623165
252	0xbe11ac47	-0.14225875
253	0x3e81500b	0.2525638
254	0x3d54b06d	0.051926065
255	0xbe4a3c72	-0.1974962

simplicial_nn.2.W1 f4 [5, 64, 64]
0	0xbb9cb2d8	-0.004782062
1	0x3d033655	0.032034237
2	0xbd0e82c0	-0.03479266
3	0x3d52a311	0.051425043
4	0x3d13a93d	0.03605007
5	0xbd37748c	-0.044788882
6	0x3d3cac83	0.046062957
7	0x3d31e359	0.043429706
8	0xbc2f7558	-0.010709129
9	0xbc7ee4ec	-0.015557509
10	0xbc77c388	-0.015122302
11	0x3ca0efd2	0.019645605
12	0xbc821ae2	-0.01588196
13	0x3b9bbfd0	0.0047530904
14	0x3d07074f	0.032965954
15	0x3ca68c3a	0.020330537
16	0xbca3aef4	-0.019980885
17	0x3d3c9def	0.046049055
18	0xbc83eda6	-0.01610453
19	0xbcd277ea	-0.025691945
20	0x3d369b2b	0.044581573
21	0xbc666330	-0.014061734
22	0xbc81dcfa	-0.01585244
23	0x3cd212e6	0.025643777
24	0xbd303ac0	-0.04302478
25	0xbd3e1fcb	-0.04641704
26	0xbcbc205d	-0.02296465
27	0x3cb5f90e	0.022213485
28	0x3c6f839c	0.01461878
29	0x3d1354a5	0.035969395
30	0x3bd44450	0.00647787
31	0x3c92528a	0.017861623
32	0x3d49605f	0.049164172
33	0xbbb9d700	-0.005671382
34	0x3d414c63	0.04719199
35	0xbcc3bcca	-0.023893733
36	0x3d3ed887	0.046593215
37	0xbc062200	-0.008186817
38	0x3bebc668	0.0071952827
39	0xbd46ac52	-0.04850418
40	0xbd49bbd0	-0.049251378
41	0x3d268119	0.04065046
42	0xbc9627c6	-0.018329512
43	0xbd0f4d2c	-0.034985706
44	0x3d519953	0.051171612
45	0x3c940a1a	0.018071223
46	0x3c0929fc	0.008371826
47	0x3c0f3788	0.008741267
48	0x3b9c1690	0.004763432
49	0xbd404f43	-0.04695059
50	0xbb506e50	-0.0031804033
51	0xbc8815d2	-0.016611967
52	0x3d2555d9	0.040365074
53	0xbb4440a0	-0.0029945746
54	0x3d0b2aa5	0.033976216
55	0x3cc038ee	0.023464646
56	0x3cb81022	0.02246863
57	0xbce5b863	-0.028042024
58	0x3cd5e31e	0.026109274
59	0x3d042ee1	0.03227127
60	0xbd4c1a24	-0.049829617
61	0xbd005c82	-0.031338222
62	0x3c765d14	0.01503684
63	0xbd1d7869	-0.03844491
64	0xbd2eb5e2	-0.042653926
65	0xbc9eb1ca	-0.019371886
66	0xbcb01030	-0.021492094
67	0xbd4c532b	-0.049884003
68	0xbd486765	-0.04892673
69	0xbd3d3f37	-0.046202864
70	0xbce18f2a	-0.027534086
71	0x3cfab1ea	0.030602414
72	0x3c810a76	0.015752058
73	0x3d1a1265	0.0376152
74	0x3d0fb3e9	0.035083685
75	0xbccc9bbf	-0.02497661
76	0xbd324798	-0.04352531
77	0x3bceb790	0.0063085034
78	0xbceccd47	-0.028906478
79	0x3ce10022	0.027465884
80	0x3c93ebde	0.018056806
81	0x3d362c2d	0.044475723
82	0x39f7e900	0.0004728511
83	0x3c254014	0.010086078
84	0xbd51d328	-0.051226765
85	0xbd2feb7a	-0.042949177
86	0xbd39844e	-0.04529219
87	0xbd2378b3	-0.03991003
88	0x3c22b8c8	0.009931751
89	0xbd3a8797	-0.045539465
90	0xbaa7aee0	-0.0012793206
91	0xbcd5a8cf	-0.02608147
92	0x3d0f4991	0.034982268
93	0xba13c800	-0.00056374073
94	0x3cc00d8e	0.023443963
95	0x3d3c6df7	0.04600331
96	0xbd436edd	-0.04771315
97	0xbc6310ec	-0.013859015
98	0xbcbe822a	-0.023255426
99	0x3cd3f9d2	0.02587596
100	0xbd49c47b	-0.049259644
101	0x3d2649c9	0.04059771
102	0x3ce067be	0.027393218
103	0x3c852376	0.01625226
104	0xbc6efdfc	-0.014586922
105	0x3c1e0010	0.00964357
106	0xbc1dff30	-0.009643361
107	0xb9febe00	-0.00048588216
108	0xbd06676b	-0.03281347
109	0xbd1af16c	-0.037827894
110	0xba136e40	-0.00056240335
111	0xbba38080	-0.0049896836
112	0x3d0f424b	0.03497533
113	0x3d44aa43	0.048013937
114	0x3d10ebad	0.035381008
115	0x3d01dad5	0.031702835
116	0x3c413694	0.011792798
117	0x3cbde876	0.023182135
118	0x3d2cafc5	0.042159814
119	0xbc077768	-0.008268215
120	0x3c8a21ce	0.016861822
121	0xbcabece9	-0.020986991
122	0x3d2ae7a5	0.04172482
123	0xbca4cc1c	-0.020116858
124	0xbd1acf0e	-0.03779512
125	0xbd4b2498	-0.049595445
126	0x3cadf1ee	0.021233525
127	0x3d466ec3	0.048445474
128	0xbcfd19d8	-0.030896112
129	0x3c9fb206	0.019494068
130	0xbc082ca0	-0.008311421
131	0x3cf89b6e	0.030347552
132	0x3d308b31	0.043101493
133	0xbcbce981	-0.023060562
134	0x3d301b4d	0.042994786
135	0x3ccbd3a6	0.024881195
136	0xbce1b809	-0.027553575
137	0x3d0fdd52	0.035123177
138	0xbc2afec8	-0.010436721
139	0xbc3e18de	-0.0116026085
140	0x3d46b6e4	0.04851426
141	0xbcb23224	-0.021752425
142	0xbd008a72	-0.03138203
143	0x3d059737	0.032614913
144	0xbcc50be1	-0.024053516
145	0x3d00ae2c	0.031416103
146	0x3cad991a	0.021191169
147	0xbc7c8840	-0.015413344
148	0xbbcf9a38	-0.006335523
149	0x3c96985a	0.018383194
150	0xbd0df71e	-0.034659497
151	0x3d0e8ac0	0.03480029
152	0x3d39a2c5	0.045321245
153	0x3c2d423d	0.0105748745
154	0xbd39c3ab	-0.04535262
155	0xbcd71ba7	-0.026258303
156	0xbd17d97e	-0.03707265
157	0x3bb894f8	0.005632993
158	0x3c093698	0.008374833
159	0x3b030da0	0.0019997135
160	0xbd5ca7af	-0.053870853
161	0xbd4fa7d5	-0.050697166
162	0xbd573cb9	-0.052548144
163	0xbc6226ec	-0.013803225
164	0x3c7c5e41	0.015403331
165	0x3ac155e0	0.0014750324
166	0xba011c62	-0.0004925189
167	0x3d291fa9	0.04128996
168	0xbca26344	-0.019822724
169	0x3d343839	0.04399893
170	0x3d2acc5c	0.0416988
171	0xbd432f7e	-0.047652714
172	0xbc1d197a	-0.009588594
173	0x3d53ad7d	0.051679123
174	0x3d0d1071	0.034439508
175	0x3c977e8e	0.018492963
176	0xbd3574d3	-0.044300865
177	0x3d11eef2	0.035628267
178	0xbd2f4242	-0.042787798
179	0x3d4c6e70	0.04991001
180	0x3c0e8290	0.008698121
181	0xbd05cd64	-0.03266658
182	0xbcc03e2e	-0.02346715
183	0xba570200	-0.0008201897
184	0xbcf386fb	-0.02972745
185	0x3d252341	0.040316824
186	0x3c97becd	0.018523598
187	0x3d38dbbb	0.045131426
188	0xbd12baa7	-0.035822537
189	0xbc8d2303	-0.017228609
190	0x3b3a448c	0.0028422205
191	0xbb8044b0	-0.003914438
192	0xbba2e6b4	-0.0049713496
193	0xbd20174e	-0.039084725
194	0xbce66530	-0.028124422
195	0xbbe70194	-0.0070497487
196	0x3c97078e	0.01843622
197	0x3d1e5a1e	0.03866016
198	0x3a8604c0	0.0010224804
199	0xbd47ae41	-0.048750166
200	0xbd46e44c	-0.048557565
201	0xbd55d752	-0.0522073
202	0x3bc98dc8	0.006150935
203	0x3cef288e	0.029194143
204	0xbcb5cd15	-0.022192517
205	0xbc9e2b48	-0.019307747
206	0xbd0a4d01	-0.033764843
207	0x3cfe5890	0.03104809
208	0x3b49ddd6	0.003080239
209	0x3d3dbde9	0.04632369
210	0x3c663fd4	0.014053304
211	0x3d15270b	0.036414187
212	0x3cb3a5ca	0.02192964
213	0x3d1982fb	0.03747843
214	0x3cc7007a	0.02429222
215	0x3b80c27c	0.0039294343
216	0x3d39fc57	0.045406666
217	0xbce0135e	-0.027352985
218	0x3c356c2d	0.011073154
219	0xbcbe2a83	-0.02321363
220	0xbc5ac7b3	-0.013353276
221	0x3c3cd5e4	0.011525605
222	0x3d5a407c	0.053284153
223	0x3d46d22f	0.04854029
224	0xbc0ddc1f	-0.008658438
225	0xbd1196b8	-0.035544127
226	0xbcea663f	-0.028613208
227	0x3b851ae0	0.0040620416
228	0x3cb83164	0.022484489
229	0xbd4acc0c	-0.049511
230	0xbbc1383a	-0.0058965953
231	0xbd034a57	-0.032053318
232	0x3d3b38a1	0.045708302
233	0xbd06549a	-0.032795526
234	0xbd32ebbb	-0.04368184
235	0xbca8f41e	-0.020624217
236	0xbb0eb18d	-0.002177331
237	0x3c9582fa	0.018250931
238	0x3c146d16	0.009059211
239	0xbc8191cc	-0.015816592
240	0xbcbd76ef	-0.023128001
241	0x3cf8ad1c	0.030355982
242	0xbcc40578	-0.023928389
243	0xbd2f2862	-0.04276312
244	0xbd0370fb	-0.03209017
245	0xbd3da94f	-0.046304043
246	0xbc085f87	-0.008323557
247	0x3d2b0db7	0.041761126
248	0xbd243d8c	-0.04009776
249	0xbd287443	-0.0411265
250	0xbd4b7b8b	-0.049678367
251	0xbd0c1fc8	-0.034209996
252	0x3cb9876a	0.022647578
253	0xbcdb344a	-0.026758332
254	0xbbc75ef5	-0.006084318
255	0x3c8e46de	0.017367776

simplicial_nn.2.W2 f4 [5, 64, 64]
0	0x3c91e542	0.017809514
1	0xbd2a2a29	-0.041544113
2	0x3d183de9	0.037168417
3	0xbd523199	-0.05131683
4	0xbd2d20fb	-0.04226778
5	0x3a8f5c60	0.0010937564
6	0xbc35e164	-0.011101101
7	0x3cc8be12	0.024504695
8	0xbc75fa3c	-0.015013274
9	0xbd20f601	-0.039297108
10	0x3c622fcc	0.013805341
11	0xba65e680	-0.0008770004
12	0x3cfa919e	0.030587014
13	0x3cffab02	0.031209473
14	0xbb918778	-0.004441198
15	0xbb033ab0	-0.0020023994
16	0xbd3d6a80	-0.046244144
17	0xbcc565c8	-0.024096385
18	0xbca6ae64	-0.020346828
19	0xbcc74ce5	-0.024328658
20	0x3cdbd45a	0.026834656
21	0x3b565320	0.0032703355
22	0x3d29d5df	0.04146373
23	0x3c39507c	0.011310693
24	0xbd35c7ca	-0.044379987
25	0xbd0eefc5	-0.03489663
26	0x3d16f243	0.036852133
27	0xbcf6c1b3	-0.03012166
28	0xbbab34d8	-0.0052248053
29	0x3d530781	0.05152083
30	0xbd2e8c34	-0.042614177
31	0xbb9d9d78	-0.0048100315
32	0xbc8ccaa4	-0.01718647
33	0x3c959636	0.018260103
34	0x3d47e145	0.04879882
35	0xbd27e783	-0.04099227
36	0xb9cc3100	-0.0003894642
37	0xbcf6f4a8	-0.030145958
38	0xbc0df8e0	-0.008665293
39	0xbce6a92f	-0.028156845
40	0x3beeefe8	0.0072917826
41	0xbcb3dcca	-0.021955866
42	0xbc406858	-0.0117436275
43	0x3c29eb70	0.010371074
44	0x3afdf2a0	0.0019374676
45	0xbd426245	-0.047457
46	0x3d42961b	0.047506433
47	0x3d0b2ab7	0.033976283
48	0xb8ccd400	-9.766966e-05
49	0xbcf481a7	-0.02984698
50	0x3d369219	0.044572923
51	0x3cefa356	0.02925269
52	0x3c8fc246	0.017548691
53	0x3a0cab40	0.00053660944
54	0x3c82333e	0.015893575
55	0x3d1f11a5	0.038835187
56	0xbd5164b7	-0.05112144
57	0x3be28da8	0.0069138594
58	0xbc46ea28	-0.012140788
59	0x3cf31476	0.029672842
60	0x3d17e4e5	0.037083525
61	0x3c3c37c4	0.011487905
62	0xbcd82b9f	-0.026387988
63	0x3c4b063c	0.012391623
64	0xbd3e9841	-0.04653192
65	0x3c438cc4	0.011935417
66	0x3d1ef373	0.03880639
67	0x3b3f66d0	0.0029205568
68	0x3a73f080	0.00093055516
69	0xbc0dcfcc	-0.0086555
70	0xbc9eb36e	-0.019372668
71	0x3cc29f3a	0.023757566
72	0x3a1f47c0	0.000607606
73	0xbcc5fb5d	-0.02416771
74	0xbc24c738	-0.010057263
75	0xbcbdfb59	-0.023191141
76	0x3c164d00	0.009173632
77	0x3d1c1ba9	0.038112316
78	0x3c87ad1e	0.01656204
79	0xbd40d36a	-0.04707662
80	0xbcb76406	-0.022386562
81	0xbb44ac20	-0.003000982
82	0x3d08f153	0.03343327
83	0x3ca822ba	0.020524371
84	0x3c9e779e	0.019344147
85	0xbbd4ee90	-0.0064981654
86	0xbc4c6590	-0.012475386
87	0x3d4cc24b	0.04998998
88	0x3c7faef4	0.015605677
89	0x3cce5a52	0.025189552
90	0xbb2e6f20	-0.0026616529
91	0x3c2c1564	0.010503147
92	0xbbe6b7c0	-0.0070409477
93	0x39980c00	0.0002900064
94	0x3ca8e57a	0.020617235
95	0x3ccd7f3a	0.02508508
96	0x3d0ce16b	0.034394663
97	0x3cbb4f1a	0.022864867
98	0xbc859962	-0.01630849
99	0xbd519770	-0.051169813
100	0xbbfc5c20	-0.007701412
101	0xbceea463	-0.02913112
102	0xbc8e5cfe	-0.017378327
103	0xbd30ce23	-0.043165337
104	0x3cf023be	0.029313918
105	0x3c5aeb6c	0.013361793
106	0xbcc1f230	-0.023675054
107	0xbd4c4c90	-0.049877703
108	0xbd3b6b68	-0.045756727
109	0x3d083b47	0.033259656
110	0x3d49710b	0.04918007
111	0xbc3f2ec8	-0.011668868
112	0x3d34ee55	0.044172604
113	0x3d16c9c5	0.036813516
114	0xbcde57fd	-0.027141565
115	0xbc855a04	-0.016278274
116	0xbc10c2f4	-0.008835543
117	0xbca9ea3e	-0.020741578
118	0x3d378487	0.044804122
119	0x3d072f21	0.03300393
120	0xbcce7f29	-0.025207119
121	0xba5e7f00	-0.00084875524
122	0x3c0403dc	0.008057561
123	0x3c57531c	0.013142373
124	0xbd4ae4db	-0.04953466
125	0xbd25c03d	-0.040466536
126	0x3d3de9e3	0.04636563
127	0xbd544ce9	-0.05183116
128	0x3cb7f900	0.0224576
129	0xbab7b140	-0.0014014617
130	0x3cc10bfc	0.023565285
131	0x3cf5114b	0.029915472
132	0x3c56723c	0.013088759
133	0xba2e77c0	-0.00066554174
134	0x3addc7c0	0.0016920492
135	0x3d3d7ef4	0.04626365
136	0x3d4b31cd	0.04960804
137	0xba0667f4	-0.00051271846
138	0xbd14e11c	-0.036347494
139	0x3c0d806c	0.008636575
140	0xbd118023	-0.03552259
141	0xbd0024b4	-0.031285003
142	0xbd04afaa	-0.03239409
143	0xbcbac026	-0.022796702
144	0x3c05ae0d	0.008159173
145	0xbc8f8388	-0.017518774
146	0x3d53c513	0.051701616
147	0x3b4f6970	0.003164854
148	0x3d3dc1af	0.04632729
149	0x3b47c8a4	0.0030484581
150	0xba56a540	-0.00081880763
151	0x3ceafbe9	0.028684573
152	0x3c460d04	0.012088064
153	0x3cbc6075	0.022995213
154	0xbd34dd8c	-0.044156596
155	0x39c5cb00	0.00037726015
156	0xbc29e27c	-0.0103689395
157	0xbd1dcfa2	-0.038528092
158	0x3d2abd2f	0.041684326
159	0x3d36fabd	0.044672716
160	0xbc94b642	-0.018153314
161	0xbc98847e	-0.018617865
162	0x3bf41aa9	0.007449467
163	0xbc2d4f2a	-0.010577956
164	0xbd0720ed	-0.032990385
165	0x3d4ac787	0.04950669
166	0xbca5a733	-0.020221328
167	0xbc97272d	-0.018451298
168	0x3cd26c87	0.025686515
169	0xbc77f876	-0.015134921
170	0xbd040902	-0.032235153
171	0xbcafb828	-0.021450117
172	0x3c89fab6	0.016843181
173	0xbcb3b4d9	-0.02193682
174	0x3bb1ae29	0.005422373
175	0x3cc43096	0.023948949
176	0xbd3b65b9	-0.045751307
177	0x3c9e066b	0.01929017
178	0x3d0fc40b	0.03509907
179	0xbc0e6341	-0.008690656
180	0x3ce0ba26	0.027432512
181	0xbd54e9b6	-0.051980697
182	0x3d250f9e	0.040298097
183	0xbd250658	-0.040289253
184	0xbd198f6c	-0.037490293
185	0xbd1db357	-0.03850111
186	0x3d19d420	0.037555814
187	0xbd379cc7	-0.04482725
188	0xbd50afdc	-0.050948963
189	0xbc8d1de1	-0.017226161
190	0x3aaca218	0.0013170866
191	0xbc070f0c	-0.008243334
192	0x3d07b2fa	0.03312967
193	0xbd3887c6	-0.04505136
194	0x3d2395dd	0.039937843
195	0x3ccabff3	0.024749732
196	0x3cb59812	0.02216724
197	0x3ca7d45b	0.020487001
198	0xbd3b095a	-0.045663215
199	0x3a9cacc7	0.0011953347
200	0xbc869ecc	-0.016433142
201	0x3bd62c54	0.006536046
202	0xbc83a84c	-0.016071461
203	0xbca52f01	-0.020164015
204	0xbd1fec47	-0.03904369
205	0x3d47bebe	0.04876589
206	0x3ad9bcd0	0.0016612057
207	0xbd2fe3d4	-0.042941883
208	0xbc74de61	-0.014945597
209	0xbc9b89a2	-0.018986527
210	0x3d19640f	0.03744894
211	0xbb852d90	-0.0040642694
212	0xbd20a177	-0.039216485
213	0xbcc22ddd	-0.02370351
214	0x3b8d9d1e	0.0043217083
215	0x3b7563f9	0.0037443622
216	0x3d3ef6bd	0.046622027
217	0xbd2107c0	-0.03931403
218	0x3d12f3b1	0.035876933
219	0xbd1bc122	-0.038025983
220	0x39bdc894	0.00036198332
221	0xbccceb94	-0.025014676
222	0x3bc78a88	0.0060895123
223	0x3bc5a9d0	0.006032206
224	0xbd412e56	-0.04716333
225	0xbd2c2de5	-0.042035956
226	0xbb1ccbb0	-0.0023925118
227	0xbc6e3acc	-0.014540385
228	0xbd01d74b	-0.03169946
229	0x3d0bd9ef	0.034143385
230	0x3d226bb5	0.0396535
231	0x3d2d5037	0.042312827
232	0x3bcdfbc3	0.006286116
233	0xbcd86c13	-0.026418721
234	0x3d1959df	0.037439223
235	0xbd2a50d5	-0.041580994
236	0x3d50a1c9	0.05093554
237	0xbbb449d8	-0.005501967
238	0xbd42cf10	-0.04756075
239	0xbcf6fb15	-0.030149022
240	0x3c9111f5	0.017708758
241	0x3d3c8687	0.046026733
242	0xbc5d4b90	-0.013506785
243	0xbcf3ffb9	-0.029785024
244	0xbd053d96	-0.032529436
245	0x3d0a9187	0.033830192
246	0x3be998ab	0.007128795
247	0xbd3cb006	-0.046066307
248	0xbcf8e0a2	-0.03038055
249	0xbc8f117b	-0.01746439
250	0xbd3bff89	-0.045897994
251	0xbc8dcc18	-0.017309234
252	0x3b9cfac8	0.0047906376
253	0x3c885fc8	0.016647235
254	0xbc0e5479	-0.008687132
255	0xbcb9c6ab	-0.02267774

simplicial_nn.4.W0 f4 [64, 1]
0	0x3d6b146c	0.057392523
1	0xbe8ad5ca	-0.27116233
2	0x3e3de77e	0.18545339
3	0xbd5e341b	-0.05424891
4	0x3c8f2920	0.017475665
5	0xbe543bdd	-0.20725961
6	0x3e55322e	0.20819923
7	0x3ea1f445	0.31631675
8	0xbd4745a2	-0.04865039
9	0x3ebc51a5	0.3678104
10	0xbe9f7c0c	-0.31149328
11	0xbdbfbdc7	-0.09362369
12	0xbe6d03e9	-0.23146023
13	0x3ecd1356	0.40053815
14	0xbea44063	-0.32080373
15	0xbe1607cd	-0.14651413
16	0xbed7ef41	-0.42174724
17	0x3e90fff2	0.2832027
18	0x3eb4e48f	0.35330626
19	0xbeafecfc	-0.34360492
20	0x3eda4ecd	0.42638245
21	0x3e8dd436	0.27700967
22	0x3e6d9cda	0.23204365
23	0x3ebea595	0.37235704
24	0xbe83204d	-0.2561058
25	0xbebae3eb	-0.36502013
26	0x3e4e39a1	0.20139171
27	0xbdb02228	-0.08600265
28	0xbeb7ccb6	-0.3589837
29	0xbe4dec00	-0.20109558
30	0x3df0979c	0.11747667
31	0xbeb6cc2c	-0.35702646
32	0xbe1dabe5	-0.15397604
33	0xbd97eda4	-0.07418373
34	0xbe8ba74f	-0.27276084
35	0x3d43d3e2	0.04780949
36	0xbe34cc0d	-0.17655964
37	0xbb9bc1c0	-0.0047533214
38	0xbe928789	-0.2861903
39	0x3ec72f0a	0.38903075
40	0xbe06670c	-0.13125247
41	0xbea21b2a	-0.3166135
42	0xbe82da35	-0.25557104
43	0xbeb7ccfa	-0.35898572
44	0x3ed0055c	0.4062909
45	0xbdf9cbf4	-0.12197104
46	0xbea2df05	-0.31810775
47	0xbd468188	-0.048463374
48	0xbeda5a4c	-0.42647016
49	0x3e303b45	0.1721011
50	0x3ea8dbf7	0.3298032
51	0x3e469869	0.19394077
52	0x3d177520	0.036976933
53	0xbe02bde2	-0.12767747
54	0xbe9ab0a2	-0.30212885
55	0xbd4eff90	-0.050536692
56	0xbecc4305	-0.39894882
57	0x3dc6e7a4	0.09712151
58	0xbebfdd89	-0.37473705
59	0x3de195fc	0.110149354
60	0x3ecc46b5	0.39897695
61	0x3eaabd68	0.3334763
62	0xbea1cd9c	-0.3160218
63	0x3dc2f6ac	0.09519705

simplicial_nn.4.W1 f4 [5, 64, 1]
0	0x3e566f8a	0.20940986
1	0x3e8757cd	0.26434174
2	0x3e539122	0.20660833
3	0x3b96f0c3	0.0046063378
4	0xbea4f20b	-0.32215914
5	0x3ea85697	0.32878563
6	0x3e762142	0.24036124
7	0x3d70a35f	0.058749553
8	0xbd9c4381	-0.07630063
9	0x3e9d4550	0.30716944
10	0x3e739dba	0.23790637
11	0x3d19a61b	0.037511926
12	0xbe814b9e	-0.25253004
13	0x3e5b5119	0.21417655
14	0x3d624010	0.055236876
15	0x3e69d6c3	0.22835831
16	0x3e8ddacc	0.2770599
17	0xbe4b43f4	-0.19850141
18	0x3e1e7a52	0.15476349
19	0x3e31ba5a	0.17356244
20	0xbdfc74f0	-0.123269916
21	0x3e4af0b3	0.19818382
22	0xbb8c77c1	-0.0042867367
23	0xbe0c9e07	-0.13732158
24	0xbecd21ec	-0.40064943
25	0xbebb8200	-0.3662262
26	0xbeabdc9a	-0.33566743
27	0x3d4da8d8	0.05020985
28	0xbd38301c	-0.044967756
29	0x3d330088	0.04370168
30	0xbe9d76cf	-0.30754706
31	0xbdf17c68	-0.11791307
32	0x3ea554a5	0.3229114
33	0xbe96671d	-0.29375544
34	0xbec7dbfa	-0.39035016
35	0xbe41c506	-0.18922815
36	0x3e5a7a65	0.21335752
37	0x3d8b3b6c	0.06798443
38	0xbea545fa	-0.3227995
39	0x3e8ab3be	0.27090257
40	0x3ed00fcc	0.40637052
41	0x3bbdd4ec	0.0057932045
42	0x3ed06497	0.40701744
43	0x3ebd4865	0.36969295
44	0x3ea6bc0c	0.32565343
45	0x3ebfa5d7	0.37431213
46	0xbe366982	-0.17813686
47	0x3eb4c30f	0.35305068
48	0x3daae440	0.083443165
49	0xbd9f2d9c	-0.07772371
50	0x3ea6f961	0.32612136
51	0xbea34116	-0.31885594
52	0x3cfb0b60	0.030645072
53	0x3dcab198	0.098971546
54	0xbeb2537c	-0.3482932
55	0x3cde8a30	0.027165502
56	0xbe989c39	-0.29806688
57	0x3e506902	0.20352557
58	0xbe57abe8	-0.21061671
59	0xbe8461ae	-0.25855774
60	0x3e856e91	0.26060918
61	0xbe085f40	-0.13317585
62	0xbc9c3f0a	-0.019073028
63	0x3e92bb3b	0.2865847
64	0x3e56bb6b	0.20969932
65	0xbe06caac	-0.1316325
66	0x3e83566a	0.25651866
67	0x3d9644ec	0.073373646
68	0x3dcf02dc	0.10107967
69	0xbe7a1c23	-0.24424796
70	0xbe8626e4	-0.26201546
71	0xbe8c29ca	-0.27375633
72	0xbe9e8ee2	-0.30968386
73	0xbea80361	-0.32815078
74	0x3e59aaf2	0.21256617
75	0xbe5ce6b3	-0.2157238
76	0x3e13b1f9	0.1442336
77	0xbeb8e20d	-0.36109963
78	0x3e50c071	0.2038591
79	0xbe3ab742	-0.1823397
80	0xbe5c6290	-0.21521974
81	0x3e5fbacd	0.21848603
82	0x3ebd5e1a	0.36985856
83	0xbea73246	-0.32655543
84	0xbec13578	-0.37736106
85	0xbe59ae59	-0.21257915
86	0x3e761c0c	0.24034137
87	0xbecafe72	-0.3964725
88	0xbec9f44b	-0.39444193
89	0xbec23f8b	-0.37939104
90	0x3eb3de20	0.35130405
91	0x3d9c8358	0.07642239
92	0xbc3cbfb8	-0.011520319
93	0xbe7fb64a	-0.24971882
94	0x3eb2673d	0.3484439
95	0x3d3010e8	0.042984873
96	0xbecb7098	-0.3973434
97	0xbcaca7d5	-0.021076122
98	0x3d8eb081	0.06967259
99	0x3d10a6b7	0.03531524
100	0xbd84a276	-0.064762995
101	0x3e38bcc9	0.18040766
102	0xbe74542c	-0.23860234
103	0xbea8e944	-0.32990468
104	0xbe2a9541	-0.16658498
105	0xbec0d58e	-0.3766293
106	0x3dd4ed7c	0.10396859
107	0x3de0fc14	0.1098558
108	0x3dca4365	0.09876136
109	0x3da239b4	0.07921162
110	0x3ed2034d	0.41018143
111	0xbe5b078b	-0.21389596
112	0x3e99871d	0.29985896
113	0xbe26b61e	-0.1628041
114	0xbe306b45	-0.1722842
115	0xbe54310a	-0.20721832
116	0xbe5a8146	-0.21338376
117	0x3e0689e7	0.13138543
118	0x3c52925f	0.01285228
119	0x3ea069e7	0.31330797
120	0x3def141c	0.116737574
121	0xbecb08e2	-0.39655215
122	0xbe3b8c16	-0.18315157
123	0x3d554da8	0.052076012
124	0xbe563383	-0.20918088
125	0xbdd727ff	-0.105056755
126	0x3e94a5e1	0.29032806
127	0x3e1c1efa	0.15246192
128	0xbe2367b4	-0.15957528
129	0xbebc24f9	-0.36746958
130	0xbe91dc06	-0.28488177
131	0xbdb138e2	-0.08653428
132	0x3daf3b74	0.08556262
133	0x3ea0d664	0.31413567
134	0xbe1fb3c2	-0.15595916
135	0xbeb21245	-0.34779564
136	0xbe6ed935	-0.23325045
137	0x3e753025	0.23944147
138	0x3dfcd4bc	0.12345263
139	0xbeb29932	-0.34882504
140	0xbec48d5b	-0.38389096
141	0xbe1a5abc	-0.15073675
142	0x3dea4b2a	0.11440118
143	0xbdcde4fe	-0.100534424
144	0xbe8708d7	-0.26373932
145	0xbebb7639	-0.36613634
146	0x3ea40896	0.320378
147	0x3ddaadfc	0.10677716
148	0xbec7339a	-0.38906556
149	0x3eb87478	0.3602636
150	0x3b8f6302	0.0043758163
151	0xbeae7a5b	-0.34077725
152	0xbed107fe	-0.4082641
153	0x3d8795da	0.06620379
154	0x3ec1d30d	0.3785633
155	0xbeae5a77	-0.34053394
156	0xbea95f98	-0.33080745
157	0xbe2e33fe	-0.17012021
158	0xbeaaafb8	-0.33337188
159	0x3e92b48b	0.28653368
160	0xbeb16b85	-0.34652343
161	0xbe92128e	-0.2852978
162	0x3ec93e0b	0.39305148
163	0xbea7cf90	-0.32775545
164	0x3ed3f6ae	0.4139914
165	0x3eb4bea7	0.35301706
166	0x3e040ac9	0.12894739
167	0x3e2a5f7d	0.16637988
168	0xbe97a8a4	-0.2962085
169	0x3db7bc67	0.08971482
170	0x3d81594d	0.06315861
171	0x3e30aaca	0.17252651
172	0x3ed15d3b	0.40891442
173	0x3ebd1d83	0.36936578
174	0x3e3ec4f5	0.1862982
175	0xbeacba74	-0.33736002
176	0x3e49e7e6	0.19717368
177	0x3e3b599b	0.182959
178	0xbe3e9f3d	-0.18615432
179	0x3eafa6ab	0.34306845
180	0x3e77310e	0.24139807
181	0x3eaf6a48	0.34260774
182	0x3ec0f2de	0.37685293
183	0xbe583a69	-0.21116032
184	0x3e31ebc6	0.17375097
185	0x3e51153a	0.20418254
186	0x3e50671e	0.20351836
187	0xbc8f9ed0	-0.017531782
188	0x3e293096	0.1652244
189	0x3eca5622	0.3951884
190	0xbeaaaeb2	-0.33336407
191	0x3eba1b5f	0.36349007
192	0xbebb0412	-0.36526543
193	0xbeca1e56	-0.3947627
194	0xbec25593	-0.37955913
195	0x3eb9beb3	0.36278304
196	0xbe51378c	-0.20431346
197	0xbe8d24f5	-0.27567258
198	0x3e615f6e	0.2200906
199	0xbe5cd139	-0.21564187
200	0xbe96c147	-0.29444334
201	0xbe9d3924	-0.30707657
202	0x3d5b3a08	0.05352214
203	0xbe45d95f	-0.19321202
204	0x3e321941	0.17392446
205	0xbe4b305a	-0.19842663
206	0x3d9cb6ef	0.07652079
207	0xbd854ae7	-0.06508427
208	0xbeb31e52	-0.3498407
209	0x3e3f1f5c	0.18664306
210	0x3daf1021	0.08547998
211	0x3e8abccb	0.27097163
212	0xbe356b39	-0.17716683
213	0x3e6cdc87	0.23131
214	0xbe6f6444	-0.23378092
215	0x3e666b6a	0.22501913
216	0xbe13c8e8	-0.14432108
217	0xbe3c0de2	-0.18364671
218	0xbd951c0c	-0.0728074
219	0xbdaeb0f0	-0.08529842
220	0x3e87f0ae	0.26550812
221	0xbeae29d0	-0.34016275
222	0x3ea54db3	0.32285842
223	0xbe1c1060	-0.15240622
224	0x3db16ec6	0.086637065
225	0xbd5f8558	-0.054570526
226	0xbdc740b1	-0.09729136
227	0xbe4729e1	-0.1944957
228	0x3e8e66e2	0.27812868
229	0xbe11264e	-0.14174768
230	0xbe6a8086	-0.2290059
231	0xbe8273be	-0.2547893
232	0x3e9d90b1	0.30774453
233	0xbecfa9a4	-0.40559113
234	0xbe9a7814	-0.30169737
235	0x3cbb8430	0.02289018
236	0x3e345077	0.1760882
237	0x3dd19f5c	0.102354735
238	0x3e14bf89	0.1452619
239	0xbe44251c	-0.19154781
240	0x3e97aabc	0.29622447
241	0xbebd242b	-0.36941656
242	0x3e4c4c36	0.19950947
243	0xbe6f9c09	-0.23399366
244	0x3e0ee212	0.13953426
245	0x3bb5ecb0	0.005551897
246	0xbe2cf844	-0.16891581
247	0x3e3a9276	0.18219933
248	0xbdf700b4	-0.12060681
249	0x3c68b6df	0.014203756
250	0x3c469439	0.0121203
251	0x3e8dc599	0.27689818
252	0x3e856201	0.26051334
253	0x3e0d8741	0.13821127
254	0x3e0394c3	0.12849717
255	0xbe929aeb	-0.28633818
